runs/PlainCNN_aniso_std0.2_gamma2_lr0.002/model.pt (torch, 109053 bytes, 18 tensors)

first.weight f4 [20, 1, 3, 3]
-0.016213782 -0.0594757 -0.9295647 -0.22517402 -0.09330362 -0.14187866 0.11636737 -0.12532309
-0.3292511 0.106027186 0.18611924 0.18771759 -0.007105122 -0.15207113 0.251779 0.26844645
-0.5611944 -0.49578658 -0.12067943 -0.41342822 -0.34561613 -0.17465012 -0.25745428 0.28044492
0.16069818 0.028822927 0.5229807 -0.4183961 -0.08456115 0.09580702 -0.029008685 0.26543003
-0.11419465 0.15434733 0.06112801 -0.09931929 -0.86554486 0.2635936 0.31415766 0.15649629
0.26296437 -0.041365765 0.1886437 0.11712467 -0.49254233 -0.06030452 -0.058224984 0.19497028
-0.23604509 -0.03419409 0.29823017 0.06359398 -0.4032477 -0.016190266 -0.24245377 0.06987262
-0.07091499 -0.06227709 0.30104458 0.20978428 0.16319735 0.50601673 0.4167536 -0.21897668
0.09704693 0.107004486 -0.17359106 -0.5798239 -0.044415157 0.5309078 0.19210844 -0.36597648
0.094669566 -0.002055753 0.54394096 0.060723368 0.25748336 -0.4593412 -0.05586756 -0.44255573
-0.18004878 0.44918287 0.01739551 -0.12638226 -0.005804534 -0.15984063 -0.102933146 -0.42245144
0.053540032 0.20695281 -0.24844079 -0.14161508 -0.20598763 -0.11128278 0.116118506 -0.10004869
0.04774902 -0.043572493 -0.27826634 0.244538 -0.00621296 -0.11717473 -0.31720492 -0.32562324
0.07496894 0.22733283 -0.06612485 0.2840758 0.21075109 0.1503969 -0.33381096 0.34075752
0.38038895 -0.039745837 0.28274736 0.3275988 -0.13716026 -0.0032911804 0.4028366 0.020967491
-0.18524855 0.30598885 0.12499724 -0.3193778 -0.17188203 -0.2036363 0.16308619 -0.044603154
-0.24668236 0.41862988 0.28646702 0.055510033 0.3469345 0.37919614 0.020845251 -0.10736209
-0.07265066 0.20451108 0.023494223 -0.20924425 0.088721104 0.25977015 -0.23808609 -0.43862718
-0.0428229 -0.1638477 -0.14006233 0.30619746 0.39852616 -0.00028227462 0.5098217 0.44776484
-0.14722514 -0.06653205 0.20377937 -0.044492833 0.10562696 0.42530945 0.18537907 0.108967714
0.31595543 0.057223674 0.3405114 0.3698548 0.061543096 -0.18352674 -0.12379613 -0.17420487
-0.24135488 -0.16393586 0.029813506 0.20214051 0.033176355 -0.037633963 0.18663687 0.19636443
-0.04725858 -0.25116542 0.06313959 -0.23228367
00000000: c4d2 84bc cb9c 73bd f4f7 6dbf 0594 66be
00000010: f815 bfbd a448 11be 0452 ee3d b254 00be
00000020: 9a93 a8be c824 d93d 0b96 3e3e 0a39 403e
00000030: 15d2 e8bb 89b8 1bbe 2de9 803e d071 893e
00000040: 70aa 0fbf bdd7 fdbe c726 f7bd ddac d3be
00000050: 99f4 b0be 7bd7 32be 0cd1 83be 7a96 8f3e
00000060: 108e 243e 0f1e ec3c 10e2 053f 0338 d6be
00000070: 652e adbd 7936 c43d 9fa3 edbc 72e6 873e
00000080: e2de e9bd 3a0d 1e3e 5d61 7a3d e967 cbbd
00000090: 5994 5dbf bef5 863e 46d9 a03e 9040 203e
000000a0: 44a3 863e 266f 29bd d02b 413e 0fdf ef3d
000000b0: 822e fcbe df01 77bd 527d 6ebd 4aa6 473e
000000c0: ceb5 71be 1a0f 0cbd a0b1 983e 903d 823d
000000d0: 7c76 cebe 73a1 84bc cd45 78be 6019 8f3d
000000e0: e13b 91bd 4316 7fbd 8422 9a3e b1d1 563e
000000f0: 351d 273e 508a 013f ba60 d53e 6c3b 60be
00000100: 8ac0 c63d 2b25 db3d dbc1 31be 576f 14bf
00000110: abec 35bd 93e9 073f 13b8 443e 4561 bbbe
00000120: 1ee2 c13d d0b9 06bb b73f 0b3f 11b9 783d
00000130: dcd4 833e c52e ebbe 62d5 64bd aa96 e2be
00000140: b55e 38be 4cfb e53e 0781 8e3c 5a6a 01be
00000150: f633 bebb 43ad 23be 9dce d2bd 8e4b d8be
00000160: cb4c 5b3d 70eb 533e 4367 7ebe 8b03 11be
00000170: 6cee 52be 3ae8 e3bd 8acf ed3d 54e6 ccbd
00000180: 7a94 433d 1279 32bd ed78 8ebe 2b68 7a3e
00000190: 1696 cbbb 4ef9 efbd af68 a2be 17b8 a6be
000001a0: 5189 993d f0c9 683e 776c 87bd 6272 913e
000001b0: 22cf 573e a501 1a3e 45e9 aabe c577 ae3e
000001c0: 57c2 c23e 88cc 22bd 43c4 903e 08bb a73e
000001d0: bd73 0cbe d8b0 57bb 9940 ce3e 04c4 ab3c
000001e0: ccb1 3dbe 92aa 9c3e 8efe ff3d 7d85 a3be
000001f0: d801 30be 0986 50be 1100 273e ccb1 36bd
00000200: 4d9a 7cbe a856 d63e ceab 923e 7d5e 633d
00000210: 66a1 b13e ff25 c23e a9c3 aa3c a8e0 dbbd
00000220: dfc9 94bd 5a6b 513e f576 c03c 2044 56be
00000230: 69b3 b53d 9800 853e d7cc 73be be93 e0be
00000240: 1167 2fbd b1c7 27be 806c 0fbe eac5 9c3e
00000250: 9f0b cc3e 42fe 93b9 ad83 023f 6f41 e53e
00000260: 30c2 16be f541 88bd 8aab 503e 1e3e 36bd
00000270: f352 d83d 29c2 d93e 03d4 3d3e 772a df3d
00000280: e9c4 a13e 5f63 6a3d 8357 ae3e 9c5d bd3e
00000290: 9d14 7c3d 6fee 3bbe d388 fdbd c362 32be
000002a0: bc25 77be cdde 27be 743b f43c ecfd 4e3e
000002b0: eee3 073d 1226 1abd bc1d 3f3e c213 493e
000002c0: 3692 41bd c198 80be 544f 813d c5db 6dbe

first.bias f4 [20]
-0.021009171 -0.057401583 -0.1104868 0.12458042 -0.14208414 0.19230558 -0.24052386 -0.050250452
-0.061602317 0.025470069 0.24994053 -0.078425184 -0.12599972 -0.051530205 -0.06539875 0.40584546
-0.21359149 -0.23013173 -0.10903626 0.07648345
00000000: 6d1b acbc ec1d 6bbd e746 e2bd 0524 ff3d
00000010: 817e 11be c1eb 443e e34b 76be 6bd3 4dbd
00000020: b652 7cbd 9ba6 d03c 69f0 7f3e 629d a0bd
00000030: 1206 01be 5611 53bd c8ef 85bd faca cf3e
00000040: bab7 5abe a7a7 6bbe 674e dfbd 5ba3 9c3d

hiddens.0.weight f4 [20, 20, 3, 3]
-0.08095639 -0.0835012 -0.08242147 0.048185486 0.010054181 0.019795239 -0.05055611 -0.036038544
-0.0050188894 -0.0011048936 -0.024419721 0.0614589 0.027245566 -0.04424979 -0.06798306 -0.07646044
0.009500304 -0.07062726 -0.059198193 -0.06339498 -0.074569434 -0.06267029 -0.08794996 0.016324826
-0.03722913 -0.07015205 -0.007103116 -0.019681238 -0.033798162 -0.008396053 0.01307284 0.0005598846
0.038439922 0.057247113 -0.037642565 0.011249217 -0.056864586 0.022004053 0.06063658 0.009664606
0.021339798 0.037545428 -0.033652738 0.06292598 0.029274639 0.010449984 -0.0380326 -0.0494506
-0.05657598 -0.08391825 -0.0052841213 0.017454471 0.032709163 -0.014504702 -0.042246383 -0.05112975
-0.036587924 -0.037638452 0.043346725 -0.02215787 -0.086550586 -0.06888352 -0.026684452 0.029811213
-0.050749723 -0.0410819 -0.06273138 0.0528894 -0.13797605 -0.0047675623 -0.004537432 0.02030208
-0.029429825 0.013952297 -0.11631653 -0.020430565 -0.033342578 -0.046129294 -0.025370574 -0.019739535
-0.021650722 -0.08124675 -0.027963215 -0.024574047 -0.042500064 0.024906052 -0.00014406568 0.046870247
-0.047211044 0.050214797 0.035487078 0.04546662 0.01687283 0.049030263 -0.06625401 0.015353474
-0.08272102 0.030926347 0.019386726 -0.07432675 -0.09620531 -0.040315434 -0.06398173 0.012557574
-0.03766028 -0.029929565 0.026662286 -0.09183088 0.047963466 -0.04504336 0.014336494 -0.039468154
0.028312644 -0.01837936 0.03336994 0.0019518122 -0.008497617 -0.0227886 -0.07782504 -0.030597372
0.023332015 -0.07675973 -0.060515817 0.033837408 0.0050880574 0.02660713 0.06282091 -0.03913819
-0.052113052 0.0020721708 -0.066348545 -0.015407643 0.033755913 0.05587989 0.011564856 -0.081645995
-0.05617535 -0.078483 -0.014443979 -0.002625507 -0.053138807 -0.06918618 -0.044774294 -0.06980023
-0.074284226 -0.022024473 0.04580125 -0.024256742 0.027347429 0.028317295 0.014135941 0.029442213
0.00724186 0.004095729 -0.04594445 -0.0022368904 -0.021662775 -0.029814277 -0.013677196 -0.04907721
-0.075808905 0.050170235 0.018181106 -0.060725283 -0.025526326 0.021690851 -0.0155177545 -0.047339372
-0.047954284 0.038353674 -0.053849585 0.026092933 -0.008317557 0.049274027 0.046147186 -0.0071960734
0.052352045 -0.03267223 -0.05605958 0.042464506 0.004793925 -0.07929308 -0.061577458 -0.042645812
-0.04165288 -0.057333726 -0.017556064 -0.06309555 -0.06379374 0.028807918 -0.04108652 -0.017970234
-0.057605576 0.01245297 -0.08790192 -0.066201806 -0.061357487 -0.104695834 0.041582648 -0.04889653
0.0065993266 -0.07536255 -0.12396767 -0.007490461 0.013828834 -0.039471116 -0.026640521 -0.027280757
-0.028394869 -0.057648517 -0.09897374 -0.041970123 -0.09612174 -0.034377538 0.04209924 -0.065505594
-0.069964744 0.04244784 -0.025541773 -0.067456715 -0.02655762 -0.006860744 -0.03790292 -0.11788066
0.0028241763 -0.084518984 -0.105745286 -0.0073695355 -0.042301375 -0.124160334 0.037760336 -0.08211134
-0.076748565 -0.1377434 -0.076457635 -0.059881862 -0.055872306 0.042974994 -0.14623989 -0.016850017
-0.038690455 -0.057015534 -0.05369072 0.037505604 0.05106575 -0.047413778 -0.0283279 -0.009731788
-0.023272572 0.030192163 -0.066284664 0.07027109 -0.04380183 -0.012801579 -0.0071340515 -0.016609862
00000000: 77cc a5bd ad02 abbd 96cc a8bd 255e 453d
00000010: 4bba 243c a029 a23c ec13 4fbd 279d 13bd
00000020: 7f75 a4bb 14d2 90ba de0b c8bc 54bc 7b3d
00000030: 1832 df3c 453f 35bd b43a 8bbd 4b97 9cbd
00000040: 2aa7 1b3c 06a5 90bd ce79 72bd 3ad5 81bd
00000050: dcb7 98bd 4859 80bd 1c1f b4bd a4bb 853c
00000060: 927d 18bd e1ab 8fbd 41c1 e8bb 8c3a a1bc
00000070: f16f 0abd 998f 09bc 772f 563c 38c5 123a
00000080: 2e73 1d3d f37b 6a3d 172f 1abd a34e 383c
00000090: d7ea 68bd d841 b43c 105e 783d 4c58 1e3c
000000a0: cdd0 ae3c 3cc9 193d 74d7 09bd 56df 803d
000000b0: 5ed1 ef3c 6936 2b3c 12c8 1bbd b68c 4abd
000000c0: 37bc 67bd 55dd abbd 6c26 adbb aefc 8e3c
000000d0: 0bfa 053d 21a5 6dbc 8b0a 2dbd 6e6d 51bd
000000e0: 38dd 15bd c72a 1abd 568c 313d 6c84 b5bc
000000f0: 6f41 b1bd ce12 8dbd 5a99 dabc a536 f43c
00000100: f1de 4fbd 7f45 28bd 4f79 80bd 8ea2 583d
00000110: 9849 0dbe 3639 9cbb bdae 94bb 8c50 a63c
00000120: d116 f1bc 2d98 643c 5c37 eebd 005e a7bc
00000130: 3a92 08bd 12f2 3cbd f3d5 cfbc ceb4 a1bc
00000140: db5c b1bc b264 a6bd 1d13 e5bc 834f c9bc
00000150: 8c14 2ebd c707 cc3c 5610 17b9 04fb 3f3d
00000160: 5e60 41bd 08ae 4d3d e65a 113d 353b 3a3d
00000170: e438 8a3c f5d3 483d 2fb0 87bd 238d 7b3c
00000180: a369 a9bd 4059 fd3c e9d0 9e3c a038 98bd
00000190: 4a07 c5bd cc21 25bd da08 83bd 48be 4d3c
000001a0: aa41 1abd d92e f5bc de6a da3c d411 bcbd
000001b0: 5775 443d 637f 38bd 9de3 6a3c 5ca9 21bd
000001c0: ebef e73c 5090 96bc ebae 083d f3d3 ff3a
000001d0: 9739 0bbc 28af babc bc62 9fbd 57a7 fabc
000001e0: c822 bf3c 3534 9dbd 6fdf 77bd 1899 0a3d
000001f0: b8b9 a63b 32f7 d93c 40a8 803d 5e4f 20bd
00000200: 7f74 55bd 42cd 073b bfe1 87bd 5770 7cbc
00000210: a443 0a3d 50e2 643d 867a 3d3c 0436 a7bd
00000220: 2018 66bd b2bb a0bd 70a6 6cbc b310 2cbb
00000230: 14a8 59bd 7cb1 8dbd 4065 37bd 6cf3 8ebd
00000240: 5422 98bd ab6c b4bc 179a 3b3d 13b6 c6bc
00000250: b707 e03c acf9 e73c 6f9a 673c cc30 f13c
00000260: 204d ed3b 7735 863b 3f30 3cbd cb98 12bb
00000270: 2276 b1bc 123d f4bc 5116 60bc 2f05 49bd
00000280: b341 9bbd 4e7f 4d3d 8bf0 943c 13bb 78bd
00000290: 961c d1bc 03b1 b13c 2e3e 7ebc eee6 41bd
000002a0: b66b 44bd be18 1d3d 6291 5cbd d9c0 d53c
000002b0: 5d46 08bc 90d3 493d d504 3d3d 0acd ebbb
000002c0: 196f 563d 51d3 05bd bb9e 65bd 43ef 2d3d
000002d0: 5c16 9d3b 6964 a2bd a538 7cbd 60ad 2ebd
000002e0: 369c 2abd c5d6 6abd bcd1 8fbc 3d38 81bd
000002f0: 4ba6 82bd 95fe eb3c 574a 28bd 5036 93bc
00000300: d3f3 6bbd 8b07 4c3c ec05 b4bd d094 87bd
00000310: fd51 7bbd c56a d6bd 9152 2a3d ba47 48bd
00000320: 2a3f d83b ae57 9abd c3e2 fdbd 8b72 f5bb
00000330: 5592 623c 77ac 21bd 393d dabc e57b dfbc
00000340: 5b9c e8bc da20 6cbd bfb2 cabd dde8 2bbd
00000350: 7adb c4bd 76cf 0cbd 4170 2c3d cc27 86bd
00000360: ad49 8fbd c9dd 2d3d fb3c d1bc bf26 8abd
00000370: 5e8f d9bc 18d0 e0bb 1840 1bbd 6a6b f1bd
00000380: d115 393b 4a18 adbd fc90 d8bd 257c f1bb
00000390: 3544 2dbd c647 febd 95aa 1a3d fd29 a8bd
000003a0: 5a2e 9dbd 9b0c 0dbe d295 9cbd af46 75bd
000003b0: 5cda 64bd 8c06 303d e9bf 15be 0c09 8abc
000003c0: e279 1ebd 1f89 69bd cdea 5bbd 7a9f 193d
000003d0: 522a 513d f334 42bd ea0f e8bc 1472 1fbc
000003e0: 1fa6 bebc 8e55 f73c 41c0 87bd 4aea 8f3d
000003f0: 8c69 33bd b7bd 51bc c3c4 e9bb 6811 88bc

hiddens.0.bias f4 [20]
-0.08103067 -0.02574602 0.23368631 -0.037310917 -0.029618843 0.0022472462 -0.08650155 0.13294141
-0.054149818 -0.014640078 -0.051522028 0.0026866111 -0.060730163 -0.07677724 -0.079647906 -0.17821161
-0.040724106 -0.13140592 0.0055623353 0.0130931325
00000000: 68f3 a5bd 51e9 d2bc 774b 6f3e 55d3 18bd
00000010: 37a3 f2bc 8946 133b ba27 b1bd cb21 083e
00000020: 33cc 5dbd f0dc 6fbc c308 53bd db11 303b
00000030: 31c0 78bd 633d 9dbd 711e a3bd 1b7d 36be
00000040: 52ce 26bd 468f 06be 4044 b63b 9484 563c

hiddens.2.weight f4 [20, 20, 3, 3]
-0.036483128 -0.009494896 -0.048420027 0.018474108 -0.033558242 -0.050103664 0.056582358 -0.04516558
0.03501249 0.05206546 0.03953268 0.055263 -0.055369537 -0.079525 0.05493022 -0.041646715
0.0054749786 -0.024305923 -0.68597674 -0.47170183 -0.14283079 -0.3542259 -0.45398968 -0.3236475
0.04773713 0.03563266 0.14007922 0.0011471034 -0.033056032 -0.026460312 -0.009296605 0.029808996
0.062718846 0.053002935 -0.021252038 0.055388644 -0.01726242 0.027410526 0.03208377 0.027702492
-0.038429577 -0.13603951 -0.05013962 -0.023820404 0.0038008054 0.020725848 -0.027719202 0.0042247134
0.01724599 -0.008312562 0.0044311928 -0.0049130158 -0.031408973 -0.03293103 -0.025018761 0.0029674468
-0.0016358834 -0.11455541 0.059755154 -0.021715786 0.0058129397 -0.035356607 -0.07759742 0.09145115
0.09456913 0.0966426 0.09911918 0.05599901 0.11646121 0.016085008 0.039675895 -0.015993103
-0.050681353 -0.051574472 0.017317908 -0.017602228 -0.059979733 -0.007220195 -0.06283842 -0.026005074
0.050658744 0.011348904 0.04011805 -0.07559837 0.026443016 0.015160228 0.0027840335 0.07669349
0.12336506 0.17457908 -0.047451265 0.016616715 -0.010541154 -0.006310985 -0.050678037 0.03850897
-0.022925058 -0.046208344 -0.010369242 0.062290724 0.15125753 0.114201926 0.11038112 0.022953084
0.13582036 0.041148543 0.06576451 0.005671054 -0.025741164 -0.019255914 0.011648399 -0.0948689
0.046202645 -0.0074640415 0.03708859 0.04655541 0.0032871682 -0.041691493 0.048454188 -0.01379616
0.0053373096 -0.033257898 0.019655732 -0.009615774 0.012966062 -0.046152577 -0.025502691 0.06377214
-0.034108113 0.032592535 0.032279845 -0.03133343 0.053464465 0.0032506643 0.06613141 -0.3142808
-0.28110236 -0.27489 -0.30993196 -0.36077428 -0.20931055 -0.17640162 -0.15893777 -0.15523691
-0.031763695 0.052051768 0.060608722 -0.025134897 -0.07678475 -0.020060869 -0.079179116 0.04968544
0.010787778 -0.013289835 -0.032943215 -0.032457236 -0.100629136 -0.013990012 -0.0341725 -0.07072018
-0.004601767 -0.1099122 0.0148434695 0.052449748 -0.05604071 0.036626484 -0.049957525 0.0045559425
0.019804604 0.08345045 0.025432795 -0.06627219 0.010776806 -0.06160759 0.018457305 -0.034026615
0.026584458 -0.033005416 0.08771604 0.090328604 0.014940883 -0.05534709 -0.05172195 -0.005916157
0.017984008 -0.045240276 0.02833482 0.0123445215 -0.057691656 0.0151068 0.033914138 0.0059861937
-0.015505026 -0.035306815 0.05172012 0.008562129 -0.039553728 0.03581447 -0.08223108 -0.051914457
-0.10004126 -0.086236835 -0.10704797 -0.08910164 -0.12741557 -0.044068076 -0.03518758 0.08440885
0.0005915191 0.04693519 0.01374922 0.00071023195 -0.0070023774 0.029330332 0.04838771 -0.030583428
0.023647634 -0.058321998 0.0062052924 0.009388492 0.032105114 0.006325767 -0.055212524 -0.0385108
0.02621625 -0.05463839 -0.04441985 0.0547125 -0.02455062 0.056323633 -0.07781782 -0.022664785
-0.043171242 0.05118077 0.037067212 -0.06267306 -0.008588569 -0.018739102 -0.02995756 -0.030298812
-0.054027073 -0.08498733 0.024597801 -0.027463758 0.00061266834 -0.007829806 0.023376547 -0.029827531
-0.047876503 -0.07750187 -0.078141496 -0.0778635 -0.078237794 -0.032900784 -0.014037556 -0.044661053
00000000: 556f 15bd 7b90 1bbc 1454 46bd 0357 973c
00000010: 5e74 09bd 8039 4dbd e7c2 673d 8bff 38bd
00000020: 4269 0f3d 9742 553d 05ed 213d 755b 623d
00000030: 2bcb 62bd 01de a2bd 83fe 603d bf95 2abd
00000040: 7367 b33b 371d c7bc 2c9c 2fbf e782 f1be
00000050: 3c42 12be 195d b5be 5671 e8be 20b5 a5be
00000060: 0288 433d 8df3 113d ed70 0f3e 675a 963a
00000070: c365 07bd 4cc3 d8bc ca50 18bc ff31 f43c
00000080: bd72 803d 9b19 593d c118 aebc 34df 623d
00000090: eb69 8dbc 0a8c e03c 456a 033d 56f0 e23c
000000a0: 5568 1dbd f14d 0bbe 345f 4dbd 0223 c3bc
000000b0: ef16 793b 41c9 a93c 6113 e3bc 776f 8a3b
000000c0: 7647 8d3c 6931 08bc 8a33 913b 5dfd a0bb
000000d0: b2a6 00bd b0e2 06bd 25f4 ccbc 7f79 423b
000000e0: 236b d6ba 079c eabd d2c1 743d 4ee5 b1bc
000000f0: 797a be3b 17d2 10bd 65eb 9ebd be4a bb3d
00000100: 76ad c13d 8eec c53d fffe ca3d 385f 653d
00000110: 3783 ee3d b5c4 833c 3183 223d f803 83bc
00000120: 4097 4fbd c13f 53bd 49de 8d3c 8c32 90bc
00000130: 4fad 75bd 6397 ecbb 6eb1 80bd 9808 d5bc
00000140: 8b7f 4f3d c1f0 393c d352 243d 51d3 9abd
00000150: 069f d83c 9b62 783c 5574 363b 7a11 9d3d
00000160: d2a6 fc3d dcc4 323e 425c 42bd c71f 883c
00000170: ceb4 2cbc 61cc cebb c693 4fbd 95bb 1d3d
00000180: 55cd bbbc f644 3dbd c1e3 29bc 8f24 7f3d
00000190: 41e3 1a3e b3e2 e93d 7f0f e23d 1b08 bc3c
000001a0: 7e14 0b3e 608b 283d 8baf 863d 40d4 b93b
000001b0: 22df d2bc 94be 9dbc edd8 3e3c a04a c2bd
000001c0: fc3e 3d3d eb94 f4bb 35ea 173d e3b0 3e3d
000001d0: 886d 573b b3c4 2abd e677 463d 4a09 62bc
000001e0: 99e4 ae3b 6f39 08bd 0f05 a13c 7b8b 1dbc
000001f0: 9b6f 543c 7c0a 3dbd 05eb d0bc f89a 823d
00000200: f3b4 0bbd c07f 053d df37 043d 7c57 00bd
00000210: 8efd 5a3d 1909 553b e86f 873d 6ae9 a0be
00000220: a6ec 8fbe 62be 8cbe 67af 9ebe 68b7 b8be
00000230: 8155 56be a0a2 34be 95c0 22be 6df6 1ebe
00000240: a61a 02bd 3c34 553d da40 783d b3e7 cdbc
00000250: 5341 9dbd b156 a4bc a928 a2bd f682 4b3d
00000260: 38bf 303c 9cbd 59bc 77ef 06bd e1f1 04bd
00000270: a616 cebd 5d36 65bc 77f8 0bbd bed5 90bd
00000280: 6bca 96bb a619 e1bd 0632 733c 8cd5 563d
00000290: f28a 65bd a705 163d 43a0 4cbd 044a 953b
000002a0: 443d a23c 12e8 aa3d 7058 d03c b7b9 87bd
000002b0: 3391 303c 3e58 7cbd c633 973c 7e5f 0bbd
000002c0: a6c7 d93c b030 07bd 78a4 b33d 34fe b83d
000002d0: 9bca 743c a1b3 62bd 65da 53bd 52dc c1bb
000002e0: 3353 933c de4d 39bd 6d1e e83c ad40 4a3c
000002f0: 164e 6cbd 8382 773c 8de9 0a3d d527 c43b
00000300: cb08 7ebc e19d 10bd 7ad8 533d 2c48 0c3c
00000310: 1703 22bd 32b2 123d c568 a8bd 41a4 54bd
00000320: 6fe2 ccbd f09c b0bd f73b dbbd ec7a b6bd
00000330: 3a79 02be ba80 34bd da20 10bd 8cde ac3d
00000340: 2d10 1b3a 1d3f 403d 6944 613c dc2e 3a3a
00000350: 3374 e5bb 2a46 f03c 3132 463d 198a fabc
00000360: afb8 c13c 0ce3 6ebd c455 cb3b 31d2 193c
00000370: a780 033d 6148 cf3b 8726 62bd 80bd 1dbd
00000380: 76c3 d63c 81cc 5fbd 97f1 35bd 371a 603d
00000390: 621e c9bc 9cb3 663d f35e 9fbd 80ab b9bc
000003a0: 54d4 30bd eda2 513d cad3 173d bc5a 80bd
000003b0: 12b7 0cbc bf82 99bc 8f69 f5bc 3735 f8bc
000003c0: 7e4b 5dbd d60d aebd 5481 c93c adfb e0bc
000003d0: 7a9b 203a 9648 00bc 2c80 bf3c de58 f4bc
000003e0: 271a 44bd 4db9 9ebd a608 a0bd e676 9fbd
000003f0: 233b a0bd f9c2 06bd c7fd 65bc 82ee 36bd

hiddens.2.bias f4 [20]
0.06726444 -0.065224 0.21645789 -0.09802432 0.2926283 -0.021867787 -0.03134309 -0.085686766
-0.08779041 -0.08522367 0.27190068 -0.000422424 0.2397302 0.07899043 -0.11677972 -0.12278
-0.10107732 -0.048788957 -0.029514117 0.041649368
00000000: f0c1 893d 2994 85bd 23a7 5d3e fac0 c8bd
00000010: 60d3 953e 1324 b3bc 9d61 00bd 8b7c afbd
00000020: 75cb b3bd bf89 aebd 9136 8b3e ca78 ddb9
00000030: d57b 753e bcc5 a13d 352a efbd 1574 fbbd
00000040: a001 cfbd eed6 47bd 97c7 f1bc 8798 2a3d

hiddens.4.weight f4 [20, 20, 3, 3]
-0.04109481 -0.043774348 -0.06738702 -0.055946525 0.008924613 -0.09211587 -0.020087373 -0.07223348
-0.016183432 0.023594335 -0.057815235 0.0372979 0.03472162 -0.079598166 -0.033382345 0.0054396563
-0.034351423 -0.08068852 -0.07059072 0.0043835454 -0.0010012208 -0.048477504 0.0446067 -0.04812424
-0.048581157 -0.088814355 -0.029863816 -0.06697513 -0.0842648 -0.057874095 -0.05844046 0.0052147126
-0.060057256 -0.04386857 -0.018350773 -0.045575373 -0.036678087 0.020622177 -0.08674111 -0.062139854
0.019545864 -0.06411183 -0.090481944 -0.06474777 0.0031511097 -0.08377794 -0.006747727 -0.054491505
-0.08730936 0.039701425 -0.047002077 -0.03449219 -0.019800536 0.003431617 -0.052650698 -0.031060448
0.019582702 0.022533387 0.031694368 -0.039410956 0.03127113 0.006760225 0.03817344 -0.025996497
0.058160264 0.037637908 0.045463644 0.05159895 0.045046862 -0.020671576 -0.043280993 -0.012968471
-0.039591644 0.07211967 0.04816812 0.07116285 -0.00561316 -0.0071852156 0.0398899 -0.057877436
0.009268045 -0.010532372 -0.07993381 -0.08705556 0.049600936 -0.070376135 0.055407293 0.039001934
-0.029601185 0.013516007 -0.089453384 -0.0047470857 -0.095497854 -0.078339875 -0.035140634 -0.06349609
-0.09188917 -0.13093196 -0.07079572 0.010275537 -0.08288642 0.036296055 -0.05547686 -0.0011873852
-0.07717793 0.029467108 -0.017712668 -0.023920432 -0.015360652 -0.05777513 -0.0036181693 -0.040335894
-0.03415495 -0.004238635 -0.059755445 -0.046277877 -0.024607575 -0.0116901845 -0.073750906 -0.08029321
0.017043851 -0.08105014 -0.04502413 -0.08536796 -0.010999777 0.020580988 0.04497639 -0.06509189
-0.06046529 0.019778296 0.031156028 0.053546023 -0.08341372 0.054040078 -0.04564972 -0.0008896436
0.051592086 -0.047775827 -0.018306447 -0.06358535 -0.047201615 -0.034168404 0.022527002 -0.012481205
0.0078047407 -0.00049921783 0.004572673 -0.05965923 -0.048745338 -0.029700229 -0.031186696 -0.024740877
0.021242093 0.00036147324 0.042328104 -0.034517717 -0.061298262 -0.033778884 -0.02777835 0.056312427
-0.016468525 -0.06619877 -0.06530673 -0.05032211 0.014536994 0.01798769 0.045517165 0.0032784923
0.02128314 -0.032159485 -0.07663032 -0.083103955 -0.09553116 -0.07505588 -0.057575196 -0.042595472
-0.121944994 0.01810121 -0.12814781 -0.07947761 0.07122802 -0.33896843 -0.095490344 0.06542768
0.058926377 0.15894575 0.010327686 -0.050995577 -0.081434906 0.047321063 -0.030011313 -0.102369264
0.062415004 -0.009078587 -0.1098724 0.027991528 0.026253348 -0.060953524 -1.0175205 -0.21924205
-0.09222058 0.071641475 0.37344873 0.2132716 -0.566627 -0.20304953 -0.65072334 -0.04997215
0.010332586 -0.017279396 0.05046855 0.014648944 0.045841195 -0.011368071 -0.019080926 -0.07528395
0.27099726 -0.118220635 -0.6118752 0.21474378 -0.14610715 -0.7908809 -0.04121077 0.13830541
-0.18890117 -0.07606061 -0.004604474 -0.026935361 0.0003830117 -0.018104605 0.04542148 -0.10389692
-0.015432819 -0.098743446 0.010153331 -0.03062368 -0.013967974 0.040023025 -0.04125263 -0.038566053
-0.08322141 0.020525435 0.025385302 -0.07176587 0.031963285 0.0054497006 -0.020465191 -0.068417504
0.032078795 0.013886652 -0.0764326 -0.041582778 0.026741147 0.02637086 0.028981024 0.013645504
00000000: 0853 28bd bb4c 33bd 3502 8abd 2f28 65bd
00000010: 8a38 123c 3fa7 bcbd 468e a4bc 26ef 93bd
00000020: 1e93 84bc e848 c13c abcf 6cbd afc5 183d
00000030: 4238 0e3d 5d04 a3bd edbb 08bd 253f b23b
00000040: 14b4 0cbd 0640 a5bd de91 90bd d8a3 8f3b
00000050: 653b 83ba 5990 46bd 84b5 363d ec1d 45bd
00000060: 09fd 46bd 4de4 b5bd f6a4 f4bc 422a 89bd
00000070: 0693 acbd 630d 6dbd 445f 6fbd 2ee0 aa3b
00000080: 99fe 75bd 88af 33bd 5c54 96bc 3ead 3abd
00000090: c33b 16bd d7ef a83c 53a5 b1bd 5c86 7ebd
000000a0: a61e a03c 104d 83bd 994e b9bd 7b9a 84bd
000000b0: d982 4e3b c593 abbd 091c ddbb 7c32 5fbd
000000c0: 40cf b2bd f69d 223d 4085 40bd af47 0dbd
000000d0: bc34 a2bc fbe4 603b 42a8 57bd 7b72 febc
000000e0: e76b a03c f097 b83c f4d1 013d 626d 21bd
000000f0: 2816 003d e184 dd3b c15b 1c3d 9bf6 d4bc
00000100: 7539 6e3d 352a 1a3d 1638 3a3d 6c59 533d
00000110: 0f83 383d 7057 a9bc 6947 31bd b679 54bc
00000120: d92a 22bd 7ab3 933d ef4b 453d d4bd 913d
00000130: 99ee b7bb f571 ebbb 9763 233d e410 6dbd
00000140: 00d9 173c f88f 2cbc 56b4 a3bd 2f4a b2bd
00000150: 5a2a 4b3d 5d21 90bd c2f2 623d 7ec0 1f3d
00000160: 2f7e f2bc 3e72 5d3c 5633 b7bd 718d 9bbb
00000170: 6194 c3bd a870 a0bd a0ef 0fbd 3d0a 82bd
00000180: 6430 bcbd 0713 06be 59fd 90bd ba5a 283c
00000190: 5bc0 a9bd 2cab 143d b43b 63bd 09a2 9bba
000001a0: 760f 9ebd 0165 f13c 281a 91bc c8f4 c3bc
000001b0: 3eab 7bbc 9da5 6cbd cf1e 6dbb 4037 25bd
000001c0: 10e6 0bbd 3fe4 8abb 20c2 74bd df8d 3dbd
000001d0: d395 c9bc 3088 3fbc b70a 97bd c470 a4bd
000001e0: 8c9f 8b3c 9efd a5bd 396b 38bd 66d5 aebd
000001f0: 6938 34bc 7699 a83c 2a39 383d e64e 85bd
00000200: 74aa 77bd 1806 a23c ed3a ff3c 1353 5b3d
00000210: d0d4 aabd 2159 5d3d 33fb 3abd f936 69ba
00000220: 3952 533d 96b0 43bd 67f7 95bc 0939 82bd
00000230: 7b56 41bd 2bf4 0bbd 8c8a b83c f87d 4cbc
00000240: e9be ff3b f1dd 02ba 5cd6 953b 3d5d 74bd
00000250: 31a9 47bd e54d f3bc 3e7b ffbc 61ad cabc
00000260: e603 ae3c 1e84 bd39 3c60 2d3d 7362 0dbd
00000270: e313 7bbd ba5b 0abd 6c8f e3bc dca7 663d
00000280: 00e9 86bc 3993 87bd 89bf 85bd 8f1e 4ebd
00000290: 922c 6e3c ec5a 933c 3570 3a3d f9db 563b
000002a0: fb59 ae3c aab9 03bd 5bf0 9cbd 6832 aabd
000002b0: d7a5 c3bd e6b6 99bd f8d3 6bbd 9778 2ebd
000002c0: 4cbe f9bd fd48 943c 2e39 03be 28c5 a2bd
000002d0: ffdf 913d 458d adbe 7190 c3bd f3fe 853d
000002e0: c95c 713d adc2 223e 7435 293c bde0 50bd
000002f0: 58c7 a6bd bbd3 413d 49da f5bc faa6 d1bd
00000300: e0a6 7f3d 5bbe 14bc c804 e1bd 7d4e e53c
00000310: 4311 d73c 67aa 79bd 1d3e 82bf fd80 60be
00000320: 25de bcbd c4b8 923d ac34 bf3e df63 5a3e
00000330: 780e 11bf 37ec 4fbe ce95 26bf 99af 4cbd
00000340: 024a 293c 858d 8dbc 1cb8 4e3d 2002 703c
00000350: fac3 3b3d 2541 3abc 9a4f 9cbc 792e 9abd
00000360: 27c0 8a3e a91d f2bd daa3 1cbf cbe5 5b3e
00000370: 1d9d 15be 2c77 4abf a0cc 28bd ef9f 0d3e
00000380: 4f6f 41be aac5 9bbd 21e1 96bb 8ca7 dcbc
00000390: f6ce c839 1c50 94bc e00b 3a3d e9c7 d4bd
000003a0: efd9 7cbc 013a cabd 285a 263c 83de fabc
000003b0: eed9 64bc 2fef 233d 85f8 28bd 70f7 1dbd
000003c0: fd6f aabd f524 a83c d6f4 cf3c fcf9 92bd
000003d0: efeb 023d 6793 b23b 9ea6 a7bc 7a1e 8cbd
000003e0: 0e65 033d d784 633c b288 9cbd b452 2abd
000003f0: 4010 db3c b407 d83c 9d69 ed3c 6491 5f3c

hiddens.4.bias f4 [20]
-0.032325115 0.19489354 0.12756422 -0.083164886 0.18116133 -0.11404531 -0.06324371 0.007946371
-0.107227854 -0.04108544 -0.09191781 -0.17314431 -0.05398097 -0.07157884 0.041866355 0.3359762
-0.101635195 0.21316843 -0.12234333 -0.050178237
00000000: 5767 04bd 2c92 473e 32a0 023e 5a52 aabd
00000010: 5b82 393e 9690 e9bd eb85 81bd 7f31 023c
00000020: 479a dbbd 3549 28bd 683f bcbd be4c 31be
00000030: 261b 5dbd ed97 92bd 0e7c 2b3d 1305 ac3e
00000040: 1d26 d0bd d348 5a3e 248f fabd b287 4dbd

hiddens.6.weight f4 [20, 20, 3, 3]
-0.031979136 -0.00871831 0.01605818 0.12394485 0.09247029 -0.034730744 0.10348352 -0.008537225
0.10847086 0.118883654 -0.32425478 -0.16732837 -0.22524437 -0.024389723 0.48534176 -0.688321
0.008590668 0.54645675 0.51951706 0.7150629 -0.40919566 0.323287 0.74538296 -0.12429045
-0.12660663 0.32928205 0.060958438 -0.09214357 -0.028885499 -0.08294419 -0.044208337 -0.045702033
0.00036366156 -0.027771546 0.027284952 -0.07305373 -0.22664717 0.2204868 -0.34994543 -0.21961644
0.5124945 -0.1750338 -0.6411085 -0.041463602 -0.3463652 0.07697338 0.20337144 0.077985704
0.02614422 0.04095353 0.098551445 0.1399141 0.059374373 0.13512406 -0.12695019 0.10493222
0.11634465 -0.23578702 0.024831586 -0.008278314 -0.07161416 -0.1183151 -0.042385757 -0.12906407
-0.06868851 -0.024260499 -0.07167605 -0.06767262 0.01635508 -0.0555399 0.019075235 0.012504822
-0.005588754 -0.2047031 -0.48704207 -0.029059637 -0.3724861 -0.27625653 0.20552552 0.10689151
0.17560083 0.039037243 0.09476838 0.016367014 0.047835406 0.09725858 -0.0060081948 0.037718106
0.026952013 0.0109841805 -0.027904052 -0.0004061566 -0.032252904 -0.012883333 0.0017549105 0.0071520396
-0.14704885 -0.017305506 0.09091643 -0.04739757 0.090565264 -0.051890306 0.0046604467 0.036441162
-0.030474126 -0.06646023 0.00094831415 -0.026611814 -0.06986697 -0.076107286 0.027253859 -0.106166676
-0.054488774 0.08907476 -0.06428024 -0.009911054 0.00055066164 0.09379996 0.032177165 0.09490983
0.09193429 0.0895677 0.12719436 0.083582476 -0.0020928257 0.11181182 0.18861046 0.09975534
-0.18905905 0.2166873 0.07068402 -0.3634996 0.16937469 -0.054400757 -0.55859935 -0.08305508
0.09757174 -0.5977376 0.5601768 0.47626176 0.41467503 0.91455746 0.2575971 0.10329077
0.13381937 0.081309006 0.084218614 0.10156777 0.022068504 -0.11318941 0.078408115 -0.044795804
-0.021949401 0.72240627 0.030214513 -0.7792762 0.1442389 -0.26098824 -0.53568 -0.23943707
-0.5988828 -0.47514832 0.12544782 -0.0017487826 0.11006262 0.00545313 0.008978935 0.053827982
0.1164776 0.15436433 0.097865716 0.13686426 -0.07793704 0.008004742 0.05075343 -0.051937487
0.016919509 -0.053706337 0.017572362 -0.027455047 -0.05922758 -0.030811485 0.029945644 0.010318881
0.021604624 0.057732873 -0.011645145 -0.0767884 -0.074622266 -0.07444719 0.01800513 -0.046285417
-0.035653107 0.003129011 -0.021602 -0.06733748 -0.19292302 0.0056074937 -0.07463738 -0.07984301
0.025392415 -0.017926918 -0.012452685 -0.12891729 -0.08644686 0.0028247547 0.008122005 0.06931241
-0.027999168 0.029889567 -0.03602808 0.057592783 -0.012521593 -0.029816587 -0.027183121 -0.052486893
-0.050631456 -0.059674278 -0.02953265 0.011462797 -0.044970535 -0.073458 -0.058443442 -0.05204127
0.029680725 0.069154814 0.027203737 0.071753725 -0.05094191 0.030086542 -0.024984961 0.036399316
0.022727033 0.018817317 -0.068286754 -0.02503739 -0.056800917 0.011590178 -0.04886752 0.05423257
0.041179016 -0.019149166 -0.017629836 -0.06351431 0.0040300684 0.040335756 0.0569245 -0.060648166
-0.035596814 -0.026000777 0.008834405 0.029321395 -0.021516344 -0.09113809 0.04473797 0.00593019
00000000: 8efc 02bd 3ed7 0ebc 728c 833c ccd6 fd3d
00000010: 1061 bd3d d341 0ebd 2bef d33d b8df 0bbc
00000020: f825 de3d 4679 f33d b904 a6be 2158 2bbe
00000030: 76a6 66be f5cc c7bc b77e f83e ce35 30bf
00000040: e0bf 0c3c 97e4 0b3f 12ff 043f 5d0e 373f
00000050: 1882 d1be e085 a53e 6bd1 3e3f fe8b febd
00000060: 2ba5 01be a897 a83e 8eaf 793d c5b5 bcbd
00000070: 48a1 ecbc a5de a9bd cd13 35bd 0e32 3bbd
00000080: d4a9 be39 2781 e3bc b184 df3c 329d 95bd
00000090: 3216 68be 4bc7 613e 0c2c b3be 22e3 60be
000000a0: d732 033f 0f3c 33be b01f 24bf bdd5 29bd
000000b0: c856 b1be 38a4 9d3d 9a40 503e f8b6 9f3d
000000c0: 672c d63c e4be 273d 57d5 c93d a445 0f3e
000000d0: 8b32 733d f65d 0a3e 3bff 01be b4e6 d63d
000000e0: 1b46 ee3d 2772 71be 9c6b cb3c c4a1 07bc
000000f0: 72aa 92bd 304f f2bd b09c 2dbd 5f29 04be
00000100: 90ac 8cbd f4bd c6bc e5ca 92bd f197 8abd
00000110: 17fb 853c ce7d 63bd ab43 9c3c 06e1 4c3c
00000120: de21 b7bb b09d 51be 945d f9be 7a0e eebc
00000130: 80b6 bebe 7f71 8dbe 4875 523e f0e9 da3d
00000140: b4d0 333e 84e5 1f3d ed15 c23d 1e14 863c
00000150: 0fef 433d 822f c73d 64e0 c4bb 4d7e 1a3d
00000160: 78ca dc3c fef6 333c 0a97 e4bc 6bf1 d4b9
00000170: 9f1b 04bd 9d14 53bc 0605 e63a a85b ea3b
00000180: f993 16be 47c4 8dbc 6532 ba3d f423 42bd
00000190: 487a b93d ee8a 54bd a9b6 983b 5443 153d
000001a0: e0a4 f9bc 4d1c 88bd 4998 783a 0501 dabc
000001b0: 6a16 8fbd 23de 9bbd 7c43 df3c ea6d d9bd
000001c0: 9f2f 5fbd d46c b63d 5ca5 83bd f961 22bc
000001d0: 475a 103a 321a c03d 34cc 033d 1660 c23d
000001e0: 0c48 bc3d 456f b73d 3d3f 023e 4a2d ab3d
000001f0: ca27 09bb 98fd e43d 1a23 413e 874c cc3d
00000200: b298 41be 47e3 5d3e c9c2 903d 9f1c babe
00000210: 8f70 2d3e 54d3 5ebd 5e00 0fbf c818 aabd
00000220: b1d3 c73d 5505 19bf bf67 0f3f 95d8 f33e
00000230: 4950 d43e 7020 6a3f c4e3 833e 1c8a d33d
00000240: f207 093e 5685 a63d cf7a ac3d c302 d03d
00000250: 02c9 b43c d9cf e7bd 6f94 a03d ce7b 37bd
00000260: 3bcf b3bc 9eef 383f 6d84 f73c a57e 47bf
00000270: 5db3 133e 40a0 85be 5322 09bf fe2e 75be
00000280: 6250 19bf a446 f3be 6575 003e 6837 e5ba
00000290: 8368 e13d 2cb0 b23b 621c 133c bb7a 5c3d
000002a0: cf8b ee3d af11 1e3e d26d c83d 2526 0c3e
000002b0: 749d 9fbd 5226 033c d4e2 4f3d 67bc 54bd
000002c0: c89a 8a3c 2dfb 5bbd eaf3 8f3c 68e9 e0bc
000002d0: 9e98 72bd 5e68 fcbc 9150 f53c 8610 293c
000002e0: 2efc b03c 4e79 6c3d 47cb 3ebc 3d43 9dbd
000002f0: 8fd3 98bd c577 98bd 7f7f 933c c795 3dbd
00000300: fe08 12bd 1810 4d3b adf6 b0bc 3ce8 89bd
00000310: 9d8d 45be 11bf b73b 7cdb 98bd bb84 a3bd
00000320: c103 d03c 79db 92bc 5906 4cbc e502 04be
00000330: 0d0b b1bd 851f 393b 2812 053c aaf3 8d3d
00000340: 835e e5bc f7da f43c 2e92 13bd 69e6 6b3d
00000350: 5e27 4dbc ea41 f4bc 23af debc 7ffc 56bd
00000360: ee62 4fbd 046d 74bd 75ee f1bc 75ce 3b3c
00000370: 0633 38bd 2671 96bd 6462 6fbd 3a29 55bd
00000380: fe24 f33c 0aa1 8d3d 5fda de3c 9ef3 923d
00000390: 77a8 50bd 0d78 f63c 43ad ccbc 7317 153d
000003a0: 0b2e ba3c c626 9a3c edd9 8bbd 361b cdbc
000003b0: 14a8 68bd bbe4 3d3c 4f29 48bd f922 5e3d
000003c0: 54ab 283d b6de 9cbc 726c 90bc ca13 82bd
000003d0: aa0e 843b 1b37 253d aa29 693d 366a 78bd
000003e0: f7cd 11bd 95ff d4bc 2ebe 103c 6c33 f03c
000003f0: 0b43 b0bc 9ba6 babd 293f 373d 0a52 c23b

hiddens.6.bias f4 [20]
-0.002201737 -0.21020743 -0.27471092 0.16013493 -0.0017672615 0.10000292 0.056184016 -0.16159868
-0.1966455 -0.09877763 -0.096727125 -0.12514332 -0.12330347 0.10795214 -0.17770855 0.0980306
-0.0753702 0.2426243 0.11901437 -0.259139
00000000: 044b 10bb 9e40 57be e9a6 8cbe 69fa 233e
00000010: 75a3 e7ba 55ce cc3d 3621 663d 207a 25be
00000020: 705d 49be ed4b cabd df18 c6bd 9225 00be
00000030: 8886 fcbd 0316 dd3d 3bf9 35be 44c4 c83d
00000040: b15b 9abd 8172 783e cebd f33d dead 84be

hiddens.8.weight f4 [20, 20, 3, 3]
0.101996325 0.0928473 0.05126876 0.13734016 -0.03821856 -0.10799699 0.07382363 -0.044882536
-0.3224743 0.013014746 -0.012578922 0.060906056 0.060914006 -0.062438026 0.0026030827 0.0034392874
-0.072507836 0.008393781 -0.000962151 -0.04466358 0.086774856 -0.024211003 -0.060520094 0.071367115
-0.06966147 -0.05147727 0.017892092 -0.39013672 -0.27813512 -0.15526965 -0.2811858 -0.19950366
-0.087175936 0.0070442897 -0.079294875 -0.13681234 -0.11864223 0.081373714 0.22110975 0.029977998
0.130374 0.20753382 0.46960834 0.4194356 0.38235566 -0.03409767 -0.32534266 -0.5981597
-0.08837371 -0.14747766 -0.5365617 -0.14615831 -0.36556467 -0.672901 -0.0949506 -0.013583934
-0.14279644 -0.29058155 -0.33025137 -0.29872265 -0.4604585 -0.37669885 -0.6028781 0.033940066
0.0060952185 -0.012905273 0.09432078 0.06819765 -0.017538425 -0.034523066 0.043524735 0.06351306
0.073703356 -0.019815542 -0.11056177 0.027024822 -0.030977413 0.005269908 0.015657404 -0.04317856
-0.0558245 0.15716064 0.071437836 0.23738904 0.12885042 0.11004429 0.20454481 0.052645933
0.063466735 0.17572628 0.14788733 0.08934349 0.17036113 0.12788248 -0.026780987 0.02881727
0.1371625 0.051307403 0.08106328 0.013910762 -0.058119368 -0.08645786 -0.03865521 -0.076601565
-0.021022594 0.027641486 0.049398784 -0.023095177 0.1700934 0.18766318 0.07678635 0.16942248
0.026587725 0.03957022 0.20070727 0.12011628 0.070538074 0.06920787 0.059421092 0.0028087033
-0.122296944 -0.2014306 -0.25663787 -0.6543607 -0.8607884 -0.65751904 -0.101116374 0.31740573
0.41482046 -0.18955988 0.02121798 -0.0044835 -0.13245167 -0.057407152 -0.28343257 -0.12645908
-0.35559258 -0.29104844 -0.08453484 -0.19298114 -0.2979115 0.018132703 -0.08444607 0.034755405
0.04079483 -0.061475836 -0.028501123 0.014515274 0.038226154 -0.010507058 -0.08085126 -0.035789426
-0.051709697 -0.4086659 0.12772211 0.3137746 -0.61249155 -0.14665398 0.32786578 -0.7067923
-0.20602848 0.09108896 -0.16552438 -0.025099766 0.032215632 -0.11355467 -0.18512087 -0.112932056
-0.065804355 -0.06377012 -0.0715397 0.072882056 0.085203014 0.1156416 0.17438798 0.06948641
-0.016031189 0.12414609 0.15127198 -0.07538784 -0.019447539 -0.036068063 0.004418402 -0.08551679
-0.105758525 -0.043437388 -0.064069904 -0.026721045 -0.037912756 0.03178177 0.032329302 0.02263726
0.019485347 0.013123392 0.06265978 0.04080107 0.028133791 -0.048030734 -0.008675882 0.0068415487
-0.06250759 0.005967285 -0.03830105 0.07210646 0.0067888233 0.025987307 0.0125608975 -0.07282288
-0.088876225 -0.025971511 -0.047864523 -0.07911971 -0.039665017 -0.036944743 0.0045596967 -0.037536234
0.057680633 0.03717407 0.026233638 -0.03887173 -0.12102982 -0.090556085 -0.051300675 -0.076247655
-0.03746845 -0.123423204 -0.09192332 -0.108839124 -0.12162214 -0.06704354 0.040551595 -0.018243777
-0.06149278 -0.08178538 -0.016993571 -0.0066589797 -0.08022776 -0.08700808 -0.04901351 0.004416381
0.031132737 -0.022482207 0.008575677 -0.008104742 -0.015344993 -0.031185975 -0.05388943 0.017200083
0.009504235 -0.008389268 -0.042104017 0.04384636 0.062323682 -0.056198027 0.041363504 -0.06436742
00000000: 73e3 d03d ba26 be3d 31ff 513d e6a2 0c3e
00000010: 118b 1cbd 872d ddbd d830 973d c0d6 37bd
00000020: 5a1b a5be cd3b 553c d317 4ebc a178 793d
00000030: f780 793d 04bf 7fbd 7b98 2a3b ab65 613b
00000040: fd7e 94bd 1286 093c dc38 7cba 28f1 36bd
00000050: 04b7 b13d 2756 c6bc ebe3 77bd ec28 923d
00000060: acaa 8ebd d4d9 52bd 7092 923c 00c0 c7be
00000070: ba67 8ebe 02ff 1ebe 96f7 8fbe b04a 4cbe
00000080: 4c89 b2bd c9d3 e63b 5a65 a2bd 8918 0cbe
00000090: b3fa f2bd 43a7 a63d 986a 623e 6b94 f53c
000000a0: c380 053e bf83 543e 8170 f03e 43c0 d63e
000000b0: 1fc4 c33e 00aa 0bbd 5093 a6be fe20 19bf
000000c0: 47fd b4bd 6204 17be 1c5c 09bf 86aa 15be
000000d0: 4b2b bbbe 3d43 2cbf 7675 c2bd 268f 5ebc
000000e0: 3b39 12be 1bc7 94be b516 a9be 2df2 98be
000000f0: 37c1 ebbe acde c0be 3856 1abf bd04 0b3d
00000100: 66ba c73b a370 53bc 412b c13d 36ab 8b3d
00000110: beac 8fbc 0f68 0dbd fe46 323d 2313 823d
00000120: c9f1 963d 3454 a2bc 366e e2bd 2963 dd3c
00000130: 58c4 fdbc 31af ac3b f543 803c 00dc 30bd
00000140: 3ba8 64bd b8ee 203e 004e 923d 1d16 733e
00000150: 5df1 033e e75e e13d 3274 513e 43a3 573d
00000160: d9fa 813d 97f1 333e c76f 173e b8f9 b63d
00000170: 2673 2e3e a0f3 023e cd63 dbbc 3212 ec3c
00000180: 5474 0c3e b627 523d 8104 a63d f7e9 633c
00000190: 930e 6ebd d210 b1bd ed54 1ebd 48e1 9cbd
000001a0: 9337 acbc 6670 e23c 6156 4a3d 1932 bdbc
000001b0: f72c 2e3e c72a 403e 2942 9d3d 167d 2d3e
000001c0: 80ce d93c 6214 223d 3586 4d3e 86ff f53d
000001d0: 4476 903d dbbc 8d3d 8863 733d 3912 383b
000001e0: d276 fabd d343 4ebe 0a66 83be 2f84 27bf
000001f0: a15c 5cbf 2b53 28bf 1a16 cfbd 0183 a23e
00000200: 5963 d43e fc1b 42be 54d1 ad3c 53ea 92bb
00000210: 69a1 07be c323 6bbd 131e 91be 7d7e 01be
00000220: 3b10 b6be 4d04 95be 9a20 adbd d99c 45be
00000230: db87 98be 098b 943c 10f2 acbd af5b 0e3d
00000240: 7b18 273d 16ce 7bbd 307b e9bc 79d1 6d3c
00000250: 0793 1c3d cc25 2cbc 5895 a5bd ef97 12bd
00000260: 8ccd 53bd a83c d1be 96c9 023e 10a7 a03e
00000270: 3fcc 1cbf 762c 16be 06de a73e 57f0 34bf
00000280: 21f9 52be d98c ba3d 397f 29be 069e cdbc
00000290: 8af4 033d 5a8f e8bd 5390 3dbe ec48 e7bd
000002a0: 6fc4 86bd e999 82bd 6883 92bd 3043 953d
000002b0: eb7e ae3d 81d5 ec3d c392 323e e44e 8e3d
000002c0: d753 83bc 4e40 fe3d 0be7 1a3e f164 9abd
000002d0: 7250 9fbc 1bbc 13bd 3ec8 903b 6d23 afbd
000002e0: ed97 d8bd 67eb 31bd 1537 83bd 18e6 dabc
000002f0: 684a 1bbd 9a2d 023d bb6b 043d c671 b93c
00000300: bc9f 9f3c 7f03 573c c553 803d 061f 273d
00000310: d678 e63c e0bb 44bd 4925 0ebc 122f e03b
00000320: fb03 80bd 3789 c33b 90e1 1cbd 8dac 933d
00000330: c774 de3b 55e3 d43c 39cc 4d3c 2a24 95bd
00000340: bd04 b6bd 35c2 d4bc 970d 44bd 8409 a2bd
00000350: c977 22bd 5f53 17bd 8269 953b 98bf 19bd
00000360: 8742 6c3d d643 183d ede7 d63c f737 1fbd
00000370: 7bde f7bd 7875 b9bd a820 52bd bb27 9cbd
00000380: 8478 19bd 4ec5 fcbd 4b42 bcbd 0ce7 debd
00000390: 0715 f9bd 204e 89bd 6e19 263d f973 95bc
000003a0: dadf 7bbd 187f a7bd 1a36 8bbc 9233 dabb
000003b0: 744e a4bd 4b31 b2bd 64c2 48bd 4ab7 903b
000003c0: 150a ff3c 9b2c b8bc ff80 0c3c c0c9 04bc
000003d0: 9169 7bbc bb79 ffbc 2abb 5cbd 30e7 8c3c
000003e0: a7b7 1b3c 2473 09bc 4375 2cbd 3e98 333d
000003f0: 1e47 7f3d e72f 66bd c76c 293d 11d3 83bd

hiddens.8.bias f4 [20]
0.05114213 -0.09534196 0.08503912 0.17601599 -0.084120244 0.007017658 0.06916859 0.050078534
-0.077616714 0.196152 -0.18590961 0.09094579 -0.07253562 -0.13791388 0.20379479 -0.0028008476
-0.18075867 -0.19626655 -0.08064854 -0.04607415
00000000: 697a 513d a542 c3bd fd28 ae3d 893d 343e
00000010: 3c47 acbd 62f4 e53b 43a8 8d3d 261f 4d3d
00000020: 83f5 9ebd 12dc 483e 175f 3ebe c941 ba3d
00000030: 8e8d 94bd 4c39 0dbe 95af 503e 6d8e 37bb
00000040: cd18 39be 19fa 48be 102b a5bd 3fb8 3cbd

hiddens.10.weight f4 [20, 20, 3, 3]
-0.40122873 -0.6999595 0.119372405 -0.3502878 -0.6222106 0.076186076 -0.3578279 -0.7018592
-0.18490192 0.051294535 -0.043114528 -0.06386441 -0.03505617 -0.02941857 -0.012858672 0.020110792
0.055418838 -0.048573315 0.09774385 0.17573085 0.10420798 -0.22293164 -0.2223348 -0.25111443
-0.017941877 -0.061042637 -0.2937808 -0.3853735 -0.49907395 0.28898808 -0.3325437 -0.6464593
0.24896447 -0.47485563 -0.76856184 0.07472828 0.49652594 -0.27774772 -0.2627652 0.12064394
-0.19989292 -0.50133556 -0.07136954 -0.07377893 -0.36222124 0.06366594 0.22818589 0.33440807
0.24333811 0.17491119 0.30035985 0.36474642 0.28227356 0.2332701 -0.5171164 -0.33912486
-0.8563659 -0.40139958 -0.5763232 -0.86111796 -0.3846061 -0.6437631 -0.8202165 -0.079623155
-0.16426182 0.32982048 -0.1280132 -0.07051371 0.1784123 -0.13659835 -0.2877654 -0.07879238
-0.056530356 0.013409145 0.015928501 -0.042268984 0.06776273 -0.07362467 -0.016683605 0.063253425
0.07114062 -0.283239 0.07962346 0.5289971 -0.18845825 0.00024495425 0.5138263 -0.26924145
0.014117519 0.48172578 0.06475829 0.05574396 -0.06693766 -0.04362248 0.07147642 -0.02767569
0.044303093 0.056638163 0.06344205 -0.04289735 0.10990713 0.0721313 -0.30126387 -0.2411808
-0.1416029 -0.007145826 -0.1997025 -0.2354994 0.18411891 0.13004737 0.4049794 0.24728431
-0.2064632 -0.01670143 0.23002487 -0.2093225 -0.31441307 -0.059923444 -0.052501637 -0.03162109
-0.012426116 -0.011399797 -0.061823376 -0.05466948 -0.049506612 -0.063853025 -0.86019963 -0.46019533
-0.04972491 -0.89967936 -0.4864159 0.06649251 -0.5499088 -0.31016967 0.076261766 -0.5313022
-0.683464 -0.5608418 -0.4065035 -0.62110895 -0.5931692 -0.045173403 -0.46471658 -0.0871612
-0.055267606 0.009398796 -0.08702717 -0.0723719 0.055352204 -0.046747986 -0.04668075 0.045867793
-0.0019030721 0.016068427 -0.056971397 -0.05459065 -0.043119363 0.009654824 -0.03544269 0.062166885
0.05948687 -0.0017403708 0.5033213 -0.016037894 -0.13433884 0.36681256 0.07386881 0.10366123
0.40690392 0.23406579 -0.05903099 0.240682 -0.7740682 -1.1572331 -0.30557883 -0.49448007
-0.64070565 -0.49330956 -0.23112854 -0.3265129 -0.16757223 -0.12777741 -0.020023415 -0.11137408
-0.06698822 -0.005169916 -0.08030911 -0.0034789222 0.0591566 -0.05178793 0.040094882 0.10187921
0.013192875 0.03347732 -0.029953137 -0.01978235 0.022487156 0.07179911 -0.14165539 -0.20534888
-0.13415936 -0.1196886 -0.20222029 -0.08820376 -0.14225984 -0.10143974 -0.14851813 -0.19732669
-0.050397493 0.028771978 -0.18975446 -0.08201871 0.00981615 -0.13512744 -0.16672888 -0.06008017
0.02883008 0.049081475 0.20817663 0.10615246 0.17455156 0.34205765 0.19153859 0.17936757
0.2433082 0.46208176 0.65959775 0.6742629 0.4135477 0.5284594 0.565096 0.26331288
0.46255207 0.51093006 0.26852998 0.12076056 0.24599533 0.036179624 0.008810725 -0.027896138
-0.07856834 -0.10947622 -0.0994818 -0.03309661 -0.10271739 0.024268832 0.022572946 -0.033221472
0.009008916 -0.052805085 0.049711216 -0.015298179 0.019536203 0.05626921 0.030920226 -0.017299555
00000000: da6d cdbe 8c30 33bf 8579 f43d ec58 b3be
00000010: 3249 1fbf 7207 9c3d 3835 b7be 0bad 33bf
00000020: ee56 3dbe 381a 523d dc98 30bd 58cb 82bd
00000030: 0f97 0fbd 37ff f0bc 2ead 52bc 63bf a43c
00000040: ddfe 623d d0f4 46bd ed2d c83d caf2 333e
00000050: fe6a d53d 3148 64be bcab 63be 1292 80be
00000060: d8fa 92bc d807 7abd 706a 96be ad4f c5be
00000070: 9f86 ffbe 3ff6 933e 2b43 aabe 5b7e 25bf
00000080: 8bf0 7e3e 4720 f3be 78c0 44bf 240b 993d
00000090: a638 fe3e f334 8ebe 2989 86be 2c14 f73d
000000a0: bbb0 4cbe 8757 00bf 322a 92bd 6819 97bd
000000b0: 1075 b9be 4a63 823d 90a9 693e 8937 ab3e
000000c0: a02d 793e eb1b 333e c4c8 993e 0bc0 ba3e
000000d0: 2986 903e 5bde 6e3e be61 04bf c6a1 adbe
000000e0: cc3a 5bbf 3f84 cdbe eb89 13bf 3a72 5cbf
000000f0: 17eb c4be a9cd 24bf b5f9 51bf 7711 a3bd
00000100: 4034 28be 3bde a83e e415 03be 7e69 90bd
00000110: b7b1 363e 70e0 0bbe fd55 93be e65d a1bd
00000120: 608c 67bd 08b2 5b3c 7d7c 823c 3e22 2dbd
00000130: 30c7 8a3d 88c8 96bd 0eac 88bc 038b 813d
00000140: 2cb2 913d b404 91be a011 a33d 5b6c 073f
00000150: 33fb 40be 346d 8039 1f8a 033f 04da 89be
00000160: 2b4d 673c c3a4 f63e ff9f 843d c753 643d
00000170: 9d16 89bd 7cad 32bd 3b62 923d 21b8 e2bc
00000180: 2977 353d 6bfd 673d e8ed 813d 22b5 2fbd
00000190: fd16 e13d 93b9 933d 423f 9abe 1af8 76be
000001a0: 5a00 11be 8827 eabb d07e 4cbe c126 71be
000001b0: ab89 3c3e 232b 053e 7659 cf3e 1938 7d3e
000001c0: 176b 53be 70d1 88bc a48b 6b3e a358 56be
000001d0: c0fa a0be 4972 75bd f50b 57bd 1e85 01bd
000001e0: e896 4bbc 37c6 3abc 823a 7dbd 1bed 5fbd
000001f0: 72c7 4abd 60c5 82bd 0b36 5cbf b99e ebbe
00000200: 59ac 4bbd 6351 66bf 810b f9be 3a2d 883d
00000210: d3c6 0cbf 8fce 9ebe 212f 9c3d 6c03 08bf
00000220: 7ff7 2ebf 5493 0fbf 3a21 d0be ff00 1fbf
00000230: f0d9 17bf bf07 39bd 55ef edbe 9281 b2bd
00000240: 4960 62bd 68fd 193c 4d3b b2bd b837 94bd
00000250: feb8 623d d17a 3fbd 5034 3fbd dedf 3b3d
00000260: 8170 f9ba efa1 833c d75a 69bd 729a 5fbd
00000270: ee9d 30bd 442f 1e3c 5b2c 11bd b4a2 7e3d
00000280: 81a8 733d 271d e4ba aad9 003f e761 83bc
00000290: 1f90 09be dbce bb3e 8848 973d 574c d43d
000002a0: b655 d03e f1ae 6f3e 7bca 71bd 5875 763e
000002b0: 5529 46bf 3720 94bf d474 9cbe 7e2c fdbe
000002c0: 4905 24bf 1293 fcbe f6ac 6cbe b32c a7be
000002d0: 0e98 2bbe 15d8 02be 2508 a4bc 1818 e4bd
000002e0: 1f31 89bd 6668 a9bb 1a79 a4bd a1fe 63bb
000002f0: 314e 723d 951f 54bd 883a 243d 0ca6 d03d
00000300: ee26 583c 841f 093d 4860 f5bc 980e a2bc
00000310: fc36 b83c 690b 933d 1c0e 11be fa46 52be
00000320: 1261 09be 4c1f f5bd d612 4fbe 2ca4 b4bd
00000330: 90ac 11be a3bf cfbd 2315 18be 0210 4abe
00000340: 9a6d 4ebd 36b3 eb3c fe4e 42be 6df9 a7bd
00000350: ebd3 203c d95e 0abe faba 2abe a016 76bd
00000360: 0f2d ec3c a809 493d 412c 553e 7666 d93d
00000370: a5bd 323e 2e22 af3e b122 443e 22ac 373e
00000380: c925 793e fb95 ec3e 66db 283f 7e9c 2c3f
00000390: 86bc d33e 1e49 073f 22aa 103f f2d0 863e
000003a0: a0d3 ec3e 50cc 023f c37c 893e 5051 f73d
000003b0: 33e6 7b3e 1631 143d dc5a 103c 7186 e4bc
000003c0: 70e8 a0bd 1235 e0bd 1dbd cbbd 5090 07bd
000003d0: 7f5d d2bd 6ecf c63c e6ea b83c 3d13 08bd
000003e0: 229a 133c 254a 58bd fd9d 4b3d 37a5 7abc
000003f0: 630a a03c 8b7a 663d 6a4c fd3c ccb7 8dbc

hiddens.10.bias f4 [20]
0.13280669 0.5329823 -0.044296343 -0.044195935 0.054463632 0.13801524 -0.18283477 0.18510866
0.15923779 0.47648335 -0.18063517 0.20724696 -0.08480171 -0.07792978 -0.022082036 -0.007435165
0.0934858 -0.006243447 0.26721713 -0.07268927
00000000: 7afe 073e 8771 083f 1570 35bd cc06 35bd
00000010: 4215 5f3d de53 0d3e 0a39 3bbe 208d 3d3e
00000020: 3b0f 233e a0f5 f33e 6df8 38be 8c38 543e
00000030: 85ac adbd a699 9fbd 63e5 b4bc afa2 f3bb
00000040: 7c75 bf3d d495 ccbb afd0 883e 1dde 94bd
