oldruns/RelaxedP4CNN_aniso_std0.3_gamma2_lr0.002/model.pt (torch, 116029 bytes, 18 tensors)

lifting_conv.combination_weights f4 [3, 4]
000000 8c fc 4f 3b b5 52 5b 3b f1 47 5b 3b 68 cd 6b 3b
       0.0031736223 0.0033466045 0.0033459628 0.0035980586
000010 b4 e0 1b bd 3a 5f 1b bd d4 01 19 bd a1 44 1b bd
       -0.03805609 -0.037932612 -0.03735526 -0.037907247
000020 5f 3b bb 3d ee 8c bb 3d c8 74 bb 3d 41 f7 bb 3d
       0.091421835 0.091577396 0.09153134 0.09178019

lifting_conv.weight f4 [3, 6, 1, 3, 3]
000000 a6 40 31 be 2d bc 60 3e eb 4c 1c be a0 2e 8a be
       -0.17309818 0.21946783 -0.15263717 -0.26988697
000010 5a ef b8 bc 9a fd 30 be b1 21 20 bc 76 61 0b be
       -0.02257507 -0.17284241 -0.009773658 -0.13611397
000020 35 d2 1d be 3b f5 82 3e 85 ac 36 bd c0 51 90 bd
       -0.15412219 0.2557772 -0.04459812 -0.070468426
000030 96 2d a2 bd a2 82 71 3e af bb 63 be 96 4f 82 3e
       -0.07918851 0.23584989 -0.22239564 0.25451344
000040 76 b7 15 be c2 7a 48 be bd e7 2d be 93 b2 95 3e
       -0.14620766 -0.19578078 -0.16982932 0.29237804
000050 37 20 ae 3e b8 22 58 be 67 43 88 be f1 eb 88 3e
       0.34008953 -0.21106994 -0.26613924 0.2674251
000060 2c e4 36 3c 36 bc ba 3e ba b4 48 be a5 cc a8 3e
       0.011162799 0.3647172 -0.19600192 0.3296863
000070 3a e2 e9 bd 94 9b 97 3e e0 a8 99 3d 77 9e 64 3e
       -0.114201024 0.29610884 0.075029135 0.22326075
000080 28 8e 62 be 36 7e 9f bb 1f 4b 1b be 9f 8f 85 3d
       -0.22124541 -0.0048673404 -0.15165375 0.06521534
000090 dd fa 97 3e d2 d5 8d 3e d5 49 15 3e 50 9e 0d 3d
       0.2968358 0.27702194 0.14578946 0.034574807
0000a0 0f 92 3f 3e e6 fb 7f be 3d 80 5f be 12 a3 73 be
       0.1870806 -0.24998435 -0.21826263 -0.23792675
0000b0 69 9b 3b 3e ae 9e 83 3e bf 34 92 3e 9d 30 f0 bd
       0.18321003 0.25707 0.28555867 -0.11728022
0000c0 6c dc 4a 3e 25 6a 48 3e 31 58 75 3e bc 5d 7c be
       0.19810647 0.19571741 0.23959424 -0.24645132
0000d0 f4 f6 a5 be 50 83 05 be b1 de 88 3e 03 30 0f be
       -0.32414973 -0.13038373 0.267324 -0.13983159
0000e0 ce bf 1d 3e 95 64 8d 3e 84 61 1c bc 61 93 ec bd
       0.15405199 0.276158 -0.009544734 -0.11551548
0000f0 e1 6b 32 bd 64 ea 9f 3e 5e 03 73 be a8 60 d4 3b
       -0.043559913 0.31233513 -0.23731753 0.006481249
000100 45 da 42 3e c1 06 80 3e 73 14 5d bd e3 90 43 3e
       0.19028576 0.25005153 -0.05397458 0.19098239
000110 86 d4 8b 3d 21 23 85 3e 76 9c 42 be 8f 39 5b 3e
       0.06827645 0.26003364 -0.19004998 0.21408676
000120 31 15 64 3e 04 cc 80 3d c3 1c ac bd ce 02 1b be
       0.22273709 0.06288913 -0.08403923 -0.15137789
000130 16 4f ce bd d2 a0 13 be 6a a5 b5 3e 30 b8 3b 3e
       -0.10073678 -0.14416817 0.35477763 0.1833198
000140 5e 2c a4 be f3 a6 4d be b0 e1 a3 3d d4 36 b8 3c
       -0.320651 -0.20083217 0.08002031 0.022487082
000150 6f aa 1e be 72 81 42 3e 43 0d 8d 3d bd 17 42 be
       -0.15494703 0.18994692 0.06887295 -0.18954368
000160 b9 19 96 3d be b5 68 be dd 21 df bd 69 65 a9 3d
       0.07329125 -0.22725579 -0.10895131 0.082712956
000170 4a cb 65 3c 03 92 25 bd a5 96 97 3e 4c 97 1e bb
       0.014025519 -0.04042245 0.2960712 -0.0024199067
000180 a3 ee 81 be 3a 13 0d be 94 cb 92 bc d5 ca 2e be
       -0.25377378 -0.13776866 -0.01791934 -0.17069562
000190 9b 23 3e 3e 07 89 8f be 4b 61 91 be f3 75 71 bd
       0.1856827 -0.2803423 -0.2839454 -0.058950376
0001a0 62 fc 43 be 06 08 c1 bd d9 b1 2f be cc 15 5c be
       -0.19139245 -0.094253585 -0.17157687 -0.2149269
0001b0 82 cf 41 be ea f6 9a 3e 9d 36 9c 3e 1f 73 b6 bd
       -0.18926814 0.30266505 0.30510417 -0.08908676
0001c0 70 e4 cb 3c 79 0e e3 bd dd 31 81 bc 31 91 fd 3d
       0.0248892 -0.11086745 -0.015770847 0.12381209
0001d0 e4 a7 25 3e 1f 66 b8 bd 0b ac 84 3e 38 47 28 3e
       0.16177326 -0.09003853 0.25912508 0.16433418
0001e0 6a 2c 9b bd 01 73 4e be 9d 5d 83 3e ba 50 e2 bd
       -0.07576831 -0.20161058 0.2565736 -0.110505536
0001f0 ce e7 ed bd c9 b2 70 bc d5 cf 37 be b9 92 87 ba
       -0.11616479 -0.014691063 -0.17950375 -0.0010343409
000200 94 de 3a be dc 49 bd 3e 0b 58 7f be 7f 85 af 3e
       -0.1824897 0.36970413 -0.2493593 0.34281537
000210 b3 f1 cf be 76 f0 37 be 62 33 e1 bd 34 a8 f1 bc
       -0.4061409 -0.17962822 -0.109961286 -0.02949915
000220 8a 26 99 3e bb 29 94 bd 8d 6d 3a 3e 44 75 d1 3d
       0.29912215 -0.07234522 0.18205853 0.10227445
000230 0c b1 9c 3e ab 5a 31 be 84 81 95 3e b5 b1 4f 3e
       0.30603826 -0.17319743 0.29200375 0.20282634
000240 50 a6 06 3e e3 7c cf bd 43 be eb 3a 37 e3 75 be
       0.1314938 -0.10131242 0.001798578 -0.24012457
000250 2c 80 ae bb 62 5e 8f be 62 b3 81 3d ba da 8d be
       -0.005325338 -0.28001696 0.06333043 -0.27705938
000260 3b 8b f1 bd f8 6f 4a be 3d b0 33 3e 22 01 ab bd
       -0.11794134 -0.19769275 0.17547698 -0.083498254
000270 cb 7a 03 be e3 23 86 be f2 f1 1d be b4 f4 12 bd
       -0.1283981 -0.26199254 -0.15424326 -0.0358779
000280 97 ff 3f 3e 75 2c 54 3e
       0.18749844 0.20720084

gconvs.0.combination_weights f4 [4, 3]
000000 68 37 a1 3e 6f ad 9f 3e 12 4a ab 3e d8 93 a1 3e
       0.31487584 0.31187007 0.3345495 0.31558108
000010 6d de 9f 3e 65 42 ab 3e 42 81 a1 3e f8 86 9f 3e
       0.31224385 0.33449093 0.31543928 0.3115766
000020 81 06 ab 3e c4 9a a1 3e 0a b0 9f 3e 95 05 ab 3e
       0.334034 0.3156339 0.31188995 0.33402696

gconvs.0.weight f4 [3, 6, 6, 4, 3, 3]
000000 bf fd 97 3e 01 a6 b3 3e 6e e5 33 3e a0 e3 9d 3e
       0.2968578 0.35087588 0.17567989 0.30837727
000010 cb d9 d6 be 83 87 d0 be bb 94 c0 3e 2a f2 7b 3e
       -0.41963038 -0.40728387 0.37613472 0.24604097
000020 72 f5 5c 3e 53 d5 21 3e c2 8a cb bc a5 75 38 3e
       0.21578005 0.15804033 -0.024846438 0.18013628
000030 2b a5 75 bb 8b 51 89 be 2d 54 13 bd cf 61 18 be
       -0.003748248 -0.26820025 -0.03596895 -0.14881061
000040 d8 67 89 be 75 d5 c4 3e 3a 23 b5 3e d7 71 2f 3e
       -0.2683704 0.38444105 0.35378438 0.1713327
000050 95 c4 a2 3e 40 81 cc be e4 57 49 be 03 d7 91 3e
       0.31790605 -0.3994236 -0.19662434 0.28484353
000060 7c 70 21 3e 8c 03 ab be be 3f a9 3c 01 60 8b 3e
       0.15765566 -0.33401144 0.020660277 0.27221683
000070 df 0a 41 3e a9 4b a7 be fc c3 8f 3e 10 08 67 3d
       0.18851803 -0.32674912 0.28079212 0.056404173
000080 e6 6b 62 be 54 71 60 3e bb 2b 43 be 97 e6 2b be
       -0.22111472 0.21918231 -0.1905965 -0.16787182
000090 40 93 b1 3e f9 4d b4 be da a0 90 be 41 be c5 3e
       0.34682655 -0.35215738 -0.2824772 0.38621715
0000a0 b9 76 3e be 37 3c a4 3e 61 31 2e be 75 8e bd 3e
       -0.18599977 0.3207719 -0.17011024 0.3702275
0000b0 6b 04 41 3e fe fe a6 be f3 de 83 3e 87 17 95 3e
       0.18849342 -0.3261642 0.25756034 0.29119512
0000c0 90 32 99 3e 79 f6 58 3d fd ec 5e bd 06 bf 06 3e
       0.2992139 0.05296943 -0.05442523 0.13158807
0000d0 ef e1 52 be 51 30 a6 bd e7 de 09 bb 4e 30 95 be
       -0.20594 -0.081146844 -0.0021037401 -0.29138416
0000e0 a4 fa 17 bd 64 a0 ca be ae 90 00 be 22 70 ce be
       -0.037104264 -0.39575493 -0.12555191 -0.40319926
0000f0 76 39 f5 bd c3 1c bf be a5 26 17 3e 9c 3b af be
       -0.119738504 -0.3732663 0.14760835 -0.34225166
000100 99 10 0a be 8e 7e 1e 3e dd 92 82 3e a4 fa 02 bb
       -0.13482894 0.15477964 0.25502673 -0.001998582
000110 83 0a d5 bd f4 b4 7a 3d 0f 7d 80 3e 9f f8 a9 3e
       -0.104023956 0.061207727 0.25095412 0.33197495
000120 9d 82 a3 be 35 e5 ab be ae 8e 88 3e 81 a2 c2 be
       -0.31935588 -0.3357331 0.26671356 -0.38014606
000130 5b d8 0b be 83 e6 b8 bc c5 c4 51 3e 40 c7 88 be
       -0.13656752 -0.022570854 0.20485218 -0.26714516
000140 03 ca 1e be e6 82 bd be 3d 56 5e 3e 3e 51 b0 be
       -0.15506749 -0.3701393 0.21712585 -0.34436983
000150 fc e6 a8 be c1 0c 94 3e 74 3f ab 3e b6 53 a1 3e
       -0.32988727 0.2891598 0.33446848 0.3150918
000160 12 cc 2c be 6e d9 c6 bc e6 74 54 be e1 07 66 be
       -0.16874722 -0.0242736 -0.20747718 -0.22463943
000170 58 1c f8 bd 8e 53 ab bd af 2d 89 be 70 88 62 3e
       -0.12114781 -0.08365546 -0.26792666 0.2212236
000180 37 9a 7b 3e 32 95 8f be 76 13 57 bd e3 c2 ca be
       0.24570547 -0.28043514 -0.052508794 -0.39601812
000190 97 6a 93 bc 6c 1d 82 be e9 67 4a be fd 7e 5a 3e
       -0.017995162 -0.25413072 -0.19766201 0.21337505
0001a0 45 ba 0e be 3e 25 95 3d fe 3e f8 bd b0 ac 7a 3e
       -0.13938244 0.07282494 -0.1212139 0.24479938
0001b0 a7 67 a2 3e 75 fb c5 3e f9 dd ab be 1e 1d 8e 3e
       0.31719705 0.3866841 -0.3356779 0.2775659
0001c0 4c 77 31 be 2b 81 80 3e 6e e3 8d 3e 5b ba 04 3e
       -0.17330664 0.25098547 0.27712578 0.12961714
0001d0 d8 d5 8e be b3 fa c6 3d a3 7b a6 3a be b8 92 bd
       -0.27897525 0.09715786 0.0012701642 -0.07164143
0001e0 29 a2 c7 3d 12 f9 61 3e da 55 81 bd 9c 6f a5 3e
       0.097477265 0.22067669 -0.06315203 0.32311714
0001f0 13 66 67 3e 05 36 98 3c 0a e9 77 be 3d cb 61 bc
       0.22597532 0.018580446 -0.24209991 -0.013781366
000200 10 89 36 be ea fa 93 3d dd 70 20 be f5 17 02 3a
       -0.17825723 0.072255924 -0.15668054 0.00049626763
000210 6b 6e d0 be f9 7d c7 be 64 0c 56 be 7e 12 70 be
       -0.40709242 -0.38963297 -0.20903164 -0.23444554
000220 74 14 03 3e 48 59 32 be ff 69 b1 3e b7 b3 ad 3e
       0.12800771 -0.1741687 0.3465118 0.33926174
000230 ef df c7 3e 22 1c 10 be 5f 55 3c be 62 f8 ac be
       0.39038035 -0.14073232 -0.18391941 -0.3378325
000240 09 ef f1 bd 2e 55 4f be 23 c9 bd 3e f8 07 ac 3e
       -0.118131705 -0.20247337 0.37067518 0.3359983
000250 b5 5b bb be 51 a2 a6 be e5 c2 87 be 7a e2 29 be
       -0.36593404 -0.32545713 -0.2651588 -0.165903
000260 1a 46 4f 3e 31 02 34 3e 86 f2 fe 3c 0d 18 cd be
       0.20241585 0.17578961 0.031121504 -0.40057412
000270 0e 0a 92 be 08 5a 96 bc d0 57 9a be 52 a6 c9 be
       -0.28523296 -0.018353477 -0.3014512 -0.39384705
000280 cb 8b ff bd 64 db 61 3e e2 3e ac 3e b1 79 37 3e
       -0.12477835 0.22056347 0.33641726 0.17917515
000290 30 a9 77 be 47 ab 83 3e 60 e3 29 be 67 16 5e 3e
       -0.24185634 0.25716612 -0.16590643 0.21688233
0002a0 90 e6 93 3e f3 6b 96 3d 6a fb 9a 3e 71 ae be 3e
       0.28886843 0.073448084 0.3026994 0.37242463
0002b0 21 9d a6 be 3a a0 9b be 79 1d aa be 2a 6d 81 be
       -0.32541755 -0.3039568 -0.3322561 -0.25278598
0002c0 d7 7e be be 38 45 56 3e 2a 49 81 be 12 ce e8 3d
       -0.37206146 0.20924842 -0.25251132 0.1136743
0002d0 1a 3c cd 3d 8f 75 26 3e cf d7 b7 3e bf 7b c1 be
       0.10021229 0.16255783 0.35906836 -0.37789723
0002e0 62 e1 0a be eb a1 d2 bd 76 83 87 3d 3f 51 a2 bd
       -0.13562539 -0.1028479 0.06616871 -0.07925653
0002f0 d7 69 2c 3e 91 61 97 bd c4 86 89 3e 22 1f 25 3e
       0.1683725 -0.07391656 0.2686063 0.16125157
000300 1e d2 62 be 03 26 55 3d 3f 4b 06 be 86 87 c2 be
       -0.22150466 0.052038204 -0.13114642 -0.3799402
000310 c3 fa c5 be 9d e7 ec 3d 18 e5 6d be 70 4d 95 3d
       -0.38667879 0.11567614 -0.23231924 0.07290161
000320 92 ca 9e be bd 28 c1 be 43 f7 b3 3c a1 6a 57 bc
       -0.31013924 -0.37726393 0.02196849 -0.013147981
000330 e8 b0 61 3e c9 22 9f 3e e2 95 ad 3d 31 e7 2b bd
       0.2204014 0.31081226 0.084758535 -0.04196853
000340 61 3f 69 be 05 22 c0 3e 78 73 86 be 15 a4 0d bd
       -0.22778083 0.37525955 -0.2625997 -0.03458031
000350 7f 8e c3 bd 44 70 47 bc 6c 38 0d be ce c0 2d 3e
       -0.09548663 -0.012172762 -0.13791054 0.1696808
000360 84 bc c4 be 47 fb bb 3d 83 83 4b 3e 38 d7 8a 3e
       -0.38425076 0.09178787 0.19874386 0.27117324
000370 77 c7 df be 54 e8 3e 3c 06 5a 59 bc 8a 11 89 be
       -0.43706867 0.011652071 -0.013266092 -0.26771194
000380 95 3d a5 be e0 f9 ac bb 14 bc 2b be 30 93 7c 3e
       -0.32273546 -0.005278811 -0.16770965 0.24665523
000390 5a 67 77 3e 67 45 38 3e 07 78 98 bd df ad 5f bd
       0.24160519 0.17995225 -0.074447684 -0.054609176
0003a0 0a 0e b5 be 74 03 ae 3d 53 f5 a9 bd 0b b8 5a 3e
       -0.35362273 0.084967524 -0.08298745 0.2135927
0003b0 d1 7c 17 be 98 1c a1 be b7 ed e7 be 90 57 29 be
       -0.14793707 -0.31467128 -0.4529855 -0.16537309
0003c0 a1 c7 76 3e df da c7 be 7c 25 2b 3e 68 d2 c1 be
       0.2409959 -0.39034173 0.16713518 -0.3785584
0003d0 1a d7 3b be ac 17 69 be 30 f7 7c 3e 57 4c c9 be
       -0.18343773 -0.22762936 0.2470367 -0.39316055
0003e0 e8 a6 88 be 09 b2 94 be 8e db 42 bd cf 3e 09 be
       -0.2668984 -0.2904208 -0.047572665 -0.13402866
0003f0 8e ae c0 be 15 ae 94 be b4 2f e2 be 57 7c 33 3d
       -0.37633175 -0.29039064 -0.4417702 0.04381975

gconvs.1.combination_weights f4 [4, 3]
000000 24 a5 a4 3e 12 30 9f 3e be 1e a6 3e 70 8d a4 3e
       0.32157242 0.31091362 0.3244533 0.32139158
000010 62 2b 9f 3e 13 b3 a5 3e a4 81 a4 3e 75 4a 9f 3e
       0.31087786 0.32363185 0.32130158 0.31111494
000020 90 1e a6 3e 29 61 a4 3e 72 6b 9f 3e d1 02 a6 3e
       0.32445192 0.32105377 0.31136662 0.32424024

gconvs.1.weight f4 [3, 6, 6, 4, 3, 3]
000000 08 2f 95 bd 98 d5 86 3e 32 30 34 be 4e 76 e5 3d
       -0.07284361 0.26334834 -0.1759651 0.112042055
000010 e8 1b 8b 3b 73 fe a0 be d7 17 72 3e 1e ba 8b 3e
       0.00424527 -0.3144413 0.23641907 0.27290434
000020 6d 51 7a 3e 68 6e ee bc 70 0a a0 be ed 42 d3 be
       0.24445124 -0.02910538 -0.31257963 -0.41261998
000030 1b 1b 95 be 7c 09 68 bd ed b6 17 be 2c 79 34 be
       -0.29122242 -0.05664967 -0.14815874 -0.17624348
000040 be cf 51 3e e5 dc 34 3d 29 8e b6 3e 00 2e 70 3e
       0.20489404 0.044155974 0.35655335 0.23455048
000050 7b 39 46 bd 76 e4 c8 be cd 12 ed bc e2 2e ac 3d
       -0.04839466 -0.39236802 -0.028939629 0.0840738
000060 0b ac 41 bc b2 00 81 be f2 bf 2f be 12 a6 71 bd
       -0.011820803 -0.25195843 -0.17163065 -0.058996268
000070 58 14 0f 3e c4 5a 03 bc a5 fb 5a 3e e2 92 38 be
       0.13972604 -0.008017246 0.21385057 -0.18024781
000080 a3 3f 0a 3e 5b f5 98 3e 39 9c 7d be 05 89 9f 3d
       0.13500838 0.2987469 -0.24766625 0.07789806
000090 4d 59 8b 3b 15 8b b6 3e 6c 71 95 3e c1 52 27 3e
       0.004252589 0.35652986 0.29188097 0.16340162
0000a0 82 66 f8 bd ba cd ce be 0d f7 aa be d4 7d ba be
       -0.12128927 -0.40391332 -0.3339161 -0.36424124
0000b0 89 eb 47 3d 43 5b d6 be 82 88 89 3e 06 ae 34 bd
       0.04880861 -0.41866502 0.2686196 -0.044111274
0000c0 c7 55 8e 3d a3 66 a7 3e 2f d4 2d be 3d 1f 92 3e
       0.069499545 0.32695493 -0.16975473 0.28539458
0000d0 5f ec 26 3e fd 53 cb bd d6 5b ca 3d ac 0b 37 be
       0.16301106 -0.09928129 0.098807976 -0.17875546
0000e0 c3 2f 75 be c8 b4 77 be 27 db 08 3e 1f af af 3d
       -0.23944001 -0.24190056 0.1336485 0.085783236
0000f0 fd aa 07 bd 74 5f 0a be 6c c3 b5 bc a0 4a c6 bc
       -0.03312205 -0.13512975 -0.022187911 -0.024205506
000100 42 1d 77 3c 0c d5 27 3e e5 30 ae be b1 79 6b be
       0.015082659 0.16389865 -0.3402168 -0.2299564
000110 64 c2 9c be b5 5a 5e be e9 7a 47 3e 5a 28 0e 3e
       -0.30617058 -0.2171429 0.1948048 0.1388258
000120 f8 dc 54 3e 89 12 84 be ba 7c a3 be 4d fb 5d 3d
       0.20787418 -0.2579539 -0.31931096 0.054194737
000130 04 29 9c be cd 24 48 3e d4 d5 a6 be f3 47 8c bc
       -0.30500042 0.19545288 -0.32585013 -0.017124152
000140 28 a7 3f be fa 42 ac 3e 27 b7 ce be de 00 83 3c
       -0.18716109 0.3364485 -0.4037411 0.015991624
000150 67 4a d6 be 23 69 71 3e 23 de a7 3e 3f 5c 4a be
       -0.4185364 0.23575263 0.32786664 -0.19761752
000160 23 94 0d be 08 d3 43 3d c0 b3 32 3e e4 0f fa 3d
       -0.13826041 0.047808677 0.17451382 0.12210062
000170 72 b0 bd 3e 57 ee 4a 3c de 5c b5 be e0 ec 6a 3e
       0.3704868 0.012385926 -0.35422415 0.22941923
000180 28 b1 5f 3e c4 e6 b3 3e b2 3a b3 3d 32 73 cd be
       0.21844923 0.35136998 0.087514296 -0.4012695
000190 d5 4d c7 bd 8a 1c 17 3e 4c 16 83 3e 77 e4 7f bd
       -0.09731642 0.1475698 0.2560295 -0.06247374
0001a0 d1 90 c0 be 59 ac 3f be b4 2c 0c 3e 91 91 27 be
       -0.37610486 -0.18718089 0.13688928 -0.16364123
0001b0 51 74 c6 3e b2 fa af be 54 c7 4b 3e 5a 12 95 3e
       0.38760617 -0.34370953 0.19900256 0.29115564
0001c0 39 d9 91 3e fa fb 3f 3e 29 e1 01 3e 25 03 be be
       0.2848604 0.18748465 0.12683548 -0.37111774
0001d0 ee d5 98 be 7c 6c 68 be e7 7e c1 3e 64 f5 b0 3e
       -0.29850715 -0.22697634 0.3779213 0.34562218
0001e0 2d 9e 09 bd a1 4b 80 be c2 87 bf be 65 92 bf 3e
       -0.033598114 -0.250577 -0.37408262 0.37416378
0001f0 15 7e 47 3e fd f1 32 be 63 80 a9 3e 3b 30 91 3e
       0.1948169 -0.17475124 0.33105764 0.2835711
000200 8f 02 c4 be b7 06 e6 bd 59 49 c5 bd 83 d8 c6 bc
       -0.38283202 -0.112317495 -0.096331306 -0.024273163
000210 56 0e 9f be 78 b4 61 3e c6 9f d2 be df 45 f5 bd
       -0.31065625 0.220415 -0.41137522 -0.119762175
000220 09 d9 51 be 54 a8 25 3e 8f 14 c4 3e 02 7d c1 3e
       -0.20492949 0.16177493 0.38296935 0.37790686
000230 47 78 91 3e ef 8d 2f 3e 4b 6c 78 be e4 1e 05 bd
       0.28412077 0.17143987 -0.2426006 -0.032500163
000240 1c 09 8f bb e8 d9 62 be eb ed da 3d f4 b1 b1 3e
       -0.0043650996 -0.22153437 0.106899105 0.3470608
000250 d3 e0 ee bb db db da bd 79 d9 77 be c6 f1 16 be
       -0.0072899847 -0.10686465 -0.24204053 -0.14740667
000260 ad 67 c0 3e 58 45 96 bd 53 87 9b 3e 8d d2 ba 3d
       0.37579098 -0.07337445 0.30376682 0.091221906
000270 fc 94 4b 3e 13 34 e6 3c 7d 15 a1 3e 07 c4 7e 3d
       0.19881052 0.028101003 0.31461707 0.062198665
000280 f8 b1 fa 3d bf 4d cc be 1a 67 49 3e c9 dc 88 be
       0.12240976 -0.39903066 0.19668236 -0.26730946
000290 fc b7 d8 bd 6f de 96 be f2 d6 33 be b2 96 38 bc
       -0.10581967 -0.29466578 -0.17562464 -0.011266397
0002a0 38 41 80 be d0 a9 6a 3d ec cb 3f bd 0d 84 ea bd
       -0.25049758 0.057290852 -0.046825334 -0.11450968
0002b0 ca 05 9a 3e b8 7a a6 3e fd f7 a5 be 97 5b b7 be
       0.30082542 0.32515502 -0.32415763 -0.35812065
0002c0 16 f6 3b 3d 11 e7 47 3d c9 ec 3c 3e eb f8 bb 3e
       0.045888983 0.048804346 0.18449701 0.36713347
0002d0 ea a7 3e be 9f 05 83 3e 0a 74 99 3c 7d ea b9 bd
       -0.18618742 0.25590226 0.01873209 -0.09077928
0002e0 e6 5f 1a bc 72 88 b8 bd a1 04 a2 3d fb 06 e7 bc
       -0.009422278 -0.090104 0.07911039 -0.02820157
0002f0 37 9a 6e 3c 7a d0 9e 3e 8d 0f 0d 3c 69 1d 13 3e
       0.014563135 0.3101843 0.008609665 0.14366688
000300 8d 06 4f 3e b2 45 ab bd 08 fe bc 3e 21 c3 85 be
       0.20217343 -0.08362903 0.3691256 -0.26125434
000310 85 14 7a 3e e8 9c 2c bd 2a 2a 9f 3e 3c de d2 be
       0.2442189 -0.042141825 0.31086856 -0.41185176
000320 c9 51 39 3e 68 ab d3 be e0 79 8a be d3 ec b8 b9
       0.18097605 -0.4134171 -0.27046108 -0.00035271663
000330 48 3c 6a 3e 46 04 be 3e 3e 9a 85 be 06 be 11 3e
       0.22874558 0.37112635 -0.2609424 0.14232644
000340 87 c5 bc 3e 4f b8 4a be 77 4c 83 be ac 3d 43 3e
       0.3686945 -0.1979687 -0.25644276 0.19066495
000350 72 ff 68 3d 85 76 6b be 50 3a 9b 3d 42 9c a3 bd
       0.056884237 -0.2299443 0.075794816 -0.07988788
000360 f1 81 9d be 36 66 81 be 21 d9 f7 3d 49 b1 b7 3e
       -0.307632 -0.25273293 0.12101961 0.35877445
000370 e8 4c bb be b1 32 7d be c3 30 72 be 75 70 08 be
       -0.36582112 -0.24726368 -0.23651414 -0.13324149
000380 9e 3e bb be ec cd 81 3e aa 44 cf be 25 06 8b be
       -0.3657121 0.25352418 -0.40482074 -0.27153125
000390 b6 91 a2 3e cc 80 93 3d 5b 3b 9a bd 8d c7 a7 be
       0.31751794 0.072023004 -0.075308524 -0.32769433
0003a0 05 31 73 bd 44 da 72 be f4 d4 3c 3e de ef b8 be
       -0.05937292 -0.23716074 0.1844061 -0.36120504
0003b0 e4 dc 8f bd 0b 5b 43 be 99 64 d1 3b 93 c8 63 3c
       -0.070245534 -0.19077699 0.006390166 0.013902801
0003c0 7f a7 3b 3e d1 84 6b bc fd e3 d5 bd 0f e0 3d 3d
       0.18325613 -0.014374928 -0.10443876 0.046356257
0003d0 90 a2 03 3e 8f 7e 05 be 71 ce bf bd 8d 4f a1 3d
       0.12854981 -0.1303656 -0.093655474 0.07876501
0003e0 1d 62 6c be 8d bf 83 be d8 56 66 3e ce 52 bd 3e
       -0.23084302 -0.2573208 0.22494066 0.36977237
0003f0 5b 34 89 be 91 f0 0b 3e 08 28 b5 be 5a dc 3f be
       -0.26797757 0.13665988 -0.35382104 -0.18736401

gconvs.2.combination_weights f4 [4, 3]
000000 04 70 b0 3e 93 fd 9f 3e a9 34 a9 3e 9d 50 b0 3e
       0.3446046 0.3124815 0.3304799 0.34436503
000010 db 01 a0 3e 97 6b a9 3e 18 96 b0 3e f1 32 a0 3e
       0.31251416 0.33089897 0.34489512 0.31288865
000020 c8 52 a9 3e ae 74 b0 3e e2 e0 9f 3e df 80 a9 3e
       0.3307097 0.3446402 0.3122626 0.33106133

gconvs.2.weight f4 [3, 6, 6, 4, 3, 3]
000000 53 72 9b 3e 59 4a c3 3e c0 d2 6e be dc 9d 4d 3e
       0.3036066 0.3814266 -0.23322582 0.2007975
000010 d5 2a 59 3e 0a d3 29 be 31 40 06 be bc 46 fc 3d
       0.21207745 -0.16584411 -0.13110425 0.12318179
000020 b0 23 b7 3e 63 95 69 bb 4d e8 ba be b7 b1 34 3e
       0.35769415 -0.003564202 -0.36505356 0.17645918
000030 b9 9a 94 3e 2e f1 74 be ec 75 79 be 93 ba 7c be
       0.29024294 -0.23920128 -0.2436139 -0.24680547
000040 65 33 3a 3e 72 d7 99 be b2 5e 77 3e 2a 82 49 be
       0.18183668 -0.30047184 0.24157217 -0.1967856
000050 2c da dc bc 58 a0 87 be 72 5a a5 3e 9c 04 c5 3e
       -0.026959501 -0.2648952 0.32295567 0.3848008
000060 6c 59 42 3e 3c ac 49 be 89 ea be 3e 62 5a f6 bd
       0.18979424 -0.19694608 0.3728831 -0.12028958
000070 57 d2 b6 be c2 27 4f be de 8f a0 3e 43 be 22 3d
       -0.35707352 -0.2023001 0.31359762 0.03973223
000080 4c 16 61 3e bd 7e a5 3e 72 7c a7 3c 87 36 bf 3c
       0.21981162 0.32323256 0.020445082 0.02334143
000090 ea d9 0d be 75 0d 37 be 4c 0d d2 3e 97 a8 87 3e
       -0.13852659 -0.17876227 0.4102577 0.2649581
0000a0 ef 84 14 3c a8 04 62 3e be 79 a7 bc 76 37 85 be
       0.009064897 0.22072089 -0.020443793 -0.26018876
0000b0 c6 72 79 be b5 29 11 be 9b 66 a2 3d f0 04 8e be
       -0.24360189 -0.14176066 0.07929727 -0.27738142
0000c0 8e 6e a5 3e 7b 4c d3 3e 22 d8 bb 3d db 19 80 be
       0.3231091 0.41269287 0.091720834 -0.25019726
0000d0 27 ec db 3e 7e cc 03 3e 6e 63 48 3c 68 45 e9 bd
       0.42953607 0.12870976 0.012230737 -0.11390191
0000e0 ce 39 a0 3e 25 a5 8d 3e cf 03 f6 3d ca 76 a1 3e
       0.312941 0.27665058 0.12012445 0.3153594
0000f0 19 3f 31 3e 64 09 bf 3d 8a ec 14 bd 7e 6b 34 3e
       0.17309226 0.09327963 -0.036358394 0.1761913
000100 3c dc b3 3d a4 5b 96 3e b9 f7 d6 3e 14 e5 b0 be
       0.08782241 0.2936679 0.41985872 -0.34549773
000110 2f 8c 2c be e8 1b 60 be c9 f4 88 3e 40 de a2 3e
       -0.16850351 -0.21885645 0.26749256 0.31810188
000120 00 2b 94 be e2 95 80 3e 18 04 a9 3e 80 65 da 3e
       -0.28939056 0.25114352 0.33010936 0.42655563
000130 ca 39 d4 3d 35 e7 57 be dd 95 f1 3d 13 94 44 3e
       0.10362585 -0.21084292 0.11796162 0.19197111
000140 5a 57 df 3e 92 51 c8 be 4d 59 0c be fb 67 69 be
       0.4362133 -0.39124733 -0.1370594 -0.22793572
000150 da 8a aa be ce b0 9b bc d6 da b1 3e 2b eb 82 be
       -0.3330906 -0.019005205 0.3473727 -0.25570044
000160 d5 ba 0f 3e cf a6 43 be d9 b9 af 3d d4 89 4b be
       0.14036115 -0.19106601 0.085803695 -0.19876796
000170 52 0c c8 3e 77 57 3a bd 73 32 b1 3d 1b 2c dc 3e
       0.390719 -0.04549357 0.086522005 0.430024
000180 df 01 d2 3d bc 16 a3 be d9 e1 b7 3e 29 9d 03 3e
       0.10254263 -0.31853282 0.35914496 0.1285292
000190 7e 14 0a 3e 5b 1a 85 3e de ed cc 3d 1c b0 1e be
       0.1348438 0.2599667 0.10006307 -0.15496868
0001a0 a9 24 aa be b9 6e 00 3e e3 9a 99 bd 4d 34 ce 3e
       -0.33231094 0.12542237 -0.075002454 0.40274277
0001b0 7b 05 05 be 65 0e ad bd a5 96 6c 3e 8d 17 ba 3d
       -0.12990372 -0.08450011 0.23104341 0.09086523
0001c0 09 9c 2c bd f2 86 26 3e df 63 29 3b 66 73 57 bd
       -0.042140994 0.16262415 0.0025846881 -0.052600287
0001d0 30 54 47 3e 3b b2 3b 3d a3 73 14 be b4 21 2f 3e
       0.19465709 0.04582427 -0.14497237 0.171027
0001e0 bb 3b 5b be 2c ba f4 bd 15 7b 71 3d b5 ac c1 be
       -0.21409504 -0.11949572 0.05895527 -0.37827078
0001f0 7a 3c d2 be 74 55 d4 bd 2c 04 b2 be 9e fc 5b bd
       -0.41061765 -0.103678614 -0.34768808 -0.05370771
000200 1f 0f 8f be 97 38 c6 3d 74 17 99 3e 8b c6 01 3e
       -0.27941224 0.096787624 0.29900706 0.12673394
000210 9e 03 bc bd 61 3c 81 be ef c6 f2 3e e7 2d 87 3d
       -0.091803774 -0.25241378 0.474174 0.06600552
000220 56 06 8a 3e 98 4a bd be 9b ad 9e be e0 b5 90 be
       0.2695796 -0.36970973 -0.30991825 -0.2826376
000230 99 72 34 be 31 72 b5 bb df b1 74 3e 7a 9a 61 be
       -0.1762184 -0.0055372943 0.23895977 -0.22031584
000240 25 c5 88 3d e5 0b 59 3e 5f d3 7b 3e 6c 49 8d be
       0.06678227 0.21195944 0.2459235 -0.2759508
000250 4e 54 a6 3d cd 93 40 be 2a 73 08 bd 8e 21 93 3e
       0.081215486 -0.18806382 -0.033312954 0.28736538
000260 29 3e 67 3c ca 15 b9 3e cd 07 d0 bd 47 8a 99 3d
       0.014113941 0.36149436 -0.10157738 0.074970774
000270 89 80 91 3e c5 fa 2e bd 91 66 2a be 8d 2a cb bd
       0.28418377 -0.04271962 -0.16640688 -0.09920225
000280 74 dc 7c be 32 69 fe bd fa 02 bd 3e a6 f1 72 3e
       -0.24693471 -0.12422408 0.36916333 0.23724994
000290 f5 d3 be 3e 66 56 59 bd 45 f2 ca bc 40 6f 84 3d
       0.37271085 -0.05306091 -0.024773726 0.06466532
0002a0 ce d5 82 3c c1 be 98 3e 73 e8 4e 3e 44 0a d8 3e
       0.01597109 0.29833034 0.2020586 0.42195332
0002b0 81 b5 ee 3e 62 9f f8 3d 24 fc 54 3e 2d ad 8d be
       0.46622851 0.12139775 0.20799309 -0.27671185
0002c0 57 65 ee 3c dd 95 b5 be a9 6c ce 3d 2c 34 a8 3d
       0.029101057 -0.354659 0.10079319 0.08213076
0002d0 38 40 38 be 42 82 0a be d4 77 ff 3e 31 25 85 be
       -0.17993248 -0.13526252 0.4989611 -0.26004937
0002e0 bb 00 9e be 22 67 8c be 7e 08 a3 be bf d6 3a 3e
       -0.30859932 -0.27422434 -0.31842417 0.18245982
0002f0 62 1b 93 3e 49 ae 2e 3e 6c b8 ba 3e 3f 89 ac 3e
       0.2873183 0.17058672 0.36468828 0.3369846
000300 00 be d1 3e 87 62 2d 3c 5e ec 9f be 79 d2 f1 3b
       0.4096527 0.010582573 -0.3123502 0.0073798266
000310 ea d5 81 3e 84 26 a1 be a3 42 aa be 1c 85 9b 3e
       0.25358516 -0.31474698 -0.33253965 0.30374992
000320 16 e1 33 3e c9 8f be 3d 1d a9 5a be 95 2f f5 bc
       0.17566332 0.093047686 -0.21353574 -0.029929915
000330 c8 2e 5a bd 84 c3 99 3d f9 28 bf 3e 85 a5 28 be
       -0.05326727 0.07507995 0.37335947 -0.1646939
000340 00 ba 82 be bb ee 15 3d e2 27 ae 3d 34 7f 91 be
       -0.25532532 0.036604624 0.08503701 -0.2841736
000350 18 fd bd bd ae 45 a6 bd f0 ad 37 3d db 36 8d 3d
       -0.092767894 -0.08118759 0.044843614 0.068952285
000360 2d 85 9b 3e 45 cf 7d 3e 36 4d a5 3e 66 63 9d be
       0.30375043 0.24786098 0.3228547 -0.30739897
000370 9d fd 71 be ad 6a fa 3c aa ab 3f be 23 56 fc bd
       -0.23631902 0.030568445 -0.18717828 -0.12321117
000380 b2 ed 1e 3e 7b 00 c2 be 19 f8 72 be 60 21 63 bc
       0.15520361 -0.37890992 -0.23727454 -0.013862938
000390 4a 23 b2 3e b7 1f 6d 3e 42 09 c9 be fb 5a ce be
       0.34792548 0.2315663 -0.39264876 -0.40303788
0003a0 db d5 b3 3e da d8 2d be 94 0e ce 3d 84 6d 32 be
       0.35124096 -0.16977254 0.10061374 -0.1742459
0003b0 4d 06 36 bd 00 db 32 be b5 58 23 3e fa de 7a be
       -0.044439603 -0.17466354 0.15951808 -0.24499121
0003c0 db 76 9b be 20 ca a6 be c4 a8 06 3e c9 2d c7 be
       -0.30364117 -0.32576084 0.13150316 -0.3890212
0003d0 88 ba 56 3e 22 66 ac 3e ca 8c 4d be bf d8 f4 3d
       0.20969594 0.3367167 -0.20073238 0.119554035
0003e0 af c1 93 bd 1c 4b 74 be fe 06 95 be 63 3f bd 3e
       -0.072146766 -0.23856777 -0.29106897 0.36962423
0003f0 75 da 3e 3d 93 a0 48 3e f3 e2 8a 3d 28 7a 0c 3e
       0.046595056 0.19592504 0.067815684 0.13718474

gconvs.3.combination_weights f4 [4, 3]
000000 81 f1 ab 3e dc dc 99 3e 82 27 b8 3e 0a ea ab 3e
       0.3358269 0.30051315 0.35967642 0.33576995
000010 53 ef 99 3e 6b 12 b8 3e ab bc ab 3e 59 e6 99 3e
       0.30065402 0.35951552 0.3354238 0.30058554
000020 c1 fc b7 3e 2d b2 ab 3e f6 d8 99 3e db ed b7 3e
       0.35935023 0.33534375 0.3004834 0.35923657

gconvs.3.weight f4 [3, 6, 6, 4, 3, 3]
000000 9d d9 18 3d 39 27 09 be 3c 31 98 3e 77 d7 91 bd
       0.037316907 -0.13393869 0.29725063 -0.07121175
000010 e4 24 12 be 68 95 a7 3e 1e 86 8a 3e 75 59 9c bc
       -0.14271885 0.32731175 0.27055448 -0.019085625
000020 21 48 2b 3e b9 ee bf 3e eb 26 59 be 0d 3b bf bd
       0.16726734 0.37486818 -0.21206252 -0.09337435
000030 04 78 14 be 7e 91 7c 3d cf 2a 19 3e 1c 2e 1f be
       -0.14498907 0.06166219 0.14957736 -0.15544933
000040 44 fd 93 3d f6 d9 bb 3e 12 70 05 3e 2c 3a a6 bd
       0.07226041 0.36689728 0.13031033 -0.08116564
000050 d1 11 c5 be 70 2a b9 be f7 b2 4b be 69 3e 8c 3e
       -0.38490155 -0.3616519 -0.19892488 0.27391365
000060 f7 1c 77 3e 6e dd 06 3e 0b 6a bf 3e a8 04 bd be
       0.24132143 0.13170406 0.37385592 -0.36917615
000070 8c 54 b4 be db 47 c9 be 65 18 da be e9 83 c1 3d
       -0.35220754 -0.39312634 -0.42596737 0.09448988
000080 ce 08 c2 3e 90 f5 a7 3e 7d 98 c4 3e a4 42 4c be
       0.37897342 0.32804537 0.3839759 -0.19947296
000090 45 36 90 be b0 66 0a be 89 c9 b8 be ad 02 4d 3e
       -0.28166404 -0.13515735 -0.3609126 0.20020552
0000a0 b0 43 23 bd 86 9c 9b 3d bd 70 00 bd 28 0e 94 3d
       -0.039859474 0.07598214 -0.031357516 0.072292626
0000b0 9c 1f bf bd dc a3 b0 3e 81 f9 71 be 1f 3e 3f 3e
       -0.09332201 0.34500015 -0.23630334 0.18676041
0000c0 83 fd 94 be 86 bf c5 be 1d 69 0e 3e e8 02 be be
       -0.29099664 -0.38622683 0.13907285 -0.37111592
0000d0 2e f4 2f bd a5 2c 7e 3d 2e 83 1f be 9b af a8 be
       -0.042957477 0.062054295 -0.15577385 -0.32946476
0000e0 b5 dc 96 3e a6 d5 d3 bd 80 53 b4 be c5 c7 aa 3e
       0.2946526 -0.103434846 -0.35219955 0.33355537
0000f0 de a7 0e be 84 46 9d 3c 7b 98 73 bd b6 b3 4c 3e
       -0.13931224 0.019198664 -0.05947159 0.1999043
000100 07 96 b5 3e a5 88 e8 bc 6b 7f 54 be 05 f5 ac bd
       0.35466024 -0.02838547 -0.20751731 -0.08445171
000110 f8 17 45 be 7e c0 4e bc 45 23 96 3c e3 53 50 3e
       -0.19247425 -0.012619136 0.018327365 0.203445
000120 b6 7a 22 be 08 da 9d 3d 3a 79 d4 be 33 07 2d 3e
       -0.15867123 0.07707602 -0.4149874 0.16897278
000130 f9 98 a7 3e 03 15 67 3d 44 70 96 be a0 f8 65 3e
       0.32733896 0.056416523 -0.29382527 0.22458124
000140 0e fd 20 be bd 7b 0e 3e 18 b2 83 3e c4 da 99 be
       -0.15721533 0.1391439 0.25721812 -0.30049717
000150 02 17 71 3e 55 02 ad 3e 56 4d 62 3e 08 a1 5d be
       0.23543933 0.33790842 0.22099814 -0.2164346
000160 04 07 54 3e 99 48 bb be 3c 79 86 be 36 01 9a 3d
       0.20705801 -0.36578825 -0.2626437 0.07519762
000170 96 24 1f be 04 38 70 3e d0 37 c9 bd 31 28 15 bc
       -0.155413 0.23458868 -0.098250985 -0.009103821
000180 58 e7 1e 3e be f4 c7 be e0 56 c1 bd 7a e6 84 bd
       0.15517938 -0.3905391 -0.09440398 -0.064892724
000190 6f a4 c3 3e 7f e7 5d bd cc 50 a5 3e b7 7c f3 bd
       0.3821139 -0.05417585 0.32288206 -0.11889022
0001a0 3a bf 4d 3e 83 a6 95 3e f9 a6 9d be 33 3a a0 3e
       0.20092478 0.292286 -0.30791453 0.31294402
0001b0 f5 df 70 bb 5b 3e 50 be cb 00 31 3e dd fc 7e be
       -0.0036754583 -0.20336287 0.17285459 -0.24901147
0001c0 b6 52 62 be 03 e3 8d 3e 07 ac 36 be 11 da 86 3e
       -0.22101864 0.2771226 -0.1783906 0.26338246
0001d0 08 fe 2b bd 5f f5 b0 3e d0 05 d8 3e 8a b4 18 bd
       -0.04199031 0.34562203 0.42191935 -0.03728155
0001e0 8e 36 bd 3e 8e e5 86 bd 70 ed 33 be 12 29 c7 be
       0.36955684 -0.06586753 -0.17571044 -0.38898522
0001f0 5a 56 b4 be c8 95 57 be 19 3c 8c be 55 01 da 3e
       -0.3522213 -0.21053231 -0.273896 0.4257914
000200 cf d3 9e be a1 72 54 3e 1a 37 9c 3e 58 74 fe 3d
       -0.31020972 0.20746852 0.3051079 0.124245346
000210 66 dc 83 3e 24 ea ac 3e 99 a5 38 3e d8 00 8c 3e
       0.25754088 0.33772385 0.1803192 0.27344394
000220 3f 9e f4 bd 80 62 82 3e ac 49 70 3e f3 ac 6f 3e
       -0.119442455 0.25465775 0.23465604 0.23405819
000230 6f 0b 5c 3d bf 24 a2 3e 01 5f 23 3e da 66 d5 be
       0.05372184 0.3166866 0.1595421 -0.41680032
000240 c6 78 92 bd db 3e 09 3e fe 31 9c be 67 b6 80 be
       -0.07151942 0.13402884 -0.3050689 -0.25139162
000250 69 e6 a8 bc 75 11 bb 3e 1b d3 a4 3e 0c fa 9e be
       -0.02061768 0.36536756 0.3219231 -0.31050146
000260 6b e3 e4 bc e6 1d 98 3e b8 b3 17 3e b3 15 5b be
       -0.027940473 0.2971031 0.14814651 -0.21394996
000270 d3 94 59 be c6 87 67 3e a3 84 b7 3e 3b df 26 be
       -0.21248178 0.22610387 0.3584338 -0.16296093
000280 5d 9d b6 3e b0 0b 87 be e8 8d 9a be 22 57 a1 bc
       0.35666934 -0.26376104 -0.3018639 -0.019694868
000290 d7 b1 61 bc 4d c6 1c be 0d ee 98 be 69 5e 81 bd
       -0.0137753105 -0.1531002 -0.29869118 -0.063168354
0002a0 14 9f ad 3e c2 8b df 3d cb e0 3f 3e 41 c1 42 3e
       0.3391043 0.109153286 0.18738095 0.19019033
0002b0 f2 11 b0 be 32 b0 c5 3e bf ff 8a 3e 1e b2 98 be
       -0.3438869 0.3861099 0.27148244 -0.29823393
0002c0 e2 55 e9 3d 40 66 c1 be 6b 90 75 be 7b 96 c6 be
       0.11393334 -0.37773323 -0.23980872 -0.38786682
0002d0 23 9b c5 3e 65 73 b1 3e 00 03 d0 3d d9 23 bc be
       0.38594922 0.34658352 0.10156822 -0.367461
0002e0 2f 7f bd bb 7e 5e 68 3e bb 4e 8c be 95 3b 4f bd
       -0.0057829837 0.22692296 -0.27403817 -0.05059393
0002f0 1b f0 99 3c 8f 0a ac bd f2 22 b5 be 91 35 81 3e
       0.018791249 -0.084004514 -0.35378224 0.2523618
000300 7d 64 e0 3d e3 67 af be 12 1c b1 3d c4 c9 80 3d
       0.109566666 -0.34258947 0.08647932 0.06288484
000310 23 bd 5e be f9 cb ba 3e a2 fd c1 3e dd 73 8f be
       -0.21751837 0.36483744 0.3788882 -0.28018084
000320 5c 13 2c be 60 53 93 be 81 a4 f8 3d 9b 75 4f 3d
       -0.1680426 -0.28774548 0.12140752 0.050649267
000330 24 7b 8c 3e c9 5c 25 3e d6 13 38 be 55 7a d7 3d
       0.274377 0.16148676 -0.17976317 0.1052138
000340 6e 47 4a 3e a3 7e 83 3e 4c c6 97 3e 5c 02 39 bc
       0.19753811 0.25682554 0.29643476 -0.011292066
000350 24 f9 a3 3e 46 31 89 3e 72 05 a6 3e ba c8 61 3e
       0.32026017 0.26795405 0.3242603 0.22049227
000360 f0 e6 cd bd 98 07 88 be ec dc a6 3e 1c a7 d7 3e
       -0.100538135 -0.26568294 0.32590425 0.42119682
000370 73 13 22 3e 81 59 1b be c8 10 c9 3e 5e fa 17 be
       0.15827732 -0.15170862 0.39270616 -0.14841601
000380 19 bd a5 3d f9 9e 90 3e f3 73 1e be 40 87 8e be
       0.08092708 0.28246287 -0.15473919 -0.27837563
000390 c4 c3 03 3d 78 f6 ab bd 94 1c ec bd 3a 5f eb 3e
       0.03216912 -0.083966196 -0.11528888 0.4597109
0003a0 14 e6 cd 3e 87 fe 42 3e 52 75 8d 3e 69 4d 89 3e
       0.40214598 0.19042407 0.2762857 0.26816872
0003b0 30 40 f0 3e e7 14 58 be 63 e6 03 3f 5c 5f 03 be
       0.4692397 -0.21101724 0.5152342 -0.12829345
0003c0 71 77 7f be 9c e0 03 3e 70 72 15 3d b2 ef 97 3e
       -0.24947907 0.1287865 0.03648609 0.2967506
0003d0 00 62 e0 3e ba 1e 84 3e b1 8e dd 3e 51 bf 37 bd
       0.43824768 0.25804693 0.43272927 -0.044860188
0003e0 3a 50 94 3e 92 56 a0 bd c9 ae 6a 3e 74 7c 8e be
       0.28967458 -0.07829012 0.22918238 -0.27829325
0003f0 78 09 b5 3e 92 84 e7 3c 15 7c c1 be 31 e5 b7 3e
       0.35358787 0.028261457 -0.3778998 0.35917047

gconvs.4.combination_weights f4 [4, 3]
000000 34 ae a6 3e eb 5f a2 3e fa 36 9f 3e b9 e3 a6 3e
       0.3255478 0.31713805 0.3109663 0.32595614
000010 80 98 a2 3e 93 5c 9f 3e 31 cc a6 3e 44 e6 a2 3e
       0.31756973 0.31125316 0.3257766 0.31816304
000020 93 97 9f 3e ad e0 a6 3e 93 47 a2 3e ba 3b 9f 3e
       0.3117033 0.3259329 0.31695232 0.31100255

gconvs.4.weight f4 [3, 6, 6, 4, 3, 3]
000000 51 b1 55 3d 12 3f 67 3e 12 a2 ba 3d da 41 ca bd
       0.052171055 0.22582653 0.09112944 -0.098758414
000010 de dd 30 bd d3 11 93 3e 1a fd 5d be 12 0d 1c 3d
       -0.04318034 0.28724536 -0.21678582 0.038098402
000020 c4 1a 86 3e cd cb 18 3e 31 ef 8e 3e d0 64 71 3e
       0.26192296 0.14921494 0.27916864 0.23573613
000030 2c 69 af 3e 21 26 e1 bd 3d 0b a3 bc b6 40 02 be
       0.34259927 -0.10993601 -0.01990282 -0.12719998
000040 c7 98 58 3e 4f 9d 72 be 2b df bf bd 4f 59 b7 3e
       0.2115203 -0.23692821 -0.09368738 0.35810325
000050 5e dd bf be a9 80 e0 bc c4 bd cf be f6 52 c7 bd
       -0.37473577 -0.0274051 -0.40574467 -0.097326204
000060 70 7b 09 3d ae 4d fd bc 02 f1 07 be 2d e2 7d be
       0.033564985 -0.03092083 -0.13275531 -0.2479331
000070 a6 87 1a 3d 66 2b 27 be 8f 13 4b be 19 f1 00 3e
       0.03772702 -0.16325149 -0.1983168 0.12591971
000080 de 83 be bd 12 76 12 3e 3a 65 85 3d b3 ab 2f be
       -0.093024954 0.14302853 0.06513448 -0.17155342
000090 cc f4 81 be ce fa 50 be 14 41 d9 3d 19 b6 ae 3e
       -0.25382078 -0.20408174 0.10608116 0.34123304
0000a0 45 ec 8a be 40 e8 09 3e 5e 23 9d be 55 c6 43 3d
       -0.27133384 0.13467503 -0.30691046 0.047796566
0000b0 1e e2 1d 3e f2 89 55 3d 39 45 64 be 63 7e a3 3e
       0.15418288 0.052133508 -0.22292031 0.31932363
0000c0 bd 7d 31 be 92 27 ba 3e 55 d9 9f bd 07 e1 89 bd
       -0.17333122 0.36358315 -0.07805125 -0.06732374
0000d0 94 29 c3 be 86 ef a1 be 4b 2d 9b 3d d6 d5 94 bd
       -0.3811766 -0.31628054 0.07576998 -0.072673485
0000e0 33 e2 ac be e0 00 c0 be 96 c6 23 be a1 a2 b5 3e
       -0.33766326 -0.37500668 -0.15993723 0.35475639
0000f0 c5 70 2f be e8 c7 a8 3e 01 78 8e 3d 6e af bc bd
       -0.17132862 0.32965016 0.06956483 -0.09213148
000100 27 05 27 be 8d 8f 2d be 84 01 80 be 2a 8e 3b 3e
       -0.16310559 -0.16949292 -0.25001156 0.1831595
000110 84 32 8a bd fe 1e fe bd 7d ef 43 3e 3a f5 6a 3a
       -0.06747916 -0.12408255 0.19134326 0.0008962933
000120 27 fb 8b 3e b6 9f 1e be ac 3b 98 3e bf fc a1 3e
       0.27340052 -0.15490612 0.29733026 0.31638142
000130 a8 01 2e be f7 f8 28 bd e0 5b 1d 3d b7 29 21 be
       -0.1699282 -0.041253056 0.038417697 -0.15738569
000140 e4 e7 97 3e 73 e2 8d be 68 49 88 3e 92 fa d2 bd
       0.29669106 -0.2771183 0.26618505 -0.10301699
000150 89 83 b1 bd 00 82 a4 3e 2a e5 e5 bd 1f 11 7c 3c
       -0.086676665 0.32130432 -0.1122535 0.015384941
000160 63 cc 98 be af ee 4b be ca f3 43 bb b8 4d 40 3e
       -0.29843435 -0.1991527 -0.0029899948 0.18779647
000170 1a 88 29 3e f2 51 64 3e ae f7 07 be be 49 b6 3e
       0.16555825 0.22296885 -0.13278076 0.35603136
000180 77 cd 65 be fa 37 b3 3e b7 da 90 3e 0c 3f 21 3e
       -0.2244166 0.35003644 0.28291866 0.15746707
000190 60 29 84 3d 95 45 c1 be 00 40 44 3e 10 f1 89 be
       0.06453204 -0.377484 0.19165039 -0.2694173
0001a0 25 7a ac bd 44 90 a0 bd 48 0d 5b be c3 a9 a2 be
       -0.08421735 -0.078400165 -0.21391785 -0.31770143
0001b0 3d 84 89 3e fd cb a8 3e d3 aa 67 bd 9b 14 a7 39
       0.26858702 0.3296813 -0.056559395 0.00031868074
0001c0 7b 83 c9 bd 81 03 c1 be 55 89 6a 3e 81 a4 ac 3d
       -0.09839531 -0.37697986 0.2290395 0.08429814
0001d0 ee 88 ae 3e 41 a6 ee bd 0e 44 fc bd ca 11 91 bd
       0.34088844 -0.11652804 -0.12317668 -0.07083471
0001e0 ab 29 61 bc 22 a8 83 3d 83 51 0b 3e ac a2 3b 3e
       -0.013742845 0.06428553 0.13605313 0.18323773
0001f0 3e 64 f6 bd 7e c8 16 be b2 d7 5a be 1f ad 04 3e
       -0.120308384 -0.14724919 -0.21371344 0.12956665
000200 d9 32 8a bd 4a 38 58 3e c8 2c 8c be e9 dd 8a 3e
       -0.0674798 0.21115223 -0.27377915 0.2712243
000210 7d 1a 13 be da 1e 11 be 47 95 ab be ab c0 90 3e
       -0.14365573 -0.14171925 -0.33512327 0.28271994
000220 5f 41 a4 3e bd 29 54 be 2a 5a 10 3e 79 0b a0 bc
       0.32081124 -0.20719047 0.14096895 -0.01953672
000230 cc 00 a7 3e 0b b9 ba 3e d7 78 1e 3e 00 08 2e be
       0.32617795 0.36469302 0.15475784 -0.1699524
000240 90 40 87 be d4 f7 89 be 0e 4a 7d 3e 01 77 a4 3e
       -0.26416445 -0.2694689 0.24735281 0.32122043
000250 7a f0 af be 33 35 1b be 59 da f1 bd 0f 4f 55 bd
       -0.34363157 -0.15157013 -0.11809225 -0.05207735
000260 79 b8 b1 be 5e 16 f1 3d df ef 98 be e9 ea 52 bd
       -0.34711054 0.11771844 -0.29870507 -0.05149356
000270 7d d2 4a 3e 47 9c 59 3e 42 1c a8 3c 63 9a 93 3e
       0.19806857 0.21251021 0.020521287 0.28828725
000280 be 48 da be 5d 94 de be 7e 6f 54 be b4 65 72 be
       -0.42633623 -0.43472567 -0.20745656 -0.23671609
000290 95 7b cc be 7b 8e 6f be 1d fd 03 be 19 14 91 be
       -0.39938036 -0.23394196 -0.12889524 -0.28335646
0002a0 77 f8 7d be 83 dc 80 be 1c ce aa be 9f 99 c9 be
       -0.24801813 -0.25168237 -0.33360374 -0.39375016
0002b0 dd 80 81 bd 66 97 e6 bc fc 0e d6 bc 52 a8 67 be
       -0.06323407 -0.028148364 -0.026130192 -0.22622803
0002c0 67 3c a0 3e 74 7f 9a 3e 4d 57 9e 3e 01 f7 e5 3d
       0.31296083 0.30175364 0.3092598 0.11228753
0002d0 e5 fe 0e be 1b 4a 17 be 56 52 2e be 84 12 e8 bc
       -0.13964422 -0.14774363 -0.17023596 -0.028329141
0002e0 13 7f b3 bd 21 14 11 3e d2 39 25 3e 98 fb 8d be
       -0.08764472 0.14167835 0.16135338 -0.27731013
0002f0 2d 7e 62 be 24 79 b8 bd 35 a6 a8 3e 05 c8 10 3e
       -0.22118445 -0.09007481 0.32939306 0.14138801
000300 17 7c 23 bd 8d 33 8a 3e ae d5 f7 bd d1 04 eb bd
       -0.039913263 0.26992455 -0.12101303 -0.11475528
000310 4c da 30 3e fc fc 00 bd 0f c3 22 bc 50 ca 61 3e
       0.17270774 -0.031491265 -0.009934201 0.22049832
000320 90 1e 16 3e 26 46 84 3c d4 c7 db 3a d7 80 88 3d
       0.14660096 0.01614673 0.0016767927 0.06665199
000330 c4 38 aa be 76 d8 c5 bd 26 14 f8 bc 06 85 1c 3e
       -0.33246434 -0.09660427 -0.030283045 0.1528512
000340 76 e4 c4 3e 55 bb a1 be 68 5a fd 3d 4b 13 5d be
       0.38455552 -0.31588235 0.12370759 -0.21589391
000350 75 8b ab 3d e1 5d 04 3c 57 02 5f 3e da b3 86 be
       0.08376209 0.008079023 0.21778236 -0.2630909
000360 fc 41 aa bd 92 95 af be 15 e1 18 3e 11 8f c5 be
       -0.08313367 -0.342938 0.14929612 -0.38585714
000370 5a ce bf bd 77 61 aa 3e e3 79 ec 3d 1c 62 54 be
       -0.0936553 0.33277485 0.115466855 -0.20740551
000380 ef a8 ba be 49 36 d1 bd 82 b7 01 be e9 5c 49 bc
       -0.3645701 -0.10215432 -0.12667659 -0.012290218
000390 c3 fc a3 bd ff 6a 22 3e 70 1b 8a be 54 01 90 3d
       -0.08007195 0.15861128 -0.26974058 0.07031503
0003a0 98 52 89 bc af bd 9b 3e ac 28 28 bd 3a 15 9b 3c
       -0.016763017 0.30418155 -0.041054413 0.01893102
0003b0 7c 71 73 3d f3 f3 d0 3d 91 ea 49 be 81 1a dc 3e
       0.0594344 0.102027796 -0.19718386 0.4298897
0003c0 9c ca bb bd 1f 64 ad 3e 04 cb 47 3e a3 41 85 be
       -0.09169504 0.3386545 0.19511038 -0.2602664
0003d0 1d 53 8e 3e 28 ae 8b be bd 9e 5b be 23 8c e9 3d
       0.27797785 -0.27281308 -0.21447273 0.11403682
0003e0 1e bb fd bd 4c d7 5d be b1 83 a3 3e a5 b9 02 3b
       -0.123892054 -0.2166416 0.3193641 0.0019947079
0003f0 80 9d cc 3e b1 99 76 be dd 48 d2 3e df fe 58 bc
       0.39963913 -0.24082066 0.41071215 -0.01324436

gconvs.5.combination_weights f4 [4, 3]
000000 35 8f a1 3e aa a5 a1 3e 59 db a9 3e da 6a a1 3e
       0.3155457 0.31571704 0.3317516 0.31526834
000010 e7 a1 a1 3e 55 0f aa 3e ec a9 a1 3e 2a aa a1 3e
       0.31568834 0.33214822 0.31574953 0.31575137
000020 bb 05 aa 3e 01 c8 a1 3e 1e bb a1 3e f2 fc a9 3e
       0.33207497 0.31597903 0.31588072 0.33200794

gconvs.5.weight f4 [3, 6, 6, 4, 3, 3]
000000 26 f4 b7 3d 06 81 dc bd ee 69 7a 3e d4 82 8a 3b
       0.089821145 -0.10766797 0.24454471 0.0042270217
000010 7e 37 c7 be a0 fb 58 3e 6e f4 9a 3e 67 30 40 be
       -0.38909525 0.21189737 0.3026461 -0.18768464
000020 8a 49 21 3e d1 2c da bd 2b fa d5 be 14 a4 33 bd
       0.15750709 -0.10653079 -0.41792426 -0.04385765
000030 c6 6d 9d be 53 71 c7 3e fe e5 c7 3d 43 a3 ab be
       -0.30747813 0.38953647 0.097606644 -0.33522996
000040 c8 4e a3 be 54 27 b0 3e 39 a0 04 bd e8 72 b8 be
       -0.31896043 0.34405005 -0.032379363 -0.36025167
000050 1c 26 1e 3e aa a0 aa 3c 2d 75 be 3d 35 a7 6f 3e
       0.15444225 0.020828564 0.09299693 0.23403628
000060 a4 a0 89 be 40 9d 93 3e 5f 75 d7 bd 5c d7 c3 3e
       -0.26880372 0.2883091 -0.10520434 0.38250244
000070 c1 e6 d6 bd 62 5d 92 3e 19 2f d6 be c4 41 b6 3e
       -0.104932316 0.2858687 -0.41832808 0.3559705
000080 aa 0b 3e bc 08 b4 56 3e 8e aa a9 3e 58 e1 75 be
       -0.011599461 0.20967114 0.33137935 -0.24011743
000090 f0 a3 b7 be 40 4f be 3d 46 40 70 3e bc 10 4b 3e
       -0.35867262 0.092924595 0.23462018 0.19830602
0000a0 64 60 cf be 02 fb 18 3e 3a d9 18 3e 8c d3 a6 be
       -0.40503228 0.14939502 0.14926615 -0.32583272
0000b0 39 d0 ea be e2 1c 07 be 83 ff ba bd 98 b5 8b 3e
       -0.45861986 -0.13194612 -0.09130766 0.27286983
0000c0 cf 46 3a 3e 1a 73 25 be a6 df c8 bd 75 a3 78 3e
       0.18191074 -0.16157189 -0.098082826 0.24281104
0000d0 c4 b4 b2 be 8e 7e d4 be c9 cb 01 3e dc c2 c3 be
       -0.34903538 -0.41502804 0.12675394 -0.38234603
0000e0 76 fe b6 3d 25 06 87 3e 5d f2 09 be ea 1c 70 be
       0.08935253 0.26371875 -0.1347136 -0.2344853
0000f0 0c b3 81 be 7e fc 76 3e 1c f8 bc be 5d e4 28 be
       -0.25331914 0.24119756 -0.36908042 -0.16493364
000100 df 9c fe 3d b0 ff 30 be 99 6c 1a be 21 3a 9f be
       0.124322645 -0.17285037 -0.15080489 -0.31099036
000110 14 0a 16 be 84 ce 9e be af b6 07 3e d3 4a 92 be
       -0.14652282 -0.31016934 0.13253282 -0.2857271
000120 93 28 db bd 2d 62 cc 3d 0d 6a 19 bb ae 92 b3 bd
       -0.10701098 0.09979663 -0.0023409158 -0.08768211
000130 82 f9 20 be 9e fa 5d 3e 59 8f 02 3d 08 bb 4f 3e
       -0.1572018 0.21677634 0.03187499 0.2028619
000140 4f ec e3 3c e6 6b a4 3e bc 8a aa be ad e8 0f be
       0.027822642 0.3211357 -0.3330897 -0.14053603
000150 f4 79 4e 3e e5 f7 d5 3d 82 6a ff bd f9 a5 80 be
       0.20163709 0.10447673 -0.12471487 -0.25126627
000160 d8 b6 9c be 81 32 87 be 05 cf c8 3c 41 f6 5a 3d
       -0.3060825 -0.2640572 0.024512777 0.053457502
000170 70 56 17 bd d0 b8 db be dd 19 02 be 76 c9 bd 3e
       -0.036947668 -0.42914438 -0.12705179 0.37067765
000180 eb 08 c5 be e5 44 8b 3e 56 ac e9 3d 50 f6 09 3e
       -0.38483366 0.27201 0.114098236 0.13472867
000190 d2 c2 ce be f6 7b 8f be 7a 81 3e 3e 8a ab e1 3c
       -0.4038301 -0.28024262 0.18604079 0.027547617
0001a0 b2 c4 3d 3c 6e c5 c4 be 22 ea 60 3e 5d 9c 8b bd
       0.01158254 -0.38431877 0.21964315 -0.06816933
0001b0 90 11 ba be 62 ef 3e be e2 0c 62 be e8 57 47 3e
       -0.36341524 -0.18646005 -0.22075227 0.19467127
0001c0 79 7b 9b 3e e6 d9 a9 be 3b e6 bf 3e c7 38 14 be
       0.3036764 -0.33174056 0.3748034 -0.14474784
0001d0 c0 6b 84 be fc bf 96 be bb ce 9f 3e a1 a2 99 bd
       -0.25863457 -0.29443347 0.3121241 -0.07501722
0001e0 f8 41 e8 3c 14 03 8b 3e 19 c9 9d be 10 75 1d 3a
       0.028351769 0.27150786 -0.30817488 0.00060065184
0001f0 7a 60 85 be dc 10 86 3e 22 ec 19 be b8 0f 77 3c
       -0.26050168 0.26184738 -0.15031484 0.015079431
000200 99 a3 33 3e 19 64 20 be 64 9c 64 be b7 62 8e bd
       0.17542876 -0.15663184 -0.22325283 -0.06952422
000210 d1 b9 8b 3e 4f a1 b5 3e f0 4f 03 3d 7c a0 06 3e
       0.27290204 0.3547463 0.032058656 0.13147157
000220 5e ca 07 bd 65 f1 09 bd 78 02 ae 3e 10 a9 bd be
       -0.033151977 -0.033677477 0.33986259 -0.37043047
000230 0e 94 a7 3e c2 c3 8a 3d cc 00 92 be a4 1b bf 3e
       0.32730144 0.06775619 -0.28516233 0.37325776
000240 9c 31 c1 3e 68 1c 40 be 51 9d 6f be 95 6d 61 3e
       0.3773316 -0.18760836 -0.23399855 0.22014458
000250 d5 cb ac be 29 d4 f5 3c e7 6a 61 be 9b 57 04 3e
       -0.33749261 0.030008392 -0.22013436 0.12924044
000260 ca 20 86 bd aa bd 06 3e 2d dc 95 be 38 a0 8e be
       -0.06549223 0.13158289 -0.29269543 -0.27856612
000270 3e 0e 80 be 24 86 af be 21 bf 24 3d 91 e9 bc bb
       -0.25010866 -0.3428203 0.040221337 -0.005765148
000280 ce 0d b1 3d 00 10 11 be ef f9 a8 3d dc e5 8f be
       0.08645211 -0.1416626 0.08250796 -0.28105056
000290 7d 36 a4 be 4e ae bf 3e d1 2c 61 be bb 39 2d 3e
       -0.3207282 0.3743767 -0.21989752 0.16916554
0002a0 de 30 35 be 26 d1 c5 be f0 20 92 3e b1 6a fd 3d
       -0.17694423 -0.3863613 0.28540754 0.123738654
0002b0 53 87 a2 be e0 4a 69 be ff 92 89 bd 1d d5 c3 be
       -0.3174387 -0.22782469 -0.067174904 -0.3824853
0002c0 6e 39 0f be 69 04 9b be 91 af 48 3c 24 34 ae 3d
       -0.13986751 -0.30276802 0.01224889 0.08506039
0002d0 30 93 d9 3d bf a9 ab be 1d 5a 91 3e 9c 05 73 bd
       0.10623777 -0.33527943 0.28389063 -0.05933152
0002e0 bf d0 8d 3e 3e f6 c8 3d 8f 03 70 be 32 a5 a2 be
       0.27698323 0.09812592 -0.23438857 -0.3176666
0002f0 c0 30 b2 bc 79 20 39 be b3 0c 26 be b4 e6 9b 3e
       -0.021751761 -0.18078794 -0.16215782 0.3044945
000300 fa b8 b1 3e 9b ed 0b be b8 52 91 3e c6 58 58 be
       0.34711438 -0.13664858 0.28383422 -0.21127614
000310 d6 67 68 3e 83 cf 2d 3d f4 09 1a be eb 9e 57 bb
       0.2269586 0.042434227 -0.1504286 -0.003290112
000320 75 79 96 3e 42 4e 2f be 2d e3 68 3e 70 c5 30 3e
       0.2938954 -0.17119697 0.2274291 0.17262816
000330 ee 97 a7 3e b2 70 a0 bd b0 0d 6e 3e 56 b8 1c 3e
       0.327331 -0.07833995 0.23247409 0.15304694
000340 c4 e9 69 3e 3c d2 8b 3e 2d e7 e5 3d 91 1e a1 3e
       0.22843081 0.27308834 0.11225734 0.31468633
000350 f4 15 b2 3d 5a 88 a7 bd c9 96 93 be 0e 87 c6 bb
       0.086955935 -0.08180304 -0.28825977 -0.0060585802
000360 0a c7 82 3e 68 e1 6f be dd d6 98 be d6 7e 45 bd
       0.2554248 -0.2342583 -0.29851428 -0.048216663
000370 da 3a 61 3e 88 7a 11 3e 87 6c 10 ba 91 64 9b be
       0.21995106 0.14206898 -0.0005509336 -0.30350164
000380 ee 68 ce 3d 09 ec 76 be 61 56 a5 3e 9e 56 4f 3e
       0.100786075 -0.24113478 0.32292464 0.20247886
000390 20 41 b5 be 58 fd 99 be b0 42 56 bc 9d 59 53 be
       -0.3540125 -0.30076098 -0.013077423 -0.20639654
0003a0 ac 33 14 be a5 5c 78 be 4e c1 b0 3e 33 20 b1 bd
       -0.14472836 -0.24254091 0.3452248 -0.0864872
0003b0 d3 23 85 3e 79 5d dd bd e0 8b 69 be 16 0e 3a 3e
       0.26003894 -0.10808844 -0.22807264 0.18169436
0003c0 1f 31 8d be d2 fd 1e be c5 77 c3 bc e7 c9 57 3d
       -0.2757654 -0.15526512 -0.023860822 0.052682783
0003d0 6c 05 32 3e 8b 8a a9 3e b1 dc c1 be 37 f0 ce 3e
       0.17384881 0.33113512 -0.37863687 0.40417644
0003e0 99 1c 9b bd ee c6 fd 3d 92 98 a3 3b 99 53 a7 bc
       -0.07573814 0.123914585 0.004992553 -0.020425605
0003f0 cf 5e e2 be d5 2b 9b 3e 2c d7 5b 3c bc a3 1f 3e
       -0.44212958 0.3030688 0.013418 0.15589803

final_layer.combination_weights f4 [4, 3]
000000 2d 22 ac 3e 11 b4 a2 3e 89 59 a2 3e 00 64 ac 3e
       0.33619824 0.31778005 0.31708935 0.33670044
000010 2c 9b a2 3e 6d 84 a2 3e 31 37 ac 3e 8c aa a2 3e
       0.31759012 0.31741658 0.33635858 0.31770742
000020 1a 99 a2 3e 9b 60 ac 3e e8 a7 a2 3e 83 73 a2 3e
       0.31757432 0.33667454 0.31768727 0.31728753
