best_model.pth (torch, 11682 bytes, 12 tensors)

lifting_conv.combination_weights f4 [3, 4]
0	0x3ec266c5	0.37969032
1	0x3ec6bb76	0.38814896
2	0x3ec1e333	0.37868652
3	0x3ec3428d	0.38136712
4	0x3ea0ef97	0.31432793
5	0x3ea23bd2	0.31686264
6	0x3ea07bec	0.31344545
7	0x3ea1e74b	0.31621775
8	0x3ee59377	0.4483907
9	0x3ee0d1cd	0.43910065
10	0x3ee4d0d6	0.4469058
11	0x3edf54ff	0.43619534

lifting_conv.weight f4 [3, 2, 1, 3, 3]
0	0xbf2abde2	-0.6669599
1	0x3e77bdf9	0.24193563
2	0x3e9811d1	0.29701093
3	0xbebeb78c	-0.3724941
4	0x3e60577f	0.21908377
5	0x3e1f8e2a	0.15581575
6	0xbccb6a0f	-0.024830846
7	0xbe32f5fa	-0.17476645
8	0x3e97e6fe	0.2966842
9	0xbd86c11d	-0.06579802
10	0x3d03aa10	0.032144606
11	0xbe64dcfb	-0.22349922
12	0x3dd9ab75	0.10628406
13	0xbe756441	-0.23964025
14	0x3dde62ae	0.108586654
15	0xbe257ec0	-0.16161633
16	0xbd4f3950	-0.050591767
17	0x3e799c8f	0.24376129
18	0xbf103d56	-0.5634359
19	0xbe019853	-0.12655763
20	0xbe7799cc	-0.24179763
21	0x3da7ea1e	0.08198951
22	0x3e6d0e23	0.23149924
23	0xbe0d0140	-0.13770008
24	0xbec1e815	-0.37872377
25	0xbd79293d	-0.060830344
26	0x3e743dfa	0.23851767
27	0x3e7710f7	0.24127565
28	0x3e7fd445	0.24983318
29	0xbd3d8a8c	-0.046274707
30	0xbe8708e3	-0.26373968
31	0x3d4296ea	0.047507204
32	0x3d3b2f27	0.045699265
33	0x3e80e79d	0.25176707
34	0xbd47e92b	-0.04880635
35	0x3aa85d57	0.00128452
36	0xbf06df9b	-0.52684945
37	0xbe24eba3	-0.16105513
38	0x3ded5cb3	0.115899466
39	0xbe448a06	-0.19193277
40	0x3e7ee09e	0.24890372
41	0xbc5c3da1	-0.013442428
42	0xbe006d02	-0.12541583
43	0xbe4bee0f	-0.19915031
44	0xbd411875	-0.047142465
45	0x3d8d89df	0.069110624
46	0xbe3cabab	-0.18424861
47	0xbeaadf88	-0.33373666
48	0x3e201aec	0.1563527
49	0x3eb46a48	0.35237336
50	0xbe97e938	-0.2967012
51	0xbe98b2a9	-0.29823807
52	0x3e9782ca	0.29591972
53	0xbc6bb860	-0.01438722

gconvs.0.combination_weights f4 [4, 3]
0	0x3eeeda4a	0.46650916
1	0x3f008363	0.5020048
2	0x3eaaf653	0.33391055
3	0x3eee6715	0.4656302
4	0x3ef8bbb2	0.485807
5	0x3eaf6d81	0.34263232
6	0x3eed01df	0.4629049
7	0x3efce606	0.49394244
8	0x3ea9c442	0.33157545
9	0x3eeb30a6	0.45935553
10	0x3efcf79f	0.4940767
11	0x3eadb569	0.33927467

gconvs.0.weight f4 [3, 2, 2, 4, 3, 3]
0	0xbd5605a2	-0.052251466
1	0xbda42f3c	-0.08016822
2	0xbef329a5	-0.4749271
3	0x3d1f702e	0.038925342
4	0x3e59b0d0	0.21258855
5	0x3ec6e261	0.38844588
6	0xbf6016e5	-0.87534934
7	0xbf362850	-0.7115526
8	0x3ec0c2d1	0.37648633
9	0x3e836e94	0.25670302
10	0xbe95e9ef	-0.2928004
11	0xbe943223	-0.289445
12	0xbf06343e	-0.52423465
13	0x3d4ad91e	0.049523465
14	0x3e8e289e	0.27765363
15	0xbdbc6e68	-0.09200746
16	0x3eadbce1	0.33933166
17	0xbf29f036	-0.6638216
18	0x3dd36228	0.10321456
19	0x3dbfe740	0.09370279
20	0xbedf7bf0	-0.43649244
21	0xbf24352e	-0.64143646
22	0x3dcc35d0	0.099712014
23	0x3e9c7fbf	0.30566213
24	0xbe9d43ec	-0.30715883
25	0xbf16110c	-0.5861976
26	0xbe2c8723	-0.16848426
27	0xbe5efee9	-0.21776928
28	0xbdf44740	-0.11927652
29	0xbede2411	-0.4338689
30	0xbd82f035	-0.06393472
31	0xbf1559ea	-0.5834032
32	0x3c168076	0.009185901
33	0x3eb79abc	0.3586024
34	0xbf3d04ec	-0.73835635
35	0xbf05f4f6	-0.52326906
36	0xbe162f2b	-0.1466643
37	0xbec95ad7	-0.39327118
38	0xbe9f5f84	-0.3112756
39	0x3ec244c4	0.3794309
40	0xbef07458	-0.46963763
41	0x3d1f4421	0.038883332
42	0xbe38504c	-0.17999381
43	0x3f13310c	0.57496715
44	0xbeb3201f	-0.34985444
45	0xbe070063	-0.13183741
46	0x3e6d43d0	0.231704
47	0xbf0ef67e	-0.5584487
48	0x3e09dea7	0.13463841
49	0x3e5023dd	0.20326181
50	0xbef4b250	-0.47792292
51	0x3e94ce27	0.29063532
52	0xbd9e71d7	-0.07736557
53	0x3f031bce	0.512143
54	0x3e5e3985	0.2170163
55	0x3f0deaae	0.5543622
56	0xbf22b584	-0.6355822
57	0xbf27d7a6	-0.6556343
58	0xbe0199d4	-0.12656337
59	0x3f05ba4d	0.522374
60	0xbed13962	-0.40864092
61	0x3f1adc0b	0.6049201
62	0x3d91320e	0.07089625
63	0xbf3f664b	-0.7476546
64	0x3d1a28e7	0.037636664
65	0xbf208206	-0.626984
66	0x3ef0b1b9	0.47010592
67	0x3e86f3ba	0.26357824
68	0x3ef6b9a7	0.48188516
69	0x3ea33c21	0.31881812
70	0xbf2c1dd5	-0.6723302
71	0x3f0a7253	0.54080695
72	0xbdd3c0db	-0.10339519
73	0xbf2f5b9d	-0.68499166
74	0x3e5f45f3	0.21804027
75	0x3d5fded9	0.054655883
76	0xbb0219c3	-0.001985178
77	0xbf223742	-0.63365567
78	0xbe5a69c0	-0.21329403
79	0xbf0351a8	-0.5129647
80	0xbf6b6658	-0.9195304
81	0xbe86e7cb	-0.2634872
82	0xbf2802d9	-0.65629345
83	0xbdd210cc	-0.1025711
84	0xbf1d61ca	-0.6147734
85	0x3e2c556e	0.16829464
86	0xbefdb19d	-0.4954957
87	0xbe5be42a	-0.21473756
88	0x3e0c66e8	0.1371113
89	0xbe9e34f6	-0.3089978
90	0xbea40c9a	-0.32040864
91	0xbf2d101b	-0.676027
92	0xbe2c42a2	-0.16822293
93	0x3e202a50	0.15641141
94	0x3e735e03	0.23766331
95	0xbe86c58c	-0.2632259
96	0xbe90339d	-0.28164378
97	0xbf1ec417	-0.6201796
98	0xbebda9f9	-0.3704374
99	0x3e1a8198	0.15088499
100	0xbf2d8adf	-0.67790025
101	0x3c4314d1	0.0119068185
102	0xbe3e384e	-0.18576166
103	0xbda22113	-0.07916465
104	0xbf29df27	-0.6635613
105	0xbe305057	-0.17218147
106	0xbf3ccaca	-0.7374693
107	0xbf1012b4	-0.5627854
108	0xbe1c719d	-0.15277715
109	0x3dea4b73	0.11440172
110	0x3e1ff40c	0.1562044
111	0x3ea3631f	0.3191156
112	0x3e8e557d	0.27799597
113	0x3f30f530	0.69124126
114	0x3f372827	0.7154564
115	0x3f2dad68	0.6784272
116	0x3e0f2dc1	0.13982297
117	0x3efce93a	0.49396688
118	0x3e960dac	0.29307306
119	0x3e3906f8	0.18069065
120	0xbe9591c7	-0.29212782
121	0x3ef2d2ce	0.47426456
122	0xbdb2dc8e	-0.08733474
123	0xbf370ab0	-0.7150068
124	0xbf86fb42	-1.0545428
125	0xbe1f7dfa	-0.155754
126	0x3e6b8c34	0.23002702
127	0x3f48dae0	0.78458977
128	0xbf00d18d	-0.5031975
129	0xbee6ca43	-0.45076188
130	0xbe873ceb	-0.26413664
131	0x3ed2a801	0.41143802
132	0xbe048edb	-0.1294512
133	0x3f23cb8b	0.63982457
134	0x3eff1105	0.49817672
135	0x3e7923c4	0.2433005
136	0x3f41a312	0.7563945
137	0x3eb5e486	0.35525912
138	0x3c420a5d	0.011843291
139	0xbf2bf846	-0.6717571
140	0xbf24b96a	-0.6434542
141	0xbe35135b	-0.17683165
142	0x3e7707f9	0.24124135
143	0x3f1477f2	0.5799552
144	0xbed1f57b	-0.410076
145	0xbed37155	-0.41297403
146	0xbd66557b	-0.056233864
147	0xbf0edb68	-0.5580354
148	0x3e58efea	0.2118527
149	0xbf43178e	-0.76207817
150	0x3dd77469	0.1052025
151	0x3e52286e	0.20523235
152	0xbf44829e	-0.76761806
153	0xbed3ca95	-0.41365495
154	0x3e9aa474	0.30203593
155	0xbf19a960	-0.6002407
156	0xbc40b563	-0.011761996
157	0x3f0fa30b	0.5610816
158	0xbf50308b	-0.8132407
159	0xbeee46e9	-0.46538475
160	0x3d08b29d	0.033373464
161	0x3f09da5d	0.5384882
162	0xbf2f4169	-0.6845918
163	0x3e700709	0.23440184
164	0xbe431802	-0.19052127
165	0x3f2c609b	0.6733491
166	0xbf2c444d	-0.6729172
167	0xbf28d664	-0.65952134
168	0xbf0025d1	-0.50057703
169	0x3ea785af	0.3271918
170	0xbee49b9a	-0.44649965
171	0x3e2a4352	0.16627243
172	0x3cc02f47	0.023460044
173	0xbdfdf3a9	-0.1239999
174	0xbee213f4	-0.44155848
175	0xbef27a01	-0.47358707
176	0xbd4fc349	-0.050723348
177	0xbf198656	-0.59970605
178	0x3eb8a88e	0.36066097
179	0xbe9d8c8a	-0.30771285
180	0xbef0e930	-0.47052908
181	0x3dee5597	0.11637419
182	0x3e4a336d	0.1974618
183	0x3e9d8832	0.3076797
184	0x3d6c6433	0.057712745
185	0x3e15c3f5	0.14625533
186	0xbed8418e	-0.42237514
187	0x3e7d2f8a	0.24725166
188	0xbec51b6d	-0.38497487
189	0xbf2701d1	-0.65237147
190	0x3edf558a	0.4361995
191	0xbf0c1d53	-0.54732245
192	0xbf03359d	-0.5125368
193	0xbee063f9	-0.43826273
194	0x3f0cc454	0.5498707
195	0xbe27b7bc	-0.16378683
196	0x3ee5cd45	0.4488317
197	0xbd9dd16b	-0.07705959
198	0xbed07343	-0.40712938
199	0xbf39b99a	-0.7254883
200	0xbeb64bff	-0.35604855
201	0xbf160d0c	-0.5861366
202	0x3db619ba	0.08891626
203	0x3e2d0c40	0.16899204
204	0xbaf70106	-0.001884491
205	0x3c83cf6d	0.01609012
206	0x3eef05a1	0.46683982
207	0xbf33c72a	-0.70225775
208	0xbe370c5d	-0.1787581
209	0xbdad1e50	-0.08453047
210	0xbf3f8c6d	-0.7482365
211	0x3f1e2668	0.61777353
212	0x3f1080b9	0.56446415
213	0x3e9bb5c5	0.30412117
214	0xbe36657e	-0.17812154
215	0x3e069d95	0.1314605
216	0xbe923aa7	-0.28560373
217	0x3dd0b5cc	0.10190925
218	0xbeba3b0e	-0.3637318
219	0x3f11b56f	0.5691747
220	0xbdc59d6b	-0.09649166
221	0x3dbfe0f2	0.09369077
222	0x3e996de7	0.2996666
223	0x3e20f288	0.15717518
224	0x3e5eb86a	0.21750036
225	0xbf246741	-0.6422005
226	0xbf052bbb	-0.5201985
227	0xbf03e2be	-0.51517856
228	0x3e302148	0.17200196
229	0xbf0eea40	-0.5582619
230	0xbf0f30d6	-0.5593389
231	0xbee558c0	-0.44794273
232	0xbe640cb5	-0.22270472
233	0xbefa0452	-0.4883142
234	0xbe940074	-0.28906596
235	0xbe46a1b8	-0.19397628
236	0xbf04df46	-0.5190319
237	0xbe25c650	-0.16188931
238	0xbea3b7fc	-0.31976306
239	0xbeab2b53	-0.3343149
240	0x3e8dbb59	0.27681997
241	0x3e704098	0.2346214
242	0x3e0a85a2	0.1352754
243	0x3e88d6e1	0.2672644
244	0xbf1686dc	-0.5879953
245	0xbf29bd7d	-0.6630476
246	0x3eaf26b8	0.34209228
247	0xbe94cb53	-0.29061374
248	0xbc980dde	-0.0185613
249	0xbf06919d	-0.5256594
250	0xbf376279	-0.7163463
251	0xbf0eccfa	-0.5578152
252	0xbf1817fe	-0.5941161
253	0x3ec01d68	0.37522435
254	0xbf15beae	-0.5849408
255	0xbd42052e	-0.04736822

gconvs.1.combination_weights f4 [4, 3]
0	0x3ec51a0c	0.38496435
1	0x3ef000fd	0.46875754
2	0x3ee9c33d	0.45656767
3	0x3ec61858	0.38690448
4	0x3ef12376	0.47097367
5	0x3ef33b19	0.47506025
6	0x3ec58683	0.38579187
7	0x3eeff7f7	0.4686887
8	0x3eeb4b6e	0.45955986
9	0x3ec5721e	0.38563627
10	0x3ef1688d	0.47150078
11	0x3ef13cb4	0.47116625

gconvs.1.weight f4 [3, 2, 2, 4, 3, 3]
0	0xbef86071	-0.4851108
1	0xbf2157d1	-0.6302462
2	0x3e09319c	0.1339783
3	0xbf114d58	-0.5675864
4	0x3ec067f6	0.37579316
5	0xbee92d5c	-0.4554242
6	0x3eb60fb7	0.35558864
7	0x3ee29ca9	0.44260147
8	0xbea9e7ea	-0.3318475
9	0xbf21015f	-0.6289272
10	0xbeb378c0	-0.35053062
11	0x3d9cf90f	0.07664692
12	0xbeea5fc6	-0.45776194
13	0x3e5080d1	0.2036164
14	0x3cbc69cf	0.022999672
15	0x3f3484eb	0.70515317
16	0xbf247d2a	-0.64253485
17	0x3f0f6d25	0.56025916
18	0x3e916ac5	0.2840177
19	0x3f0f3ced	0.5595234
20	0x3ccae32a	0.024766523
21	0x3da35299	0.07974739
22	0x3eca7979	0.395458
23	0x3ddac8d7	0.106828384
24	0x3f1ec46a	0.62018454
25	0xbe7c7e5e	-0.2465758
26	0x3ec5ee86	0.3865854
27	0x3f3be076	0.73389375
28	0xbed827ac	-0.42217767
29	0xbead5a76	-0.3385808
30	0x3e707517	0.23482166
31	0x3eb6edba	0.35728246
32	0xbcafca55	-0.021458784
33	0x3dfe7383	0.12424376
34	0x3ed8068d	0.42192498
35	0x3d308430	0.043094814
36	0x3ee0697a	0.43830472
37	0x3f42c19d	0.7607668
38	0x3f1bc288	0.60843706
39	0xbef64b1a	-0.48104173
40	0xbeea33bc	-0.45742595
41	0x3f1914d9	0.59797436
42	0xbeb49d79	-0.35276392
43	0xbd09834f	-0.03357249
44	0x3f10ae38	0.56515837
45	0x3eec4b49	0.46151188
46	0xbee6bca1	-0.45065787
47	0x3f37eb14	0.71843076
48	0xbe179766	-0.14803848
49	0x3ecb1c1c	0.39669883
50	0xbeb80a0b	-0.35945162
51	0xbf023e45	-0.50876266
52	0xbe614985	-0.22000702
53	0x3d6bf298	0.057604402
54	0xbdc2f2ac	-0.09518942
55	0x3f1f5b8d	0.6224907
56	0x3ef08f5b	0.46984372
57	0xbebd1b5b	-0.36934933
58	0x3f136e26	0.5758995
59	0x3ef32413	0.4748846
60	0xbd8b3313	-0.06796851
61	0x3f34d852	0.7064258
62	0xbad66bd8	-0.0016359044
63	0x3e2016f2	0.15633753
64	0x3eaa411e	0.33252805
65	0x3edfb682	0.4369393
66	0x3de7d25f	0.11319422
67	0xbeff877c	-0.49908054
68	0x3cfea548	0.031084672
69	0x3efdaa51	0.49544004
70	0xbedb5374	-0.42837107
71	0xbe4f5ec2	-0.20250991
72	0x3f1470c9	0.57984596
73	0x3f19e99e	0.60122097
74	0x3ee2a457	0.44266006
75	0xbe97c1f3	-0.2964016
76	0x3d21ab29	0.03946987
77	0xbe8c679a	-0.27422792
78	0x3e42783b	0.18991177
79	0xbe777b76	-0.2416819
80	0x3d1c82ec	0.038210794
81	0x3ef2373f	0.47307774
82	0x3f375630	0.71615887
83	0xbedcb2ee	-0.43105263
84	0x3efbe85f	0.49200723
85	0xbe72bd09	-0.23704924
86	0x3eb940eb	0.3618234
87	0xbe9b9c1a	-0.30392534
88	0x3e94a13c	0.29029262
89	0x3f2e9c42	0.6820718
90	0xbee798e4	-0.45233834
91	0x3eb5246f	0.3537936
92	0xbe990d30	-0.29892874
93	0xbf1d6b0a	-0.61491454
94	0x3e965261	0.29359725
95	0x3f290968	0.6602998
96	0x3f00f20e	0.50369346
97	0xbe6d080e	-0.23147604
98	0xbdff8b57	-0.12477749
99	0xbed9cdf2	-0.42539936
100	0x3e9684be	0.2939815
101	0x3f063fa7	0.52440876
102	0x3ee61b0a	0.44942504
103	0x3ef24a4d	0.47322312
104	0x3ea26b25	0.3172237
105	0xbd57379d	-0.05254327
106	0x3e7cc50e	0.24684545
107	0x3f26c000	0.6513672
108	0xbdf6e19b	-0.120547496
109	0x3f42b678	0.76059675
110	0x3e58a9f8	0.21158588
111	0xbd2dc05e	-0.042419784
112	0xbe2c6c9a	-0.16838303
113	0xbf0b5cf7	-0.5443873
114	0x3e45dde2	0.19322923
115	0x3d25d490	0.04048592
116	0x3ad967b2	0.001658669
117	0xbea5573d	-0.3229312
118	0xbe65a829	-0.2242743
119	0xbd1e61e6	-0.038667582
120	0x3f3399b0	0.70156384
121	0x3f252f5e	0.645254
122	0x3f091e3e	0.5356177
123	0xbf05188c	-0.5199058
124	0xbe9de213	-0.30836543
125	0x3eb9a146	0.36255854
126	0x3f02c011	0.5107432
127	0x3ee57566	0.4481613
128	0x3c0f52d9	0.00874778
129	0x3f3d3949	0.73915535
130	0x3e404315	0.1877559
131	0x3e3343b5	0.17506297
132	0x3d8e60d5	0.06952063
133	0xbf01ad72	-0.5065528
134	0xbe42c3f9	-0.1902007
135	0xbe5ab8d5	-0.2135957
136	0x3f0ec1a5	0.5576423
137	0x3de750b7	0.11294692
138	0xbd2c84c7	-0.042118814
139	0xbc730ad7	-0.014834127
140	0xbe66e87d	-0.22549625
141	0x3e2b8f74	0.16753942
142	0xbeade36a	-0.33962566
143	0x3e5e9fe9	0.21740688
144	0xbafb5aba	-0.0019176819
145	0xbed677df	-0.4188833
146	0x3e07dc4e	0.13267633
147	0xbeed4f52	-0.4634958
148	0xbf0ba372	-0.5454627
149	0xbee08d99	-0.4385803
150	0xbe7c3f0b	-0.24633424
151	0xbf140a7f	-0.57828516
152	0x3f374bf0	0.71600246
153	0xbe079aae	-0.132426
154	0xbebade1c	-0.3649758
155	0xbc999d80	-0.01875186
156	0x3f3e0158	0.742208
157	0xbf046a7d	-0.5172499
158	0x3f0f8873	0.5606758
159	0xbecd924f	-0.40150687
160	0xbc9b0895	-0.01892499
161	0xbf00c6b1	-0.5030318
162	0x3f2745ba	0.6534077
163	0x3f17f729	0.5936151
164	0xbc18c966	-0.009325361
165	0xbf231aa0	-0.637125
166	0xbea7651d	-0.3269433
167	0x3e9f5c29	0.31125
168	0xbe1b2904	-0.15152365
169	0x3d2ff364	0.042956725
170	0xbf0f7013	-0.56030387
171	0x3d97829a	0.07397957
172	0x3eb4eb1d	0.35335627
173	0xbec08549	-0.37601689
174	0x3ed56ae0	0.41683102
175	0xbeeeb2d3	-0.46620807
176	0x3ead2a67	0.33821413
177	0xbf1440a9	-0.57911164
178	0xbef2d7d9	-0.47430304
179	0x3edf7597	0.436444
180	0x3f5e1ee6	0.867659
181	0x3db86c6d	0.090050556
182	0x3f2824b9	0.65681034
183	0x3f2d9156	0.6779989
184	0x3ed799c6	0.42109507
185	0x3ef6ec90	0.48227358
186	0x3f09e1b5	0.53860027
187	0x3f047109	0.5173498
188	0xbe9af59d	-0.30265513
189	0x3f1f790f	0.62294096
190	0xbe4d58d7	-0.20053421
191	0x3f571336	0.8401369
192	0x3f0911b7	0.53542656
193	0x3e933fab	0.28759512
194	0xbd489e90	-0.048979342
195	0x3f22d098	0.6359954
196	0x3ed0907e	0.4073524
197	0xbe3896b5	-0.1802624
198	0x3f0c2595	0.54744846
199	0x3e528e0c	0.20561999
200	0x3ef84534	0.48490298
201	0x3f3d23a9	0.7388254
202	0x3f08bd9f	0.5341434
203	0xbe81b46f	-0.25332972
204	0x3ec657d6	0.38738889
205	0x3f04964f	0.5179185
206	0xbd5fb342	-0.054614313
207	0xbedc76ef	-0.4305949
208	0x3f60dafc	0.87834144
209	0x3f246706	0.642197
210	0x3d5e69f6	0.05430027
211	0xbd814d08	-0.06313521
212	0x3f057264	0.5212767
213	0x3f2a82da	0.66605914
214	0x3e5e6d5b	0.21721403
215	0xbee2bebb	-0.4428614
216	0x3f20543f	0.6262855
217	0x3d9aa805	0.075515784
218	0x3dafaf76	0.085783884
219	0xbede0bfe	-0.43368524
220	0x3eb15078	0.34631705
221	0x3efe7037	0.49694988
222	0xbee0ef6c	-0.43932664
223	0xbe10fe5d	-0.14159532
224	0x3e075688	0.13216603
225	0x3f396c5e	0.7243098
226	0x3e8c0489	0.2734721
227	0x3d3d4a65	0.046213526
228	0x3e1448c3	0.14480881
229	0xbe4807e9	-0.19534267
230	0xbe4c3296	-0.19941172
231	0xbeddc9dc	-0.4331807
232	0x3f13c467	0.5772156
233	0x3cf60313	0.030030763
234	0x3edb46da	0.42827493
235	0x3ed9ad7c	0.4251517
236	0x3eb23531	0.34806207
237	0x3e701e1e	0.23448989
238	0xbf068de7	-0.52560276
239	0xbec1ce3c	-0.37852657
240	0xbf2a3fab	-0.665034
241	0x3f2d284d	0.6763962
242	0xbf066e22	-0.525118
243	0x3f174a0b	0.59097356
244	0x3eb5025c	0.35353363
245	0xbf287435	-0.6580232
246	0x3ea9710b	0.33094057
247	0x3e267a34	0.16257554
248	0xbcbb5828	-0.022869185
249	0x3e7d9cbe	0.24766824
250	0x3efaee56	0.4900996
251	0xbee4ac89	-0.44662884
252	0x3e51e46c	0.20497292
253	0xbec8bee7	-0.39208147
254	0x3e40befa	0.18822852
255	0x3d6e4537	0.058171477

gconvs.2.combination_weights f4 [4, 3]
0	0x3f00436f	0.50102895
1	0x3ed1e4b5	0.40994802
2	0x3ed625aa	0.4182561
3	0x3f0027e8	0.5006089
4	0x3edcaef3	0.43102226
5	0x3ed4efa7	0.4158909
6	0x3f001c07	0.50042766
7	0x3ed6f057	0.4198024
8	0x3ed667cb	0.41876063
9	0x3f000b3a	0.5001713
10	0x3eddca5a	0.43318444
11	0x3ed50420	0.4160471

gconvs.2.weight f4 [3, 2, 2, 4, 3, 3]
0	0xbeb20492	-0.34769112
1	0x3f20be9f	0.62790865
2	0xbe006801	-0.12539674
3	0xbd04d461	-0.032429103
4	0xbdf31c84	-0.11870673
5	0x3f149db8	0.5805316
6	0x3f1aafb2	0.6042434
7	0xbf01ceb9	-0.5070606
8	0xbdf9ab17	-0.12190836
9	0xbf2558d4	-0.64588666
10	0xbec8347a	-0.39102536
11	0xbf1aed33	-0.6051819
12	0x3ddd8b00	0.10817528
13	0x3eece179	0.46265772
14	0xbf1ba144	-0.60792947
15	0xbe95ec0c	-0.29281652
16	0xbf371e02	-0.71530163
17	0xbe819809	-0.25311306
18	0xbf100637	-0.56259483
19	0xbb8fddb4	-0.0043904427
20	0x3e5eafc5	0.21746738
21	0xbeb8e0a6	-0.36108893
22	0xbe921089	-0.2852824
23	0xbe0d9e60	-0.13829947
24	0xbe1affea	-0.15136686
25	0x3e7492cb	0.23884122
26	0xbeb0286c	-0.3440584
27	0x3ef0cfe5	0.4703361
28	0xbf2549f2	-0.64565957
29	0x3ee65644	0.4498769
30	0x3f135397	0.5754942
31	0xbe0b150f	-0.13582252
32	0xbe84637a	-0.25857145
33	0x3f06159f	0.5237674
34	0xbf28861e	-0.65829647
35	0x3e745e71	0.23864152
36	0xbcc41d82	-0.023939852
37	0x3e0c0ff8	0.13677967
38	0x3db96818	0.090530574
39	0x3b3a6499	0.0028441309
40	0xbf258cc1	-0.646679
41	0xbe97869e	-0.29594892
42	0x3f23f157	0.6404013
43	0xbeb27620	-0.34855747
44	0xbe93235d	-0.28737918
45	0x3e8ff768	0.28118443
46	0x3f04e0be	0.5190543
47	0xbea3200a	-0.3186038
48	0xbf2045c7	-0.6260647
49	0xbf2bf010	-0.6716318
50	0xbf3986f1	-0.7247153
51	0x3ef2691b	0.47345814
52	0xbe91f0c0	-0.2850399
53	0x3ef0ed1a	0.47055894
54	0x3da0770d	0.07835207
55	0x3f133bec	0.5751331
56	0xbf2428d1	-0.6412478
57	0xbe360635	-0.17775805
58	0xbf1b6e2f	-0.60715
59	0xbf2fac95	-0.68622714
60	0x3e7f624e	0.24939844
61	0x3f0ba1e1	0.5454388
62	0x3e92692a	0.2859586
63	0xbf00ab2e	-0.502612
64	0x3e5c1ccc	0.2149536
65	0x3f240645	0.64072067
66	0x3d2d39e5	0.04229154
67	0xbe84d88f	-0.2594647
68	0xbe5d7f42	-0.21630576
69	0x3f07f090	0.53101444
70	0xbebd21af	-0.3693976
71	0x3e72401c	0.23657268
72	0x3ea406d7	0.32036468
73	0x3ed2f33f	0.41201207
74	0x3f5c5952	0.8607379
75	0xbeb510c6	-0.3536436
76	0x3f04f36a	0.5193392
77	0x3e6774d0	0.22603154
78	0x3f462130	0.7739439
79	0x3a02ade4	0.0004985018
80	0x3f5bf254	0.8591664
81	0xbed8d568	-0.42350316
82	0x3ed7f4aa	0.4217885
83	0x3cb30e33	0.021857357
84	0x3f5e5ca1	0.8686009
85	0x3f031fc4	0.51220345
86	0x3f51b402	0.81915295
87	0x3ce9f325	0.028558323
88	0x3f17415e	0.5908412
89	0x3f45ba2d	0.77237207
90	0x3c1a653c	0.00942355
91	0x3f3d0e7b	0.7385022
92	0x3f03fb50	0.5155535
93	0xbdf10553	-0.11768594
94	0x3e8adad7	0.27120087
95	0x3e8361b1	0.2566047
96	0x3d209658	0.03920588
97	0xbe99835c	-0.29983032
98	0x3e55b03d	0.20868011
99	0x3e837304	0.25673687
100	0x3ecc1d4b	0.398661
101	0xbebe4bbf	-0.37167165
102	0xbe660af0	-0.2246511
103	0xbf02dd02	-0.5111848
104	0x3f10f1c9	0.56618935
105	0xbefd3829	-0.4945691
106	0x3d92d51b	0.07169553
107	0x3eb2feea	0.3496011
108	0xbedb92f5	-0.42885557
109	0xbea33af3	-0.31880912
110	0xbe88700d	-0.26647988
111	0x3e3f8079	0.18701352
112	0x3f1fc4d1	0.62409693
113	0x3bdbacf5	0.0067039677
114	0xbea9f2f4	-0.3319317
115	0xbeff7012	-0.4989019
116	0x3e8c1fd1	0.27368024
117	0x3ec9fa8e	0.3944897
118	0x3e7cf2b0	0.24701953
119	0xbed37bc0	-0.4130535
120	0x3ec2cacc	0.38045347
121	0x3f4667e2	0.7750226
122	0x3e601f26	0.21886882
123	0x3eb10571	0.34574464
124	0x3cda083f	0.02661526
125	0xbf026dda	-0.5094887
126	0x3ecae985	0.39631286
127	0xbe947b31	-0.29000238
128	0x3e17c231	0.14820172
129	0x3ed9ea9f	0.42561814
130	0x3f0374f3	0.51350325
131	0xbe4fd27e	-0.2029514
132	0xbec133d9	-0.3773487
133	0xbec5e5c1	-0.3865185
134	0xbd7936f1	-0.06084341
135	0xbea587aa	-0.32330066
136	0x3ec2eb58	0.38070178
137	0xbe266e1d	-0.16252942
138	0x3ef058e5	0.4694282
139	0x3e819a79	0.25313166
140	0xbf0f707e	-0.56031024
141	0x3f371bc5	0.7152675
142	0x3e845ef4	0.25853693
143	0xbe442a4c	-0.1915676
144	0x3f1d6619	0.61483914
145	0x3f16fa86	0.5897602
146	0xbf09abc4	-0.5377772
147	0x3de62f14	0.11239448
148	0xbe062628	-0.13100493
149	0xbf39423e	-0.723667
150	0xbf220433	-0.6328766
151	0x3efffef5	0.49999204
152	0x3f238c8c	0.6388633
153	0xbf05ca1c	-0.5226152
154	0x3eacaf21	0.33727363
155	0x3e5f0867	0.21780549
156	0xbf3496a9	-0.7054239
157	0xbf1b15fd	-0.60580426
158	0x3e78ebad	0.24308653
159	0x3ece4295	0.40285173
160	0x3d984955	0.07435862
161	0xbee1a184	-0.4406854
162	0x3ecb4dd0	0.39707804
163	0x3d404920	0.046944737
164	0xbe80ed62	-0.2518111
165	0x3e473d80	0.19457054
166	0x3e4d5f87	0.20055972
167	0xbe15707d	-0.14593692
168	0xbdfd48c2	-0.12367393
169	0x3eef5fe7	0.46752855
170	0x3e88628d	0.26637688
171	0xbd4ec889	-0.050484214
172	0xbe045fd5	-0.12927182
173	0x3e5d7a2a	0.21628633
174	0x3edd1b68	0.43184972
175	0xbe29fadb	-0.165996
176	0x3ee9bb42	0.4565068
177	0x3ec76afe	0.38948816
178	0xbd872a5d	-0.06599877
179	0xbe5fc4a0	-0.2185235
180	0x3e8393ab	0.256986
181	0x3f01d45d	0.50714666
182	0xbec3cfd7	-0.38244507
183	0x3e8031c5	0.2503797
184	0x3eb14a2f	0.3462691
185	0xbf3742ce	-0.7158631
186	0x3ec91f6d	0.39281788
187	0xbeac42cc	-0.33644712
188	0x3ee94862	0.45563036
189	0x3b76b5cf	0.0037644987
190	0x3f28387b	0.6571118
191	0x3ec56ec0	0.38561058
192	0xbdd6f139	-0.10495228
193	0x3dcac071	0.098999865
194	0x3e863ceb	0.26218352
195	0x3e981c3c	0.2970904
196	0xbf0bbfd0	-0.5458956
197	0x3e7d50f8	0.24737918
198	0xbed0c92c	-0.40778482
199	0x3f03a7d8	0.51427984
200	0x3f2535d4	0.6453526
201	0xbee84ad5	-0.45369592
202	0xbeea9647	-0.45817778
203	0x3e28cf69	0.1648537
204	0xbd935bff	-0.07195281
205	0xbe26f2d9	-0.16303577
206	0xbd73c611	-0.059515063
207	0xbf05d9bc	-0.5228536
208	0xbd0f4037	-0.03497335
209	0x3e304c46	0.17216596
210	0xbded48a7	-0.11586123
211	0xbf1c4dbc	-0.61056113
212	0xbedb10f3	-0.4278637
213	0x3eeca1cc	0.4621719
214	0x3dad8703	0.08473017
215	0xbf1cc815	-0.612428
216	0x3e4e2052	0.20129517
217	0x3e5e3d4b	0.21703069
218	0x3f017e2e	0.5058316
219	0x3c12c710	0.008958593
220	0xbeb85f22	-0.3601008
221	0x3f3975fc	0.72445655
222	0x3f2da97c	0.6783674
223	0x3f05e2a1	0.52298933
224	0x3f1df13e	0.6169623
225	0xbeccc12c	-0.39991128
226	0xbd964592	-0.07337488
227	0x3e9f527b	0.31117615
228	0xbe0b65ae	-0.13613006
229	0xbeabf24d	-0.33583298
230	0xbef490f7	-0.4776685
231	0x3e979ec8	0.29613328
232	0xbef33f47	-0.47509214
233	0x3e92f675	0.28703657
234	0xbea23937	-0.31684276
235	0x3e25011c	0.16113704
236	0x3f28aafb	0.65885895
237	0x3ea37e38	0.31932235
238	0x3f08f2d0	0.534955
239	0xbed369b7	-0.41291592
240	0x3f0c8bc5	0.5490077
241	0x3e879bf5	0.26486173
242	0x3ed71f5c	0.42016113
243	0xbe44ee5a	-0.19231549
244	0x3f2667c6	0.65002096
245	0x3d077093	0.033066344
246	0x3f0233a7	0.50860065
247	0xbee217e7	-0.4415886
248	0xbea302da	-0.31838113
249	0xbe3c790c	-0.1840555
250	0x3f2c1016	0.67212045
251	0xbe1afe27	-0.15136014
252	0x3de6fff3	0.11279287
253	0x3ecee603	0.4040986
254	0xbda7fd72	-0.08202638
255	0x3d04a70a	0.032385863

final_layer.combination_weights f4 [4, 3]
0	0x3f03bae0	0.51457024
1	0x3e997ba7	0.29977152
2	0x3eebfd11	0.46091512
3	0x3f04da92	0.5189601
4	0x3e993f8d	0.29931298
5	0x3eec2e2d	0.4612898
6	0x3f0409be	0.51577365
7	0x3e998895	0.29987016
8	0x3eebeb04	0.4607774
9	0x3f04c8c6	0.51868856
10	0x3e992a42	0.29915053
11	0x3eebd2f3	0.4605938

final_layer.weight f4 [3, 2, 2, 4, 3, 3]
0	0x3ecf6ccd	0.40512696
1	0xbf1698d9	-0.58826977
2	0xbf133c44	-0.57513833
3	0x3ee7415e	0.4516706
4	0xbe0b1a62	-0.13584283
5	0xbf157f30	-0.583972
6	0x3f227ff7	0.6347651
7	0xbf067bc4	-0.525326
8	0x3c0a9a70	0.008459672
9	0xbdba4c21	-0.09096552
10	0xbe5262fb	-0.2054557
11	0x3f3bb5ec	0.73324466
12	0xbf112351	-0.56694514
13	0x3ecc3029	0.39880493
14	0x3d4727fe	0.048622124
15	0xbe516f8d	-0.2045271
16	0xbda6981b	-0.081344806
17	0xbeb36406	-0.3503725
18	0x3f1c16ba	0.6097218
19	0xbe74c709	-0.23904051
20	0x3e138c33	0.1440895
21	0xbf0b6a3c	-0.54458976
22	0xbef545d8	-0.4790485
23	0x3f221a35	0.6332124
24	0xbf1804ef	-0.5938253
25	0xbf097da1	-0.5370732
26	0xbe848b96	-0.25887746
27	0xbea16bf1	-0.31527665
28	0x3f1c6048	0.61084414
29	0x3ef706f0	0.4824748
30	0x3dd107bd	0.10206554
31	0x3f382639	0.71933323
32	0xbf0fc6d6	-0.56162775
33	0xbec6b511	-0.38810018
34	0x3f358612	0.709077
35	0x3f1d92db	0.6155221
36	0x3e02ceb6	0.12774166
37	0xbd76a659	-0.060217235
38	0xbea368f1	-0.31916
39	0xbf2a2f55	-0.6647847
40	0x3e1d6ba7	0.15373097
41	0x3ef5a027	0.4797375
42	0x3f0dd65a	0.554052
43	0xbd818676	-0.063244745
44	0xbf3b11c3	-0.7307398
45	0x3e9dc9be	0.3081798
46	0x3ecdbc50	0.40182734
47	0x3e1ee303	0.15516286
48	0xbe2351c0	-0.15949154
49	0x3f1dcef0	0.61643887
50	0xbdaf42d8	-0.08557671
51	0xbead49ed	-0.33845463
52	0x3dc5eb75	0.096640505
53	0x3d09bf8d	0.033629943
54	0x3f2baf05	0.67063934
55	0x3e2bcc94	0.16777259
56	0xbeb1a40d	-0.34695473
57	0x3ea668a8	0.3250172
58	0xbf34e540	-0.7066231
59	0xbeb44570	-0.35209227
60	0xbf24ebe9	-0.6442247
61	0xbe0c3f34	-0.13695985
62	0x3f116ed6	0.5680975
63	0x3e8dae73	0.27672157
64	0x3cb52d3d	0.022116298
65	0x3f10b8d1	0.5653201
66	0x3eb14791	0.34624913
67	0x3f08c235	0.53421336
68	0xbe8715ab	-0.2638372
69	0x3e5620dc	0.20910972
70	0xbf194ffb	-0.59887666
71	0xbf09d24c	-0.5383651
72	0xbe35fc47	-0.17772017
73	0x3ea8af22	0.32946116
74	0x3f09e477	0.53864235
75	0x3ef25693	0.47331676
76	0x3eee93f5	0.46597257
77	0x3f1a71f8	0.6033015
78	0x3ee848a4	0.4536792
79	0x3e66136c	0.22468346
80	0x3f19d630	0.6009245
81	0x3f299861	0.66248137
82	0x3da0e66c	0.078564495
83	0x3f0748b7	0.5284533
84	0x3d22ec8d	0.039776374
85	0x3d0ff001	0.035140995
86	0x3edc8b06	0.43074816
87	0xbef07815	-0.46966615
88	0xbe67f529	-0.22652115
89	0x3eb1ec8c	0.34750783
90	0x3ee6fac0	0.45113182
91	0x3f0d6bbe	0.55242527
92	0xbef1ab9c	-0.4720124
93	0xbecd9391	-0.40151647
94	0xbf2fc01c	-0.6865251
95	0xbe0039ed	-0.12522097
96	0xbe3db703	-0.18526845
97	0x3f1b01c6	0.6054958
98	0xbef74952	-0.48298126
99	0x3e54e626	0.2079092
100	0xbe9b5bb1	-0.30343392
101	0x3d9a198e	0.075244054
102	0x3f12e95e	0.5738734
103	0x3e220091	0.15820529
104	0x3e315752	0.17318466
105	0xbf0b7280	-0.5447159
106	0x3f13baae	0.57706726
107	0xbed0d74c	-0.40789258
108	0x3d409095	0.047012884
109	0xbf23b0fe	-0.63941944
110	0x3db97383	0.09055235
111	0x3d5f3007	0.05448916
112	0x3edb18bd	0.4279231
113	0x3ed88db5	0.42295614
114	0x3ebb77f6	0.3661496
115	0xbeb43349	-0.35195377
116	0xbc9284e4	-0.017885633
117	0xbf47af5f	-0.7800197
118	0xbf29d271	-0.66336733
119	0xbf382dbe	-0.719448
120	0xbe37949d	-0.17927785
121	0xbf2ed141	-0.68288046
122	0xbef5a257	-0.47975418
123	0xbf1b8935	-0.60756236
124	0xbf0828e0	-0.5318737
125	0xbf260218	-0.64846945
126	0x3ec69868	0.38788152
127	0x3eea3ed9	0.45751074
128	0xbe8e6c43	-0.27816972
129	0xbef26de6	-0.4734947
130	0x3da24ab5	0.079244055
131	0x3dabcea9	0.08389027
132	0xbf32f14a	-0.6989943
133	0x3e98d260	0.29848003
134	0xbf1e3c78	-0.6181102
135	0xbf3c0ecb	-0.7346007
136	0xbf2b4d74	-0.6691506
137	0xbf4c580f	-0.79821867
138	0x3dc1a8d2	0.09456028
139	0xbf24bbcb	-0.6434905
140	0xbec68823	-0.3877574
141	0xbf4cfb1e	-0.80070674
142	0x3ecbba78	0.39790702
143	0xbf2d6fb5	-0.67748576
144	0xbddae3e2	-0.106879964
145	0xbeb89a23	-0.36055097
146	0x3ef5ecd6	0.48032254
147	0xbecf358f	-0.4047055
148	0xbf2737f4	-0.6531975
149	0x3ef0dacf	0.47041938
150	0xbf285ef7	-0.65769905
151	0x3e3e6d39	0.18596353
152	0x3d1281b6	0.035768233
153	0x3f0df0f3	0.55445784
154	0xbe0f3a11	-0.13986994
155	0xbdd46ec9	-0.10372693
156	0x3e784329	0.2424437
157	0x3f26089e	0.648569
158	0x3f36aa48	0.7135358
159	0xbe4e9034	-0.20172197
160	0x3f3f3e8c	0.74704814
161	0xbdb6acce	-0.08919679
162	0x3e00056a	0.12502065
163	0x3e19eb1d	0.15031095
164	0xbebefa07	-0.3730013
165	0xbdd8fb2c	-0.10594782
166	0xbefdb05a	-0.49548608
167	0xbe06f449	-0.13179125
168	0xbe47936e	-0.19489834
169	0x3f2f1e4c	0.68405604
170	0x3f18995d	0.59609014
171	0x3f1e508f	0.6184167
172	0x3d5e09f4	0.05420871
173	0x3e9e07ee	0.30865425
174	0x3ed664dc	0.41873825
175	0xbdb6c65b	-0.08924552
176	0x3ec44987	0.38337347
177	0xbc032a38	-0.008005671
178	0x3f17dfbf	0.59325784
179	0x3ebd92cc	0.3702606
180	0x3cbc138c	0.02295854
181	0xbb8f4a84	-0.0043728966
182	0x3eba819f	0.36427018
183	0xbf070d5c	-0.5275476
184	0xbf353485	-0.70783263
185	0xbe8d0202	-0.27540594
186	0xbe83bcca	-0.25729972
187	0x3ebfb0d1	0.37439588
188	0x3e43104c	0.19049186
189	0xbda3e217	-0.080021076
190	0xbee05343	-0.43813524
191	0xbec2cdd9	-0.38047674
192	0x3c642bfe	0.013926504
193	0xbf116dad	-0.56807977
194	0xbe7953f6	-0.24348435
195	0xbe72eb64	-0.23722607
196	0xbf155eca	-0.5834776
197	0xbeca38ad	-0.39496365
198	0x3ee91d35	0.45530096
199	0xbf0687be	-0.52550876
200	0x3f28a6af	0.6587934
201	0xbf2b9aa8	-0.6703286
202	0xbee1d6d4	-0.44109213
203	0x3eabfa28	0.33589292
204	0x3ec20ac6	0.37898844
205	0xbe819253	-0.2530695
206	0xbe9e69b9	-0.30940035
207	0xbe19cc99	-0.15019454
208	0x3eb87b0b	0.36031374
209	0x3e5fc7f8	0.21853626
210	0xba3fd99a	-0.0007318497
211	0x3ee7e376	0.45290726
212	0xbeb552cc	-0.35414732
213	0xbe9d6493	-0.30740795
214	0x3d93fbf6	0.07225792
215	0xbe67f666	-0.22652587
216	0xbef5c373	-0.48000678
217	0xbec5d605	-0.38639846
218	0xbd9d7133	-0.07687607
219	0xbe2fa957	-0.17154442
220	0xbf218ffe	-0.6311034
221	0xbce84df2	-0.02835748
222	0x3ceac94a	0.028660435
223	0x3dc83725	0.09776143
224	0xbe95dbed	-0.29269353
225	0x3d3cb120	0.046067357
226	0xbedfda64	-0.43721306
227	0x3e846681	0.25859454
228	0xbdca1781	-0.09867764
229	0x3b8780c8	0.004135225
230	0xbe1ba1a6	-0.15198383
231	0x3e0b0a89	0.13578238
232	0x3de96552	0.113962784
233	0xbe30e5f7	-0.17275225
234	0x3d09b9e3	0.03362454
235	0x3f11f523	0.57014674
236	0xbe3895a0	-0.18025827
237	0xbe46f948	-0.19431031
238	0xbd733df8	-0.05938527
239	0x3eca60ad	0.39526883
240	0x3f3197bc	0.69372153
241	0x3d8ce52a	0.06879647
242	0xbee1177c	-0.4396323
243	0xbe05911e	-0.13043639
244	0xbe3b38f3	-0.18283443
245	0x3f2b0d0f	0.668168
246	0x3db9f388	0.09079653
247	0xbeec41db	-0.46143994
248	0xbe5aa979	-0.21353711
249	0xbf015ce5	-0.5053237
250	0x3effde8a	0.4997447
251	0xbf17db1e	-0.5931872
252	0xbe47814b	-0.19482915
253	0xbf044199	-0.51662594
254	0xbf61b139	-0.88161045
255	0xbf4d2a32	-0.8014251

linear.weight f4 [10, 2]
0	0x3ed9566f	0.42448756
1	0xbea6336d	-0.3246111
2	0x3eb83167	0.3597519
3	0x3f84fc4c	1.0389495
4	0x3e3dfdfb	0.18553917
5	0xbdfcaf92	-0.12338175
6	0xbf39dfda	-0.72607195
7	0xbe0e21de	-0.13880107
8	0x3f155230	0.58328533
9	0x3ee10522	0.4394923
10	0xbec773d1	-0.38955548
11	0x3d4aea33	0.049539756
12	0xbf60efe6	-0.87866056
13	0xbeaf1eec	-0.3420328
14	0xbe188681	-0.14895059
15	0x3eae0e4c	0.33995283
16	0xbf3a0ff8	-0.72680616
17	0xbf2403dd	-0.64068395
18	0xbe828f05	-0.2549974
19	0x3c3bb446	0.011456555

linear.bias f4 [10]
0	0xbe376035	-0.17907794
1	0x3f0e1ef4	0.5551598
2	0x3e5d07a6	0.21584949
3	0xbe1fb3ac	-0.15595883
4	0x3f37608a	0.7163168
5	0xbb8f8cf5	-0.004380817
6	0xbf125dff	-0.57174677
7	0x3e407fde	0.18798777
8	0xbf8ad5d1	-1.0846502
9	0x3e83011a	0.25586778
