runs/PlainCNN_iso_std0.2_gamma2_lr0.002/model.pt (torch, 109053 bytes, 18 tensors)

first.weight f4 [20, 1, 3, 3]
000000 5f bc 8a be 59 2e 61 3e 0b ae ed 3e d3 90 9d 3e
       -0.2709684 0.21990336 0.46421847 0.30774555
000010 a5 30 2a 3e c2 77 97 bc 60 54 29 3e 7a 69 75 be
       0.16620119 -0.018489722 0.16536093 -0.23966017
000020 c1 7e 07 bf 67 94 30 3e e2 00 79 3d 5a 25 2c be
       -0.52927786 0.17244111 0.060791858 -0.16811123
000030 a6 8a ee 3e ae 43 9e 3e 72 aa 9a bc 25 37 86 bd
       0.46590155 0.3091101 -0.018880103 -0.06553487
000040 47 82 14 3e 0e 85 90 bd 4f 2b a2 3e e7 ae 8a 3a
       0.14502822 -0.07056628 0.31673667 0.0010580689
000050 c1 c3 b1 be 4c bd c7 bd fe e5 55 bd 89 e2 5c 3e
       -0.3471966 -0.097529024 -0.05222129 0.21570791
000060 12 3d a3 be 24 2e 9f 3e 40 72 30 3e 2f 31 f0 3e
       -0.3188253 0.3108989 0.17231083 0.46912524
000070 34 29 9a 3e e9 94 e1 3d 16 ba b4 3d 51 aa 78 be
       0.3010956 0.110147305 0.088245556 -0.2428372
000080 06 05 3e be 99 89 cb bd b7 eb 59 be 84 a6 b9 bd
       -0.18556604 -0.09938354 -0.21281324 -0.090649635
000090 d5 73 ac 3e 3b 50 65 3e 69 72 a9 be c9 62 8b 3e
       0.33682123 0.22393887 -0.330951 0.27223805
0000a0 c3 79 19 be f5 ef a3 be c0 79 97 be 86 fb a1 3e
       -0.14987855 -0.3201901 -0.29585075 0.3163721
0000b0 8f 83 7a bd c2 23 92 3e 21 cb ae 3e 55 dc 11 bf
       -0.06116062 0.28542906 0.3413935 -0.56976825
0000c0 f3 7a b4 bd 2d 9b 80 3e c6 21 55 be 87 df 1c 3e
       -0.08812513 0.2511839 -0.20813665 0.15319644
0000d0 b5 0f 49 bd 4e 70 e6 3d 80 f3 8e be 71 9e e2 bd
       -0.049087245 0.11251889 -0.2792015 -0.110653765
0000e0 ec a1 bb bd 63 25 95 bd 54 7e ae bd 20 6a 1d be
       -0.091617435 -0.072825216 -0.08520189 -0.15372515
0000f0 4a 67 ec 3c a1 8f 6f 3c 60 86 61 be 93 09 6d be
       0.028857846 0.014621646 -0.22023916 -0.23148184
000100 cc 7a 15 be d4 15 ee bd b4 4b 02 3e d6 34 97 3e
       -0.14597625 -0.11625257 0.12724191 0.29532498
000110 17 03 24 3e c8 8a c3 3e 3c 72 a3 3e bf 8a 16 bc
       0.16016804 0.3819182 0.3192309 -0.009188353
000120 72 9b 02 bd da 96 a5 be a5 c7 e2 3b dc 9b 16 be
       -0.031886525 -0.32341653 0.006920772 -0.14707893
000130 78 58 c0 be 25 b3 4a 3c 78 66 63 be 01 11 fd bd
       -0.37567496 0.012371813 -0.22207057 -0.12356759
000140 5a 08 ca 3e a2 0a 24 bf 75 a1 38 be 36 d4 ba 3e
       0.39459497 -0.64078724 -0.18030341 0.3649003
000150 10 87 d3 be ee 4b 8a bc 36 51 f0 3e df 3f 07 3e
       -0.41313982 -0.01688191 0.4693696 0.13207959
000160 7a 3c da 3e d3 17 98 3e c0 52 01 3e 6d b2 3f 3e
       0.42624265 0.29705676 0.12629223 0.18720408
000170 5f 86 e4 bd 5d fe fc 3e be 3d ec 3d 41 84 5f be
       -0.11158442 0.49412814 0.11535214 -0.21827795
000180 d7 e9 cd 3e f0 16 5a be 55 14 8d be 61 5b ce 3d
       0.40217468 -0.21297812 -0.27554575 0.10076023
000190 78 a9 01 3c b5 a9 c0 be ad d3 fc 3d 9e 13 58 3e
       0.00791394 -0.37629476 0.123450615 0.21101233
0001a0 f6 c8 16 3e c2 ff ff be 24 71 96 be 49 de 07 3e
       0.14725098 -0.49999815 -0.29383194 0.13268389
0001b0 66 d8 cb 3e 29 0a 06 3e d3 e2 7c 3e d0 23 91 3e
       0.39813536 0.13089813 0.24695902 0.28347635
0001c0 70 49 54 3c c6 a4 30 bd df 16 4c be e3 02 3e be
       0.012956962 -0.04312589 -0.199306 -0.18555789
0001d0 09 24 b0 be 18 46 2a be e7 25 21 be 9c c4 79 be
       -0.34402493 -0.16628301 -0.15737115 -0.24391407
0001e0 6c 52 e8 bd 1b f7 6c 3c 2c 76 1d be a7 55 11 be
       -0.11343846 0.014463211 -0.1537711 -0.1419283
0001f0 59 16 4d be 67 06 3b be fc ab bf be d7 7a a5 3b
       -0.20028056 -0.18264161 -0.374359 0.005050044
000200 31 ec 7b 3e 44 10 87 be 0c 43 68 3e 7f 6c 08 3e
       0.24601819 -0.26379597 0.22681826 0.13322638
000210 fb 7f 6d be 35 ec ab be 22 bd de 3d 48 2a 3c 3c
       -0.23193352 -0.3357865 0.10875918 0.01148469
000220 79 2b ca bd 41 9a 96 bc 7e 70 90 3b 79 7a ea bd
       -0.09871573 -0.0183841 0.0044079414 -0.11449141
000230 e3 94 bd bb f2 6e 98 bd 52 3f f7 bc ff 9f 5b bd
       -0.005785571 -0.07443036 -0.03018156 -0.05361938
000240 42 4c 20 3c ff 98 a8 3e d9 eb a3 3e 2f 75 7f bd
       0.009783806 0.32929227 0.32015875 -0.062367614
000250 7d 23 15 be 2e c7 48 3e 5f 4b 92 3c 4f a5 d8 be
       -0.14564319 0.19607231 0.017858205 -0.4231362
000260 20 8c 88 be da d9 5a 3e b5 1f 22 3d 11 77 00 bf
       -0.26669407 0.21372166 0.03958102 -0.5018168
000270 4a 7d f7 3d 31 bc b3 be a6 69 af bd 7c bd 17 bf
       0.12084444 -0.35104516 -0.08565073 -0.59273505
000280 68 61 27 bd 6a 46 8c bd ff fa 4f 3e 14 d0 37 be
       -0.04086438 -0.06849368 0.20310591 -0.1795047
000290 45 fb 80 bd f4 ed 0b 3e 9c 3d 76 be 43 a3 3a be
       -0.06297926 0.1366499 -0.2404694 -0.18226342
0002a0 a4 6b ce 3e 07 97 83 3e 80 bc 11 3e eb ef 0d bf
       0.40316498 0.25701162 0.14232063 -0.5544421
0002b0 8c 34 91 3e e8 d1 29 be 61 be b8 be b8 12 78 3e
       0.28360403 -0.16583979 -0.36082748 0.2422589
0002c0 55 c8 01 3e de 78 78 3e e8 96 a4 3d b7 aa 0b bf
       0.12674077 0.24264857 0.080365956 -0.54557365

first.bias f4 [20]
000000 8f 9f 6e be 1f b4 86 be ee 57 f7 bd 91 19 36 be
       -0.23303054 -0.26309296 -0.12077318 -0.1778319
000010 b7 65 0d 3d f8 e7 69 be 26 1c 84 3e 30 83 8b be
       0.03452083 -0.22842395 0.25802726 -0.27248526
000020 d1 7c 2f 3e 22 9f 8f be de de a6 be fc 61 b1 3e
       0.17137457 -0.28051096 -0.3259191 0.3464507
000030 35 44 93 be ca b1 ca 3e 9e a6 ab 3c 76 c7 cf be
       -0.28762975 0.39588767 0.020953473 -0.40581864
000040 de 21 cd bd 87 23 2e 3e d7 f5 40 be 2e 2c 29 be
       -0.10016225 0.1700574 -0.1884378 -0.1652076

hiddens.0.weight f4 [20, 20, 3, 3]
000000 4d 84 7e 3e f1 75 53 3e 47 41 16 3c 86 ac 98 3b
       0.24855156 0.2065046 0.009170837 0.0046592383
000010 ee b1 66 bc 7e e4 62 be 3f e6 ad be 74 57 3d be
       -0.014080508 -0.22157475 -0.33964726 -0.18490392
000020 2d 27 17 3d e6 ee 64 3b 8c 4a 0c be b2 ac 90 bd
       0.036902595 0.0034932434 -0.13700312 -0.07064189
000030 f0 d3 ff 3c dc b5 32 be 17 1d 2a be ed c7 c8 bd
       0.03122899 -0.17452186 -0.1661266 -0.09803758
000040 ff 22 ad 3d 76 62 ce 3c 4d 86 40 bc 6f 3d 4a 3e
       0.084539406 0.025193434 -0.01175077 0.19749998
000050 2d f7 0d 3e 87 e6 0b bd ff 75 05 bc 21 99 6f 3d
       0.13863821 -0.034155395 -0.008145808 0.058495644
000060 d2 9d 98 3d 58 a6 0a 3e f8 50 98 3d 5d 56 33 3e
       0.07451977 0.13540018 0.074373186 0.17513414
000070 80 f5 2d 3e 18 c1 8c 3c e7 75 d0 3c 31 78 5a 3c
       0.16988182 0.017181918 0.025446845 0.01333432
000080 1f 13 b5 bd dc 26 1b 3d 23 d1 cb bd fc ed 37 be
       -0.08841538 0.037878856 -0.09951999 -0.17961878
000090 5e 5f f5 3d 29 dc 9c 3d 94 d2 47 3e aa 84 9d 3e
       0.119810805 0.0765918 0.19513923 0.30765277
0000a0 12 c4 23 3e 28 7c 5a 3d 9c b7 1b 3e 05 0e 05 3e
       0.15992764 0.05334106 0.1520676 0.1299363
0000b0 6c d2 11 be 9d fa 8f bd 54 3f a4 bc 32 ea f4 ba
       -0.14240426 -0.070302226 -0.020049728 -0.0018685518
0000c0 c0 17 b2 3d 4a 78 b1 3c 3d 17 5a 3d 8c 0b 35 3d
       0.08695936 0.021663804 0.053244818 0.044200465
0000d0 22 f7 c7 bd fb 46 17 be e6 db 0f bf b6 c5 84 be
       -0.09763934 -0.1477317 -0.56194913 -0.2593209
0000e0 ae d0 4e bd da 90 13 be 5a b6 48 be b3 0d f6 bc
       -0.05049198 -0.14410725 -0.19600812 -0.03003583
0000f0 a8 7e da bd 85 ab 1a 3d 86 5c ce bc 45 87 90 bd
       -0.10668689 0.03776123 -0.025190603 -0.070570506
000100 8a 71 57 bd 45 e6 1a be dd a2 d3 bd e8 80 51 be
       -0.052598514 -0.15126903 -0.10333798 -0.2045933
000110 66 0c 15 be c5 16 1b be bf c2 54 3c ba 65 3e 3e
       -0.14555511 -0.15145405 0.012985884 0.18593493
000120 8d 35 d0 be 22 3a a0 be e3 57 57 be c8 d2 b4 bd
       -0.40665856 -0.31294352 -0.2102962 -0.08829266
000130 d4 c3 75 be c4 25 99 bd f6 83 dd 3c 2c b1 28 bd
       -0.24000484 -0.07477906 0.027040463 -0.04118459
000140 88 b9 11 3d 55 00 15 bd 90 8d 2a be 10 f1 7e be
       0.035577327 -0.03637727 -0.16655564 -0.24896646
000150 97 c8 57 be 07 20 e6 bd 26 9f ac 3d eb c0 0c bd
       -0.21072613 -0.112365775 0.08428793 -0.03436367
000160 91 bf 0a 3e 53 97 96 3e 14 6b 94 bc a4 26 61 bb
       0.1354964 0.29412326 -0.018117465 -0.0034355307
000170 4a 8f 6d bd 6e b6 8f 3d 19 e9 24 bd e0 ec 9e be
       -0.05799798 0.070172176 -0.04026136 -0.31040096
000180 de 6e 7c be e7 c9 53 be f4 44 be be 45 8c 87 3d
       -0.24651667 -0.20682488 -0.37161982 0.06618551
000190 b5 ad 80 3d f6 c9 2e 3e 37 43 1c 3e c6 ef e4 3d
       0.06283132 0.1706923 0.15260015 0.11178546
0001a0 bd 27 01 3e 14 23 48 3e 33 32 89 3d 28 1b 4f 3d
       0.12612815 0.19544631 0.06699028 0.050563008
0001b0 8f 20 5b 3d a8 55 72 3d 52 0d 84 3d bf 18 49 3d
       0.053497847 0.05916372 0.06447853 0.049095865
0001c0 ca bc 1c bd e5 8d 2e be e4 73 f8 bd f3 a6 75 bd
       -0.03826598 -0.17046316 -0.121314794 -0.05997367
0001d0 c4 2e b3 bd 8d 98 24 bf b9 df 0d be 10 ef cb bc
       -0.08749154 -0.64295274 -0.13854875 -0.024894267
0001e0 2c 27 04 be dc 6d a3 3d de d0 ff 3d e0 37 15 3c
       -0.12905568 0.079799384 0.1249101 0.00910756
0001f0 48 46 47 3d 6a e8 21 bb dd 34 f5 be 0f 93 a7 be
       0.04865101 -0.002470518 -0.47891894 -0.32729384
000200 34 d3 cd be 87 87 50 bd 1c ca b7 3e a8 c3 24 3d
       -0.40200198 -0.0509105 0.35896385 0.040225655
000210 1f 71 f2 3d 83 9d 2e 3c 37 00 be 3d ff 31 3e 3d
       0.118379824 0.010657671 0.09277385 0.0464344
000220 d8 27 ed 3c f2 a8 c2 bc 44 ae 2e bd b2 ee 8e bb
       0.028949663 -0.0237622 -0.04264666 -0.004361951
000230 3d fb 83 bd fa e1 33 bd 1a 34 ef 3c 50 bb 26 bd
       -0.06444404 -0.04391668 0.029199649 -0.04070598
000240 65 37 35 3e 85 be 75 3e 0f a1 b2 3e 45 3a 6a 3e
       0.17696913 0.23998459 0.34888503 0.2287379
000250 34 73 aa 3d 57 6b 27 bb 6a 01 fe bb 62 81 2d be
       0.083227545 -0.0025546157 -0.0077516334 -0.16943887
000260 7b 64 4e be fa 85 a5 be a7 be 0a be da e7 5a be
       -0.20155518 -0.32328779 -0.1354929 -0.21377507
000270 4b 08 59 be 95 85 53 be 7c b1 06 bd 66 46 34 be
       -0.2119457 -0.20656426 -0.032884106 -0.1760498
000280 4b ce 10 be da a8 eb 3d 1e e0 67 bd 66 27 0e 3e
       -0.14141195 0.11506815 -0.05661022 0.13882217
000290 67 59 b6 bd df 87 81 3d ed a3 8e 3d 6b ea 1d bd
       -0.08903771 0.063247435 0.0696486 -0.038553637
0002a0 c0 e6 e7 3d 08 b0 c5 3d 33 09 16 bd e3 1c be 3e
       0.11323309 0.09652716 -0.036629867 0.37131414
0002b0 92 29 7d 3e c7 2a f8 3c b2 b8 a5 3d 77 48 70 be
       0.24722889 0.030293835 0.080918685 -0.23465143
0002c0 bf 69 a6 be 44 f9 46 3e a6 ad 1c 3d cb e5 94 3d
       -0.32502553 0.19431025 0.03825154 0.07270392
0002d0 da 79 f8 3b 19 f0 bb bd 24 b2 99 3c 3d 72 46 bd
       0.007582885 -0.09176654 0.018761702 -0.04844879
0002e0 46 6d ad 3b 22 12 31 bd fa a1 1c bd 23 30 20 ba
       0.0052925674 -0.043230183 -0.03824041 -0.00061106886
0002f0 90 9b c2 bb 40 2a 47 bd f9 43 e8 bd f4 95 33 bd
       -0.0059389547 -0.048624277 -0.1134109 -0.04384418
000300 1e 9c 03 bd 7d de dd bd 5e 68 70 bd 3b d1 4f bd
       -0.032131307 -0.10833452 -0.058693282 -0.050736647
000310 55 4e 40 bc d2 63 a7 bd 5e 16 13 be 66 cd 2e 39
       -0.011737426 -0.08173336 -0.14364001 0.0001667045
000320 6c cb 28 bd 61 f5 4d bc b6 df c4 bb 80 c7 67 3c
       -0.041209623 -0.01257071 -0.0060081137 0.014146686
000330 81 8d 79 bd 0b 42 06 be c2 5e 32 3d 36 85 d9 bd
       -0.060925964 -0.13111131 0.0435474 -0.10621111
000340 b3 94 66 bd 9e f6 f9 ba 4c 2c 10 3d e9 1c 35 bd
       -0.056294154 -0.001907069 0.035198495 -0.044217024
000350 8e 92 b1 bd 13 5c 61 bc ba bf e0 3c a8 a1 e7 3c
       -0.08670531 -0.013754862 0.027435172 0.028275326
000360 8c d0 6e bc ac e3 95 bd 49 12 0b bc 9f ac 60 bd
       -0.014576089 -0.073188156 -0.008488246 -0.054852124
000370 65 3f a2 3b fb 9a f6 bc 21 55 ec bd 18 97 56 bd
       0.004951405 -0.030103197 -0.115396746 -0.052390188
000380 e9 36 ac bd 8d bb 6a bd 7e ad 18 bd 31 2b 1b bd
       -0.08408911 -0.05730777 -0.03727483 -0.037882987
000390 74 34 b9 bc 23 fc 52 bd 07 70 d2 3c 20 c6 88 bc
       -0.02260802 -0.051509988 0.025688184 -0.016696036
0003a0 85 ec fe bc d5 6a 15 3d 93 55 98 bd 0b 74 97 bd
       -0.03111864 0.036478836 -0.07438197 -0.0739518
0003b0 08 5f ec bc fb 57 83 bd 6f b2 00 bd ae 0f 6d 3c
       -0.028853908 -0.06413265 -0.031420168 0.01446907
0003c0 cc 94 d3 bb e4 9c 97 bd ff 8a 49 bd d3 8d cd bd
       -0.006456947 -0.074029714 -0.049204823 -0.100368164
0003d0 cf 66 b3 3c 92 34 d3 bb 9a 08 94 bd a7 a8 ec bc
       0.021899609 -0.006445476 -0.07228203 -0.028889013
0003e0 9b 1c aa bc 7a 2f 83 bd 54 c5 86 bd 3e 60 1d bd
       -0.020765593 -0.0640554 -0.06580606 -0.03842186
0003f0 d3 39 e1 bd 3b e9 43 3d eb d0 94 bc 96 d1 7e bd
       -0.10997357 0.047829848 -0.018166026 -0.062211595

hiddens.0.bias f4 [20]
000000 6f c4 45 3e 21 79 d0 bd 96 12 5e 3e 1b 87 a1 3d
       0.19313215 -0.101793535 0.21686777 0.078870974
000010 5f 00 ce bc 5d 95 e9 bc d6 61 f7 bd 6f 09 74 3e
       -0.025146661 -0.028513605 -0.120792076 0.23831724
000020 dc db ba bc 8d 27 96 bd 9e c6 0d be 4b 2f 14 3e
       -0.022809915 -0.073317625 -0.13845298 0.14471166
000030 73 3b e2 bc 3d 0d 79 bd 69 48 cc bd 17 46 07 3c
       -0.027616238 -0.06080364 -0.09974749 0.008256457
000040 ff 3f 7f 3d 27 70 5d 3e 05 64 a5 bd ee 8c 3a 3e
       0.06231689 0.21624814 -0.08075718 0.18217823

hiddens.2.weight f4 [20, 20, 3, 3]
000000 69 21 06 be 11 7d 90 bd 3d 8c a9 bd e1 93 3f be
       -0.13098682 -0.070551045 -0.082787015 -0.18708755
000010 db a2 04 be c8 33 14 be 10 f9 b7 bd f0 08 ec ba
       -0.1295275 -0.14472878 -0.08983052 -0.0018008035
000020 ce 40 e7 bd 92 b3 5e 3d 7a 91 31 bd 8c 2d 43 bd
       -0.112916574 0.05437047 -0.043351628 -0.04765086
000030 bc ad 85 bd 35 8d 90 bd 2b bd 68 bd de 88 60 bd
       -0.06527278 -0.07058183 -0.05682103 -0.054818027
000040 3f 66 23 bd e8 8d 8f bd 46 33 0e bd 97 46 07 3c
       -0.03989243 -0.07009488 -0.034716867 0.008256576
000050 fc 6e 9d bb 59 61 15 bd 8b 5b 60 3b eb 14 8f bd
       -0.00480449 -0.03646979 0.0034234251 -0.06986412
000060 94 b7 64 bb f8 7c 7c bd f5 46 5d 3b 88 63 20 bd
       -0.003489946 -0.061642617 0.0033764218 -0.03915742
000070 47 30 8d 3d 58 48 35 bd 8e a5 c1 bd e5 07 5e bd
       0.06893974 -0.044258446 -0.09455405 -0.054206748
000080 cb 75 2d 3c 57 d0 6d bd 89 47 c7 bd a4 9d 83 bc
       0.010587166 -0.058060016 -0.09730441 -0.01606638
000090 25 e5 5c bd a5 03 e1 bd e5 e8 8f bd ae 50 fe bd
       -0.053929467 -0.10987023 -0.07026843 -0.12417732
0000a0 c3 c5 03 be c9 ba 0a b9 42 9e 9e bd fd f6 ce bd
       -0.12868409 -0.00013230288 -0.07745029 -0.10105703
0000b0 14 78 c1 bd a3 31 12 bc 73 52 5f bc 4d 84 96 bd
       -0.09446731 -0.008922967 -0.013630497 -0.07349453
0000c0 e7 68 9d bd 76 92 d4 bd 84 e8 42 bd f8 21 8f bd
       -0.07686024 -0.10379498 -0.047585025 -0.06988901
0000d0 23 99 c9 bd 3b b0 52 bc 04 19 78 3d b0 d8 21 bd
       -0.09843662 -0.012859399 0.06057073 -0.03951329
0000e0 dc fe a0 bc 87 01 7a bb ef 1b c8 bb ed 00 92 bd
       -0.019652776 -0.0038147883 -0.0061068456 -0.07129083
0000f0 bb ab bc 3b 38 89 5f 3d 6e 73 73 3c bb 07 ad bc
       0.0057577766 0.05457422 0.014859064 -0.02112185
000100 6d c4 5c 3c a7 a3 04 be 46 c4 3a bd ea d0 d7 bd
       0.013474566 -0.12953053 -0.045597337 -0.10537894
000110 1d e6 4f bd 65 a9 17 3d de 8e 87 bd dd dc 99 bc
       -0.050756563 0.03702678 -0.06619047 -0.018782074
000120 cb 29 62 bc ed 34 9f 3b 69 f9 8d 3c 75 08 e2 3b
       -0.0138039095 0.004858604 0.017330842 0.006897981
000130 bc 00 5c bc 3a 61 d8 bc df 98 12 3c d1 38 32 bd
       -0.013427909 -0.026413549 0.00894758 -0.043511216
000140 a3 d8 3b 3c 00 9f b4 3c 4e 83 41 bd 09 1b a1 3c
       0.011465224 0.022048473 -0.047244363 0.019666212
000150 0d 77 6c bd 38 ce a6 3c 82 d8 36 3d 71 fe 24 3d
       -0.057730723 0.020362005 0.04464007 0.040281717
000160 44 8a 85 bd dd 84 75 bd 86 1b 3b 3d 8a 91 5b bd
       -0.06520513 -0.05994116 0.045680545 -0.053605594
000170 fc bd 58 3a 71 67 6b 3d 37 b1 91 3c 30 dc b3 bc
       0.0008268056 0.057471696 0.017784698 -0.02195558
000180 1a f5 8c 3c 81 00 86 3d 49 43 96 bd 57 7c 8d bc
       0.017206717 0.06543065 -0.073370524 -0.017271204
000190 d6 87 00 3b 0f f7 53 bd c5 4d af bd d2 03 f2 3c
       0.0019612215 -0.051749285 -0.08559755 0.029542837
0001a0 d8 46 b7 bd 43 6f 05 3c bf b9 5f 3b 08 02 ec bc
       -0.08949059 0.008144203 0.0034137813 -0.028809562
0001b0 8a c6 16 bc 7d 26 17 bd 42 42 da bc c9 86 b1 bd
       -0.009202609 -0.03690194 -0.026642922 -0.08668286
0001c0 e9 af af 3b 9f a9 4e 3c d6 d1 ee bd e7 f1 b1 bc
       0.0053615463 0.012613683 -0.11661117 -0.021721793
0001d0 2f 16 a2 3c 3c 4c 28 bd c4 b6 72 bd 40 5b 52 3d
       0.019785969 -0.041088328 -0.05925633 0.051356554
0001e0 6c 37 20 3d 94 14 00 bd 8b 37 c2 3c 08 02 23 3d
       0.039115354 -0.031269625 0.023708126 0.03979686
0001f0 27 dc 80 3d 2d 98 bf bb fa a1 83 bd a4 11 af 3a
       0.06291991 -0.005846998 -0.06427379 0.0013356698
000200 1f b9 52 3d b5 e7 56 3d 0d 61 90 bd 3c 6e 37 bd
       0.051446076 0.052467067 -0.07049761 -0.044782862
000210 e4 75 7e 3d d2 c7 32 bd 97 bf 86 ba 1c 34 1c 3d
       0.062124148 -0.043647595 -0.0010280487 0.038135633
000220 e2 7c 6b bd 46 3e 26 3d 75 25 3a bc 2c 49 bc bd
       -0.057492144 0.040586732 -0.0113614695 -0.09193644
000230 c2 07 eb 3c cf d0 ed 3c 07 6b 9e bd 1a 87 cb b9
       0.028690223 0.029030232 -0.077352576 -0.00038819836
000240 bc 09 20 3d 56 5f 94 bd 6e 54 cd bd e2 09 1c be
       0.039071783 -0.072447464 -0.10025869 -0.15238145
000250 48 14 82 bd ba 99 74 bc f1 6c c3 bd 6d d8 b3 3c
       -0.063515246 -0.014929229 -0.09542263 0.021953786
000260 7d 59 70 bc fe 76 56 be 51 08 d1 bd ae 91 cf bd
       -0.014669773 -0.2094383 -0.10206664 -0.10135208
000270 a0 0d 3c be d0 c8 08 be ec 1e 09 3d da 36 3b bd
       -0.18364573 -0.13357854 0.033476755 -0.045706607
000280 26 6d 70 bd a1 0a ce bd 3a 2f 82 bc 2c f3 2f 3d
       -0.058697842 -0.10060621 -0.01589166 0.042956516
000290 47 3c 0b bd 63 7e da 3c 8f aa cb bc 77 1b 73 3d
       -0.03399303 0.026671594 -0.024861602 0.059352364
0002a0 1d f6 84 3c c9 f5 d1 3c b5 da b0 bc 81 07 c6 bd
       0.016230637 0.025629895 -0.021588663 -0.096694
0002b0 5e 9b 5c ba 3a b7 f4 bd 0a 87 72 bd 5f 29 fc bd
       -0.00084154855 -0.1194901 -0.059210815 -0.123125784
0002c0 d9 d3 59 bd b6 21 69 bd 17 73 cc bd e4 3c 41 bc
       -0.05318055 -0.056916915 -0.09982889 -0.011794303
0002d0 2f fd c0 bd aa c5 fd bc 5d e1 cc bd 11 3d af ba
       -0.09423291 -0.030978043 -0.10003922 -0.001336964
0002e0 27 f2 29 bd e7 7f d4 39 35 17 c3 bd 44 7a 03 3d
       -0.0414907 0.00040531086 -0.09525911 0.032099023
0002f0 64 46 63 3d 71 21 58 3d 2c 8d 3c 3d 82 db 1e bd
       0.05548705 0.052766267 0.04603307 -0.038783558
000300 ec 38 b0 bc e5 54 a2 bd e2 98 81 3d 9f c5 98 3c
       -0.021511517 -0.079263486 0.06327988 0.01864892
000310 91 c5 68 bd 12 e4 2c bd b3 7e ca bd 87 80 1d bd
       -0.05682904 -0.042209692 -0.09887447 -0.03845265
000320 d8 77 06 bd 10 63 97 bd 89 e7 bf bd 05 5b 03 be
       -0.032829136 -0.073919415 -0.09370334 -0.1282769
000330 ca 20 4e bc e3 b7 c3 bd 8d ac 77 bd d4 f5 b6 bc
       -0.01258106 -0.09556558 -0.06046729 -0.022334017
000340 00 6b 01 bd 59 0c 57 bd 0f fd ca bd 90 c1 4c 3d
       -0.031596184 -0.05250201 -0.09911548 0.049989283
000350 53 02 80 bd 1f eb fe bd c6 bb 12 bd 93 33 05 bd
       -0.06250443 -0.124471895 -0.035823606 -0.032519888
000360 4b 8f 68 bd 76 55 a9 bd d8 3a 80 bd 6e 17 38 3d
       -0.05677728 -0.082682535 -0.062612236 0.04494422
000370 e6 fb 54 bd 2e 60 e7 bd 90 6a 16 bd cc 0a 17 bd
       -0.05199804 -0.11297642 -0.03672272 -0.03687553
000380 bb 67 18 bd 2a 98 61 bb ae 09 ac bc f4 3c 79 bd
       -0.0372083 -0.0034422972 -0.02100071 -0.060849145
000390 7b c7 ac bd 94 21 46 3d bf cb 99 bd 7a fb 86 bc
       -0.084364854 0.048371866 -0.075095646 -0.016477335
0003a0 5d 1e 18 3d b3 b3 73 3d f6 69 3e 3d f5 f1 61 bd
       0.03713833 0.059497546 0.04648777 -0.05516239
0003b0 3c db 01 bd 53 a6 14 3d 6f a4 ee bc d0 91 8b bd
       -0.03170322 0.03629143 -0.029131142 -0.06814921
0003c0 d9 fa 97 3d 25 7c 8f 3d 5d bf 21 bd d7 a9 fe bc
       0.07420892 0.070061006 -0.03948914 -0.031086845
0003d0 b7 7b 83 bd cd f4 f8 bc d9 89 ae bd 23 64 39 bd
       -0.06420081 -0.030390168 -0.08522386 -0.045261513
0003e0 7c 14 d6 bd 17 2e 75 bd 54 24 26 bc 8b e2 29 bd
       -0.10453126 -0.059858408 -0.010140497 -0.041475814
0003f0 5a 75 8b bc 4b 7c 43 bc a8 25 9c bd f3 f9 99 bd
       -0.017023731 -0.011931489 -0.0762437 -0.07518377

hiddens.2.bias f4 [20]
000000 ec 4a 8e bd 4e 04 85 bd 98 c5 5f be 80 3b 35 bd
       -0.06947884 -0.06494962 -0.2185272 -0.044246197
000010 bc 47 17 3e ee 70 ea bd 05 f8 ba 3d ef 14 1a bc
       0.14773458 -0.11447321 0.09129337 -0.009404405
000020 de 81 28 3e ed 7c fa bc 67 36 fc bd 4a 43 5f 3e
       0.1645579 -0.030577147 -0.12315064 0.21803012
000030 d8 87 e8 bd 04 51 f7 3c 56 d5 de 3d 9d a4 91 bd
       -0.11354035 0.030189998 0.10880534 -0.071114756
000040 7b 29 c7 bd 69 24 e4 3d 8a 00 38 3d 82 b8 19 3e
       -0.09724709 0.11139757 0.04492239 0.1501179

hiddens.4.weight f4 [20, 20, 3, 3]
000000 ea e8 d7 bd 22 56 8c bd 94 95 3e 3d cd 10 b8 bd
       -0.10542472 -0.06852366 0.046529368 -0.089875795
000010 50 4c 11 bd bf 23 81 3d 19 18 81 bd f3 e1 f4 3c
       -0.035473168 0.06305646 -0.063034244 0.029892897
000020 88 39 39 bd b8 4a b7 bd 06 69 9f 3c 81 3e bd 3d
       -0.04522088 -0.08949798 0.019459259 0.09240437
000030 32 49 86 bd ed 93 0a 3e a6 d5 45 3d 69 d1 57 bc
       -0.0655693 0.13532992 0.048299454 -0.013172486
000040 5a bd b4 3d 7a da da 3d 32 e6 a8 bd 31 59 03 bc
       0.088251784 0.10686202 -0.08247031 -0.00801687
000050 0d 55 27 3c 2e 9f a2 3d 05 1b 7c 3c 58 8e 35 3d
       0.010213149 0.07940517 0.015387301 0.044325203
000060 e2 64 d0 3c d6 cc 33 bd 91 bf 0e 3d 28 3e b7 bc
       0.02543873 -0.04389652 0.03485066 -0.022368506
000070 fa bc ac bc 25 db 9b bd 84 4a 4c bd e3 c9 62 bd
       -0.021086205 -0.07610158 -0.04987575 -0.055368315
000080 b5 27 c1 bb c2 4e 45 3d fd f6 5c 3c 66 1f 6c bd
       -0.005894626 0.048170812 0.013486621 -0.05764713
000090 0c 04 86 3e 9b 31 10 3e 36 d1 e3 bd ed 6a 1c 3e
       0.26174963 0.14081423 -0.11123888 0.15275164
0000a0 b7 a1 4c bd c3 af 2d be 39 2b 99 3e b3 74 8a be
       -0.04995891 -0.16961579 0.2991579 -0.2704216
0000b0 34 99 b0 be 07 10 77 3d 0c 87 52 3d 8e 1a bc 3d
       -0.34491885 0.06031802 0.051398322 0.091847524
0000c0 f2 de 1c 3e 91 4d 53 3d c9 ff 1d 3d 5a 11 e6 3c
       0.15319422 0.051587645 0.038574014 0.028084446
0000d0 b2 5b 86 3c de 5b 99 3b a8 59 ae be 19 77 35 bf
       0.016401146 0.004680141 -0.34052777 -0.70884854
0000e0 0b 9f 5e bf ba a9 88 be 42 77 82 be 17 01 6e be
       -0.8696143 -0.2669199 -0.25481611 -0.23242603
0000f0 26 a7 ef 3e 43 78 88 3e 4f 5b c9 3c 6c 86 e2 bd
       0.46807212 0.26654252 0.024579672 -0.11060795
000100 6b 3d 96 bd 06 c2 16 3d be cd c0 bc 51 36 60 be
       -0.07335933 0.03680613 -0.023535606 -0.2189572
000110 d8 a4 99 be 2e d9 92 3d 90 05 e1 3b f8 c4 b5 bd
       -0.30008578 0.0717033 0.006867118 -0.088754594
000120 2f 07 c7 be 24 d8 2b be 6c b6 d3 bd 57 07 2c be
       -0.38872668 -0.1678167 -0.103375286 -0.16799675
000130 82 a1 01 be e4 05 72 3d 19 49 33 3d 35 51 fc bd
       -0.12659267 0.05908765 0.043770883 -0.123201765
000140 cd 3c 12 bd 63 68 10 be d9 40 c0 bd 73 37 ec bd
       -0.035702515 -0.1410232 -0.09387369 -0.115340136
000150 3a 8b 91 3c a0 92 04 be 51 fd dc bd 60 19 82 be
       0.017766584 -0.12946558 -0.10790504 -0.25409985
000160 2f 02 fc be 27 0f d6 be fd 6d 5a bd b6 02 ca bc
       -0.49220416 -0.41808435 -0.05332755 -0.024659496
000170 3c 61 0b bd c1 39 e5 3d d3 90 1d 3d 90 0f dd bd
       -0.034028277 0.11192656 0.038468193 -0.10793984
000180 8b cc a4 3d c3 1c de 3a b2 ea 85 3d 1c 89 a3 3e
       0.08046826 0.0016945828 0.06538905 0.31940544
000190 b5 5a 14 3e 75 f9 44 3e c6 5f 4d 3e eb 75 06 3e
       0.14487727 0.19235785 0.20056066 0.1313092
0001a0 8b 33 cb 3d c6 ed 42 3e 13 b3 7f 3d be bd 7d 3c
       0.099219404 0.19036016 0.062426638 0.015487133
0001b0 86 a9 d5 bd 5a 66 92 bd 86 0e ac bc c1 8f 45 3c
       -0.10432725 -0.07148428 -0.021003019 0.012058199
0001c0 dd e4 6c 3d dc 10 26 3d 7a d4 90 bd 0b e0 5e 3d
       0.05783545 0.040543422 -0.07071777 0.054412883
0001d0 df 22 4f 3e 61 6e c5 3d 96 16 de bd 1c 62 a1 be
       0.20228146 0.09640194 -0.10844152 -0.31520164
0001e0 70 c3 a4 bc 65 95 a7 3d 85 ed bf bd dc cc ee 3d
       -0.020112723 0.081827916 -0.09371475 0.116601676
0001f0 e5 d8 91 3d 6c 38 fd 3d 09 1f 0a 3e 43 21 ed be
       0.071214475 0.12364277 0.13488401 -0.4631444
000200 b7 74 27 bf 8d 5e 30 3d 58 36 b7 bd 09 e8 09 be
       -0.6541247 0.04305892 -0.08945912 -0.1346742
000210 e7 86 d4 3d 78 b5 a6 3b 16 98 50 be f2 9d 2d 3d
       0.10377293 0.0050875507 -0.20370516 0.042386957
000220 b6 f9 f4 3d cf 6a f2 bc b0 09 ce 3d 00 38 a5 3d
       0.11961691 -0.029591946 0.100604415 0.08067322
000230 98 91 b2 38 aa 8b d0 3d 85 b3 da 3d 73 84 93 3c
       8.5148204e-05 0.10182889 0.10678772 0.018007493
000240 5e fe 05 3d 24 38 8b bd 01 11 2b bd 3d 8c 12 3d
       0.032713287 -0.06797817 -0.041764263 0.035778273
000250 25 63 90 bc fd 39 0e 3d fd 68 05 3a 78 ed b9 3a
       -0.0176254 0.03472327 0.0005089192 0.0014185151
000260 c7 f9 22 3d 8b 19 84 3c dd e6 57 bd a0 6d b2 3d
       0.039788987 0.016125461 -0.052710403 0.087123156
000270 bf 07 85 3d 19 db 7a bd 29 af 88 bd 40 50 e7 3d
       0.06495618 -0.061244104 -0.06674034 0.11294603
000280 01 c6 8f 3d c6 57 f3 bd 77 56 61 bd 7d 82 6c 3d
       0.07020188 -0.11881976 -0.0550141 0.05774163
000290 c7 86 73 3d 6f ff ee 3b 6b d2 fb bd 91 60 28 be
       0.059454706 0.0072936337 -0.122959934 -0.16443087
0002a0 f7 16 3b be 08 8c d3 be b8 37 b5 be 7a 7b fb 3d
       -0.18270479 -0.41317773 -0.35394073 0.12279411
0002b0 98 f1 b3 3d 35 a6 65 3e 3e 0b 32 3e 9d 9b 89 3b
       0.08786315 0.22426684 0.17387101 0.0041994588
0002c0 f6 1e 16 3e 18 fb 79 3e 91 3d d0 3d 2d b0 a1 3d
       0.14660248 0.24412191 0.10167993 0.07894931
0002d0 fb 85 43 3d 61 79 b8 3c bd 52 4b bd 6f 18 55 3d
       0.047735196 0.022518815 -0.049639452 0.052025255
0002e0 72 31 1f bd 9d 55 44 bd 81 fc 49 bd 3f e3 ff 3c
       -0.038865514 -0.04793321 -0.049313072 0.03123629
0002f0 2f 47 27 3d 30 20 4e bd 61 ba 6f bd 33 10 64 bd
       0.04083937 -0.050323665 -0.058527354 -0.05567951
000300 7a dc ae bd a6 7e 48 3d 48 ef 38 3d 95 d8 0e bd
       -0.08538146 0.048948906 0.04515007 -0.034874517
000310 56 eb 61 3d 28 6a f5 3b 89 44 63 bd be c5 d2 3c
       0.055156074 0.0074894615 -0.055485282 0.025729056
000320 a3 ad 6a bd 6c cb cc bc 48 7b 81 3b 42 d4 6b 3d
       -0.0572945 -0.024999343 0.003951464 0.05757547
000330 88 f0 1e 3d 7f 70 d4 bc 1c 18 58 3c d9 8e 99 ba
       0.038803607 -0.025932549 0.013189342 -0.0011715546
000340 9a fe 18 3d a4 7f 16 bd 7d 73 36 bd f6 2b 89 bd
       0.037352182 -0.03674282 -0.044543732 -0.06697838
000350 e2 15 09 bd 3c 4f 29 bd 01 62 3b 3d b4 59 79 bd
       -0.033468135 -0.04133533 0.04574776 -0.060876563
000360 8b c1 40 3b 31 c6 80 bd c8 c2 f7 bd 0c 24 ec bd
       0.0029412236 -0.06287802 -0.120976985 -0.11530313
000370 b1 22 13 bd 85 cb 85 bc 1b ee 3d bd d5 48 b5 3c
       -0.035921756 -0.016332397 -0.046369653 0.022129456
000380 10 49 a9 bd 06 01 f3 bc fe 78 8c 3c 1b b0 6a bc
       -0.08265889 -0.029663574 0.017147537 -0.014324213
000390 80 41 d9 3c b5 50 b5 3c f0 02 90 bd 44 68 4b bd
       0.02652049 0.02213321 -0.0703181 -0.049659982
0003a0 9e c7 b6 3c b1 3a 67 bd eb d4 09 3c 4b c9 bb bd
       0.022311982 -0.056452457 0.00841258 -0.09169253
0003b0 14 59 8f bc 8c 51 7d bd 09 23 87 3c 2a e4 ab bd
       -0.01749853 -0.061845347 0.016496198 -0.08393128
0003c0 ed ae 12 3d 25 91 d0 bd 8c fb db 3c b9 1e fd bd
       0.035811353 -0.10183934 0.026853345 -0.123593755
0003d0 19 ea 55 bc 88 1f 8a bc e3 a0 d4 bc 39 32 ca bd
       -0.0130563015 -0.016860738 -0.025955623 -0.098728605
0003e0 4b 37 ff bc d9 44 06 bc 44 21 c4 bd de e6 08 be
       -0.031154295 -0.0081951255 -0.095766574 -0.13369319
0003f0 2f 18 18 bd 47 62 0e 3d d1 b9 1f 3c 47 eb 17 bd
       -0.03713244 0.034761693 0.009748892 -0.037089612

hiddens.4.bias f4 [20]
000000 c7 23 84 3d 38 6b d9 bd 57 1b 08 3e f8 ac 51 3d
       0.064521365 -0.106161535 0.1329168 0.051190346
000010 58 11 0a be 61 93 ba 3d 2b 88 0c 3e 67 69 10 3e
       -0.13483179 0.091101415 0.13723819 0.14102708
000020 99 27 fe 3d 06 a5 9c bd 36 17 38 3d 74 61 bc 3d
       0.124098964 -0.07648663 0.04494401 0.09198275
000030 35 70 bc 3d 03 db 38 3e 15 eb 2e 3e c0 04 3d bd
       0.09201089 0.18052296 0.17081864 -0.046147108
000040 77 5a 07 be e3 83 35 3d fd 91 13 3d e7 77 95 3c
       -0.13218103 0.04431523 0.036027897 0.01824565

hiddens.6.weight f4 [20, 20, 3, 3]
000000 d1 23 8c be 1c 12 d2 39 7e 1f 85 3d 4e d0 15 bf
       -0.27371076 0.00040067814 0.06500147 -0.5852097
000010 51 6e 3b bd bd 88 b2 3d bc e8 4c bf b8 6f 83 be
       -0.045759503 0.08717487 -0.80042624 -0.25671172
000020 7c 1b 48 3d f6 cf 59 3d 43 9e f8 3c e0 bd 1f 3a
       0.048854336 0.053176843 0.030348903 0.0006093662
000030 8c d8 04 bd 0c f2 20 3b 7f 6e 60 3c 69 10 97 3a
       -0.032433078 0.0024558334 0.013698219 0.0011525276
000040 2f 48 a8 3d dd f9 24 bd 11 69 b7 bd 57 ba 7e 3d
       0.08216893 -0.04027735 -0.08955587 0.062189426
000050 cf 07 92 3d d5 93 a9 be c1 c2 92 bd 03 0d 16 3c
       0.071303956 -0.331206 -0.071660526 0.009158376
000060 e2 7a 2c be 39 dc 06 3e 27 f4 54 3b 85 da 75 be
       -0.16843751 0.13169946 0.003249416 -0.2400914
000070 13 32 3d bf 20 a5 1d be 52 df 79 3e c3 ad f4 be
       -0.7390453 -0.15395021 0.24401596 -0.4778882
000080 4d e5 a9 be a6 14 21 3f 30 31 8a bd 79 8f 0a bf
       -0.33182755 0.6292213 -0.06747663 -0.5412517
000090 de 19 15 bf 3d ae 4a bf b0 66 06 be 8b df 2b be
       -0.58242595 -0.79172117 -0.1312511 -0.16784494
0000a0 c8 8d 0d bd 83 19 dc 3e 9b 39 0a bc 55 ac c6 3d
       -0.03455904 0.42988214 -0.008436586 0.097008385
0000b0 12 28 0d 3f 12 73 a3 be ed 70 b0 be 19 d3 ce be
       0.5513927 -0.3192373 -0.34461156 -0.4039543
0000c0 ca b3 86 ba f8 21 f2 bd 4e fe 04 be d3 e4 17 3e
       -0.001027697 -0.11822885 -0.12987635 0.14833383
0000d0 d0 3a 88 3c b5 df 96 bc d7 92 35 bd 2d 0f 19 bf
       0.016629606 -0.018417219 -0.04432949 -0.5978878
0000e0 a4 75 8f be ec 95 0e 3e 79 0c 40 be 73 fb f1 3d
       -0.2801944 0.13924378 -0.18754758 0.11815538
0000f0 cc f6 c1 3d f2 82 b7 be f0 88 a6 ba e5 91 69 bd
       0.09470901 -0.3584209 -0.0012705605 -0.0570239
000100 30 06 05 be a1 ed 11 bf 9e 74 9d 3d e9 40 4e 3d
       -0.12990642 -0.5700322 0.076882586 0.050354872
000110 c0 b1 16 be 6a 87 05 3e ea 23 1a 3d 4c 1f 9b be
       -0.14716244 0.13039938 0.037631907 -0.30297315
000120 9b 29 ea 3d 36 fb a3 bd 02 d8 0d 3e 9f 59 78 3e
       0.11433717 -0.08006899 0.13851932 0.24252938
000130 11 46 f6 bc f0 da db 3d a8 36 44 3d b3 4a 07 bf
       -0.030062707 0.107351184 0.047903687 -0.52848357
000140 50 31 08 be 4a c3 dd bd ae f9 a9 bc 54 7f 59 ba
       -0.13300061 -0.10828264 -0.02074894 -0.00082968664
000150 de 35 0e bd 52 3c 58 ba 80 cc 99 3c 43 dc a2 bd
       -0.03471934 -0.00082487345 0.018774271 -0.07952168
000160 69 86 ea bb 32 9a 45 bd d1 7e d7 3d 32 97 01 be
       -0.007157136 -0.048242755 0.10522235 -0.12655333
000170 f4 5c c1 3d ab 59 97 3e 96 c1 8e bd ea 55 97 3e
       0.094415575 0.295606 -0.06970517 0.29557735
000180 16 13 16 3e 96 f0 e0 bd f9 5e 9e 3e 3f d2 6c be
       0.14655718 -0.10983388 0.30931833 -0.23127078
000190 17 5f e6 3a d3 89 b6 3e a6 46 3e be 17 c8 fc bd
       0.0017575946 0.35652027 -0.18581638 -0.123428516
0001a0 ef e9 ec 3d e2 4c a9 bc 8b 47 24 be 87 c2 89 bd
       0.11568057 -0.020666543 -0.16042916 -0.06726556
0001b0 95 53 07 be ef 7b 52 3e 7a bd 89 3e ed 03 11 bf
       -0.13215478 0.2055509 0.26902372 -0.56646615
0001c0 49 95 81 3d 31 3b a2 3d 87 d6 46 bf 46 8b 91 be
       0.06327302 0.07921446 -0.7767109 -0.2842657
0001d0 76 50 85 bc 2e 40 18 3e 3d e3 3d 3e bc 69 18 3e
       -0.016273718 0.14868233 0.18543716 0.14884084
0001e0 94 4a 4d be 94 c4 88 be 6b bb bb 3c e0 98 00 bf
       -0.2004798 -0.26712477 0.022916516 -0.5023327
0001f0 e4 48 bf be be 46 8f bd 8a c5 a1 bc d1 ef 18 3e
       -0.373603 -0.06995915 -0.019747514 0.14935233
000200 08 3e 51 3c c5 9e 62 3e 7a 96 8c 3e 40 ba 72 3e
       0.012771137 0.22130878 0.27458555 0.23703861
000210 62 ca e0 3d b3 db 45 3e ba da 9c 3e db 56 8a 3b
       0.109761015 0.1932209 0.30635625 0.0042217798
000220 d8 d3 68 bd 1f ce 57 bd 5e 42 7a 3d 8c 53 24 3d
       -0.056842655 -0.052686807 0.06109845 0.04011874
000230 27 a0 1a bd 1b fc 83 3d 0f 35 f3 3c 24 92 c8 bc
       -0.03775039 0.0644457 0.029688386 -0.024483748
000240 5c ad d1 bd 00 32 cd bd a2 50 da bd f1 43 be 3c
       -0.10238144 -0.10019302 -0.10659911 0.023225756
000250 dd b4 9c 3c 5d 5b 43 3d e2 a7 81 bd a6 f0 a0 3d
       0.019129211 0.047694553 -0.06330849 0.078584
000260 b7 ff d6 3d af d8 bf be 83 30 c5 3d 1d 75 e5 3e
       0.104979925 -0.37470004 0.096283935 0.44815913
000270 63 0f cb bd 0f dd 11 bd 2a b3 98 3c d1 65 d5 3d
       -0.09915044 -0.03561121 0.01864012 0.104198106
000280 d7 45 15 3e 45 3b cc 3d 45 e5 71 3e 25 b2 82 3e
       0.14577423 0.09972242 0.23622616 0.25526538
000290 eb 6e 03 3e ed a6 35 bd 5c 9f bc 3c c7 d4 ce 3d
       0.1283528 -0.044348646 0.023025207 0.10099178
0002a0 08 1d 3b bf a3 04 e8 be dd f8 0a be 66 de 57 3e
       -0.73091173 -0.45316038 -0.13571496 0.21080932
0002b0 92 13 88 be 9d ba af bd 2e e6 15 3e 57 67 6d be
       -0.2657743 -0.085805155 0.14638588 -0.23183952
0002c0 df 15 9c be 01 f3 39 3d 13 9a 09 bf 87 79 10 bf
       -0.30485436 0.045397762 -0.53750724 -0.56435436
0002d0 c6 b7 99 be 48 92 04 be 18 42 1f 3e 39 35 db bd
       -0.3002302 -0.12946427 0.15552557 -0.10703511
0002e0 0b 99 45 be 02 fe 69 bd e0 a2 95 bd 1d 9f 5e be
       -0.19296663 -0.057127006 -0.073064566 -0.21740384
0002f0 59 46 b7 bc fe f4 bb 3b c7 b5 c0 bd bd 53 15 3b
       -0.022372412 0.0057359925 -0.09409671 0.0022785508
000300 1f b4 87 3c 30 23 f1 3b a6 41 76 3d d6 87 03 bb
       0.01656538 0.007358931 0.0601212 -0.0020069978
000310 2c 07 07 3c a9 18 8a 3c 82 01 94 be 80 94 6d 3e
       0.008241456 0.016857462 -0.289074 0.2320118
000320 62 93 00 3f a7 be d5 bb d3 8f 1f 3e 01 18 ff 3c
       0.5022489 -0.0065229717 0.15582208 0.031139376
000330 79 83 8b 3d 3c 62 1e 3e 65 35 5a bd b5 b4 e5 be
       0.06812186 0.15467161 -0.053273577 -0.4486443
000340 d1 11 32 3d 7b f1 53 bd 50 8b 00 be d2 f8 c7 bd
       0.043474022 -0.051743966 -0.12553144 -0.097642556
000350 b6 76 80 3b 88 13 2f 3c bf 14 34 3e e8 7b 5a 3d
       0.0039204014 0.010685809 0.17586039 0.053340822
000360 10 1e e9 bd e7 3f b3 3e 70 e5 a8 3e 12 ed bb be
       -0.11382687 0.3500969 0.32987547 -0.36704308
000370 6f 46 14 3d 49 d7 88 3d ed 78 9e 3e 49 f0 88 3e
       0.036199983 0.066816874 0.30951634 0.26745823
000380 70 62 1b bf 53 d4 4f be 4c a6 c9 3d 77 05 b7 3b
       -0.6069708 -0.20295839 0.09846172 0.0055853683
000390 e8 bd 51 be ef 16 a9 bc 02 98 2f be 04 2a 72 be
       -0.204826 -0.020640818 -0.1714783 -0.2364884
0003a0 7d 9b 04 3d 32 66 fe bc 6b 77 10 bf e6 24 cd be
       0.032374848 -0.03105459 -0.5643222 -0.40067214
0003b0 65 47 79 be 04 a6 c3 be b1 de 04 bf 02 d1 d7 bd
       -0.24343641 -0.38212597 -0.519023 -0.10537912
0003c0 bd 1d 92 be 5e 16 16 bf 24 99 3c be ba 0a 22 be
       -0.28538314 -0.5862788 -0.18417794 -0.15824404
0003d0 36 22 b6 bc 0e 0a 38 be b4 d2 8b be 14 a2 00 be
       -0.02223311 -0.17972586 -0.2730919 -0.12561828
0003e0 fa c0 88 be 7b 22 e5 be 01 6f b8 3d 43 08 9b be
       -0.2670973 -0.4475287 0.09005547 -0.3027974
0003f0 78 91 4d be eb ef eb bd 60 2f 30 3d 36 b0 1f 3d
       -0.20075023 -0.1152037 0.04301393 0.038986407

hiddens.6.bias f4 [20]
000000 99 b3 3b 3e f5 69 32 bd 3e 76 c4 bc 02 bf 27 be
       0.1833023 -0.04355808 -0.023982164 -0.16381457
000010 ff e1 2a be dd d1 3b be d8 ee a8 bd 6c dd 47 3d
       -0.16687773 -0.18341775 -0.08248681 0.04879515
000020 2e f9 07 3e 67 b6 26 ba a1 2f 93 3c a5 d5 be 3c
       0.13278648 -0.00063595775 0.017967047 0.023295233
000030 56 c2 14 3e 58 2f 1a be b2 44 1c 3e 51 03 ff 3d
       0.14527258 -0.15057123 0.1526058 0.124518044
000040 a5 ca e1 bd b9 26 95 3e e8 e5 2d be c1 32 2d be
       -0.110249795 0.29131106 -0.16982234 -0.16913892

hiddens.8.weight f4 [20, 20, 3, 3]
000000 76 29 98 3d 95 fb ee 3d 80 90 17 be dd 03 10 3e
       0.07429783 0.11669079 -0.14801216 0.14063974
000010 b2 02 a4 3c ba 27 85 bd f5 60 c0 3d 93 5d 74 bd
       0.020020816 -0.06501718 0.09393493 -0.05965955
000020 23 84 86 be 60 dd b4 bd a7 4a ec bd 9f 32 f4 bc
       -0.26272687 -0.088312864 -0.11537676 -0.029809294
000030 ab 9a 71 be a7 2c 1f be 22 00 f6 3c 0d e9 33 be
       -0.23594157 -0.15544377 0.03002936 -0.1756937
000040 a5 31 0c bc 45 85 3c bd 9f cf 7e 3e 12 c6 af 3e
       -0.008556758 -0.046025533 0.24883889 0.34330803
000050 23 4b 7d be a8 ed a1 3e 44 29 b6 3e 30 27 26 be
       -0.24735694 0.3162663 0.35578358 -0.16225886
000060 49 70 4e 3e 5f 2a fc 3d 6f 11 f4 bd 62 ab da bd
       0.20160021 0.12312769 -0.11917388 -0.1067722
000070 d1 4e a3 bc d4 62 9f bd 0a 6d 53 3d 7d e4 78 bc
       -0.019935044 -0.07782522 0.05161766 -0.015191195
000080 bb 30 1e 3d 21 23 1e bc 17 7f 51 bd 60 4e 27 be
       0.03862069 -0.00965193 -0.051146593 -0.16338491
000090 a5 fa 30 3d 8e ec f4 3d bc 86 10 3e 7f de 6b 3d
       0.043207783 0.11959182 0.14113897 0.057585236
0000a0 87 8f 9f 3d 01 6a 48 3d 7d 7e fa 3d b5 15 f4 3c
       0.077910475 0.04892922 0.12231157 0.029795507
0000b0 ce 06 1c 3e 05 94 5f bd f7 51 13 bd f3 e9 5e 3d
       0.15236971 -0.05458452 -0.03596684 0.05442233
0000c0 a8 d9 df bd 04 f3 12 3d c7 e2 09 bd d6 51 2e bd
       -0.109301865 0.03587629 -0.033663537 -0.042558514
0000d0 70 02 f6 3c ff e7 5b bc b2 52 84 b9 f1 3e 29 bd
       0.03003046 -0.013422011 -0.00025238615 -0.04131979
0000e0 a0 d2 04 bd 10 08 f2 3c 71 02 f8 3c 7c 83 ef 3b
       -0.03242743 0.02954486 0.030274602 0.0073093753
0000f0 fc b6 8a bb f2 56 f5 bc 4f 52 01 3d d7 34 79 be
       -0.004233239 -0.029948685 0.031572636 -0.24336563
000100 ca 5b 3f be 45 d5 a1 be 42 8b da be 77 0b bf be
       -0.18687358 -0.31608024 -0.4268437 -0.37313434
000110 a0 26 bf be 00 ec fd be 3a ee 8c be 4d 0b 85 be
       -0.37334156 -0.49594116 -0.27525502 -0.25985184
000120 9a 56 ca bb ca 9a ae bd c6 57 0a be e9 69 ac be
       -0.0061748745 -0.085256174 -0.13510045 -0.33674553
000130 a8 fd 29 bf 90 74 bf be ef c5 12 be 84 92 65 be
       -0.66402674 -0.37393618 -0.14333318 -0.22419173
000140 7f dc 14 bc 44 1f d2 3d 60 e9 32 be dd 29 a3 be
       -0.0090857735 0.1025987 -0.17471838 -0.31867877
000150 3f 17 0d 3e d8 ba 47 be d8 40 a0 be fa d9 13 3e
       0.13778399 -0.19504869 -0.31299472 0.1443862
000160 d8 29 9e bd 4a 49 63 be e9 76 d8 be b7 de 1a be
       -0.07722825 -0.22195926 -0.4227822 -0.15124021
000170 89 48 ad bd f6 8f 26 3e 19 08 ca 3c 0f 7b 07 3c
       -0.084611006 0.16265854 0.024662064 0.008269086
000180 3c 57 7b 3e 38 f1 77 3e 89 e6 bd 3d 8a 83 4e bd
       0.24544996 0.24213111 0.09272487 -0.050418414
000190 17 d5 e1 3d 75 50 f4 ba cd a4 bf bc 49 2a 1d 3d
       0.11026972 -0.0018639701 -0.023394013 0.038370404
0001a0 d3 15 3e 3d fd ba 9a 3d 23 47 6d 3c c8 ea 8b 39
       0.046407532 0.075551964 0.014482292 0.00026687072
0001b0 ff 08 cd be 8e e0 c8 be 25 3a e6 be f4 6b d8 be
       -0.40045926 -0.39233822 -0.44966236 -0.42269862
0001c0 db 82 ce be c7 e7 d0 be d7 5e e4 be 26 3e de be
       -0.4033421 -0.40801832 -0.44603607 -0.4340679
0001d0 cb 7d 72 be 22 dd 57 3c 00 db ba 3d 63 06 d6 3d
       -0.23680799 0.013175281 0.09123802 0.10450437
0001e0 96 01 1f 3d c6 6a 9c 3d 7d 00 e0 3d 48 58 67 3d
       0.03881987 0.07637553 0.10937593 0.056480676
0001f0 d5 b1 d7 bb 6c d8 14 3e 8d 39 35 be 41 d0 a9 be
       -0.0065824785 0.14535683 -0.17697735 -0.33166698
000200 21 c8 b4 be 3d c2 92 be 9b 46 af be 33 ab cc be
       -0.35308936 -0.28663817 -0.34233555 -0.39974365
000210 f8 96 93 be 3e 09 4a be 13 c9 e2 bd 07 bc 85 3e
       -0.28826118 -0.19730088 -0.11073508 0.26120016
000220 6c b7 b9 3d 55 8b c9 be c6 d3 fb 3d cc ed 82 bd
       0.09068188 -0.39364114 0.12296252 -0.063930124
000230 39 ed ec be 6e 41 af bd b8 6c b1 be a9 da fb be
       -0.46274737 -0.085574016 -0.34653258 -0.49190262
000240 4d f8 86 bc 4f ac 7e bd b2 6d ad 3c 7d 04 78 bc
       -0.01647582 -0.062176045 0.02117047 -0.015137789
000250 bf c9 36 bd 3c d5 32 3b 21 ff d1 bc d4 c0 53 bd
       -0.044625994 0.0027287742 -0.02563435 -0.051697567
000260 30 76 99 bd f8 f5 36 3e 7c c7 e6 3c e0 45 7c 3d
       -0.074932456 0.17867267 0.028171293 0.061590075
000270 2a e4 e6 3e 04 06 ac 3e e2 4a 86 3e 20 ba 19 3f
       0.4509595 0.3359834 0.26229006 0.6004963
000280 0a ac 0d 3f 01 4e e5 3e 7f 03 27 bd 05 2d 0a 3d
       0.55340636 0.44786075 -0.04077482 0.03373434
000290 c3 be 7f 3d 54 ff a6 3c fa 40 a4 bd 1f 6a 9e bd
       0.062437784 0.020385422 -0.08020206 -0.07735085
0002a0 cb af d3 bd 75 96 4f bd ee b5 af bd 89 0e df 3c
       -0.10336264 -0.050680596 -0.08579622 0.02722861
0002b0 9b 25 c0 3b c9 d3 96 3d 47 09 86 3d e4 f6 e1 3c
       0.005863858 0.073646136 0.06544738 0.027583547
0002c0 60 57 72 3d 32 09 9a 3d 9e f4 a8 3d c0 a1 8f 3d
       0.05916536 0.07521285 0.08249782 0.07013273
0002d0 28 da 8b bd 87 d4 87 bc 6a b9 2b 3d 4d 89 67 bd
       -0.068287194 -0.016580833 0.04192487 -0.056527425
0002e0 6a 6b 00 bd b9 57 cb 3d b3 a2 1f be b2 65 1e be
       -0.031352438 0.09928841 -0.15589409 -0.15468481
0002f0 cb 23 77 3c 9c 8d 96 bc b2 dd b5 be 3b d8 2b bf
       0.015084217 -0.018378071 -0.35520703 -0.67126817
000300 b8 1a c7 be 73 ea 72 be df a3 d7 be 0c 61 00 bf
       -0.38887572 -0.23722248 -0.4211721 -0.5014808
000310 54 f0 18 bf 0a 1f 2e bf 18 5f 8e 3e b6 26 ce 3e
       -0.5974171 -0.6801611 0.27806926 0.4026391
000320 23 0c 72 3d f8 25 bd 3e c2 c7 b4 3e 88 4d 76 3d
       0.059093606 0.3694303 0.35308653 0.060132533
000330 53 94 d9 3e 62 85 b1 3e 02 0f 67 be 0a 76 c8 3d
       0.42495975 0.34672076 -0.22564319 0.09788139
000340 0f ba 42 3e 6f d0 3f 3e ad 6a f8 3d 86 e3 b5 3d
       0.19016288 0.18731855 0.12129722 0.08881287
000350 a1 2d 4f 3d 3c dc 09 3d d3 02 20 3e 63 75 d8 3d
       0.050580624 0.033657297 0.15626077 0.10569265
000360 8c 71 dc 3d 54 e1 91 be 9d 96 b5 be e8 ac a3 be
       0.10763845 -0.28492224 -0.3546647 -0.31967854
000370 bd d1 b7 be b4 c7 99 bd b8 e1 19 bf 5d dc 56 be
       -0.35902205 -0.075087935 -0.60110044 -0.209825
000380 60 fc 92 bc 07 62 1f bd 84 9f fd 3b 4b 76 b1 b7
       -0.017942607 -0.038911846 0.007739963 -2.1155129e-05
000390 9a 23 bc 3c ef 15 9d bc 75 9b 12 bd c4 ac 10 3d
       0.022966195 -0.019175498 -0.035792787 0.035321012
0003a0 9d 27 14 3e 32 c0 1a 3d 9e aa b1 3d be 13 58 3c
       0.14468236 0.037780948 0.08675121 0.013188301
0003b0 c5 84 1d 3d d2 25 c0 3c c6 3e 6d bd 5b 49 02 3c
       0.038456697 0.023455534 -0.057921194 0.00795206
0003c0 a6 f8 a8 3d fe 97 e0 3c 18 a2 f0 bd 1a 3f 31 bd
       0.08250551 0.027416226 -0.11749667 -0.04327307
0003d0 73 a3 0c bd db ef 06 be 85 7e d6 bd 48 fd 5f bd
       -0.034335565 -0.13177435 -0.104733504 -0.054684907
0003e0 42 26 12 be c1 55 8f bd 71 2a 25 bd 51 4d 63 be
       -0.14272407 -0.06998778 -0.04032368 -0.22197463
0003f0 6b e2 91 3d 86 d3 9a 3b b3 57 c4 3d c0 69 ca bd
       0.07123264 0.0047249226 0.0958704 -0.098834515

hiddens.8.bias f4 [20]
000000 f2 55 21 bc 6a 04 d5 3d 9d 8e 5f 3c 99 a6 85 3d
       -0.009847151 0.104012325 0.0136448415 0.065259166
000010 82 0f a6 3c 8a 9a b2 3c 60 f3 c1 3d ec 8a 91 bd
       0.020271067 0.021802206 0.09470248 -0.07106575
000020 ee 59 31 3e 9d a8 a2 bd d0 00 cd bd 1f 7f 5d 3d
       0.17319462 -0.07942317 -0.100099206 0.05407631
000030 44 27 26 3e c8 55 ed 3d 22 25 3c bd 22 d3 9d 3d
       0.16225916 0.11588627 -0.04593385 0.07706286
000040 ba f0 2b 3e 4a 0d 0e 3e b4 97 a5 3d c7 06 4a 3e
       0.16791049 0.13872257 0.08085576 0.19729148
