runs/RelaxedP4CNN_aniso_std0.1_gamma2_lr0.002/model.pt (torch, 116029 bytes, 18 tensors)

lifting_conv.combination_weights f4 [3, 4]
000000 52 cc 1a 3e 1c 01 1e 3e 28 cc 1a 3e 9b c4 1c 3e
       0.15117005 0.1543011 0.15116942 0.15309374
000010 3f b8 4f be 1c e5 4a be d7 37 4f be 98 91 47 be
       -0.20285128 -0.19813961 -0.20236145 -0.19489133
000020 80 27 07 3e fa 8b 04 3e bb c7 04 3e df 18 04 3e
       0.13198662 0.12944022 0.12966816 0.12900113

lifting_conv.weight f4 [3, 6, 1, 3, 3]
000000 a4 b9 05 3f 3d 1d 2a 3e b7 6c a0 3d 10 0c 3a be
       0.5223639 0.16612716 0.07833236 -0.18168664
000010 18 5b 83 3e ac 44 76 3e 1c fb f2 3d 81 f6 2d 3d
       0.25655437 0.24049634 0.118643016 0.042471413
000020 d9 9d b6 bd e1 eb 03 3f 22 16 c7 3e 99 34 d0 be
       -0.08916826 0.515318 0.38884073 -0.4066513
000030 fd 7a 8a be 01 77 ec 3d 25 62 59 bd dc 66 c8 be
       -0.27046958 0.11546136 -0.053072114 -0.39140975
000040 02 f3 a7 bd 01 f4 5e 3d 18 19 a2 be a9 5f 76 bf
       -0.08200647 0.05443192 -0.3165977 -0.96239716
000050 09 de c0 be 84 c5 11 bf ef f3 f5 3e 2b e4 30 3e
       -0.376694 -0.5694201 0.4803767 0.17274539
000060 3f 93 20 bf 01 b7 cf 3e a2 1f 27 3e ef a8 db be
       -0.6272468 0.40569308 0.1632066 -0.42902324
000070 3a e5 7d be af e8 57 3d 9c e1 fb 3d 20 54 52 bd
       -0.24794474 0.05271214 0.12298891 -0.05134976
000080 28 c4 74 be 2a 32 8b 3e 3e 80 35 3e 57 00 15 be
       -0.23902953 0.2718671 0.17724702 -0.14550911
000090 8c 6e 00 be c3 a5 1f 3e 85 bd 07 3f 15 12 bf be
       -0.1254217 0.15590577 0.5302356 -0.37318483
0000a0 2c a7 04 bc 07 de 8d 3e 87 9a 60 3e 91 27 e0 3d
       -0.0080964975 0.27708456 0.21933948 0.10945047
0000b0 a1 3b 0c be 5b 1e 0e bf 0f c0 02 bf d4 bb ce 3e
       -0.13694622 -0.5551507 -0.5107431 0.40377676
0000c0 42 ae c3 3d 3e c5 14 3e b2 87 0b 3f b0 1c d1 3d
       0.095547214 0.14528367 0.5450393 0.1021055
0000d0 a4 c0 a4 3e 84 e1 38 bd aa 64 91 be b0 cc 5b be
       0.32178223 -0.045136943 -0.28397113 -0.21464801
0000e0 db 7f ae bc 03 2c e8 bd 23 37 18 3e 3d 24 15 3e
       -0.0213012 -0.113365196 0.14864783 0.14564605
0000f0 bd f3 a4 be 8c 12 8a 3d 9b dd d8 3c 81 d3 2e bf
       -0.32217208 0.06741819 0.026472857 -0.6829148
000100 14 1b 05 bd ed 27 68 3e 9e 9f ab be 08 f0 16 be
       -0.032496527 0.2267148 -0.33520216 -0.14740002
000110 35 7f b3 3e 23 75 a6 bd ed 72 85 3c ca 60 75 bd
       0.3505799 -0.08127811 0.016290152 -0.05990676
000120 c0 4d 1f 3e 7d 63 df 3e fc d2 de 3e f0 d3 32 3f
       0.15557003 0.4363059 0.43520343 0.6985464
000130 2d 83 f0 be 3a 36 e8 3d fe 32 3c 3f bc d7 ae be
       -0.4697508 0.11338468 0.7351531 -0.34148967
000140 24 79 ab 3d 79 a0 71 3e 45 b7 d5 3d 09 cf 72 3d
       0.08372715 0.23596372 0.104353465 0.059279475
000150 17 3f 90 be 24 2b 51 be 2a 16 8b bd 87 db 18 bf
       -0.28173134 -0.20426613 -0.06791337 -0.5970997
000160 6f d1 7e 3d a0 5e 65 3e b7 7d 5b bc 9e e1 d7 be
       0.06221145 0.22399378 -0.013396672 -0.4216432
000170 fc 13 0d bf 49 03 5b 3d 16 07 1b 3e ff 69 8f 3e
       -0.5510862 0.05346993 0.15139422 0.28010556
000180 e6 6f 69 3e 7a d6 9a bd fe bb 0d bd f4 02 22 3f
       0.22796592 -0.075604394 -0.03460311 0.63285756
000190 a7 f4 a8 3d c5 6f 6b be 55 33 8d 3d 00 90 c9 be
       0.08249789 -0.22991855 0.068945564 -0.39367676
0001a0 af 83 30 be 27 8f 8e 3c 12 8a 82 be 86 76 90 be
       -0.17237733 0.017402245 -0.25495964 -0.28215426
0001b0 b6 2e d7 3e d6 d0 5d bd 14 75 a8 be a9 39 0b 3e
       0.42027825 -0.05415424 -0.32901824 0.13596214
0001c0 cb 72 97 be 91 c1 a9 bd c3 0a eb 3d 3b d2 9f 3d
       -0.29579768 -0.08288873 0.11476662 0.0780377
0001d0 13 be 3a bc 6a d1 2b 3f 8b 47 80 3e 52 9c 2a 3c
       -0.011397856 0.67116416 0.25054583 0.010413246
0001e0 2f 9e 75 bd 2f 68 7d 3c 83 50 03 3e 2e 5b ba 3d
       -0.05996531 0.015466734 0.12823682 0.090994224
0001f0 42 36 7c 3d 9f 94 a6 be 4d 15 ca be 57 fa 0e bf
       0.06157518 -0.32535264 -0.39469376 -0.5585074
000200 40 9c b7 be aa d9 74 be c8 73 11 3b 45 c6 ab 3e
       -0.35861397 -0.23911157 0.0022194255 0.33549705
000210 0d 48 fc be 21 6b aa 3d ae 75 05 3f 33 44 ef 3d
       -0.4927372 0.083212145 0.5213269 0.1168293
000220 d8 4f 89 3e 92 b1 45 be d0 bf b5 3e 55 ab 8d 3e
       0.26818728 -0.19306019 0.35497904 0.27669778
000230 03 ed 58 3d b5 10 06 3f bb 4b 97 3e 00 d6 03 be
       0.052960407 0.5236924 0.29549965 -0.12874603
000240 84 67 a6 3b 9b 68 a7 3e 6a 85 24 3e b9 86 ab be
       0.005078258 0.32696995 0.16066518 -0.33501223
000250 cf d4 d8 3d f2 b0 b3 bd b9 98 fd 3a 1d 98 9f bd
       0.10587465 -0.08773984 0.0019347883 -0.07792685
000260 21 19 e4 3c 96 64 80 be 83 b0 98 be 20 32 85 3e
       0.027844014 -0.2507674 -0.29822168 0.26014805
000270 25 92 f4 3c 77 29 8e bc 67 62 54 3e be c5 87 be
       0.029854843 -0.017353756 0.20740663 -0.26518053
000280 99 32 82 3e 25 ed 9b bd
       0.25429228 -0.07613591

gconvs.0.combination_weights f4 [4, 3]
000000 0e de c9 3e 23 b3 d6 3e 8c af cf 3e 03 bf c8 3e
       0.39427227 0.41933545 0.4056362 0.3920823
000010 62 c4 d6 3e 02 d5 cf 3e f7 8a c8 3e 4d 33 d6 3e
       0.41946703 0.405922 0.39168522 0.41836014
000020 fe 79 d0 3e bc c2 c8 3e 2b 85 d6 3e ca b0 cf 3e
       0.40718073 0.3921107 0.41898474 0.40564567

gconvs.0.weight f4 [3, 6, 6, 4, 3, 3]
000000 fe f0 e2 3d 3e c3 ab 3e 43 71 3a 3e 43 51 ae 3e
       0.11081122 0.33547395 0.18207268 0.34046373
000010 2e 15 db 3d 44 63 7d 3e 6b 11 3e 3e e4 72 f9 3d
       0.10697399 0.24744898 0.18561332 0.12180117
000020 6a 70 4d 3e 38 d9 4e be 23 76 0c be 2f 50 88 be
       0.20062414 -0.2020005 -0.1371694 -0.26623675
000030 13 16 39 3d a8 40 5c bd 54 41 a8 3e 87 96 da 3e
       0.045187067 -0.0537726 0.3286234 0.42692968
000040 ac bb b5 be 0b 8e 2d bc 27 83 3f be 5d 32 3e 3e
       -0.35494745 -0.010592948 -0.18702374 0.185739
000050 1a c1 3b bc 29 2f 1d 3e 99 29 88 3e ac 22 11 bf
       -0.011459613 0.15350021 0.26594236 -0.5669353
000060 88 c3 59 3e 7a d1 1f 3e dc 92 0e 3d a7 5d b8 3e
       0.21265996 0.15607253 0.034808025 0.3600895
000070 26 b8 95 be ba 44 a5 3d 1d 80 ba bd b8 b2 ee bd
       -0.29242057 0.08069749 -0.09106467 -0.11655182
000080 ff c1 e3 be 52 ba ed 3d ff 1e 67 be af bc 6f 3e
       -0.44483945 0.116078034 -0.22570418 0.23411821
000090 d9 86 ff bc c2 9e c3 3e 58 93 fb 3d c2 19 8d bd
       -0.03119223 0.3820706 0.12283963 -0.068896785
0000a0 de 5f ea 3e f2 50 7a 3e 14 62 3d 3d b2 15 90 3e
       0.45776266 0.2444494 0.046236113 0.28141552
0000b0 76 c8 a6 be 83 54 1c 3e 3d d3 40 bc d2 47 8c 3e
       -0.32574815 0.15266614 -0.011769113 0.27398545
0000c0 33 ac fa 3d 5c 52 f5 3e bb 15 1b 3d a1 c6 b0 3d
       0.12239876 0.47914398 0.03786252 0.086316355
0000d0 a7 bf cc 3e 2c f7 92 3e 4f 52 25 3e 75 fa e2 3d
       0.3998997 0.28704202 0.1614468 0.11082927
0000e0 13 1b 2e be 74 63 2c 3e 98 6a 6d 3e ac f4 29 bf
       -0.17002515 0.16834813 0.23185194 -0.66388965
0000f0 a2 49 a9 bd 10 f9 c4 3b d2 4f 49 bf 8e fa a4 3d
       -0.082659975 0.006011136 -0.7863742 0.08055602
000100 09 13 d8 3e 97 79 2b be 54 3e 83 be 75 44 03 3d
       0.42202023 -0.16745602 -0.2563349 0.032047708
000110 c8 bd 4b 3e 5d 19 4b 3d 3d b1 30 3e 33 7c 5f be
       0.19896615 0.049584735 0.17255111 -0.21824722
000120 1d b4 e7 be 85 66 5e be 25 a5 6c 3e af 1a 1e bf
       -0.45254603 -0.21718796 0.23109873 -0.61759466
000130 f1 f4 82 bc fa 73 88 be b5 5c 36 be 1a 4c 0b bf
       -0.015985938 -0.26650983 -0.17808802 -0.54412997
000140 5e 9c 80 be c6 41 98 be 4c 3b 2d bf e8 f0 51 bf
       -0.251193 -0.2973768 -0.67668605 -0.8200822
000150 c3 ed 09 bf 09 e8 84 be 5b 47 d2 3d 41 83 38 bf
       -0.5387842 -0.2595828 0.10267516 -0.7207528
000160 27 cb 01 be 8b 64 12 3e 9b 39 64 be c3 f7 20 3e
       -0.12675153 0.14296167 -0.222876 0.15719514
000170 e7 0c fb be 22 e6 5d bf 4a 22 43 bf 81 b3 fd bc
       -0.4903328 -0.8667928 -0.76224196 -0.030969383
000180 61 eb f7 be 06 cd 11 bf 88 9a db 3d 65 fa 45 bf
       -0.48421767 -0.56953466 0.10722834 -0.77335197
000190 4a df 13 bf 9e 1d 06 bf 67 0c 73 bf e0 08 3e bf
       -0.5776259 -0.5238894 -0.949408 -0.7423229
0001a0 df 33 04 bf 2b 8d 89 bf 04 f8 0b 3e 9b 0e 9c be
       -0.5164165 -1.0746206 0.13668829 -0.30479893
0001b0 28 9a b1 3e 53 bd 7e 3e 8a 5a 49 3e 96 3c 2b 3e
       0.34687924 0.24876909 0.19663444 0.1672233
0001c0 63 a3 35 be 70 b0 3d 3e 8c db c2 3e 0e ad 9d 3e
       -0.17738108 0.18524337 0.38058126 0.30796093
0001d0 ae 56 ea be 77 2b 8d 3d bd 61 94 be 64 cb 8a be
       -0.45769256 0.06893056 -0.28980818 -0.271083
0001e0 f2 90 e6 bd c8 5a 6a 3e 9a f8 a0 bd 8c 90 64 be
       -0.11258115 0.22886193 -0.07859917 -0.22320765
0001f0 0a c1 cb 3d ca c2 d4 3e 5d 9b e7 3d 16 d7 2b be
       0.09948929 0.41554862 0.1130893 -0.16781268
000200 e2 9b 9b be d2 39 fd 3e b8 ed d8 3e 01 ff 54 3b
       -0.30392367 0.49458176 0.42368865 0.0032500627
000210 1d 82 22 3d ff 81 9c be 50 8a f4 be 95 e2 81 bd
       0.039674867 -0.3056793 -0.47761774 -0.06342045
000220 6d ac 83 bc 10 8f e7 3e 6a 0f d1 3c 41 70 b5 be
       -0.01607343 0.45226336 0.025520045 -0.35437205
000230 4e da 15 3e 38 f1 18 3e c3 58 45 be bc df 1f bf
       0.14634058 0.14935768 -0.19272141 -0.62450767
000240 82 74 b5 be 89 e1 a6 3e b1 ad 2e be ac 4a d4 3e
       -0.3544045 0.32593945 -0.17058446 0.4146322
000250 c4 02 b2 3e be aa 1b be eb dd 4b 3d 72 03 15 3e
       0.34767735 -0.15201852 0.049772184 0.14552096
000260 27 13 f2 bc c1 86 11 3f d5 e7 ba bd 8f e4 dd be
       -0.029550148 0.56846243 -0.0912625 -0.4333844
000270 e3 5d 8d 3d 59 53 7c bd d0 85 04 be 53 0e 09 be
       0.06902673 -0.061602924 -0.1294167 -0.1338437
000280 9e bd 09 bf 4a 84 3b bf f6 8a 97 3d 0a 1f 37 3e
       -0.5380496 -0.7324873 0.073995516 0.17882934
000290 52 a8 e2 bc 89 93 5b be fe 77 92 be 3a aa 8b be
       -0.027668152 -0.21442999 -0.28607172 -0.2727831
0002a0 34 c1 12 3d 9c 50 d4 3e ce 14 81 be 4f a0 1a 3e
       0.035828784 0.4146775 -0.25211185 0.15100215
0002b0 e9 31 cf 3e 58 a0 77 be 61 a5 02 3d 86 02 f6 3e
       0.40467766 -0.2418226 0.031896 0.480488
0002c0 40 36 39 be c7 b9 95 3d 1b d6 9a be 71 32 fe bd
       -0.18087101 0.07310825 -0.30241475 -0.12411965
0002d0 64 21 c3 3d a1 7e cc bd 40 a0 51 3d 28 44 84 be
       0.09527853 -0.0998509 0.051178217 -0.2583325
0002e0 ab b2 0f be 30 3c 01 3e fa ea 7c 3e 35 68 f0 be
       -0.14033 0.12620616 0.24699011 -0.46954504
0002f0 3c b2 17 bf 3b 43 ee 3c f6 f1 b5 bd ec cb 97 3e
       -0.5925634 0.029084792 -0.08884041 0.29647768
000300 17 44 02 be 99 6f 68 3e 48 67 02 be a1 a3 dd be
       -0.12721287 0.22698821 -0.12734711 -0.432889
000310 3e 07 77 3d 0d b6 8d be 9c ce da 3e dd a9 f5 3e
       0.06030964 -0.27677956 0.42735755 0.47981158
000320 7f 67 e5 bc 5e d9 0a 3d 10 b3 85 3e 8a 88 86 3e
       -0.028003452 0.033898704 0.26113176 0.26276046
000330 b0 c1 c1 3e 62 fa d3 be 1c 00 ab be f9 75 d5 3d
       0.37843084 -0.41401964 -0.3339852 0.10422892
000340 40 98 6f 3c da 79 be 3d 3f f0 7e be 4a 70 f0 3d
       0.014623702 0.09300585 -0.24896334 0.117401674
000350 c3 cf 77 bd 5d 8b 28 be a0 d6 f6 bd 1c 5d da be
       -0.06050087 -0.16459413 -0.12052655 -0.42649162
000360 2d aa 8c 3e b2 84 81 be 5b ac 54 be 66 e4 96 be
       0.27473584 -0.2529655 -0.20768873 -0.2947113
000370 fd 3a 89 be c8 e0 6c 3e 42 68 e9 be e8 fd a3 3e
       -0.26802817 0.23132622 -0.45587355 0.32029653
000380 f2 d2 9c be 3f 32 d2 3c 33 0d 05 bf fa 17 97 be
       -0.30629689 0.025658725 -0.51973265 -0.2951048
000390 0b fc fd 3d f3 b0 4e 3e 79 5a f1 3d 9f ed 35 3e
       0.12401589 0.20184688 0.117848344 0.17766427
0003a0 8d 91 bf 3e b7 e0 77 3e be 01 54 be b9 04 c6 be
       0.37415734 0.24206816 -0.2070379 -0.38675478
0003b0 47 68 96 bd 7d 07 36 3e 2a b2 bc be 9e f0 c5 be
       -0.07344108 0.17776294 -0.36854678 -0.3866014
0003c0 04 d9 71 be 26 ae 4f 3d e4 ca 40 be 98 f0 23 3d
       -0.23617941 0.05070319 -0.18827397 0.04002437
0003d0 a6 1f 31 3e db a7 9e be b3 75 69 bd e0 19 0a 3e
       0.17297229 -0.3098744 -0.056997012 0.13486433
0003e0 8c 1a 12 3e 51 80 ab be 6e ea 28 be 98 cd 55 3e
       0.1426794 -0.33496335 -0.16495678 0.20879209
0003f0 42 4c d4 3e 90 7b 03 3f 4a 70 f0 3d 68 d0 2a 3e
       0.4146443 0.51360416 0.117401674 0.16681063

gconvs.1.combination_weights f4 [4, 3]
000000 00 cf ce 3e 56 2a db 3e 27 7e c1 3e 40 58 cf 3e
       0.40392303 0.42805737 0.3779156 0.40497017
000010 82 f6 da 3e ff b5 c0 3e 1e 05 cf 3e 8f bd da 3e
       0.42766196 0.37638852 0.40433592 0.42722747
000020 66 5a c0 3e f6 a4 cf 3e 3c 24 d8 3e 94 cc bd 3e
       0.3756897 0.40555543 0.42215145 0.37070143

gconvs.1.weight f4 [3, 6, 6, 4, 3, 3]
000000 d0 9f b8 3e b6 35 a4 be b9 06 7a 3d b9 6e 97 bd
       0.36059427 -0.32072228 0.061041567 -0.073941655
000010 e9 45 99 3e 8b 90 4d 3d 35 b3 61 be de 80 7d bd
       0.2993615 0.050186675 -0.22041018 -0.061890475
000020 5a 82 dd be 38 a4 25 be de 7d 01 bc 29 6a d6 be
       -0.43263513 -0.16175926 -0.007903544 -0.4187787
000030 cd 0a ef 3d 24 91 64 3e 22 f5 72 be 89 94 0f bf
       0.11671982 0.22320992 -0.23726323 -0.5608602
000040 ee 08 e1 be 53 ee f0 3d ce 8e ce 3d 7a b4 53 3e
       -0.43952125 0.11764207 0.100858316 0.20674315
000050 2d 53 8c be 5a 31 93 bd 80 fa f3 be d3 44 84 be
       -0.27407208 -0.071871474 -0.47652054 -0.2583376
000060 73 a2 0c 3d 3f f7 68 3e 8b 6d 37 3e 5f c8 52 be
       0.03433461 0.22750567 0.17912881 -0.20584248
000070 c5 ef fb 3d 7c 33 cd bd 4d 4f be be 2b ee 9c 3d
       0.12301592 -0.100195855 -0.37169877 0.076626144
000080 af 8c fa 3e 0c 99 51 3d 06 21 36 3e f5 95 2d 3f
       0.48935458 0.051171347 0.17786035 0.6780694
000090 2d 05 1b be d2 6f aa 3e 97 0f 85 be 39 7e a0 be
       -0.15138693 0.33288437 -0.25988457 -0.313463
0000a0 4e 8c 16 be b5 01 77 3e c0 7d 9f 3d 10 8b f4 3d
       -0.1470196 0.24121745 0.07787657 0.119405866
0000b0 58 82 24 3e 94 1b bf bd 63 8a 3e 3e 25 4a df 3e
       0.16065347 -0.09331432 0.18607478 0.43611255
0000c0 f9 fd ea bd 8e 6b 84 be 2f de d5 3d 0c 36 90 3e
       -0.11474223 -0.25863308 0.10442769 0.28166234
0000d0 36 e7 99 be 66 b7 a3 be c6 b8 8a be 3d 11 31 3e
       -0.30059212 -0.3197586 -0.27094096 0.17291732
0000e0 08 7f 46 3e 44 60 ad be f0 65 ae 3c 0e 9d dd bd
       0.19384396 -0.33862507 0.021288842 -0.108209714
0000f0 6e 22 5d bd b0 bc a9 3d 1b ca b2 3d ef a9 97 3e
       -0.053987913 0.082879424 0.08729955 0.29621837
000100 2c ed 21 be a6 81 24 bd 76 42 cf bd 62 9b 31 be
       -0.1581313 -0.040162705 -0.10120098 -0.1734443
000110 7b 95 8f 3e 6e 80 7a 3e de e3 5a bd bb 81 d4 3d
       0.28043732 0.24463055 -0.053439967 0.103763066
000120 b2 f4 cc 3e 08 ee 46 3d ad f3 0a 3e 6b ca 81 3d
       0.40030438 0.048566848 0.13569517 0.06337436
000130 31 e2 1a be 29 b9 01 bf 41 bf 05 3f 56 8e 86 be
       -0.15125348 -0.50673157 0.52244955 -0.2628047
000140 9e d5 9e be c8 6c b8 bc 65 cd 9e be 85 ee 85 3d
       -0.31022352 -0.022512808 -0.3101608 0.065396346
000150 1f 9c 1c bf b1 43 aa 3d c8 ac ff 3e f5 a6 dc be
       -0.6117572 0.08313692 0.4993651 -0.43096128
000160 91 47 05 bf e8 36 bf 3d 4a 4b a4 be e1 c8 64 bd
       -0.52062327 0.093366444 -0.3208869 -0.055855636
000170 dd 39 c6 3e a5 c5 11 be 7b f7 c9 3c c8 42 1a be
       0.3871602 -0.14235552 0.02465414 -0.15064538
000180 fb cc 12 3f 88 d6 42 3c d2 2d 27 be 22 2a d6 bc
       0.57344025 0.011891969 -0.16326073 -0.026143137
000190 08 cd 98 3b 12 5e 14 bf 47 94 4d 3e 12 4a 08 3e
       0.0046631135 -0.5795604 0.20076095 0.13309506
0001a0 7f 21 74 be 82 cc d5 bd e0 1b aa be f3 39 87 be
       -0.23840903 -0.104393974 -0.33224392 -0.264114
0001b0 aa c1 c6 be b4 61 da 3e 14 4e 21 3f ec b4 95 3d
       -0.3881963 0.42652667 0.6300976 0.07309899
0001c0 9d 64 b1 3e ea 9e 18 bd 08 00 3e bd fe 40 9b be
       0.34647074 -0.037260927 -0.04638675 -0.30323023
0001d0 4c 17 ca be 95 57 62 be da 48 a8 be 67 dc 23 be
       -0.394709 -0.22103722 -0.3286808 -0.16002046
0001e0 a0 64 9b be ba b7 03 bf f4 84 53 3e 9e ec fc 3a
       -0.30350208 -0.5145222 0.20656186 0.0019296592
0001f0 5e 53 c1 be 1f c8 08 be 05 fc bc 3e a0 18 f7 3c
       -0.37758917 -0.1335759 0.36911026 0.03016311
000200 13 59 36 be 50 09 d3 3c 14 1a b0 be 3b 18 a1 be
       -0.17807417 0.025761276 -0.34394896 -0.314638
000210 20 cc bc 3e 85 2e ea bd 30 6e 46 be 86 34 95 3e
       0.36874485 -0.11434654 -0.1937797 0.29141635
000220 28 bb 8c 3e 7e 16 a0 bd 89 2f 42 3e ad 49 9f be
       0.2748654 -0.0781679 0.18963446 -0.31110898
000230 21 fb a0 be 6d 58 2a 3f cc 91 e2 3e f8 71 41 3d
       -0.31441596 0.6654118 0.4425186 0.04722783
000240 ac 3a c5 be d8 23 07 be 25 59 31 3e 8d 9f 32 bd
       -0.38521326 -0.13197267 0.17319162 -0.04360919
000250 cc d7 8b 3d ea 7a a4 bd 1e 61 23 3e 00 a4 c0 bd
       0.06828269 -0.080312565 0.15955016 -0.094062805
000260 f3 65 ca be 93 97 9a be 42 04 8e 3d 80 a5 ce be
       -0.39530906 -0.30193767 0.06934406 -0.4036064
000270 61 40 85 3d 4f c2 9d be cb e6 1f be c6 e7 17 be
       0.0650642 -0.30812308 -0.15615384 -0.14834508
000280 31 5a 94 be 34 e3 fb 3b 57 ec 52 3e f1 83 41 bd
       -0.2897506 0.007686997 0.20597969 -0.04724497
000290 b8 16 2e be c3 33 bd 3c 83 e6 cf 3e 06 ed fa 3d
       -0.17000854 0.023095971 0.40605554 0.1225224
0002a0 bf 4a 8f 3e d2 1b 9b bd 82 a4 72 3e 06 bd d5 bd
       0.27986714 -0.07573666 0.23695567 -0.10436444
0002b0 5e 28 14 3c c1 36 b9 be c7 61 09 be de bd 40 3e
       0.009042827 -0.36174586 -0.13416205 0.18822429
0002c0 9a df 29 be 66 55 ac be 34 53 85 be bf c8 dc 3e
       -0.16589203 -0.33658904 -0.2604004 0.43121907
0002d0 28 e8 27 3e e2 5d 50 3e fd 2e ae 3e e3 8d 41 be
       0.16397154 0.20348313 0.34020224 -0.18901782
0002e0 48 6e 49 3e 16 d9 ed 3e 38 3f 46 3f d0 a6 a8 3e
       0.19670975 0.46454686 0.77440214 0.32939768
0002f0 b6 b8 f0 3e 95 98 4b 3e 95 e8 1f 3e e9 df 72 3d
       0.47015923 0.19882424 0.15616067 0.05929557
000300 09 2d 07 be a6 74 78 3d f4 6e 76 be 07 a6 99 be
       -0.13200773 0.06065812 -0.24065763 -0.3000948
000310 42 31 97 be 06 7e 66 3e 10 87 84 be 35 37 54 be
       -0.29529768 0.22509012 -0.25884295 -0.20724185
000320 fd ad 05 bf dc 5e 4c 3e 5a a5 40 be 7b ea ab bd
       -0.5221861 0.19958061 -0.18813077 -0.08394333
000330 99 68 8a 3d fc 10 5c be 90 7f a2 3e b8 a5 c7 3c
       0.06758232 -0.21490854 0.31737947 0.024371013
000340 1f 76 77 bd 90 98 2f bc a0 c5 26 3e cc d1 0e bd
       -0.060415383 -0.010717526 0.16286325 -0.034868047
000350 a5 91 a6 3d d5 44 f1 3e 35 9e 66 be 33 21 81 3e
       0.08133248 0.47122827 -0.22521289 0.25220641
000360 1d d4 9c be 56 4e 0c 3e 0f 8c 22 bf 95 5b d5 bc
       -0.3063058 0.13701758 -0.6349496 -0.026044646
000370 b0 35 8d 3e da 55 90 be 98 e6 06 3e a7 8c f2 be
       0.27580023 -0.281905 0.13173902 -0.47372934
000380 b2 85 09 bf be fe 51 bd cc 27 a7 3e b9 ce 08 bf
       -0.5371963 -0.05126833 0.3264755 -0.53440434
000390 89 48 d1 3e a8 6f cd 3e 15 d6 8b bd be c2 b6 bd
       0.40875652 0.4012425 -0.06827942 -0.08923863
0003a0 69 4c e1 bc 16 53 32 bd 28 6f 0c 3d 1d d9 fd 3d
       -0.027502256 -0.04353627 0.034285694 0.12394927
0003b0 32 cc 99 3c 6d 12 b5 3e 4b bf 2c be 62 5c 11 3e
       0.018774126 0.3536562 -0.16869847 0.14195397
0003c0 8e 49 8b be ef 1c 2f be e4 e2 f3 3d 73 1e 23 3f
       -0.27204555 -0.17100881 0.1190851 0.63718337
0003d0 15 24 74 bd 60 e3 ab be fa 88 ce 3e 46 2f 44 3e
       -0.059604723 -0.3357191 0.4033888 0.19158658
0003e0 7d 41 67 bb b9 55 24 3e e9 fa 0e 3d 75 69 85 be
       -0.0035286837 0.16048326 0.034907255 -0.2605702
0003f0 84 6d 2a 3d 43 f3 22 be 99 cc a2 3e f0 72 d5 3e
       0.04160835 -0.1591311 0.3179672 0.41689253

gconvs.2.combination_weights f4 [4, 3]
000000 25 9c cf 3e 36 07 c5 3e cd 18 bc 3e f3 64 cf 3e
       0.40548816 0.38482064 0.36737671 0.40506706
000010 46 af c5 3e 67 92 bc 3e 80 e1 cf 3e 11 2d c5 3e
       0.38610286 0.36830446 0.4060173 0.38510945
000020 31 46 bc 3e 74 cb cf 3e 5f f8 c5 3e d4 0f bd 3e
       0.36772302 0.4058491 0.38666055 0.36926138

gconvs.2.weight f4 [3, 6, 6, 4, 3, 3]
000000 e0 d6 d0 3d ff 72 1b 3f 21 8d fc 3d d3 d2 ac bc
       0.10197234 0.60722345 0.12331606 -0.021096623
000010 85 ec 1e 3e f9 68 9c bb 86 cd 82 3e 0b 1d 07 3e
       0.15519913 -0.004773256 0.25547427 0.13194673
000020 4a 1b ee bc d6 51 b9 3e 80 9e ef 3e 48 d7 a5 bd
       -0.029065747 0.36195248 0.46800613 -0.08097702
000030 29 98 25 3e 1f 83 48 3e af c4 d4 3e 83 69 69 3e
       0.16171326 0.19581269 0.41556308 0.22794156
000040 50 87 98 3e 74 14 63 bb 29 bf 1e 3e bd 1e 87 3d
       0.29790735 -0.0034649642 0.1550261 0.0659766
000050 96 1d 01 3f 6e 3b b0 3d 91 1d cd 3d 93 b3 89 bd
       0.5043577 0.08605085 0.10015405 -0.06723704
000060 7b ea 08 bf 3e 3f 15 bf 2b f8 3f bf 36 69 ce 3d
       -0.5348279 -0.58299625 -0.7498805 0.10078661
000070 db f8 27 3c 3f 7d d6 bd 81 c7 a7 bd df 4a 86 3e
       0.010252203 -0.104731075 -0.08192349 0.26228997
000080 45 e7 85 be d9 e3 5c be bb db f9 be 6c 6b 63 be
       -0.26153007 -0.21571292 -0.48800454 -0.22208947
000090 3d 58 e8 3e 02 26 7a be 08 42 19 3e 37 21 2c be
       0.4537982 -0.24428561 0.14966595 -0.16809545
0000a0 6a 6a 54 be e4 b3 43 be b7 f8 7c bd 42 3d 70 be
       -0.20743719 -0.19111592 -0.06176063 -0.23460868
0000b0 7a 2b 93 3e d6 33 93 be a4 1e b7 3e 4f c9 42 bf
       0.28744107 -0.28750485 0.35765564 -0.7608842
0000c0 6c da 94 3e 18 e7 49 bc a3 d6 01 bf 8e a5 87 3e
       0.29072893 -0.012323163 -0.50718135 0.26493496
0000d0 76 13 41 3e d4 bb b4 bd 9d b5 2d bf 11 14 26 3e
       0.1885508 -0.08824888 -0.67855245 0.16218592
0000e0 bf 6c 77 3d ed 4a 38 bf 50 7d 14 bf ed a8 fe 3d
       0.060406443 -0.7198933 -0.5800371 0.12434564
0000f0 a6 2d a6 bf 6b c5 8c bf a9 c1 2f bf 04 6b 6f bd
       -1.2982681 -1.0997747 -0.68654877 -0.058451667
000100 5a c4 e3 3e d9 dc 99 bd 83 93 3e 3e da 6a b7 3e
       0.44485742 -0.075128265 0.18610959 0.3582371
000110 93 73 3b 3e ae 22 0f 3e d7 cd 8c be 4a a8 2e 3e
       0.18305807 0.13978073 -0.27500793 0.17056385
000120 4b 22 73 be 02 08 8e 3d 1f 38 6b 3d b0 e6 a7 be
       -0.2374355 0.06935121 0.057426568 -0.32793188
000130 27 7b eb be 3f 66 32 3e 99 1e 18 3e de df 4f 3e
       -0.45992395 0.17421816 0.14855422 0.20300242
000140 f6 40 43 be 84 c1 69 3e 77 13 ee 3d 08 67 ad bd
       -0.1906775 0.22827727 0.116248064 -0.08466917
000150 2a fa a2 be a3 6b b2 3d 62 b1 b0 3e 27 45 69 be
       -0.31831485 0.08711936 0.34510332 -0.22780286
000160 ef 8f c5 3d 64 9d ab be 6e ce cb be 01 cd a8 3d
       0.09646594 -0.33518517 -0.3980593 0.082422264
000170 1c d8 00 bf fb 97 62 3e 6f a8 a0 be e0 60 86 3d
       -0.50329757 0.22128288 -0.31378505 0.06561446
000180 4d bc 51 be ed 02 18 3e c8 64 1c bf a6 7a 64 3e
       -0.20481987 0.14844866 -0.6109128 0.22312412
000190 37 96 65 3e cc e0 fe 3d 65 1c 07 3f 7f ea 03 3f
       0.22420584 0.1244522 0.527777 0.5152969
0001a0 7e 74 55 bd 73 3c 86 3e cf e5 fa 3c 15 04 98 be
       -0.05211305 0.26217994 0.03062716 -0.29690614
0001b0 ed c0 2e 3d e2 52 6d be 65 5b 70 3e 3b cf d2 be
       0.042664457 -0.23176149 0.23472364 -0.4117373
0001c0 4c 5a 9e 3d c5 c3 ac 3e 64 a7 81 3d f0 82 1c 3e
       0.077320665 0.3374311 0.06330755 0.15284324
0001d0 9b 4e ec 3c 97 90 ef 3e c1 10 42 be 65 cb a2 be
       0.028846076 0.4679 -0.18951704 -0.31795803
0001e0 75 05 ab 3d 09 ae a5 bd 0e ca da be 10 74 d5 3c
       0.0835065 -0.08089835 -0.4273228 0.02605632
0001f0 74 e6 09 3f 2a a4 7f bf fb 28 60 be 7a 64 87 be
       0.5386727 -0.9985987 -0.21890633 -0.26443845
000200 63 45 19 bf 8f 1f 87 be 92 96 d7 3d 52 8f 27 bf
       -0.598715 -0.26391265 0.10526766 -0.65453064
000210 dd 0c 20 be 96 1a 3c bf e5 ea 8d be 40 cf f7 3e
       -0.15629907 -0.73478067 -0.27718273 0.48400307
000220 6c 67 8f be 03 f2 5f be 1f d0 c5 3e 9a c8 3e 3e
       -0.28008592 -0.21869664 0.38635346 0.18631211
000230 dc 9a e6 3d af 6e 37 bc eb 2e b4 3e d8 ae 97 be
       0.11260006 -0.011195823 0.35192046 -0.29625583
000240 bc 11 fd 3e cc 1f 33 3d 61 bf df 3e f6 11 fd 3e
       0.49427593 0.043731496 0.43700698 0.49427766
000250 5d 01 a4 be 4c 84 93 3d 08 ff b1 3e d5 50 8b 3e
       -0.3203229 0.07202968 0.34764886 0.27210107
000260 be af 23 3f 78 a5 a8 be 95 c7 bf bd 09 4f 1c be
       0.63940036 -0.32938743 -0.09364239 -0.15264525
000270 e1 0f 87 be e1 9d 3c 3e b5 b4 b4 be 56 73 97 be
       -0.26379302 0.18419601 -0.3529412 -0.29580182
000280 f1 da fd be 9a e8 59 bf df 4f 7c 3e 95 be d5 3e
       -0.49581102 -0.85120547 0.24639843 0.41746965
000290 80 17 39 be a5 ef 04 3f 6c 3c 4e 3e fc ef 45 bc
       -0.18075371 0.5192817 0.20140237 -0.0120811425
0002a0 62 df e3 bd 4c 15 85 3d 40 03 23 bf 92 e9 a7 3d
       -0.11126591 0.06498203 -0.63676834 0.08198847
0002b0 5e aa 81 3e 1c 46 22 3f ee 28 30 bd 8e 70 a8 3e
       0.25325292 0.6338823 -0.043007784 0.32898372
0002c0 83 ed 6a be 93 9f 5e be 68 15 85 3b fb a8 08 3e
       -0.22942166 -0.2174056 0.0040613897 0.13345711
0002d0 3c 74 54 3d 5b 1e a5 3d 85 58 91 be ac 36 38 3d
       0.051868662 0.080624305 -0.28387848 0.044974014
0002e0 cd 58 de bd 5d ff 2b bf 81 e7 0e be 1e 53 9f be
       -0.10856781 -0.6718653 -0.13955499 -0.311181
0002f0 36 e8 ec be d1 61 17 3d 96 ad c9 bd 09 97 40 3d
       -0.46270913 0.03695852 -0.09847562 0.04701904
000300 83 d2 c6 3e 74 05 7b be d5 f3 ac be f7 3a 12 bf
       0.38832483 -0.24513799 -0.3377978 -0.57121223
000310 ca 72 b5 be c1 0e 9c be 74 fa 06 be 71 58 2a be
       -0.3543914 -0.30480006 -0.13181478 -0.166353
000320 c4 e2 b6 3e a5 73 54 be c5 72 aa 3e 42 f3 d2 3e
       0.35719883 -0.2074724 0.33290687 0.41201216
000330 6c d2 1b be b1 38 9a 3e 8d 49 a6 be f1 a5 a5 3e
       -0.15216988 0.30121377 -0.3247799 0.32353166
000340 b5 31 9d be d6 2f 3f bf 4d 43 44 be a5 71 6b be
       -0.30701986 -0.74682367 -0.19166298 -0.2299257
000350 97 59 72 be 99 c5 23 be 6c b7 40 bc 32 bd 15 bf
       -0.23666988 -0.15993346 -0.011762481 -0.58491814
000360 b2 29 84 3e 67 00 eb 3e 7c d6 b4 3e 35 c4 b8 bd
       0.2581306 0.45898744 0.3531989 -0.090217985
000370 2f 01 a3 3e 85 92 27 3d 6a a4 08 3d 48 54 4d 3e
       0.3183684 0.040911216 0.033359922 0.20051682
000380 4e c6 d1 3d fe fb e1 3e 79 09 b1 be ef 7b 9e 3e
       0.10242902 0.44137567 -0.3457754 0.3095393
000390 51 b8 37 be a0 cd b8 3e 7c 9c 4d be 74 87 4a 3e
       -0.17941405 0.3609438 -0.20079225 0.19778234
0003a0 db 61 a8 3e 73 36 d4 be a1 0a 17 bb aa 34 2b be
       0.32887158 -0.4144779 -0.0023047107 -0.16719308
0003b0 42 cf 00 be bc d9 1d be d4 a3 88 3e 0c 98 59 be
       -0.12579063 -0.1541509 0.2668749 -0.21249408
0003c0 e4 41 8a be 53 c4 9e bb 5c da a0 3e 89 54 0a be
       -0.27003396 -0.004845181 0.31416595 -0.1350881
0003d0 6a f9 f1 bc 56 6e 07 3e f6 ba 9f be ca 8c 1a 3e
       -0.029537875 0.13225684 -0.31197327 0.1509277
0003e0 b6 be 23 3d 76 98 1b be 3a 2a 9a 3e 00 1f a0 3e
       0.039976798 -0.15194878 0.3011034 0.3127365
0003f0 55 69 0e bf 26 af a3 3e 04 57 3c 3e 5b 32 fa bd
       -0.55629474 0.31969565 0.18392569 -0.12216636

gconvs.3.combination_weights f4 [4, 3]
000000 d7 dd cd 3e c2 17 d1 3e 10 42 bd 3e d2 21 cb 3e
       0.40208313 0.40838438 0.36964464 0.3967424
000010 71 c1 cf 3e 88 8c bb 3e 7d a0 ca 3e 76 41 cf 3e
       0.40577272 0.36630654 0.39575568 0.4047963
000020 66 d3 bc 3e b2 04 cb 3e 2e 89 cf 3e 1d 72 bc 3e
       0.36880034 0.3965202 0.40534347 0.36805812

gconvs.3.weight f4 [3, 6, 6, 4, 3, 3]
000000 06 a4 c6 bd 15 4e 08 be 79 c9 89 3e ba 3a 83 3e
       -0.09699254 -0.13311036 0.26911524 0.25630742
000010 61 6c c0 3d 5f 7a 9a 3e d8 fe d8 3d ed 1a c7 bd
       0.09395672 0.30171487 0.105954826 -0.097219326
000020 10 9b b4 be a9 ed 2a 3d c3 bc 08 3d 84 30 d0 3d
       -0.35274553 0.041730557 0.033383142 0.101655036
000030 dd 5d 28 bd 34 dc 07 3e 7c ed 07 be 24 8c 8f bc
       -0.04110514 0.13267595 -0.13274187 -0.017522879
000040 16 e1 93 bd 09 af 87 3e 6a 3c 6b bf 6d 3a b5 be
       -0.07220666 0.2650073 -0.9188906 -0.35396138
000050 b5 02 ff be f2 cb 1f be 91 3b 67 be 8c b2 1e bd
       -0.49806753 -0.15605143 -0.22581317 -0.038744494
000060 ed 5a 00 3e 71 b0 98 3e 9e 33 c8 3d 76 86 2d bf
       0.12534685 0.29822114 0.0977547 -0.67783296
000070 eb c2 8b be dc a1 91 3d 76 6c 04 3e 54 45 d4 3d
       -0.27297148 0.0711095 0.12932 0.10364786
000080 e8 60 e7 3d 14 4a 0a 3e 27 34 93 3e 13 f1 9b bd
       0.1129778 0.13504821 0.28750727 -0.07614341
000090 ed 74 5c 3d 3e de 6a 3e 64 7c 43 bd 3d d6 b8 3e
       0.053822447 0.22936341 -0.04772605 0.3610095
0000a0 c5 c2 85 3e 5a 64 6c be 62 bb e0 3c 56 0e 3f 3e
       0.2612516 -0.23085156 0.027433101 0.18657812
0000b0 99 a0 0d bf 0d d2 3a 3e 14 80 cc 3d 5d 61 80 3e
       -0.5532318 0.1824419 0.099853665 0.25074282
0000c0 10 86 13 3d 8d db 88 be ce f7 d3 3e 74 90 95 bd
       0.036016524 -0.26730004 0.41399997 -0.07302943
0000d0 c5 57 08 bf d8 66 d5 3d 1a b5 73 3d b1 43 87 3e
       -0.53258926 0.104200065 0.059498884 0.26418832
0000e0 9a 2e b4 3e 12 93 48 3e fd 13 40 be 3a a5 bf 3e
       0.35191804 0.19587353 -0.18757625 0.37430745
0000f0 3b 93 8e 3e 4b e2 77 3e b5 75 4c be 3e 4e 9e 3e
       0.27846703 0.24207418 -0.19966777 0.3091907
000100 42 79 01 bd b1 d2 56 be 38 06 bf bc d4 09 ab 3e
       -0.03160978 -0.2097881 -0.023318395 0.33405936
000110 91 9e 0e bf 5c 71 92 3e 8f 1e 94 3e 67 89 d5 be
       -0.55710703 0.2860211 0.28929564 -0.41706392
000120 6a 15 2a 3e 6b cd 93 3e a9 c2 85 be 00 3b c0 b9
       0.16609731 0.2886766 -0.26125076 -0.00036665052
000130 af ad 69 be 2b 26 7f be ed fe 79 bd 22 5c 11 3e
       -0.22820161 -0.24916904 -0.06103413 0.14195302
000140 54 f6 b0 3e cb c4 e8 be e2 af 80 3c 63 1b 07 bf
       0.34562933 -0.4546264 0.015708867 -0.52776164
000150 18 4a c9 be 9a c2 81 3e 5f b7 4f 3e e5 0f c0 3b
       -0.39314342 0.25343782 0.20284794 0.00586127
000160 d5 d6 b4 3c 88 d6 99 be 8e 39 0d bd d5 5a 15 3e
       0.022075096 -0.30046487 -0.034478717 0.14585431
000170 81 dd e3 3e 07 83 86 be 03 12 5c 3e 9e bc 70 3e
       0.44504932 -0.2627184 0.21491246 0.23509452
000180 ce d2 6f be af 06 48 be 0b 2c fa bd 08 a8 15 3f
       -0.2342026 -0.195338 -0.12215432 0.5845952
000190 8e cf c3 3e 33 fc 35 3e 89 aa b7 bd 20 84 c6 3d
       0.3824429 0.17771988 -0.08968074 0.096931696
0001a0 c4 b3 33 bd ff a8 bd 3e 0d 56 72 3e aa a4 52 be
       -0.04387261 0.37042996 0.23665638 -0.20570627
0001b0 9e 0b e7 3d 79 cb a8 3d 2e df 80 3d ae d0 75 be
       0.11281513 0.08241934 0.06292568 -0.24005386
0001c0 c4 d8 da 3d dc 44 46 3e 54 2c 28 be 57 a4 3c 3e
       0.10685876 0.19362205 -0.1642316 0.18422066
0001d0 a2 4e 16 3d 9f 19 13 be dc c6 93 be 54 b0 10 be
       0.036696084 -0.14365242 -0.28862655 -0.14129764
0001e0 7a 32 2b 3e 38 66 c0 3e c5 1a eb 3d 91 9d d7 bc
       0.16718474 0.37577987 0.11479715 -0.02632025
0001f0 7a 7d 8b be 12 d9 27 3e 61 87 85 3e be 02 cb 3e
       -0.2724417 0.163914 0.26079848 0.3965053
000200 9c 68 46 be b4 0f 7f 3b 39 98 11 3c 36 3f d7 3d
       -0.19375843 0.0038919272 0.00888639 0.105101034
000210 8d 19 00 3e a1 5e ad be 05 9c b4 3e 65 dd 1e 3e
       0.12509747 -0.3386126 0.35275283 0.15514143
000220 99 07 cd 3d e2 ab 88 3e c4 99 8d 3e 2f 2f f7 3d
       0.10011215 0.26693636 0.27656376 0.120695464
000230 d9 d3 c5 3d 55 2e 11 3e 1a b0 66 3e aa 67 8f 3e
       0.09659547 0.1417783 0.22528115 0.28008777
000240 19 86 e4 bd ba b9 20 bf 95 2d 2c bf 50 22 05 bc
       -0.111583896 -0.62783396 -0.6725705 -0.0081258565
000250 7b 75 f6 bd a4 e0 da bd a5 9e 88 be a4 75 30 be
       -0.12034126 -0.10687378 -0.26683536 -0.17232376
000260 a7 b7 d3 3c db 8e b7 3e 9f e4 fb 3e 28 34 af 3e
       0.025844408 0.35851178 0.49197862 0.3421948
000270 fc d6 5c be 32 99 84 3e 4a f6 af 3e 3a 61 cb be
       -0.21566385 0.2589813 0.3436759 -0.39722615
000280 34 29 74 be eb 14 30 be 9d 95 18 3e 4f 18 d3 bb
       -0.23843843 -0.1719548 0.14900823 -0.006442107
000290 ad 61 cc 3e 6f d2 50 3e 05 b8 75 3e b3 f1 69 be
       0.3991827 0.20392774 0.23995979 -0.22846107
0002a0 39 9f 3f be af 82 8c 3e c1 91 8b 3e 6a eb 9b bd
       -0.18713082 0.27443454 0.2725964 -0.07613261
0002b0 74 03 8c bd 13 e6 86 3e 89 de 4b be 53 70 cd be
       -0.06836596 0.26347408 -0.19909109 -0.4012476
0002c0 7a bf b3 bc c3 9c 98 be 96 be 52 be 7b 79 7c 3e
       -0.02194189 -0.298071 -0.20580515 0.24655716
0002d0 fa 93 57 3f 53 37 26 3f 7e 30 be 3e c1 c1 f9 3e
       0.8421017 0.6492817 0.37146372 0.48780635
0002e0 d0 cb b5 3e ec 31 5b 3e 56 b2 4e 3e b2 c8 d2 3e
       0.3550706 0.21405762 0.20185217 0.41168743
0002f0 84 d1 3a 3e 20 89 18 3f bf 74 20 be a7 a0 c6 bd
       0.18243986 0.59584236 -0.15669535 -0.09698611
000300 04 fa 0f 3e dd 86 b5 be 0d eb fa 3d 91 8d 4a 3c
       0.14060217 -0.35454455 0.12251864 0.012362854
000310 b2 24 89 3d db a8 8f be a8 4d e3 3e dc f3 61 bd
       0.06696452 -0.28058514 0.44395185 -0.055164203
000320 4b 10 cb bd e2 c0 01 3e bf cc bb 3e 8c fd 93 be
       -0.09915217 0.12671235 0.36679646 -0.28904378
000330 74 87 86 3e 2d 08 67 be 49 85 93 be 08 a7 a1 3c
       0.26275218 -0.22561713 -0.28812626 0.019732967
000340 22 cf 33 3d 02 96 13 3d 4a d1 08 3e 04 b6 4a be
       0.04389871 0.03603173 0.13361087 -0.19795996
000350 43 5d 0d be e5 3a 52 3e 03 bc 4f be 20 6a d4 be
       -0.13805108 0.20530279 -0.20286565 -0.41487217
000360 04 85 25 3d cb 2a 4c be 30 19 56 3e d3 d3 1f be
       0.040410057 -0.19938199 0.20908046 -0.15608148
000370 b9 fa d4 be 5f 78 d2 bc 1f d9 9d bd 4f e5 d6 bd
       -0.41597536 -0.025692163 -0.07707428 -0.10492956
000380 14 da d8 be c1 57 b5 bc c8 bc 07 bf e8 0e 23 3e
       -0.4235388 -0.02213657 -0.5302243 0.15923655
000390 03 4a 38 3c ee 96 03 3e c1 a7 7d be bd 40 25 be
       0.0112481145 0.12850544 -0.24771024 -0.16137977
0003a0 93 22 c5 3e 97 1f 34 3d af c1 b6 3e 95 df f7 3d
       0.3850294 0.04397544 0.35694644 0.12103192
0003b0 f3 2f 5e 3e 59 b8 90 be 1e 68 ca be 9c fb be 3e
       0.21697979 -0.28265646 -0.3953256 0.37301338
0003c0 38 54 3c be e3 80 e5 be 2f d6 0a 3e 79 7b 55 3e
       -0.18391502 -0.44824895 0.13558267 0.20847882
0003d0 98 e7 c4 3e a2 f5 81 3e 85 a3 33 bc 96 e1 a7 be
       0.38457942 0.25382715 -0.010964279 -0.32789296
0003e0 14 e9 46 3d ed 69 f5 3e 1d c2 bb 3e 31 a7 de 3d
       0.048562124 0.47932377 0.36671534 0.10871733
0003f0 c6 31 ec be 81 40 51 3d 57 ce 9a bd 03 a3 67 be
       -0.46131724 0.051086906 -0.075588875 -0.22620778

gconvs.4.combination_weights f4 [4, 3]
000000 19 27 c3 3e 8a 95 b4 3e 27 93 a5 3e a6 b3 c2 3e
       0.38115767 0.3527034 0.3233883 0.38027686
000010 43 8e b4 3e 42 6a a5 3e d3 4e c3 3e e1 a8 b3 3e
       0.35264787 0.3230763 0.38146076 0.35089782
000020 17 50 a5 3e 44 79 c2 3e 5f ef b5 3e 31 80 a4 3e
       0.32287666 0.37983143 0.35534188 0.32129052

gconvs.4.weight f4 [3, 6, 6, 4, 3, 3]
000000 34 3f ff be ba c8 b5 3e 0e 54 21 3e 0c 19 fd be
       -0.49852908 0.35504705 0.1575472 -0.49433172
000010 f2 09 9f 3d 80 89 d0 be df 75 3a be 08 6c 4d 3e
       0.07765569 -0.40729904 -0.18209027 0.20060742
000020 da 07 04 bf ca e8 9a be 90 9e aa 3e d3 13 95 3d
       -0.5157448 -0.3025573 0.333241 0.07279172
000030 df 0a b2 be c4 1c d4 3a 99 f2 1e 3e ec 87 bd 3d
       -0.3477392 0.0016182889 0.15522231 0.09254441
000040 0e e8 b7 3d e9 a5 b1 be 21 42 8f 3e 6a 96 ce 3e
       0.08979808 -0.34696892 0.2798014 0.40349132
000050 3b b9 63 be 06 92 5f 3e f7 72 cc be 5d ae 91 bd
       -0.22238629 0.21833047 -0.3993146 -0.07113335
000060 d2 bd 9b 3e db 87 89 be b4 f0 a8 3d 19 13 63 bd
       0.3041826 -0.26861462 0.082490355 -0.055438135
000070 04 ff 99 3d c5 ed bf be c0 2e 08 bf af 51 44 be
       0.075193435 -0.3748609 -0.53196335 -0.19171785
000080 ab f8 6f be 0c 0d 4a 3e 29 f1 2b 3d e8 bf 33 3e
       -0.23434703 0.1973154 0.041978035 0.17553675
000090 fe 28 c6 bd ae c1 75 3e a4 05 31 3e 66 a1 07 bb
       -0.096757874 0.23999664 0.17287308 -0.0020695566
0000a0 79 62 c4 be bb e5 40 bd 2b e9 52 be e6 57 84 be
       -0.3835638 -0.047094088 -0.20596759 -0.2584831
0000b0 79 dd 6c 3e 38 9d 9a be 21 84 ee be e0 ba bd be
       0.2313136 -0.30198073 -0.4658518 -0.37056637
0000c0 e3 87 17 bf d4 a2 58 be 83 d1 2f 3e f2 9f 13 be
       -0.5919172 -0.21155864 0.17169766 -0.14416483
0000d0 41 94 98 3e 1c cb 3e bd fb d9 f4 be 81 35 46 bf
       0.2980061 -0.04658042 -0.47822556 -0.7742539
0000e0 e9 ff d6 bd dd 5e 6e 3e 78 8a 59 be 19 d0 5b 3e
       -0.1049803 0.23278375 -0.21244228 0.21466102
0000f0 86 3e fa 3e bc 2d 03 3f 31 6c c4 be dd d8 8d bd
       0.48875827 0.5124166 -0.38363793 -0.06926129
000100 42 df 98 3a 69 78 dc be 75 98 9b 3d c4 85 8c be
       0.0011663216 -0.43060616 0.07597438 -0.27445805
000110 68 34 96 be 20 2f 7c be 8c cb 93 3d 3a 13 64 be
       -0.29336858 -0.24627352 0.07216558 -0.2227296
000120 3d 4f 3c bf 38 7d a9 bd f6 c9 3f bf 96 04 66 bd
       -0.7355841 -0.08275837 -0.7491754 -0.056156717
000130 4b fe 13 3f a2 bb 92 bc 1f df 7e 3e 21 5c 4b be
       0.57809895 -0.017911736 0.24889801 -0.19859363
000140 79 34 c7 be 06 92 80 be 4f da c9 3d cf 13 3c 3c
       -0.3890722 -0.25111407 0.09856092 0.011479332
000150 94 c0 e2 3e c4 2c b1 3e 48 f0 55 3e 21 30 69 3d
       0.4428755 0.34604466 0.20892441 0.056930665
000160 a3 c4 30 3e a6 b7 b7 3e 6f c2 ec be 97 39 bc be
       0.17262511 0.358823 -0.4624209 -0.36762688
000170 1f b8 76 3e 7a 1f e9 be ec ee 01 be bd c2 11 bf
       0.24093674 -0.45531827 -0.12688798 -0.5693777
000180 0c 74 9c be df f8 01 3e 42 a1 62 be ec 27 36 be
       -0.30557287 0.12692593 -0.22131827 -0.17788666
000190 77 71 8e be ef 82 8d be ee 50 a2 3d 81 92 4e bd
       -0.27820942 -0.27638957 0.07925592 -0.050432686
0001a0 a3 11 df 3e 37 19 27 bf a5 a9 dc 3e 1f 8f bd 3e
       0.43568143 -0.6527285 0.43098179 0.37023255
0001b0 11 44 cc be 71 dd 38 3e 2f ed c7 3d 2f 9a b4 3e
       -0.3989568 0.18053223 0.09762036 0.35273883
0001c0 bf 5f 90 be 60 ea 98 3d 58 79 ba 3e ca 1b 9a 3c
       -0.28198048 0.074665785 0.36420703 0.018812079
0001d0 af 98 13 3c e6 4f 9d be 16 72 0f 3e b4 9b aa bc
       0.009008571 -0.3072502 0.14008364 -0.020826198
0001e0 37 00 b6 be 85 44 ae be d8 94 69 3e ab 27 e2 bc
       -0.3554704 -0.3403665 0.22810686 -0.027606806
0001f0 1d a7 6a bc 6f 57 f9 be f2 12 41 bf 7b d4 4c 3e
       -0.0143220695 -0.4869952 -0.75419533 0.2000293
000200 58 a2 7a 3d 1e 44 96 3e 53 d4 a4 3e 35 d7 16 bc
       0.06118998 0.29348844 0.3219324 -0.009206583
000210 48 7a 58 be ed 4e cc 3e 87 c6 18 3e 52 68 96 be
       -0.21140397 0.39903966 0.14919482 -0.29376465
000220 4b b6 f6 bd bd 46 e2 3e be b0 ab be fb d0 8b be
       -0.120464884 0.44194594 -0.3353328 -0.27307877
000230 7d 85 04 3c 00 95 95 3e c5 b4 a8 be 16 10 d6 bd
       0.008088467 0.2921524 -0.32950416 -0.10452287
000240 0a 0f 03 3f 25 31 b1 be 9a 32 70 b9 73 d5 a4 3e
       0.5119482 -0.34607807 -0.00022907034 0.321941
000250 82 44 36 be b8 80 66 be 34 1d 96 3e cd 5a 0d be
       -0.17799571 -0.2251004 0.29319155 -0.13804169
000260 c9 27 0c be 77 21 1c 3f bb 35 9b 3e e3 49 8f 3e
       -0.13687052 0.60988563 0.3031443 0.2798606
000270 78 6c 22 3f 91 0f 9d 3e 12 6b 69 3e d5 c1 94 bd
       0.6344676 0.3067594 0.2279475 -0.07263533
000280 5c 42 40 3f 00 2b 9c 3c 1b 6d 41 be ab e3 1b 3e
       0.75101256 0.019063473 -0.18889277 0.15223567
000290 0c 22 14 3c 23 b0 fc be f5 0a b7 bd e6 df 33 be
       0.0090413205 -0.49353132 -0.08937637 -0.17565879
0002a0 22 5b 0b bf 47 ce 92 bd cd 4a 0d 3e b2 28 cd 3d
       -0.5443593 -0.071682505 0.13798065 0.10017528
0002b0 74 e5 dc be 1d 92 3e 3e de fa 1b bf 4c 71 a4 be
       -0.4314381 0.18610425 -0.6092967 -0.3211769
0002c0 27 b7 ad 3e a2 50 b1 3b 93 07 21 be 5b 27 10 3f
       0.33928797 0.0054112235 -0.15725546 0.5631005
0002d0 a4 6e 99 be 59 04 7b 3e 4a c1 14 3e dd d7 c5 b9
       -0.29967225 0.24513377 0.14526859 -0.000377356
0002e0 68 89 d2 3e 40 d2 05 3e 8d 9c af 3d 3f 64 62 be
       0.41120458 0.13068485 0.085747816 -0.22108553
0002f0 4b b9 2e 3f d2 71 81 bc 26 f5 f8 3e 74 76 2c 3e
       0.68251485 -0.015801344 0.48624533 0.16842061
000300 d6 93 79 be 7a 84 e2 bc 7a 7d d5 be 2d 81 c9 3e
       -0.24372801 -0.02765106 -0.41697294 0.39356366
000310 fa 75 b1 3e ed 97 12 3f 4a 6a e4 be 98 11 09 3e
       0.3466032 0.5726307 -0.44612342 0.13385618
000320 ac 16 24 3d d0 76 7c bd 82 fb 58 bd 22 dd 2e bd
       0.040060684 -0.061636746 -0.05297423 -0.042691357
000330 a8 d7 86 be 6e c5 b2 3e e9 7e 23 be d2 9d e7 be
       -0.26336408 0.34916252 -0.15966381 -0.45237595
000340 0a 68 cd be fe e1 1b bf 15 c6 f0 3d dd 2b 4e bd
       -0.40118438 -0.6089171 0.11756531 -0.0503348
000350 47 97 b3 be 95 59 1b 3f f4 a7 41 3f cc b0 3e 3f
       -0.35076353 0.60683566 0.756469 0.7448852
000360 28 34 ea 3d 83 ae 56 3e d8 1e 55 be 63 ca 22 3d
       0.11435729 0.20965008 -0.20812547 0.039743792
000370 19 d3 22 3e 1f fa a5 3e f6 d6 a3 3c 6b 3c 00 be
       0.1590084 0.3241739 0.019999962 -0.12523048
000380 d5 4a 03 bf 2e 90 1c bf c6 cb dc 3e ac 07 e4 3e
       -0.5128606 -0.611575 0.43124217 0.44537103
000390 e5 b6 ae be b8 05 b3 3e 6f 8a 52 bd 25 15 e3 be
       -0.34123912 0.349653 -0.05140155 -0.4435207
0003a0 c5 b0 d5 be d7 d4 b6 be f9 4f 2f 3e 46 87 43 3c
       -0.41736427 -0.3570926 0.17120351 0.011934107
0003b0 24 9d 27 bd 84 1e ba be 13 4f c5 be 01 1c 14 3e
       -0.040921345 -0.36351407 -0.3853689 0.14463808
0003c0 c2 e2 74 be 3a a5 2e bc ae b3 08 be 6c 70 e9 3d
       -0.23914626 -0.01065951 -0.13349792 0.11398396
0003d0 c5 f5 75 be 20 b7 c0 bd 04 9e ac be 16 ec 51 be
       -0.24019535 -0.09409928 -0.33714306 -0.20500216
0003e0 56 1c 96 3e a7 42 4b be bb 47 c7 3e 1a 0f 82 be
       0.29318494 -0.19849645 0.38921914 -0.25402147
0003f0 db ff 8f 3c 6f 30 1e 3f c9 1e 30 3f 19 28 d9 bd
       0.017578056 0.61792654 0.68796974 -0.10603351

gconvs.5.combination_weights f4 [4, 3]
000000 2c 66 ba 3e 22 b9 d5 3e ba 94 95 3e 39 bc b9 3e
       0.36406076 0.41742808 0.29215032 0.36276415
000010 bc 8a d6 3e 1f a2 95 3e bb ef ba 3e e0 40 d5 3e
       0.4190272 0.2922525 0.36511025 0.41651058
000020 95 02 96 3e 61 af b9 3e f8 2c d5 3e 08 97 96 3e
       0.29298845 0.36266616 0.4163587 0.29412103

gconvs.5.weight f4 [3, 6, 6, 4, 3, 3]
000000 56 90 d1 be 5d 8d 31 3e 8f 15 84 be 4a 88 42 bd
       -0.40930432 0.17339082 -0.25797698 -0.047493257
000010 da fa 88 3d 5b 75 75 3c 14 d1 98 3c 09 e6 ce bc
       0.06688471 0.014981593 0.018654384 -0.025256174
000020 24 b6 e5 bd 01 2d 6b be ec 3d aa be 8e 29 85 3e
       -0.11216381 -0.22966386 -0.33250368 0.26008266
000030 57 21 9e bc 84 28 ab 3e a2 ce 00 3f a9 bb 2b be
       -0.019303007 0.33429348 0.50315297 -0.16770805
000040 9f c5 6f be db 0d ce 3e fc b4 14 bf 05 12 f4 be
       -0.2341523 0.40244946 -0.5808866 -0.47669998
000050 13 44 ce be bf 72 21 bf 60 e4 49 bf 2a df 08 bf
       -0.40286312 -0.63065714 -0.788641 -0.5346552
000060 47 4d c4 be 02 f7 e7 be 97 4e 35 be e9 7e 8c be
       -0.38340208 -0.4530564 -0.17705761 -0.27440575
000070 9f 17 de be fb 65 e9 3a 46 da 0d be 8c 30 92 be
       -0.43377396 0.0017806882 -0.13852796 -0.28552663
000080 24 b6 bd be c1 3a c3 3e 3c f1 8e 3d ec 8a a6 be
       -0.37053025 0.38130763 0.069796056 -0.32527864
000090 4b 23 12 be 0a a3 19 3f e7 21 30 3f df f4 c0 bd
       -0.14271276 0.600144 0.6880173 -0.094217055
0000a0 06 ca 4d 3d e6 97 a8 3d 49 8c f9 3e bc eb 2e be
       0.050241493 0.08232097 0.48739842 -0.17082113
0000b0 bb 03 ff be 23 fe 08 bf 8a 11 96 be a8 db ce 3e
       -0.49807534 -0.5351278 -0.29310256 0.4040196
0000c0 37 f2 8c bf 19 c0 36 3d fb 9f 1d 3d 2a 1e bf bd
       -1.1011418 0.044616792 0.038482647 -0.09331925
0000d0 f1 f4 bc be f6 af 1f be 21 23 63 be 24 47 df bd
       -0.36905625 -0.15594468 -0.2218137 -0.10902241
0000e0 1e 84 19 3e 1b 66 fd b8 66 dd 1e 3d 1e ec 3e 3b
       0.14991805 -0.00012082999 0.03878536 0.0029132436
0000f0 6a f1 e7 be 30 ab 4a 3f 73 0a 22 3e 81 39 8f be
       -0.45301372 0.7916746 0.15824299 -0.2797356
000100 71 04 24 3e 34 0b c5 bd 04 3b 2b be 1b d8 a0 3d
       0.1601732 -0.096212775 -0.16721731 0.07853719
000110 2b 9a ab 3e a3 cb 97 3d 42 7e df 3e a1 ec b2 be
       0.33516058 0.074118875 0.43651015 -0.3494616
000120 b8 52 02 bf 2a 88 e0 be e9 b3 cd 3d 3d d2 4b 3e
       -0.5090747 -0.43853885 0.10044081 0.19904418
000130 90 e7 c4 bc 71 a7 cc 3e f8 55 a4 be 4f 52 b3 be
       -0.024036199 0.39971498 -0.3209684 -0.35023734
000140 48 73 85 bd 4f 00 52 be 6a dd 0c 3d bf 28 9b be
       -0.06516129 -0.2050793 0.034390844 -0.30304524
000150 7e 7f 1c bd 13 2f 07 3e 89 a0 09 be eb da 7c 3d
       -0.038207524 0.13201551 -0.13440146 0.061732214
000160 e9 c6 dd 3b a3 f6 14 3f b5 d8 24 3e 46 a6 8a be
       0.0067680967 0.5818884 0.16098292 -0.27079982
000170 e8 54 ef bd b3 5e 85 be 2b 69 7a bd d0 46 44 be
       -0.116861165 -0.26048812 -0.061135452 -0.19167638
000180 1a 9b 14 3f 56 27 ec be 94 44 55 bf e3 ca 9d be
       0.58049166 -0.4612376 -0.83307767 -0.30818853
000190 5a fe 0d 3e 74 d7 51 3e 38 5b 5c 3e 2c be c0 be
       0.13866559 0.20492345 0.21519172 -0.3764509
0001a0 23 c1 07 3e b1 87 06 3f b9 58 84 be fa dd d8 3d
       0.1325727 0.525508 -0.2584894 0.10589214
0001b0 5a 07 26 3e ee b0 77 bd 32 56 93 3e 94 e0 83 3e
       0.16213742 -0.060471468 0.287767 0.25757277
0001c0 59 82 8c be ed 0f 18 bf cd 06 ee 3e 79 24 05 3e
       -0.27443197 -0.593993 0.46489564 0.13002194
0001d0 fb a8 03 3e 39 8a 85 3e e3 1d 89 3d bb 17 45 3e
       0.1285743 0.26082018 0.066951536 0.19247334
0001e0 61 75 12 3d bf 5d 6f 3e 2e 09 bd 3e 29 d0 52 bd
       0.035756472 0.23375605 0.36921066 -0.05146805
0001f0 89 0f f9 bd cf 50 25 3e c8 f6 88 be 7f 44 c5 be
       -0.12161166 0.16144107 -0.2675078 -0.3852882
000200 d3 fe ad be b0 a4 64 bd 4f 4c a0 be e4 8c 6c be
       -0.33983478 -0.05582112 -0.3130822 -0.2310062
000210 fb 31 96 bd d3 90 e1 be 74 6d fc 3c 17 b8 f6 be
       -0.07333752 -0.44055805 0.03081391 -0.48187324
000220 37 37 01 be 29 b3 84 3e 60 e3 f6 be d4 89 d3 bd
       -0.12618719 0.25917938 -0.48220348 -0.10329023
000230 a8 f2 f3 3e 4f a1 cd 3e 37 68 a8 be 24 fe 97 be
       0.4764607 0.4016213 -0.3289201 -0.2968608
000240 ed 8b bc be 12 3a d4 3d 3f 2f ff 3e 5a bf 30 be
       -0.36825505 0.103626385 0.49840733 -0.17260495
000250 e6 fb 36 3d 67 a0 aa be 5c 3f 0b bd f2 23 4f be
       0.044673823 -0.33325502 -0.03399597 -0.20228556
000260 c3 4e 98 bd aa 10 9d 3e 8d d4 4c 3e be 90 14 bf
       -0.074368976 0.30676776 0.20002957 -0.5803336
000270 30 b8 9d be e9 3b 89 be 70 f0 52 be 9c 1c 86 bf
       -0.30804586 -0.2680352 -0.20599532 -1.0477481
000280 47 c4 84 3e 1e 4c 07 bf c7 41 92 be 00 75 30 3e
       0.25930998 -0.5285052 -0.2856581 0.17232132
000290 c3 1a ea bd 21 e0 1b bf 8e 91 a5 be e9 db d2 3d
       -0.11430886 -0.6088887 -0.32337612 0.10295851
0002a0 66 ac 13 be ef b6 85 3e 93 fe 4c be 03 28 a0 be
       -0.14421234 0.2611613 -0.20018987 -0.31280527
0002b0 a1 30 9b be 93 6d df be ac 55 6a 3e 14 0b 96 bd
       -0.30310538 -0.43638286 0.22884244 -0.07326332
0002c0 25 3a ec bd 18 b2 03 3e 15 43 1b bf 69 f0 f3 bd
       -0.11534528 0.12860906 -0.60649234 -0.11911089
0002d0 1a f9 5f be 3d ca 5b 3e bf 48 89 3d e7 d8 a7 bc
       -0.21872368 0.21463867 0.06703328 -0.02048917
0002e0 ee d6 ce 3d c8 90 89 3e d9 3d d5 be 65 30 86 be
       0.10099588 0.26868272 -0.4164875 -0.26208797
0002f0 1f 16 b4 be 10 73 01 be e5 59 f1 3c e8 43 c6 be
       -0.35173127 -0.12641549 0.02946181 -0.38723683
000300 b2 37 b4 3d 88 89 31 be e8 71 f5 bd ca 2f 9e bd
       0.087996855 -0.1733762 -0.119846165 -0.07723959
000310 4d a8 6c 3e 9b e2 df be 42 7b dc bd 09 ef f8 3c
       0.23111077 -0.43727574 -0.10765697 0.030387418
000320 05 46 fa bc 36 f3 5a 3e c2 a4 5d be d3 eb 4c 3e
       -0.030550966 0.2138184 -0.21644881 0.20011835
000330 28 32 b7 be 08 1b 8a be 96 ef bc 3e e4 56 cc be
       -0.35780454 -0.26973748 0.3690154 -0.39910042
000340 c2 7d 0a bf d7 72 ac 3d e1 75 2a be 11 69 8e bd
       -0.5409814 0.084203415 -0.1664653 -0.069536336
000350 72 c6 9a be e8 21 46 be 17 5a 95 3d 3d 47 8c be
       -0.30229527 -0.19348872 0.07292574 -0.273981
000360 f7 71 45 bf fe d6 70 be a8 a1 0f bf 83 fb 8e 3c
       -0.7712702 -0.23519513 -0.5610604 0.017453915
000370 26 7b a5 3e 27 47 78 bd a1 c0 8d 3e 49 9f 99 3e
       0.32320517 -0.06061473 0.27686027 0.30004337
000380 60 df ee 3d 41 a6 95 be 1e 92 20 3f 81 df db bd
       0.11663699 -0.29228404 0.6272296 -0.10735989
000390 7d 9c 99 3e 06 91 33 3e 27 f3 9e 3b 42 1f 4e bf
       0.30002204 0.17535791 0.0048507634 -0.80516446
0003a0 d8 a8 25 be 74 63 85 be d9 a9 b7 3e 53 6a 53 be
       -0.1617769 -0.2605244 0.3587177 -0.20646028
0003b0 dd 2f 84 3e e6 fa a0 3e de 87 d9 bd ba 22 1a be
       0.25817767 0.3144142 -0.10621618 -0.1505231
0003c0 11 c0 72 be 2e bd b6 be 73 d7 d0 be a6 2e 19 3f
       -0.2370608 -0.35691208 -0.40789375 0.59836805
0003d0 e6 47 74 bc 7f 25 8e 3e f8 b8 81 3d ce 46 e6 be
       -0.01490972 0.27762982 0.06334108 -0.44975895
0003e0 2b 46 d2 be 0f 3d 79 be f6 9c 25 3d b0 90 c6 be
       -0.4106916 -0.24339698 0.040432893 -0.38782263
0003f0 7e a2 03 bf 4e 70 90 3e 02 0c b9 3e f5 9d 57 be
       -0.5141982 0.28210682 0.36141974 -0.2105635

final_layer.combination_weights f4 [4, 3]
000000 23 4e cd 3e fd 40 97 3e 9d 45 e4 3e 64 3c cd 3e
       0.40098676 0.2954177 0.4458436 0.40085137
000010 ce 21 97 3e ff 57 e4 3e c0 3b cd 3e a7 15 97 3e
       0.29517978 0.44598386 0.40084648 0.29508707
000020 78 66 e4 3e de 63 cd 3e 6e 3c 97 3e 17 07 e4 3e
       0.44609427 0.40115255 0.29538292 0.4453666
