runs/RelaxedP4CNN_aniso_std0.1_gamma2_lr0.002/model.pt (torch, 116029 bytes, 18 tensors)

lifting_conv.combination_weights f4 [3, 4]
00000000: 6a8b c13e e0d8 bf3e a001 c03e 4730 c13e
00000010: 8d57 86be 9019 86be 6534 84be 6e7d 85be
00000020: bee2 1f3c e587 0e3c cdde ab3b 6ecd 203c
0.37801677 0.3747015 0.3750124 0.37732145 -0.2623867 -0.26191378 -0.25821224 -0.26072258
0.009758649 0.008699392 0.005245066 0.009814603

lifting_conv.weight f4 [3, 6, 1, 3, 3]
00000000: 185b 4a3e c414 a03e d976 c33e b579 61be
00000010: d308 453e 1de0 483e 33b6 39be c399 99bd
00000020: 51e8 813d 61be c6be 6c5c 8b3e 9171 9cbe
00000030: f9d1 9bbe ccaa 883c 0a5a 31bd a623 f73e
00000040: a035 f93d 294f a4be 8596 4c3e ef2c 533d
00000050: bf5f 9cbe b9fb 4abd b9a9 973d ec36 66be
00000060: f1ab 0f3e 9007 84be fb63 e03e 738d 433e
00000070: ab8e 0cbf a7a1 8ebe 9e7b bc3e ab25 bebe
00000080: bf46 f4be a30a 2e3e 609b 9f3e f888 b13d
00000090: 7d52 35bf 6053 afbe 076e 45be 6eb2 593e
000000a0: 3a0f 08be 3208 7abe 29cd d43d 7c6d 873e
000000b0: 94d6 14bf ee67 0bbf be2a 15bd 8768 9e3e
000000c0: 14eb d43d c6b5 38bd eab3 363e 5932 a83e
000000d0: db35 0b3e 6a3c 92bc 29cf 783e 4011 00be
000000e0: 75ea e9be 5959 7fbe 0667 0dbe a456 963c
000000f0: e157 7a3d f59c ecbc 452f 8f3e 5c01 a03e
00000100: 5bc6 8c3d 15f2 a03d 35da f43e 368f 54be
00000110: 61f9 693e 66b0 b7be 3a9f 96be bdc3 51bd
00000120: 9b02 72be add4 a13e 1a83 20be ad64 503e
00000130: 278d 24be 7c53 813e 67e4 503e b5c0 293e
00000140: 5f5d c3be 5958 693e 4cb7 563e 407a f5bd
00000150: 603e 8dbe 81bb a43e dcf6 65bd b00f b9be
00000160: b6e5 a2be 5e8e 943c df39 293f 90c3 1b3f
00000170: 980c 7b3e 6be5 bfbe ba55 86be 420c 383f
00000180: f1bc 98be c09b d1be 1d64 d73d 2b62 193f
00000190: 2063 133e 67ea 92be cf54 d73d 6d8a aa3e
000001a0: a106 573e 12c2 94be a53f 403d f583 a6bd
000001b0: ec56 a63d d7d9 2ebe e6a8 a43e 72a9 483e
000001c0: 2720 a5be 2070 ad3e efea 5dbe 1aa9 5a3d
000001d0: 4d31 91be 8639 bdbe 10b0 dcbd bd12 843e
000001e0: c576 52be e559 65be 3e84 aa3e 4128 193e
000001f0: 6f0f 4bbd 32f2 c03b 384f a73e e6ca 9d3e
00000200: 5417 9bbe 82d7 ffbd ac54 1ebe c806 073e
00000210: a0ff 2d3e 95ac b2be 158e efbd 7432 acbd
00000220: 3b23 38bd 2d17 05be 57e2 32bd a95e 5ebe
00000230: 9704 dd3d 9ed0 873d 1326 44bd 48d4 2b3e
00000240: e7b7 98be 491b 8fbe 1aa7 1e3e 550d 863e
00000250: f390 233e 7fb3 b3be d0fe 9f3c c9a2 f23d
00000260: e85f a4be fd86 2f3d b527 e53d b28f 653e
00000270: b793 babe a62e 603e 8112 bfbd 528b 1abe
00000280: c8d8 853b e968 13be
0.19761312 0.31265843 0.3817661 -0.22019084 0.19241647 0.19616742 -0.1813591 -0.07500031
0.06343139 -0.38817123 0.2721895 -0.30555394 -0.30433634 0.016683005 -0.04329876 0.48269385
0.12168431 -0.32091644 0.19979294 0.051556524 -0.30541798 -0.049556468 0.07405419 -0.22481889
0.14030434 -0.2578702 0.4382628 0.19096927 -0.54905194 -0.27857706 0.36813062 -0.37138113
-0.47710225 0.16996245 0.3117323 0.08668703 -0.7082899 -0.34243298 -0.19280253 0.21259472
-0.13287058 -0.24417189 0.10390694 0.26450717 -0.5813992 -0.5445546 -0.036417715 0.30939123
0.103964 -0.045095228 0.1784207 0.32850912 0.13594763 -0.017851073 0.24297775 -0.1250658
-0.4568669 -0.24936427 -0.13808832 0.01835186 0.061118964 -0.028883437 0.2796575 0.31251037
0.06873771 0.078586735 0.4782273 -0.20757756 0.22849037 -0.3587677 -0.29418355 -0.05121206
-0.23633806 0.3160757 -0.15675011 0.20350905 -0.1606947 0.25259006 0.20399629 0.16577418
-0.38157174 0.22787608 0.2096836 -0.11986208 -0.2758665 0.32174304 -0.056143627 -0.3614478
-0.3181588 0.018134292 0.6610393 0.6084528 0.24516523 -0.3747972 -0.2623728 0.71893704
-0.2983165 -0.4093914 0.10517142 0.5991542 0.14393282 -0.2869446 0.10514223 0.33308735
0.20998622 -0.29054314 0.046935696 -0.081306376 0.08122048 -0.17075287 0.3216011 0.19595888
-0.32251093 0.33874607 -0.21671651 0.053383924 -0.28357926 -0.3695795 -0.10775769 0.25795546
-0.2055312 -0.22397573 0.33304018 0.14956762 -0.049575265 0.005888247 0.32677627 0.30818862
-0.30291235 -0.12492277 -0.15461987 0.1318618 0.16992044 -0.34897295 -0.11697022 -0.08408061
-0.044955473 -0.12997122 -0.043672886 -0.21715797 0.10791891 0.066315874 -0.047887873 0.16780198
-0.29827806 -0.27950504 0.15493432 0.26182047 0.15973262 -0.35097882 0.019530684 0.11847455
-0.3210442 0.042853344 0.11189214 0.22418097 -0.36440822 0.21892795 -0.09329701 -0.15092209
0.00408468 -0.14395489

gconvs.0.combination_weights f4 [4, 3]
00000000: b86d ed3e cae6 ff3e 2610 a13e 1822 ed3e
00000010: 0b17 ff3e 764f a23e bc71 ed3e b926 ff3e
00000020: 5ed3 a03e 0771 ed3e cfc1 fe3e 5113 a13e
0.4637277 0.49980766 0.31457633 0.46315074 0.49822268 0.3170125 0.46375835 0.4983423
0.3141126 0.46375296 0.4975724 0.3146005

gconvs.0.weight f4 [3, 6, 6, 4, 3, 3]
00000000: 81aa 613e 6e2c cdbe 1cad 0ebf 43fd 2ebe
00000010: cc40 a3be 4e45 81be 71a6 5a3c 24f5 13be
00000020: 797d 403e 91dc 13bd 3554 743e 9cb9 cabd
00000030: 7095 dcbd 3a54 123e 1da4 a9bc 9762 64be
00000040: 0d25 c23e 4a50 873e 29bb 993e 9f5c acbe
00000050: ac48 5d3e 278a 66bd 45d7 9abe aedd 81be
00000060: 3c54 0abf a7b0 a33e 801d c0be 32fa a93d
00000070: 28f5 753d 7652 d9be 132f ae3e 9bc3 81be
00000080: 36a8 06be 1f22 4ebe 4301 f03c 8407 99be
00000090: b314 e43e 223c a7be 6f6b 0c3e b9f9 a73e
000000a0: d405 903e dd6a 4b3e 2558 5c3e fa34 1cbd
000000b0: d95b da3e ad03 cd3e 536f 0fbd 98f6 da3e
000000c0: 23ce 423e 916c e8bd 660d 4bbe 60f2 bd3e
000000d0: 1afa f9be b479 773d 8bcd aa3e 2a81 de3c
000000e0: 45da 573e 1705 2d3e 8e47 023f c691 643e
000000f0: 1b2c 973e 4f0e a6be 0e43 933d e1a0 97be
00000100: 4dfb 883e 36ca 8c3c 343d af3e a2d9 603e
00000110: ab0a adbe 366e 893e 4801 a5be f57b bf3e
00000120: 358d f33e 8c78 953e d5ff 8a3e a184 823e
00000130: b010 00be a20b 813e c4ae 043d 99c1 0f3e
00000140: e318 b4be 67d9 833e fec3 b6be b831 0e3e
00000150: d4c5 9a3e 61d2 763e 4fd1 5abd b2df e03e
00000160: 391b f93d acf3 8f3e 53cb 093f 616b 5bbe
00000170: 9ce1 7e3d 26b2 4e3e f7a7 c7bd 7b8c bcbe
00000180: db0e b53c ea15 ae3e d294 cc3e 871f da3e
00000190: 648d 563e 1801 ec3c 561e 9cbe 9632 273e
000001a0: edb5 293d 9ed3 9cbd 7324 aebe 05f6 823c
000001b0: 9038 863e cabe a6bd 27ee de3e 2945 a5bd
000001c0: 14a8 9c3e 8be6 783e ed29 903e 0d47 613e
000001d0: 8ae9 813e 39ff f93e 9c0d 9d3e bfd0 e93d
000001e0: d16c 113e f36f 91be af96 31be 96af 9cbd
000001f0: 1193 9fbe 7fde 543e 7e66 f3be ea9d 683e
00000200: 4505 033e ca81 cc3c 7201 55bd 94ae f4bd
00000210: 7e4d fb3c 6294 ec3e 52ea 40be bf97 efbe
00000220: 1f49 c5be 9931 79be df6a 2d3e f0d1 053e
00000230: 18ce 86be e38e 56be 5ae0 bcbe 7f1a 083e
00000240: 7709 86be bc9b c2be 7414 a13e d64d 1f3e
00000250: 0623 29be 53f7 29bb f049 9f3e bf18 833e
00000260: dadb 40be 483d 803e 050e 08be 9c55 60be
00000270: 92b8 cbbd a2e1 8c3e 2f27 be3e e348 a8be
00000280: 131a 3a3e f4d1 ae3d dc6d ddbc a45b a03e
00000290: ea43 963e 8165 f4bd aaa2 96be 9d60 cbbd
000002a0: 9745 84be 73db bc3d 9b68 4f3e bc2e 343e
000002b0: 9c9f bbbe aa07 afbe 944e 93be e949 fdbe
000002c0: 450e 793e b3de 85be 848f 9d3e 239d 2abe
000002d0: 5521 bb3e b32c 93be 6045 98be 830e b9bd
000002e0: 2a51 e9bd 6533 c8bd e52b fabe e324 c43d
000002f0: 5f48 b8bd 7f50 f1bd 2f57 033f f7eb 2abe
00000300: ef1b b83e 521d a23e 63ab a23e b50b 81bd
00000310: bd3a fdbd 377e 8fbe d3eb bc3e 1c63 f9bc
00000320: 1cca 92be 0068 a4be b91a c1bd 26c6 aa3e
00000330: 7d5b f63d 1cc0 97be b57d 803d 5e69 9a3d
00000340: 9bd4 613e 3211 cdbc 3225 f23e 1fd6 f3bd
00000350: 103f 4a3e e274 15be 4714 733e ef51 90be
00000360: 6094 6e3e b0e3 8ebd d5fd 4cbe a734 0b3a
00000370: d5c1 08be fa15 b2be 5353 cc3d 7109 b23e
00000380: 9b77 bebe 4b0b cebe ce1b 6bbe bcf6 17be
00000390: a4e3 92be 1301 8e3d 73fa 22be 4221 143e
000003a0: d419 9abe 785e 23bd 8280 d4be 73c1 49bd
000003b0: 5aef debe d3b9 c2be 031e 9f3e 200c 43be
000003c0: fd7b 863e 4b76 3e3e 7ced 6c3e a2a4 74bd
000003d0: 99cf 1c3e d6d0 f0be fed8 7fbe 56d3 a9be
000003e0: d648 b23c 6114 d23d 2399 1f3e b122 dabe
000003f0: 1147 983e 850e 44bd 2fd3 57be 0198 c83e
0.22037698 -0.4007296 -0.55732894 -0.17088799 -0.31885374 -0.25248188 0.013345347 -0.14448982
0.18797864 -0.03609902 0.23860247 -0.098986834 -0.107706904 0.14289942 -0.020708138 -0.22303234
0.37918893 0.26428443 0.30025604 -0.33664414 0.21609753 -0.056284096 -0.30242363 -0.2536444
-0.5403478 0.31970713 -0.37522507 0.08299674 0.060048252 -0.42445725 0.3402029 -0.25344548
-0.13150105 -0.20130204 0.029297477 -0.29888546 0.44547042 -0.32663065 0.13712858 0.3280771
0.28129447 0.19864984 0.21518 -0.03813646 0.426482 0.40041867 -0.035018276 0.4276626
0.19023947 -0.113488324 -0.1982933 0.3709898 -0.48823625 0.0604188 0.33359942 0.0271612
0.21079357 0.16896473 0.50890434 0.22321233 0.29525837 -0.32432792 0.07190524 -0.29614928
0.26754227 0.017186265 0.34226382 0.2195802 -0.33797202 0.26841897 -0.3222754 0.3739926
0.4756867 0.29193532 0.2714831 0.25491813 -0.12506366 0.25204188 0.032393232 0.14038695
-0.35175237 0.25751802 -0.35696405 0.13886154 0.30229056 0.2410369 -0.05342227 0.43920666
0.121633954 0.28115594 0.53825873 -0.2142768 0.062226877 0.20185146 -0.097488336 -0.36825928
0.02210181 0.34001094 0.3995729 0.42602178 0.20952374 0.028809115 -0.30491894 0.16327891
0.041433264 -0.0765755 -0.34012184 0.015986452 0.2621503 -0.08141859 0.4354107 -0.08069832
0.30596983 0.24306695 0.28156987 0.2199976 0.2537349 0.48827532 0.30674446 0.11416768
0.14201666 -0.28405723 -0.17342637 -0.07650678 -0.3116689 0.20788 -0.47539133 0.2271649
0.12794979 0.024964232 -0.05200333 -0.11947361 0.0306766 0.46206957 -0.18839386 -0.4679546
-0.3853235 -0.24335326 0.169353 0.13068366 -0.26329112 -0.20952944 -0.36889917 0.13291357
-0.26179096 -0.3800944 0.31460917 0.15557036 -0.16517267 -0.002593477 0.31111097 0.25604817
-0.18833867 0.25046754 -0.13286598 -0.21907657 -0.09947313 0.27515894 0.3713927 -0.32868108
0.18174009 0.08536139 -0.027029924 0.31319916 0.2934869 -0.11933423 -0.29420978 -0.09930537
-0.25834343 0.09221544 0.20254748 0.17595953 -0.3664521 -0.34185535 -0.28770888 -0.4947045
0.2432185 -0.2614647 0.30773556 -0.16661505 0.36548868 -0.2874504 -0.2974043 -0.09035971
-0.11392434 -0.09775428 -0.48861614 0.09577348 -0.08998179 -0.117829315 0.51304907 -0.16691576
0.35958812 0.31662995 0.31771383 -0.06301061 -0.12364719 -0.28025982 0.3689867 -0.030442767
-0.28669822 -0.32110596 -0.09428925 0.333543 0.12029169 -0.29638755 0.06273977 0.075396284
0.22053759 -0.025032613 0.47294003 -0.11906075 0.19750619 -0.14595369 0.23738204 -0.2818751
0.23298788 -0.06977022 -0.20018704 0.0005310275 -0.13355191 -0.34782392 0.0997683 0.34772828
-0.37200627 -0.4024299 -0.22959825 -0.14840215 -0.286893 0.06933799 -0.15915851 0.14465812
-0.3009783 -0.039885014 -0.41504294 -0.049256753 -0.43541986 -0.38032398 0.31077585 -0.19047594
0.2626647 0.18599813 0.23137468 -0.05972732 0.15313567 -0.4703433 -0.2498512 -0.3316905
0.021763247 0.10257793 0.15585761 -0.42604592 0.2974172 -0.04786541 -0.21076654 0.3917847

gconvs.1.combination_weights f4 [4, 3]
00000000: 46ef da3e d1ef e03e 9321 c43e 1280 dc3e
00000010: f286 e23e e29d c43e c318 dc3e 19cc e23e
00000020: faf1 c43e be21 dd3e 59cb e23e 60f0 c43e
0.42760676 0.43932965 0.38306865 0.4306646 0.4424358 0.38401705 0.42987642 0.4429634
0.38465863 0.43189806 0.44295767 0.38464642

gconvs.1.weight f4 [3, 6, 6, 4, 3, 3]
00000000: 4ce9 9a3d 0bca b53e 3b6a 403d 3f44 e23d
00000010: edcd 64be 96b8 0c3e b01b 133e b765 993d
00000020: f2d7 b13e efd2 d13e e8c7 b43e a9cd 00be
00000030: dac7 a13d 3775 aa3e fbe5 97be 0e81 b9be
00000040: ca0a ffbd 4070 e0bd f3ff c43e 802f 13bd
00000050: f088 1a3e 86ac 7cbe 64b8 083e daa1 523e
00000060: c1b5 ab3e 6182 803e 97dd 903e 68b5 86be
00000070: 42e8 863e b2ff 143e 5ce8 bd3e d438 003d
00000080: 0e7d 173e cd7c 073e a609 a73e 52eb 98be
00000090: 9878 b9be 44bf 14be 1bf4 4c3e 9567 5a3e
000000a0: 57ce 93be f676 c3be a22c d8be 5190 953e
000000b0: 441d 543e 4956 183e 3b1d 183e fcd3 353e
000000c0: 26db 7b3e 21d9 c13e e262 46be 3d7e 843c
000000d0: 49f1 d4be 53eb 2e3d b9b1 ff3e c297 ac3e
000000e0: 0a9b 63bd a52c ba3e 8ff9 973d c669 683e
000000f0: 1d36 373e 3612 72be 6177 b1be df7b ae3e
00000100: 24d3 a03e 14fb 1cbd 2006 9d3e 5a4d 2fbe
00000110: d488 f5bd 14ec 07bd 2736 7d3e 1538 aebe
00000120: b971 e73e 9f18 19be b12f 19bf f5db b43e
00000130: 709f cbbd 6a27 30bf dfb9 89be 132a 43bf
00000140: df3e 6a3c ee14 adbe 94aa 72be c059 7fbe
00000150: cc5d 8bbe 2696 68be d38b aa3d ed22 123e
00000160: 3bd3 4b3d 8fba a03d 6a74 b93d c59c e0be
00000170: a370 54be f0ff 623e 0c3e c63e e4d8 22be
00000180: 9e42 34be 8978 77bd 6a5e 3ebf bec3 553e
00000190: 3551 39be 0bee c83c 5001 ecbd 820d c13e
000001a0: b797 553d 2087 e8be 3954 babd 91f3 c83e
000001b0: d57a b03d 59c3 683e 3a73 e93d 74bf 723e
000001c0: 8e74 2d3e 5062 cdbe fa30 5cbe ca19 913e
000001d0: 6fa4 98be 69ce 06be 451d fc3e 933d 8e3e
000001e0: e05c 91bc af6b 443e 874d 163e 1b5d 56be
000001f0: 6dfc 0cbe 9a9e c1bc 0c73 e1bc 6504 bb3c
00000200: 0b80 97bc d66c 37be f075 23be e03b a6be
00000210: b017 313e 5c79 3d3e fcf5 f3be a0f4 323e
00000220: ec5a 9abb 3b17 123e bd26 da3e 460d 92bd
00000230: 73d4 093f f177 86bc c534 0bbe e6e4 d33d
00000240: c4b9 81be 68e8 b13e f07e 4ebe a20d 01be
00000250: f3ff d4bb 8c00 083f 659e 89bf c8b9 a73d
00000260: d1d2 db3d b2af f5bd c029 8fbe 3a8e 523e
00000270: a550 e23d ef90 973e 40da f73d 52fd 253e
00000280: 8145 ec3d 0f16 64bd 0c99 443e bd69 6dbe
00000290: a7f9 12bf 5e65 fabe 9ac9 93be 079e 79bd
000002a0: e132 8ebe b9c1 963d a8f3 39bc a3cd a2bd
000002b0: 19c9 d1be 2d81 753e 3d8a 1a3e 4a0e 5abe
000002c0: fa38 963d 1b22 03bf 53d1 553d 24f6 bebe
000002d0: c20e 0bbf 83f0 87be 1961 ca3e f6ad 8cbc
000002e0: d1d2 f03e 0b32 433e 67ae c6bc 26e5 403e
000002f0: e4a8 023d c7d9 d33e a77b 24be 9e6f 73be
00000300: 818b 8abe 01b3 ed3d 22ff a7be d4aa 9dbd
00000310: efeb 383e be8d 0cbf a17b 043e 7377 ef3e
00000320: 8af1 d83c ba6d c33e f5f9 933e 1813 b53d
00000330: 6b34 9b3d 5013 6a3d cff0 81be 4383 d63e
00000340: aadd 293f 5c32 95be d01a 993c 6b2f 013e
00000350: 0de8 ddbd 8151 16bf 911a b0be 8ccc b0bd
00000360: ccb9 3f3c 16b1 dd3d eacf cc3e 7c5e a43e
00000370: d2fe beba 09e0 873e 2b2b 49bf 50b4 87be
00000380: 6a48 acbe e305 d63e 8269 ad3e 4caa 063f
00000390: 2568 fb3e b0d1 143f 99fa c03e 4e18 15bf
000003a0: 0b0a 2bbf 9142 32bf c7ba 733d 4797 5e3c
000003b0: 334f da3e d194 19bd 5692 343e 1874 25bc
000003c0: dabf 6bbf 7f9c 92bf bddb 9abf b530 8b3c
000003d0: d2a9 dfbc 3d36 a63e 8a7e 1dbf b697 fc3d
000003e0: 9231 b3be 3b10 04bf 20c3 07bf ff47 90bf
000003f0: e5f4 e83e 415b 163f e612 1e3e 0af5 c7be
0.07564029 0.3550571 0.04697631 0.11048173 -0.2234418 0.13742289 0.1436603 0.07490104
0.34735066 0.40981242 0.35308766 -0.12578453 0.07899447 0.33292553 -0.2966765 -0.36231273
-0.1245323 -0.1095891 0.38476524 -0.03593397 0.150913 -0.24675187 0.1335159 0.20569554
0.33537105 0.2509947 0.2829406 -0.26310277 0.26349074 0.14550665 0.3709134 0.031304196
0.14793798 0.13231201 0.3262455 -0.29867035 -0.36224818 -0.14526087 0.20014994 0.21328576
-0.28868362 -0.38176697 -0.42221552 0.29211667 0.20714289 0.14876665 0.148549 0.17756647
0.24595317 0.3786097 -0.19373658 0.016173476 -0.41590336 0.04270489 0.4994028 0.33709532
-0.05556778 0.36362186 0.074206464 0.226966 0.17891736 -0.2363976 -0.3466139 0.3407888
0.31411088 -0.038325384 0.30668736 -0.17119351 -0.119889885 -0.033184126 0.24727689 -0.34027162
0.4520395 -0.14950798 -0.59838396 0.35324064 -0.0994252 -0.6881014 -0.2689962 -0.76236075
0.014297216 -0.3380503 -0.23697883 -0.2493658 -0.2722 -0.22713527 0.083274506 0.14271136
0.049761992 0.07848083 0.09055407 -0.43869606 -0.20746092 0.22167945 0.38719213 -0.1590305
-0.17603537 -0.060417686 -0.74362814 0.20875451 -0.18097384 0.02452757 -0.11523688 0.37705618
0.05214664 -0.45415592 -0.090980954 0.39248326 0.08617178 0.22730769 0.11398931 0.23705846
0.16938993 -0.4011407 -0.21503058 0.28339988 -0.29812953 -0.13164677 0.4924108 0.27781352
-0.017744482 0.19181703 0.14678012 -0.20933954 -0.13768168 -0.023635197 -0.027520679 0.022829244
-0.018493673 -0.17912611 -0.15962958 -0.32467556 0.17294192 0.18503326 -0.4764861 0.1747613
-0.0047105458 0.14266674 0.4260768 -0.07131438 0.53839797 -0.016414614 -0.13594349 0.10346393
-0.2533704 0.34747624 -0.2016561 -0.12602857 -0.006500238 0.53125834 -1.0751463 0.08189732
0.107335694 -0.11996402 -0.2796154 0.20562068 0.11050538 0.29602763 0.12102175 0.16209915
0.11536694 -0.0556851 0.19199008 -0.23184867 -0.5741219 -0.48905462 -0.28864747 -0.060941722
-0.27773193 0.073611684 -0.011349596 -0.07949378 -0.40973738 0.23975058 0.15091796 -0.21294513
0.07335086 -0.51223916 0.05220158 -0.37297165 -0.54319394 -0.26550683 0.39527205 -0.017172795
0.4703584 0.19062059 -0.024253083 0.18837413 0.031899348 0.41377088 -0.16062795 -0.23773047
-0.27059558 0.11606408 -0.32811838 -0.076985985 0.18058752 -0.5490378 0.12937786 0.4677082
0.026482362 0.38169652 0.2890164 0.088415325 0.07578357 0.057147324 -0.25379035 0.4189702
0.6635386 -0.29139984 0.018689543 0.12615745 -0.10835276 -0.58718115 -0.3439527 -0.08632764
0.011702012 0.10824792 0.40002376 0.32103336 -0.0014571792 0.26538113 -0.78581494 -0.26504755
-0.33648998 0.41801366 0.3386956 0.526036 0.49102893 0.5813246 0.3769119 -0.5824021
-0.668122 -0.6963282 0.059504297 0.013585872 0.4263855 -0.037495438 0.17633948 -0.01009848
-0.9208962 -1.1454009 -1.2098309 0.016990999 -0.027302656 0.32463256 -0.6152121 0.12333624
-0.34998757 -0.51587266 -0.5303211 -1.1271971 0.4549934 0.5873299 0.15436897 -0.39054137

gconvs.2.combination_weights f4 [4, 3]
00000000: 9086 ad3e a852 d53e acfa c83e 097f ad3e
00000010: 0356 d93e fcf4 cb3e 7611 ad3e 5ca8 d63e
00000020: 501a ca3e c212 ae3e bdbe d83e 17eb ca3e
0.33891726 0.41664624 0.39253747 0.33885983 0.42448434 0.39835346 0.33802384 0.41925323
0.394732 0.33998686 0.42333022 0.39632484

gconvs.2.weight f4 [3, 6, 6, 4, 3, 3]
00000000: 711e 26be 11ed 753e ce33 adbd 4ef2 1cbe
00000010: 0592 b0be 8935 533e 3b0f 39be 1e12 3abd
00000020: 3a74 b8be 8402 533e 2c10 343d 46f4 2bbd
00000030: a7d6 d0bd 4ad5 953d 3a45 02bd 7876 fcbc
00000040: d1e1 dd3d 8276 fbbd 89d5 9cbe 624c be3d
00000050: 3397 323e 8d76 2f3f b891 84be 7f6a a4be
00000060: 7ab8 853e 259f 10be ae5b 5e3d e68e b1bd
00000070: f788 fa3d 6627 b33e d9f5 4d3e 9f2b e13e
00000080: ab07 96bb 4695 713e 6f16 07bf c927 04bf
00000090: 6db6 163f 53b2 863e ea9d febe ca4f a8bc
000000a0: 891e d9bd 7466 7fbf 3c4c 98bf c4ce bfbf
000000b0: adfe d4bf 45df 8bbf c421 c5bf 42c5 ffbe
000000c0: 1057 61bf b867 b3bf 9da0 83be 08b8 48bf
000000d0: da0a 73bf 97f5 08bf 9c8f c2bd 847f 463e
000000e0: eef3 4dbc a36a 2ebe 0ad2 bcbc 3ab5 f6bd
000000f0: a670 253e 6ca3 08bf 7e04 f9be 5eb0 0fbf
00000100: 02d2 82be 6f5a d9be 95b3 debd a725 4ebf
00000110: 9f8c 34be 18a8 07bf d08f a7be 228e c8be
00000120: c2fa 023e 4b34 cebe a4b9 4e3c 61f9 813e
00000130: dcc1 0fbe d7e3 4f3d 6656 70be 6735 863e
00000140: e063 f0bd 0ee7 1a3d bf86 6d3e ade7 3abe
00000150: c061 acbd 4578 8ebe aa1b 563e c579 17bf
00000160: e8b0 0d3e 32a2 eb3d a3f5 e4bd e4be f8bd
00000170: d479 f93e 8f5e 893e 682e 8c3d 42be f93e
00000180: da28 033f 244f f8bd cbac 603e c4a0 563e
00000190: ca1b 89be 286f 0bbf 5021 94be dfe5 5a3e
000001a0: bf95 f0be 9247 77be 3dad be3e 9de7 203d
000001b0: 7204 dc3d 1b53 2abe 68c9 803e 47eb 2b3e
000001c0: 2b8a d83e f6d5 633e f118 1d3e 59b4 86be
000001d0: 8423 6a3e 42b6 cbbc c488 75be 5c20 aabe
000001e0: 66d0 ebbd 89d8 05bd bbf8 783e cbc2 1a3f
000001f0: f652 0b3e 910e a43e f21f 10be cb54 d93e
00000200: a109 abbe 404e 803d 83b0 4abe 88ab fa3d
00000210: 1ad3 74be 852a 8c3e aa1d d23e d195 903e
00000220: c57a a53d a847 d9bd 8e6a 04bd fc89 2f3e
00000230: b795 5b3d 5a2a 27be 13b2 373e 90e9 643e
00000240: 9445 e8be 7882 f5bd 073b 3cbe 8248 2b3e
00000250: bc22 1e3e 3d4b 36be b71e 1fbe 3bfa c83d
00000260: bf75 da3d 54f9 a5bd 336f d13e 398f 24be
00000270: 9e27 6d3e 5343 5abe f776 123e 24fe 9f3b
00000280: 7dd0 bb3d 4be8 46be bb39 b7bb 6eb6 e63d
00000290: 300f 403e 4ad6 bc3e c2af b3bd f498 ae3d
000002a0: 823e 78bc ab89 2fbe 1d57 a7be b314 773e
000002b0: e658 7cbe e0f3 6a3e fe34 22be 14cb 8b3e
000002c0: 7e20 153e 6c90 a3bd d22f 2abe ad5e 25be
000002d0: c0e9 53be 2739 36be 30c1 ddbe 9ee5 cfbe
000002e0: dbe6 b6be 01f4 6e3e 2773 713e 7dd1 f23e
000002f0: b26b fa3e 1ff1 e9bd 1fe2 ea3b dc9c cc3d
00000300: a489 d0be a79d a4be c406 a73e c2dc 9ebd
00000310: 6bf8 22be ab1e 0ebe e863 d63e da7c 8abb
00000320: 4362 643e 6d34 903e 4ebb 7fbe 718c 633e
00000330: 67de 0ebf 66a1 163d 33fd e9be 9f7b 4d3e
00000340: 0eb7 2e3e f4e8 f43e e6c1 07be 9f01 7abe
00000350: df40 d53e 9994 1cbe 6dda 903d 2516 c93d
00000360: f223 ca3e d39a d63e 7d13 a13e 8ce8 b03e
00000370: f31b 283e eca7 53be d259 8dbe 1d6d c33e
00000380: 9b4e 393d b5a0 553e 902f c73d e6d2 81be
00000390: 13d2 babd c66a 413e 6af8 f6bd 97a8 e03e
000003a0: 58f3 edbd 1572 b93e ea63 b63d 522b 91be
000003b0: 945a c3bd 24d1 df3e ce1f 8c3e d33a 1c3e
000003c0: 7a42 a33e 36e6 a3be 4b13 6fbe c7c6 b73d
000003d0: 1d6b 9b3e 30c8 6f3e 62ec 47be 29b8 4abb
000003e0: 786c 893d 1b58 c13e 7b07 9e3e b364 fabd
000003f0: 65c4 98be 45c2 42be dbd6 d1be 3e9c a93e
-0.1622255 0.24016215 -0.084571466 -0.15326807 -0.34486404 0.20625891 -0.18072216 -0.045427434
-0.36026174 0.20606428 0.043960735 -0.041981004 -0.10197192 0.07316072 -0.0318043 -0.030818209
0.10834087 -0.12278463 -0.30631664 0.092919126 0.1744049 0.6854027 -0.25892425 -0.321125
0.26117307 -0.14123209 0.05428665 -0.08669834 0.12233155 0.34990996 0.20113315 0.43978593
-0.004578551 0.235921 -0.52768606 -0.5162321 0.5887211 0.26307926 -0.49729854 -0.020545859
-0.10601527 -0.99765706 -1.1898265 -1.4984975 -1.6640221 -1.0927511 -1.540093 -0.49955183
-0.8802347 -1.4016027 -0.25708476 -0.7840581 -0.94938433 -0.5349974 -0.095000476 0.19384581
-0.012570364 -0.17032866 -0.023049373 -0.12046285 0.16156253 -0.5337436 -0.4863624 -0.5612849
-0.25550848 -0.42451808 -0.10874096 -0.805262 -0.17631768 -0.52990866 -0.32726908 -0.3917094
0.12790969 -0.4027427 0.012617502 0.25385574 -0.14038795 0.050754394 -0.23470458 0.26212618
-0.117378 0.037818007 0.23195933 -0.1825244 -0.08417082 -0.27826133 0.2090899 -0.5917018
0.13837016 0.11505546 -0.11179664 -0.121457845 0.4872576 0.26829955 0.06844789 0.48777968
0.5123421 -0.1212447 0.21940915 0.20959765 -0.26779014 -0.54466486 -0.28931665 0.21376751
-0.46989247 -0.24148396 0.37241545 0.039283384 0.107430354 -0.16633265 0.2515366 0.1678897
0.42292914 0.22249588 0.15341546 -0.2630947 0.2286511 -0.02486718 -0.23977953 -0.33227813
-0.11514358 -0.032677207 0.24313633 0.6045348 0.13605866 0.32042363 -0.14074686 0.42447504
-0.33405784 0.06264925 -0.19793896 0.12239748 -0.23908654 0.2737619 0.41038257 0.282393
0.08080057 -0.106093705 -0.03232818 0.1714248 0.053609576 -0.1632475 0.17939024 0.22354722
-0.45365584 -0.119877756 -0.18381892 0.16726878 0.15442938 -0.17802139 -0.1553906 0.09813353
0.106669895 -0.08104196 0.4090515 -0.1607026 0.23159644 -0.21314745 0.14303194 0.004882591
0.09170625 -0.1942455 -0.005591599 0.112652645 0.18755794 0.3688224 -0.087737575 0.08525267
-0.015151622 -0.1714236 -0.3268365 0.2412899 -0.24643287 0.22944593 -0.15840527 0.27303374
0.14563176 -0.07986531 -0.16619805 -0.16149397 -0.20694637 -0.1779524 -0.43311453 -0.40604872
-0.35723004 0.23335268 0.23579083 0.47425452 0.4891029 -0.11422943 0.007168069 0.09990856
-0.4073001 -0.3215153 0.3262235 -0.0775695 -0.15915076 -0.13878886 0.41873097 -0.0042263092
0.22303109 0.28164998 -0.24973795 0.22221543 -0.5580811 0.036775015 -0.45700988 0.20066689
0.17062017 0.4783398 -0.1325756 -0.24414681 0.41651055 -0.1529106 0.070729114 0.09818677
0.3948055 0.41914997 0.3146018 0.3455242 0.16416912 -0.20669526 -0.2760759 0.38169184
0.04524098 0.20862086 0.09725869 -0.25356215 -0.091221 0.18888387 -0.120591 0.43878624
-0.1161868 0.3621985 0.08905776 -0.28353363 -0.09538761 0.4371425 0.27368015 0.15256815
0.31886655 -0.32011575 -0.23347203 0.08973461 0.30355158 0.23416209 -0.19523767 -0.0030932522
0.06710142 0.37762532 0.30865082 -0.12226238 -0.29837337 -0.1901942 -0.40984234 0.33127016

gconvs.3.combination_weights f4 [4, 3]
00000000: b397 db3e 8057 df3e 8ca8 a03e 8378 da3e
00000010: 9c05 dc3e b9c8 9f3e a0f5 db3e 74a9 de3e
00000020: 7365 a03e b14e d73e 3d5f dc3e 7af5 9f3e
0.42889175 0.43621445 0.3137859 0.42670068 0.4297303 0.31207827 0.42960835 0.43488657
0.313274 0.42052224 0.4304141 0.3124197

gconvs.3.weight f4 [3, 6, 6, 4, 3, 3]
00000000: 0f1c 083e ed23 b53e 7ddd 99bc 6791 83be
00000010: d9e5 97be 4be5 17bf 84c9 b83e b57f f4bb
00000020: 1153 f83d bc40 38bd 8862 d0be 4c5a d0be
00000030: 1a68 fdbe 593b 9c3d e306 92bd 4ac4 f7bc
00000040: 545a 053f 84e5 c13e 33f3 183e 1c7d e03e
00000050: fada 43be c473 613e c230 2dbe 8505 09be
00000060: 4c07 d4be 0ba0 04be 42ac 3bbe 38e0 0a3f
00000070: 303e e73e af08 223e dc0d 503d 6708 103e
00000080: 60e3 69bd 025b 02bf 5d16 c4be d8b9 c9be
00000090: 53fb 823e 6a88 6c3d 3db3 68be f53d 28bd
000000a0: e54a 61be e655 1cbf a1a1 dabd 7c25 10bf
000000b0: 81d2 c2be 0395 20bf c4e0 10bf c4f1 41bd
000000c0: f01d a13c 5cd6 9fbe 6dee 91be ada0 fbbd
000000d0: 1477 bb3d f66c 4bbe 0ff6 4f3e 49cc a4be
000000e0: 89ae 0bbf d40e cbbe 4a7f 2fbe b0f9 f63d
000000f0: 9242 bbbe b47d 1dbe bbae a83e 9d13 353e
00000100: fa76 9cbe 3050 97be 5e24 9ebe b5f9 943e
00000110: 506a 013e 8a8d 8abe 47be cebe f304 9abd
00000120: da36 fe3e cbf1 0c3e 8250 9cbe b0a0 163e
00000130: ccb9 60be bfae 4ebe 8972 953e 8658 703e
00000140: 6a71 963e b855 023f 040f 873d dcdc 443e
00000150: 785b c93e 95fc ca3e 1cfc 12be 8244 07be
00000160: aca4 c2be 8db2 b6be 98ad 82be 9516 333e
00000170: 7b3a 9b3d d5c2 41be e69b 8d3c 59a8 0bbe
00000180: 335b 0fbe e040 0c3e ac4a b1bd 5313 c5be
00000190: 4a69 8a3c c7e5 95be 8f06 8cbc 70bf d63c
000001a0: d22e cabe 999c 403e ba37 82bd 5a08 99be
000001b0: 001e 7bbe bc91 d43d 3ef4 c9be 148e c8bd
000001c0: d0d5 aabb 6b58 92be 1b4e 373d f9eb 9bbd
000001d0: 1389 babe 3b71 3d3e b422 8bbe 4286 ca3e
000001e0: 4e8f 73bd e034 72bd b93c a33e e573 c5be
000001f0: 194b d23c 18ca d3be e906 853e 5212 f13e
00000200: 7017 ebbc 4aa3 103e b2fe 503e a3f8 473e
00000210: 6277 aebe eff7 dcbe f1fe 99be 2fbd 50bd
00000220: 0d41 f1be f5f1 dabe 197f fabe 9092 403e
00000230: c6e1 173d 1c10 753e c644 d4bd 9a25 20be
00000240: be24 183e 20c9 8cbd abac 903e 8e38 9b3a
00000250: 4c2f 2dbe 2be4 863c 6891 853d f9f4 f83e
00000260: 948c 6fbd a01d 8cbe 60f8 e8be 468b 3b3e
00000270: 3613 84be a73f a9be c4ed d1bd da94 113e
00000280: 2b43 d83e 2a3d 2b3f 0657 ccbc 0ebe acbe
00000290: 954d 0dbd 4de4 c0be 00d4 c83d c2e1 06bf
000002a0: 09ba 20bf ed51 f63d 7b0a e23c 1459 e8be
000002b0: 9586 26be 8d3b 773e f9e8 af3e 217e d53d
000002c0: 5b7e 033f 1f6a febe 0222 cabd 67a4 f43c
000002d0: ee6c 7fbd b71a 10bf f2a7 5f3e d947 5f3d
000002e0: 5448 eb3e 4d4a 5f3f 5b2c 9d3e 909f c43e
000002f0: 4383 9fbe c2f5 d3be a17d babe a17e 30bf
00000300: ba0b a9be 09db 5a3e eb23 2dbf 8492 083e
00000310: cf8f a4bc 842d a3be 7bb4 cd3d 76bf acbe
00000320: 1d79 eb3e f139 6dbe c405 e1bd 990c 9b3d
00000330: d298 8cbf 005d c5be 4ccf 153e 7bc6 ab3e
00000340: b3ba 25bf 245c 1dbf f567 403e 7b6e ccbe
00000350: 4a32 0ebf dfa1 493e dc5d 0d3e f1e8 52bf
00000360: 70e6 f6bd 36f5 00be f7e0 173e 38c9 03be
00000370: 22b7 783e 8d7f 6cbe aeca a63e bfe8 f73e
00000380: 36ed 31be ff44 b9be f8d2 1cbe fd3c fabd
00000390: b668 85bd 0046 b13c afa1 99be e8f5 5a3e
000003a0: cedb 39bd 8433 2ebd 1538 f63e 8f91 2e3e
000003b0: 0366 2dbe d0ac ec3e a1a1 8fbe 655b 9a3d
000003c0: 3cb4 e03e 9112 dd3d e660 fd3d 2dda 81be
000003d0: ae58 31bd bd83 013f dcea e8bd 26cc a53e
000003e0: 76e2 253e 40c4 e6be 5884 613e 8ab7 a9be
000003f0: c14c 043e dac5 7abe 723d 713d f412 14bd
0.13291954 0.35378972 -0.018782372 -0.2569687 -0.29667547 -0.5933425 0.36091244 -0.007461513
0.12125219 -0.04498361 -0.40700173 -0.4069389 -0.49493486 0.07628507 -0.0713022 -0.030244965
0.52090955 0.3787042 0.14936523 0.4384545 -0.19126502 0.22016817 -0.16913131 -0.13381012
-0.41411817 -0.12951677 -0.1832743 0.5424838 0.45164633 0.15823625 0.050794467 0.14065705
-0.057101607 -0.50920117 -0.38298312 -0.393996 0.2558237 0.057747282 -0.22724624 -0.04107471
-0.22001226 -0.6106857 -0.106753595 -0.56307197 -0.38051227 -0.62727374 -0.56592965 -0.047349706
0.019667596 -0.3121823 -0.28502217 -0.12286506 0.09153572 -0.19865784 0.20308708 -0.32187107
-0.54563195 -0.3965975 -0.171384 0.12059343 -0.36574227 -0.15379983 0.3294581 0.17683263
-0.30559522 -0.29553366 -0.3088712 0.2909676 0.12638211 -0.2706111 -0.40379545 -0.07520475
0.49651223 0.13764112 -0.30530173 0.14709735 -0.21945876 -0.20183848 0.29188946 0.23471269
0.29383403 0.50912046 0.06594661 0.19224876 0.39327598 0.3964583 -0.14353985 -0.13209727
-0.3801626 -0.35683098 -0.25523067 0.17489083 0.07579514 -0.18921979 0.017286252 -0.13638438
-0.13999633 0.13696623 -0.08656821 -0.38491306 0.016895909 -0.2927687 -0.017092971 0.026214331
-0.39488846 0.18809737 -0.06358285 -0.29889184 -0.24523163 0.10379359 -0.39444155 -0.09792724
-0.0052134767 -0.28583083 0.04475222 -0.076133676 -0.36432704 0.18500225 -0.27174914 0.39555556
-0.059462838 -0.059132457 0.31882265 -0.38564983 0.025670575 -0.41365123 0.25981835 0.4708429
-0.0286977 0.1412479 0.20409659 0.19528441 -0.34075457 -0.43157908 -0.30077317 -0.05096167
-0.47119942 -0.42762724 -0.48925093 0.18805909 0.03708055 0.23931926 -0.1036468 -0.15639344
0.14857766 -0.06874299 0.28256735 0.0011842416 -0.16912574 0.01646622 0.06521875 0.486244
-0.058483675 -0.27366352 -0.45501995 0.18314847 -0.25795907 -0.33056375 -0.10250428 0.14216939
0.42238745 0.66890204 -0.02494384 -0.3373875 -0.034497816 -0.3767418 0.09806061 -0.5268823
-0.6278387 0.12027345 0.027592888 -0.4538046 -0.16262276 0.2414381 0.34357432 0.10424448
0.5136468 -0.4969034 -0.09869768 0.02986355 -0.062359743 -0.56290764 0.2184141 0.05451188
0.4595362 0.8722275 0.30697903 0.38402987 -0.31154832 -0.41398436 -0.36423972 -0.6894322
-0.3301676 0.21372618 -0.6763293 0.13337141 -0.020088105 -0.31870663 0.100441895 -0.33739823
0.4599084 -0.23166634 -0.10987428 0.07570762 -1.0984137 -0.38547516 0.14629859 0.33549866
-0.64738005 -0.6146872 0.18789656 -0.3992804 -0.55545485 0.19690655 0.13805336 -0.8238669
-0.12055671 -0.1259354 0.14831911 -0.12869728 0.2428861 -0.23095532 0.32576507 0.4841976
-0.17375645 -0.36185452 -0.15314853 -0.12218664 -0.06514113 0.021639824 -0.30006167 0.21382868
-0.045375638 -0.042529598 0.48089662 0.17047714 -0.16933446 0.46225595 -0.28053 0.075369634
0.43887508 0.10794557 0.123719975 -0.25361767 -0.043297462 0.5059164 -0.11372921 0.32382315
0.16199669 -0.45071602 0.22023141 -0.33147842 0.12919904 -0.24489537 0.05889649 -0.036150888

gconvs.4.combination_weights f4 [4, 3]
00000000: d4d0 e43e 7c72 bc3e 467b bb3e a8c4 e33e
00000010: ce15 bd3e 75c8 bb3e aec4 e53e 8a84 bc3e
00000020: 39e9 bc3e 588f e63e 84f1 bc3e 99d1 ba3e
0.44690573 0.36806095 0.36617488 0.44485974 0.36930698 0.36676374 0.44876617 0.3681987
0.36896685 0.45031238 0.36903012 0.36488035

gconvs.4.weight f4 [3, 6, 6, 4, 3, 3]
00000000: 1b90 563e ff1b 3c3e e055 c13e 2008 073e
00000010: 6a1a dfbd 1c30 723e 2c62 f33d aff6 21bd
00000020: 382b b7be 3f10 8e3e b70c 823e 7e5e 143e
00000030: 8d21 d73e 81e2 683e c043 dc3e 7d36 debd
00000040: dbf9 0ebe fcaa cdbc 435d 1dbe bcbd 9dbe
00000050: 3fe2 50be d371 283d 59e9 1cbf 3f64 f9be
00000060: 884b 663e fb45 6cbe 11c0 d1be 0358 a8be
00000070: 7d96 00be 5069 00bc ddda 8fbd 2556 b9be
00000080: 4ab8 d9bd 4509 003f 44fc c8be 9022 a9be
00000090: a5cb b3be 614a a6be cb3b c93e 7a5d 29bd
000000a0: 4614 b8be 7d12 3e3e e3af bebd 49e1 cb3d
000000b0: 41f7 253d 1769 ef3d 704c bdbe 654d 483d
000000c0: f8ac e13d dd40 ae3e 70fd 9b3e a381 b93c
000000d0: d54b 83bd c888 e7be 10b3 513e 9056 b73d
000000e0: 8822 81bc acbe 01be d07f 13be 6f29 443d
000000f0: 0743 cf3e 4e18 033d b1b1 b03e 26ac 41be
00000100: c64c 52bf 81e0 81be 34bb c43e 73a7 c0be
00000110: d7ec b33d 231f 923e b7a5 f0be 480f bdbe
00000120: d249 4cbe f04a f8bb 18f0 923e 5eec 46be
00000130: 1826 953e 7949 1c3e 57db 24bc 7bc6 d53e
00000140: 746b 743e d25a babd b745 e03e ac15 c8be
00000150: 1fbc e83c 8f20 79be 62d7 0e3d ba69 2fbe
00000160: f12f 71be 6617 47be 7423 cc3d a091 8d3e
00000170: 29aa 5b3d d4d3 8abc fbf9 9c3b 928a 953e
00000180: 147b 42bc 9fcc 67be a7bf 64be c32f 4d3d
00000190: c0b6 8ebe 2cc7 0dbe a8c9 e6be 3e52 a7be
000001a0: 234b 7e3e 9029 ad3e 479e f0be 6588 d4be
000001b0: 7733 61be 86eb 033e f826 713e 7a5e 77bd
000001c0: 07e3 22bf 5300 45be 52b0 bdbe 7ee0 51be
000001d0: e34b 6ebe de81 b1bd b083 f73c 3c63 22be
000001e0: 42c2 a33e df70 bfbe 1e78 6fbe b1c9 d43d
000001f0: 20f7 5e3e 1ac2 afbe 00de e73d 5f10 793e
00000200: 0446 92be 7c04 2dbc 7851 2bbe 4461 8b3e
00000210: 8bc3 693e 926c a53e 2dc9 c6be cb1a d23e
00000220: a885 a83c 3539 00bf d129 cabe 62e8 11bf
00000230: adfb 8cbe 9c39 9fbe 7c2d 10bf 9dea 3b3e
00000240: 976e 03be a010 c4be 0a1d 33be d3a9 ae3e
00000250: eaf4 7cbe e5a7 a8be 3531 0a3e a3b7 283e
00000260: 6658 06bf 3643 0cbd 1956 1c3d 356f 3cbe
00000270: 5df1 e73d 70ce d8be 9918 75be eadf 31bf
00000280: cb98 38bf d9de e83e 0441 4fbe f057 943d
00000290: 3a26 93bc 4788 473e f091 9f3c 4bbc 14bf
000002a0: b192 ba3d 7998 5fbe 12b3 49bf cb74 b93e
000002b0: 0985 8b3e 7179 613e 3fd7 abbd cfa0 d1be
000002c0: 6bb0 9fbb 5727 02bd c66f e5be 6d3a c2bd
000002d0: d46a 033e 8fcb 93be a884 a33d 7e57 90be
000002e0: 6294 8f3e 0211 b03d f2ba 06bf e15a 1f3e
000002f0: b532 9bbd da12 e0bc 181a f33d 0243 893e
00000300: 2b9e cfbd c12d a5bd b4de 93be 663c b9bd
00000310: e2d6 06bf 6f85 ce3d 139d afbe 7de8 3e3e
00000320: 229f adbe 6f43 443b bdde 7bbe 89a8 a8be
00000330: 8a2d 8d3d 96f4 a73e 1984 e43e 24ea 93be
00000340: 04d9 dcbe 4d08 2abe 2b31 a1bd 3bf3 9c3e
00000350: 150e f3be 923b a53e 67e7 aabd ed8b e6be
00000360: 39bf 023e a9b3 84be dda4 013f ae71 b83e
00000370: af31 d93d f5bf 02be f226 3fbe 5d9e 1ebf
00000380: e3d5 94be 8700 913e 6d0e 18be 4f3d cbbe
00000390: 225b f5be 2985 e63e b864 76be ebef f53d
000003a0: 956f 64be db9d 123e 8eb6 b1be 2b48 31be
000003b0: 4274 ccbe cc9e 8b3e ac6e 6d3e 4e93 a7be
000003c0: 60a5 ea3e e2ec 59be 60fc babd b9c0 16bf
000003d0: 0516 bcbe a9a9 683e 5dac 70be b5d7 043e
000003e0: 6199 babe 2f4b 1cba c473 763e fa96 e6be
000003f0: c74a 8f3d b936 52be d875 093f 4f65 883d
0.2095341 0.18370055 0.3776083 0.13186693 -0.1089371 0.23651165 0.11883959 -0.039541896
-0.3577516 0.2774677 0.25400326 0.14489171 0.42017785 0.22742654 0.4302044 -0.108502366
-0.139625 -0.025105946 -0.15367608 -0.30808818 -0.20398806 0.041124176 -0.6129356 -0.48709294
0.2248975 -0.2307357 -0.40966848 -0.32879648 -0.12557407 -0.007837608 -0.07024167 -0.36198536
-0.106308535 0.50014144 -0.39254963 -0.33034182 -0.35116306 -0.32478622 0.3930343 -0.04134891
-0.35952967 0.1856174 -0.093108915 0.09955079 0.040519003 0.11689966 -0.3697238 0.048901934
0.11019319 0.34033862 0.30466795 0.022644823 -0.06410948 -0.45221543 0.20478463 0.08952057
-0.015763536 -0.12670392 -0.14404225 0.047891077 0.40480825 0.0320056 0.34510568 -0.18913326
-0.82148397 -0.25366595 0.38424075 -0.37627754 0.08785408 0.2853938 -0.4700143 -0.3692572
-0.19950035 -0.0075772926 0.28698802 -0.19426104 0.29130626 0.15262403 -0.01006206 0.4175299
0.23869115 -0.09099354 0.43803188 -0.39079034 0.028410016 -0.24328826 0.034873374 -0.17130175
-0.23553444 -0.1944252 0.099677 0.27650166 0.053629074 -0.01694671 0.004790542 0.29207283
-0.011870164 -0.2263665 -0.22338735 0.050094377 -0.27873802 -0.1384551 -0.45075727 -0.32679933
0.2483335 0.33820772 -0.46995756 -0.4151031 -0.21992289 0.12882814 0.23550022 -0.060392834
-0.63627666 -0.19238405 -0.37048584 -0.20495793 -0.23271136 -0.08667348 0.03021416 -0.15858167
0.31984144 -0.373908 -0.23385665 0.10390032 0.21773958 -0.34327775 0.1132164 0.24322651
-0.28569043 -0.010560151 -0.16730297 0.27222645 0.228285 0.32309395 -0.3882536 0.41036066
0.020571545 -0.5008729 -0.39485028 -0.56995213 -0.27535763 -0.3109864 -0.56319404 0.18351217
-0.12835155 -0.38293934 -0.17491546 0.3411394 -0.24702802 -0.32940593 0.13495333 0.16476302
-0.52478635 -0.034243785 0.038168047 -0.18401797 0.11325333 -0.42345 -0.23935165 -0.6948229
-0.72108144 0.4548252 -0.20239645 0.07243335 -0.017962564 0.1948558 0.019478768 -0.5809981
0.091100104 -0.21835507 -0.78788865 0.36221918 0.27249935 0.22018982 -0.08390664 -0.40943
-0.0048733256 -0.0317758 -0.4481184 -0.094838 0.1283372 -0.2886624 0.079842865 -0.2819175
0.28042895 0.08596994 -0.52629006 0.15562011 -0.07578031 -0.02735274 0.11870211 0.26808935
-0.1013759 -0.080653675 -0.28880847 -0.09044723 -0.52671635 0.10084044 -0.34299526 0.18643375
-0.3391047 0.002994742 -0.24596687 -0.32941082 0.068934515 0.32803792 0.44632033 -0.28889573
-0.4313432 -0.16604729 -0.07870706 0.3065432 -0.4747168 0.3227201 -0.08344918 -0.4502863
0.12768258 -0.2591832 0.50642186 0.3602423 0.106051795 -0.12768538 -0.186672 -0.61960393
-0.29069433 0.28320715 -0.14849253 -0.39695212 -0.4792109 0.45023468 -0.24061859 0.12008651
-0.2230819 0.1431803 -0.3470959 -0.17312686 -0.39932448 0.2726959 0.23186749 -0.32729572
0.45829296 -0.2128177 -0.09130168 -0.5888782 -0.3673555 0.2272097 -0.23503251 0.1297291
-0.36445144 -0.0005962131 0.24067599 -0.4503706 0.069966845 -0.20528688 0.5369544 0.06659948

gconvs.5.combination_weights f4 [4, 3]
00000000: cf57 ee3e cb0d df3e f9d1 b03e 5303 ed3e
00000010: 4b1f df3e 1a8f b03e d49f ee3e f471 df3e
00000020: 703a b13e 8bb3 ec3e 8521 df3e 9715 b13e
0.46551368 0.4356521 0.34535196 0.462916 0.43578562 0.34484178 0.46606314 0.43641627
0.34614897 0.4623073 0.4358026 0.34586784

gconvs.5.weight f4 [3, 6, 6, 4, 3, 3]
00000000: c91f 1dbf a11b 10bf bf7b 10be 5cea 5bbe
00000010: 23a4 963d 66c5 963e 4b44 4bbe a270 90be
00000020: 8954 e1be bc02 06bd 8e23 243e 8530 c5be
00000030: b772 d3bc ed04 1e3e a0a1 983d 2031 963d
00000040: abe4 8abe dae6 21be 8d53 363e e246 c9be
00000050: 2791 35bc e8a1 323a 2aa2 dbbe 03ee 71be
00000060: f91c debe 19d7 02bf 8e31 bbbe 5fcc d5be
00000070: afd2 d8bd 4851 71bc 70b2 adbe fad5 e63d
00000080: f112 9fbd 0fdf 473e a0c1 173e 587b 2cbe
00000090: ecf8 b4bc 81e7 fc3d dcd4 f73c 7bf4 82be
000000a0: 977b 8dbd e93f 36be 3159 34bf da2b b13d
000000b0: a67d ba3d 4f20 93be 30ef a5be f41c b23c
000000c0: ef50 773e e3ba 57bd d251 9d3e e991 eebe
000000d0: d829 d1bd 7250 bbbe f6b0 82be 0368 c9bd
000000e0: 8205 99be 8698 823c 88db 3cbe cc0a 93be
000000f0: 73a8 7cbe 3f24 fbbd ea8d a9be 1954 c53c
00000100: 531b eebd 8033 ac3d 6312 343c 4f1c b4be
00000110: c7e8 523e facc 51be 49a1 6bbe d19d 94be
00000120: 6188 363e c5af 9abe b782 f2be ee77 6e3e
00000130: fb38 d4bd d97b 82be 40b4 973e d89b 09be
00000140: 2aef 0dbf 21f9 95be 2c64 303e b8c0 39be
00000150: a511 813d b4ab 733e 44fe d7be 4283 ca3d
00000160: 8c08 023e 61b6 b5bd d08f e63b 612d 6dbe
00000170: 7fe5 363d 08d6 c1be 38d5 48be 445d d73e
00000180: 7ae1 44bf dfc6 79bd f9fd f8bc 08e3 09be
00000190: ddb5 043f c46e c13d 2bc5 d63d 756b 4c3e
000001a0: bfa2 d53e 1e27 01bf 3658 cf3e 6692 f33d
000001b0: e1fa a33e 1586 7cbe 9027 6dbe 2d73 5cbd
000001c0: a89d 893e 2f42 e1be 260c 1f3f f29b 87be
000001d0: e26d e5bb e2ce 1f3f a8b3 ba3d 9b0a 203e
000001e0: d2a1 9fbd e329 28bd 3367 a93e b845 8b3e
000001f0: 5bdf 5ebe 9fb1 14be 6811 a9be 9fa7 4dbd
00000200: 0f86 04be a00e 423e ec55 333f cfda f63e
00000210: d5c8 ad3b 6970 843e f2ca 1fbd f482 973e
00000220: 3046 043f aba3 ec3e 6080 f83e 4ec8 0f3f
00000230: f067 5bbd 9c7a b83e ab2b 863d 5efe 0a3f
00000240: 3eff 493e 7222 673e baf2 07bf 2fbf d3be
00000250: b805 bf3d 48b3 a6be a656 dabe 3f16 603e
00000260: 1761 363d 39dc 76bd ca7b 71be def6 913e
00000270: 86d5 2cbf 95d8 2cbf 3fc6 a1be e2f3 d83b
00000280: 7037 31be 11d1 0fbe 4ee7 08be 34b7 823e
00000290: 9a3e aebe 9198 3bbe 168e 88be deca 6e3e
000002a0: ce57 323e be12 ad3e 3672 ae3e 9102 573e
000002b0: 15b8 083f 4923 923e c9a5 aebc 9a18 aebe
000002c0: 25f9 a0be 09da 7b3e 7491 c7be 830a a1bd
000002d0: 20f5 66bd 135d 47be 0f49 18be 17ba 17bf
000002e0: ac78 e9be 97b7 5fbe 050b 5abe e48e 6dbf
000002f0: 339a 1abf becb 26be 84ea c9be 8e3a f33d
00000300: 0788 8ebe ee04 94be 9134 ac3d 89e9 7dbe
00000310: d74e c63e 18aa d1bc 921a f0be 87dc 28bf
00000320: 8ac2 19bf 4e8f dd3b 5feb 5fbd e9b0 d8bd
00000330: 1b6a 9dbe 942f 433e bc70 cd3e 1504 2fbe
00000340: f07d 72be 6b9f 46be b17b 80be 59b5 173d
00000350: 4edf a13e 2cec 17bf 8177 c0be 2212 09bf
00000360: dfd7 b1be 5d50 ecbe e270 fdbd d277 303e
00000370: 0430 fabe 33cb 01be 8613 88bd 1439 af3d
00000380: 3e52 c6be f0eb 19bf 9198 3abd dbc0 36be
00000390: 5587 5abe 94cb 433d b6ed 09be bbc2 e9bd
000003a0: f846 523c 34b3 94be 5e80 b13c b81d c6be
000003b0: 25af c3be 435d dc3d ad00 35bf 9d89 5ebd
000003c0: 7306 5cbf 9a70 79bd 8ae1 16be 1960 8cbe
000003d0: ba77 b13c 350e acbe ec5c f4bc 0c9b 01bf
000003e0: 539c bebe 50b6 d5be 74f4 46be c391 63be
000003f0: 2e7d eebe b5e7 e1be de16 90be abdd 97bb
-0.61376625 -0.5629216 -0.14109705 -0.2147612 0.07355525 0.29447478 -0.1985027 -0.28210932
-0.44009808 -0.03271745 0.16029188 -0.3851358 -0.025811536 0.15431567 0.074527025 0.073335886
-0.27127585 -0.15810719 0.1780531 -0.39311892 -0.01108197 0.0006814287 -0.4289716 -0.2362595
-0.4338148 -0.5110946 -0.36561245 -0.41757485 -0.1058706 -0.014728852 -0.339252 0.112712815
-0.07767285 0.19518684 0.14819956 -0.16843927 -0.022091351 0.12348843 0.030252866 -0.2557715
-0.069083385 -0.17797817 -0.70448595 0.08650942 0.09105997 -0.28735587 -0.32409048 0.021742322
0.24151967 -0.052668463 0.30726486 -0.46595696 -0.10213059 -0.36584812 -0.25525635 -0.09834292
-0.29887015 0.01594187 -0.1844312 -0.28719175 -0.24673633 -0.12262773 -0.33116084 0.024087952
-0.116263054 0.0840826 0.010990712 -0.35177848 0.2059661 -0.20488349 -0.23010744 -0.29026654
0.17825462 -0.30212227 -0.47365353 0.23287937 -0.10362431 -0.25485113 0.29629707 -0.13438356
-0.5544306 -0.29291633 0.17225713 -0.18139923 0.063021936 0.23795968 -0.42186177 0.09888317
0.12698573 -0.08872677 0.0070361868 -0.23161842 0.04465246 -0.37858605 -0.19612586 0.42063344
-0.7690655 -0.060980674 -0.030394541 -0.13465512 0.5184 0.09444955 0.104868256 0.19962867
0.41725728 -0.50450313 0.40496987 0.11893158 0.32027343 -0.24660523 -0.23159623 -0.053820778
0.26878095 -0.43995807 0.6212791 -0.26486164 -0.0070016244 0.62425053 0.09116298 0.15629046
-0.07794537 -0.04105557 0.33086547 0.2720163 -0.21764891 -0.14520882 -0.33021092 -0.050208684
-0.12941764 0.18950891 0.7005298 0.48213813 0.005303482 0.25867012 -0.039011903 0.29592097
0.516696 0.4621862 0.48535442 0.56165016 -0.05356592 0.36031044 0.06551298 0.54294384
0.19726273 0.22571734 -0.53104746 -0.413568 0.09327263 -0.32558656 -0.42644233 0.21883486
0.044526186 -0.060268614 -0.23582378 0.28508657 -0.6751331 -0.6751798 -0.31596562 0.00662087
-0.17306304 -0.14044596 -0.13369486 0.25530398 -0.34032136 -0.18319918 -0.26670903 0.23319575
0.17416307 0.33803362 0.3407151 0.20997073 0.53405887 0.28542545 -0.021319287 -0.34003145
-0.31440082 0.24594893 -0.3897816 -0.07863333 -0.056386113 -0.19469099 -0.1487162 -0.59268326
-0.45599878 -0.21847378 -0.21293266 -0.9279616 -0.6039154 -0.16288659 -0.39436734 0.11876403
-0.27838156 -0.2891001 0.08408464 -0.24796118 0.38732025 -0.025593802 -0.46895272 -0.659615
-0.6006247 0.006761468 -0.054667827 -0.10580618 -0.30745015 0.19061118 0.40125072 -0.17091401
-0.23680854 -0.1939675 -0.2509437 0.03703818 0.3161568 -0.59344745 -0.37591174 -0.53543293
-0.3473501 -0.46155062 -0.12375046 0.17233208 -0.48864758 -0.1267517 -0.06644349 0.08555809
-0.3873462 -0.6012564 -0.045555655 -0.17847006 -0.21340688 0.04780157 -0.13469586 -0.11414095
0.012834303 -0.2904297 0.021667656 -0.3869455 -0.38219562 0.10759976 -0.70704156 -0.054330457
-0.8594734 -0.0608984 -0.14734474 -0.27417067 0.021663535 -0.3360459 -0.029829465 -0.5062721
-0.3722864 -0.41740656 -0.19429189 -0.22223572 -0.4657988 -0.4412209 -0.28142446 -0.004634579

final_layer.combination_weights f4 [4, 3]
00000000: f0d0 083f 8002 983e 7bac db3e beb5 083f
00000010: 742a 983e bf99 db3e 15d5 083f 6ef9 973e
00000020: 138a db3e 90b0 083f bcee 973e 65b2 db3e
0.53443813 0.29689407 0.4290503 0.53402317 0.2971989 0.42890736 0.5345014 0.29682487
0.4287878 0.53394413 0.29674327 0.42909542

final_layer.weight f4 [3, 6, 6, 4, 3, 3]
00000000: e8b4 ef3d 74c1 953e 0092 01be a2ff 2d3e
00000010: 81aa 7a3e b715 b93d ea3d d43e f46a 8bbd
00000020: afde e03e f404 b2bc 79bc 4b3e 10ba b23e
00000030: 38b2 a6be 477c bd3e 3e28 c33e a0a2 c63d
00000040: b75d 5dbe e07b 433e 5c51 83be 47e3 57bd
00000050: 8e5a a1be f45a 85be e740 323e 6cd9 a7bd
00000060: 7c56 91be 7d5c bc3e 7413 c03e 3105 2e3e
00000070: 9d34 e13e 75f1 94bd 231a 333e b053 e73e
00000080: 294a d83d f41b 24be 9c9c c93e 18e4 15be
00000090: f9de 8e3e 6d49 25be 6043 6a3e 6c50 cd3e
000000a0: d655 adbe e763 463e d6f1 9b3e 4a0b 8c3e
000000b0: 1189 a13e 76e4 213e 5757 a73d 2428 07be
000000c0: 9afd a9bc 16ff abbe dc97 1abe 62a1 92be
000000d0: de6e b83d 41f2 cb3e 1df5 93be 98b7 3a3e
000000e0: 6753 bf3e f460 b1be bce6 ab3e 79eb 883d
000000f0: 3306 c03e bb50 d63c a969 ad3e 7d37 8b3e
00000100: f5d2 a1bd 983d f9bc b9f1 d2bd f73b 313e
00000110: 1c0b 703c e580 333e 2c26 50be 3d1b dabd
00000120: f46e e4be 2058 f63d 8028 06bd 7bbd 96be
00000130: 3af0 9dbe 6202 643d 256e debc de6c bd3b
00000140: 786b e6be dc1d b0be 224d 9abe 44a9 49be
00000150: 0878 fcbe f355 04bf f380 75be 6ea8 95be
00000160: e43b 09bf 64e6 04bf 9542 44bd cf9a a8be
00000170: 1beb e4be 2e63 19bf c12f 10bf bcb3 14bf
00000180: 7788 b2bd fb54 d33d 7397 213e f5d9 4fbe
00000190: 77ba 9abe 9099 123e 4925 a6be b68c a1be
000001a0: 0933 db3d df68 133e 35bc c0be fbd4 023e
000001b0: 46c6 18be 2978 87be 620e b0be b611 87be
000001c0: cb09 0ebf 0d22 80be 3935 b9bd c6a1 afbc
000001d0: 677f 8bbd 8df2 cebe 8ed3 abbe b452 133e
000001e0: defb dfbe fdc7 bbbe 33fe 903e 4bc7 f3be
000001f0: 8a77 22bd 1f9b 053d 95be 0d3c 530e e6be
00000200: 3846 1c3e 8e45 aabe a30f 03bf 73c3 673e
00000210: b934 b1be d910 1bbe 2fc7 f2be 8917 5dbd
00000220: 7c43 5fbe ae2f f13d d41f b7be 7b03 ef3d
00000230: 1a99 66be be15 e83d c6e7 b73a 9cdc b4be
00000240: e39d 0fbe 3d73 9fbe 3599 d03e 9ba2 d43e
00000250: 41cf 853e 8b96 62be ede8 9c3e 56f0 25be
00000260: 5283 403e a43d 73be 744f 9f3e c281 83be
00000270: 06fb 90be e250 c93e c125 ac3e 9690 3d3e
00000280: e69e df3d ec1e 9dbe 0457 873e 9e8b 4d3e
00000290: 7e83 353e 78c7 8a3e b5e2 603e 6c3f b23e
000002a0: 3c32 8d3e 1931 aa3d 0549 dd3e 06d8 8d3e
000002b0: 69c2 d63e f3e1 273e 9e6d 623e 224a 033f
000002c0: b34a 933e 9feb 09be ab21 9e3e aafe 3fbd
000002d0: 0862 04bd 294f 2dbe af39 b8bd 0bae d8be
000002e0: a6a0 d6be 7da9 8d3e fe69 17be 7af3 f4bd
000002f0: d5c2 603d 2b9b 543e 5e63 f5bd db28 ae3d
00000300: dba2 643c 0a38 d5be e145 95bd 2aba 573e
00000310: aaad 0f3e ee6a ec3d 5cc6 3abe 5d2c 7e3e
00000320: d6bc 653e fc04 4ebe f34f 6e3e 06e8 aebd
00000330: d583 01be 9abe 7cbe 92b9 cfbe d565 05be
00000340: 869c 1f3e 5330 f6bd fa40 cbbe 903a 8abe
00000350: 74cf b63c 4fde 81be 57fe 59be 07fc 523e
00000360: fc77 f93e 7d52 a23e 3e4b 3c3e 503f 993e
00000370: 66ad 6b3e 3ff4 b9bd e20c 7b3e 5797 23be
00000380: b12f a03e c9b8 8b3e 77fd 74be 53db 803e
00000390: 873f a93e 1526 b33e 918e 36be e8cf 053f
000003a0: 6efd 9e3e 9da0 46be ec74 dc3e d8b8 36be
000003b0: afec c83d 6b25 6e3e a4ff dd3e ceb4 8d3e
000003c0: e8ea b73d c10c c7bb 8ccc 093d 9b89 ba3e
000003d0: 3788 e23e 2b5c c93e 9a3f 963e 4d50 01be
000003e0: 5ac0 ee3e 8dfa 9a3e 2e02 6e3e 508f a83e
000003f0: cfc5 8abe 8e0c 783d e9e0 cdbe eba1 353e
0.11704427 0.29249156 -0.12653351 0.16992047 0.24479105 0.09037345 0.41453487 -0.06807509
0.43919894 -0.021730877 0.19896115 0.3490758 -0.32557845 0.3700888 0.3811664 0.09698987
-0.2161778 0.19090223 -0.2564801 -0.052706983 -0.315144 -0.26045954 0.17407571 -0.08195767
-0.28386295 0.36789313 0.37514842 0.16994168 0.43985453 -0.07272617 0.17490439 0.45181036
0.1056102 -0.16026288 0.39377296 -0.14637792 0.2790449 -0.16141291 0.22877264 0.4010042
-0.3385455 0.19374047 0.30457944 0.27352363 0.31549886 0.15809807 0.08170956 -0.13198906
-0.02075081 -0.33593053 -0.15096992 -0.2863875 0.09005521 0.39833263 -0.28897944 0.18234098
0.37368318 -0.34644282 0.33574474 0.06685538 0.3750473 0.026161542 0.33869675 0.27190772
-0.07901565 -0.030424878 -0.10300011 0.17308031 0.014651086 0.17529638 -0.20327061 -0.106497265
-0.446159 0.12028527 -0.032753468 -0.29441437 -0.3084734 0.055666335 -0.02715213 0.0057808002
-0.45003867 -0.3439778 -0.30136973 -0.19693476 -0.49310327 -0.5169365 -0.23974971 -0.29230064
-0.5360701 -0.5191405 -0.04791506 -0.3293061 -0.4471062 -0.5991696 -0.56322867 -0.5808675
-0.08717435 0.10318943 0.1578043 -0.20297988 -0.30220386 0.14316392 -0.3245032 -0.31552666
0.107030936 0.14395474 -0.3764359 0.12776558 -0.14919385 -0.26458862 -0.34385973 -0.263807
-0.5548369 -0.2502598 -0.090433545 -0.021439444 -0.068114094 -0.40419427 -0.3355984 0.14387017
-0.43746847 -0.36676016 0.2831894 -0.47612986 -0.039664783 0.032618638 0.008651395 -0.44932804
0.15261161 -0.3325619 -0.51195735 0.22633152 -0.34610537 -0.15143146 -0.4741759 -0.053977523
-0.21803087 0.11776672 -0.3576647 0.11670586 -0.22519341 0.11332272 0.0014030866 -0.35324562
-0.14025073 -0.31142607 0.40741888 0.41530308 0.26134685 -0.2212774 0.30646458 -0.16204962
0.18800095 -0.23753983 0.31115305 -0.25684935 -0.28316516 0.3931952 0.33622554 0.18512186
0.10918979 -0.30687654 0.26433575 0.20072791 0.17725942 0.27105308 0.21961482 0.34814012
0.27577388 0.08310146 0.43219772 0.27703875 0.41945198 0.16394787 0.22112128 0.5128499
0.28767928 -0.13468789 0.30885062 -0.046873726 -0.032320052 -0.16924728 -0.08995377 -0.42320284
-0.4191944 0.27668372 -0.14786527 -0.11960502 0.054873306 0.20762317 -0.119818434 0.08503886
0.013954843 -0.41644317 -0.07288719 0.2106711 0.14031091 0.11543833 -0.1823973 0.24821611
0.22435316 -0.20119089 0.23272686 -0.08540349 -0.12647946 -0.24682084 -0.40571266 -0.13027127
0.15587053 -0.12020936 -0.3969801 -0.26997805 0.022315718 -0.2536492 -0.21288429 0.20603953
0.48724353 0.3170356 0.18388078 0.29931116 0.23015365 -0.09079789 0.24516633 -0.159757
0.31286386 0.27289417 -0.23924814 0.2516733 0.3305628 0.34989992 -0.17827822 0.52270365
0.31052727 -0.19397207 0.43057954 -0.1784395 0.09810769 0.23256461 0.433591 0.27677006
0.08980352 -0.0060745184 0.033642337 0.3643311 0.4424455 0.3932813 0.293454 -0.12628289
0.46631128 0.3026928 0.23243019 0.3292184 -0.2710404 0.060558848 -0.40210655 0.17737548
