experiments/oldruns12_14/PlainCNN_iso_std0.1_gamma2_lr0.002/model.pt (torch, 109053 bytes, 18 tensors)

first.weight f4 [20, 1, 3, 3]
000000 dc 4a 02 bf b0 4d 4a be 3f 39 97 be 31 a4 2d 3e
       -0.50895476 -0.19756198 -0.29535863 0.16957165
000010 b7 06 32 3e 9d 09 05 be fd 65 84 3e ba 40 98 3e
       0.17385374 -0.12991948 0.2585906 0.29736882
000020 a8 47 38 bc e4 9c 92 3d ae 07 28 3e 11 ee c7 bd
       -0.011247553 0.07158831 0.1640918 -0.097622044
000030 88 c6 c2 bd c7 60 4c be 41 26 6b 3e 46 6e 9f 3d
       -0.09510523 -0.19958793 0.22963811 0.07784705
000040 f1 fc 68 3c c7 36 9b be 54 ac 99 bc b2 a5 96 be
       0.014220462 -0.3031523 -0.01875893 -0.2942329
000050 0c a0 47 be de 6e a9 bd f1 3e 1d bd 35 e5 d8 3d
       -0.19494647 -0.08273099 -0.038390104 0.10590593
000060 46 f2 d5 bd f9 fb 33 3d 19 af 6a be 85 18 60 3e
       -0.104466006 0.04394147 -0.22918357 0.21884353
000070 04 e8 a3 3e 0b 25 97 bd 01 34 95 be 28 6a 64 3e
       0.3201295 -0.07380112 -0.29141238 0.2230612
000080 5a 50 eb bc 60 67 c2 be 95 e6 0b 3e 54 24 d6 3e
       -0.028724838 -0.37969494 0.13662179 0.4182459
000090 70 86 24 bf 69 6f 89 be 96 3d 4d 3e e5 bd 38 be
       -0.64267635 -0.26842812 0.20043024 -0.18041189
0000a0 6d b6 00 be d6 5f f4 3d 84 8e b1 3e be e2 eb 3e
       -0.1256959 0.11932342 0.34679043 0.46071428
0000b0 21 95 07 3f 07 20 95 be c3 80 7b 3d b4 d2 3d bc
       0.5296193 -0.29125997 0.061402094 -0.01158588
0000c0 d3 13 33 3e d9 13 c0 3d ad 96 9b bd 34 b0 2f 3e
       0.17488031 0.09378786 -0.075970985 0.1715706
0000d0 3b c1 9c 3e 66 e2 14 be 8d 26 dc be bc 8a 53 bc
       0.30616173 -0.14539489 -0.42998162 -0.012911495
0000e0 1c 9f b9 3d 06 6b c3 bc 32 7a 7e be 4c 0b 2d be
       0.09063551 -0.023854744 -0.24851301 -0.1689884
0000f0 48 ef 85 3d 06 77 8a 3d e3 81 e3 be 79 ef e7 be
       0.0653978 0.06760983 -0.44435033 -0.4529989
000100 ca c8 27 be 5a 11 12 3e 07 8c a1 bc ae b6 d5 3e
       -0.16385189 0.14264432 -0.01972009 0.41740936
000110 93 b3 a1 3e 01 51 9d bd 08 2a 58 3e e9 c8 c3 be
       0.31582317 -0.07681466 0.21109784 -0.3823922
000120 31 f7 8a be 4f 52 f9 bd db 35 8b 3e 59 5e d1 3d
       -0.27141717 -0.12173902 0.27189526 0.102230735
000130 6e e5 52 be ae 22 1d 3e df e1 8b 3e 98 97 17 be
       -0.20595333 0.1534526 0.27320763 -0.14803922
000140 f2 f2 c8 be b4 a7 85 bd 71 3e 9d 3e 07 1e d8 3e
       -0.39247853 -0.065261275 0.30711702 0.4221041
000150 8a 33 dc be 45 09 b7 3e 19 f8 4c bc d4 06 75 be
       -0.4300807 0.3574926 -0.012510323 -0.23928386
000160 8e ae e5 be f7 5f 7b be 7e fe 94 3e 42 21 8e bc
       -0.44859737 -0.24548326 0.29100412 -0.017349843
000170 8e 5f ba 3e dd 1b 5d be 66 ae b1 bd 15 6c c7 3e
       0.36401027 -0.2159266 -0.08675842 0.38949648
000180 fc 51 12 3d 32 9f ff bd 65 d5 a0 be 41 d9 74 be
       0.035722718 -0.12481536 -0.31412807 -0.23911001
000190 30 d4 5a 3e 96 54 a3 bc 67 b5 0e bf 85 ce 55 be
       0.21370006 -0.019937795 -0.5574555 -0.20879562
0001a0 cb b9 b6 3e 0e 72 26 3e 5e 78 ba bd 75 ba c2 3e
       0.35688624 0.16254446 -0.091049895 0.3803288
0001b0 52 a7 5b 3c 5a 17 b1 3e 4e 15 0c bc 20 bb fa bc
       0.0134065915 0.34588128 -0.008550001 -0.030606806
0001c0 b9 ef 7d 3d 80 e7 9f bd 13 d7 48 be 34 91 8a 3e
       0.061996195 -0.07807827 -0.19613294 0.27063906
0001d0 79 f3 8b 3e cf 2e 0d 3e d4 d1 ae 3e a9 3f 34 3e
       0.27334192 0.13787387 0.3414446 0.1760241
0001e0 50 cb 6c 3d bb f3 75 be 4c 62 31 3e 33 f5 ac be
       0.05781108 -0.24018757 0.17322654 -0.33780822
0001f0 17 45 e4 be 82 9c 37 3e 33 4c 6f 3e 36 8d a5 3c
       -0.4458396 0.17930797 0.23368911 0.020208936
000200 bc 12 98 be d3 c5 8a be 7d bb b4 be 07 98 13 bf
       -0.29701793 -0.27104053 -0.35299292 -0.5765385
000210 eb 86 87 3e 94 67 88 bd 28 65 08 be 1e 57 49 3d
       0.26470122 -0.06660381 -0.13319838 0.049155347
000220 3a a7 83 bd 90 0c da be fe 78 df be 26 c5 a1 be
       -0.0642838 -0.4258771 -0.43646997 -0.31595725
000230 c2 39 2d 3d 40 24 a9 be 73 f7 90 3e 02 58 6e 3d
       0.04229141 -0.3303547 0.2831379 0.0581894
000240 3e e4 3e 3e 2d ec 4a be c6 d5 f5 be 38 ac 71 3e
       0.18641755 -0.19816656 -0.4801466 0.23600852
000250 c7 d3 01 3d 19 b8 96 be d5 da 8b be 6d 51 bd be
       0.031696107 -0.2943733 -0.27315393 -0.36976185
000260 4a d0 98 be d7 14 b4 3e 6c 19 82 be ce 0b 9c bd
       -0.29846412 0.3517215 -0.2541002 -0.07619439
000270 a6 f0 cf bd a5 aa c5 3e 21 d5 a1 be 39 b6 2b bf
       -0.10153322 0.38606754 -0.31607917 -0.67074925
000280 41 f0 38 3e e8 2e 2b 3e b7 99 e6 be 45 9d b4 3d
       0.180604 0.16717112 -0.4503915 0.08819059
000290 5b 68 d1 3d 75 dd 0a be be b8 d8 3e 37 ad 18 be
       0.10224982 -0.13561042 0.42328447 -0.14909826
0002a0 99 58 61 3e 20 19 db bd 2d e2 b1 be b6 92 15 be
       0.22006454 -0.106981516 -0.3474287 -0.14606747
0002b0 a7 e8 c1 be eb ef 90 bd 29 dd cf be c3 3b 22 3e
       -0.37872812 -0.07077011 -0.4059842 0.1584311
0002c0 5f a4 c7 3e 53 26 02 bf 97 94 b9 bc d5 a9 c5 3e
       0.38992593 -0.5083973 -0.022653861 0.38606134

first.bias f4 [20]
000000 be 56 99 be e7 5e 92 3d e2 a1 8c be b4 73 5d be
       -0.29948992 0.071470074 -0.27467257 -0.21626168
000010 3e c9 15 be 30 e4 e7 bd 84 64 8c 3e 4e 65 94 bd
       -0.14627549 -0.1132282 0.27420437 -0.07245885
000020 35 30 5a 3d a8 6d 4e be b0 4d 5d 3d 12 25 8c bd
       0.05326863 -0.20159018 0.054029167 -0.06843008
000030 c4 e2 c6 be 4c 55 9b bd 55 70 39 3d ee 76 58 3e
       -0.38844883 -0.075846285 0.045273144 0.21139118
000040 cc cf 72 3e bf bc d0 bc a5 0c 34 be 15 c0 18 be
       0.2371208 -0.025480626 -0.17582949 -0.14917023

hiddens.0.weight f4 [20, 20, 3, 3]
000000 eb 2e 95 3d 4b 5b 86 bc b4 ec f8 3c d3 52 c7 3d
       0.072843395 -0.016400954 0.030386306 0.09732594
000010 91 6c c4 3d 5c 86 79 3d b3 5a 0a 3d 9e 74 58 3d
       0.0959102 0.06091915 0.033777904 0.05284559
000020 d0 18 39 bc bc 76 37 bd 6e 9e c6 bd 48 a5 46 bd
       -0.01129742 -0.04479097 -0.09698187 -0.04849747
000030 58 bf 3f 3c 55 15 e9 bb 6e b8 98 bd 49 03 9f bd
       0.011703335 -0.0071131387 -0.07457052 -0.077642985
000040 2b 97 a6 bc a9 01 a0 bc a4 30 03 3d df 8b d8 3c
       -0.020335754 -0.019532042 0.03202881 0.026433883
000050 45 08 cd 3b d3 72 ea 3b a3 c1 15 bd 58 82 b6 bc
       0.0062570893 0.0071548014 -0.03656162 -0.02227895
000060 e0 63 71 bd 54 55 84 bd 86 f3 84 bd 33 bd 27 bd
       -0.05893314 -0.064615875 -0.06491761 -0.04095192
000070 6b a3 b2 bd 86 b0 2e bd 08 fa 23 bc eb ba 99 3b
       -0.08722576 -0.042648815 -0.010008343 0.004691472
000080 3e 7e a6 bd cc ca 9d bd a3 34 e2 3b 81 66 6e bc
       -0.081295475 -0.07704696 0.0069032474 -0.014550806
000090 9c 5a 3d bd 66 a6 79 bd cc 01 e6 bd e1 e3 84 bd
       -0.04622899 -0.060949706 -0.112308115 -0.06488777
0000a0 15 de 6c 3c 32 a9 83 bc 35 a1 9c bd 76 c1 06 3d
       0.014457245 -0.01607189 -0.07647935 0.032899342
0000b0 f9 8c d8 bc 7f 35 09 3c 2b 3c e2 3c d6 f7 a6 bd
       -0.026434409 0.008374571 0.027616581 -0.0815274
0000c0 7e 9e 97 3c d4 e1 11 3c e6 56 72 bd c7 33 bc bc
       0.018508192 0.008903939 -0.059164904 -0.022973908
0000d0 f3 0b 52 ba c4 91 50 3d b1 19 ee bc e2 a9 2b bd
       -0.0008012645 0.050920263 -0.029064985 -0.04191006
0000e0 79 f3 e9 3c 02 5d ad bc 72 66 27 3d 1e 3e 31 3d
       0.02855848 -0.021162514 0.040869184 0.04327213
0000f0 54 d6 df bd b9 d3 ac bc 15 d4 a3 bc b6 59 9f bd
       -0.10929552 -0.021097051 -0.01999859 -0.07780783
000100 55 a2 6b bd ff 68 1e bd 8e d0 10 3c 5d 23 f8 bd
       -0.05752786 -0.03867435 0.008838786 -0.1211612
000110 6e 84 d0 3c bf 76 37 bc e3 2e 0a be d9 d3 0b 3d
       0.025453772 -0.011197745 -0.13494448 0.03413758
000120 c7 46 78 bd 30 fa 1a bd e9 01 bc bd ae 5a 10 bd
       -0.060614374 -0.037836254 -0.09180052 -0.03524273
000130 fe b4 bf bd 9a 8b 30 bd 60 d1 09 be 4f 0e 5d bd
       -0.093606934 -0.043101884 -0.13458776 -0.053968724
000140 9c 42 86 bd 44 04 b7 bd da 1c 03 be f4 3a ec 3c
       -0.065556735 -0.089363605 -0.12803975 0.028836705
000150 98 b0 37 bd 22 91 eb bd 70 ac 16 3c c3 af ab bd
       -0.044846147 -0.11502291 0.009196386 -0.08383133
000160 b8 c7 90 bc fc ac ce bd 2d 75 09 be 04 49 80 3c
       -0.017673358 -0.10091588 -0.13423605 0.015659817
000170 f7 aa a8 3b 9f 10 14 be 95 69 f4 bd f8 b0 d5 bd
       0.0051473337 -0.14459465 -0.11934201 -0.10434145
000180 66 b7 4a 3c 01 9f bf bd 02 81 b1 3c d5 11 e2 3c
       0.012372827 -0.093564995 0.021667961 0.027596394
000190 de 48 83 ba 3f 12 b0 bd e2 46 88 bd 36 2d 00 3c
       -0.0010016223 -0.0859723 -0.06654145 0.007823279
0001a0 b3 e2 c2 3b 2f e7 f8 bd 5e e8 92 bd 8b b5 7a bd
       0.005947435 -0.1215347 -0.07173227 -0.06120829
0001b0 85 4c 70 bd 1c c3 b2 3b f5 f0 dd bd f7 de c9 3c
       -0.058666725 0.0054553878 -0.108369745 0.02464245
0001c0 66 0d e1 bd 37 2e b2 3b 14 c6 25 bd 23 ed 49 3d
       -0.10988884 0.005437638 -0.040472105 0.049298417
0001d0 f4 ad ab bd 98 bb f5 bc 4e 93 76 bd 94 94 1d bd
       -0.08382788 -0.029996678 -0.060199074 -0.038471773
0001e0 f6 38 e1 bd 03 60 3b bd 4d 99 06 be 19 b0 a8 bc
       -0.109971926 -0.04574586 -0.13144417 -0.020591782
0001f0 19 57 db bd 64 65 9e 3b 95 1d 14 3d 24 67 42 3d
       -0.10709972 0.004833864 0.036161024 0.047461644
000200 19 be d1 bc 88 45 40 3d 9e f5 2f bb 2b ca 8d bc
       -0.025603341 0.04694131 -0.002684928 -0.017308315
000210 cc 75 d4 bd 17 c4 4f 3c b8 15 33 3d 43 cd c4 bd
       -0.103740305 0.012681029 0.043721884 -0.09609463
000220 b6 c0 08 bd fd bc 2f 3d 01 16 01 be b1 16 20 bd
       -0.03338691 0.042904843 -0.1260605 -0.03908414
000230 17 be 1f bd 85 45 4b bc fc 7c 14 bd 4a ee 0e bd
       -0.038999643 -0.0124067115 -0.036252007 -0.03489522
000240 aa d4 4d bd 41 92 a9 bd 0a cb f3 3b 9d 4f 38 bd
       -0.05025164 -0.08279849 0.0074399756 -0.0449978
000250 8e 42 9a bd e2 a9 c3 bc a8 8b d0 bd 42 6f fe bc
       -0.075322255 -0.023884717 -0.10182887 -0.031058911
000260 e9 f0 40 bd 57 0e 86 3a fb ad 86 bc 34 00 a4 bd
       -0.04710475 0.0010227662 -0.016440382 -0.08007851
000270 8f df fe bc c9 e2 bb bd b7 83 de bd ec 1f ca 3c
       -0.03111246 -0.09174115 -0.10864966 0.024673425
000280 46 3a 02 bd d1 1d df bd 30 85 03 3b 24 45 c5 bd
       -0.031793855 -0.10894359 0.00200684 -0.09632328
000290 1c 83 bf bd 8d 60 f9 bd 53 ea a4 3b f5 07 14 bd
       -0.09351179 -0.12176619 0.0050328164 -0.0361404
0002a0 4b c1 1a bd 31 42 f3 bc 22 c7 8d bd 33 e7 cc bd
       -0.037781995 -0.029694648 -0.06922747 -0.10005035
0002b0 22 60 92 ba c6 09 c3 bc d3 fd da bd b7 9d 21 bd
       -0.0011167566 -0.023808371 -0.106929444 -0.03945705
0002c0 a9 38 77 bd b6 e5 bf bd 07 af 9c bd b8 69 84 bd
       -0.06035677 -0.09369986 -0.07650571 -0.06465477
0002d0 65 0e 5a 3e 6a 27 8d 3d eb e0 83 3c 30 7e bb be
       0.21294554 0.06892283 0.01609846 -0.3661971
0002e0 33 50 d2 bd 6d b5 c4 bd 48 4d a4 be 84 e9 b7 be
       -0.10269203 -0.09604917 -0.3209021 -0.35920346
0002f0 2e 77 d2 bd 50 20 77 bd 05 7e 5c bd ef 2d fe 3d
       -0.10276638 -0.06033355 -0.05383112 0.12411105
000300 9b 4f ec bb 4a 8c 2f bd 7d 64 fb 3d 02 12 76 bd
       -0.007211638 -0.0428584 0.12275026 -0.060075767
000310 37 c5 d7 3d 4f 14 eb 3d a8 41 39 3d e8 01 a2 bd
       0.105356626 0.11478483 0.04522863 -0.0791052
000320 ec 6a c3 3c 5d 04 94 bd f3 31 8d 3d df f5 ac bc
       0.023854695 -0.07227395 0.06894293 -0.021113334
000330 85 bf 92 bb b1 0f 0a 3c d5 5f 25 3d 27 3e 1b bd
       -0.0044783973 0.008426593 0.040374596 -0.03790107
000340 e9 c6 e1 bd 52 ad 56 be 2c 93 32 3e 17 7b 1a be
       -0.11024267 -0.20964554 0.17438954 -0.15086018
000350 16 ce da bd ba cd b9 3e 94 19 79 3d 0d 25 d5 bd
       -0.10683839 0.3628977 0.06081541 -0.104074575
000360 a2 eb 8b 3e ba d0 74 3e 1e a5 ea 3d 85 fd b6 3d
       0.2732821 0.23907748 0.11457275 0.08935074
000370 74 5c cb 3d e7 69 16 3d 02 59 07 3e dd 6d fa bd
       0.099297434 0.03672209 0.13217548 -0.12227986
000380 ff f2 7a be ac 1f 54 3d 37 d9 c5 3c 06 98 d2 3d
       -0.24506758 0.051788017 0.024151428 0.102829024
000390 29 e5 34 be 9e 11 c2 3c 18 09 99 3d 2e 69 10 be
       -0.17665543 0.023690041 0.074724376 -0.14102623
0003a0 ec 3b 1b 3d d3 3b 67 3c eb f5 2f 3d bc 51 26 bd
       0.037898943 0.014113384 0.042959135 -0.04060529
0003b0 03 4b d7 bd 32 f3 1d 3e a2 4d 07 bd ef 24 01 bd
       -0.10512354 0.15424803 -0.03303302 -0.031529363
0003c0 23 12 56 be 45 6d 43 be db bb 24 bd 80 5d 87 3e
       -0.20905356 -0.19084652 -0.040218215 0.26438522
0003d0 3c 5f 6a 3e b5 a9 56 3e 51 b8 61 3e e0 80 c5 3c
       0.22887892 0.20963176 0.22042967 0.024109304
0003e0 7d ca 75 3e 64 54 7a 3e b4 d2 06 3e 4e f0 55 3e
       0.24003024 0.24446255 0.13166314 0.2089245
0003f0 b7 e4 51 3d e9 a2 58 bd e6 fc 77 bd b7 c6 d2 bc
       0.05124351 -0.05288974 -0.060543917 -0.02572952

hiddens.0.bias f4 [20]
000000 07 87 b2 bd d8 16 7f 3c 6b c8 ab bc b4 78 a5 bd
       -0.08717161 0.015569411 -0.02096959 -0.08079663
000010 95 8a 89 bd 35 22 5b bd f9 9a c0 bd 2d f9 f7 bd
       -0.067158855 -0.05349942 -0.09404559 -0.121080734
000020 de a4 9a 3c 37 57 c5 3d c5 b6 7b bb ab 1c 85 3c
       0.018877443 0.096357755 -0.00384085 0.016249022
000030 5a 9f bf bd 93 3e e0 bd 48 5d b6 bd ee 3f f1 3d
       -0.09356566 -0.10949435 -0.08904511 0.11779772
000040 eb 6f d8 bb 35 1f 5c 3e ea ce b4 bd ff 0e 98 bd
       -0.0066051385 0.2149628 -0.08828528 -0.07424735

hiddens.2.weight f4 [20, 20, 3, 3]
000000 1e 58 54 bd c2 56 e6 bb e0 71 61 ba 4a 4c 13 3d
       -0.051841848 -0.0070293853 -0.00086000375 0.035961427
000010 a5 4d 74 bc 54 7a 0a ba 49 c1 62 bd 14 8c 8f bd
       -0.01491109 -0.00052825105 -0.055360112 -0.0700914
000020 7b 10 b9 bb 87 93 59 bd 94 bc 88 bb 3b f2 bc bd
       -0.0056477166 -0.05311921 -0.004172871 -0.09225889
000030 62 c0 70 bd fa 38 83 bd 8a a1 47 bd 94 3c af bd
       -0.05877722 -0.06407352 -0.04873804 -0.08556476
000040 db ca 24 bb 62 ff 2c bd 19 4a 37 3d 52 2c cd bb
       -0.0025145325 -0.04223574 0.0447484 -0.006261387
000050 11 38 46 3d 20 b8 2a bd 7d 83 a5 bc 6a de 09 bd
       0.048393313 -0.0416795 -0.0202043 -0.033659376
000060 9e 26 3f 3b 8b aa 64 bd df f3 50 bc d7 f4 a4 bd
       0.0029167305 -0.055826705 -0.012753456 -0.08054512
000070 4b 49 a8 bc bf 2c 00 bd 00 f7 6e bb 65 d5 80 bd
       -0.020542761 -0.031292673 -0.0036463141 -0.06290702
000080 c5 e0 18 bd 13 af d3 3c f5 12 1e 3b 7f fc bd bd
       -0.037323732 0.025840318 0.0024120186 -0.092766754
000090 7b 4b 81 3c 85 7f 85 bd fa 92 29 bd 63 eb 0b bd
       0.015783062 -0.06518463 -0.041399933 -0.03416003
0000a0 45 05 16 3c 75 53 80 3c 6b e6 f9 3a 31 46 3e 3d
       0.00915653 0.015664795 0.0019065862 0.04645366
0000b0 52 a2 98 bb 05 d3 6a 3a 66 a2 bb bd ea 55 96 bd
       -0.004658022 0.0008957836 -0.091618344 -0.073406056
0000c0 e6 e0 1d bd 29 86 10 bc 11 a7 31 3d ec ca 05 3d
       -0.038544558 -0.008821049 0.043372218 0.032664225
0000d0 4c 31 20 3c cf 21 ac bd 9d 5a 8f bd 54 59 80 bd
       0.009777378 -0.08404886 -0.06999705 -0.06267038
0000e0 9e 46 2f bd 9b 3e 47 3b ba 57 8d 3d a2 b6 33 3d
       -0.042791955 0.0030402306 0.06901498 0.043875344
0000f0 0c 26 42 3c 23 7d 1f bc 54 db 8a 3d 7c 87 b0 3c
       0.011849891 -0.009734425 0.06780115 0.021548979
000100 92 bc 43 bd 93 8b f2 3c ee be af bd 4e 88 e5 3c
       -0.047787257 0.02960757 -0.08581339 0.028019097
000110 ac 58 9e bc 3e 73 ad bb 6b 42 b7 bd 66 e2 47 bc
       -0.019329391 -0.005293279 -0.08948215 -0.012199974
000120 40 03 af bd 04 9a 12 bd d7 81 5c bd 34 1d cd bc
       -0.08545542 -0.035791412 -0.053834762 -0.02503834
000130 cd 80 97 bd fc cc 9b bc ec 5e 0d 3d 90 d6 2e 3d
       -0.07397614 -0.019018643 0.034514353 0.04268509
000140 a6 34 8d bd 28 8d dc bd e2 4d fa bc 21 31 ee bd
       -0.068948075 -0.10769111 -0.030554716 -0.11630464
000150 fc 9c ab 3c f7 ec 5c bd f1 3d 79 bc 81 3f ea bc
       0.02094888 -0.053936925 -0.015212522 -0.028594734
000160 a0 c8 24 bc 36 a8 b0 bc 4c 2e c7 bd 19 d0 d9 bb
       -0.010057598 -0.021564584 -0.09725627 -0.0066471216
000170 4e 18 66 bd b7 0d 9b bc d0 43 aa bd b6 9c 1d bc
       -0.056175523 -0.018927438 -0.083137155 -0.009619882
000180 ef bb 4b bd 5f fd 8c bd d9 17 6a bd 52 71 97 3b
       -0.049739774 -0.06884264 -0.05715165 0.004621663
000190 56 0d 0e bd f2 31 ee bc a9 c6 f5 3c 85 3c 06 bb
       -0.034680687 -0.02907655 0.030001955 -0.002048285
0001a0 9c 3d 2f bd 14 e5 96 3c cc b5 c2 bd c8 a2 d8 bc
       -0.042783365 0.01841978 -0.09507331 -0.026444808
0001b0 30 ff c3 3c 6e f9 a2 bd 71 27 13 bd 59 5a 59 3d
       0.023925394 -0.07957731 -0.035926286 0.053064678
0001c0 44 00 08 3d 25 19 11 bd 49 2b 2c bd f9 3e 16 bc
       0.03320338 -0.03542437 -0.042033467 -0.009170287
0001d0 21 36 36 bd 44 37 90 bd 41 40 a3 3c 8e ac 34 3d
       -0.044485215 -0.07041791 0.0199281 0.044109873
0001e0 5b 0b 05 3d 50 b8 6d bd 74 81 4a 3d 6a ac 5e 3a
       0.032481533 -0.058037102 0.049439862 0.00084943196
0001f0 fd 8a 2d 3d 72 7d ae bc 42 1f bb bd 60 50 23 bc
       0.042368878 -0.021300051 -0.09136821 -0.009967893
000200 49 7d 72 bd 25 02 cb 3c e6 56 a7 3b 20 22 c9 bc
       -0.059201512 0.024781296 0.0051067946 -0.024552405
000210 54 34 f0 bc d3 8b c7 3c 45 c8 92 bd 76 36 79 bc
       -0.029321827 0.024358666 -0.07167105 -0.015210738
000220 cd e9 04 bd c5 ca 76 bc 13 67 b8 bd d6 39 ed bc
       -0.032449532 -0.015062992 -0.09004035 -0.028958242
000230 85 a8 c1 bd 1c a2 76 bd cc 45 8a 3b 4c dd a4 bd
       -0.09455971 -0.060213193 0.004219746 -0.080500215
000240 d9 ae c2 bd a2 d0 bb bd 02 1b e5 bc cd 64 0b bb
       -0.09506006 -0.09170653 -0.02796698 -0.0021269799
000250 96 4b 0e be d0 ea fc bd 33 9d d3 bc eb 88 47 3c
       -0.13896021 -0.123494744 -0.025831794 0.01217864
000260 15 a6 5b bd 7f 8d f4 bc 35 c7 bb bb 34 fa b5 bc
       -0.053625185 -0.029852627 -0.0057305344 -0.022214033
000270 af 25 8d bd 4e 96 2a bd 75 96 0c bc 06 e9 18 bc
       -0.06891953 -0.041647248 -0.008580794 -0.009332901
000280 c8 cd 66 bd 72 46 95 3c c5 16 c3 3c aa 08 92 bd
       -0.056348592 0.018222068 0.023814568 -0.07130559
000290 eb 4d ff bb 92 27 70 3d 6d 06 3c bc 8b 5f 1c 3c
       -0.007791271 0.058631487 -0.011476141 0.009544264
0002a0 e9 91 87 3c 9d 79 2a 3a 77 85 af 3c 52 c1 a1 bc
       0.016549068 0.0006503107 0.021425946 -0.019745503
0002b0 ca 3b 46 3d b5 2d 26 3d 54 83 f8 3c 54 dd 99 ba
       0.048396863 0.040570933 0.03033606 -0.0011738935
0002c0 26 5a 2e 3d 58 da 91 3d 4e fe 6b bc 96 d1 ca ba
       0.04256644 0.07121724 -0.014403893 -0.0015473838
0002d0 02 b2 38 bc 64 fe cb 3d e9 b2 e2 3d 87 01 81 3d
       -0.011272909 0.099606305 0.11069281 0.062991194
0002e0 6d 71 a1 3c ba 87 f1 3d c7 fa 86 3d 2b 34 46 3d
       0.019707406 0.11793466 0.06590801 0.048389595
0002f0 4d 46 0e 3d da 5a 0a 3e 79 6d be bb 56 90 1b bf
       0.034735013 0.1351122 -0.00581139 -0.60767114
000300 6a 90 25 bb e5 b7 d6 3c 7e d1 6c bf 52 85 15 bf
       -0.002526308 0.026210735 -0.9250716 -0.58406556
000310 84 b6 40 bf b6 a6 86 bf d6 bb 87 bd 1b d3 23 3d
       -0.75278497 -1.0519626 -0.06627624 0.039996248
000320 2e 9f cd 3c 35 d6 3e bd 82 c5 38 3d 3f 7e 83 bd
       0.025100317 -0.046591002 0.045110233 -0.06420564
000330 73 e1 08 3c e0 39 77 ba 90 84 8e bd 8e cc 97 bd
       0.0083545325 -0.00094309263 -0.06958878 -0.074120626
000340 27 c2 c8 3c 54 96 8a 3d a0 66 19 bd 40 64 f6 3c
       0.024506642 0.06766954 -0.037451386 0.0300771
000350 5e 43 39 3d 65 fb 09 bd f8 5c 9e 3b 13 b3 5a bc
       0.045230262 -0.033687014 0.00483286 -0.013348359
000360 60 25 a5 3d 93 c7 4e bb 04 7a db 3d 8d f6 92 3d
       0.08063769 -0.003155206 0.10716632 0.07175932
000370 da 85 c2 3c 5a 15 a6 3d 32 3a 4e 3d 3d 91 ff 3d
       0.023745466 0.08109541 0.050348468 0.12478874
000380 91 f7 32 3d ac 83 55 bd 4d 1e 44 bd a9 13 3c 3d
       0.04369313 -0.052127525 -0.04788046 0.045917187
000390 02 b4 80 3c 03 27 a2 bd 16 2a cb bc 68 da 17 bd
       0.015710834 -0.07917597 -0.024800342 -0.037073523
0003a0 33 34 01 3d df 0f 21 bd 3c 9d 8c bd b1 b6 ff 3c
       0.03154392 -0.039321776 -0.068659276 0.031215044
0003b0 32 a1 72 bd 2c ac e5 3c 1a d6 2d 3c e2 0a 0e bd
       -0.05923576 0.0280362 0.010610128 -0.034678347
0003c0 ac 8e 9a bd 1e c9 e8 3c 3c 33 3c bd b9 70 80 3c
       -0.07546744 0.028416213 -0.0459473 0.01567875
0003d0 43 a6 95 bd 08 11 6f 3d fb 3f 76 bc 0c 3d 66 3d
       -0.073071025 0.05836585 -0.015029903 0.056210563
0003e0 a2 98 71 bc a2 3e 70 3d 20 77 51 3d b0 d3 83 bd
       -0.014745863 0.05865348 0.051138997 -0.064368606
0003f0 a0 9b 92 bd e2 ee 93 bd 9d 02 e3 bc 32 b2 6a bc
       -0.07158589 -0.07223298 -0.027711207 -0.014324712

hiddens.2.bias f4 [20]
000000 60 ef bb bc 09 0e 79 3e a2 73 04 bb e4 a7 0b be
       -0.022941291 0.2432176 -0.0020210524 -0.13638264
000010 2c 56 3e 3e 56 6a 51 be 60 35 c8 bd d0 18 9e bd
       0.1858756 -0.2045072 -0.097758055 -0.07719576
000020 d0 ed d8 bd df d3 63 3e fa bd 80 bd 0a b6 87 bc
       -0.10592234 0.22248791 -0.06286235 -0.016566295
000030 9e 0c c8 bc 49 84 ea bd 77 95 fb bc d4 7e ce 3d
       -0.024420079 -0.11451013 -0.030710919 0.10082784
000040 b6 7e 9e bd d5 4f bc bd 4c 47 00 3e 01 47 1d be
       -0.07739012 -0.09194914 0.12527198 -0.15359117

hiddens.4.weight f4 [20, 20, 3, 3]
000000 a6 84 83 bd 0d cb cb bc a7 9b 70 bd 8f 1c 50 3c
       -0.06421785 -0.024877096 -0.05874219 0.012702121
000010 74 1c 26 3d bf e9 9e bd 2f 16 d2 3c c9 03 69 3d
       0.04055448 -0.07759427 0.025645344 0.056888375
000020 e9 b2 85 bd 23 a7 35 3d 9d 3b e6 bc fa aa 9b bd
       -0.06528265 0.044348847 -0.028104598 -0.076009706
000030 a2 97 6d bd 71 ad 0c bd 0d 3a 6f bd f0 a5 e5 bd
       -0.058005936 -0.034345094 -0.05840497 -0.11213291
000040 f8 71 2c 3c 47 03 89 bd 1c af a1 3c fb 01 69 3c
       0.010525219 -0.06690078 0.019736819 0.014221664
000050 ba 5c ac bd 46 f6 22 bd 4c 85 19 3d 81 6e a2 bd
       -0.08416124 -0.039785646 0.037480637 -0.07931233
000060 fa da 75 bd e7 e8 17 3d 7c b6 51 3d 60 fa 85 bd
       -0.060023285 0.037087347 0.05119942 -0.06541896
000070 22 eb 05 bd a6 53 22 bc 50 b4 42 bd e3 41 cf bc
       -0.032694943 -0.009907639 -0.04753524 -0.025299972
000080 48 6a 51 3d 42 fc 6a bd a5 eb 36 bd 24 57 d5 3c
       0.05112675 -0.057369478 -0.044658322 0.026042528
000090 3d be 6a 3d 0b 22 03 3d 93 4c 82 bd 0a d6 5f bd
       0.05731033 0.032014888 -0.063622616 -0.054647483
0000a0 3c 11 0c bd 36 b3 f3 bd d7 8b 44 bd b0 8f fb ba
       -0.034196123 -0.11899416 -0.047984924 -0.0019192602
0000b0 9a 93 0a be 7c c9 30 3d 33 59 cf 3c 4c 41 20 bd
       -0.13532868 0.0431609 0.025311088 -0.039124772
0000c0 fc a2 6e bd d9 7d 27 ba 5b 47 18 bd 20 f0 40 bd
       -0.058260903 -0.0006389297 -0.037177425 -0.047104
0000d0 e1 b3 ac bd 55 ba 5b 3d 99 69 6c 3d 8b 88 52 bd
       -0.08432747 0.053644497 0.057717893 -0.05139975
0000e0 5f bd 9b bd 90 71 82 3c c2 ec 0f 3d 77 24 4c bd
       -0.07604479 0.015923291 0.0351379 -0.049839463
0000f0 0c 70 d8 bc c2 b6 96 bc 16 4f f9 bc 71 93 33 bd
       -0.026420616 -0.018397693 -0.030433219 -0.043841783
000100 20 c6 69 3d f6 78 21 bd 44 b6 d4 bc d1 3b 84 3d
       0.057073712 -0.039421998 -0.025965817 0.064567216
000110 ca 9e 45 bd d9 98 4a 3d ce 26 19 3d 3b ec 45 3d
       -0.048247136 0.049462173 0.037390523 0.04832099
000120 ac b3 39 bd 67 08 a3 3c 14 8b 9d bd 1f 1f 84 bd
       -0.045337364 0.019901467 -0.07692543 -0.064512484
000130 aa f2 a9 bd 90 09 6b 3d 9b 78 3f 3d 29 e8 59 bd
       -0.082982376 0.057382166 0.046745878 -0.05319992
000140 fc e8 96 bb 87 05 3b 3d 83 83 9f 3d c5 ad 05 bd
       -0.0046054106 0.04565957 0.07788756 -0.032636423
000150 c2 cc af bd e2 b1 ae bd 63 44 34 bd f6 a5 99 bd
       -0.08583976 -0.08530022 -0.04401053 -0.07502358
000160 19 5f 6b 3c d7 2b 41 bb 6e 9f 0b bd 50 3c 9b bc
       0.014365935 -0.0029475593 -0.03408759 -0.018949658
000170 74 24 47 3d fb 37 1b 3d 94 3d 7c 3b 0e 86 16 bd
       0.04861875 0.037895184 0.0038488852 -0.03674894
000180 7d 56 ec 3c 66 fd 23 bd 0a 56 03 3d 93 65 d4 bd
       0.028849835 -0.04003658 0.032064475 -0.10370936
000190 9b d9 be bd 54 9c fe bc b9 69 2f b9 42 a8 7f bd
       -0.09318849 -0.031080402 -0.00016728685 -0.062416323
0001a0 91 b4 a0 bd 5c bb 64 bb be 25 1f bd 75 d4 85 bd
       -0.0784694 -0.0034901714 -0.038854353 -0.065346636
0001b0 a7 0d df bd 59 48 ca bd f0 ce b0 bd d2 17 a3 bc
       -0.10891276 -0.098770805 -0.0863322 -0.01990882
0001c0 4c 1a 01 bd 5d 1b cf bc 8d 53 64 bc 21 8b 34 bd
       -0.03151922 -0.025281603 -0.013935936 -0.044077996
0001d0 39 f0 c9 bd 53 63 f3 bc 5f d4 17 bd 52 35 af 3c
       -0.09860272 -0.029710447 -0.037067767 0.02138773
0001e0 ff 9c 25 3d 77 1d 81 bd 57 ba 58 bd 5d 39 43 bd
       0.040432926 -0.06304448 -0.052912083 -0.047662128
0001f0 eb 50 8a 3c ff 0c 9f 3b ae 3c 67 bd d5 2e 8e bd
       0.016884288 0.004853844 -0.056454353 -0.06942526
000200 d6 af 92 bd 01 5e d6 bd 65 e8 cc bd f8 4f f7 bd
       -0.07162444 -0.104671486 -0.10005263 -0.120758
000210 1b b7 1c be d8 98 cd bd e0 e4 f9 bd 23 4d a2 3d
       -0.15304224 -0.10038918 -0.122018576 0.07924869
000220 17 bb 62 bb 12 d4 a7 bc 03 c7 23 3d 6e ee 90 bd
       -0.0034596378 -0.020486865 0.039984714 -0.07076727
000230 3a 0a 1d 3d 3a 0d 69 bd 90 5e 09 3d e2 10 86 3d
       0.03833983 -0.05689738 0.033537447 0.06546189
000240 c5 37 e6 bc 2a 00 54 3d ee 9d 8b bd 0a 2a f5 3b
       -0.028102765 0.05175797 -0.06817232 0.007481818
000250 f4 87 66 3d c1 37 23 bd 36 ec 74 3a c1 c0 3b 3d
       0.056282 -0.039848093 0.00093430595 0.04583812
000260 6a 1e 04 3c 9a d8 a6 3c 8e 0d 30 3c ec 37 1f 3d
       0.008063892 0.020366956 0.010745419 0.03887169
000270 c3 d6 ba bd ff 05 d9 bd 11 23 7f bd 17 42 0c be
       -0.09122994 -0.10596847 -0.0622893 -0.13697086
000280 88 c9 42 bd 75 7a 3e bd 1f ad 4c bd 9b 8a e5 bb
       -0.047555476 -0.046503503 -0.04996979 -0.0070050485
000290 56 0c 21 bd 7b 53 05 3b 10 db 86 bc 48 ad 42 bd
       -0.039318405 0.0020343948 -0.016461879 -0.047528535
0002a0 a6 bc 04 bd 4d 00 a7 bd 1d f3 94 bd 3b 0c 6d bd
       -0.03240647 -0.08154354 -0.07272933 -0.057872992
0002b0 53 e3 ee 3c c9 ef 58 bd 96 71 87 bd 44 23 14 bb
       0.029161131 -0.052963052 -0.06613462 -0.0022604028
0002c0 3b 13 36 3d 53 e2 b4 3c b7 4a 82 bd 9b d7 90 bd
       0.044451933 0.022080576 -0.06361907 -0.070723735
0002d0 90 56 18 bc 8d 45 19 bc 3a e8 49 bd 6d f6 41 bb
       -0.009297982 -0.009354961 -0.049293734 -0.0029596344
0002e0 7f 56 43 bc 1c 99 3b 3d 05 90 33 3d b6 c4 40 3d
       -0.011922478 0.045800313 0.04383852 0.0470626
0002f0 ee 8a ed bc 6d 0d 8e bc e3 bf e7 bd 3e 5d 52 bd
       -0.02899691 -0.017340386 -0.11315896 -0.051358454
000300 eb ea 9f bd ca 29 8c bc 28 db 5e 3c 89 27 b6 bc
       -0.07808479 -0.01710977 0.013602056 -0.022235649
000310 27 25 4a 3c a2 d9 a4 bd 86 d2 06 bd 03 5f 22 bd
       0.012337959 -0.08049323 -0.032915615 -0.03964139
000320 79 7f b1 bd 53 df be bc b7 5e 6b 3c 68 c2 8b bd
       -0.086668916 -0.023299849 0.0143658435 -0.068241894
000330 7e 64 ce bc 26 6f 92 bd 14 33 ee 3c 95 4c 67 3d
       -0.025194403 -0.07150106 0.02907709 0.05646952
000340 bb e4 95 3d f4 ae 3d bd bf 27 84 bc ea 25 88 bd
       0.073190175 -0.046309426 -0.016132234 -0.066478565
000350 6c ce 1d bd 06 d5 80 bc 37 c4 75 bd 47 02 79 3c
       -0.038526937 -0.015726577 -0.06000158 0.015198297
000360 97 bc 29 bc a5 ac 9c bd cf e0 28 bc 96 2f b0 bd
       -0.010359905 -0.07650117 -0.010307505 -0.08602826
000370 57 d9 9c bd 3d 6c 33 bd e3 87 aa bd b7 3c 00 bc
       -0.07658642 -0.043804396 -0.083266996 -0.007826976
000380 a6 f1 7e bd a1 18 6e bd ee c6 b3 3c d8 55 35 3d
       -0.062242173 -0.058128957 0.021945443 0.04427132
000390 c0 5f d0 3c 03 e0 9d bd 4b df 1b bd a0 f2 6c 3c
       0.025436282 -0.077087425 -0.038054746 0.014462143
0003a0 72 4d 4b bd 05 50 2a 3d da 8e 57 bc 54 4d 4d 3d
       -0.049634404 0.04158022 -0.013156617 0.050122574
0003b0 8d eb 5c bd 31 03 aa bd 3d 97 db bc ab 1f cd bc
       -0.053935576 -0.0830139 -0.026805514 -0.025039515
0003c0 63 b9 3a bd bb 4b 72 3d 06 b0 33 3c ac 9c 42 bd
       -0.045586955 0.059154253 0.01096726 -0.047512695
0003d0 25 0b 67 3c 0c df a3 bd 0b 28 40 bd 23 90 61 bd
       0.014101778 -0.08001527 -0.046913188 -0.0550691
0003e0 58 2c 0d 3c e9 c6 43 3c 0f 4e dd 3c 70 1b 7d bc
       0.008616529 0.011949279 0.02701476 -0.015448436
0003f0 6e 83 1b 3d e2 69 4b 3d 01 f4 6f 3d d6 e2 c9 bc
       0.037967138 0.049661525 0.05858231 -0.024644297

hiddens.4.bias f4 [20]
000000 b2 a3 65 bd 2e 52 8e bc a1 4f 53 bd da 1a 94 3b
       -0.056064315 -0.01737317 -0.051589612 0.0045198025
000010 60 8f 1e 3e fb 94 01 3d ec 78 72 bc b7 ca f9 bd
       0.1548438 0.03163622 -0.014799338 -0.12196868
000020 e9 ea 03 bd d8 96 0f bc 96 2f 03 be 0d 04 db 3d
       -0.03220645 -0.008763991 -0.12811121 0.10694132
000030 e6 f7 26 3c cd e8 5e 3e ad ee 4e 3e 5d d4 46 bd
       0.0101909395 0.21768494 0.20208235 -0.04854237
000040 7f fe c6 bd 8e 53 08 bd 6e 4e 14 3d 19 79 91 bc
       -0.0971651 -0.03328281 0.03620761 -0.01775794

hiddens.6.weight f4 [20, 20, 3, 3]
000000 d8 aa ab bc eb dc 20 3b b7 c3 39 3d 31 6c 95 bb
       -0.020955488 0.002454574 0.045352664 -0.0045600166
000010 db d9 93 bd 26 c7 4b bd 70 58 64 bd 9b 2c fc bc
       -0.07219287 -0.04975047 -0.055748403 -0.030782988
000020 ac be 78 3d a3 94 93 bd e4 8e 5e bd ed 24 39 bc
       0.060728714 -0.072060846 -0.05433549 -0.011300308
000030 9a 32 3f bd 35 88 47 3d 6b ae 06 bd 60 79 6f 3d
       -0.046679117 0.04871388 -0.03288118 0.05846536
000040 1d 62 a0 bb 6b 79 90 3d ec 7b ba bc d7 8b 40 3c
       -0.0048945085 0.07054409 -0.022764169 0.01175209
000050 84 64 81 3b 7f 6d 33 3d 9d 8a 89 bc 04 43 4e bd
       0.00394875 0.043805595 -0.016789729 -0.05035688
000060 77 47 ef 3c 67 b7 ff 3c 93 54 32 3c 7a 54 c1 bc
       0.029208882 0.031215383 0.010884422 -0.023599852
000070 43 4a 53 bb 93 2a 8b bd 71 39 c2 3c d8 68 22 3c
       -0.0032240308 -0.0679523 0.02370903 0.009912692
000080 9d ce 1a bd da 61 0c 3c 69 9e 48 3d bf f1 2e bd
       -0.037794698 0.0085682515 0.048979197 -0.042711016
000090 f6 78 61 bd 23 00 21 be 81 b9 42 be 82 7a c2 bd
       -0.055046998 -0.15722708 -0.19016077 -0.09496023
0000a0 51 cf 0a be e6 92 d6 bd 41 86 5a 3b 2c 77 ad 3c
       -0.13555647 -0.104772374 0.0033344182 0.02117499
0000b0 32 78 23 be d5 e7 17 be ae 10 26 bc ac 27 b5 bd
       -0.1596382 -0.1483453 -0.010135813 -0.088454574
0000c0 e0 d8 97 bc a9 df 63 3c 23 e2 4c bc b4 8c e6 bc
       -0.018536031 0.013908305 -0.012505087 -0.028143264
0000d0 c4 72 ea bd e6 9d 92 bd b1 bb 23 bd 6c c5 5a 3b
       -0.11447671 -0.07159023 -0.03997392 0.0033381833
0000e0 9d 83 7e bd 8a bf 22 3c 3c 7c 4a 3d ee 2a 07 bd
       -0.062137235 0.009933362 0.049434885 -0.032999925
0000f0 dc 2a 56 3c 55 2f 2b 3d 36 a9 ed bc a6 6d 8d bd
       0.013071742 0.041793186 -0.02901135 -0.069056794
000100 67 9b 39 bd 12 31 30 bd 6b 0e 61 3c ef 88 32 bd
       -0.04531422 -0.043015547 0.013736348 -0.04358762
000110 e8 b5 e0 3b 6d dc 3f bb 6c 0b 3b 3d 57 06 16 bd
       0.0068576224 -0.002927567 0.04566519 -0.03662714
000120 a0 1c 89 bd 7f 26 80 bd 72 98 34 3c 43 0e 28 3d
       -0.06694913 -0.062573425 0.011022674 0.041029226
000130 f5 76 27 bd a3 2b 38 bc 8a ef 5b 3d a1 34 99 bc
       -0.04088493 -0.011240873 0.05369524 -0.018701853
000140 01 a5 aa 3d dd 6f 80 3d 73 07 10 bd 05 a7 db bc
       0.08332253 0.06271336 -0.035163354 -0.02681304
000150 0a 8b 86 bd 7b 9a 6f bd 74 ed 16 3d 32 a2 c3 3b
       -0.06569488 -0.058496933 0.036847547 0.005970263
000160 b8 85 39 3c 2a a4 19 3d 71 16 3a bd ba 33 17 bd
       0.011323385 0.037510075 -0.045431558 -0.036914565
000170 56 9b 7b bd 6a ab 79 bd ba e6 f4 bc 35 5e 0a 3d
       -0.061427437 -0.06095449 -0.029895175 0.03378125
000180 a7 de 8c 3d 7a 50 d9 3a 91 48 49 3d 48 fd 5f 3c
       0.06878405 0.001657977 0.04914147 0.013671227
000190 b9 67 61 bc 51 fc 50 bd 46 0d 9d bc 88 a7 04 be
       -0.01375764 -0.051021878 -0.019171368 -0.12954533
0001a0 04 b1 fc bd 2f db 94 bd ad 1f e0 bd 9a 54 b0 bd
       -0.123384506 -0.072683685 -0.10943542 -0.086098865
0001b0 19 6d 6e 3b 96 11 7f bc ae 39 99 ba 5d bc b0 bc
       0.0036380945 -0.015568158 -0.0011690164 -0.021574194
0001c0 7e 98 b7 bd 43 16 a0 3b f0 71 a6 bd 71 ab 84 bc
       -0.089646325 0.0048854663 -0.081272006 -0.01619503
0001d0 1f 44 4b bd 6d 24 cb bd f9 b3 c1 3d 24 0f 18 bd
       -0.049625512 -0.09919057 0.09458155 -0.037123814
0001e0 23 8b a4 bd 50 4e 7e bc f3 d8 df bc f5 7c eb bd
       -0.08034351 -0.015521601 -0.02732513 -0.11498443
0001f0 25 30 3f bd de 89 9d bc 86 1b 1e bc 69 70 d4 bc
       -0.046676774 -0.01923078 -0.009650117 -0.025932508
000200 b1 75 dd bb d9 bd 0f bd 6f ad 68 3c 83 09 85 bd
       -0.0067584147 -0.035093162 0.014201506 -0.06495955
000210 77 04 19 3c 9a 9c 01 3d 6f 46 13 be 43 7a ce 3b
       0.009339443 0.031643488 -0.14382337 0.006301196
000220 ac e6 90 3d 78 b6 43 bd 0b cc 31 3d 63 bd 17 3c
       0.07075247 -0.047781438 0.04340748 0.009261462
000230 28 d5 9d 3d d5 34 7b 3d ad 53 ad 39 35 a9 5a bc
       0.07706672 0.06132968 0.00033059475 -0.013346006
000240 d7 f9 37 3c a2 56 68 bc 3e 57 2d bd 1b 39 c9 3c
       0.011229 -0.014180811 -0.04231953 0.024563363
000250 7e ca 62 bd cf 75 ae bc c9 c2 2d bc 3d 09 92 3b
       -0.055368893 -0.02129641 -0.010605522 0.0044566677
000260 5f e0 3f 3b 7a c3 9c bc f7 75 fd bc b3 f2 16 bd
       0.0029278023 -0.01913618 -0.03094004 -0.03685255
000270 80 94 89 bd 13 bd 7b bb c4 29 4d bd bf 9c 27 bd
       -0.06717777 -0.0038412258 -0.05008866 -0.04092097
000280 20 7d bf bd 4b b7 65 bd 1a 2d 0b be 09 cd e1 bd
       -0.093500376 -0.056083005 -0.13591424 -0.110254355
000290 31 da 35 bd 8e 92 ee b8 2f 67 b1 3d cc 3c b6 bd
       -0.044397537 -0.00011376022 0.08662259 -0.08898315
0002a0 49 04 ca 3d 7c de 4c bd 67 e7 03 be 6f 9f aa bb
       0.098640986 -0.050016865 -0.12881242 -0.0052069942
0002b0 eb 23 f6 bc 24 77 86 3d d1 34 fe bc 60 3b 47 bc
       -0.030046424 0.06565693 -0.031031044 -0.012160152
0002c0 5c 82 79 3c fd 0c ad bc 3b 61 2c bd 66 72 78 3c
       0.015228834 -0.021124357 -0.042084914 0.015163993
0002d0 58 f8 64 3d cb c1 cc 3b 53 68 29 bd 8c 90 81 3d
       0.0559009 0.006248688 -0.041359257 0.06326398
0002e0 12 ff 3d bd 40 92 20 3d 94 b8 9f bd 09 71 81 3d
       -0.046385832 0.039201975 -0.07798877 0.06320388
0002f0 32 9e 80 3d ec 62 fe bc 43 b6 3f bd 3f 07 2f 3d
       0.06280173 -0.031053029 -0.046804678 0.04273152
000300 65 12 40 3c 7c 81 3f 3c b7 f6 46 bd 03 62 b0 bb
       0.011723136 0.011688586 -0.04857513 -0.0053827777
000310 76 b2 70 bd 42 75 5f bd ac c1 34 bd 7a 0f 62 3d
       -0.058763944 -0.054555185 -0.044130012 0.05519054
000320 7f 34 af bd f6 19 b7 3c 94 c7 bb 3c b3 6c 33 3d
       -0.08554935 0.022351246 0.022922315 0.043804836
000330 13 ce e0 bc 6f 0e 9c bc e9 29 64 3d 7a 83 87 bc
       -0.027442014 -0.019049851 0.05570403 -0.016542185
000340 55 19 c6 3c 82 bb 1c 3d df c6 43 bd 0a 3f d3 bb
       0.024182001 0.03826476 -0.04779708 -0.006446724
000350 de 96 43 3d 94 97 06 bd 57 b0 45 bd 6e 2f 0a 3d
       0.0477513 -0.0328594 -0.048263874 0.03373664
000360 b6 f7 40 bd ec 75 0f be 3a 10 6f 3b b2 cd 44 3d
       -0.047111236 -0.14009827 0.0036478178 0.04804773
000370 73 c5 f8 bd a7 65 f3 bc 39 ea 48 3e 21 88 be bd
       -0.121470354 -0.029711558 0.19620599 -0.09303308
000380 6b 19 60 3c 8d ca 00 bf 86 57 e1 be 3a 0a 21 bf
       0.013677935 -0.5030907 -0.44012088 -0.6290623
000390 ed 2b 9d be c4 25 d1 3c c0 19 ec bd fc 68 dd bb
       -0.30697575 0.025530703 -0.11528349 -0.0067569
0003a0 af 9b f0 3c 75 86 cb 3d 0e 42 5d bd c9 52 52 3d
       0.02937111 0.09937755 -0.054018073 0.05134848
0003b0 de c9 1b 3d a3 27 56 3c be f2 87 bc 66 3b 55 3d
       0.038034312 0.013070974 -0.01659524 0.0520586
0003c0 88 8e 04 bb 65 d5 09 3d f1 ac 3c 3d 24 8e ac 3d
       -0.0020226557 0.033650775 0.046063367 0.08425549
0003d0 19 32 d7 bc ac 0d 62 3c 38 9d 82 bd 51 80 ad 3c
       -0.026269006 0.013797205 -0.06377643 0.02117935
0003e0 35 97 a3 3d 63 58 39 39 82 18 99 bd dd 52 a3 bc
       0.07987825 0.00017675901 -0.074753776 -0.019936973
0003f0 1a 11 b6 bc 67 de 96 bd 87 a3 e0 bc de a2 75 bd
       -0.022224952 -0.07366639 -0.027421726 -0.059969775

hiddens.6.bias f4 [20]
000000 fb 45 3a bd 79 ae 06 3e 52 6f e5 3d 67 f8 ea bd
       -0.045476895 0.13152494 0.11202873 -0.1147316
000010 e2 5a e4 bd eb 92 3b be e6 85 e8 3d fe d9 d9 bd
       -0.11150147 -0.18317764 0.11353664 -0.10637282
000020 06 61 14 be 57 04 f8 bd 22 33 3f 3e c9 c9 e2 bd
       -0.14490137 -0.12110203 0.1867185 -0.11073644
000030 ba 09 44 be b8 25 9c bc d2 3d 35 3e 58 1c d2 bd
       -0.19144335 -0.019060954 0.17699364 -0.102593124
000040 16 25 d2 3c 39 80 13 3e 7e fa fe 3d 95 22 93 3d
       0.02565245 0.14404382 0.12450121 0.071843304

hiddens.8.weight f4 [20, 20, 3, 3]
000000 2f 8f 09 3d f4 90 b6 bc 7b c3 00 bd 3d 3d b0 bc
       0.033583816 -0.022285916 -0.031436425 -0.021513576
000010 5e 15 5c bd 7f 27 70 3c 2a e3 fc bb c1 f4 b6 bb
       -0.053731315 0.014657854 -0.0077175098 -0.005583376
000020 e1 5c fd 3a 5b f5 21 bd 75 ed 5a 3d 68 de 14 3d
       0.0019330048 -0.03954063 0.053449113 0.036344916
000030 b9 79 64 3d 9c 69 a5 3a ba f2 b7 bc e1 89 17 3b
       0.055780146 0.0012619975 -0.022454608 0.0023122954
000040 d3 33 82 bd d3 62 8c bd a7 0a 9e bc bb 5c 8a bd
       -0.06357541 -0.06854787 -0.019292189 -0.06755968
000050 b8 13 47 3d 59 3c 1f 3b 90 1b 96 bc 60 05 36 bd
       0.04860279 0.0024297445 -0.01832369 -0.04443872
000060 9c bd 62 bb d1 90 a1 bd bf bb eb 3c de fd 94 bd
       -0.003459788 -0.0788895 0.028776048 -0.07274984
000070 20 62 4f bd 0f 3e 63 3d c2 20 81 3d ab 1f 83 3c
       -0.05063069 0.055479106 0.06305076 0.016006311
000080 04 ae d7 bc d5 3c 0f 3d e3 a7 f5 bc 03 74 20 3d
       -0.026328094 0.034970123 -0.029987281 0.039173137
000090 1b c7 41 3d 9c f8 58 3d cc df 11 3d 36 f5 08 3c
       0.047309022 0.052971467 0.03561382 0.008359244
0000a0 33 29 0d 3d d7 4d 30 bb 53 da fd 3c ae bd ec bc
       0.03446312 -0.0026901865 0.030987894 -0.02889904
0000b0 4d 00 6b 3d ce 64 cd bc b0 07 da 3b 88 d1 8f 3b
       0.057373334 -0.025072481 0.0066537485 0.0043889917
0000c0 df c4 1b bd 63 ce 84 bd 94 29 59 3d 5d 21 7d 3d
       -0.038029548 -0.06484678 0.053018168 0.061799396
0000d0 3d 22 02 3d 1b de 7c bd bc 80 e7 bc 8b 04 1c bd
       0.031770933 -0.061735254 -0.028259628 -0.03809027
0000e0 6c 94 a3 bd a2 72 a8 bd 6e 29 51 bc 0e bd 90 bd
       -0.079872936 -0.082249895 -0.012766225 -0.07067309
0000f0 4a 82 0b bc bb 57 d5 bd d3 4a 30 3c c5 11 74 3d
       -0.00851495 -0.10417124 0.010760027 0.05958726
000100 6e db 91 3d 44 b5 43 bd 59 8d 56 3d 08 44 27 bc
       0.07121931 -0.04778029 0.052380893 -0.010209091
000110 30 ab 86 3d 1a da 5b 3d d9 cd 13 b8 a9 49 8b 3d
       0.0657562 0.053674795 -3.523924e-05 0.06801159
000120 69 36 86 3d c3 13 46 3c 77 60 2b 3d 34 8b 03 bd
       0.06553347 0.0120896725 0.041840043 -0.032115176
000130 14 ed 98 3a 0e a1 ae bc 2b 33 89 3d 5e 0d d3 3a
       0.0011667334 -0.021317031 0.06699213 0.0016102006
000140 41 bc 8c 3c 75 4d 5c 3d 34 b4 80 bc 2d ee 2f 3c
       0.01717961 0.053784806 -0.015710928 0.010737938
000150 38 58 c4 3c 86 22 75 3d c6 f1 18 bd 35 b2 79 bd
       0.023967847 0.059847377 -0.037339948 -0.060960967
000160 f1 e3 70 bd d6 70 53 bd 73 29 21 3d eb db 47 bd
       -0.058811132 -0.05162128 0.03934617 -0.048793714
000170 e9 f3 a0 bd ac 71 c3 bd 78 72 a5 3c d0 b3 d4 3b
       -0.07859022 -0.095431656 0.020196185 0.006491162
000180 21 52 9f bd 79 a8 1a 3d bc 74 c6 bc fd ca 74 3d
       -0.07779337 0.037758324 -0.024225585 0.059763897
000190 0c ec 85 bd 53 af 12 3d 24 93 31 3d f0 08 8f bd
       -0.06539163 0.035811733 0.043353215 -0.069841266
0001a0 ba 0a 43 3c 7f 03 0b bd 44 55 2a bd d3 26 45 bd
       0.011904413 -0.03393888 -0.041585222 -0.04813273
0001b0 dc 5a f4 bc b4 cb d9 3c ae 1f 24 bd ee 4f 08 bb
       -0.029828481 0.026586391 -0.040069275 -0.0020799595
0001c0 f3 29 a4 3c fd 55 19 3d 31 4c 68 bd 01 5f 0e 3d
       0.020039534 0.03743552 -0.056713287 0.03475857
0001d0 88 a5 3a 3c 40 8f 19 3d f8 47 0b bc 3b 24 08 bd
       0.011392005 0.03749013 -0.008501045 -0.033237677
0001e0 21 ec 96 bd 12 ba d5 bc f0 54 4e 3d 1a c9 e7 bc
       -0.07369257 -0.026089702 0.05037397 -0.028294135
0001f0 1e 21 70 bd 40 a6 77 3d b8 08 16 bd 12 3a 5f 3c
       -0.058625333 0.060461283 -0.03662941 0.013624685
000200 57 82 7a bd 56 7b 10 3d 71 e5 77 bd 9b 23 64 bc
       -0.061159458 0.035273872 -0.060521547 -0.013924505
000210 17 e6 72 3b ac 4a 4a 3d 03 18 57 bd 06 18 c7 bc
       0.0037063414 0.04938762 -0.052513134 -0.024303447
000220 98 d3 85 bd 3f ab 0a bd 85 33 fc bc 2f 52 7c 3d
       -0.06534499 -0.03385472 -0.030786285 0.061601814
000230 6a 5d 04 bc 4c 99 6d bd 98 0f 8a bd 67 55 76 3c
       -0.008078912 -0.058007523 -0.067412555 0.01503501
000240 44 33 4a bd 66 f5 ba bc 01 77 29 bd d0 46 15 bc
       -0.049365297 -0.022822093 -0.041373257 -0.009111121
000250 c6 ab 8d bd ed 19 87 bd de 72 3f bd 9f 8c 1e bc
       -0.06917529 -0.06596742 -0.046740405 -0.009677081
000260 f0 54 dd bc 34 cd ba 39 ee b2 65 bc 25 ed 65 3c
       -0.02701804 0.00035629573 -0.014019711 0.01403359
000270 29 3f 18 bd 2c d5 69 bc 8d f5 51 bd 2f fd db 3b
       -0.03716961 -0.014272016 -0.051259566 0.0067135314
000280 62 73 93 bd 91 cc dc 3c a0 da 37 bc 8d d2 c9 bc
       -0.07199742 0.026953014 -0.011221558 -0.024636531
000290 d7 cf 93 bd 91 93 81 bd a9 20 e5 bc 2d 4b 86 bd
       -0.07217377 -0.06326974 -0.027969675 -0.065573074
0002a0 e5 11 85 bc 01 6c ab 3c b7 7b 83 bc 3b 2f 91 bb
       -0.016243884 0.020925524 -0.016050203 -0.004430679
0002b0 79 07 12 3c 84 90 22 bd 6f 98 1a bd b1 03 9f bc
       0.008912914 -0.039688602 -0.03774303 -0.01941094
0002c0 e2 d2 96 3c 41 32 43 bd ca ec df 3c 06 4d 5b bb
       0.018411104 -0.047655348 0.02733459 -0.0033462658
0002d0 87 16 14 3c a8 b6 94 bd 62 59 a5 bb ce be 86 bc
       0.009038574 -0.072614014 -0.0050460557 -0.016448405
0002e0 e4 3e 60 bd ba 96 91 bc 2f 7a 1e 3d 1e df 3e bd
       -0.054747477 -0.017772067 0.038690742 -0.0465995
0002f0 b7 ec a6 3a 81 19 81 bb c2 4a 91 bd 1f 27 07 3d
       0.0012735341 -0.003939808 -0.07094337 0.032996293
000300 2f d5 c1 bd 4c d3 d3 bd 05 fa d0 bd fe e7 b2 bd
       -0.0946449 -0.10343036 -0.102039374 -0.08735655
000310 6a ca 8a bd 42 5d d3 bd 91 4a 7d 3c c4 91 71 bd
       -0.06776889 -0.10320522 0.015459673 -0.058976904
000320 ce 71 ca ba f1 fa 52 bd 76 3c 1d 3d 7a 84 ee 3b
       -0.0015445293 -0.051508848 0.03838774 0.007278976
000330 0f 8d 55 bd 1a 9f cd bc af 2b a2 bc 7d 3c fe bc
       -0.052136477 -0.02510028 -0.01979622 -0.031034702
000340 f1 30 41 3c 14 39 6f bd ad 4d 69 3a 2f de 6b b9
       0.011791454 -0.058404043 0.0008899819 -0.00022494116
000350 bb e0 85 3d d0 c0 4e 3d c1 b7 ec 3c fa 50 d7 bc
       0.065370046 0.05047685 0.028896214 -0.02628373
000360 97 f5 f5 3c 7b 29 98 bc a8 0a 12 bd a2 96 4e bd
       0.030024333 -0.018574467 -0.035654694 -0.050436623
000370 97 ed 87 3d aa a1 80 bd 74 98 83 3c 6f ff 7e 3d
       0.066371135 -0.06280835 0.016063906 0.06225532
000380 f8 85 13 bd b1 1a da bc 73 de b6 3c f3 97 55 bc
       -0.036016434 -0.026624056 0.022322869 -0.013036716
000390 97 15 8f 3c 45 49 bd 3c 1a e6 a8 3c 49 4f 44 3d
       0.01746635 0.023106227 0.020617533 0.047927175
0003a0 36 37 09 3d 78 72 04 bd 2d 0b de bb ae 16 88 bd
       0.03349992 -0.03233573 -0.0067762346 -0.06644951
0003b0 17 81 b9 bd ba 7e f7 3b c8 57 0c 3c 7c c9 78 bc
       -0.09057825 0.007552949 0.008565851 -0.015184756
0003c0 c6 25 04 bd cd dd 63 bd a7 a2 a2 3c 99 06 19 3d
       -0.032262586 -0.055631448 0.01985295 0.037359808
0003d0 36 ce 26 3d a1 1c 11 bd 89 8d 8f 3c b9 96 92 bd
       0.040724 -0.035427693 0.017523544 -0.07157654
0003e0 d9 7b ba 3c da 98 67 bd 4d b2 57 bd 3d 9b 17 3d
       0.022764133 -0.056542255 -0.052660275 0.03701328
0003f0 99 1c 96 bc 40 c0 0c bd bf 52 37 bb 3a 70 8f 3d
       -0.018324183 -0.03436303 -0.0027972904 0.070038274

hiddens.8.bias f4 [20]
000000 35 0f 08 be 2a 46 b2 bc 37 67 b7 3d f0 bd 3d 3e
       -0.13287051 -0.021761972 0.089552335 0.18529487
000010 9e d2 a7 bd 59 1c bf bd c7 03 42 3e 83 ac 36 be
       -0.08194469 -0.09331579 0.18946753 -0.17839245
000020 be 56 3d 3e 08 b4 5a 3e 30 75 01 bd 44 9a eb 3d
       0.18490121 0.21357739 -0.0316059 0.11504033
000030 fc 81 ec be a5 4b 95 bd 82 04 65 3e 08 6a c5 3d
       -0.4619292 -0.07289819 0.22365001 0.096393645
000040 bf 9e 7b 3e 90 f0 1f 3e 59 bd 25 be d2 26 76 bc
       0.24572276 0.15619111 -0.16185512 -0.015023904
