runs/P4CNN_none_std0_gamma0_lr0.002/model.pt (torch, 105509 bytes, 10 tensors)

lifting_conv.weight f4 [10, 1, 3, 3]
000000 03 e6 f0 bd 8c 5c 48 3e e8 0f 1b 3e 53 91 2b be
       -0.11762621 0.19566554 0.15142787 -0.16754656
000010 75 5e 6c bc 9e 41 96 3e cc ab 80 3e 3f 98 4c be
       -0.014426817 0.29346937 0.2513107 -0.19979952
000020 bf c4 86 be 3f cd 00 3f 17 d1 36 be 3f 86 a7 bd
       -0.2632198 0.5031318 -0.17853199 -0.08179902
000030 cf ff ba be 0e f3 a7 be 7e 32 af 3e aa bb 07 bd
       -0.3652329 -0.32802624 0.3421821 -0.033137955
000040 9e 51 a9 3e 64 97 96 be aa 33 9a bf 4a a6 26 be
       0.3307008 -0.29412377 -1.2047017 -0.16274372
000050 a9 1c 19 be b5 c8 1d bf f9 c8 4b 3e 1e 5b a7 3e
       -0.14952339 -0.6163438 0.19900884 0.32686704
000060 8b 59 6e be 91 ec 54 bc 11 c4 99 bd 9e a5 f7 3d
       -0.23276345 -0.012995855 -0.075081 0.12092136
000070 14 66 5c 3e 43 16 00 3e 1d d2 f5 be dd 3f 02 bf
       0.21523315 0.12508492 -0.48011866 -0.508787
000080 ce 7f 29 3e 55 98 fb 3e ff 40 0c be 4d f7 0c be
       0.1655266 0.49139658 -0.13696669 -0.13766213
000090 f6 a6 a9 3d c1 92 f5 3c 93 39 b2 3e 27 5f 20 3e
       0.082837984 0.029977204 0.3480955 0.15661298
0000a0 62 f5 20 3e cf 51 9a 3e ab 89 5e be ea 80 85 be
       0.15718606 0.3014054 -0.21732204 -0.26074916
0000b0 1d b8 b8 be 89 83 03 3d 3e 1c 33 3d f5 a3 a0 be
       -0.36077967 0.032107864 0.043728106 -0.3137509
0000c0 e9 14 b2 3e cd 0f 79 3e 70 8b f1 3e a9 83 dc be
       0.34781578 0.24322434 0.47176695 -0.430692
0000d0 30 2d c9 bd 5b e5 8e be 52 d3 d3 3e 8f e7 e5 3c
       -0.09823072 -0.2790936 0.41372162 0.028064517
0000e0 cf 20 e3 be b2 3d 13 3e 85 81 73 3d 11 18 88 be
       -0.44360968 0.14379004 0.05944969 -0.2658086
0000f0 b2 98 1e be 6e 93 40 3d a4 e3 d5 be d0 c8 f4 3d
       -0.15487936 0.0470156 -0.4177524 0.119523644
000100 65 d0 56 be c0 9c 97 be d2 b8 29 3e 19 89 fa bd
       -0.20977934 -0.29611778 0.1657441 -0.122331806
000110 c3 1d ad 3e 62 2e 6e bd 21 45 ba 3d 0a 51 9a be
       0.3381177 -0.058149703 0.090952165 -0.30139953
000120 b1 25 fb 3d 81 48 98 be 2f 98 32 be ac dd bd bd
       0.122630484 -0.29742816 -0.17440866 -0.09270796
000130 b0 95 ae 3d 45 ef 30 3e 92 d4 87 bc 63 34 5d 3e
       0.085246444 0.17278774 -0.016580854 0.21602015
000140 b3 77 9c 3d e8 17 46 3e d6 1a 12 3d c1 dc a1 3e
       0.07640018 0.19345057 0.035670124 0.31613734
000150 a1 ae 71 be 89 5f b2 bd 3e 26 85 3d 03 ae 78 be
       -0.23601772 -0.08709628 0.06501435 -0.2428513
000160 d5 ea af be ed 9c a1 3e
       -0.3435885 0.31565037

gconvs.0.weight f4 [10, 10, 4, 3, 3]
000000 db 47 9d bd 0e 52 2f 3d 3f 15 3e 3e 91 c2 b0 3d
       -0.07679721 0.042802863 0.18562792 0.086308606
000010 98 5f c9 3d 63 4c a0 3d f2 ee c2 bd ff e2 9e be
       0.09832686 0.078270696 -0.095182315 -0.3103256
000020 0e 5e 63 be c5 be 65 3d 84 c7 8d bd 3b de 09 be
       -0.22203848 0.056090135 -0.0692282 -0.1346368
000030 36 86 ea bd d9 44 28 be 9f 7a 00 be d6 ab 2d bf
       -0.1145138 -0.16432513 -0.12546776 -0.67840326
000040 60 ff ce be ef b8 93 bd ac a1 79 be 08 f0 8d 3d
       -0.4042921 -0.07213008 -0.24378079 0.06930548
000050 ee a4 31 3e b8 4d 09 be 70 d4 17 bc 18 91 bf bd
       0.17348072 -0.13408554 -0.009266958 -0.09353846
000060 cd 9b dc be f0 e5 e2 be 0b 93 f7 be cf 79 31 bf
       -0.43087617 -0.44316053 -0.48354372 -0.6932649
000070 90 3f 35 bd 9b b6 ae 3d f3 51 01 bf 4f 89 29 3d
       -0.04425007 0.08530923 -0.5051567 0.041390713
000080 21 4b 21 3e f7 19 9a be 4f 5f 24 be b0 31 51 be
       0.15751316 -0.30097935 -0.16051982 -0.2042911
000090 e2 b4 11 bc aa 58 c2 3c 61 00 b3 bc 3f ff 02 bf
       -0.0088932235 0.023723919 -0.021850767 -0.51170725
0000a0 21 82 fa bd 8a 41 02 bd 1d c7 4e bf 23 8c b1 bd
       -0.12231851 -0.031800784 -0.8077257 -0.08669307
0000b0 0c bd 19 be 83 1f 66 be cb 14 59 3c d7 53 63 3d
       -0.15013522 -0.22472958 0.013249586 0.055499878
0000c0 a1 f9 44 3e dc e9 74 3e 5a 13 db bb 1a 68 ab bd
       0.19235851 0.23917335 -0.0066856565 -0.08369465
0000d0 e7 c4 bb bb af e0 dc be 26 59 54 3d 7c e1 85 3d
       -0.0057302597 -0.4314017 0.05184283 0.06537148
0000e0 2a 3b 80 3e 18 33 c6 3d 21 6b ba 3e ec dd f1 3d
       0.2504514 0.09677714 0.36409858 0.11809906
0000f0 06 38 62 be 47 77 8f 3d cd 29 92 3e 3c ba d9 3d
       -0.22091684 0.07005172 0.28547516 0.106312245
000100 3f 25 ef bd 1c 36 c7 bd 7a a2 40 3e 4e 1f b2 3e
       -0.11677026 -0.097271174 0.1881198 0.3478951
000110 7f 59 e9 bd 0a 66 94 be ea 4f 6c be 87 19 a0 be
       -0.11394023 -0.289841 -0.2307736 -0.31269476
000120 11 25 6e 3f 6e 7e 7a 3f 7d d1 ed 3e 57 9e e4 3c
       0.9302531 0.97849166 0.4644889 0.027907534
000130 b6 ae 3b 3c fd 0a 3f be 87 9f aa be f1 18 e0 bd
       0.011455229 -0.18656535 -0.33324835 -0.10942257
000140 4d 60 e4 be e0 6a 94 be 7d 19 98 3e bf ca e1 3d
       -0.44604722 -0.2898779 0.29706946 0.11024999
000150 af ae 17 be f6 d9 30 3d 53 ac c4 3e 11 5d 3a bf
       -0.1481273 0.043176614 0.38412723 -0.7279826
000160 ce 90 c4 be 46 93 24 bf 2b 24 3e be 74 ee 8d 3e
       -0.38391727 -0.6428722 -0.18568484 0.27720988
000170 1b 07 4f 3e 53 a3 b6 be d7 56 6b 3e 57 39 20 3e
       0.20217554 -0.35671481 0.22982346 0.15646873
000180 ce b4 04 be c8 71 a5 3e 7a 72 9d 3e 31 03 d0 3d
       -0.12959597 0.3231337 0.307514 0.10156859
000190 91 41 64 3e 22 4c a6 3e 8c de 0e 3f 9c cb e1 3e
       0.22290637 0.3247996 0.5580833 0.44100654
0001a0 ab 7e 9c 3e b6 25 dc 3e 47 67 a6 3d 4a a2 39 3d
       0.3056539 0.4299752 0.08125167 0.045320787
0001b0 a0 6c a0 bd 58 cb 1d 3e c0 32 83 bc 78 5c a3 3c
       -0.078332186 0.154096 -0.01601541 0.019941553
0001c0 78 b5 e1 3d a2 72 a5 3d 73 90 a5 bd f8 17 42 bd
       0.110209405 0.08078505 -0.08084192 -0.04738614
0001d0 9f fe 22 be 9d 27 ec bd ac de 20 3e b9 10 37 3d
       -0.15917443 -0.11530993 0.15709943 0.044693682
0001e0 eb 19 e5 be 01 fd 05 3e 08 dd 80 bd 5b 21 39 bf
       -0.44746336 0.13084795 -0.06292158 -0.7231652
0001f0 0a 18 9a bd 75 5a 1f be af 3c 0e bf 97 71 e5 bd
       -0.07524116 -0.1556185 -0.55561346 -0.11203306
000200 cf 4c 2e be f9 a4 04 3e f7 f0 3a 3e 96 f5 67 bc
       -0.17021488 0.12953557 0.18255983 -0.014157673
000210 c8 d6 3f be aa a6 33 ba e6 75 b6 be bd 0f 91 be
       -0.18734276 -0.0006853143 -0.35636824 -0.2833232
000220 0e a6 59 3e 05 bd 04 3d 5e e3 91 be 63 c9 82 3e
       0.21254751 0.032406826 -0.2849378 0.2554427
000230 16 e4 08 3e ea 95 03 bf ce 48 03 3d dc 52 e6 3d
       0.13368258 -0.51400626 0.032051854 0.11246273
000240 fe 4e 26 be 60 c8 38 bd f9 f2 a9 3d a4 5a 91 3b
       -0.1624107 -0.045112967 0.082982965 0.004435854
000250 5e d1 f6 39 b9 ae 0c 3e f6 ce 70 be 57 a9 e0 bd
       0.00047076767 0.13738526 -0.2351645 -0.10969799
000260 78 53 ad be c1 03 a5 bc 3b 69 17 3c 09 6e c9 3d
       -0.33852744 -0.020143392 0.0092413975 0.09835441
000270 b3 98 53 3e 3c fe 3b bd ee b7 64 be 52 84 fa bd
       0.20663719 -0.045896754 -0.22335789 -0.12232269
000280 aa 1e 99 be 4b 87 7e be 63 53 bd bd 5a ac 83 3c
       -0.29906207 -0.24856298 -0.092444204 0.016073395
000290 95 fe 09 3e 75 ad d1 be 4d 78 97 3d e3 37 a5 be
       0.13476022 -0.4095265 0.073959924 -0.322692
0002a0 7e 14 90 be a1 b4 df bd 6c 63 c9 be 91 b2 14 bf
       -0.28140634 -0.10923124 -0.39333665 -0.5808497
0002b0 eb 00 9d bc 93 1d 10 3d bb 1f 0c bf df 45 07 bd
       -0.019165477 0.035184454 -0.54735917 -0.03302562
0002c0 b9 44 07 3e d0 50 c3 be 82 22 8c be 76 c6 82 be
       0.1320981 -0.38147593 -0.27370077 -0.2554204
0002d0 ac ec ae 3d 40 5c 0a 3d 17 ef 57 3e f4 1d 45 3d
       0.08541235 0.033779383 0.210873 0.04812427
0002e0 94 ef 16 3e 15 1a 07 3e 49 b1 43 3e c5 0d 95 3d
       0.1473983 0.13193543 0.19110598 0.07278017
0002f0 05 5a aa be 00 c8 37 3e e2 55 60 3d 90 19 a9 3d
       -0.33271804 0.17947388 0.054769404 0.08256829
000300 11 3f e4 3e 35 a2 0d 3e e9 a9 8e 3c 03 85 2e bc
       0.44579366 0.13831408 0.017415004 -0.01065183
000310 15 f4 e2 bc 54 c8 c7 be 1b f7 99 3d fa d1 80 3e
       -0.027704278 -0.39020026 0.07517835 0.251602
000320 87 f0 82 3e fd df 17 bd da 69 a9 bd 6a f5 4e be
       0.25574133 -0.037078846 -0.08272143 -0.20210806
000330 e4 9f 8b 3d a6 1d 39 be dd 70 b8 be e2 d4 13 3e
       0.06817606 -0.18077716 -0.36023608 0.14436677
000340 35 ec 33 bc 4a 94 7f bd 49 14 c2 3e b6 f0 b9 3d
       -0.010981609 -0.06239728 0.379061 0.09079115
000350 93 4e f8 bd 70 46 d4 bd 20 04 8d be 14 6c 0c bf
       -0.12124362 -0.103649974 -0.2754221 -0.54852414
000360 74 02 b3 be c1 88 d1 be 8c 9e 0c 3b 90 a9 82 bf
       -0.3496281 -0.40924647 0.0021456806 -1.0207996
000370 5c 72 20 3e 96 0a 37 3e b0 e4 6e bf c1 9f ed bd
       0.15668625 0.17875132 -0.933177 -0.11602736
000380 c7 00 76 bd 29 06 2f be fd 33 9d 3d 67 22 32 3e
       -0.060059335 -0.17092194 0.076759316 0.17395936
000390 05 bf 58 3e 35 91 74 3e e9 6b 32 3e 23 00 d4 3d
       0.21166618 0.23883517 0.17423977 0.103515886
0003a0 88 0f 9e 3d 63 66 19 be 59 9e d0 3e 31 f1 ba 3e
       0.07717806 -0.14980464 0.4074581 0.3651214
0003b0 27 93 b9 3d a9 f0 79 be 40 75 b0 be 48 19 d3 be
       0.0906127 -0.24408211 -0.34464455 -0.41230226
0003c0 f0 ba 24 bf 4a 71 82 bd 20 c8 44 3e 9e 0e a2 be
       -0.64347744 -0.063692644 0.19216967 -0.31651777
0003d0 1b a9 58 bd d8 04 fc bd e8 cb 8e be 72 df 1b be
       -0.052895647 -0.12305611 -0.27889943 -0.15221956
0003e0 e8 f9 2e 3e a7 ef f6 be 7c 1a ac be b5 b8 1f bf
       0.17087519 -0.48229715 -0.33613956 -0.62391216
0003f0 b3 2f 1a be c3 69 0b be 35 e7 0c bd d2 e0 f6 3d
       -0.15057258 -0.13614564 -0.034400184 0.120546

gconvs.1.weight f4 [10, 10, 4, 3, 3]
000000 6a ac f2 3e f5 31 8c be b0 c6 df be 77 15 ad 3e
       0.47397166 -0.27381864 -0.43706274 0.3380544
000010 7a 1f a6 3d 63 97 7b be ce de e1 3c 46 6f cd 3b
       0.081114724 -0.24569468 0.027572062 0.0062693683
000020 d0 a7 d4 bd ac aa 85 bd 57 e0 d1 3d 37 ce 21 be
       -0.1038357 -0.06526694 0.102478676 -0.15801321
000030 bf 4f 0e be 07 37 e4 bc f4 ac c9 be 06 a7 1a be
       -0.13897608 -0.02785827 -0.39389765 -0.15102777
000040 01 e0 6b 3d ae d0 55 be 39 ee 6d bd 18 5c 44 3e
       0.057586674 -0.20880386 -0.058088515 0.19175756
000050 e3 79 22 3e 7f 25 22 bc 29 8c 13 3e 14 06 b5 be
       0.15866809 -0.009896635 0.14408936 -0.353562
000060 28 3a 97 be ff 0b ad bc 06 95 de be c8 d3 e2 be
       -0.29536557 -0.021123884 -0.4347307 -0.443022
000070 52 f5 28 3e 6f 7b 81 be f0 4f 1f bf 1f 77 23 be
       0.16499832 -0.25289485 -0.6223135 -0.1596341
000080 e8 a3 16 3d 4c 99 d8 be 38 73 ca bd 3d 47 e8 3d
       0.036777407 -0.42304456 -0.098852575 0.113417126
000090 df 6c a3 3e 2c 39 d2 3d e7 fd 5f bd 92 12 da 3d
       0.31919 0.10264811 -0.0546855 0.10648073
0000a0 12 b1 31 3c 1e f2 c4 bd 73 ce 53 3b b1 b9 3f 3e
       0.0108454395 -0.09616493 0.0032319098 0.1872318
0000b0 63 30 d9 bd fa 1e 92 3e f8 10 ee 3d b4 56 20 bd
       -0.10604932 0.28539258 0.1162433 -0.039145187
0000c0 7a e2 83 bd 79 41 16 3d 32 42 80 be 9f 3a 42 be
       -0.06439681 0.036683533 -0.25050503 -0.18967675
0000d0 4b c9 d8 3b 5e 9a 3d be 20 2f f9 bd 61 23 25 be
       0.006615793 -0.18515918 -0.121671915 -0.16126777
0000e0 8d c2 40 be a2 7e a4 bd d8 e5 98 bd 13 23 b3 3d
       -0.18824215 -0.08031966 -0.07465714 0.08746924
0000f0 7b 4e 05 be a5 eb ae 3c 0e 71 90 bd ad 13 f0 bd
       -0.13018219 0.021352598 -0.070528135 -0.11722503
000100 01 6b a5 3d 3e 5c 38 be db 2f b2 3c fb 4a c7 bd
       0.0807705 -0.18003938 0.021751335 -0.09731098
000110 57 f6 df be f3 20 08 3d 03 62 ff 3d 55 d0 85 be
       -0.4374263 0.033234548 0.12469866 -0.26135507
000120 32 e4 2c 3e 25 65 0c be e7 5a c1 be 42 76 22 be
       0.16883925 -0.13710459 -0.37764665 -0.15865424
000130 eb f8 3b be e6 f6 1b bd 5c d4 e3 bc 48 4c 9b 3d
       -0.18356673 -0.038077258 -0.027811222 0.07582909
000140 07 6d 3a 3e 45 19 d9 be 89 09 16 be af 33 cc bd
       0.18205653 -0.42402092 -0.14652075 -0.09970795
000150 36 9a 0e be b7 99 3e bd 6e 01 94 bc af a8 66 bd
       -0.13926014 -0.046533313 -0.018067088 -0.056313213
000160 30 32 13 be 21 b5 3c 3e 73 c4 c5 3d 8b 5f e7 3d
       -0.14374614 0.1842847 0.0965661 0.1129752
000170 e7 36 87 3e e1 a3 bf bd 10 77 80 bd 92 c1 02 3e
       0.26409075 -0.09357429 -0.06272709 0.12769154
000180 46 00 8e bd 16 1a bc bc 28 db 8b bd b1 9a 4c 3d
       -0.06933646 -0.022961657 -0.0682891 0.049952213
000190 0c 4d ee 3d c1 9d 77 be d4 b1 82 3c 3f cc 4e bd
       0.11635789 -0.24181272 0.015953936 -0.050487753
0001a0 8b e3 f6 be 0e 58 f7 3c 71 97 c5 3d 73 ee 76 be
       -0.48220477 0.030193355 0.09648026 -0.24114399
0001b0 70 18 1f be 9e 09 ce bd 01 d6 19 be db 37 14 be
       -0.15536666 -0.10060428 -0.15023042 -0.14474432
0001c0 0f 31 23 bd 3c db f7 3c 89 46 14 be 63 9b 8e bc
       -0.039841708 0.030255906 -0.14480032 -0.017408079
0001d0 13 f2 80 3d e8 b5 6b bd de 18 cd 3d 42 3e 8b 3d
       0.06296172 -0.057546526 0.10014509 0.06798984
0001e0 0a 8c 20 be ca 76 78 bd 8c c6 b0 3d ba fe 3c bc
       -0.1567842 -0.06066016 0.0863162 -0.011535341
0001f0 d8 5a bd bd 3d 02 97 3d d0 98 f7 bd 80 0c f0 bc
       -0.09245843 0.07373474 -0.120896935 -0.029302835
000200 51 aa e4 3c de 6f 27 be 58 5b 9d bc 1f 19 b6 3c
       0.027913244 -0.16351268 -0.019208595 0.022228776
000210 6b 2f 41 be 07 67 0a bd 2c 98 c6 3d fe 93 08 be
       -0.18865745 -0.03378966 0.09696993 -0.13337705
000220 24 80 72 be df 04 37 be e8 d1 17 bb 9e 83 ce bd
       -0.23681694 -0.17872952 -0.0023165885 -0.10083698
000230 f0 a4 48 be 06 ac f2 3d 7b 1c f6 bc 79 af cf bd
       -0.19594169 0.11849217 -0.030042877 -0.10140891
000240 70 13 ac bd b4 55 68 3d 32 6c b9 3a 6b c0 9a bd
       -0.08402145 0.056722358 0.0014146625 -0.07556232
000250 ed 64 6f bd 98 bf d5 bd 6a 16 f2 bd 04 9d e0 3b
       -0.05844586 -0.10436934 -0.118206814 0.006854655
000260 ec 27 d6 3c 27 a5 8b bd 11 51 db bd bc b9 d7 bd
       0.026142083 -0.0681861 -0.107088216 -0.10533473
000270 12 95 d0 bd 2e 41 7d 3d fc 57 91 bc 35 3f d6 3c
       -0.10184683 0.06182974 -0.01774215 0.026153186
000280 f3 a2 63 bd ff ea 11 bd 52 37 c8 bd aa 6a fd bc
       -0.055575322 -0.0356245 -0.097761765 -0.03093465
000290 ba 51 28 bd 9c f2 08 3d 3c 80 7d bc e7 84 f0 bc
       -0.041093566 0.033434495 -0.015472468 -0.029360248
0002a0 bf 47 02 be a3 3b ae bd 39 cc 12 3d a4 56 ce bc
       -0.12722681 -0.085074686 0.035839293 -0.025187798
0002b0 1e c0 2c 3c e6 ec 1a 3d 71 44 7b ba 75 13 c8 bd
       0.010543851 0.03782358 -0.00095850887 -0.09769336
0002c0 a3 22 04 be c4 6c 1d 3c 02 dd 09 be 40 80 10 3d
       -0.12903838 0.009608451 -0.13463214 0.03527856
0002d0 37 cb 63 be 5f 73 fb ba d8 9e bc 3c 63 d8 53 be
       -0.22245489 -0.0019184164 0.023024961 -0.20688014
0002e0 be af 1e be 4c 80 b8 3d 81 df 55 bd 5a 9c de 3e
       -0.15496728 0.09008846 -0.052215103 0.43478662
0002f0 3f 27 dc 3e 3c 47 ca bc d4 b3 74 be f2 c6 8f be
       0.42998692 -0.02469217 -0.23896724 -0.2808147
000300 6d 45 3d 3e 1b 50 10 be 7d 74 b1 be 90 09 8c bd
       0.18483515 -0.14093058 -0.34659186 -0.068377614
000310 bd 99 a0 3e 1f 4d 67 3e 17 52 7e 3e 7d a9 6e 3d
       0.31367293 0.22588013 0.24836002 0.058267105
000320 44 bb 98 3d 02 c3 7d bd b1 e6 af bd ec cc d4 3c
       0.07457593 -0.061953552 -0.08588923 0.02597662
000330 d2 f1 42 be 11 b7 00 bc dd 75 8e be ec b8 3e 3e
       -0.1903756 -0.007856146 -0.27824298 0.1862523
000340 23 c2 2e be 61 ea ec bd 33 29 b3 be 56 08 a3 bd
       -0.17066245 -0.11568142 -0.3499237 -0.07960574
000350 4e 93 2a 3d aa 0a c1 be 36 81 4f bd 0b ca 31 be
       0.041644387 -0.3770345 -0.050660335 -0.1736223
000360 26 11 9b 3e ce f4 1a 3b 0d 45 fc 3d 5b d0 87 3e
       0.3028652 0.002364445 0.12317858 0.2652615
000370 44 87 23 ba b1 0a 15 3b 89 ca f0 3d 28 02 04 3e
       -0.00062381127 0.0022741968 0.117573805 0.12891448
000380 b7 0b 70 3d a1 c8 a1 bd 86 75 77 3e 6e b2 1c bd
       0.058604922 -0.07899595 0.24165925 -0.0382561
000390 7f a5 7d be a6 a6 e6 bc 25 3b 93 be f2 e0 1a 3d
       -0.24770163 -0.028155636 -0.2875606 0.03781218
0003a0 cc 46 25 be 3b 87 e2 be 7c 0f 23 3e a5 9f 26 3d
       -0.16140288 -0.44243798 0.15923876 0.040679593
0003b0 4c c1 65 bd b5 a4 98 3d 1a cd 85 3d cb 1c 97 be
       -0.056092545 0.074532904 0.06533261 -0.29514155
0003c0 6b 45 28 3d 31 0c d5 bd 0a 2d 17 bf f9 b0 fc be
       0.041081827 -0.10402716 -0.590531 -0.4935377
0003d0 42 c8 34 be 7b a3 d4 bd 05 77 b2 be 3b 45 3a 3e
       -0.17654517 -0.10382744 -0.3485643 0.18190472
0003e0 00 2f 53 be fb 7e e7 be ae 11 3c be 46 2b 03 bf
       -0.20623398 -0.45214066 -0.1836612 -0.51237905
0003f0 62 29 8b 3c a6 f1 24 bc 6a 3b 84 3e 75 7f bd bd
       0.016987506 -0.010067379 0.2582658 -0.09252826

gconvs.2.weight f4 [10, 10, 4, 3, 3]
000000 9d d4 c1 be c0 1a fb bd 03 fa 8d bd 46 c2 be be
       -0.37857524 -0.122609615 -0.069324516 -0.37257594
000010 c0 6c 3a bd f1 c2 24 3d 18 e4 2a be ac c4 6e 3d
       -0.04551387 0.040224973 -0.16688573 0.05829303
000020 87 92 f2 3c 77 3b 96 3d 4c 5d aa bd c2 ef 64 be
       0.029610885 0.07335561 -0.08318576 -0.22357085
000030 02 e8 c5 3c 98 ef cb 3d 01 57 44 3e 8d 03 e7 3d
       0.024158482 0.09957808 0.19173814 0.11279974
000040 09 49 cf 3d ec 5d c5 3d 2f 15 f3 3d b4 df 86 3d
       0.10121352 0.09637055 0.11869275 0.06585637
000050 f2 1f 53 3c bc 0d 9b 3e 9b ec 00 3e 08 f5 25 3d
       0.012886034 0.30283916 0.12590258 0.040516883
000060 7f 94 26 3e d1 26 58 be 99 29 53 be 03 f2 43 3d
       0.16267584 -0.21108557 -0.20621337 0.047838222
000070 a6 b6 16 3d 11 59 1a 3d 79 ae a9 3c 03 84 d3 3d
       0.03679528 0.037682597 0.020713078 0.103279136
000080 c4 ec 1a be ff 94 08 3e 5b d6 db 3d 33 86 34 bc
       -0.15129381 0.13338087 0.107342444 -0.011018324
000090 78 44 08 be 19 14 3f be a6 c4 06 3e 44 46 85 3e
       -0.13307369 -0.1866001 0.13160953 0.2603017
0000a0 29 45 09 be cb f4 16 be 2d ff 74 bf 09 9f 98 be
       -0.13405289 -0.14741819 -0.9570187 -0.29808834
0000b0 52 c0 62 be 3e 5f 94 be 1a 29 b9 bc 42 b3 ba be
       -0.22143677 -0.28978914 -0.022602607 -0.36464888
0000c0 0a 1f e7 be 9e 14 75 bb 65 d3 ba be 72 e4 c4 be
       -0.45140868 -0.0037396322 -0.36489406 -0.3845554
0000d0 07 fb 0a be 75 8f c8 be d1 fa 91 3d 75 5f 37 be
       -0.13572322 -0.3917195 0.071279176 -0.17907508
0000e0 4f 07 72 be b7 68 4c bd 95 cb 0a bd 6c 01 1e be
       -0.236356 -0.04990455 -0.033885557 -0.1543023
0000f0 bb 6f 1a 3e 67 c1 c1 3d cd 89 2b 3d 52 0b 80 be
       0.15081684 0.09460717 0.041879464 -0.25008637
000100 5b cc 99 be 45 c5 e2 3b 37 c6 4f be 8e e6 20 be
       -0.30038723 0.006920489 -0.20290457 -0.1571295
000110 a9 99 48 be 3c 69 7c 3d da ca 5c 3e f9 ea 99 3e
       -0.19589867 0.061623797 0.21561757 0.30062082
000120 21 71 9f be 93 56 a2 be 7f 87 b9 bd e3 35 b8 bd
       -0.31140998 -0.31706676 -0.09059047 -0.08994653
000130 96 4a a6 be 75 c8 97 3c 4d 57 b0 bd c5 f1 b7 be
       -0.3247878 0.018528203 -0.08610401 -0.35926643
000140 22 d9 92 be 90 7b 58 bd db 10 47 bd 5f 6c 91 bc
       -0.28681284 -0.052852213 -0.04860006 -0.01775187
000150 2f 62 9b be 1c 5a 0a be 71 db 32 be 88 44 d2 bd
       -0.30348346 -0.13510936 -0.17466523 -0.102669775
000160 57 b3 3c be 83 c7 c9 bd f5 38 c4 be 48 9f 1c be
       -0.18427788 -0.09852507 -0.38324705 -0.15295136
000170 e6 1c 7f be dd c5 82 be 84 c2 fa bd 78 2c 56 be
       -0.24913368 -0.25541583 -0.12244132 -0.20915401
000180 e3 7d 63 3c 01 69 aa be bc ef 12 be aa da 63 3e
       0.013884994 -0.33283237 -0.14349264 0.22251382
000190 8b 71 6d 3e 7c e6 4a 3e e2 62 17 3e 1b a6 80 3b
       0.23187844 0.19814485 0.14783815 0.0039260513
0001a0 fd b5 12 3d 99 53 cc 3d 41 24 7a bd d8 ef 43 be
       0.03581809 0.099768825 -0.06106973 -0.19134462
0001b0 c2 45 06 be 08 86 a4 be a5 6c 4e 3b 61 ec a4 bd
       -0.13112548 -0.32133508 0.0031497863 -0.08052898
0001c0 90 3c ac bd 3e 49 88 bd b4 95 1f bf ef 45 5e bd
       -0.08409989 -0.06654595 -0.62337804 -0.054265913
0001d0 12 af b0 be be dc 38 bf c7 6c 64 3e e7 78 e1 3e
       -0.34508568 -0.72211826 0.2230712 0.44037554
0001e0 62 90 46 be 18 2d dc 3c 53 67 85 bd 61 26 9f be
       -0.19391015 0.026876971 -0.06513848 -0.31083968
0001f0 d1 72 ac bc 41 cf 6b 3e 42 9f 9e bc 6e 25 30 be
       -0.021050842 0.2302828 -0.01936305 -0.17201778
000200 78 0e a0 be 01 b8 c1 3c a1 ed d6 3c 11 17 26 be
       -0.3126104 0.02364731 0.026236357 -0.16219737
000210 4f ee 28 be 31 f0 0e 3e 49 03 92 3d 16 b4 ae 3c
       -0.16497158 0.13958813 0.07129533 0.021326106
000220 41 02 49 3d 99 ef 1d 3d 23 0f 4a 3d b2 fd 9e 3c
       0.049074415 0.038558576 0.04933084 0.01940808
000230 04 57 31 3e c6 c1 fc bc f3 d1 82 bc d7 54 8a 3e
       0.1731835 -0.030854117 -0.015969252 0.27017853
000240 ac ae 39 3c c0 73 41 3d 9c 14 7f 3d 3b 4c 0c be
       0.011333149 0.04722953 0.062275514 -0.13700955
000250 66 24 a8 bd 01 44 4d bd 34 97 c3 be 0e b6 c3 be
       -0.082100675 -0.05011368 -0.38201296 -0.38224834
000260 3b 80 a0 be b3 a1 8f 3d 84 7f 49 3e 99 ac 39 3e
       -0.31347832 0.070132636 0.1967755 0.18132247
000270 70 75 da bd 34 0c 3f 3d 3f 45 16 3e e3 5c b2 bd
       -0.10666931 0.046642497 0.14674853 -0.08709123
000280 66 f6 85 bd 8d 16 7c 3d 0a fd 34 3d 70 29 67 3e
       -0.065411374 0.061544944 0.04418663 0.22574401
000290 4e 82 bb 3e 37 32 23 bf 12 5b fc be b0 0b 97 be
       0.36622852 -0.63748497 -0.4928823 -0.29501104
0002a0 d8 00 37 bf 8e 90 93 be 4f 27 b2 bd 97 c3 ac be
       -0.7148566 -0.28821224 -0.08698904 -0.33742973
0002b0 28 79 c7 bd 56 0d cd 3d 32 d8 49 be e9 e6 4c 3e
       -0.097399056 0.10012309 -0.19711378 0.2000996
0002c0 76 16 e3 bc 6f d2 30 be 50 ef 22 3d fc b7 09 3e
       -0.027720671 -0.17267774 0.039779007 0.1344909
0002d0 5c b0 b3 bd ed 0b d3 bd 16 19 3e be 75 35 b2 3c
       -0.08773872 -0.10305009 -0.18564257 0.021754006
0002e0 63 5c f9 bd 08 13 89 be 90 f7 9f be 5c ce c3 be
       -0.121758245 -0.26772332 -0.31243563 -0.38243377
0002f0 2c d5 18 bf b4 24 0e bf b2 ae dc be 65 00 b9 3d
       -0.59700274 -0.55524755 -0.43102032 0.090332784
000300 5b 2c b3 be 7a 88 dd be bb 72 82 3c 5d 84 04 bf
       -0.34994778 -0.43268186 0.015923848 -0.5176447
000310 03 57 19 bf 85 34 2d be 2d 79 80 bf 1b 56 ec be
       -0.59898394 -0.16914566 -1.003698 -0.46159443
000320 b7 bf 4f bc 4f 5f 86 be a0 0a 5e 3d 66 6b c9 bc
       -0.012679986 -0.2624459 0.05420935 -0.024587344
000330 ff b8 96 3c bd 07 6d 3d 4f c9 de bd 21 3d d1 3d
       0.01839876 0.057868708 -0.1087824 0.102167375
000340 e0 4a b2 bc 1f 19 ac bc 56 2d 01 3e 18 c2 93 3d
       -0.021764219 -0.021008072 0.1261495 0.07214755
000350 59 9f c8 bd 36 7f a7 3d da f0 d6 3a f1 d5 05 be
       -0.09796018 0.081785604 0.0016398684 -0.13069893
000360 5c ac 1a be 4f 11 62 bd b1 59 12 3e a2 85 24 3e
       -0.15104812 -0.055192288 0.14292027 0.16066602
000370 9f bd 68 3e 40 78 68 3d fd ef b4 3e b1 9c 2d 3d
       0.22728585 0.056755304 0.35339347 0.04238576
000380 e2 2b 8c 3c f5 32 01 3e 1a d7 c6 3d 93 d7 c4 3d
       0.017110769 0.12617095 0.09708996 0.0961143
000390 b1 f4 68 3e a3 8a 1f 3d fa 1c 82 3d 82 46 e3 3d
       0.22749592 0.038950574 0.06353183 0.11097433
0003a0 55 25 b3 3d 0c f4 03 3e c4 83 40 be 04 f0 fa 3c
       0.08747355 0.12886065 -0.18800265 0.030632026
0003b0 e2 37 1c be c4 7a e1 bb 41 2d 15 3e f1 6d 63 3e
       -0.15255693 -0.00688109 0.14568044 0.22209908
0003c0 f3 23 65 3d b9 0f b7 3e 0b 80 d7 3e be 66 fa be
       0.055942487 0.35754183 0.42089877 -0.4890651
0003d0 08 01 59 bf fb 2c 58 bf 6c 46 4b be 61 77 55 be
       -0.847672 -0.84443635 -0.19851083 -0.2084632
0003e0 18 aa 12 bd 24 12 32 bf d6 1e 28 bf 53 68 8b 3d
       -0.035806745 -0.6955893 -0.6567205 0.06807008
0003f0 90 ca 68 3d b2 d5 8e 3d f7 9b 30 3e 40 02 25 bd
       0.056833804 0.06974353 0.17246996 -0.04028535

gconvs.3.weight f4 [10, 10, 4, 3, 3]
000000 17 2a 81 bd 7a a0 43 be 10 ed 79 be 7d 07 38 bd
       -0.06306856 -0.19104186 -0.24406838 -0.044929016
000010 c4 e8 27 be cb be 67 be 37 b7 8c bd 0a 84 32 bd
       -0.16397387 -0.22631375 -0.06870883 -0.043582954
000020 d2 d1 89 3e dc 4e 65 be 5f 7e dc bd ea eb eb bc
       0.26917893 -0.22393364 -0.10766291 -0.028799016
000030 2f 81 b0 bd 60 41 62 be 23 50 0b be 47 11 c2 3d
       -0.0861839 -0.22095251 -0.13604788 0.09475952
000040 27 67 0e 3c b9 0c 12 be 31 ad 3e be c3 f8 b6 3d
       0.008691586 -0.14262666 -0.18620755 0.08934166
000050 0e 7e fb 3d 88 6e 9f be 44 15 b5 bc 7f 8d ff 3c
       0.122799024 -0.31139016 -0.022104867 0.0311954
000060 39 e9 00 be 53 25 af bd f7 ac 91 3d 3a b5 c4 be
       -0.12588967 -0.08552041 0.071130686 -0.38419515
000070 6f b6 e3 bd 9f 97 13 3d e9 32 4b be 26 c7 07 be
       -0.11118781 0.03603327 -0.1984364 -0.13259563
000080 93 8b a5 bd 5b 49 7f be 2a 5b e1 bd 0b c3 f4 bc
       -0.08083262 -0.24930327 -0.11003716 -0.02987816
000090 67 9e 9c 3d c8 ef 36 3e f7 3c 7f 3e 77 ed a6 bd
       0.076474 0.17864907 0.249256 -0.081507616
0000a0 9e 96 64 3c 5a 3c 9c 3d a6 bb 83 3c 00 8e 19 3a
       0.013951926 0.07628699 0.016080689 0.00058576465
0000b0 1e 35 ca bc 90 4a 6e be 5b 3d 62 3e f0 a5 26 3e
       -0.024683531 -0.23270631 0.22093718 0.16274238
0000c0 1c 32 92 bd d8 38 be 3d b1 26 83 3d 3e 8e 85 bc
       -0.07138464 0.09288186 0.06403864 -0.016303178
0000d0 e6 2e c1 3c 43 9f 3f 3e 39 9e 71 bd fa 0f d0 bd
       0.023581933 0.18713097 -0.058988784 -0.10159297
0000e0 f4 52 2f be 49 06 7c be 42 df 87 bd 22 e5 88 bd
       -0.17121488 -0.24611773 -0.0663438 -0.066843286
0000f0 fb 72 a7 3c 91 86 08 be 29 5a b5 bd 03 47 62 be
       0.02044057 -0.13332583 -0.08855087 -0.22097401
000100 43 ec 03 bf 40 1e 6f be 5d 89 ae be c6 9b d7 be
       -0.5153238 -0.23351383 -0.34089175 -0.42111033
000110 a1 61 9c be 16 43 fd bd 06 0e bb be 79 7f cd be
       -0.30543235 -0.12366311 -0.36534137 -0.40136316
000120 ce 21 e3 be 75 92 87 be d5 4c 7f be 7a 09 8f be
       -0.44361728 -0.26478925 -0.24931653 -0.27936918
000130 ca 9e 98 be 89 a6 d3 be e0 f6 60 be ee 6c 8c be
       -0.29808646 -0.41337994 -0.21969175 -0.27426857
000140 53 4b 5c be e8 44 1b bf 64 6e ab be d0 45 91 3a
       -0.21513109 -0.6065202 -0.3348266 0.0011083428
000150 37 a2 7e be 5c a8 0e be ed 56 c7 ba 77 f2 a3 be
       -0.24866568 -0.13931412 -0.0015208401 -0.32020923
000160 e7 8a e3 bd 4a d0 87 3d 75 e2 a2 be ee 12 6f be
       -0.11110478 0.06631525 -0.31813398 -0.23347065
000170 6d 7a 48 be d8 17 2c be 5c fd 51 bd 77 f4 8a be
       -0.19577952 -0.1680597 -0.051267013 -0.27139637
000180 01 f3 db bd 4f 94 39 be 8f 19 a3 bd c1 af 11 bf
       -0.10739709 -0.18122981 -0.07963859 -0.56908804
000190 46 a1 23 be 0b d0 a8 3c cf e0 df be ed d2 85 3d
       -0.1597949 0.020607015 -0.43726203 0.065343715
0001a0 ed e9 b1 3d 3c 47 cf be 9d cd af bd 2c c4 1b bd
       0.08687196 -0.40484035 -0.085841395 -0.03802888
0001b0 f5 e6 2b be 45 ed 9b bd 2a ff 39 3c 27 9c 25 bd
       -0.16787322 -0.07613615 0.01135234 -0.04043212
0001c0 28 6b 71 3d 23 2a 02 3c cb ea 14 3e 52 73 d0 3d
       0.058940083 0.0079446165 0.14542691 0.101782456
0001d0 81 cd e8 3c f6 5b 87 be 4a 37 a2 be a5 7f e7 bd
       0.028418304 -0.26437348 -0.31682807 -0.11303643
0001e0 c9 df 04 bf 35 06 8a be af a7 7d 3c e6 60 f7 be
       -0.5190397 -0.2695786 0.015481873 -0.48316115
0001f0 ca a9 91 be 39 99 02 3d fc e2 0e bf 1e cd 83 be
       -0.2844985 0.031884406 -0.558151 -0.2574243
000200 33 bc e4 3d 03 20 a9 be c3 83 3f 3c 58 24 8e 3e
       0.11168709 -0.33032236 0.011689129 0.27762103
000210 03 5b be 3c d4 30 f4 3d 9e b4 7a 3e 61 c3 eb bd
       0.023236757 0.11923376 0.24482962 -0.11511875
000220 83 7d 9d be 6b a2 f9 bd ec 5e ae bd 42 2c a7 bd
       -0.3075982 -0.12189182 -0.08514199 -0.081627384
000230 f3 1d 26 bc fc 0a a7 bc 22 c2 4a bd cf 5a 37 3c
       -0.010138976 -0.02039098 -0.049501546 0.011191084
000240 68 1e a4 3d cf 25 72 3c 65 7f 17 3e 1d ed a6 3d
       0.08013612 0.014779522 0.14794691 0.081506945
000250 dd 70 f9 3d 2e 31 b3 3d 26 2e b3 3d d9 0d 3a ba
       0.1217973 0.08749615 0.087490365 -0.00070974004
000260 86 9a 96 bd 85 c1 04 be 13 be 75 bd 59 a1 07 3b
       -0.07353692 -0.12964447 -0.059995722 0.0020695536
000270 f9 a6 21 3d c8 72 88 3d 7b 73 5d bd 89 df aa bc
       0.03946588 0.06662518 -0.05406521 -0.020858543
000280 61 d5 02 be bf 37 3f 3d 97 1f 65 3d 67 65 4b 3b
       -0.1277671 0.046684023 0.05593833 0.0031035782
000290 be b4 89 bc 37 ad d3 3b 4b 69 4a bd 06 7f 43 bd
       -0.016809817 0.006459858 -0.04941682 -0.04772856
0002a0 a0 01 e1 bc c9 67 b5 bd 54 12 eb bd 48 c5 12 be
       -0.027466595 -0.08857686 -0.11478105 -0.1433307
0002b0 99 bf 7a 3b 8a ed 47 3d 9d 36 1a be e9 f2 97 bd
       0.0038261174 0.04881052 -0.15059896 -0.07419378
0002c0 9c a5 28 be e4 e9 07 3d bc fb 92 bc a9 cb 34 3d
       -0.16469425 0.03318204 -0.017942302 0.044139538
0002d0 2d 97 00 be 4a dd a1 3d 4f 1f 8e 3e d6 13 60 be
       -0.12557669 0.07903536 0.27758262 -0.21882567
0002e0 d2 aa ad bd b5 de 74 3e 0b b8 31 bd a1 72 12 3d
       -0.08479847 0.23913081 -0.043388408 0.03575385
0002f0 4b 27 f5 3d 89 d6 35 3e 45 11 81 bd a7 df 0b 3e
       0.11970385 0.1775762 -0.06302122 0.13659535
000300 a5 76 b6 3c f8 5e bc 3d 54 4c c4 3d 67 0e 23 3d
       0.022273371 0.09197801 0.09584871 0.039808657
000310 14 7e fe 3d f0 9f 35 3d 49 8f 10 be b3 10 8e be
       0.12426391 0.04434198 -0.14117159 -0.27747115
000320 f5 06 54 be 07 8f e0 bd dc 03 bd bd c4 16 58 be
       -0.20705779 -0.1096478 -0.09229252 -0.21102434
000330 db 88 a6 3d 6d 70 ca 3d a5 32 06 3e f4 83 19 3e
       0.08131572 0.09884725 0.13105257 0.14991742
000340 9b f4 50 3d 76 4c 61 be fd df b2 3d c4 c2 f0 bd
       0.051014524 -0.22001824 0.087341286 -0.117558986
000350 92 71 af be a9 cd d2 bc bb 83 30 be 80 1c aa be
       -0.34266335 -0.025732832 -0.17237751 -0.3322487
000360 a1 3b c5 be c6 8e 2e be 34 10 1d bd 32 54 c8 bd
       -0.38522056 -0.17046651 -0.03834553 -0.09781684
000370 aa 56 07 3e e6 22 f6 3d 32 18 85 3b 7d 2d 7b 3e
       0.13216653 0.12018375 0.004061722 0.24529071
000380 be 03 83 3e 28 da 8d be 2e a8 f3 bd 47 d6 83 3d
       0.25588793 -0.27705503 -0.11897312 0.064373545
000390 a6 81 99 be 4d a2 b9 bd 35 ef d3 3d 73 c3 82 be
       -0.29981726 -0.090641595 0.103483595 -0.2553974
0003a0 61 33 d6 bd 3b 2b ac 3d e1 88 8e be 94 c7 1e be
       -0.104590185 0.08406683 -0.27838805 -0.1550582
0003b0 8f 5b 50 be 09 7e 2e be 2b ff 26 be 84 cf 7f be
       -0.20347427 -0.17040266 -0.16308276 -0.24981505
0003c0 a8 c2 37 bc 1c 57 04 3d 7c 39 80 3d 79 9e eb 3d
       -0.011215843 0.032309636 0.06260964 0.11504836
0003d0 42 12 c1 3d 45 11 9c bc 7d 6b df bd 7f 26 a1 3d
       0.094273105 -0.019051204 -0.10909174 0.07868671
0003e0 8f 30 f9 3d 13 11 c9 be 52 b4 15 be 73 fb 0d 3e
       0.12167465 -0.3927084 -0.14619568 0.13865452
0003f0 ff 94 cb 3d a5 03 75 3d fd 56 c0 3d 54 93 40 3d
       0.09940528 0.05981793 0.09391592 0.047015503

gconvs.4.weight f4 [10, 10, 4, 3, 3]
000000 27 84 eb be 45 77 7c be 30 d3 b6 bc f1 d1 22 be
       -0.45999262 -0.24654873 -0.022317499 -0.15900399
000010 4e 8d 5d bd 17 d3 0e 3e 04 10 a7 bc f3 ba da bd
       -0.054089837 0.13947712 -0.020393379 -0.10680189
000020 bf 08 c9 bd 00 de 9d 3c da a7 b6 bd c7 5a 7d be
       -0.09816121 0.019270897 -0.08918734 -0.2474166
000030 f9 87 75 be 57 e1 11 bd 7c 8e cc 3d f4 0e 10 3e
       -0.2397765 -0.03561529 0.09988114 0.14068204
000040 b0 1f 9c 3e 05 5c 91 3e d8 30 0d bf db 9c 34 bf
       0.30492926 0.28390518 -0.55152655 -0.7055184
000050 15 1f 12 bf 35 4c e0 be bf 86 b9 be b9 33 de be
       -0.5707868 -0.4380814 -0.36235616 -0.43398836
000060 b1 c0 6d 3d 29 d4 dd be 63 61 09 bf 0a ed ba be
       0.058045093 -0.43325928 -0.53664225 -0.3650897
000070 60 ac 5d be 51 1b d4 bd 17 9c 02 bf 17 c5 53 be
       -0.21647787 -0.10356773 -0.51019424 -0.20680653
000080 24 aa 11 be 6b 4c 04 bf 00 4b e3 be 19 11 2c be
       -0.1422506 -0.51679105 -0.44393158 -0.16803397
000090 11 3f ce be 21 63 50 be ad e8 6a be e0 17 4b be
       -0.4028249 -0.20350315 -0.22940321 -0.19833326
0000a0 32 f0 97 bd e2 07 25 be 94 06 f4 3d 60 7f 03 3e
       -0.074188605 -0.16116288 0.11915317 0.12841558
0000b0 6a 60 b6 bd a9 62 00 bf 0f 0a d5 be a7 42 32 bf
       -0.08905108 -0.50150543 -0.41609237 -0.69632953
0000c0 48 a5 0f 3d 15 11 54 3e 7b 99 d9 bd e4 e6 90 3e
       0.035069734 0.20709641 -0.10624977 0.28301156
0000d0 c3 08 80 3e 53 e9 a0 3e d5 dd 1b be 11 63 d0 be
       0.25006685 0.31428012 -0.15221341 -0.40700582
0000e0 5e 82 28 bf a3 87 8f 3d a8 59 43 bc f4 d9 4b be
       -0.65823925 0.070082925 -0.011923231 -0.19907361
0000f0 70 04 14 3e ee ba a3 bc 06 98 2d be 2f 44 ee 3e
       0.14454818 -0.019986596 -0.16952524 0.46536395
000100 b1 6d c3 3e 20 25 95 3e db ad de bb 33 19 20 bd
       0.38169625 0.29129887 -0.0067956275 -0.03908653
000110 20 60 aa be 62 d1 ee be 4b 79 b6 be 28 66 65 be
       -0.33276463 -0.4664412 -0.35639414 -0.22402251
000120 b2 72 1a bf 59 04 fb be 13 79 8d be 4b 57 dc bd
       -0.6033126 -0.49026754 -0.27631435 -0.10758837
000130 20 c9 23 be eb ee 93 be 20 ed 1d be cb cb b4 3c
       -0.15994692 -0.28893217 -0.15422487 0.022069832
000140 7d d4 40 be e3 dd 01 bf 68 c4 6d bf 0d 3f 84 bf
       -0.18831058 -0.507292 -0.9287782 -1.0331742
000150 d3 eb 02 be 17 5f 91 be d5 e1 de be 04 73 bd 3d
       -0.12785272 -0.2839286 -0.4353167 0.09250453
000160 24 cc 90 3e d6 c1 54 3e 6d f6 20 3e 26 06 1f 3e
       0.28280747 0.20777068 0.15719004 0.15529689
000170 a3 be 13 be c0 c8 4a 3e 1a 9f 23 3d 1c dd ee 3c
       -0.14428191 0.19803143 0.039946653 0.029158168
000180 8f b7 e6 3e 84 dc e0 3e 68 82 a8 3e 3d 22 5e bf
       0.4506192 0.4391824 0.32911992 -0.86770993
000190 89 5d d4 be eb c9 c9 bd 28 c0 02 bf 12 6c 0a be
       -0.41477612 -0.09852966 -0.5107446 -0.13517788
0001a0 da 3b 4e be 59 f0 96 be e2 42 5b be 50 28 bf bc
       -0.20140019 -0.29480246 -0.21412233 -0.023334652
0001b0 49 3f c7 bc 2f f2 1e be 76 39 27 be c7 d1 5d 3d
       -0.024322169 -0.15522073 -0.16330513 0.054155137
0001c0 4c b6 1b be eb 89 90 be de f2 03 3e bd fc a5 bd
       -0.1520626 -0.28230223 0.12885615 -0.081048466
0001d0 2e 02 4c be ae d1 d8 3d 19 8d 50 be c1 4c a5 be
       -0.19922706 0.10586868 -0.20366324 -0.3228512
0001e0 e6 98 b3 3d c7 38 f8 bd 8a c0 58 be ae 61 29 3d
       0.087693974 -0.121202044 -0.21167198 0.04135292
0001f0 fb 6a a6 3d 33 7a 39 be 81 42 24 3e 93 a1 0b 3e
       0.08125874 -0.18113022 0.16040994 0.13635854
000200 e3 f7 9b 3d f3 e6 aa 3d ea 1a 05 3e f0 41 20 3e
       0.0761564 0.08344831 0.12998548 0.15650153
000210 6c 2a 39 bb ce c9 11 3e 87 43 8e 3e d4 97 86 be
       -0.0028254045 0.14237139 0.27785894 -0.2628771
000220 e7 86 9b bd 28 8e 1c 3e b1 f9 47 be 32 94 52 bc
       -0.0759409 0.15288603 -0.19528843 -0.012852715
000230 c9 c7 e0 3d d2 66 02 3e c5 11 c7 3d 74 d4 4d 3e
       0.10975606 0.12734535 0.09720186 0.20100576
000240 3f 5e 29 3e 32 f0 c8 3b 94 ae e6 bd 05 4c e9 3e
       0.16539858 0.006132149 -0.11263767 0.4556581
000250 87 65 96 3d 06 03 02 be 11 4b 6d 3e dc a5 eb 3d
       0.073435836 -0.12696466 0.23173167 0.115062445
000260 49 37 e9 bd 46 a0 e4 3c e0 3e 1f bd a9 c5 33 be
       -0.11387498 0.027908456 -0.03887832 -0.1755587
000270 27 a6 37 3e 68 f7 ed 3c a7 df aa bc 54 f4 b1 3d
       0.17934476 0.029048637 -0.020858599 0.0868918
000280 14 11 13 3d b8 fb ea 3d 36 c4 2e be 7b 45 62 be
       0.03590496 0.11473793 -0.17067036 -0.22096817
000290 6e dc b2 bd 8d 9d 29 be d5 00 5f bd d2 5c 86 bd
       -0.0873345 -0.16564007 -0.054444153 -0.06560673
0002a0 bd 54 cd bd b7 40 cf bd 94 31 9e 3d 4a d2 bb 3d
       -0.10025928 -0.10119765 0.077243 0.09170969
0002b0 b8 ad 37 3e df 34 25 3e de 30 16 be a8 ee 12 3e
       0.17937362 0.1613345 -0.14667079 0.14348853
0002c0 96 b6 0b 3e 5f 77 30 be 16 61 1a be 22 f2 25 bd
       0.1364387 -0.17233036 -0.15076098 -0.04051412
0002d0 b0 18 fa be 34 d2 3b be 79 3c 90 bd 76 8a db be
       -0.4884696 -0.18341905 -0.07042784 -0.42879075
0002e0 a5 28 6f be 37 33 c0 be 92 bb ba bd 8f b6 88 be
       -0.23355348 -0.37539074 -0.091178074 -0.2670178
0002f0 c4 34 22 bf 42 dc 99 3e de da 34 3d 65 35 bd be
       -0.63361764 0.30050856 0.04415404 -0.369548
000300 cf 7b 75 bd 02 a6 b3 bd 50 84 0d be 2d f6 14 be
       -0.059932526 -0.08771898 -0.13820004 -0.14547034
000310 73 eb e7 3a 3e 17 0b be 7a 61 00 be f3 c6 24 3e
       0.0017694071 -0.13583085 -0.12537184 0.16091518
000320 7a 44 c3 3e 63 90 4d be e9 64 35 be a1 c6 12 bd
       0.3813818 -0.2007461 -0.17714275 -0.03583396
000330 e3 b5 8c be bf 30 0f bf 0a e5 c2 be 07 62 15 bf
       -0.2748252 -0.55933756 -0.38065368 -0.583527
000340 2b 0e 26 be f3 d2 94 bc 0b 47 1b bf 19 09 37 be
       -0.16216342 -0.018166995 -0.6065528 -0.17874564
000350 f1 d7 a7 3e ec e7 34 bf b3 f1 01 bf 59 7f 8d 3e
       0.32781938 -0.70666385 -0.5075943 0.2763622
000360 e6 50 9a 3d 4e 5a b3 bd 26 02 86 bc 8c 11 19 bd
       0.075349614 -0.087574586 -0.016358446 -0.03737025
000370 41 e2 f8 bd 5d c4 d4 bd d8 05 db bc 20 52 70 be
       -0.121525295 -0.10389016 -0.026736185 -0.23468828
000380 d1 0c e6 be 14 10 89 be 58 1e 0a be 02 06 aa bd
       -0.44931653 -0.2677008 -0.13488138 -0.08301927
000390 12 d3 e3 bd 04 94 ae bd 6f 05 10 be 7f 20 eb ba
       -0.11124243 -0.085243255 -0.14064573 -0.0017938762
0003a0 83 83 df 3d 6d 0b b7 3d 8c 2b b7 3c e2 63 0f 3e
       0.10913756 0.08937726 0.022359632 0.14002946
0003b0 61 f4 5d 3d 8a a6 1f be 99 bc 3d bd c5 d8 db bc
       0.054188136 -0.15590873 -0.04632244 -0.026836762
0003c0 99 e5 a7 be 93 ab a6 be 5b 9d 75 be 4c 9f dd be
       -0.32792357 -0.32552776 -0.23985808 -0.43285596
0003d0 b2 4b e0 be 8a 53 be be c1 ee 16 be 80 78 8e be
       -0.4380775 -0.3717311 -0.14739515 -0.2782631
0003e0 0c a1 da be f4 0d 6f bc de 98 ce bd 71 0e 00 be
       -0.42700994 -0.014590729 -0.10087751 -0.12505509
0003f0 56 cb 0c 3d 59 c4 0c 3e fa ba d1 3d c7 55 cf 3c
       0.034373604 0.13746776 0.10240741 0.025309457

gconvs.5.weight f4 [10, 10, 4, 3, 3]
000000 90 11 da 3e 1d d2 d1 3e d1 d2 8f 3e c6 7d 74 3e
       0.42591524 0.40980616 0.28090528 0.23876104
000010 17 9a 03 3e a0 51 fa 3d db 75 98 3d 16 cd 33 3e
       0.1285175 0.122226 0.07444354 0.17558703
000020 11 7b 0a 3e 56 c7 ab 3e 89 53 80 3e 40 f6 4a be
       0.13523509 0.3355052 0.25063732 -0.198205
000030 63 b8 43 be f9 4f a8 bd e1 5b fa be c7 01 4c bf
       -0.19113307 -0.082183786 -0.48898223 -0.7969021
000040 02 be d7 be 1e 0e 22 bf dc d2 e4 be 6e fa 96 be
       -0.42137152 -0.6330279 -0.44692123 -0.29487938
000050 94 b2 43 be dc 89 de be bb e9 03 be 0c 80 b2 3d
       -0.19111091 -0.43464553 -0.1288213 0.08715829
000060 37 6d 59 bf cd 0d 01 bf 5b 64 80 be 5f e9 27 3e
       -0.84932274 -0.50411683 -0.25076565 0.16397618
000070 7a e0 ad bd 64 5c b4 be 2f 85 7f 3b 5a 56 3a be
       -0.08490081 -0.35226738 0.0038989296 -0.18197003
000080 90 ee 9e be f6 d4 ac bd ff 4c 2b be d8 52 db be
       -0.31041384 -0.084390566 -0.1672859 -0.42836642
000090 0d a5 dd be eb 2b 2e bf 23 8f 11 bf f3 a8 a5 be
       -0.43289986 -0.68035764 -0.56859034 -0.3235546
0000a0 f0 7e e3 be 0b 25 66 be e2 e5 34 be 36 38 2c be
       -0.44432783 -0.22475068 -0.17665818 -0.16818318
0000b0 f8 66 7a 3d a6 76 5c bf 27 ad da be 22 58 bf be
       0.061133355 -0.86118543 -0.4271023 -0.37371927
0000c0 b7 64 ed be 84 be d3 bc 27 74 bc 3e 49 20 bd be
       -0.46365902 -0.02584768 0.36807367 -0.36938694
0000d0 40 0c 19 3e 3d 47 fa 3e ad cf 25 bf 76 fa c2 bd
       0.14946079 0.48882475 -0.64770013 -0.09520428
0000e0 09 7e 9c 3d 1e 5b 37 be 83 ca 6a 3e 4e 9c 6b 3e
       0.07641227 -0.17905852 0.22928815 0.23008844
0000f0 77 6c f7 be 31 6f 2a be 49 1e 27 3a 34 83 f9 be
       -0.4832494 -0.16643979 0.0006375057 -0.48732913
000100 c5 34 3c bf b5 a0 48 bf 1d ef cc be f4 37 b4 3d
       -0.7351802 -0.7837022 -0.4002618 0.08799735
000110 eb b6 68 3e 92 dc 13 bf 0c ea 36 be ab 56 a6 3d
       0.22726028 -0.5775844 -0.1786272 0.08121999
000120 98 43 9b be 67 84 aa 3d 5c eb ea 3e 3e 5b a2 be
       -0.30325007 0.08326035 0.4588269 -0.31710237
000130 af 4d 68 3e f5 49 ca 3e d6 e5 5d be 09 48 6d be
       0.22685884 0.3950955 -0.21669707 -0.2317201
000140 58 37 f6 3c 49 82 e9 3c f3 ab be be a2 d9 79 bf
       0.030055687 0.028504508 -0.37240562 -0.97597706
000150 c8 d4 03 3d a8 64 d1 be 12 4d 6b bf dd 3c 20 be
       0.032185346 -0.40897107 -0.91914475 -0.15648217
000160 36 74 ad be 54 d9 7f bf e9 b0 b7 be 99 8b 57 be
       -0.33877724 -0.9994099 -0.3587716 -0.21049346
000170 1f 7a 91 be 02 1a 4b be 6a 62 bc be 0b 41 88 be
       -0.28413484 -0.1983414 -0.36793834 -0.26612124
000180 dc 60 c4 bc f7 e7 7d be c2 02 9b bd 72 da 85 be
       -0.023971967 -0.24795519 -0.075688854 -0.26143223
000190 43 0a 6b be 8a 0a 74 bc f1 4f 0e bf f4 71 ab be
       -0.22953133 -0.014895091 -0.5559073 -0.33485377
0001a0 4b 1a 3e be ee ff ba be 1a e0 8f be ea f5 94 be
       -0.18564717 -0.36523384 -0.28100663 -0.29093868
0001b0 3b 9f 2b bf 4e e5 9e be 64 e1 89 3e 4f e4 9b be
       -0.6703984 -0.3103432 0.26929772 -0.30447623
0001c0 26 2b 1b be 49 27 99 3d 4a d1 1a be a5 33 2c be
       -0.15153179 0.07478196 -0.151189 -0.16816576
0001d0 6c 3b b5 3d 44 3d 86 be b5 29 82 3e b1 26 33 3f
       0.088492244 -0.26218617 0.25422445 0.69980913
0001e0 63 07 95 bd 22 2c 1a 3e f8 8b 01 3f 54 cc f7 bd
       -0.072767995 0.15055898 0.506042 -0.12099519
0001f0 a0 8f a8 3d c7 90 e2 3e fc 85 83 be 7e 72 eb bd
       0.08230519 0.4425108 -0.2568816 -0.11496447
000200 45 f6 5c be 8f 2b 79 be 75 bf 20 3c fa 94 f9 bc
       -0.2157832 -0.24333023 0.009811272 -0.030466545
000210 1e ce 4b be 07 02 d8 bc 73 96 9e bd 48 c9 7c 3c
       -0.19902846 -0.026368154 -0.0774354 0.015428849
000220 66 9b 30 be cf 57 1e bf 4c 02 a7 3e 61 32 02 3e
       -0.1724678 -0.61852735 0.3261894 0.1271453
000230 91 ed 56 be e2 42 0b 3f b9 fa 9d 3e da bc 80 bd
       -0.20989062 0.5439893 0.3085535 -0.062860206
000240 6c c2 a5 be 15 92 f5 3d c9 f6 8e 3e 85 e3 c2 be
       -0.32374895 0.119907536 0.27922657 -0.3806421
000250 2d 3d aa bd b2 84 1d 3e 05 f0 3b bf 97 5d 82 bf
       -0.083124496 0.1538265 -0.73413116 -1.0184811
000260 3d 41 3e bf 7f 73 e6 be 3f 61 4c bf eb 55 54 bf
       -0.74318296 -0.45009992 -0.79835886 -0.829436
000270 24 b7 f7 bd b1 7a 1d be 26 f8 fb bd 37 7d 0f be
       -0.12095478 -0.15378834 -0.1230319 -0.1401261
000280 9d cd e6 bd 46 98 a6 3d 13 85 9f 3d 6d 39 de bd
       -0.11269686 0.081345126 0.07789054 -0.10850797
000290 0d 74 7d bb d4 dc 8f 3d 64 6a 60 be 39 0a 09 3d
       -0.0038673908 0.070245415 -0.21915585 0.033457015
0002a0 07 69 27 3e 6e 92 b7 bd f7 d1 ab 3d dc 2e c3 be
       0.16348659 -0.08963476 0.08389657 -0.38121688
0002b0 08 e0 1c bd 06 dc 4d 3e e7 bd 1d bf 3a b7 a0 bd
       -0.03829959 0.20103464 -0.61617893 -0.07847448
0002c0 46 b2 87 3d 5c 75 bf be c3 2d 1c bd d5 06 2f 3e
       0.066258 -0.37394226 -0.03812958 0.1709245
0002d0 69 25 54 bf aa 3d ac be e9 f7 0f 3e 0c da 1f bf
       -0.82869583 -0.33640796 0.14059414 -0.6244209
0002e0 ea 48 bb be 61 2c f0 39 7a 65 6b bf cd 31 21 bf
       -0.36579067 0.00045809432 -0.91951716 -0.62966615
0002f0 2b a7 e1 bd 0b 75 41 3e 32 38 d9 bd 64 fd 4a bd
       -0.11018213 0.18892305 -0.106064215 -0.04955806
000300 ce 0f 15 3e 1c ba 45 3e e5 bf 60 3d 85 13 6b 3e
       0.1455681 0.19309276 0.054870505 0.22956665
000310 c3 76 d4 3d dd 60 ac 3e 02 4d 5b 3e b4 23 3a 3d
       0.103742145 0.3366765 0.21416095 0.045444205
000320 cf ad 2d 3e bc 93 5b 3e 3d 75 d2 bb 64 68 c0 ba
       0.16960834 0.21443075 -0.0064226673 -0.0014679548
000330 0a 18 c7 3e 36 a0 5e 3d 8b 80 3e 3d 34 00 06 bf
       0.38885528 0.054352008 0.046509307 -0.5234406
000340 08 41 1b 3d 9b ec 2e 3e 33 81 69 bf 2b e0 b3 be
       0.037903816 0.17082445 -0.9121277 -0.35131964
000350 0f cc f0 3d ee 3c 8c bf 7c d7 00 bf 15 e5 a6 bd
       0.11757671 -1.0956094 -0.50328803 -0.08149163
000360 08 56 a6 3e 99 18 84 3e 75 4e 83 3e 5f 88 87 3e
       0.32487512 0.25800017 0.25645795 0.2647123
000370 6e 50 bd 3d 71 a9 57 3e bd 15 98 3e 86 a4 42 3e
       0.09243856 0.2106073 0.29704085 0.19008073
000380 75 eb 6d 3e 41 f9 2a 3c 19 7d a4 3e db ea 8b 3e
       0.23234351 0.010435403 0.32126692 0.27327618
000390 46 81 13 be cc c9 09 3d ce 4a e9 3d 58 87 08 be
       -0.14404783 0.033639714 0.11391221 -0.1333288
0003a0 f4 b5 10 3c a2 6a fd 39 86 bd a5 be 12 48 6e be
       0.0088324435 0.00048335368 -0.32371157 -0.2326968
0003b0 2b a4 0f be 32 30 e0 be dc 46 96 be d0 80 a6 be
       -0.14027469 -0.4378677 -0.29350936 -0.3252015
0003c0 f3 fa 7b bf 18 32 39 bf 75 74 26 bf a6 81 a2 be
       -0.98429793 -0.7234206 -0.6502145 -0.3173954
0003d0 3c 1d 01 bf 90 e7 11 bf 40 a1 40 be 63 5b d6 be
       -0.50435233 -0.5699396 -0.18811512 -0.41866598
0003e0 6a e6 bb be 2c fa 9b be 2a 24 c9 be 6d 01 cc be
       -0.3669923 -0.30464303 -0.39285403 -0.39844838
0003f0 c6 60 d9 bc ad ea 68 bd 9a e5 a5 be 2a 13 2a be
       -0.026535403 -0.05686443 -0.32401735 -0.16608873
