oldruns/RelaxedP4CNN_none_std0_gamma0_lr0.002/model.pt (torch, 116029 bytes, 18 tensors)

lifting_conv.combination_weights f4 [3, 4]
-0.3086733 -0.30745187 -0.3087401 -0.30573633 -0.0832987 -0.08079069 -0.08049414 -0.07834788
-0.33161747 -0.33257598 -0.32973418 -0.33092338
00000000: 6d0a 9ebe 556a 9dbe 2f13 9ebe 7989 9cbe
00000010: 8298 aabd 9775 a5bd 1dda a4bd da74 a0bd
00000020: c4c9 a9be 6647 aabe ebd2 a8be ca6e a9be

lifting_conv.weight f4 [3, 6, 1, 3, 3]
-0.12754476 -0.17032118 0.06448047 -0.05134996 0.008839767 -0.026827484 -0.36661875 -0.16932356
0.08422072 0.62179714 -0.13710602 0.03675767 0.1835455 -0.36086583 -0.34998503 0.004359414
0.40480587 0.5563497 0.32686025 0.09520665 -0.19230583 0.34431297 -0.11111122 -0.30775127
0.39478964 -0.0664261 -0.5098954 0.4481425 -0.076425895 0.24072318 -0.2020698 -0.30748156
-0.2548778 -0.31596795 0.14075707 -0.31517115 -0.4826593 -0.05463956 -0.26680636 0.009360387
-0.18727325 0.11756656 0.24925193 0.3932513 -0.07498094 0.004095574 0.21579632 0.09473291
0.46671718 0.044631056 -0.42634702 -0.3450044 -0.40471923 -0.15954272 -0.0223285 0.32144055
-0.04554755 -0.1858086 0.07139126 0.14144528 -0.2455087 0.23843153 -0.1350621 0.6802729
0.021393295 -0.083863825 -0.22097759 -0.08469066 -0.105088 0.24888144 -0.20152691 0.47468942
0.012667454 -0.40781295 -0.21985331 0.30362934 0.019712238 0.3159963 0.052431 0.06542472
-0.07932402 0.103467144 0.095004104 -0.1573199 0.22046797 0.07628478 0.17973937 0.20739163
-0.26934424 -0.23640786 -0.0923341 -0.4091671 -0.313003 0.3133793 0.112280525 0.03557774
0.19777168 0.35134774 -0.1886494 0.005094319 0.45871776 -0.21440949 0.16812561 0.051020615
-0.3089201 -0.37972945 -0.43730298 0.061965518 -0.2753477 0.037879974 -0.006672023 -0.02399212
0.41577318 -0.20717406 -0.18982732 0.18022811 -0.116812006 0.1914638 -0.0767727 -0.39389002
0.31546655 -0.461917 -0.13141881 0.15366235 -0.06419673 0.7344281 0.23987244 -0.4772949
0.06727464 0.42885756 -0.0058525163 -0.21014094 -0.12607072 0.19904804 -0.3566833 0.28407
0.096425764 -0.26651108 0.30549854 -0.13015264 -0.1204758 0.1881601 -0.25246078 0.294103
-0.37852365 -0.14930698 -0.03206799 0.3908624 -0.055716448 -0.20844905 0.54170686 0.118900925
-0.011341256 0.4038852 0.47711307 0.16779268 0.15805462 0.15561186 -0.17263955 -0.24936919
0.044255234 -0.4147517
00000000: 189b 02be ad68 2ebe 560e 843d 5654 52bd
00000010: acd4 103c 50c5 dbbc 74b5 bbbe 2863 2dbe
00000020: ea7b ac3d 192e 1f3f 8565 0cbe 368f 163d
00000030: 5af3 3b3e 68c3 b8be 3d31 b3be 6ad9 8e3b
00000040: b742 cf3e ef6c 0e3f 3a5a a73e b4fb c23d
00000050: d2eb 44be ca49 b03e 488e e3bd 9391 9dbe
00000060: de21 ca3e 680a 88bd 8188 02bf ef72 e53e
00000070: 2e85 9cbd 2380 763e 63eb 4ebe 396e 9dbe
00000080: 587f 82be 8dc6 a1be 9f22 103e 1d5e a1be
00000090: 1f1f f7be bbcd 5fbd d89a 88be 4f5c 193c
000000a0: 8fc4 3fbe bdc6 f03d e63b 7f3e 3c58 c93e
000000b0: 9b8f 99bd 2a34 863b b6f9 5c3e 5403 c23d
000000c0: 8ef5 ee3e 0ecf 363d 284a dabe 6ba4 b0be
000000d0: 5c37 cfbe 2b5f 23be 42ea b6bc db93 a43e
000000e0: 1190 3abd 9c44 3ebe 9535 923d 08d7 103e
000000f0: a266 7bbe 6527 743e b84d 0abe 5d26 2e3f
00000100: fe40 af3c ccc0 abbd f347 62be 4c72 adbd
00000110: 6138 d7bd c7da 7e3e 125d 4ebe 7e0a f33e
00000120: 278b 4f3c dccc d0be 3a21 61be 4e75 9b3e
00000130: 8f7b a13c 44ca a13e e3c1 563d 65fd 853d
00000140: a274 a2bd 95e6 d33d 8391 c23d 7818 21be
00000150: 5bc2 613e 323b 9c3d 990d 383e 795e 543e
00000160: 7de7 89be e714 72be a919 bdbd 5a7e d1be
00000170: ee41 a0be 4073 a03e 55f3 e53d f7b9 113d
00000180: a984 4a3e dae3 b33e 4f2d 41be 3fee a63b
00000190: 0edd ea3e 298e 5bbe 1f29 2c3e fefa 503d
000001a0: c62a 9ebe e66b c2be 2de6 dfbe 8ecf 7d3d
000001b0: 60fa 8cbe 0828 1b3d fca0 dabb 1f8b c4bc
000001c0: 39e0 d43e 7025 54be 1862 42be b88d 383e
000001d0: 223b efbd 160f 443e 013b 9dbd f4ab c9be
000001e0: d584 a13e 6380 ecbe a792 06be aa59 1d3e
000001f0: 9379 83bd 7b03 3c3f 1fa1 753e ff5f f4be
00000200: 49c7 893d 3893 db3e 77c6 bfbb 302f 57be
00000210: af18 01be 40d3 4b3e 329f b6be 9f71 913e
00000220: df7a c53d 2474 88be 4e6a 9c3e bc46 05be
00000230: 04bc f6bd 0bad 403e 8a42 81be ab94 963e
00000240: dacd c1be eee3 18be ba59 03bd 1e1f c83e
00000250: ee36 64bd ab73 55be 4dad 0a3f 5482 f33d
00000260: add0 39bc 0aca ce3e 2a48 f43e d8d1 2b3e
00000270: 12d9 213e b758 1f3e 6cc8 30be a35a 7fbe
00000280: fa44 353d 565a d4be

gconvs.0.combination_weights f4 [4, 3]
0.42609623 0.40434924 0.4061421 0.4263089 0.40366384 0.40538022 0.42656443 0.40396786
0.40648204 0.42649028 0.4081434 0.4073635
00000000: 4929 da3e dd06 cf3e dbf1 cf3e 2945 da3e
00000010: 07ad ce3e ff8d cf3e a766 da3e e0d4 ce3e
00000020: 6a1e d03e ef5c da3e 2cf8 d03e f391 d03e

gconvs.0.weight f4 [3, 6, 6, 4, 3, 3]
0.11489938 0.09980885 -0.04840339 0.22652619 -0.044764426 0.2858222 0.12576176 0.053586606
-0.23679869 -0.25026137 -0.17391263 0.53880554 0.21266606 0.19243485 0.27834353 0.26321766
0.0026402548 -0.12251473 0.2803158 0.09486189 0.21836202 -0.18040262 0.32842383 0.078249335
-0.0988702 0.13479798 -0.17082515 -0.063336715 0.15871926 0.11566932 0.29178238 0.0432764
-0.044250753 -0.20220414 -0.24545257 0.1761943 -0.083193675 -0.026140248 0.39472255 0.09232338
0.14120065 0.71061146 0.024717286 0.18618903 0.07421665 0.42527485 0.0651229 0.28052887
0.11481558 -0.55647933 0.0021854604 -0.30157393 0.35102552 0.16304162 -0.062427174 0.0062357616
-0.014320446 -0.19149035 0.51235306 0.30731428 0.41160372 0.16098757 0.34842616 0.671133
-0.2874104 -0.4885077 -0.22856146 0.16098529 -0.52198577 0.3121965 -0.3360045 -0.27671358
0.048535008 0.35816792 0.0063926107 0.3437288 -0.32045817 -0.0075175003 0.43742555 -0.18850257
-0.4999199 -0.031693812 0.32416102 -0.2757098 0.34254435 -0.27412394 -0.20209436 0.17097208
0.060436025 -0.48146242 -0.11953102 -0.4093852 -0.6143346 0.040798154 0.27788946 -0.080522135
-0.20617408 -0.20796584 0.3579028 -0.276068 0.5328869 0.13741907 -0.2738418 0.22949107
0.3612742 -0.3243587 -0.09420625 0.26382908 0.17696169 -0.33698213 0.06857889 0.34880877
0.1516079 0.18836434 0.23596333 -0.13992245 -0.5566946 -0.41253448 0.062089823 -0.1180018
-0.4342349 -0.35643348 0.2805345 0.21685962 -0.35801327 0.14536214 -0.4547062 -0.13119103
-0.11359611 0.034798462 0.2075389 -0.30771714 0.1061446 -0.30242813 0.13229896 -0.39577538
0.2005932 0.073451705 -0.25383613 0.3151614 0.089560024 0.23566473 0.08522788 0.2880819
-0.12668966 0.44791213 -0.27945033 0.017416088 -0.104538485 0.1841072 -0.26357642 0.11304718
-0.079259 0.29393214 -0.07749163 -0.02999805 0.37526882 0.25382784 -0.46898097 -0.17754015
-0.017215243 -0.65008754 -0.0657836 -0.33666876 -0.30153158 -0.06309797 -0.27069435 -0.20378941
0.008986539 0.19603722 0.22507392 -0.16891919 -0.017946094 -0.21001485 0.26133525 0.18411301
0.22602792 -0.050641574 0.37018913 0.2733282 0.4392515 0.15352686 0.3879881 0.5410615
0.48644596 -0.16382034 0.08280911 -0.3172544 -0.6708068 -0.14378373 -0.6571039 -0.92435694
-0.39147216 -0.22484985 -0.51892406 -0.0679516 -0.2141251 0.008664025 0.086252846 -0.09474381
0.59303224 -0.374345 -0.36032835 0.22838014 0.05353097 0.100034945 0.20118766 0.018008169
-0.12260432 -0.2412559 -0.16383818 -0.06042829 -0.23169492 -0.030513173 -0.29820052 -0.35698456
0.27783576 -0.117454834 0.3685503 0.3286681 -0.020090675 -0.091764994 0.07769243 -0.021200243
0.05477285 -0.35133773 -0.08847827 0.12855683 0.11713009 0.30748028 -0.26642105 0.32967472
0.096832186 0.08164885 -0.22799498 0.16666871 0.14972554 -0.050135616 0.4233287 0.036798116
-0.13050719 0.06928221 0.016329926 0.026250044 -0.20782353 0.28367713 -0.25104132 -0.014557179
0.3667762 0.40152878 0.23531415 0.36414048 -0.11732722 0.12148832 -0.17759262 -0.000374342
00000000: 5e50 eb3d 9568 cc3d a242 46bd 7bf6 673e
00000010: e75a 37bd 4a57 923e b1c7 003e a17d 5b3d
00000020: 5b7b 72be 4222 80be 2716 32be 29ef 093f
00000030: 22c5 593e a40d 453e 0b83 8e3e 77c4 863e
00000040: 2008 2d3b 01e9 fabd 8d85 8f3e f346 c23d
00000050: 4b9a 5f3e 77bb 38be 2b27 a83e 3041 a03d
00000060: 767c cabd 7b08 0a3e caec 2ebe aeb6 81bd
00000070: 4d87 223e 09e4 ec3d 8064 953e 9842 313d
00000080: 4740 35bd 9a0e 4fbe eb57 7bbe 476c 343e
00000090: 7261 aabd 1324 d6bc 1319 ca3e 0a14 bd3d
000000a0: e796 103e a2ea 353f e87b ca3c 56a8 3e3e
000000b0: e6fe 973d a0bd d93e 285f 853d 7ba1 8f3e
000000c0: 6e24 eb3d 6e75 0ebf f139 0f3b e667 9abe
000000d0: 9eb9 b33e 62f4 263e a3b3 7fbd 5c55 cc3b
000000e0: 4ea0 6abc 0c16 44be 9229 033f 4c58 9d3e
000000f0: b9bd d23e edd9 243e ea64 b23e 5fcf 2b3f
00000100: 7527 93be ae1d fabe 040c 6abe 54d9 243e
00000110: dca0 05bf 38d8 9f3e c808 acbe 67ad 8dbe
00000120: a5cc 463d c961 b73e 1b79 d13b 39fd af3e
00000130: 1813 a4be 5d55 f6bb 3ef6 df3e d106 41be
00000140: 80f5 ffbe 5fd1 01bd 6ff8 a53e d629 8dbe
00000150: f961 af3e f959 8cbe d3f1 4ebe 4e13 2f3e
00000160: c48b 773d 3e82 f6be aecc f4bd f09a d1be
00000170: 0845 1dbf f71b 273d 8747 8e3e cae8 a4bd
00000180: 4c1f 53be fff4 54be 093f b73e c958 8dbe
00000190: 476b 083f 96b7 0c3e fe34 8cbe b5ff 6a3e
000001a0: eff8 b83e 5812 a6be 35ef c0bd 9b14 873e
000001b0: 7235 353e ec88 acbe 1773 8c3d 1097 b23e
000001c0: 1a3f 1b3e 95e2 403e 5fa0 713e d547 0fbe
000001d0: 8a83 0ebf b837 d3be e651 7e3d edaa f1bd
000001e0: 0954 debe 737e b6be 38a2 8f3e 7310 5e3e
000001f0: 844d b7be d0d9 143e 40cf e8be f156 06be
00000200: 14a5 e8bd d588 0e3d 1485 543e 1a8d 9dbe
00000210: 5762 d93d dcd7 9abe 6179 073e 12a3 cabe
00000220: 4e68 4d3e d96d 963d cff6 81be d65c a13e
00000230: 3f6b b73d 1852 713e f48b ae3d 797f 933e
00000240: efba 01be bd54 e53e 1d14 8fbe 2fac 8e3c
00000250: 4618 d6bd 9986 3c3e 7df3 86be 4885 e73d
00000260: 8b52 a2bd 467e 963e efb3 9ebd 78be f5bc
00000270: 3c23 c03e b9f5 813e 461e f0be 16cd 35be
00000280: fb06 8dbc 236c 26bf 8db9 86bd d95f acbe
00000290: 5962 9abe 8239 81bd 7398 8abe 2cae 50be
000002a0: 473c 133c fbbd 483e c779 663e 27f9 2cbe
000002b0: b003 93bc 220e 57be bccd 853e 1f88 3c3e
000002c0: dd73 673e 8a6d 4fbd 6e89 bd3e adf1 8b3e
000002d0: 93e5 e03e 2536 1d3e 60a6 c63e 0283 0a3f
000002e0: 720f f93e 85c0 27be d397 a93d 2b6f a2be
000002f0: ffb9 2bbf 0b3c 13be f637 28bf a8a2 6cbf
00000300: 0a6f c8be 0a3f 66be 35d8 04bf 352a 8bbd
00000310: 9c43 5bbe 8ef3 0d3c 55a5 b03d 0b09 c2bd
00000320: f6d0 173f 26aa bfbe f57c b8be 7cdc 693e
00000330: 4a43 5b3d 1fdf cc3d 2304 4e3e de85 933c
00000340: f917 fbbd c90b 77be 32c5 27be a883 77bd
00000350: 6f41 6dbe c3f6 f9bc bdad 98be aec6 b6be
00000360: 7d40 8e3e 298c f0bd a0b2 bc3e 2f47 a83e
00000370: 3395 a4bc 49ef bbbd 351d 9f3d 22ac adbc
00000380: 7f59 603d 8ae2 b3be 1834 b5bd 67a4 033e
00000390: e7e1 ef3d 0e6e 9d3e 5768 88be 20cb a83e
000003a0: f44f c63d 8337 a73d 8477 69be 34ab 2a3e
000003b0: a751 193e 015b 4dbd 8abe d83e 9fb9 163d
000003c0: ada3 05be d5e3 8d3d 56c6 853c 550a d73c
000003d0: b1cf 54be 213e 913e 7d88 80be 3c81 6ebc
000003e0: 17ca bb3e 2e95 cd3e 31f6 703e 9f70 ba3e
000003f0: 4149 f0bd dece f83d d7da 35be 5543 c4b9

gconvs.1.combination_weights f4 [4, 3]
0.44145647 0.37959737 0.3929665 0.4374824 0.37601295 0.38923782 0.43495023 0.37547338
0.3881206 0.4381015 0.3783363 0.38983634
00000000: 9506 e23e 965a c23e e832 c93e b1fd df3e
00000010: c584 c03e 2e4a c73e ccb1 de3e 0c3e c03e
00000020: beb7 c63e d74e e03e 4cb5 c13e a198 c73e

gconvs.1.weight f4 [3, 6, 6, 4, 3, 3]
0.10140183 -0.43483078 -0.2982285 -0.18221574 -0.470502 -0.036826108 -0.046738677 -0.23163961
0.32863185 0.49215293 0.52252465 -0.093152076 0.35486367 0.17597708 -0.2121974 0.17539752
-0.100226425 0.07967605 -0.19067995 -0.39728427 0.21709234 0.1901368 -0.26089546 0.2066174
-0.2621114 0.34130147 0.18783097 0.4029816 0.24570066 0.08644759 0.35134467 -0.43972242
0.15775016 -0.3717393 0.24643423 -0.35806683 -0.14658707 0.34668934 -0.1412078 -0.24630104
0.100495294 0.1673165 0.23365985 -0.051534515 0.17382564 -0.07993427 0.091084726 -0.2142862
0.3478621 -0.36491248 0.3997048 0.113860466 -0.10962063 0.34670737 0.13539842 0.08780774
-0.19652638 -0.017843144 -0.11387418 -0.020780962 0.3629773 -0.41940898 0.41770032 0.0895902
0.2996091 0.14283362 -0.08438219 0.25666907 0.06142688 -0.17749113 0.3203868 -0.3525956
-0.32894334 -0.57612246 -0.38158983 0.22593483 -0.002639281 -0.16673362 0.23587897 -0.13847628
0.20490846 0.40529022 -0.23825875 -0.17716171 -0.10559733 0.26006812 0.31354555 -0.22019361
0.22549304 -0.42704755 -0.010672032 -0.096203804 -0.52662325 -0.066200696 -0.094496265 0.02726276
0.1110717 -0.402137 0.25276923 0.29040655 0.4076379 0.13989915 -0.24644615 0.0023050494
0.47167823 -0.25522766 0.17932534 -0.058657955 -0.49619353 -0.2830731 -0.26183003 0.2737626
-0.4788287 -0.2776454 -0.039286736 0.027653486 0.04700282 -0.25071236 -0.23163942 -0.026177889
0.29714403 0.16915907 0.19641963 -0.500991 -0.16412048 0.1797605 -0.04155402 -0.26156706
0.33157197 0.34138182 -0.08387762 0.22219536 -0.03924455 0.13362488 -0.26062098 -0.3024912
-0.014309711 0.40719116 0.45865119 -0.075016044 -0.28723568 0.6243931 -0.31118953 0.33935925
0.11266419 0.43396974 0.13921055 0.15331125 0.3454645 -0.31058195 -0.6239177 -0.15176718
-0.17586619 -0.05697227 -0.29395413 -0.26593032 0.07798153 0.357686 -0.23202585 -0.14052404
-0.32406896 -0.010225048 0.036033746 0.16304502 -0.022045914 0.18210906 0.18779334 -0.008303753
0.11480377 -0.13217759 0.25694883 0.414716 -0.078957684 -0.5079006 0.4315029 -0.2855179
-0.3298998 0.0045082886 0.057670146 0.03244787 0.055307332 -0.7216584 0.08936278 0.27690133
-0.07573226 -0.05338872 -0.39857534 0.093054764 0.39740115 -0.03731906 -0.3076395 0.1889158
-0.27894646 0.14670646 0.2150238 0.046592124 0.38707218 0.54742956 0.021714441 -0.5012293
-0.10530408 0.48638222 -0.16135904 -0.37464237 0.270583 0.119490474 0.15146622 0.09457725
0.03067169 0.06170394 0.41869253 0.23543341 0.2250649 0.4885403 -0.15530953 0.20721883
0.45120394 -0.17777783 -0.23959894 0.36090687 -0.1291399 -0.3514506 0.23893592 0.1635168
-0.15933341 -0.48196644 -0.48111197 0.011315324 0.15872699 0.3604223 0.16693515 0.0006269209
0.5558677 0.19636251 0.120523095 0.47557655 -0.27145487 0.022969877 -0.027394837 0.16214353
-0.38108122 -0.31386778 0.06378041 -0.3155654 -0.2106007 -0.42572019 0.23815697 0.025380054
-0.17060146 0.2119672 0.5797634 -0.19353752 0.40880358 0.18217367 0.26941448 -0.083388664
00000000: c3ab cf3d 24a2 debe 68b1 98be c396 3abe
00000010: a3e5 f0be f9d6 16bd 0e71 3fbd ef32 6dbe
00000020: 6f42 a83e 78fb fb3e 2dc4 053f 84c6 bebd
00000030: b1b0 b53e 5633 343e 464a 59be 689b 333e
00000040: 8343 cdbd 322d a33d 9b41 43be d868 cbbe
00000050: 744d 5e3e 39b3 423e 1794 85be 8393 533e
00000060: 7733 86be 11bf ae3e c356 403e 9b53 ce3e
00000070: f498 7b3e 6f0b b13d 73e3 b33e 4c23 e1be
00000080: 4289 213e 9d54 bebe 4159 7c3e 8954 b7be
00000090: ec1a 16be 4481 b13e c798 10be 5736 7cbe
000000a0: 7ad0 cd3d 0455 2b3e 8744 6f3e db15 53bd
000000b0: 59ff 313e 94b4 a3bd a18a ba3d d76d 5bbe
000000c0: fb1a b23e cfd5 babe 1ca6 cc3e ad2f e93d
000000d0: c880 e0bd a183 b13e e2a5 0a3e 8bd4 b33d
000000e0: 363e 49be c92b 92bc de36 e9bd d63c aabc
000000f0: 29d8 b93e c6bc d6be d1dc d53e 117b b73d
00000100: 5d66 993e fa42 123e 92d0 acbd 216a 833e
00000110: c19a 7b3d 3cc0 35be bd09 a43e 6987 b4be
00000120: 436b a8be c37c 13bf be5f c3be 765b 673e
00000130: caf7 2cbb 38bc 2abe 428a 713e bacc 0dbe
00000140: 86d3 513e 3382 cf3e 1afa 73be e169 35be
00000150: 6a43 d8bd a627 853e 0b89 a03e 6f7a 61be
00000160: a6e7 663e faa5 dabe bfd9 2ebc 8006 c5bd
00000170: c8d0 06bf 3b94 87bd 4287 c1bd 2756 df3c
00000180: 8f79 e33d e7e4 cdbe f86a 813e 2bb0 943e
00000190: eab5 d03e b941 0f3e 615c 7cbe 5010 173b
000001a0: cf7f f13e 33ad 82be 10a1 373e 5343 70bd
000001b0: 140d febe f5ee 90be 960e 86be 9d2a 8c3e
000001c0: 0929 f5be 8a27 8ebe 21eb 20bd 9089 e23c
000001d0: 0786 403d 5f5d 80be e232 6dbe 0373 d6bc
000001e0: 4323 983e 0938 2d3e 3a22 493e f240 00bf
000001f0: 330f 28be 2313 383e 8c34 2abd 1eec 85be
00000200: cdc3 a93e 99c9 ae3e 08c8 abbd 2e87 633e
00000210: e5be 20bd f6d4 083e 1d70 85be 20e0 9abe
00000220: 4773 6abc 5c7b d03e 54d4 ea3e 03a2 99bd
00000230: 8e10 93be 3ad8 1f3f 3c54 9fbe 7fc0 ad3e
00000240: 7cbc e63d 4831 de3e 368d 0e3e a0fd 1c3e
00000250: b9e0 b03e 9904 9fbe 12b9 1fbf db68 1bbe
00000260: 4416 34be c15b 69bd 2881 96be 0528 88be
00000270: c8b4 9f3d 9f22 b73e 2f98 6dbe 89e5 0fbe
00000280: 5eec a5be f686 27bc 1f98 133d 46f5 263e
00000290: a299 b4bc cc7a 3a3e e64c 403e 770c 08bc
000002a0: 3d1e eb3d 9059 07be cc8e 833e a855 d43e
000002b0: 91b4 a1bd c605 02bf f3ed dc3e 672f 92be
000002c0: a0e8 a8be 44ba 933b 8837 6c3d 0fe8 043d
000002d0: f189 623d 9bbe 38bf d503 b73d 03c6 8d3e
000002e0: 8419 9bbd 21ae 5abd 1112 ccbe 7f93 be3d
000002f0: 2a78 cb3e dfdb 18bd ed82 9dbe 2573 413e
00000300: 12d2 8ebe 383a 163e 332f 5c3e 62d7 3e3d
00000310: 532e c63e 5824 0c3f 7ce2 b13c 9050 00bf
00000320: aaa9 d7bd 1707 f93e 4e3b 25be 20d1 bfbe
00000330: db89 8a3e 6cb7 f43d f619 1b3e b8b1 c13d
00000340: 3243 fb3c 45bd 7c3d de5e d63e 7515 713e
00000350: 6a77 663e f421 fa3e 7609 1fbe 2c31 543e
00000360: 3404 e73e 640b 36be 6d59 75be c9c8 b83e
00000370: 403d 04be 55f1 b3be 9eab 743e f370 273e
00000380: 4c28 23be 4ec4 f6be 4f54 f6be e963 393c
00000390: 5489 223e 4689 b83e 0cf1 2a3e f357 243a
000003a0: 584d 0e3f 4113 493e d0d4 f63d c57e f33e
000003b0: 22fc 8abe 532b bc3c 236b e0bc f408 263e
000003c0: 141d c3be 47b3 a0be 4e9f 823d ca91 a1be
000003d0: b6a7 57be fff7 d9be 6cdf 733e d5e9 cf3c
000003e0: 26b2 2ebe ee0d 593e 606b 143f b32e 46be
000003f0: b44e d13e bc8b 3a3e b2f0 893e adc7 aabd

gconvs.2.combination_weights f4 [4, 3]
0.38569275 0.35648203 0.36739212 0.38502187 0.35662907 0.36799958 0.38642582 0.3578953
0.36686584 0.3851139 0.35650072 0.36696836
00000000: 8579 c53e d084 b63e d21a bc3e 9621 c53e
00000010: 1698 b63e 716a bc3e 9bd9 c53e 0e3e b73e
00000020: d7d5 bb3e a62d c53e 4387 b63e 47e3 bb3e

gconvs.2.weight f4 [3, 6, 6, 4, 3, 3]
0.14498642 -0.20718288 -0.4744518 0.24827018 -0.10246255 -0.110364795 -0.087317675 0.36686906
-0.33690906 -0.3236873 0.33371985 -0.26799154 0.28139615 -0.23744982 0.083413504 0.17468508
0.23567691 0.073975354 -0.18882853 -0.030547442 -0.35718173 -0.06814824 -0.31936166 -0.40956795
0.2134113 0.15801847 -0.23475562 -0.1295767 -0.09421771 -0.42372686 -0.030088238 -0.0698562
-0.2705163 0.50238043 -0.1056068 -0.2743517 -0.06279999 0.12010626 -0.70978487 -0.40329352
-0.50921315 -0.35916203 -0.17405629 0.28634742 -0.5986023 0.1446801 -0.30623135 -0.20640707
-0.2560468 -0.024153957 -0.2500463 0.23008023 0.25763902 0.32788795 -0.49088946 0.114005804
-0.0345389 0.2530137 0.10272832 -0.10402513 0.40687454 0.103508286 0.44330448 -0.27354923
-0.42222506 -0.77998036 0.02691409 0.03032783 -0.48933688 0.10663418 -0.42006412 -0.4753082
0.21893308 0.2457569 0.17856728 0.07390529 0.02002739 -0.40700826 -0.22031535 0.1020764
0.11308748 -0.18699838 -0.34301192 -0.23152433 0.20110187 0.3577684 -0.5837065 0.2030049
0.112527125 -0.4891408 0.29310083 0.27786833 0.39172998 0.3058631 0.33199322 -0.069525965
0.37464452 0.15094967 -0.013405384 -0.028379992 0.20989431 -0.27749783 0.2153389 -0.22294788
0.27475226 -0.0058668633 -0.4348364 -0.73993576 0.13661933 0.20714279 0.17221177 -0.2834313
0.24997468 -0.67287517 0.15967779 -0.25534528 -0.19206978 0.26457152 0.29820108 -0.45184967
-0.048895944 -0.107574284 -0.12988389 -0.26436114 -0.2897775 0.18099783 0.3475903 0.66205025
0.16058482 0.36515844 -0.14381771 -0.20670141 0.04179636 0.18113394 -0.43466026 0.6134196
0.16952412 -0.2502475 0.27411228 0.13865283 0.24935818 0.36145267 0.25149286 0.38616645
0.38069728 0.2886542 -0.06681178 -0.1287566 0.3620306 0.089881286 -0.1399067 -0.31323144
-0.40779293 -0.33277333 -0.03936481 0.44837457 0.18473339 -0.23070791 0.3074182 0.26923662
0.19566563 0.171212 -0.23368402 -0.14566495 -0.4342222 0.16980927 -0.1805626 -0.27593246
0.20874019 -0.12590873 0.04673959 -0.20003483 -0.7415488 -1.6832346 -0.2661832 -0.25223798
-0.68707913 -0.020202499 -0.26824358 -2.035166 0.12203724 -0.32889965 0.16512544 0.0040562656
-0.017450321 0.17816588 0.27062467 -0.13858822 0.14826936 0.12020988 -0.45681557 -0.70895356
0.19492707 -0.23196025 -0.11696095 0.17250013 0.43225697 -0.10596968 0.0601852 -0.1875213
-0.42678127 0.043468125 -1.1463261 -1.0766865 -0.463499 -0.107897446 -1.7168324 0.43069026
0.055128686 -0.01589198 0.26729602 -0.2607594 0.0853284 -0.22854333 0.23383982 -0.12212239
0.118593104 -0.0563652 0.09442825 -0.29986697 -0.36602163 0.33845878 -0.40846568 -0.19698238
-0.17172562 0.1628383 -0.39865613 -0.25702935 -0.19138165 0.35226867 -0.11384581 -0.033823054
0.33409488 0.21913134 0.1662871 0.31025305 -0.050123174 -0.37567434 0.18524566 0.13282533
0.465908 0.31183934 -0.460338 -0.25677714 0.1142927 0.093061335 0.2410091 -0.3298299
-0.42820966 -0.09302016 0.105745554 0.086986594 -0.44045168 -0.26512566 -0.16130583 0.27890956
00000000: 5277 143e c027 54be 59eb f2be 8a3a 7e3e
00000010: e3d7 d1bd f006 e2bd 9cd3 b2bd 43d6 bb3e
00000020: 587f acbe 57ba a5be 54dd aa3e 3036 89be
00000030: 2813 903e 0c26 73be b3d4 aa3d a5e0 323e
00000040: 4a55 713e 6480 973d 445c 41be a13e fabc
00000050: 86e0 b6be 4e91 8bbd 5f83 a3be e4b2 d1be
00000060: 7e88 5a3e 98cf 213e c763 70be c1af 04be
00000070: 37f5 c0bd baf2 d8be 9c7b f6bc c410 8fbd
00000080: 1d81 8abe 019c 003f 6148 d8bd d377 8cbe
00000090: 489d 80bd 45fa f53d 76b4 35bf 7d7c cebe
000000a0: cb5b 02bf 16e4 b7be d03b 32be 219c 923e
000000b0: 003e 19bf 0527 143e 5bca 9cbe 605c 53be
000000c0: 9118 83be 85de c5bc 1206 80be 279a 6b3e
000000d0: 43e9 833e eee0 a73e dd55 fbbe e07b e93d
000000e0: a978 0dbd 038b 813e 3a63 d23d 210b d5bd
000000f0: dc51 d03e 27fc d33d cef8 e23e a50e 8cbe
00000100: e22d d8be cbac 47bf f07a dc3c 1272 f83c
00000110: 5d8a fabe 0563 da3d a512 d7be 995b f3be
00000120: fe2f 603e b2a7 7b3e 57da 363e a85b 973d
00000130: 7b10 a43c 6363 d0be 599a 61be 6e0d d13d
00000140: 699a e73d 817c 3fbe 429f afbe b714 6dbe
00000150: a6ed 4d3e 6b2d b73e ca6d 15bf 84e0 4f3e
00000160: 9f74 e63d aa70 fabe 5011 963e c244 8e3e
00000170: d590 c83e 179a 9c3e 04fb a93e a163 8ebd
00000180: 68d1 bf3e 8d92 1a3e 41a2 5bbc 287d e8bc
00000190: 89ee 563e 3214 8ebe cd81 5c3e 734c 64be
000001a0: 54ac 8c3e d13e c0bb e0a2 debe 6e6c 3dbf
000001b0: f0e5 0b3e 3d1d 543e 4858 303e e81d 91be
000001c0: 5df9 7f3e 8c41 2cbf 9382 233e 9ebc 82be
000001d0: f1ad 44be eb75 873e d0ad 983e d758 e7be
000001e0: 1d47 48bd e84f dcbd 4800 05be 585a 87be
000001f0: b75d 94be 7f57 393e 5bf7 b13e 207c 293f
00000200: 5970 243e 0cf6 ba3e f344 13be 89a9 53be
00000210: a932 2b3d 2d7b 393e ca8b debe 1109 1d3f
00000220: bb97 2d3e 7120 80be 7258 8c3e 02fb 0d3e
00000230: c057 7f3e 5310 b93e acc3 803e 9cb7 c53e
00000240: c1ea c23e 7cca 933e 9dd4 88bd c5d8 03be
00000250: 135c b93e ae13 b83d b443 0fbe df5f a0be
00000260: 3cca d0be 4461 aabe ff3c 21bd 5a91 e53e
00000270: c02a 3d3e b23e 6cbe eb65 9d3e 62d9 893e
00000280: 925c 483e 3352 2f3e dd4a 6fbe 3129 15be
00000290: 5f52 debe 7be2 2d3e 67e5 38be 0547 8dbe
000002a0: fdbf 553e 38ee 00be 0372 3f3d eed5 4cbe
000002b0: 24d6 3dbf 3b74 d7bf 2a49 88be 5625 81be
000002c0: 6be4 2fbf b67f a5bc 3957 89be 2940 02c0
000002d0: a9ee f93d 8965 a8be a516 293e 6cea 843b
000002e0: faf3 8ebc 1e71 363e 518f 8a3e 12ea 0dbe
000002f0: ecd3 173e 9930 f63d bbe3 e9be fb7d 35bf
00000300: f69a 473e fd86 6dbe 3989 efbd e0a3 303e
00000310: c950 dd3e a206 d9bd c284 763d 9505 40be
00000320: 1383 dabe a20b 323d d0ba 92bf ddd0 89bf
00000330: be4f edbe 56f9 dcbd 2ac1 dbbf 6f83 dc3e
00000340: 9ece 613d e62f 82bc 06db 883e 4282 85be
00000350: a8c0 ae3d 4307 6abe b573 6f3e 4e1b fabd
00000360: f1e0 f23d 32df 66bd 9963 c13d 2a88 99be
00000370: 3067 bbbe 784a ad3e 6a22 d1be c0b5 49be
00000380: d7d8 2fbe 15bf 263e a81c ccbe 5a99 83be
00000390: 8df9 43be 8f5c b43e fe27 e9bd 0b8a 0abd
000003a0: 7c0e ab3e f763 603e 2a47 2a3e 7dd9 9e3e
000003b0: f54d 4dbd 6358 c0be 0ab1 3d3e 5d03 083e
000003c0: 7e8b ee3e 68a9 9f3e 6cb1 ebbe 4b78 83be
000003d0: 4b12 ea3d f196 be3d 17cb 763e 77df a8be
000003e0: 4c3e dbbe 5b81 bebd 2091 d83d 0726 b23d
000003f0: e282 e1be 8dbe 87be 5b2d 25be 3ccd 8e3e

gconvs.3.combination_weights f4 [4, 3]
0.4307765 0.45009843 0.37237823 0.43079776 0.45069715 0.36602965 0.43168622 0.44962165
0.36762276 0.43166274 0.4500318 0.36643633
00000000: bd8e dc3e 4d73 e63e 5ca8 be3e 8691 dc3e
00000010: c7c1 e63e 3d68 bb3e fa05 dd3e cf34 e63e
00000020: 0d39 bc3e e602 dd3e 916a e63e 8b9d bb3e

gconvs.3.weight f4 [3, 6, 6, 4, 3, 3]
-0.5652124 0.26050463 -0.39763963 0.26423073 -0.18974315 -0.28122514 0.2844244 -0.3042716
0.075743444 -0.479519 0.07779618 -0.43749407 0.21294282 -0.016780887 -0.16769059 0.3968979
0.25325844 0.17039187 0.22057915 -0.20654383 0.3176111 -0.22054763 0.424285 0.4468402
-0.2596536 0.020740226 -0.28282502 0.26520854 0.12608089 0.09127983 -0.20904766 0.35221225
0.20064764 -0.01843759 0.3793492 -0.06174154 0.015462204 0.23691928 0.15858176 -0.17938304
-0.40296265 -0.21621811 0.084289275 -0.33320796 0.050800093 -0.0033740834 -0.1774824 0.4371408
-0.023116518 0.037925605 -0.09303465 0.049847767 0.14057894 -0.288915 -0.19720297 -0.42315376
-0.20704444 0.19637102 0.29963863 0.015369213 0.24207148 0.27907506 0.026832983 -0.22926128
-0.2579064 -0.08785226 0.013675094 -0.32305148 -0.5631439 -0.33399504 -0.059595842 0.18421434
0.137727 -0.22156323 0.3921182 0.3844701 -0.013819542 0.46699136 0.03196621 0.35911992
-0.20842472 0.121165715 0.031283055 -0.07228847 0.3028223 0.23923321 -0.060193926 -0.6779227
-0.3199401 -0.36081657 -0.1278042 -0.0049501997 0.29826856 0.15332282 -0.02962384 0.09030533
-0.5546561 -0.061128426 -0.22308306 -0.25541708 -0.20321147 -0.5179875 -0.42869544 0.06625808
0.09633997 -0.26913503 -0.10968802 -0.5520125 -0.17677315 -0.11191513 0.34387964 0.109252244
-0.35276318 -0.11895733 0.18633963 -0.0044380957 0.14850843 -0.27769938 0.6375042 -0.030903222
0.0024872446 0.28955084 -0.33695427 -0.5912672 -0.2738866 -0.3919085 -0.47397396 -0.18979377
0.30456048 -0.41951704 0.24897252 0.061516803 -0.24099807 -0.12996331 0.03587111 -0.38694578
0.1011915 -0.1463501 0.3557288 -0.44244894 0.09501674 0.46756926 0.30690458 -0.051216967
-0.19557427 0.24144669 0.113373935 -0.35717463 -0.22742587 -0.0393409 -0.3845317 -0.10066585
-0.30566242 -0.25111443 -0.48494473 -0.24228169 -0.6142682 -0.1945581 -0.58380115 -0.4637105
0.08317818 -0.13385665 0.489168 0.1296911 0.21938212 0.48968914 -0.21436238 -0.24960363
-0.10013724 0.06494109 0.34694007 -0.14674546 -0.05226353 -0.35955337 -0.019448858 -0.25635877
0.26949245 0.37293723 0.059138928 0.24296774 -1.0603484 -1.0204511 -1.4480183 -0.17495291
-0.30416533 -0.20406558 0.2508631 0.35420737 -0.58662075 0.12405004 -0.11166564 0.027119022
-0.15541154 0.26038057 -0.265113 0.2721894 0.34899586 -0.09121419 0.15688524 0.12405632
0.15798832 0.12774114 -0.09884037 0.29147774 0.44085452 0.22967617 0.124574244 -0.69817734
-0.06413253 0.5001998 -0.61050195 -0.04275156 0.3266133 -0.6148433 -0.2272799 -0.42818692
-0.06792535 -0.33398548 -0.8517034 -0.07241521 0.23116134 -0.5971552 0.1698677 -0.12578458
-0.4671383 0.14428745 -0.24444754 0.34235147 -0.09029311 0.29196617 -0.21122128 0.33822516
-0.130151 -0.25351155 -0.06457711 0.25129256 -0.33930284 -0.24909565 -0.22904247 0.2483139
-0.16445966 -0.33449626 -0.23036028 0.09017377 -0.5852589 -0.20483409 0.15967216 -0.07069284
-0.006233714 -0.17900757 -0.41241035 -0.29191262 -0.077631146 0.013680354 -0.13865967 -0.03924523
00000000: c3b1 10bf dd60 853e 6c97 cbbe 4049 873e
00000010: 074c 42be befc 8fbe 13a0 913e 7dc9 9bbe
00000020: 611f 9b3d 8483 f5be 9b53 9f3d 39ff dfbe
00000030: af0d 5a3e 1278 89bc 15b7 2bbe 3436 cb3e
00000040: 17ab 813e 357b 2e3e 80df 613e 3a80 53be
00000050: ec9d a23e 3dd7 61be e23b d93e 3dc8 e43e
00000060: 51f1 84be 68e7 a93c 71ce 90be 6ac9 873e
00000070: 591b 013e ebf0 ba3d 9710 56be 2a55 b43e
00000080: 9376 4d3e 6e0a 97bc 0f3a c23e b2e4 7cbd
00000090: 2f55 7d3c f89a 723e 4263 223e 30b0 37be
000000a0: 1f51 cebe 4868 5dbe db9f ac3d 3c9a aabe
000000b0: c213 503d ba1f 5dbb f2bd 35be ebd0 df3e
000000c0: da5e bdbc e157 1b3d f388 bebd 2c2d 4c3d
000000d0: edf3 0f3e abec 93be 93ef 49be 9ca7 d8be
000000e0: 7503 54be 7c15 493e 3c6a 993e 27cf 7b3c
000000f0: 96e1 773e ede2 8e3e d8d0 db3c 78c3 6abe
00000100: 4f0c 84be e3eb b3bd 800d 603c 0167 a5be
00000110: 332a 10bf 6601 abbe c51a 74bd afa2 3c3e
00000120: 4f08 0d3e 79e1 62be b7c3 c83e 44d9 c43e
00000130: 5c6b 62bc 7e19 ef3e 00ef 023d 91de b73e
00000140: 4a6d 55be bb25 f83d a922 003d fa0b 94bd
00000150: 860b 9b3e 8df9 743e e88d 76bd 588c 2dbf
00000160: 30cf a3be f3bc b8be 1bdf 02be 4935 a2bb
00000170: a8b6 983e a800 1d3e b2ad f2bc 00f2 b83d
00000180: f1fd 0dbf cd61 7abd e36f 64be 07c6 82be
00000190: ab16 50be d49a 04bf f87d dbbe 51b2 873d
000001a0: e44d c53d 11cc 89be 1da4 e0bd b150 0dbf
000001b0: 0504 35be c233 e5bd fe10 b03e a4bf df3d
000001c0: 609d b4be e79f f3bd d1cf 3e3e 726d 91bb
000001d0: 9812 183e 9d2e 8ebe 7a33 233f c128 fdbc
000001e0: 0a01 233b 0240 943e 4585 acbe 4a5d 17bf
000001f0: dd3a 8cbe 3ba8 c8be b7ac f2be 4c59 42be
00000200: 5aef 9b3e f0ca d6be a7f2 7e3e 0bf9 7b3d
00000210: 33c8 76be 1a15 05be 96ed 123d c21d c6be
00000220: 7d3d cf3d cddc 15be 1622 b63e ab88 e2be
00000230: 2398 c23d 3d65 ef3e 9922 9d3e e2c8 51bd
00000240: 9f44 48be cd3d 773e 9830 e83d 98df b6be
00000250: 54e2 68be ec23 21bd 57e1 c4be e629 cebd
00000260: c97f 9cbe 1292 80be ad4a f8be b118 78be
00000270: ae40 1dbf 3d3a 47be fe73 15bf 766b edbe
00000280: 5259 aa3d b811 09be 3a74 fa3e becd 043e
00000290: b5a5 603e 89b8 fa3e d081 5bbe 1898 7fbe
000002a0: c114 cdbd d6ff 843d 21a2 b13e 7144 16be
000002b0: 4912 56bd 6117 b8be 3653 9fbc 7541 83be
000002c0: eafa 893e a1f1 be3e a93b 723d 89cc 783e
000002d0: 7fb9 87bf 249e 82bf aa58 b9bf db26 33be
000002e0: 8fbb 9bbe 91f6 50be 2171 803e ab5a b53e
000002f0: c72c 16bf f30d fe3d f4b0 e4bd b628 de3c
00000300: 3424 1fbe 9a50 853e e4bc 87be 695c 8b3e
00000310: 96af b23e 81ce babd 86a6 203e 3d11 fe3d
00000320: b1c7 213e 93ce 023e d26c cabd 923c 953e
00000330: afb7 e13e 3b30 6b3e c820 ff3d c0bb 32bf
00000340: ea57 83bd 180d 003f db49 1cbf 431c 2fbd
00000350: dc39 a73e 5f66 1dbf 10bc 68be 513b dbbe
00000360: 721c 8bbd 2500 abbe 3c09 5abf 6d4e 94bd
00000370: 8fb5 6c3e 2adf 18bf ccf1 2d3e accd 00be
00000380: c02c efbe 17c0 133e 7550 7abe b148 af3e
00000390: 98eb b8bd 977c 953e 644a 58be d92b ad3e
000003a0: 4e46 05be 44cc 81be 0141 84bd 6ba9 803e
000003b0: 1ab9 adbe ee12 7fbe 1c8a 6abe 0046 7e3e
000003c0: 1d68 28be 1843 abbe 91e3 6bbe 07ad b83d
000003d0: 87d3 15bf 07c0 51be 1981 233e 68c7 90bd
000003e0: 2f44 ccbb c34d 37be 7327 d3be 9275 95be
000003f0: 14fd 9ebd 9023 603c cdfc 0dbe 9bbf 20bd

gconvs.4.combination_weights f4 [4, 3]
0.3548378 0.4680663 0.36860645 0.3535033 0.4653203 0.36947322 0.35386804 0.46993184
0.3687439 0.35439926 0.46602604 0.36982417
00000000: 4dad b53e 63a6 ef3e fcb9 bc3e 62fe b43e
00000010: 763e ee3e 982b bd3e 312e b53e e89a f03e
00000020: 00cc bc3e d273 b53e f79a ee3e 9859 bd3e

gconvs.4.weight f4 [3, 6, 6, 4, 3, 3]
-0.06339897 -0.7386683 -0.06396686 -0.4160024 -0.4019266 -0.37710044 -0.4547621 0.10677946
-0.17447467 -0.47728336 -0.31039858 -0.084024824 0.4903719 0.28414744 -0.1246729 -0.068185315
-0.27849972 -0.6837112 -0.15041518 0.013960699 0.16368262 -0.23478451 -0.112717785 0.23056854
-0.3935107 -0.17209366 -0.40012947 0.058732975 -0.13006902 0.3392091 -0.23791075 0.25843874
-0.092950925 0.17705975 -0.14898443 -0.25914806 -0.11130345 -0.0056408304 -0.08827119 0.17089598
-0.10327735 -0.09362397 0.2321262 -0.054972865 -0.15416093 -0.7332913 0.08641032 -0.50793123
0.18410398 -0.48465246 -0.25307736 0.013731771 0.055094812 -0.26165572 -0.43277806 0.28991595
-0.0054178988 -0.1356878 -0.12390798 0.16158594 -0.080855526 -0.19292921 -0.39527264 0.3421189
0.26795724 0.40634662 -0.28908926 -0.13027145 -0.100686975 -0.19106676 -0.047242463 0.07212235
0.38786086 0.037027843 0.29804087 0.22445239 -0.36305448 0.017676754 0.065720715 -0.7106561
-0.13716812 -0.94076425 -0.73339474 -0.23758245 0.3552925 -0.15815395 0.07356496 -0.3988987
-0.37734854 -0.30953526 0.31423113 0.4780331 0.43345693 -0.3228942 0.29365185 0.21626301
-0.5265141 0.12433547 -0.40421003 -0.32492217 -0.4026861 -0.021188617 0.17918672 0.29136497
-0.17048727 -0.06664142 -0.023326414 -0.27691454 0.1539502 0.53627324 0.20821811 0.13645904
0.40484616 -0.05657327 -0.4106564 -0.5628057 -0.45995158 -0.7940055 -0.30516586 0.03573959
0.14189309 0.6416572 -0.22006716 0.3347399 0.14026143 -0.264128 -0.06882087 0.25984168
-0.18863186 0.13926782 -0.043576278 -0.06344788 -0.40107027 -0.47745538 -0.3262678 0.2807248
-0.05714783 0.29430288 -0.15663767 -0.20566206 -0.29342306 -0.7549759 -0.28909665 0.20988439
0.36308992 -0.33459905 0.09850429 0.29427952 -0.115572706 -0.10414758 -0.22336306 0.568642
0.22817771 -0.5136093 -0.02317866 -0.3178964 0.09549172 -0.039280657 -0.11264097 -0.13711807
-0.0074684327 0.4106779 -0.24480416 0.34112018 -0.37000895 -0.25718227 0.36977407 -0.051780242
-0.33452228 0.2860626 -0.45247117 -0.8379748 0.04424005 -0.2041353 -0.22645932 -0.25161076
-0.40539712 -1.4119933 -1.0343863 -0.65021896 -0.45354632 0.47990963 0.018339125 -0.15058927
0.36700577 0.36954817 0.3927862 -0.2838196 0.29317987 -0.36306077 0.48569345 0.4766043
-0.033791617 -0.08253705 -0.06988991 -0.40928283 0.113917835 -0.3836743 0.1369405 -0.014258116
-0.29931492 0.038906515 -0.303512 -0.39967322 -0.23083939 -0.47139594 -0.19093002 -0.07051246
0.21309343 0.26779553 -0.1825526 -0.2865629 0.3713092 -0.32996073 -0.40522 -0.45499703
-0.11249612 0.12282802 -0.03415007 -0.24822217 -0.08061314 -0.114722215 -0.25110963 -0.007627429
0.04214965 -0.52514774 -0.41729295 0.16815002 0.034941293 -0.10578066 -0.26756936 -0.2653145
0.14216009 0.02247986 -0.47330946 -0.02500137 -0.00352343 -0.70099956 -0.23813812 0.3656313
-0.2902861 0.3435382 0.23864166 0.033866983 -0.2629584 -0.047451664 0.38443163 -0.06691105
-0.34381375 -0.08731295 -0.63918936 -0.5134307 -0.22986524 -0.43271375 -0.10950586 0.015470704
00000000: 52d7 81bd 5e19 3dbf 0f01 83bd 44fe d4be
00000010: 53c9 cdbe 4f13 c1be 94d6 e8be 31af da3d
00000020: 7da9 32be 7c5e f4be 90ec 9ebe 3515 acbd
00000030: 0712 fb3e c67b 913e 8154 ffbd bea4 8bbd
00000040: 8497 8ebe b207 2fbf 7006 1abe 6abb 643c
00000050: 6b9c 273e 5a6b 70be 95d8 e6bd 291a 6c3e
00000060: 3c7a c9be 5239 30be c5dd ccbe fd91 703d
00000070: d030 05be d1ac ad3e e09e 73be 1552 843e
00000080: 0e5d bebd 274f 353e 608f 18be 0eaf 84be
00000090: 10f3 e3bd b7d6 b8bb 87c7 b4bd 5bff 2e3e
000000a0: 1383 d3bd edbd bfbd 7eb2 6d3e 3a2b 61bd
000000b0: 5ddc 1dbe fbb8 3bbf e5f7 b03d c807 02bf
000000c0: c185 3c3e 5e24 f8be 5b93 81be 39fb 603c
000000d0: 19ab 613d bdf7 85be 1695 ddbe dd6f 943e
000000e0: a188 b1bb bef1 0abe 78c3 fdbd c976 253e
000000f0: 9597 a5bd 3c8f 45be 2d61 cabe 352a af3e
00000100: b131 893e aa0c d03e 8203 94be e165 05be
00000110: f934 cebd 01a7 43be 5081 41bd e2b4 933d
00000120: b395 c63e 82aa 173d d098 983e d9d6 653e
00000130: 47e2 b9be d7ce 903c 9598 863d 8fed 35bf
00000140: cd75 0cbe edd5 70bf c2bf 3bbf d048 73be
00000150: e6e8 b53e 1cf3 21be 3aa9 963d 733c ccbe
00000160: d433 c1be 687b 9ebe e7e2 a03e c1c0 f43e
00000170: 11ee dd3e 6352 a5be 8959 963e 0d74 5d3e
00000180: a1c9 06bf 98a3 fe3d 9ef4 cebe 335c a6be
00000190: df2c cebe c093 adbc b97c 373e ca2d 953e
000001a0: 3794 2ebe 4c7b 88bd 0917 bfbc bec7 8dbe
000001b0: 1fa5 1d3e 3449 093f 2137 553e ebbb 0b3e
000001c0: ff47 cf3e 60b9 67bd 8e41 d2be 0914 10bf
000001d0: c67e ebbe f243 4bbf b33e 9cbe ad63 123d
000001e0: 6c4c 113e a543 243f 4959 61be 0763 ab3e
000001f0: b1a0 0f3e c93b 87be f5f1 8cbd f809 853e
00000200: b628 41be 399c 0e3e 0a7d 32bd f6f0 81bd
00000210: 1559 cdbe 0875 f4be 930c a7be 29bb 8f3e
00000220: d813 6abd deae 963e a065 20be 1399 52be
00000230: 8c3b 96be 1a46 41bf 7a04 94be efeb 563e
00000240: ece6 b93e 9150 abbe 9ebc c93d ceab 963e
00000250: 62b1 ecbd 544b d5bd 49b9 64be 8692 113f
00000260: 6ba7 693e e67b 03bf 2ce1 bdbc 51c3 a2be
00000270: 2a91 c33d c1e4 20bd 4fb0 e6bd ae68 0cbe
00000280: c1b9 f4bb 6044 d23e f1ad 7abe 4ea7 ae3e
00000290: d071 bdbe 65ad 83be 0753 bd3e 8517 54bd
000002a0: 8146 abbe cc76 923e 4daa e7be 8485 56bf
000002b0: 0e35 353d d808 51be f4e4 67be 20d3 80be
000002c0: 3690 cfbe 32bc b4bf c566 84bf c074 26bf
000002d0: 3937 e8be b7b6 f53e ef3b 963c 1334 1abe
000002e0: 2ee8 bb3e 6b35 bd3e 461b c93e cd50 91be
000002f0: ac1b 963e 1ae3 b9be d0ac f83e 7b05 f43e
00000300: 1469 0abd 2f09 a9bd 7122 8fbd 858d d1be
00000310: c14d e93d f570 c4be 213a 0c3e df9a 69bc
00000320: ce3f 99be 705c 1f3d ed65 9bbe f8a1 ccbe
00000330: 2961 6cbe cf5a f1be 2983 43be d668 90bd
00000340: 2a35 5a3e 7f1c 893e 12ef 3abe 5fb8 92be
00000350: 3d1c be3e 9df0 a8be ff78 cfbe 5ff5 e8be
00000360: 5e64 e6bd 428d fb3d f2e0 0bbd f42d 7ebe
00000370: 8018 a5bd 7bf3 eabd 7191 80be 83ef f9bb
00000380: 1da5 2c3d 1570 06bf 6ca7 d5be 852f 2c3e
00000390: 9a1e 0f3d 88a3 d8bd dafe 88be 4dd7 87be
000003a0: 6a92 113e af27 b83c 9e55 f2be accf ccbc
000003b0: 59e9 66bb b574 33bf 7bda 73be 0734 bb3e
000003c0: 61a0 94be 3de4 af3e 7b5e 743e 1bb8 0a3d
000003d0: 7ca2 86be ad5c 42bd 39d4 c43e a908 89bd
000003e0: 5b08 b0be 22d1 b2bd eaa1 23bf 3270 03bf
000003f0: cb61 6bbe a88c ddbe 9c44 e0bd d678 7d3c

gconvs.5.combination_weights f4 [4, 3]
0.31360382 0.5012185 0.43890774 0.31371987 0.49848723 0.43630573 0.3138283 0.5004495
0.4406302 0.3121834 0.49584085 0.43463588
00000000: ae90 a03e db4f 003f 84b8 e03e e49f a03e
00000010: b839 ff3e 7763 df3e 1aae a03e 751d 003f
00000020: 489a e13e 81d6 9f3e dade fd3e 9888 de3e

gconvs.5.weight f4 [3, 6, 6, 4, 3, 3]
-0.28195086 -0.010944443 0.05544864 -0.5115535 -0.36847198 -0.52453935 -0.04387768 -0.21361409
0.21717028 -0.32947582 -0.34749678 -0.13451394 -0.3142926 0.023914274 0.2281607 0.045640077
-0.46810102 -0.13555421 0.15246518 0.07019992 -0.48742318 0.029099496 -0.43226913 0.045473464
-0.74273735 -0.65773404 -0.8777595 -0.035576507 -0.057322405 -0.037342187 0.16529754 0.28055948
0.05631097 -0.14459445 -0.043828785 -0.3148901 -0.03038131 0.111407086 0.45372814 0.37610105
-0.028557982 -0.0048673484 -0.024222398 -0.3204017 0.10507656 -0.2156313 0.16997617 0.21430318
0.2601412 -0.108697966 -0.22765142 -0.26513585 -0.15891221 -0.08372854 0.26055714 -0.3007367
-0.51768816 0.22188652 0.21630983 -0.4331983 -0.15736206 -0.35602394 -0.0833506 -0.14958528
-0.20515381 0.23389639 0.45933053 0.3086063 0.40486324 -0.07988134 0.36188728 0.31199843
-0.12110782 0.34093493 0.018190632 -0.22126871 0.14844964 -0.020125017 0.3623956 0.18546523
0.02557475 0.27544212 0.2394111 0.47974077 0.027492305 -0.25538513 -0.1536796 -0.5565206
-0.4419043 -0.5136481 -0.5762708 -0.01851416 -0.09624295 -0.28464597 -0.40951613 -0.3365846
0.0337854 -0.50301915 -0.47265178 -0.32898515 -0.42442393 -0.17572965 -0.49034223 0.040220898
-0.41643056 -0.14052252 0.25897452 0.20581155 0.33347028 0.47423315 -0.15485755 -0.13775396
0.29895222 0.24621128 -0.28212163 -0.16066942 0.06846178 -0.03848916 -0.02536476 0.31052947
0.49898422 -0.13008581 0.62861425 0.4638566 0.48670492 0.15528752 0.19311537 0.572304
-0.032268163 -0.10718798 0.09274391 0.5167301 0.3478033 0.4971532 -0.11789413 -0.047810525
0.3146687 -0.37890747 0.58114237 0.41344324 -0.11487447 -0.20522334 -0.05863691 -0.29155824
0.23453167 -0.26845798 0.26291943 -0.11681528 -0.046277225 -0.1293746 -0.08328218 0.16181101
-0.43022835 -0.049049493 0.087117754 -0.046938088 -0.44591168 0.05750234 0.1076457 -0.02609826
0.044627726 -0.16496488 -0.20170102 0.4076234 0.2832388 0.22952613 -0.28869632 0.0840515
0.20368882 0.16096088 0.035763804 0.2603674 -0.14593522 0.37657267 -0.3912747 0.056411143
-0.25708717 -0.049502507 -0.6006718 -0.17981999 -0.2740586 0.38902763 -0.21769011 -0.036629897
0.41901177 -0.21133539 0.15517539 -0.15351632 0.29241568 -0.41695592 -0.06447069 -0.43831378
0.013918228 0.25422984 -0.23982118 -0.31672785 0.17356017 -0.21134135 0.2115081 0.2911131
0.32606274 0.20334032 0.27942565 -0.19475724 0.064533025 -0.04322357 0.23287745 0.2867893
-0.32482737 -0.5084173 -0.1603803 0.014724562 0.13342883 -0.15801659 0.21867174 -0.06268338
0.18065643 0.18445829 0.37167084 -0.1247427 -0.28001577 0.21537529 -0.32435396 -0.21491627
-0.5773731 0.09629268 0.21783377 0.06595859 -0.1836475 0.048838478 0.008662224 -0.29089782
-0.055780254 -0.08801301 -0.07583342 -0.100661956 -0.59364325 -0.16814725 -0.01953295 -0.22599483
0.07842454 -0.4230698 -0.28361973 -0.17437075 0.20927803 0.07961511 -0.43970013 0.2897467
0.1618271 -0.4390538 -0.18569697 0.18313593 0.16735165 0.41872683 -0.32720578 0.15969293
00000000: dd5b 90be 5250 33bc 1d1e 633d 2cf5 02bf
00000010: 5ca8 bcbe 3648 06bf 15b9 33bd a7bd 5abe
00000020: e361 5e3e 0eb1 a8be 19eb b1be 06be 09be
00000030: f6ea a0be dee7 c33c f5a2 693e 17f1 3a3d
00000040: f0aa efbe b9ce 0abe d51f 1c3e fac4 8f3d
00000050: 888f f9be 1162 ee3c 6152 ddbe 6242 3a3d
00000060: 0924 3ebf 4261 28bf d9b4 60bf acb8 11bd
00000070: e6ca 6abd 1ff4 18bd c243 293e 7ea5 8f3e
00000080: 55a6 663d 9110 14be d085 33bd 4639 a1be
00000090: 3ae2 f8bc 6629 e43d 0e4f e83e 5190 c03e
000000a0: 6ef2 e9bc 477e 9fbb 0d6e c6bc b10b a4be
000000b0: 6132 d73d 74ce 5cbe 3c0e 2e3e 4b72 5b3e
000000c0: 3a31 853e 0a9d debd 741d 69be e3bf 87be
000000d0: e2b9 22be de79 abbd bf67 853e 29fa 99be
000000e0: 3687 04bf 3836 633e 5380 5d3e 2bcc ddbe
000000f0: 8523 21be c548 b6be b8b3 aabd e22c 19be
00000100: d713 52be 8982 6f3e 5f2d eb3e a501 9e3e
00000110: 3c4a cf3e d498 a3bd 4a49 b93e 42be 9f3e
00000120: 6007 f8bd 068f ae3e 8504 953c 4494 62be
00000130: 2f03 183e 38dd a4bc eb8b b93e 99ea 3d3e
00000140: 2382 d13c c006 8d3e 2f28 753e 95a0 f53e
00000150: 8b37 e13c d7c1 82be 2f5e 1dbe 2278 0ebf
00000160: 4841 e2be 717e 03bf 7c86 13bf 02ab 97bc
00000170: 061b c5bd 1ebd 91be 19ac d1be d154 acbe
00000180: 8f62 0a3d ddc5 00bf 6aff f1be be70 a8be
00000190: 184e d9be 79f2 33be 230e fbbe abbe 243d
000001a0: 6336 d5be 23e5 0fbe 4f98 843e 43c0 523e
000001b0: 9ebc aa3e b0ce f23e fa92 1ebe 600f 0dbe
000001c0: 4410 993e cf1e 7c3e 3f72 90be 8686 24be
000001d0: b135 8c3d cfa6 1dbd c2c9 cfbc b8fd 9e3e
000001e0: dc7a ff3e 3735 05be ddec 203f 9d7e ed3e
000001f0: 6331 f93e b103 1f3e 09c0 453e 8482 123f
00000200: 9f2b 04bd 5f85 dbbd 85f0 bd3d 6d48 043f
00000210: 4613 b23e dd8a fe3e 7a72 f1bd f8d4 43bd
00000220: 411c a13e 2900 c2be bfc5 143f d5ae d33e
00000230: 4e43 ebbd 1126 52be 422d 70bd 1f47 95be
00000240: 1229 703e 5373 89be 609d 863e d93c efbd
00000250: 308d 3dbd c67a 04be d98f aabd c9b1 253e
00000260: e446 dcbe 1fe8 48bd cb6a b23d 2742 40bd
00000270: 894e e4be 9387 6b3d 5975 dc3d 05cc d5bc
00000280: 90cb 363d 8eec 28be b68a 4ebe 04b4 d03e
00000290: ad04 913e e608 6b3e 01d0 93be 3123 ac3d
000002a0: cd93 503e eed2 243e 117d 123d e04e 853e
000002b0: 0b70 15be 22ce c03e 2855 c8be 5f0f 673d
000002c0: eea0 83be 24c3 4abd a1c5 19bf bb22 38be
000002d0: 6951 8cbe a12e c73e 28ea 5ebe 3b09 16bd
000002e0: b688 d63e 4e68 58be 4ce6 1e3e 6233 1dbe
000002f0: 82b7 953e 3f7b d5be 3609 84bd aa6a e0be
00000300: 4809 643c 6a2a 823e af93 75be 272a a2be
00000310: c2b9 313e de69 58be 9495 583e c70c 953e
00000320: b2f1 a63e 7238 503e e110 8f3e 716e 47be
00000330: e429 843d 330b 31bd 6d77 6e3e 0cd6 923e
00000340: c64f a6be a327 02bf bc3a 24be 4a3f 713c
00000350: 91a1 083e 1acf 21be 7ceb 5f3e 2560 80bd
00000360: 00fe 383e a2e2 3c3e a44b be3e 1a79 ffbd
00000370: 3a5e 8fbe 578b 5c3e b911 a6be 0313 5cbe
00000380: b9ce 13bf 1935 c53d d10f 5f3e 4c15 873d
00000390: 170e 3cbe db0a 483d 00ec 0d3c 8ff0 94be
000003a0: d679 64bd 2a40 b4bd 8d4e 9bbd db27 cebd
000003b0: 01f9 17bf cb2e 2cbe 9103 a0bc 306b 67be
000003c0: 0c9d a03d 9b9c d8be 9b36 91be 3f8e 32be
000003d0: fb4c 563e 3f0d a33d 6020 e1be ae59 943e
000003e0: 01b6 253e a9cb e0be 5927 3ebe fc87 3b3e
000003f0: 3b5e 2b3e 5d63 d63e 8487 a7be 8b86 233e

final_layer.combination_weights f4 [4, 3]
0.33077258 0.47338828 0.40976995 0.33107558 0.47307715 0.41043568 0.33062303 0.47327882
0.410277 0.33100995 0.47259545 0.41010925
00000000: 065b a93e f35f f23e 5ecd d13e bd82 a93e
00000010: 2b37 f23e a024 d23e 6c47 a93e 9a51 f23e
00000020: d40f d23e 237a a93e 08f8 f13e d7f9 d13e

final_layer.weight f4 [3, 6, 6, 4, 3, 3]
-0.0023984627 0.27968144 -0.15336914 -0.037654635 -0.075497754 0.23973276 0.28983778 -0.27369985
0.35970482 0.01961521 -0.16863373 0.35062036 -0.41850924 -0.2890551 -0.10373998 -0.039418265
0.19117862 -0.4457472 0.21420169 -0.24312434 0.07652458 -0.3398977 -0.19639094 -0.16492645
-0.23583825 -0.007867521 0.22787678 0.26769778 0.06255456 0.21337311 -0.007588686 -0.28241333
0.1949606 0.039792996 -0.24420518 0.16566898 0.014896744 -0.42248085 0.012939256 -0.4450488
0.15556501 -0.19898777 -0.16007325 -0.057906915 0.015868172 -0.43647382 -0.29892087 0.16455685
-0.4893098 -0.1270783 -0.20138222 -0.5191557 0.23408005 0.07389523 -0.21469094 -0.21738622
-0.18538001 -0.51106405 0.055123623 -0.03374063 -0.14673701 -0.2003282 -0.30939358 0.09984435
-0.1670993 -0.19529119 0.105958015 0.18540035 0.18202314 -0.40519243 -0.03713938 0.16225475
0.39653736 -0.08492835 0.12635177 0.1673485 -0.07719884 -0.15665597 -0.40398666 0.38203016
0.29630885 0.1519611 -0.023921153 -0.26222798 0.1824505 0.032288007 0.14206938 -0.01006121
0.012427448 0.029817687 0.009246789 -0.0021026842 -0.17024778 0.33046204 -0.33082047 -0.028431788
0.35513717 0.13719301 -0.3004966 0.25765166 0.29064375 -0.26773563 -0.26878873 -0.2016819
-0.17661142 0.29093254 -0.12229493 0.051340166 -0.12384947 -0.26918334 -0.22985956 -0.018588535
-0.21105224 0.26725575 0.2229833 0.13487981 0.24068813 0.26622275 -0.34665123 -0.14952546
0.029365532 -0.23541227 -0.33908477 -0.3446148 -0.052112497 0.14366335 0.13626534 0.2589926
0.024931896 -0.17208077 0.254945 -0.01951318 0.26933476 0.065857016 -0.32642195 0.2686768
-0.39707527 0.05636525 -0.34621733 -0.05702114 0.012582658 -0.37537184 -0.32821673 -0.023162914
-0.3333199 -0.5283635 -0.39556044 -0.4889964 0.007658356 -0.45383915 -0.41258064 -0.55407935
-0.59122366 0.13591683 -0.33218732 0.094167255 -0.2870421 -0.2308897 -0.002181283 -0.36059794
-0.53637475 -0.21177901 0.116713785 -0.086083405 -0.46236193 0.07405944 -0.48771623 -0.042945802
-0.32484245 -0.31094706 -0.3611585 0.19620763 -0.4621354 -0.23969896 -0.31054267 -0.2743026
-0.38168168 -0.4626099 -0.38508824 0.042973675 -0.025248196 0.6816086 0.42108637 0.14873618
0.12632777 0.061946474 0.34564513 0.13816641 0.04452586 -0.30216688 0.07452102 -0.1621741
0.6812965 0.42568827 0.19812986 0.43377882 0.39920425 0.19177984 -0.01999818 0.25174814
0.33599314 0.4902204 0.39945477 -0.28543815 0.6764191 0.31281346 0.3729335 0.29271793
0.25889087 0.41577184 0.344194 0.5930879 0.5644465 0.41610134 0.21834075 -0.24681818
-0.3652775 -0.1065407 0.27989832 0.17606013 0.29933512 -0.26086062 0.14452063 -0.32374567
-0.15189855 -0.16662203 0.29201514 0.03358005 -0.03532463 0.13064092 0.3090315 -0.09817298
-0.031724695 -0.056002505 0.07060801 0.16957551 0.26220554 0.030820891 0.17896606 0.20567326
-0.22573566 0.29562888 -0.28600773 -0.21113136 0.17353609 -0.13007551 -0.45707417 0.21952729
-0.37238365 -0.2835084 -0.38872752 0.17613351 0.37844637 -0.152023 0.3983527 -0.13379368
00000000: 872f 1dbb 6832 8f3e cd0c 1dbe bf3b 1abd
00000010: 919e 9abd 817c 753e 9e65 943e 6322 8cbe
00000020: 3b2b b83e 14b0 a03c 52ae 2cbe 8384 b33e
00000030: d846 d6be 08ff 93be a075 d4bd 0c75 21bd
00000040: 54c4 433e fa38 e4be b057 5b3e 96f5 78be
00000050: ebb8 9c3d 1207 aebe b51a 49be 7be2 28be
00000060: 957f 71be c6e6 00bc 8858 693e af0f 893e
00000070: 9b1c 803d 7b7e 5a3e 83aa f8bb 7b98 90be
00000080: c0a3 473e fbfd 223d ec10 7abe 21a5 293e
00000090: 7911 743c 694f d8be 2cff 533c 70dd e3be
000000a0: 6f4c 1f3e 73c3 4bbe 3eea 23be cd2f 6dbd
000000b0: f8fd 813c 7f79 dfbe 280c 99be 9781 283e
000000c0: d086 fabe d020 02be 2437 4ebe 63e7 04bf
000000d0: aeb2 6f3e 6256 973d f1d7 5bbe 7e9a 5ebe
000000e0: 42d4 3dbe 18d5 02bf 4fc9 613d 9d33 0abd
000000f0: 3a42 16be d622 4dbe d668 9ebe 327b cc3d
00000100: 141c 2bbe 6afa 47be 8400 d93d 97d9 3d3e
00000110: 4664 3a3e 6275 cfbe 761f 18bd 1c26 263e
00000120: f206 cb3e eaee adbd 5c62 013e 685d 2b3e
00000130: 6d1a 9ebd 6c6a 20be 57d7 cebe 7599 c33e
00000140: cbb5 973e b19b 1b3e 4bf6 c3bc bf42 86be
00000150: 4ed4 3a3e 6e40 043d a37a 113e c6d7 24bc
00000160: 7f9c 4b3c 3944 f43c d87f 173c 30cd 09bb
00000170: 6f55 2ebe 5232 a93e 4d61 a9be c8e9 e8bc
00000180: 8ad4 b53e 537c 0c3e b1da 99be ebea 833e
00000190: 42cf 943e a514 89be ad9e 89be b385 4ebe
000001a0: a0d9 34be 1cf5 943e c475 fabd 114a 523d
000001b0: caa4 fdbd 66d2 89be 4e60 6bbe fc46 98bc
000001c0: 141e 58be bfd5 883e bc55 643e ef1d 0a3e
000001d0: f376 763e 594e 883e 457c b1be 341d 19be
000001e0: fc8f f03c ea0f 71be 859c adbe 5a71 b0be
000001f0: ea73 55bd 7c1c 133e 2489 0b3e ae9a 843e
00000200: fa3d cc3c f135 30be 2788 823e 1bda 9fbc
00000210: 3fe6 893e 0be0 863d c720 a7be 0190 893e
00000220: 734d cbbe 40df 663d 6643 b1be 008f 69bd
00000230: 7e27 4e3c bd30 c0be 060c a8be 27c0 bdbc
00000240: e8a8 aabe d542 07bf e686 cabe bc5d fabe
00000250: f2f2 fa3b 9b5d e8be c53d d3be 25d8 0dbf
00000260: 6f5a 17bf c82d 0b3e 7514 aabe c3da c03d
00000270: 2ff7 92be 596e 6cbe dbf3 0ebb 4ba0 b8be
00000280: db4f 09bf 99dc 58be a307 ef3d 7f4c b0bd
00000290: b4ba ecbe 7aac 973d f1b5 f9be f0e7 2fbd
000002a0: c051 a6be 7434 9fbe c4e9 b8be a7ea 483e
000002b0: 039d ecbe a573 75be 73ff 9ebe 6471 8cbe
000002c0: c86b c3be 34db ecbe 492a c5be 2a05 303d
000002d0: 4ed5 cebc e77d 2e3f a298 d73e 4c4e 183e
000002e0: 115c 013e 96bb 7d3d 66f8 b03e 7f7b 0d3e
000002f0: c060 363d 9eb5 9abe 7a9e 983d f810 26be
00000300: 7369 2e3f d0f3 d93e 8ee2 4a3e 4218 de3e
00000310: 8064 cc3e ef61 443e 39d3 a3bc 22e5 803e
00000320: 4b07 ac3e 2bfe fa3e 5685 cc3e f324 92be
00000330: cd29 2d3f 1629 a03e 24f1 be3e 20df 953e
00000340: 588d 843e 0ce0 d43e 323a b03e 9cd4 173f
00000350: 917f 103f 3c0b d53e b894 5f3e e8bd 7cbe
00000360: a705 bbbe 0332 dabd d54e 8f3e 1b49 343e
00000370: 7442 993e 868f 85be 37fd 133e fec1 a5be
00000380: 4b8b 1bbe f79e 2abe 0283 953e 3c8b 093d
00000390: 8fb0 10bd bcc6 053e 6039 9e3e ea0e c9bd
000003a0: c1f1 01bd e262 65bd ef9a 903d 34a5 2d3e
000003b0: ce3f 863e 187c fc3c e142 373e 039c 523e
000003c0: 4027 67be ab5c 973e 9b6f 92be d232 58be
000003d0: 72b3 313e 8432 05be a005 eabe c3cb 603e
000003e0: 12a9 bebe 0328 91be 4b07 c7be 585c 343e
000003f0: b9c3 c13e ebab 1bbe e3f4 cb3e 3601 09be
