oldruns/RelaxedP4CNN_aniso_std0.2_gamma2_lr0.002/model.pt (torch, 116029 bytes, 18 tensors)

lifting_conv.combination_weights f4 [3, 4]
0.2578252 0.25426802 0.25259668 0.25897512 -0.15315951 -0.1492869 -0.15293826 -0.15395409
0.0579795 0.05585029 0.05806296 0.057816565
00000000: aa01 843e 6b2f 823e 5a54 813e 6398 843e
00000010: d9d5 1cbe aade 18be d99b 1cbe 24a6 1dbe
00000020: ea7b 6d3d 46c3 643d 6dd3 6d3d 10d1 6c3d

lifting_conv.weight f4 [3, 6, 1, 3, 3]
0.0064154444 -0.38304695 -0.33693266 0.41144577 -0.23499922 -0.07002145 -0.2003031 0.17368554
0.13019033 0.07221987 -0.04789369 0.049085062 0.04772825 0.004841165 0.25451818 -0.15571527
0.11759825 -0.5032631 -0.4130734 0.03597153 -0.11735242 -0.50637734 -0.05685558 -0.2406285
0.3985425 -0.46043143 -0.040145926 -0.22813217 -0.06535437 0.1792641 0.22495207 0.029602835
-0.07931624 0.5985172 0.15892665 0.073457584 -0.6400592 -0.16712177 0.1307208 0.31509268
0.024121227 -0.42529947 -0.3406283 -0.046535235 -0.37228262 0.19307655 0.26879695 -0.12665768
0.23777112 0.19803797 -0.49631503 0.3937669 -0.20055689 -0.5931087 -0.5105835 0.5514466
-0.21811219 -0.35671666 -0.32210746 0.035170924 -0.11400235 0.18254922 0.20527704 0.06680883
0.1181166 -0.13497955 -0.1841462 -0.11148744 -0.024896042 0.5309063 0.2706608 0.40091544
-0.046358895 0.079865135 0.10598583 0.380542 -0.015487365 -0.3052562 -0.42854434 0.3390569
0.40357593 -0.1380906 0.21025062 0.36047518 -0.1755425 -0.029261598 0.10556265 -0.50388783
-0.055480517 0.22623216 0.65391797 -0.29946628 0.17258276 0.14660515 -0.08861534 -0.075590804
0.34661815 -0.043799613 0.012994396 0.058102477 0.021865703 0.07353907 -0.35941398 0.21760146
0.12569648 -0.2663682 0.34873137 0.20988588 0.34393075 -0.5486873 0.0882443 0.16281092
-0.06450897 0.06804487 -0.43466756 0.28672588 0.10232288 -0.17970733 0.12817952 -0.0326414
0.32707575 -0.21798101 -0.0019769147 -0.0062863585 -0.19884516 -0.2261588 -0.05673879 0.15652138
-0.010822126 -0.12765792 -0.06719572 -0.122828215 0.40418085 -0.14428248 -0.31131807 -0.01690955
-0.1867625 0.123468705 -0.09680682 0.21295765 0.29217675 0.26589346 -0.07400655 -0.5106855
-0.6014108 -0.06684791 -0.061005745 -0.34025356 -0.31231195 0.110654175 -0.26811558 0.33706313
-0.24309121 0.019818332 0.051595964 -0.109006375 0.23138155 -0.1402415 -0.4354482 0.27726594
-0.15670976 -0.5306151
00000000: a638 d23b bb1e c4be 7082 acbe 05a9 d23e
00000010: a3a3 70be 6867 8fbd 411c 4dbe 9fda 313e
00000020: 9d50 053e 03e8 933d 2d2c 44bd 6b0d 493d
00000030: b37e 433d a3a2 9e3b 3550 823e d373 1fbe
00000040: 5ad7 f03d dad5 00bf 5b7e d3be e256 133d
00000050: 7756 f0bd f2a1 01bf 66e1 68bd 5167 76be
00000060: c30d cc3e abbd ebbe 0e70 24bd 7b9b 69be
00000070: 83d8 85bd 0291 373e d659 663e a581 f23c
00000080: 8e70 a2bd 6c38 193f abbd 223e ee70 963d
00000090: ebda 23bf f821 2bbe acdb 053e d453 a13e
000000a0: e199 c53c dac0 d9be d566 aebe bb9b 3ebd
000000b0: d49b bebe dcb5 453e c19f 893e 8db2 01be
000000c0: 467a 733e 77ca 4a3e 011d febe d19b c93e
000000d0: c95e 4dbe f9d5 17bf 9ab5 02bf 9b2b 0d3f
000000e0: cd58 5fbe 91a3 b6be 45eb a4be 630f 103d
000000f0: 107a e9bd 2fee 3a3e 2534 523e 11d3 883d
00000100: 1ee7 f13d 1438 0abe d290 3cbe 8753 e4bd
00000110: c9f2 cbbc 7ae9 073f 0d94 8a3e ca44 cd3e
00000120: d3e2 3dbd 5590 a33d 190f d93d 67d6 c23e
00000130: b8be 7dbc 8a4a 9cbe 2a6a dbbe de98 ad3e
00000140: 81a1 ce3e 9f67 0dbe f04b 573e 3490 b83e
00000150: 6ac1 33be 05b6 efbc 3b31 d83d cbfe 00bf
00000160: 8a3f 63bd 67a9 673e 2b67 273f a553 99be
00000170: 89b9 303e a91f 163e f67b b5bd 5acf 9abd
00000180: ef77 b13e 3967 33bd 72e6 543c ddfc 6d3d
00000190: b41f b33c a79b 963d 1c05 b8be ebd2 5e3e
000001a0: 94b6 003e 6a61 88be eb8c b23e 53ec 563e
000001b0: b117 b03e c576 0cbf 6db9 b43d e8b7 263e
000001c0: 471d 84bd 1c5b 8b3d bf8c debe bccd 923e
000001d0: a88e d13d 3305 38be 7e41 033e fdb2 05bd
000001e0: 7976 a73e 6a36 5fbe 208f 01bb ccfd cdbb
000001f0: 119e 4bbe 2c96 67be ef66 68bd 2447 203e
00000200: 494f 31bc c2b8 02be e99d 89bd 5c8d fbbd
00000210: cbf0 ce3e c9be 13be 1565 9fbe e685 8abc
00000220: ab3e 3fbe 29dd fc3d a742 c6bd 9211 5a3e
00000230: 3198 953e 3023 883e bf90 97bd 49bc 02bf
00000240: 0ff6 19bf 8fe7 88bd 29e1 79bd b735 aebe
00000250: 5ae7 9fbe a89e e23d 7246 89be 8a93 ac3e
00000260: e7ec 78be 0e5a a23c 4a56 533d bc3e dfbd
00000270: 49ef 6c3e 789b 0fbe 11f3 debe cdf5 8d3e
00000280: 8678 20be 64d6 07bf

gconvs.0.combination_weights f4 [4, 3]
0.40538162 0.37219915 0.34912887 0.40234202 0.36880332 0.3470182 0.40125918 0.36631867
0.34731683 0.4025169 0.37037113 0.3473946
00000000: 2e8e cf3e e390 be3e 05c1 b23e c6ff cd3e
00000010: cad3 bc3e 5fac b13e d871 cd3e 1f8e bb3e
00000020: 83d3 b13e b216 ce3e 49a1 bd3e b4dd b13e

gconvs.0.weight f4 [3, 6, 6, 4, 3, 3]
0.02587274 0.24390306 0.4645217 0.33572644 0.017420128 -0.07436818 0.3658207 -0.021721883
0.16750069 0.29866338 0.56534994 0.3730128 -0.06037024 -0.03232764 0.41369453 -0.60472524
-0.11760398 0.29602763 -0.12837015 -0.031455103 0.1664845 0.3581074 0.37534887 0.087913625
0.40172413 0.39540362 0.11996688 -0.30713075 -0.054611407 -0.051401824 -0.36393705 -0.20874582
0.14185761 -0.360138 -0.5784317 0.10951788 -0.36292475 -0.29210517 -0.108763814 0.07339985
-2.8763438e-05 -0.04396759 -0.12156373 -0.4683539 -0.017978232 -0.2267961 0.38143313 -0.23960869
-0.10462466 0.31867987 -0.034852874 -0.23713566 -0.08530222 -0.26483896 -0.3357074 0.16714238
0.016704828 -0.05581387 -0.14356934 -0.17448546 -0.12711109 -0.2819694 0.24395771 0.13746968
0.25700638 -0.12900501 0.3891622 -0.31307638 0.3710759 0.08083927 -0.4534401 0.43987107
-0.40785006 -0.06679094 -0.11342132 -0.2661001 -0.2301414 -0.25191265 0.051104493 -0.5494914
-0.45805362 0.40363857 0.25380978 -0.11841412 0.24719372 0.22625054 0.16427425 -0.193087
-0.26184198 -0.6927099 -0.44703528 0.15018685 -0.1352806 0.297057 -0.052525386 -0.5291286
-0.24043082 -0.2672993 -0.26292574 -0.44930625 0.2994446 0.38576785 -0.030076884 0.08604065
-0.40478837 0.05173812 -0.33792675 -0.8815958 0.4195106 -0.3722456 0.26132914 0.3703441
-0.20684084 0.18996891 0.017750433 -0.20504941 0.18681131 0.43158573 0.23424861 0.16860336
-0.059533052 0.3610496 -0.22912382 -0.28028038 0.08317095 -0.19129443 0.010015117 -0.16318996
0.42372876 -0.03600256 0.13096388 -0.078265 -0.17944793 -0.08094013 -0.40298715 -0.29778972
-0.042602215 0.22460724 0.10394137 -0.24085411 0.23253398 -0.26378733 0.038334485 -0.26974267
0.13646774 -0.2505133 -0.13571486 0.26799494 0.110533364 -0.041301034 0.22020632 -0.656107
-0.39275652 0.29870883 -0.22294737 0.013932839 -0.0651196 0.35783368 -0.11291607 -0.50930834
-0.08948195 0.063700035 0.367679 0.21823217 -0.10519472 -0.12809731 -0.15861668 0.20986992
-0.0041022073 -0.06799421 -0.2944756 0.42477396 -0.013373228 0.34486124 0.12219177 -0.45866436
0.0112231225 -0.34078336 0.06361765 -0.36989388 -0.38034746 0.32292938 0.39063627 -0.39969444
-0.3695027 -0.10564984 -1.1995013 -0.58501315 -0.004180639 -0.5133933 -0.3634423 -0.3992639
-0.47252992 -0.16721652 -0.22263524 -0.4439934 -0.09156762 -0.68173945 -0.27974397 -0.13559143
0.020808263 0.23271275 0.28572112 0.027901385 0.08123835 -0.42425954 -0.008580702 0.22590566
-0.010335021 0.31597894 -0.3806432 -0.48449138 0.02892495 -0.15687138 0.11235854 -0.35656208
-0.08314349 -0.027543446 -0.36259553 0.054792386 0.03644989 -0.34178504 -0.02743582 0.49623293
-0.071966775 -0.33628199 -0.015021178 0.5173229 -0.08970357 0.037649456 0.19272333 -0.3814293
0.36913058 0.050194956 0.20919116 0.23564033 0.037412744 0.1254104 0.09200554 -0.6386954
-0.2536701 -0.17839248 -0.09913767 -0.4734335 -0.32081968 -0.08125247 -0.56029147 -0.38536128
-0.040691037 -0.48661855 -0.5779788 -0.14605835 -0.3723127 0.0518141 -0.16507325 0.260735
00000000: 12f3 d33c b9c1 793e cad5 ed3e 56e4 ab3e
00000010: a8b4 8e3c 584e 98bd da4c bb3e 17f2 b1bc
00000020: 4d85 2b3e 68ea 983e c6ba 103f 89fb be3e
00000030: c946 77bd fd69 04bd c5cf d33e 46cf 1abf
00000040: 5bda f0bd ef90 973e 7773 03be 11d7 00bd
00000050: ea7a 2a3e da59 b73e ba2d c03e 0f0c b43d
00000060: c9ae cd3e 5872 ca3e 32b1 f53d 3e40 9dbe
00000070: 36b0 5fbd b88a 52bd f555 babe 77c1 55be
00000080: 1f43 113e 0264 b8be 1a14 14bf e94a e03d
00000090: 46d1 b9be cf8e 95be 90bf debd a952 963d
000000a0: 0349 f1b7 5c17 34bd 68f6 f8bd 15cc efbe
000000b0: 1647 93bc 3d3d 68be 344b c33e fb5b 75be
000000c0: 7445 d6bd 022a a33e e3c1 0ebd b1d3 72be
000000d0: eeb2 aebd f998 87be d7e1 abbe 5f27 2b3e
000000e0: 90d8 883c 169d 64bd d703 13be 51ac 32be
000000f0: 6929 02be 4b5e 90be 0dd0 793e dac4 0c3e
00000100: 5796 833e e419 04be 4540 c73e 8c4b a0be
00000110: a9fd bd3e 0f8f a53d 4d29 e8be c836 e13e
00000120: b9d1 d0be b0c9 88bd 7049 e8bd 463e 88be
00000130: 30aa 6bbe b2fa 80be f252 513d 78ab 0cbf
00000140: 0186 eabe b7a9 ce3e 5bf3 813e 1a83 f2bd
00000150: 5a20 7d3e 39ae 673e 8237 283e 99b8 45be
00000160: 2710 86be 7055 31bf cfe1 e4be 95ca 193e
00000170: ff86 0abe db17 983e dc24 57bd f974 07bf
00000180: 7f33 76be 74db 88be 349e 86be 780b e6be
00000190: cd50 993e 5d83 c53e cc63 f6bc 1536 b03d
000001a0: 6c40 cfbe 5aeb 533d bc04 adbe 43b0 61bf
000001b0: 18ca d63e fa96 bebe efcc 853e be9d bd3e
000001c0: 16ce 53be 3687 423e 5b69 913c 79f8 51be
000001d0: 774b 3f3e cef8 dc3e dede 6f3e 5ca6 2c3e
000001e0: eed8 73bd 7edb b83e 6f9f 6abe e980 8fbe
000001f0: 8855 aa3d b0e2 43be 7216 243c 451b 27be
00000200: faf2 d83e 6c77 13bd 651b 063e 6649 a0bd
00000210: 33c1 37be f0c3 a5bd 5554 cebe e577 98be
00000220: a97f 2ebd 71ff 653e 37df d43d 76a2 76be
00000230: 631d 6e3e 220f 87be 9f04 1d3d b61b 8abe
00000240: 33be 0b3e 4743 80be d6f8 0abe a236 893e
00000250: 515f e23d 462b 29bd c47d 613e a1f6 27bf
00000260: 6217 c9be 5df0 983e 514c 64be 9046 643c
00000270: 6d5d 85bd fa35 b73e 8a40 e7bd 0862 02bf
00000280: 5042 b7bd 2a75 823d 6c40 bc3e 4178 5f3e
00000290: 5470 d7bd f12b 03be 696c 22be 24e8 563e
000002a0: cf6b 86bb 8c40 8bbd 81c5 96be f97b d93e
000002b0: 621b 5bbc a791 b03e ae3f fa3d 0ed6 eabe
000002c0: 30e1 373c 287b aebe f849 823d bb62 bdbe
000002d0: e7bc c2be 0057 a53e 7a01 c83e c0a4 ccbe
000002e0: 752f bdbe f15e d8bd 4289 99bf 6cc3 15bf
000002f0: befd 88bb be6d 03bf 1c15 babe 516c ccbe
00000300: 71ef f1be cf3a 2bbe 7efa 63be 1a53 e3be
00000310: ce87 bbbd 7a86 2ebf 9a3a 8fbe 7bd8 0abe
00000320: 1776 aa3c 404c 6e3e 0a4a 923e 7291 e43c
00000330: 4b60 a63d 8c38 d9be 1396 0cbc d053 673e
00000340: 3854 29bc fec7 a13e aae3 c2be 410f f8be
00000350: 04f4 ec3c e4a2 20be 3c1c e63d 4e8f b6be
00000360: 2247 aabd cba2 e1bc 1fa6 b9be fb6d 603d
00000370: 7b4c 153d 73fe aebe 16c1 e0bc 3e12 fe3e
00000380: 5163 93bd 272d acbe 631b 76bc 466f 043f
00000390: 81b6 b7bd 5136 1a3d 4459 453e b44a c3be
000003a0: affe bc3e 3a99 4d3d 3536 563e b34b 713e
000003b0: 1b3e 193d 956b 003e 676d bc3d 8b81 23bf
000003c0: 0ce1 81be 85ac 36be b108 cbbd e065 f2be
000003d0: 7a42 a4be b267 a6bd 436f 0fbf 134e c5be
000003e0: a5ab 26bd 1126 f9be 6bf6 13bf 5290 15be
000003f0: c59f bebe 063b 543d f608 29be 0f7f 853e

gconvs.1.combination_weights f4 [4, 3]
0.3736088 0.3680044 0.35009772 0.3762937 0.36857417 0.34936604 0.38400555 0.37636116
0.3553272 0.3752503 0.3743306 0.34926608
00000000: a749 bf3e 136b bc3e 0240 b33e 91a9 c03e
00000010: c1b5 bc3e 1be0 b23e 609c c43e 69b2 c03e
00000020: 72ed b53e cf20 c03e 43a8 bf3e 01d3 b23e

gconvs.1.weight f4 [3, 6, 6, 4, 3, 3]
0.20250076 -0.28846356 -0.06810444 0.26664644 -0.07026552 -0.11705822 -0.07791144 0.28252196
0.20645523 -0.14987282 -0.51842034 0.15499935 0.35654384 0.021913575 0.087139025 -0.0928334
-0.22879598 0.17310122 -0.24435037 0.42717054 0.14535938 -0.002224484 0.09428225 0.64356047
-0.5270186 -0.18872923 0.5510454 0.35077205 0.08943057 0.6550994 0.18490125 -0.3076746
0.49937734 -0.15064916 -0.30408835 0.09215589 -0.14689283 -0.10197064 -0.8152428 0.43566993
-0.16312397 -0.37403738 0.3277914 -0.33620107 -0.84252834 -0.35704955 0.009705944 -0.0040962137
-0.5182079 -0.3318745 -0.2830178 0.4787618 0.026409678 0.3226928 0.22134326 -0.1338119
-0.23592761 0.3411312 -0.03567765 0.22926688 -0.087193266 -0.3414716 -0.1308794 -0.27706456
-1.0384818 -0.6103246 -0.11558344 -0.247383 -0.24986924 0.24051066 0.024752665 0.5748018
-0.56396663 -0.28743586 -0.73606914 -0.25236505 0.24973363 0.38901863 0.48915383 0.07245524
0.32597443 -0.43463296 -0.3570954 -0.68520194 0.22780119 -0.09787888 0.32890534 0.23639081
0.011306603 -0.08464035 -0.1381397 -0.40327883 0.16018035 -0.2499598 0.35575393 0.35453808
0.21555306 0.102882355 0.23738065 -0.81573296 -0.45564917 -0.81321776 -0.27974865 -0.15902066
0.0031408323 0.5388392 0.5010193 -0.23094796 0.058344115 0.17060824 -0.14503337 -0.22873814
0.27589184 0.010309008 0.10979193 -0.032998476 -0.2852519 -0.32545057 -0.122798495 0.00422201
0.19653897 0.038969934 0.19541779 0.18699934 0.12269304 0.30059147 -0.0264766 0.5494798
0.6271222 0.05661054 0.45399842 -0.27264702 0.046495758 -0.00982241 -0.552729 0.07821821
0.5332902 0.7040519 -0.2406677 -0.17180414 0.42725426 -0.041263 0.27193272 -0.039188083
-0.07315156 0.010349535 0.23643057 -0.44000784 -0.17303735 0.016385132 0.023205979 -0.58146095
0.060209874 0.29652914 0.44125012 -0.25385314 -0.061791476 -0.06013756 0.2625876 0.09808805
-0.16067003 0.3678456 -0.059621766 0.31721798 0.326298 0.03406729 0.11916141 0.41221043
-0.28898424 -0.38937643 -0.24872541 -0.049011253 0.14637254 -0.9138544 -0.1542352 0.39698517
-0.64737475 0.23135068 -0.09602684 0.31107867 -0.44733796 0.21121284 -0.3664396 -0.47238386
-0.13577424 -0.17270744 -0.24403383 -0.2365806 0.15384293 0.14592813 -0.68161434 0.43549636
-0.26164597 0.017963765 -0.050466843 0.3375777 -0.024165353 -0.23924072 -0.61875 -0.17207745
-0.06840799 -0.5398273 -0.11739375 -0.4342205 0.33113164 0.10346028 0.3049595 0.35566205
-0.14398658 0.20263647 -0.1724587 -0.5764846 -0.038656425 0.4639153 0.05544052 0.12555641
0.4109055 0.31182748 -0.42310163 -0.21062216 -0.23297082 -0.43060037 0.052707452 0.009617001
-0.43280905 0.20646389 0.38691658 0.037726857 -0.12954216 -0.11341708 -0.0040720263 -0.24738728
0.304296 -0.42812786 0.17379862 0.15428667 0.015668985 -0.049541615 0.37520212 -0.001160252
-0.80280906 -0.023002235 -0.49994048 -0.15551184 0.36631313 0.43990746 0.14013916 -0.30419967
0.046811666 -0.16953781 0.00050114305 -0.49064335 0.18351448 0.2391536 0.6427582 0.18103768
00000000: 5c5c 4f3e 7fb1 93be 577a 8bbd e285 883e
00000010: 5ee7 8fbd 38bc efbd 0890 9fbd b8a6 903e
00000020: 0069 533e 4378 19be 32b7 04bf 26b8 1e3e
00000030: ea8c b63e 1984 b33c f275 b23d 701f bebd
00000040: 7e49 6abe 7241 313e fc36 7abe 19b6 da3e
00000050: 17d9 143e a6c8 11bb 0d17 c13d 61c0 243f
00000060: b1ea 06bf 3c42 41be 5011 0d3f 6598 b33e
00000070: 6027 b73d 98b4 273f c156 3d3e 8687 9dbe
00000080: 63ae ff3e c643 1abe 78b1 9bbe 3abc bc3d
00000090: 136b 16be fcd5 d0bd c1b3 50bf 2110 df3e
000000a0: f809 27be d481 bfbe 46d4 a73e 8c22 acbe
000000b0: f0af 57bf 33cf b6be ae05 1f3c 8839 86bb
000000c0: 46a9 04bf 74eb a9be b6e7 90be 4420 f53e
000000d0: 1c59 d83c fe37 a53e cfa7 623e fd05 09be
000000e0: 0297 71be c0a8 ae3e ba22 12bd f0c4 6a3e
000000f0: 6292 b2bd 5ed5 aebe 4005 06be 68db 8dbe
00000100: f9ec 84bf 3c3e 1cbf 03b7 ecbd f851 7dbe
00000110: b9dd 7fbe 6d48 763e 1ac6 ca3c 3626 133f
00000120: 1e60 10bf cb2a 93be 076f 3cbf fe35 81be
00000130: 2cba 7f3e 732d c73e 5f72 fa3e 6a63 943d
00000140: 1fe6 a63e 3688 debe 35d5 b6be 6569 2fbf
00000150: b744 693e b974 c8bd 4866 a83e 6f10 723e
00000160: 553f 393c eb57 adbd 7e74 0dbe 907a cebe
00000170: 5106 243e 76f5 7fbe 6125 b63e 0486 b53e
00000180: f1b9 5c3e fcb3 d23d ea13 733e e0d3 50bf
00000190: d94a e9be 0a2f 50bf 373b 8fbe 50d6 22be
000001a0: 6cd6 4d3b 5ef1 093f cd42 003f 9f7d 6cbe
000001b0: 3dfa 6e3d edb3 2e3e a183 14be 553a 6abe
000001c0: b241 8d3e 1de7 283c 97da e03d 6929 07bd
000001d0: 890c 92be 75a1 a6be c77d fbbd c958 8a3b
000001e0: 8341 493e f09e 1f3d 9a1b 483e c17c 3f3e
000001f0: 7d46 fb3d 20e7 993e 74e5 d8bc b5aa 0c3f
00000200: 158b 203f 74e0 673d 7b72 e83e 6498 8bbe
00000210: 5672 3e3d 2cee 20bc a67f 0dbf de30 a03d
00000220: b585 083f bf3c 343f 9871 76be 6ded 2fbe
00000230: 12c1 da3e 6403 29bd c43a 8b3e af83 20bd
00000240: 7cd0 95bd 1991 293c db1a 723e b548 e1be
00000250: b430 31be 1d3a 863c 771a be3c a0da 14bf
00000260: a19e 763d abd2 973e 89eb e13e 0af9 81be
00000270: 0f19 7dbd cd52 76bd e271 863e 63e2 c83d
00000280: af86 24be 4256 bc3e f435 74bd 656a a23e
00000290: 8810 a73e 258a 0b3d e60a f43d 3f0d d33e
000002a0: bef5 93be 595c c7be e0b1 7ebe 06c0 48bd
000002b0: afe2 153e 5df2 69bf d5ef 1dbe a441 cb3e
000002c0: 5aba 25bf 31e7 6c3e b8a9 c4bd b445 9f3e
000002d0: 7b09 e5be 2e48 583e f99d bbbe 4cdc f1be
000002e0: 6708 0bbe 38da 30be 01e4 79be 2f42 72be
000002f0: 0089 1d3e 2f6e 153e 477e 2ebf 61f9 de3e
00000300: 76f6 85be bf28 933c 52b6 4ebd fcd6 ac3e
00000310: 6bf6 c5bc 85fb 74be 6666 1ebf 1235 30be
00000320: 7d19 8cbd 1f32 0abf 226c f0bd 2652 debe
00000330: 168a a93e fce2 d33d a723 9c3e 5619 b63e
00000340: 3871 13be ef7f 4f3e 0399 30be 7f94 13bf
00000350: 3356 1ebd 4e86 ed3e 9915 633d dc91 003e
00000360: 3562 d23e daa7 9f3e c7a0 d8be 56ad 57be
00000370: e78f 6ebe a777 dcbe c5e3 573d a090 1d3c
00000380: 2699 ddbe 456b 533e ee19 c63e 7a87 1a3d
00000390: b3a6 04be 3747 e8bd a26e 85bb 1753 7dbe
000003a0: afcc 9b3e 9333 dbbe 44f8 313e 53fd 1d3e
000003b0: 3e5c 803c 26ec 4abd 7e1a c03e 9913 98ba
000003c0: e584 4dbf 2f6f bcbc 33f8 ffbe 7f3e 1fbe
000003d0: 658d bb3e 8d3b e13e a480 0f3e 0fc0 9bbe
000003e0: 97bd 3f3d 529b 2dbe 245f 033a 9b35 fbbe
000003f0: 38eb 3b3e aee4 743e cd8b 243f f161 393e

gconvs.2.combination_weights f4 [4, 3]
0.36903396 0.33832505 0.39780587 0.3669094 0.34319553 0.39252913 0.36794293 0.33970425
0.3954592 0.3675387 0.33583423 0.3932908
00000000: 05f2 bc3e f138 ad3e 36ad cb3e 8ddb bb3e
00000010: 53b7 af3e 94f9 c83e 0463 bc3e b7ed ad3e
00000020: a179 ca3e 082e bc3e 77f2 ab3e 695d c93e

gconvs.2.weight f4 [3, 6, 6, 4, 3, 3]
-0.23749754 -0.004016077 -0.45339224 -0.33182925 -0.27046978 -0.31697968 0.05746014 0.28834873
0.4210392 -0.21311842 0.371706 0.1499704 -0.15503894 0.21505888 0.066890106 -0.56159395
-0.24096996 -0.018999765 -0.12189284 0.12699112 -0.18188447 -0.29941595 -0.10757134 0.08260833
-0.47388417 -0.25851548 -0.14458442 0.19190043 0.47292203 0.41514504 -0.27622387 0.42165154
-0.10861425 0.0726739 0.21039712 0.26985383 -0.4784213 0.37440407 -0.36428824 -0.03947949
-0.21841867 -0.39116856 -0.5431567 0.4550107 0.07887795 -0.22419398 0.2755484 -0.14582504
0.060931202 0.26385075 0.42066666 -0.016628355 0.47475275 0.22106639 0.40328526 -0.0022297406
0.43923274 0.25042582 -0.12541062 -0.35728043 -0.36385465 0.030843932 -0.57610494 -0.30811003
0.15742831 -0.106984176 -0.07844422 -0.317066 -0.08862525 0.47896284 0.016584713 -0.22391288
-0.3960454 -0.23606247 0.004857868 -0.13478762 0.34719706 0.06956044 0.21184963 -0.14304301
0.42513183 0.06400733 0.28056931 -0.4241139 -0.31188047 0.3079988 -0.2594966 0.22777879
0.03645815 0.42968625 -0.25182787 0.37685204 0.032913283 -0.4412537 -0.022668839 0.0020002753
-0.059716865 0.1405182 0.48918086 -0.33508688 -0.011535274 -0.16098548 -0.081485145 0.19936283
0.12796694 0.11064223 0.23926488 0.2536807 -0.57489914 -0.46725175 0.22089487 -0.048577055
0.3781786 0.37735254 0.23956242 0.20472613 0.34683082 -0.10942981 -0.22256984 0.15188046
0.3960561 -0.1301825 0.18570521 -0.20097463 0.24135275 0.14778504 -0.44283605 -0.4473944
-0.028506918 0.14213163 0.014831034 -0.37768698 0.07040023 -0.0026148 0.06908869 -0.36313748
0.11174182 0.22142087 0.15706937 0.073751666 -0.181716 0.28319603 0.17429817 0.24877883
-0.53992975 0.11245448 0.11209195 -0.5989687 0.26747188 0.31127015 0.09509309 -0.34350434
-0.049462877 -0.3554243 -0.19249928 -0.52414244 -0.45432898 -0.21478236 0.41146123 -0.6072213
0.3794604 0.016096596 -0.16980863 -0.20743237 -0.29124212 -0.2672929 -0.2583787 0.54021823
-0.52871436 -0.23149928 -0.11602679 -0.6413087 -0.27897897 0.15621652 -0.17616111 -0.20507443
-0.17489572 -0.40484384 -0.12739047 0.20677762 -0.1732024 0.14549854 0.115223326 0.13681981
0.33343714 -0.34814563 0.062346473 -0.2928797 -0.37875032 -0.10397786 -0.32538754 0.3650134
-0.38197693 -0.19956818 -0.32782847 0.32071796 0.071871124 -0.43026507 -0.18651244 -0.09763854
-0.39249617 0.17201601 0.02577468 0.02210533 -0.06500826 0.39619625 -0.25586256 0.1975024
0.12667488 0.25825632 -0.07444974 -0.3227798 0.13471518 0.11399519 0.16942611 -0.40667972
-0.1265073 -0.1789222 -0.8139238 -0.3920926 -0.18157834 -0.7807131 -0.8180018 -0.02677207
-0.9524463 0.31934276 0.15335624 0.34535542 -0.17040928 0.57458514 0.30692026 0.22970249
0.19149703 0.45393026 0.36504608 -0.08665263 -0.29881874 -0.02746552 0.28463998 0.10869816
0.099717595 0.07894871 -0.27642396 0.42899778 0.17742495 -0.36417887 0.002196223 -0.019980628
0.32003847 -0.10644928 -0.43759015 -0.72830105 -0.6739775 -0.6241062 -0.18295418 -0.9803994
00000000: 8e32 73be 4c99 83bb 0723 e8be 86e5 a9be
00000010: 047b 8abe 294b a2be 535b 6b3d 72a2 933e
00000020: 7392 d73e b73b 5abe 4050 be3e d791 193e
00000030: 87c2 1ebe 6538 5c3e aefd 883d 9fc4 0fbf
00000040: d4c0 76be 65a5 9bbc f4a2 f9bd f609 023e
00000050: ec3f 3abe 0c4d 99be 5d4e dcbd 8e2e a93d
00000060: f2a0 f2be 245c 84be f00d 14be 8c81 443e
00000070: d622 f23e e48d d43e 376d 8dbe b6e2 d73e
00000080: 2671 debd 0ed6 943d 5872 573e 482a 8a3e
00000090: a3f3 f4be e4b1 bf3e fd83 babe 3fb5 21bd
000000a0: 25a9 5fbe 3f47 c8be 510c 0bbf 2af7 e83e
000000b0: c38a a13d 1b93 65be ae14 8d3e 2953 15be
000000c0: ff92 793d 7217 873e 9f61 d73e 3038 88bc
000000d0: cb12 f33e 3a5f 623e 687b ce3e d720 12bb
000000e0: 1de3 e03e d037 803e a46b 00be 76ed b6be
000000f0: 284b babe 6aac fc3c 9d7b 13bf 99c0 9dbe
00000100: e334 213e 851a dbbd 5da7 a0bd 7a56 a2be
00000110: 2881 b5bd 9e3a f53e aadc 873c 6b49 65be
00000120: 76c6 cabe 5cba 71be c02e 9f3b c405 0abe
00000130: d0c3 b13e b475 8e3d 1cef 583e de79 12be
00000140: e1aa d93e 4616 833d c8a6 8f3e 7525 d9be
00000150: ccae 9fbe 05b2 9d3e bddc 84be d83e 693e
00000160: 2455 153d d6ff db3e 95ef 80be c0f2 c03e
00000170: 14d0 063d 01ec e1be 00b4 b9bc 0d17 033b
00000180: ac99 74bd 01e4 0f3e ea75 fa3e 8290 abbe
00000190: 72fe 3cbc 61d9 24be afe1 a6bd c525 4c3e
000001a0: c409 033e 6598 e23d da01 753e 70e2 813e
000001b0: 972c 13bf 9f3b efbe 4432 623e bcf8 46bd
000001c0: a0a0 c13e 5a34 c13e da4f 753e baa3 513e
000001d0: cf93 b13e bc1c e0bd 59e9 63be 8d86 1b3e
000001e0: ddc7 ca3e 904e 05be 8229 3e3e 4bcc 4dbe
000001f0: 2d25 773e f654 173e 68bb e2be e110 e5be
00000200: 5787 e9bc f48a 113e ddfd 723c 3060 c1be
00000210: ff2d 903d 105d 2bbb 5f7e 8d3d 28ed b9be
00000220: e5d8 e43d 27bc 623e cbd6 203e 1d0b 973d
00000230: c213 3abe 12ff 903e 387b 323e e1bf 7e3e
00000240: d638 0abf 894e e63d 7790 e53d 0356 19bf
00000250: 13f2 883e cd5e 9f3e 2ac0 c23d cddf afbe
00000260: 9699 4abd 2dfa b5be 881e 45be 332e 06bf
00000270: cf9d e8be e8ef 5bbe 0cab d23e db72 1bbf
00000280: a248 c23e 02dd 833c 50e2 2dbe 2769 54be
00000290: b01d 95be 9dda 88be 374a 84be be4b 0a3f
000002a0: d359 07bf 260e 6dbe 749f edbd cf2c 24bf
000002b0: 55d6 8ebe 39f7 1f3e 9463 34be 08ff 51be
000002c0: dd17 33be b147 cfbe a672 02be 83bd 533e
000002d0: f85b 31be 92fd 143e 35fa eb3d 7e1a 0c3e
000002e0: 46b8 aa3e 2540 b2be 045f 7f3d 54f4 95be
000002f0: 90eb c1be 58f2 d4bd 3299 a6be 09e3 ba3e
00000300: 7b92 c3be 9a5b 4cbe 22d9 a7be 2535 a43e
00000310: 2b31 933d b44b dcbe 1efd 3ebe b7f6 c7bd
00000320: 42f5 c8be f724 303e 6c25 d33c 3d16 b53c
00000330: 0d23 85bd 3cda ca3e 6b00 83be 123e 4a3e
00000340: 0fb7 013e 2c3a 843e 1b79 98bd 6543 a5be
00000350: c7f2 093e 4f76 e93d 0a7e 2d3e 5338 d0be
00000360: 218b 01be 6237 37be 4f5d 50bf 5cc0 c8be
00000370: acef 39be d0dc 47bf 9168 51bf 1a51 dbbc
00000380: 85d3 73bf e580 a33e 6b09 1d3e 6dd2 b03e
00000390: c57f 2ebe 0318 133f a724 9d3e 2137 6b3e
000003a0: cc17 443e 8c69 e83e 52e7 ba3e ef76 b1bd
000003b0: c5fe 98be 5fff e0bc 55bc 913e 249d de3d
000003c0: bd38 cc3d dcaf a13d 7187 8dbe 99a5 db3e
000003d0: e3ae 353e a775 babe 82ee 0f3b 6aae a3bc
000003e0: 15dc a33e 1502 dabd d10b e0be f071 3abf
000003f0: ca89 2cbf 6dc5 1fbf 5758 3bbe 75fb 7abf

gconvs.3.combination_weights f4 [4, 3]
0.33218917 0.43136948 0.35001943 0.34172386 0.43605316 0.35051772 0.33263662 0.43416458
0.3508533 0.33165917 0.4322256 0.35216686
00000000: b314 aa3e 76dc dc3e bf35 b33e 6ef6 ae3e
00000010: 5c42 df3e 0f77 b33e 594f aa3e d24a de3e
00000020: 0ba3 b33e 3bcf a93e ad4c dd3e 374f b43e

gconvs.3.weight f4 [3, 6, 6, 4, 3, 3]
-0.022486674 -0.59410137 -0.22139731 0.28722456 -0.43976003 -0.46159798 0.23874259 -0.18004362
0.022440264 0.4120535 0.39843065 0.13336915 -0.1119572 -0.06095622 0.44716662 -0.14203584
0.15901786 0.28661963 0.485661 0.021552978 -1.0465516 -0.1698251 0.0012323892 -0.629801
0.2943098 -0.29555088 -0.054349694 -0.08469065 -0.52285427 0.2618421 -0.88916796 -0.34779122
-0.30997065 -0.34458598 -0.4436264 -0.79037493 0.502859 -0.13580747 -0.4745409 0.24483252
0.32137123 -0.12951203 0.08685678 -0.0846058 -0.35383525 -0.8696608 -0.7529211 0.08659353
-0.4519261 0.053640828 0.19035187 -0.5138387 0.0046888455 -0.12216506 0.4018436 -0.15467872
-0.07245683 -0.044003755 0.45093647 0.08104882 0.44201186 -0.034102637 0.23767102 0.21455759
-0.0075115166 0.01942442 0.10425568 0.05860207 -0.5094654 0.34743014 0.07964151 -0.7890775
0.22086185 -0.04550021 0.00047295578 0.3389727 0.07949641 0.41831842 0.52423155 0.5161355
-0.21769382 -0.6700491 0.052170556 0.36621132 -0.16741927 0.07555892 0.45886976 -0.49206895
-0.32460415 -0.069914795 -0.45974147 -1.1149267 -0.86025035 0.5665831 0.35138562 -0.43807185
0.54004896 0.15016627 0.011254468 0.33460274 -0.18498784 -0.08747353 0.32377577 -0.09769964
-0.94031715 -0.41139832 -0.47514486 -0.4679033 0.23287682 -0.076095656 0.07889695 -0.0056016715
0.31431818 0.1316632 -0.048513286 0.38086694 -0.46301967 0.2197176 0.42985177 0.15645897
-0.01860916 0.29148716 -0.11329384 -0.18244204 -0.2993016 -0.43674493 -0.19945082 0.04032031
0.29651695 0.20664145 0.10810621 0.15716735 0.08032646 -0.5676731 -0.6512821 -0.44583046
0.24349402 -0.38298783 0.19313566 -0.11425612 -0.021492431 -0.5109972 -0.15552995 -0.5946262
-0.47061744 0.13457258 -0.17734283 -0.22454004 0.27273387 0.102910735 0.27691647 0.3397598
-0.28105792 -0.21371602 0.11183447 -0.3153532 -0.338664 -0.23105969 0.49495727 -0.45166183
0.06756962 0.27322748 0.17187275 -0.038890272 -0.718301 -0.32824504 -0.0950752 -0.0941265
-0.10110687 -0.5803102 0.18744232 -0.30909547 -0.08325188 -0.28031474 -0.30968103 0.15916838
-0.6979152 0.40804455 -0.23117813 -0.39521465 -0.5349454 0.3346916 0.69612384 -0.3900988
-0.05817044 -0.24204348 -0.41191027 0.46773314 -0.23933084 -0.41915643 -0.008269269 -0.19749638
0.09632258 0.028640753 -0.42838097 0.15416986 0.3163005 0.24002786 0.26996353 -0.07963644
-0.16919999 -0.07925441 -0.0890383 -0.12980333 0.035059478 -0.36680147 0.36059675 -0.026057508
0.19460642 -0.8901431 -0.17292705 0.3426233 -0.71419007 0.1872184 -0.06545211 -1.0673937
-0.16138954 -0.28085056 -0.31036758 -0.4293371 -0.19359753 0.3651714 0.029837912 -0.28474474
0.060460158 0.20457122 -0.25695297 -0.3447309 0.2577782 0.34207875 -0.20905927 0.6885525
-0.05176374 -0.07351638 -0.015358484 0.04163374 -0.04474553 0.2394724 0.31859863 -0.20495768
-0.241955 0.22018957 0.3572224 -0.044857528 0.4993724 0.3118846 0.024286842 0.0038957326
0.050905645 -0.43068367 0.0033589469 0.0892922 -0.089545324 0.090980165 -0.00595249 -0.57946175
00000000: f935 b8bc 0717 18bf fab5 62be 190f 933e
00000010: 3a28 e1be 9256 ecbe f078 743e 5b5d 38be
00000020: a5d4 b73c adf8 d23e 1aff cb3e ec91 083e
00000030: d149 e5bd 3bad 79bd 06f3 e43e d871 11be
00000040: 94d5 223e cfbf 923e 8fa8 f83e df8f b03c
00000050: 67f5 85bf a2e6 2dbe 1f88 a13a a33a 21bf
00000060: c6af 963e 7252 97be c99d 5ebd 4b72 adbd
00000070: c7d9 05bf 2b10 863e 83a0 63bf b111 b2be
00000080: 79b4 9ebe 936d b0be 0023 e3be 0356 4abf
00000090: 5ebb 003f 1d11 0bbe 06f7 f2be 60b5 7a3e
000000a0: c58a a43e cd9e 04be f8e1 b13d ce45 adbd
000000b0: e529 b5be 17a2 5ebf 70bf 40bf f357 b13d
000000c0: dc62 e7be 7cb6 5b3d 9aeb 423e ef8a 03bf
000000d0: e3a4 993b ad31 fabd 72be cd3e 1964 1ebe
000000e0: 3f64 94bd 483d 34bd 25e1 e63e ecfc a53d
000000f0: 614f e23e 35af 0bbd 0860 733e fcb4 5b3e
00000100: 2b23 f6bb f61f 9f3c 0184 d53d b908 703d
00000110: 536c 02bf 5de2 b13e 171b a33d fc00 4abf
00000120: 9c29 623e 6e5e 3abd 0df7 f739 d48d ad3e
00000130: 04cf a23d d52d d63e 0a34 063f 7521 043f
00000140: 21eb 5ebe 5688 2bbf cbb0 553d 0d80 bb3e
00000150: f56f 2bbe a3be 9a3d faf0 ea3e 76f0 fbbe
00000160: 8432 a6be 7d2f 8fbd 3c63 ebbe ebb5 8ebf
00000170: 5e39 5cbf 970b 113f d1e8 b33e f44a e0be
00000180: a640 0a3f 30c5 193e a964 383c 0d51 ab3e
00000190: 746d 3dbe 5225 b3bd f0c5 a53e c016 c8bd
000001a0: a0b8 70bf cda2 d2be 3046 f3be 0591 efbe
000001b0: 4377 6e3e 0ad8 9bbd b994 a13d 3a8e b7bb
000001c0: 50ee a03e b8d2 063e deb5 46bd fe00 c33e
000001d0: ea10 edbe a7fd 603e 8815 dc3e c836 203e
000001e0: 3d72 98bc ce3d 953e 9a06 e8bd 16d2 3abe
000001f0: 0f3e 99be 089d dfbe d63c 4cbe e926 253d
00000200: 12d1 973e d199 533e ca66 dd3d 7af0 203e
00000210: 3382 a43d 0653 11bf 6cba 26bf e443 e4be
00000220: 7f56 793e fb16 c4be 5bc5 453e 1dff e9bd
00000230: e510 b0bc b6d0 02bf 3e43 1fbe 6c39 18bf
00000240: c5f4 f0be 65cd 093e 5c99 35be d3ed 65be
00000250: c6a3 8b3e ddc2 d23d ffc7 8d3e fff4 ad3e
00000260: d3e6 8fbe 5fd8 5abe 7809 e53d fa75 a1be
00000270: 5e65 adbe e99a 6cbe 0a6b fd3e 3840 e7be
00000280: f161 8a3d 79e4 8b3e 69ff 2f3e 684b 1fbd
00000290: 93e2 37bf bc0f a8be c9b6 c2bd 65c5 c0bd
000002a0: 1e11 cfbd 368f 14bf e1f0 3f3e c341 9ebe
000002b0: f67f aabd 6a85 8fbe 838e 9ebe 09fd 223e
000002c0: 92aa 32bf 37eb d03e f6b9 6cbe 9359 cabe
000002d0: 2ff2 08bf b35c ab3e 2c35 323f 08bb c7be
000002e0: 2144 6ebd 3fda 77be e7e5 d2be b87a ef3e
000002f0: 2513 75be ac9b d6be d47b 07bc 7e3c 4abe
00000300: c644 c53d 03a0 ea3c c054 dbbe b4de 1d3e
00000310: 24f2 a13e ddc9 753e a938 8a3e 6e18 a3bd
00000320: c342 2dbe 2350 a2bd b659 b6bd 2aeb 04be
00000330: 879a 0f3d 67cd bbbe 23a0 b83e 8e76 d5bc
00000340: e846 473e 6be0 63bf ca13 31be 526c af3e
00000350: 29d5 36bf 2eb6 3f3e c10b 86bd 5ba0 88bf
00000360: 4d43 25be a5cb 8fbe 80e8 9ebe 13d2 dbbe
00000370: 6e3e 46be bff7 ba3e a36e f43c 10ca 91be
00000380: 12a5 773d 1e7b 513e 578f 83be 9280 b0be
00000390: 81fb 833e f224 af3e a213 56be fa44 303f
000003a0: 3706 54bd c18f 96bd 27a2 7bbc 2488 2a3d
000003b0: 1747 37bd 4138 753e 5c1f a33e 6de0 51be
000003c0: 0dc3 77be 6079 613e dbe5 b63e 87bc 37bd
000003d0: bdad ff3e 57af 9f3e 33f5 c63c 8c4f 7f3b
000003e0: 7082 503d 9282 dcbe c721 5c3b d4de b63d
000003f0: 8a63 b7bd cf53 ba3d 1b0d c3bb 9b57 14bf

gconvs.4.combination_weights f4 [4, 3]
0.3887022 0.4029283 0.33733457 0.38845485 0.40329254 0.34286994 0.38734385 0.4032337
0.33923775 0.38735986 0.4027102 0.3386759
00000000: fa03 c73e 9e4c ce3e 1eb7 ac3e 8ee3 c63e
00000010: 5c7c ce3e a68c af3e ef51 c63e a674 ce3e
00000020: 92b0 ad3e 0854 c63e 0830 ce3e ed66 ad3e

gconvs.4.weight f4 [3, 6, 6, 4, 3, 3]
-0.32319543 -0.39054012 0.075812265 -0.21634759 -0.11891819 0.17456177 -0.03398795 -0.6950263
0.38503808 0.38364327 -0.4378603 0.22163981 -0.43938124 -0.050704274 0.4725809 0.08710225
-0.70570993 -0.21219462 0.23780268 0.17468314 0.25538662 -0.6473182 0.1234066 0.2131321
-0.21790215 -0.16063634 0.1863015 0.14473586 -0.13052067 -0.094410725 -0.4421707 -0.2828053
0.25927314 -0.14967266 0.0072087212 -0.13485475 0.04371484 0.046303872 0.12490884 0.53593713
-0.25302213 -0.32173145 0.4266557 0.378819 -0.17842533 0.4942025 -0.31910622 0.096435174
0.500921 -0.36432904 -0.8821672 -0.10012376 -0.3232114 -0.8174745 0.10024537 -0.2816494
-0.023487514 0.119697675 -0.32205495 -0.70930916 -0.10051271 -0.08160398 -0.73672014 -0.23559874
-0.22121184 -0.09319798 -0.19530265 -0.46003506 -0.4079537 -0.10165939 0.18763906 0.047844186
0.48321584 -0.077200964 0.14188072 0.46770948 -0.42589366 0.08964486 -0.07443821 0.37769094
-0.011183562 0.15172294 -0.1950391 -0.40157714 -0.006597223 -0.2265636 0.18210737 0.31629124
-0.14570917 -0.1649374 0.16454664 -0.15649651 -0.59767884 -0.27462855 -0.22548637 -0.62091917
0.3388954 0.023174409 -0.13057719 0.35780206 -0.20572111 -0.22471225 0.30628735 0.006275675
-0.28514338 0.31212357 0.097825706 -0.33039343 -0.5880813 -0.10724042 -0.5821693 -0.5504169
-0.39766315 0.2176615 -0.15988901 0.058271203 -0.06252375 0.22637288 -0.4083769 -0.3612075
0.45659116 -0.068802245 -0.04485372 0.64668703 0.2717071 -0.07894961 -0.10143548 -0.07225214
0.1463964 0.17920297 0.2040166 0.095928796 -0.17738351 -0.31436035 -0.54016554 -0.5804504
-0.23402403 0.0064410223 -0.18886812 -0.0747376 -0.04886922 -0.35640526 0.30915672 0.41144505
0.15758629 -0.443605 -0.108005054 0.23978333 -0.30261812 -0.1961057 0.21055229 0.113780096
0.16800152 0.06113095 0.4652608 0.17701367 -0.57203925 0.2235252 0.0364976 -0.3419846
-0.20122327 -0.28137037 0.353435 0.18192783 -0.05801861 -0.31357396 0.3504833 0.2645969
-0.3199383 -0.42451143 -0.120619155 -0.5487633 0.3777871 0.007986717 -0.1364612 0.40537384
-0.13895033 -0.31904334 -0.2543351 -0.45828602 0.41350248 -0.009605472 -0.3280489 0.3034371
0.04075204 -0.075022474 0.30064556 -0.27190277 0.20149148 -0.10101987 -0.085270524 -0.26121533
-0.2122792 0.2696842 -0.00015197844 -0.5106406 -0.30415708 0.14284818 -0.26341432 -0.12777875
-0.29350597 0.44993523 -0.0019720255 -0.263087 -0.112951264 -0.33979952 0.16185327 0.28362083
-0.14723022 0.40027982 0.17602931 -0.10445361 0.11245739 -0.033034522 0.23914728 0.46528378
-0.4557535 -0.49811855 0.042711247 -0.05649285 0.161397 0.036595635 0.019907312 -0.27376047
0.2849433 -0.76033777 -0.47430426 -0.78816515 -0.064811386 -0.29145393 -0.871952 -0.09650947
-0.51083004 -0.9151362 -0.4085211 -0.59639525 -0.25708735 0.04884899 -0.67889076 -0.7266376
-0.4185687 -0.1989892 -0.55549157 -0.4308681 0.06543271 0.004203064 -0.9352781 -0.40463015
-0.14144069 -0.35376832 -0.27404886 -0.23583697 0.032577388 -0.02463677 -0.5619178 -0.2553291
00000000: df79 a5be e0f4 c7be 7643 9b3d 398a 5dbe
00000010: 618b f3bd 52c0 323e f336 0bbd 3eed 31bf
00000020: b623 c53e e46c c43e 3a2f e0be 8cf5 623e
00000030: 94f6 e0be 49af 4fbd 20f6 f13e aa62 b23d
00000040: 68a9 34bf 8c49 59be 8c82 733e 23e0 323e
00000050: 09c2 823e a5b6 25bf 99bc fc3d 4d3f 5a3e
00000060: be21 5fbe da7d 24be d2c5 3e3e a335 143e
00000070: 36a7 05be 695a c1bd 3364 e2be dbcb 90be
00000080: 73bf 843e ca43 19be 2337 ec3b 5d17 0abe
00000090: 550e 333d 21a9 3d3d 35d0 ff3d 2d33 093f
000000a0: 1e8c 81be fcb9 a4be 9e72 da3e 90f4 c13e
000000b0: 21b5 36be 1c08 fd3e e461 a3be ce7f c53d
000000c0: 5c3c 003f 5689 babe b6d5 61bf b00d cdbd
000000d0: f77b a5be 0246 51bf 724d cd3d 5a34 90be
000000e0: e368 c0bc 0e24 f53d 63e4 a4be 4995 35bf
000000f0: 9cd9 cdbd fd1f a7bd b199 3cbf cc40 71be
00000100: 5b85 62be 95de bebd 6bfd 47be b789 ebbe
00000110: 4fdf d0be cc32 d0bd 7424 403e 44f8 433d
00000120: 1168 f73e 8a1b 9ebd 2e49 113e 9e77 ef3e
00000130: bc0e dabe b997 b73d 0f73 98bd b560 c13e
00000140: 423b 37bc 425d 1b3e 54b8 47be 859b cdbe
00000150: 852d d8bb 4a00 68be 5b7a 3a3e edf0 a13e
00000160: c934 15be 5ae5 28be ea7e 283e 9f40 20be
00000170: 7b01 19bf 1d9c 8cbe e6e5 66be 8ff4 1ebf
00000180: b383 ad3e 42d8 bd3c 07b6 05be d531 b73e
00000190: 8ea8 52be f81a 66be b2d1 9c3e 2da4 cd3b
000001a0: 50fe 91be a9ce 9f3e d858 c83d 5429 a9be
000001b0: 7f8c 16bf dea0 dbbd 0c09 15bf 1fe8 0cbf
000001c0: 819a cbbe a8e2 5e3e f2b9 23be c9ad 6e3d
000001d0: 740c 80bd 4bce 673e c716 d1be 30f0 b8be
000001e0: 51c6 e93e 31e8 8cbd 89b8 37bd 488d 253f
000001f0: 311d 8b3e 55b0 a1bd 68bd cfbd eef8 93bd
00000200: f0e8 153e fc80 373e bae9 503e 5176 c43d
00000210: 06a4 35be d7f3 a0be 4a48 0abf 6698 14bf
00000220: ffa3 6fbe 360f d33b a566 41be 0710 99bd
00000230: 172b 48bd c07a b6be ca49 9e3e eda8 d23e
00000240: 4d5e 213e 3220 e3be c131 ddbd c389 753e
00000250: c3f0 9abe efcf 48be 059b 573e 8a05 e93d
00000260: 9708 2c3e 7264 7a3d aa36 ee3e 1243 353e
00000270: 2a71 12bf cae3 643e 827e 153d 9b18 afbe
00000280: 790d 4ebe c70f 90be 6ff5 b43e 4a4b 3a3e
00000290: eca4 6dbd c48c a0be 8c72 b33e 3f79 873e
000002a0: f4ce a3be 9059 d9be 2d07 f7bd c07b 0cbf
000002b0: 506d c13e b8da 023c 7cbc 0bbe 298d cf3e
000002c0: ff48 0ebe a659 a3be 3638 82be 77a4 eabe
000002d0: 99b6 d33e 4560 1dbc 07f6 a7be 1c5c 9b3e
000002e0: 9ceb 263d 62a5 99bd 37ee 993e d736 8bbe
000002f0: c853 4e3e 81e3 cebd 50a2 aebd 04be 85be
00000300: b85f 59be 0c14 8a3e 675c 1fb9 58b9 02bf
00000310: 7aba 9bbe cb46 123e 3ede 86be 6fd8 02be
00000320: 6a46 96be e95d e63e 193d 01bb 57b3 86be
00000330: fe52 e7bd 34fa adbe ddbc 253e c036 913e
00000340: 85c3 16be 7af1 cc3e 0741 343e c6eb d5bd
00000350: 0f50 e63d 354f 07bd 06e3 743e ad39 ee3e
00000360: 8658 e9be 6509 ffbe fdf1 2e3d 0c65 67bd
00000370: 4145 253e 4ee5 153d a914 a33c 552a 8cbe
00000380: 17e4 913e 7fa5 42bf 02d8 f2be 31c5 49bf
00000390: d5bb 84bd 7339 95be 3f38 5fbf c2a6 c5bd
000003a0: c2c5 02bf 5e46 6abf ad29 d1be 5cad 18bf
000003b0: f4a0 83be e115 483d c9cb 2dbf ec04 3abf
000003c0: a34e d6be d3c3 4bbe b234 0ebf be9a dcbe
000003d0: 9601 863d dbb9 893b 636e 6fbf af2b cfbe
000003e0: d4d5 10be 1f21 b5be 2250 8cbe 3f7f 71be
000003f0: de6f 053d 0dd3 c9bc d8d9 0fbf 7fba 82be

gconvs.5.combination_weights f4 [4, 3]
0.3465648 0.4233947 0.3777407 0.34785494 0.4230776 0.3765762 0.34629285 0.42274284
0.37691677 0.3475198 0.42283964 0.37715054
00000000: f170 b13e 31c7 d83e 3b67 c13e 0b1a b23e
00000010: a19d d83e 98ce c03e 4c4d b13e c071 d83e
00000020: 3cfb c03e 1dee b13e 707e d83e e019 c13e

gconvs.5.weight f4 [3, 6, 6, 4, 3, 3]
0.34437722 0.40763593 0.1781076 -0.04201659 0.19218269 -0.17365813 -0.10553845 -0.25950012
-0.028482055 0.38778403 -0.19891755 -0.23198262 0.28665522 -0.19286819 -0.24716309 -0.25909993
-0.06237917 0.3808555 0.06852003 -0.10793372 -0.36394802 -0.042558495 -0.06582571 -0.015892895
-0.16635792 0.20469192 0.117226 -0.5289817 -0.22581966 -0.5626185 -0.038028754 -0.49720338
-0.31415206 -0.17261152 -0.1952298 0.45904553 -0.09520435 -0.097605154 0.39657107 -0.22826552
-0.5411689 0.35811642 0.066721104 -0.10871203 0.1592121 -0.24332222 -0.35548204 -0.47779322
0.5005806 0.024571428 0.18498772 0.50327057 0.1081244 -0.1059573 0.47197282 0.1620576
0.22981027 -0.4812961 -0.21766296 -0.5104505 -0.005983943 -0.4056928 -0.5576514 -0.20855738
0.14551137 0.5128279 -0.24033175 -0.3944097 -0.15436395 -0.21966113 -0.0055526793 -0.094322525
-0.047602307 0.47292784 0.18040426 -0.022397406 0.36926657 0.3992577 0.35098353 0.106347114
0.5457557 -0.06474429 -0.15267414 0.31634498 -0.07924474 0.07724768 0.23073617 0.6087214
0.5779909 0.28680992 0.48794764 0.03343046 0.07572629 0.019178296 0.021883812 -0.43096516
-0.08705711 0.4699682 0.25285438 0.6478955 -0.10476907 0.513794 0.16416128 -0.07220164
0.30944705 0.46724728 0.20516388 0.21898969 -1.1956939 -0.85040843 -0.21014498 -0.04913173
-0.27418923 0.28746572 -0.11935233 -0.5215606 0.09291237 -0.051774755 0.029069487 -0.71621966
-0.35286465 -0.32369834 -0.67815083 -0.935359 0.253855 -0.105954714 -0.8028561 -0.43817136
-0.042220306 0.3667891 0.3352315 0.04518123 -0.36293036 -0.5236645 -0.1017333 -0.5266172
-0.2703701 -0.33344534 -0.16690142 0.08855814 -0.23398131 -0.767701 -0.2883112 -0.55599475
-0.045601916 0.30246454 0.12346246 0.0327124 0.12370181 0.06864597 0.03556218 -0.1621151
-0.8356028 -0.5296573 -0.21302085 -0.072741054 0.15386157 0.53886676 0.32841185 -0.7977558
-0.40320444 -0.036131773 -0.3432196 0.20842487 -0.047593057 -0.16548835 -0.36134034 -0.040609527
-0.42334342 -0.08869258 0.121116295 -0.14237164 0.31351346 -0.60222137 -0.024852525 0.30339718
-0.38964882 0.54129744 -0.034952212 0.26259673 -0.36702222 -0.73106575 -0.73546594 -0.32390794
-0.4435028 0.027921086 -0.040899813 0.09099751 -0.40075016 -0.3705395 -0.11630494 -0.70362556
0.0050850403 0.042625662 -0.13731392 0.07489064 0.27671376 -0.40888512 -0.107688144 -0.0336164
-0.4367823 -0.1313975 -0.03001174 -0.8838061 -0.6661789 -0.35400885 -0.73237824 0.12168918
-0.08040424 -0.41142195 -0.23707317 -0.38139483 -0.16925132 -0.8261237 -0.32695588 -0.018986678
-0.8429916 -0.20476933 -0.5418349 -0.31106952 -0.5220036 0.059668582 -0.23795107 0.28031218
0.18107872 0.030827532 -0.29657394 -0.32022005 -0.2961152 -0.4431066 -0.23851 -0.36694473
-0.23457476 -0.22450411 -0.12125523 -0.08951135 0.13523047 -0.3827151 -0.5280256 -0.26510194
-0.4022369 -0.720282 -0.52489805 -0.44505164 0.15595399 0.26376233 -0.5096662 -0.22005256
0.3697848 -0.15849476 -0.036015227 0.24974027 -0.3082668 -0.3102174 -0.6311308 -0.43405625
00000000: 3652 b03e a8b5 d03e d761 363e 9619 2cbd
00000010: 8acb 443e 70d3 31be 8b24 d8bd 33dd 84be
00000020: 3353 e9bc a18b c63e 0bb1 4bbe da8c 6dbe
00000030: 79c4 923e 3d7f 45be 5218 7dbe bfa8 84be
00000040: 4d81 7fbd 7eff c23e 3b54 8c3d 5b0c ddbd
00000050: 6557 babe d151 2ebd a1cf 86bd d131 82bc
00000060: bb59 2abe c29a 513e 2f14 f03d 586b 07bf
00000070: 453d 67be c407 10bf 0ac4 1bbd 7191 febe
00000080: 8ad8 a0be 13c1 30be 52ea 47be 0408 eb3e
00000090: 80fa c2bd 36e5 c7bd 5d0b cb3e 70be 69be
000000a0: 0c8a 0abf 095b b73e 13a5 883d 6aa4 debd
000000b0: 7f08 233e 7629 79be be01 b6be 50a1 f4be
000000c0: 0d26 003f 054a c93c 6c6d 3d3e 57d6 003f
000000d0: 5370 dd3d 2400 d9bd 6ca6 f13e 6df2 253e
000000e0: 6253 6b3e 716c f6be 0ae3 5ebe e2ac 02bf
000000f0: f414 c4bb f7b6 cfbe 3ec2 0ebf 1190 55be
00000100: ef00 153e b048 033f 8719 76be 11f0 c9be
00000110: 9511 1ebe d9ee 60be 40f3 b5bb 2b2c c1bd
00000120: a3fa 42bd 9923 f23e e5bb 383e c47a b7bc
00000130: 8210 bd3e 816b cc3e 1db4 b33e 84cc d93d
00000140: a5b6 0b3f a898 84bd 9c56 1cbe f8f7 a13e
00000150: 114b a2bd 0834 9e3d 1a46 6c3e 2ad5 1b3f
00000160: 36f7 133f c0d8 923e 46d4 f93e 61ee 083d
00000170: 6316 9b3d cd1b 9d3c ae45 b33c 77a7 dcbe
00000180: 004b b2bd ac9f f03e 2176 813e 7bdc 253f
00000190: 2b91 d6bd 0188 033f e519 283e 74de 93bd
000001a0: d86f 9e3e 093b ef3e 7b16 523e d53e 603e
000001b0: 7f0c 99bf 5eb4 59bf 3f30 57be 5a3e 49bd
000001c0: 8862 8cbe b52e 933e ff6e f4bd ff84 05bf
000001d0: d748 be3d c411 54bd 2223 ee3c 2c5a 37bf
000001e0: adaa b4be cabb a5be 4b9b 2dbf b073 6fbf
000001f0: 48f9 813e c9fe d8bd fa87 4dbf ff57 e0be
00000200: 33ef 2cbd c8cb bb3e 77a3 ab3e f40f 393d
00000210: 02d2 b9be e00e 06bf 8c59 d0bd 63d0 06bf
00000220: f36d 8abe 59b9 aabe 35e8 2abe f85d b53d
00000230: cc98 6fbe 0e88 44bf 879d 93be ac55 0ebf
00000240: 13c9 3abd a2dc 9a3e e3d9 fc3d 70fd 053d
00000250: 6057 fd3d 4296 8c3d a6a9 113d 8001 26be
00000260: 11ea 55bf 9f97 07bf 2322 5abe 43f9 94bd
00000270: e38d 1d3e 2cf3 093f 9925 a83e b939 4cbf
00000280: d070 cebe e9fe 13bd 7bba afbe 546d 553e
00000290: f0f0 42bd c775 29be 9a01 b9be 2d56 26bd
000002a0: 78c0 d8be 75a4 b5bd d20b f83d dfc9 11be
000002b0: d684 a03e 2e2b 1abf 8697 cbbc e056 9b3e
000002c0: 0d80 c7be 7892 0a3f 0d2a 0fbd 1473 863e
000002d0: 56ea bbbe 2027 3bbf 7f47 3cbf 43d7 a5be
000002e0: cd12 e3be c3ba e43c 9086 27bd e75c ba3d
000002f0: 202f cdbe 5ab7 bdbe 4931 eebd ce20 34bf
00000300: 69a0 a63b 3f98 2e3d 059c 0cbe 4460 993d
00000310: 6dad 8d3e 6459 d1be 9a8b dcbd 5ab1 09bd
00000320: eea1 dfbe 118d 06be 2edb f5bc 1e41 62bf
00000330: b38a 2abf a640 b5be 247d 3bbf 2d38 f93d
00000340: faaa a4bd e6a5 d2be 4fc3 72be 2f46 c3be
00000350: 3850 2dbe d87c 53bf c366 a7be f389 9bbc
00000360: 4cce 57bf 0daf 51be b1b5 0abf 8144 9fbe
00000370: 07a2 05bf 0b67 743d 72a9 73be 1485 8f3e
00000380: b36c 393e 058a fc3c 8ad8 97be e2f3 a3be
00000390: 699c 97be dede e2be f73b 74be 2ee0 bbbe
000003a0: 5e34 70be 68e4 65be a954 f8bd ba51 b7bd
000003b0: db79 0a3e 3cf3 c3be b02c 07bf 71bb 87be
000003c0: fff1 cdbe 6764 38bf b85f 06bf cfdd e3be
000003d0: 67b2 1f3e db0b 873e 7c79 02bf 7555 61be
000003e0: 6f54 bd3e 734c 22be b484 13bd eabb 7f3e
000003f0: 25d5 9dbe d1d4 9ebe ca91 21bf 9f3c debe

final_layer.combination_weights f4 [4, 3]
0.44630405 0.3854027 0.29556403 0.4462811 0.38571194 0.29529467 0.4459919 0.38539216
0.29561684 0.44640377 0.38522285 0.2952666
00000000: f781 e43e 8153 c53e 2b54 973e f57e e43e
00000010: 097c c53e dd30 973e 0d59 e43e 1f52 c53e
00000020: 175b 973e 098f e43e ee3b c53e 2f2d 973e

final_layer.weight f4 [3, 6, 6, 4, 3, 3]
-0.3496666 -0.21797934 -0.4396832 -0.31552947 -0.55937237 -0.45287362 -0.5020442 0.007886241
-0.3526645 -0.6955082 -0.10654526 -0.36072403 -0.21475679 -0.6158411 -0.40602252 -0.25281224
-0.54725426 -0.16295014 -0.55807257 -0.7740333 -0.4842758 -0.78549004 -0.74548066 -0.32974917
-0.7147709 -0.47171658 -0.46348533 -0.2633125 -0.720781 -0.62724024 -0.5844275 -0.60195714
-0.25013652 -0.4217517 -0.32197693 0.018146103 0.38714275 0.47948235 -0.1499039 0.3265675
0.404152 0.100055926 -0.17670725 0.07047979 0.16353303 -0.22647461 -0.11361665 -0.0526924
0.39724165 -0.06341728 0.48611408 0.11123759 0.4380605 -0.0436089 -0.27887377 0.14327838
0.123627886 0.24942327 -0.30284807 0.3348232 -0.010222672 0.04706395 -0.091303065 0.5105602
0.35820347 -0.107507646 -0.072469406 0.19975375 0.04904605 0.30556753 0.40717047 0.053258352
-0.25656983 -0.21915734 0.20930828 -0.26291946 -0.19826733 -0.24730106 0.16037545 -0.20393176
-0.042231575 -0.045156736 -0.44019097 0.08524393 0.21346095 -0.3027433 -0.27603891 0.14768489
-0.053097576 0.043075062 -0.027634837 0.19442171 -0.18727975 -0.37915623 -0.24850717 -0.25029847
-0.28845552 0.044667777 -0.11629065 -0.06305343 -0.08983545 -0.120459065 -0.14484774 -0.15906604
0.035771087 -0.28759098 -0.50189894 -0.36363822 0.28574392 0.066848375 -0.23153389 -0.06686063
-0.16324972 0.05096459 -0.007206459 -0.082519695 -0.303423 -0.32609674 -0.47615358 0.13271071
-0.4878627 -0.40197474 -0.20950596 -0.47590104 -0.06069418 0.20851506 -0.4358414 -0.06971795
-0.26912048 -0.23868556 -0.55410886 -0.3532937 -0.18773884 -0.287541 -0.46165544 0.21698406
0.13536854 0.22584766 -0.12778112 -0.5799791 0.039420113 0.15047772 -0.18240365 -0.1785523
-0.32927907 -0.27574402 0.39529318 0.28254643 -0.141293 -0.274788 -0.29277727 0.09217736
0.18772742 -0.12052411 0.43203285 0.007284043 0.19920088 0.012896475 0.36323196 0.09110105
0.29946867 0.26901865 0.11531863 0.26840308 0.20482239 -0.08538862 -0.32800815 0.34957364
-0.24625765 -0.3385795 0.25312743 0.029882813 0.17716716 -0.23863465 -0.0025631355 0.34721413
0.1782178 -0.2216288 -0.184428 0.016327774 -0.13346195 -0.12450842 0.11689984 0.38358775
0.38393313 0.34392536 0.38602433 -0.10418347 0.30026382 -0.19058397 0.28762025 0.3422826
0.4826164 0.48706758 -0.018266149 -0.04760817 0.13307564 0.35714707 -0.17529926 0.1000112
0.106594324 0.24615742 0.36684456 0.52782637 0.221582 0.43458 0.42394304 -0.027293904
0.25588846 0.57259226 0.32919562 0.004768662 -0.20388274 0.045891322 0.111551315 -0.15333839
-0.22211783 -0.48624817 -0.3287725 0.15609735 0.1942691 -0.5278757 -0.21876948 -0.040968496
-0.6118192 -0.391366 -0.048617307 0.0110338675 -0.0581716 -0.5173457 0.10899186 -0.22708572
-0.27256596 0.15985908 -0.028742665 -0.53436047 0.18906637 0.1895513 0.021127237 -0.6036506
-0.48998678 0.13357049 -0.058987428 -0.24723285 -0.57325065 -0.32930046 -0.27260587 -0.3928554
-0.39827615 -0.27859998 0.055974845 -0.26891482 -0.14363506 0.39614025 0.27123913 -0.0049143103
00000000: 8007 b3be fa35 5fbe 281e e1be 148d a1be
00000010: 0733 0fbf 0ddf e7be f885 00bf 4b35 013c
00000020: 7190 b4be d30c 32bf 6734 dabd d2b0 b8be
00000030: 34e9 5bbe c3a7 1dbf 2fe2 cfbe 9b70 81be
00000040: db18 0cbf 67dc 26be d8dd 0ebf 0c27 46bf
00000050: fff2 f7be e015 49bf d2d7 3ebf e2d4 a8be
00000060: 3afb 36bf d684 f1be f34d edbe e5d0 86be
00000070: 1b85 38bf d192 20bf 0a9d 15bf dd19 1abf
00000080: e511 80be d7ef d7be 29da a4be 23a7 943c
00000090: 9337 c63e b67e f53e 6880 19be db33 a73e
000000a0: 03ed ce3e 1fea cc3d bff2 34be b557 903d
000000b0: 3475 273e f6e8 67be d9af e8bd fcd3 57bd
000000c0: 4263 cb3e ebe0 81bd f2e3 f83e 89d0 e33d
000000d0: 7749 e03e 3f9f 32bd 8bc8 8ebe 91b7 123e
000000e0: 9e30 fd3d d068 7f3e e70e 9bbe f26d ab3e
000000f0: fe7c 27bc 21c6 403d 1afd babd 13b4 023f
00000100: 7266 b73e f82c dcbd d76a 94bd 3f8c 4c3e
00000110: 83e4 483d 5973 9c3e a678 d03e 6e25 5a3d
00000120: 1f5d 83be c86a 60be e954 563e 619d 86be
00000130: 9706 4bbe 7d3c 7dbe 7639 243e 7dd3 50be
00000140: 04fb 2cbd 45f6 38bd b660 e1be 5f94 ae3d
00000150: 8295 5a3e 2b01 9bbe f954 8dbe b53a 173e
00000160: d87c 59bd 7a6f 303d 7462 e2bc 7c16 473e
00000170: 43c6 3fbe c420 c2be aa78 7ebe 1f27 80be
00000180: 71b0 93be 8ff5 363d cb29 eebd 2822 81bd
00000190: a6fb b7bd 3eb3 f6bd f752 14be 35e2 22be
000001a0: b484 123d 203f 93be 737c 00bf ca2e babe
000001b0: 074d 923e cde7 883d 3817 6dbe 3aee 88bd
000001c0: ef2a 27be 3fc0 503d 2924 ecbb 1600 a9bd
000001d0: 425a 9bbe 27f6 a6be 67ca f3be 51e5 073e
000001e0: 24c9 f9be a2cf cdbe bb88 56be 4da9 f3be
000001f0: 769a 78bd f984 553e 9b26 dfbe 49c8 8ebd
00000200: 29ca 89be fd69 74be 14da 0dbf e9e2 b4be
00000210: 9c3e 40be 9338 93be 1a5e ecbe 1231 5e3e
00000220: 0d9e 0a3e 9c44 673e 0ed9 02be 8379 14bf
00000230: fc76 213d d516 1a3e 06c8 3abe 6ad6 36be
00000240: 4497 a8be 522e 8dbe de63 ca3e eda9 903e
00000250: 1daf 10be 03b1 8cbe e7e6 95be 7cc7 bc3d
00000260: 9e3b 403e 58d5 f6bd 6933 dd3e fbae ee3b
00000270: 51fb 4b3e bd4b 533c 8af9 b93e 3093 ba3d
00000280: f553 993e d0bc 893e 2d2c ec3d 216c 893e
00000290: f6bc 513e 3be0 aebd aff0 a7be 51fb b23e
000002a0: f72a 7cbe 4b5a adbe eb99 813e cdcc f43c
000002b0: 4f6b 353e a45c 74be 47fa 27bb 0dc6 b13e
000002c0: ba7e 363e a9f2 62be b2da 3cbe d3c1 853c
000002d0: 40aa 08be 45fe febd 2f69 ef3d 9d65 c43e
000002e0: e292 c43e fc16 b03e fba4 c53e 255e d5bd
000002f0: 2ebc 993e 7228 43be f642 933e aa3f af3e
00000300: 7f19 f73e ec60 f93e e4a2 95bc c900 43bd
00000310: fb44 083e fbdb b63e a681 33be acd2 cc3d
00000320: 204e da3d b110 7c3e 0dd3 bb3e a11f 073f
00000330: 64e6 623e 4581 de3e 100f d93e 7797 dfbc
00000340: d003 833e 6895 123f 548c a83e 7042 9c3b
00000350: a3c6 50be 8af8 3b3d 0475 e43d bd04 1dbe
00000360: db72 63be 85f5 f8be de54 a8be fcd7 1f3e
00000370: 7bee 463e dd22 07bf 1b05 60be 95ce 27bd
00000380: 2fa0 1cbf 2061 c8be f122 47bd 65c7 343c
00000390: 5845 6ebd c570 04bf 2037 df3d 2989 68be
000003a0: c48d 8bbe 19b2 233e bd75 ebbc d9cb 08bf
000003b0: 9d9a 413e bc19 423e 0713 ad3c d988 1abf
000003c0: 8cdf fabe b4c6 083e cd9c 71bd 9c2a 7dbe
000003d0: 8ec0 12bf 129a a8be ff92 8bbe 5824 c9be
000003e0: daea cbbe a8a4 8ebe e145 653d 34af 89be
000003f0: 1215 13be e5d2 ca3e dbdf 8a3e 3908 a1bb
