runs/RelaxedP4CNN_iso_std0.1_gamma2_lr0.002/model.pt (torch, 116029 bytes, 18 tensors)

lifting_conv.combination_weights f4 [3, 4]
0	0x3d04db1d	0.032435525
1	0x3cdb138a	0.026742715
2	0x3cf4481b	0.029819539
3	0x3cf70d6b	0.030157765
4	0x3e3b2877	0.18277155
5	0x3e36de69	0.1785828
6	0x3e3de43a	0.18544093
7	0x3e3c3b10	0.18381906
8	0x3e434be5	0.1907192
9	0x3e3b7068	0.18304598
10	0x3e41646e	0.18885967
11	0x3e3e7cb7	0.18602262

lifting_conv.weight f4 [3, 6, 1, 3, 3]
0	0x3e9fe857	0.3123195
1	0xbea2aa33	-0.31770477
2	0xbebdcc77	-0.37070057
3	0xbc6c683b	-0.014429147
4	0x3ec8218f	0.39088103
5	0xbead0fb3	-0.3380104
6	0x3e8d25da	0.2756794
7	0xbd11bb7a	-0.035579182
8	0xbed752af	-0.4205527
9	0xbde8ba06	-0.11363606
10	0xbd83c14f	-0.06433355
11	0xbdb483bf	-0.08814191
12	0x3e034d5a	0.12822476
13	0xbc8d5554	-0.017252602
14	0xbe59ecad	-0.21281691
15	0xbe9f7a62	-0.31148058
16	0xbeb7b2aa	-0.35878497
17	0x3e8ff09a	0.28113252
18	0x3c3df24b	0.011593412
19	0x3e5b4e37	0.21416555
20	0xbe638797	-0.22219692
21	0xbea17409	-0.3153384
22	0xbc69f35e	-0.014279215
23	0xbe46bb25	-0.19407327
24	0xbe90ff89	-0.28319958
25	0xbe28e273	-0.16492634
26	0xbe9b4f28	-0.3033383
27	0xbe22564e	-0.15853235
28	0xbdd4fade	-0.103994116
29	0xbe42f438	-0.19038475
30	0x3d8e3763	0.06944158
31	0x3d91059d	0.07081149
32	0x3d20c7fb	0.039253216
33	0xbde4dd8a	-0.11175068
34	0xbcad68f1	-0.021168204
35	0x3e67b899	0.22629012
36	0xbe57951d	-0.21052976
37	0xbe0f5dfa	-0.14000693
38	0xbdaaa8f8	-0.083330095
39	0xbe9a406c	-0.30127275
40	0xbe849cdf	-0.25900933
41	0x3e3859f4	0.18003064
42	0x3eb30897	0.3496749
43	0x3e98cedf	0.2984533
44	0x3b613a68	0.0034367088
45	0xbe974a6b	-0.29548964
46	0x3deac26f	0.114628665
47	0xbe945871	-0.28973725
48	0xbec882a5	-0.39162174
49	0x3e457eaa	0.192866
50	0xbe923f23	-0.28563794
51	0xbe9c650d	-0.30545846
52	0xbe74ac9a	-0.23893967
53	0xbe052bed	-0.13005038
54	0x3e9d0bae	0.30672973
55	0xbe47a9b1	-0.19498326
56	0xbeb417d0	-0.35174417
57	0x3edadcb6	0.42746514
58	0x3e7c18c2	0.2461882
59	0xbefa66a0	-0.48906422
60	0xba05faf4	-0.00051109423
61	0xbddc457b	-0.1075544
62	0xbef91b77	-0.48653767
63	0x3c3b4dd9	0.011432135
64	0x3e3b60b5	0.1829861
65	0xbd3041b0	-0.043031394
66	0x3e83fd24	0.25779068
67	0x3cbec45a	0.023286987
68	0xbdbb8b29	-0.09157402
69	0xbe407ee4	-0.18798405
70	0xbed25b68	-0.41085362
71	0x3e601a7a	0.218851
72	0xbe6df2ed	-0.232372
73	0xbe1e7077	-0.1547259
74	0x3e572bdb	0.21012823
75	0xbdb50a4c	-0.088398546
76	0xbec23464	-0.37930596
77	0x3e92c4b1	0.2866569
78	0xbe0a08fc	-0.1347999
79	0xbe60a408	-0.21937573
80	0x3e925c32	0.28585964
81	0xbd860a35	-0.065449156
82	0xbd8d4ef9	-0.068998285
83	0xbec62a65	-0.3870422
84	0xbe33cf34	-0.1755951
85	0x3ea1f8cb	0.31635126
86	0x3d3d8b25	0.046275277
87	0xbd7df0ee	-0.061997347
88	0x3e7b391d	0.24533506
89	0x3ed6acf6	0.41928834
90	0xbdc30c94	-0.095238835
91	0xbe90e4f3	-0.28299674
92	0xbe7c713f	-0.24652575
93	0xbebb79fb	-0.366165
94	0xbea1c14f	-0.31592795
95	0x3e09561e	0.13411757
96	0x3e9c6b5b	0.30550656
97	0x3e29df3e	0.16589066
98	0x3f14d37f	0.5813522
99	0x3dcfd91c	0.10148832
100	0xbdd1a21d	-0.10235999
101	0x3a5c7b43	0.00084107014
102	0xbec4af0e	-0.38414806
103	0x3e30c9cc	0.1726448
104	0x3cebf98d	0.028805519
105	0x3deabb20	0.114614725
106	0xbe771db9	-0.24132432
107	0xbe85bb72	-0.26119572
108	0xbe1d20b5	-0.15344508
109	0x3dd5eeba	0.10445924
110	0xbed16e16	-0.409043
111	0x3e06d1ce	0.13165972
112	0x3eca9d65	0.39573207
113	0xbee9da3d	-0.45674315
114	0xbe5ea7be	-0.21743676
115	0xbe81301f	-0.25232026
116	0xbe95f2a1	-0.29286674
117	0x3e89eb7d	0.26937476
118	0xbebd9305	-0.3702623
119	0x3d8b67b8	0.06806892
120	0xbe251019	-0.16119422
121	0x3dc6439c	0.09680864
122	0x3e1aed14	0.151295
123	0x3dc8bd97	0.098017864
124	0xbd889c96	-0.066704914
125	0x3ea9fe7c	0.3320197
126	0xbdeebe86	-0.11657433
127	0xbea00cbb	-0.31259713
128	0x3c3e1b42	0.011603178
129	0xbda3469f	-0.07972454
130	0xbea8c928	-0.3296597
131	0x3e3a2cdc	0.18181175
132	0xbe8f646f	-0.28006312
133	0xbe0aa549	-0.13539614
134	0x3e908443	0.28225908
135	0xbd0f2c68	-0.03495446
136	0x3da44900	0.08021736
137	0x3e297b58	0.16550958
138	0xbc9dad26	-0.019247603
139	0xbe1c04d9	-0.15236224
140	0x3e9e1e8c	0.3088268
141	0xbed36ade	-0.4129247
142	0x3eac4b68	0.3365128
143	0x3ec208bc	0.3789729
144	0xbecbd627	-0.39811823
145	0xbebc61e8	-0.36793447
146	0xbd54ca27	-0.0519506
147	0xbe226023	-0.15856986
148	0x3d898a9d	0.067158915
149	0x3edb71fb	0.42860398
150	0x3e4a95e3	0.1978374
151	0x3ef13220	0.47108555
152	0x3f05d4f1	0.5227805
153	0x3db67e7d	0.089108445
154	0x3dd8ac0a	0.10579689
155	0x3eac3740	0.33635902
156	0xbe94eeea	-0.29088527
157	0x3e19d9f3	0.15024547
158	0x3dd6d5e5	0.10490016
159	0xbe054864	-0.13015896
160	0xbe645b6c	-0.223005
161	0xbe6749ca	-0.22586742

gconvs.0.combination_weights f4 [4, 3]
0	0x3ecc3ac9	0.398886
1	0x3eba19e0	0.36347866
2	0x3ebf704d	0.37390366
3	0x3ece44c5	0.40286842
4	0x3ebad68d	0.36491814
5	0x3ec19924	0.3781215
6	0x3ecd82b6	0.40138787
7	0x3ebc4a35	0.36775365
8	0x3ec066c3	0.375784
9	0x3ecd716a	0.4012559
10	0x3ebb5ee3	0.3659583
11	0x3ebfe88a	0.374821

gconvs.0.weight f4 [3, 6, 6, 4, 3, 3]
0	0xbe5512c8	-0.20807946
1	0xbe558d55	-0.20854695
2	0x3eedc9c1	0.4644299
3	0xbe703689	-0.23458304
4	0x3e6e6db9	0.23284043
5	0x3f1fc7a5	0.6241401
6	0xbeb1e82d	-0.3474745
7	0xbeb95cca	-0.36203605
8	0xbe302a54	-0.17203647
9	0x3e8d7679	0.2762945
10	0x3e3bef8a	0.18353096
11	0xbe61c100	-0.2204628
12	0xbd083671	-0.033255044
13	0x3e5b79d0	0.21433187
14	0xbc01d67e	-0.007924674
15	0x3e536076	0.20642266
16	0x3e27e5d6	0.16396269
17	0x3ef6a50a	0.4817279
18	0x3ef2b570	0.4740405
19	0x3e707a94	0.2348426
20	0xbe6d6364	-0.23182446
21	0xbe31b56e	-0.17354366
22	0xbee65ea6	-0.44994086
23	0x3ed66297	0.41872093
24	0xbee94a75	-0.4556462
25	0xbe80091f	-0.2500696
26	0xbd3156be	-0.043295614
27	0x3e455193	0.192694
28	0x3f03185c	0.51209044
29	0xbefe7fa7	-0.49706766
30	0xbe649cba	-0.22325411
31	0xbe09987f	-0.13437079
32	0xbee709e7	-0.45124742
33	0xbe19faf2	-0.15037134
34	0x3e7fc965	0.2497917
35	0xbe7eac57	-0.2487043
36	0xbd5348b7	-0.05158302
37	0xbf0e6399	-0.55620724
38	0x3e824669	0.25444344
39	0xbea392c7	-0.3194792
40	0xbe00b277	-0.12568079
41	0xbea76c08	-0.3269961
42	0xbdf9e9d4	-0.12202802
43	0xbe9580a2	-0.29199702
44	0x3e71a45a	0.23597851
45	0xbd520a74	-0.0512795
46	0x3e8ed0f3	0.2789379
47	0xbd116e20	-0.035505414
48	0x3e70b8b6	0.23507962
49	0xbdc11304	-0.09427455
50	0x3d53c720	0.051703572
51	0x3ec0129f	0.37514207
52	0xbe823fdc	-0.25439346
53	0x3e1c9b5a	0.15293637
54	0x3dcff75c	0.10154602
55	0xbef19eb3	-0.4719139
56	0xbdeeb013	-0.11654677
57	0xbd8094b4	-0.06278363
58	0xbdf6ea28	-0.120563805
59	0xbcbf818b	-0.0233772
60	0x3e45bc39	0.19310082
61	0x3d824eb3	0.06362667
62	0xbd423409	-0.047412906
63	0x3cd70cc0	0.026251197
64	0x3e89463f	0.26811406
65	0xbe15dbd5	-0.1463464
66	0xbda61d95	-0.08111111
67	0xbe30fce1	-0.17283966
68	0xbd91d354	-0.07120386
69	0xbd4147eb	-0.047187727
70	0x3e9f3424	0.31094468
71	0x3e1208f0	0.14261222
72	0xbdfdee6e	-0.123989925
73	0xbdd2e03f	-0.10296678
74	0x3ec0d5c0	0.37663078
75	0x3e72c3fc	0.23707575
76	0xbd99744e	-0.074928865
77	0x3f1b813c	0.6074407
78	0xbe720b6d	-0.23637171
79	0xbe8d347b	-0.27579102
80	0x3f11d41b	0.5696427
81	0xbdb80176	-0.08984654
82	0x3dfaf3a8	0.12253505
83	0xbefd0213	-0.49415645
84	0xbed513fc	-0.4161681
85	0xbf1d8bd5	-0.6154149
86	0xbf30e552	-0.69099915
87	0x3e0cbcb6	0.13743863
88	0xbefedd2f	-0.49778125
89	0xbeb33dec	-0.3500818
90	0xbe4f4f55	-0.20245107
91	0x3d8c5215	0.068515934
92	0x3da00a0b	0.078144155
93	0xbe49a5bc	-0.19692129
94	0xbf0af234	-0.5427582
95	0xbd406d5f	-0.046979304
96	0xbe4a7164	-0.19769818
97	0xbecdb0b8	-0.40173888
98	0xbe79992f	-0.24374841
99	0xbea51eab	-0.3224996
100	0xbe417915	-0.18893845
101	0x3e57ae7d	0.21062656
102	0x3aee95df	0.0018202624
103	0x3eb3bcaf	0.35104892
104	0x3e2a3c3b	0.16624539
105	0xbe114848	-0.1418773
106	0xbe09cded	-0.1345746
107	0xbe4b20c6	-0.19836721
108	0xbecbaa32	-0.39778286
109	0x3d628e77	0.055311646
110	0x3e1f36a5	0.15548189
111	0xbdc369da	-0.09541674
112	0x3e05e1af	0.13074373
113	0x3d5a6c71	0.053326074
114	0x3dd17179	0.10226721
115	0x3eecc20f	0.46241805
116	0x3eeabc68	0.45846868
117	0x3e426500	0.18983841
118	0xbdf318ef	-0.1186999
119	0xbe1175b6	-0.1420506
120	0x3eca057f	0.39457318
121	0x3eb2e9b7	0.34943935
122	0xbe04ea0f	-0.12979911
123	0xbddb8eb1	-0.107205756
124	0x3eef9e9c	0.46800697
125	0x3eeb4e0d	0.45957986
126	0x3e26db60	0.16294622
127	0xbeffecd9	-0.49985388
128	0x3ebaa347	0.36452696
129	0x3ea38b1c	0.3194207
130	0xbe8c75ca	-0.27433616
131	0xbeaea1af	-0.3410773
132	0x3e8fa01a	0.28051835
133	0xbc15792d	-0.009123129
134	0xbaefba20	-0.0018289723
135	0x3e8384d3	0.25687274
136	0x3e1656df	0.14681576
137	0x3dabb4a6	0.08384065
138	0xbefdde84	-0.49583828
139	0xbed232d4	-0.41054404
140	0x3e985da0	0.2975893
141	0x3dcc1998	0.09965819
142	0xbe84606f	-0.25854823
143	0xbe5fc38f	-0.21851943
144	0xbd6423ba	-0.055698134
145	0xbecd3709	-0.4008105
146	0x3e184ce6	0.14873084
147	0xbe82d307	-0.25551626
148	0x3ed086f3	0.40727958
149	0x3d17c290	0.037050784
150	0x3e4af418	0.19819677
151	0x3e5c27a5	0.21499498
152	0x3ef3b156	0.47596234
153	0xbe2c535a	-0.16828671
154	0xbe2d937a	-0.16950789
155	0x3e0714be	0.13191506
156	0x3e93c708	0.28862786
157	0xbea74d6b	-0.32676253
158	0xbec92baa	-0.39291126
159	0xbe5c70de	-0.2152743
160	0xbe91f905	-0.285103
161	0xbeb72a19	-0.35774305
162	0x3d839e09	0.06426627
163	0xbe5579ad	-0.20847197
164	0xbea2a936	-0.31769723
165	0x3d722961	0.059121493
166	0xbf25e019	-0.6479507
167	0xbdc94711	-0.09828008
168	0x3e63e356	0.2225469
169	0xbe1029d0	-0.1407845
170	0xbe9e8ac8	-0.30965257
171	0xbeadb64b	-0.3392814
172	0x3da19dc5	0.0789142
173	0x3e7374f8	0.23775089
174	0xbdd1abb6	-0.102378294
175	0x3e79d1e1	0.24396469
176	0x3e6a0776	0.22854409
177	0xbd7c280b	-0.061561625
178	0x3e03c285	0.12867172
179	0x3e560123	0.20898871
180	0xbda3d156	-0.07998912
181	0xbe98c7dc	-0.2983998
182	0x3dfdbf34	0.12389985
183	0xbe4d6b53	-0.20060472
184	0xbe8bfb28	-0.27340055
185	0xbe56d422	-0.2097936
186	0xbbd59fca	-0.0065192925
187	0x3db39c7f	0.08770084
188	0xbe8c6f29	-0.27428558
189	0x3da93dae	0.082637176
190	0xbefc472f	-0.4927306
191	0xbe70b9f8	-0.23508441
192	0x3d45d7ed	0.048301626
193	0xbec3c0a8	-0.38232923
194	0xbe2482e1	-0.16065551
195	0xbf621c91	-0.8832484
196	0xbf4d39ae	-0.8016614
197	0xbd583c99	-0.052792165
198	0xbe87cf7c	-0.26525486
199	0xbd111f62	-0.03543032
200	0xbf1df407	-0.6170048
201	0x3da63f2c	0.08117518
202	0x3e98c870	0.29840422
203	0xbd4b70a6	-0.049667977
204	0x3d4139cb	0.047174256
205	0x3d352b88	0.044230968
206	0xbe8633a5	-0.26211277
207	0xbe8c8dc1	-0.274519
208	0xbeb1491b	-0.34626088
209	0xbdd86fa9	-0.105681725
210	0x3e3581e3	0.17725329
211	0x3eb4a8d4	0.35285056
212	0x3ef3c24b	0.4760917
213	0xbe060bdf	-0.13090466
214	0x3ee0b495	0.43887773
215	0x3e553f56	0.20824942
216	0x3dca78fa	0.09886356
217	0x3e5c5930	0.21518397
218	0x3ebc4ff3	0.36779746
219	0x3ddee807	0.108840995
220	0xbe489c89	-0.19590963
221	0xbe57d1fe	-0.210762
222	0xbd82e4db	-0.06391307
223	0xbd9ed143	-0.07754757
224	0x3e6d4d75	0.23174079
225	0x3ece3f81	0.40282825
226	0xbe8dcffb	-0.2769774
227	0x3e3e1588	0.18562901
228	0xbe36780d	-0.17819233
229	0x3e0d1056	0.13775763
230	0xbe7e9507	-0.24861537
231	0x3e606ecc	0.21917266
232	0x3db420f1	0.087953456
233	0xbe838ac7	-0.25691816
234	0xbee5ec59	-0.4490688
235	0xbd2cbd05	-0.04217245
236	0x3e853728	0.26018643
237	0x3e693c50	0.22776914
238	0xbd771239	-0.060320113
239	0xbd848555	-0.064707436
240	0x3ef1ba52	0.47212464
241	0x3e35cc7c	0.17753786
242	0x3edac29d	0.42726603
243	0x3eb7b0c0	0.35877037
244	0xbec18e4d	-0.3780388
245	0x3cfb16e4	0.030650564
246	0xbebfc675	-0.37456098
247	0xbda625ea	-0.081127
248	0xbe119807	-0.1421815
249	0x3e3f3bf9	0.18675222
250	0xbebe425d	-0.37160006
251	0xbd809f31	-0.06280363
252	0xbe3c4a83	-0.18387799
253	0x3e8c4f5b	0.27404293
254	0x3eed45e3	0.46342382
255	0x3f008dab	0.5021617

gconvs.1.combination_weights f4 [4, 3]
0	0x3ec12d8b	0.3773006
1	0x3ea7989d	0.32733622
2	0x3eccf5ae	0.4003119
3	0x3ec1027c	0.37697208
4	0x3ea7f30d	0.3280262
5	0x3ecd6813	0.40118465
6	0x3ec1d22a	0.37855655
7	0x3ea845c6	0.32865733
8	0x3ecdfeb5	0.4023339
9	0x3ec193d0	0.37808084
10	0x3ea74aef	0.32674357
11	0x3ecdf613	0.40226802

gconvs.1.weight f4 [3, 6, 6, 4, 3, 3]
0	0xbe2f1f5a	-0.17101803
1	0xbedcd752	-0.43133026
2	0xbec3b865	-0.3822662
3	0xbc9d7716	-0.019221824
4	0xbee60d21	-0.44931892
5	0xbddd8f5e	-0.10818361
6	0xbe9653fb	-0.29360947
7	0x3d53839b	0.05163918
8	0x3e14e00b	0.1453859
9	0x3e414d41	0.18877126
10	0xbe9baff5	-0.30407682
11	0x3e02e598	0.12782896
12	0x3ebc7be0	0.3681326
13	0xbe3d19b7	-0.1846684
14	0xbe4c2238	-0.19934928
15	0x3e456bb2	0.19279364
16	0xbeae4ee5	-0.34044567
17	0x3d615916	0.0550166
18	0xbd9a9412	-0.075477734
19	0x3d56c1c8	0.052430898
20	0xbeb633f6	-0.35586518
21	0x3e9fc131	0.3120208
22	0xbe1e1025	-0.15435846
23	0xbe8023f1	-0.2502742
24	0x3e4da567	0.20082627
25	0xbe07c140	-0.13257313
26	0xbe9e8388	-0.30959725
27	0x3e21ffdb	0.15820257
28	0xbce547b0	-0.027988285
29	0xbe7738d7	-0.24142776
30	0x3e68b013	0.22723417
31	0xbdc0d283	-0.09415152
32	0x3e9f92eb	0.31166777
33	0x3e5e49d2	0.21707848
34	0x3dc76760	0.09736514
35	0x3d98332a	0.07431634
36	0xbedcb2ab	-0.43105063
37	0x3e92f940	0.28705788
38	0xbe43a933	-0.19107513
39	0x3e6f1fe2	0.23352006
40	0xbdd5d855	-0.10441653
41	0x3dafe81b	0.085891925
42	0xbe514aa0	-0.20438623
43	0xbe07a41e	-0.132462
44	0xbe942e4a	-0.28941566
45	0x3d9f0b23	0.07765796
46	0xbc161f18	-0.009162687
47	0x3eb6e496	0.35721272
48	0xbe88774a	-0.2665351
49	0x3e9a9edb	0.30199322
50	0x3ea50e78	0.322376
51	0x3ea2abcb	0.31771693
52	0xbe1b2030	-0.15148997
53	0x3d65a991	0.056069914
54	0xbe053f10	-0.13012338
55	0x3eb4359d	0.35197154
56	0x3e870bd1	0.26376203
57	0x3c1c05c3	0.009522858
58	0x3e8f2654	0.2795893
59	0x3de46cbc	0.11153552
60	0xbdf7a1de	-0.120914206
61	0xbe204808	-0.15652478
62	0xbe48a4a3	-0.19594054
63	0xbe5b1c31	-0.21397473
64	0xbe1de4bf	-0.15419291
65	0x3de0483f	0.1095128
66	0x3d4666bf	0.04843783
67	0xbe65776b	-0.22408836
68	0x3e629fc2	0.22131255
69	0x3c655663	0.013997647
70	0x3d839643	0.064251445
71	0xbdc46b1b	-0.09590741
72	0xbe984470	-0.29739714
73	0x3e1eb7a2	0.15499738
74	0x3ea6e87f	0.32599255
75	0xbe79c03b	-0.24389736
76	0xbc2133b7	-0.00983899
77	0x3e4c5aa2	0.19956449
78	0x3d6f6760	0.058448195
79	0x3ebc8118	0.3681724
80	0x3e884c9a	0.26620942
81	0x3f045a42	0.5170022
82	0xbe8839d3	-0.26606616
83	0xbe9bedae	-0.30454773
84	0xbe57f63c	-0.21090025
85	0x3e52ed89	0.20598425
86	0x3e1e79dd	0.15476175
87	0xbeff9e87	-0.49925634
88	0xbefd5016	-0.49475163
89	0xbf1b85c3	-0.6075098
90	0x3d3509d1	0.044198815
91	0xbdb66e29	-0.0890773
92	0xbcaa5e17	-0.020796819
93	0x3da6b8e6	0.08140735
94	0xbe308093	-0.17236547
95	0x3ee1bb65	0.44088283
96	0x3dd32d9b	0.10311433
97	0x3e8e2f1e	0.27770323
98	0x3e964a58	0.29353595
99	0x3e7312ee	0.2373769
100	0xbe4b31b9	-0.19843186
101	0x3d34569b	0.044027906
102	0xbd52b6ef	-0.05144399
103	0x3e973783	0.2953454
104	0xbefd86c8	-0.49516892
105	0xbdb949cb	-0.09047278
106	0x3e3dbafb	0.18528359
107	0xbf140109	-0.5781408
108	0xbe22779c	-0.1586594
109	0x3de52469	0.11188585
110	0xbeb8578c	-0.36004293
111	0xbe5121b8	-0.20423019
112	0x3e6e9f66	0.23302993
113	0xbe56cf7d	-0.20977588
114	0x3e055a76	0.1302279
115	0x3cdb4a0a	0.026768703
116	0x3db6133d	0.08890388
117	0x3bca3a3e	0.006171494
118	0x3e8e1027	0.27746698
119	0xbf62ef68	-0.88646555
120	0x3ea2b1f3	0.3177639
121	0x3e1a8cd6	0.15092787
122	0xbf2f986b	-0.68591946
123	0xbc678cd5	-0.014132698
124	0xbdc9b65e	-0.09849237
125	0x3dd9cd98	0.10634917
126	0x3ebd5020	0.36975193
127	0xbeec6a1d	-0.46174708
128	0xbe8b0d81	-0.2715874
129	0x3dc1acdb	0.09456798
130	0x3e25ccde	0.16191432
131	0xbf26b999	-0.6512695
132	0xbe0da5a5	-0.1383272
133	0xbd5b3518	-0.05351743
134	0xbe96df01	-0.29467013
135	0xbbd6f9a6	-0.006560522
136	0x3b01f608	0.0019830484
137	0x3e81910c	0.25305974
138	0x3ed626f5	0.41826597
139	0x3da22612	0.079174176
140	0xbeadcd0f	-0.3394551
141	0xbec1d3b9	-0.37856844
142	0xbf312435	-0.6919587
143	0xbee99c20	-0.45626926
144	0x3ebc2dfc	0.36753833
145	0x3e71ea6c	0.23624581
146	0x3e97d4dc	0.29654586
147	0xbdbe628b	-0.09296139
148	0xbe49c7a4	-0.19705063
149	0x3d502fc8	0.050826818
150	0x3e51e757	0.20498405
151	0xbde39862	-0.11113049
152	0xbe7d4098	-0.24731672
153	0x3eeb667d	0.4597663
154	0x3de2005e	0.11035226
155	0x3ecef4e2	0.40421206
156	0xbbf99165	-0.0076162093
157	0x3d1f8852	0.038948365
158	0xbdd85ee7	-0.10564976
159	0x3ede97b2	0.4347511
160	0x3e471886	0.19442949
161	0xbe24fad2	-0.16111305
162	0x3f0f2bae	0.55926025
163	0xbe4e34ae	-0.20137283
164	0xbf30b7b5	-0.69030315
165	0xbdd66d36	-0.10470049
166	0xbec58771	-0.38579896
167	0xbef740b5	-0.48291555
168	0x3edc43cc	0.43020475
169	0x3ec9c46c	0.3940767
170	0xbe6ac936	-0.22928318
171	0xbebfbaa8	-0.37447095
172	0xbe8947b3	-0.26812515
173	0xbebe14bd	-0.37125197
174	0xbee06206	-0.43824786
175	0xbe13ebd5	-0.14445432
176	0xbe7dc0b3	-0.2478054
177	0xbec07d12	-0.3759542
178	0xbe8a4d13	-0.27011928
179	0x3ef74a02	0.4829865
180	0x3d8c00e7	0.068361096
181	0x3e322156	0.17395529
182	0x3e948a0c	0.2901157
183	0x3ed80e35	0.4219834
184	0xbe8407f7	-0.25787327
185	0x3d89f31f	0.06735825
186	0x3e96c830	0.29449606
187	0x3ec47f78	0.383785
188	0xbe0ae161	-0.13562538
189	0x3e778851	0.24173094
190	0x3e546ed6	0.20745406
191	0xbf2b1520	-0.6682911
192	0x3ec99d87	0.39377996
193	0xbe9f9e20	-0.31175327
194	0xbedbbc7c	-0.4291724
195	0xbec97e04	-0.39353955
196	0xbe93e8c6	-0.2888853
197	0xbf073d72	-0.52828133
198	0x3eafa110	0.34302568
199	0xbefc3174	-0.4925648
200	0xbeb5a305	-0.35475937
201	0x3e17fe3d	0.14843078
202	0xbda3e4f3	-0.08002653
203	0xbe7b5f18	-0.24547994
204	0x3e34bee2	0.17650941
205	0x3e840a12	0.25788933
206	0xbf0f28e8	-0.55921793
207	0x3ddeaeae	0.10873161
208	0xbce1dcbd	-0.027571077
209	0x3d7d0011	0.06176764
210	0x3eae0e13	0.33995113
211	0xbe89eb1a	-0.2693718
212	0xbe5b5603	-0.2141953
213	0xbe5f4fa2	-0.21807721
214	0xbefa30b7	-0.4886529
215	0xbf3ce89c	-0.73792434
216	0xbed15aae	-0.40889496
217	0xbef673b8	-0.4813516
218	0xbf00fd68	-0.5038667
219	0xbe810db9	-0.25205782
220	0x3d7b5c6f	0.06136745
221	0xbf149090	-0.58033085
222	0xbf20eea9	-0.62864166
223	0x3e688955	0.22708638
224	0xbf17cb6c	-0.5929477
225	0xbd6b32ad	-0.057421375
226	0x3e640f17	0.22271381
227	0x3eb33430	0.35000753
228	0xbed8e03e	-0.42358583
229	0x3e3d618a	0.1849424
230	0xbe25796b	-0.16159599
231	0xbe198603	-0.14992528
232	0x3d366adf	0.044535514
233	0xbe6875de	-0.22701213
234	0xbeb3e420	-0.35134983
235	0x3deefdc1	0.116694935
236	0x3e1c2b74	0.15250951
237	0xbed4da0b	-0.41572604
238	0x3e5019d7	0.20322357
239	0x3e8fbf77	0.28075764
240	0x3ca52863	0.02016086
241	0x3da5a260	0.08087611
242	0x3cbfe23a	0.023423303
243	0x3e95d117	0.29261085
244	0xbe8f2a94	-0.27962172
245	0x3e8c186b	0.2736238
246	0x3f0200c0	0.50782394
247	0xbea75dee	-0.3268885
248	0x3e45633f	0.1927614
249	0xbc0e5cb7	-0.008689097
250	0xbe8dac01	-0.2767029
251	0xbded2385	-0.115790404
252	0x3e724294	0.2365821
253	0x3eb1f1b5	0.3475472
254	0x3ed1344c	0.40860212
255	0x3e97ea35	0.29670873

gconvs.2.combination_weights f4 [4, 3]
0	0x3eaef119	0.34168318
1	0x3eb0557a	0.34440213
2	0x3eeebda8	0.4662907
3	0x3eb03fa3	0.3442355
4	0x3eb054dc	0.34439743
5	0x3ef1774e	0.47161335
6	0x3eb0644d	0.34451523
7	0x3eaffabd	0.34370986
8	0x3eee2c88	0.4651835
9	0x3eb0929a	0.34486848
10	0x3eb07fe6	0.3447258
11	0x3eef5f2e	0.46752304

gconvs.2.weight f4 [3, 6, 6, 4, 3, 3]
0	0xbf15370f	-0.5828714
1	0xbf46a6a3	-0.7759802
2	0xbf3319d1	-0.6996127
3	0x3eeae486	0.45877475
4	0x3db17e9c	0.08666727
5	0xbf34619d	-0.70461446
6	0x3f0d1cd6	0.55122125
7	0xbe9d8ade	-0.3077001
8	0xbe0472b1	-0.12934376
9	0xbefa31e3	-0.48866186
10	0xbdeaf13a	-0.114717916
11	0xbdc661b7	-0.096866064
12	0x3e3e8903	0.18606953
13	0x3e6d46d5	0.23171552
14	0x3c211c49	0.009833404
15	0xbe95dd0a	-0.29270202
16	0xbd8f440c	-0.06995401
17	0x3dc31d38	0.095270574
18	0xbee5f8f2	-0.44916493
19	0xbe4d9fd8	-0.20080507
20	0xbe62b305	-0.22138603
21	0xbea257b2	-0.3170753
22	0xbf0b04a3	-0.5430395
23	0x3ea7f295	0.32802263
24	0xbd8fc680	-0.07020283
25	0xbe050011	-0.12988307
26	0x3e1d64a3	0.15370421
27	0xbf4aca70	-0.79215145
28	0x3d52739d	0.05137979
29	0x3f0d41d6	0.5517858
30	0xbe070738	-0.13186347
31	0xbec795f3	-0.3898159
32	0xbddd60b2	-0.10809459
33	0xbe948abb	-0.29012093
34	0xbe0ae626	-0.13564357
35	0xbec5d3e0	-0.3863821
36	0xbee24873	-0.441959
37	0xbeb8506b	-0.35998854
38	0xbf266b8c	-0.65007854
39	0x3e802ccc	0.25034177
40	0x3e2c61fa	0.1683425
41	0x3d790870	0.060799062
42	0xbd4142cc	-0.047182843
43	0xbe010aaa	-0.12601724
44	0xbf496795	-0.7867368
45	0xbf5d8fc4	-0.86547494
46	0xbddb6b2f	-0.10713803
47	0xbea54713	-0.32280788
48	0x3e124973	0.14285831
49	0x3e0bbe29	0.13646759
50	0x3d960301	0.07324792
51	0x3aea4737	0.0017874007
52	0x3e176c91	0.14787509
53	0x3f4ad3cf	0.79229444
54	0x3eb80b4c	0.3594612
55	0x3df77f57	0.12084835
56	0xbf161c8b	-0.58637303
57	0xbe5a1982	-0.21298793
58	0x3e4a2383	0.19740109
59	0x3d28009e	0.041016214
60	0xbf128852	-0.5723926
61	0xbeb96800	-0.36212158
62	0x3ca2f10c	0.01989033
63	0xbed401d7	-0.41407654
64	0xbdf2dcf8	-0.11858553
65	0xbea22cfd	-0.31674948
66	0x3d4adfc7	0.049529817
67	0xbdb23e79	-0.08703322
68	0x3e3c0eef	0.18365072
69	0x3e11f8fa	0.14255133
70	0xbe9efccb	-0.3105224
71	0xbd86b174	-0.06576815
72	0xbe586d7f	-0.2113552
73	0xbeba3472	-0.36368138
74	0x3ec75e7e	0.3893928
75	0x3eb2fd86	0.34959048
76	0x3e2b8c23	0.16752677
77	0xbe53dd9b	-0.20690005
78	0xbdedf381	-0.1161871
79	0xbd1613a8	-0.03663984
80	0x3e17296f	0.147619
81	0x3e908eb2	0.28233868
82	0x3e739414	0.23786956
83	0xbe084444	-0.13307291
84	0x3ea34ef2	0.31896168
85	0x3ef1696b	0.4715074
86	0x3ea54e45	0.32286277
87	0x3e6002c5	0.21876056
88	0xbe23c4c1	-0.15993024
89	0xbde1f1a4	-0.110324174
90	0x3e85710c	0.2606281
91	0x3e8b56fe	0.27214807
92	0x3e402b64	0.18766552
93	0x3e9334a5	0.28751102
94	0x3e6a6f18	0.22893941
95	0x3e1ff4c4	0.15620714
96	0xbe0deeba	-0.13860598
97	0x3ec3317d	0.38123694
98	0xbcb87fb2	-0.022521827
99	0xbe2c690e	-0.1683695
100	0xbef3355c	-0.47501647
101	0xbed43a73	-0.41450843
102	0xbe45732a	-0.19282213
103	0xbda4057b	-0.08008858
104	0x3e5ce7ed	0.21572848
105	0xbe2fc587	-0.17165194
106	0x3eb121e3	0.34596166
107	0x3e9d5542	0.3072911
108	0x3e8f658c	0.28007162
109	0xbec06e36	-0.37584084
110	0xbd12acd1	-0.03580934
111	0x3e84ae35	0.2591416
112	0x3ea99524	0.33121598
113	0x3e781e8e	0.24230406
114	0xbe7def6a	-0.2479836
115	0xbee38434	-0.444368
116	0xbe3ec751	-0.1863072
117	0xbe5eb8fd	-0.21750255
118	0xbec57a31	-0.38569787
119	0xbe6d1e1a	-0.23156014
120	0xbd813315	-0.06308571
121	0x3e787391	0.24262835
122	0xbe8dbec8	-0.27684617
123	0x3f0d121e	0.5510577
124	0x3c381967	0.011236525
125	0x3c9baac0	0.019002318
126	0x3b8f7b5a	0.0043787183
127	0x3ed43b4e	0.41451496
128	0x3d4daffd	0.050216664
129	0xbeb9cb8a	-0.362881
130	0x3e900d15	0.2813498
131	0xbe5ae80f	-0.21377586
132	0xbd429443	-0.047504675
133	0xbe3f8739	-0.18703927
134	0x3f20f52a	0.6287409
135	0x3ebf22e5	0.3733131
136	0xbe9e7f00	-0.30956268
137	0x3d8a449c	0.067513674
138	0xbe2488e7	-0.16067849
139	0xbea74ca5	-0.32675663
140	0x3da133c8	0.078712046
141	0xbeb4bd11	-0.35300496
142	0xbeadfd34	-0.3398224
143	0x3d443a04	0.04790689
144	0xbda4fc1b	-0.08055898
145	0xbeb304d5	-0.34964624
146	0xbe86b78e	-0.26311916
147	0x3eb2389a	0.3480881
148	0x3d3967a6	0.045264862
149	0x3dcb53af	0.09928071
150	0x3e09a233	0.1344078
151	0xbebb7190	-0.3661008
152	0x3f15cc3d	0.5851477
153	0x3d19168a	0.03737501
154	0xbea99abe	-0.3312587
155	0xbefce096	-0.49390095
156	0xbec0969b	-0.37614903
157	0xbe7b0254	-0.24512607
158	0x3e832386	0.2561304
159	0x3e9d200f	0.3068852
160	0x3e947b90	0.2900052
161	0xbeb0b7c2	-0.34515196
162	0xbe9a0e95	-0.3008925
163	0xbeb49de6	-0.35276717
164	0xbe02c1b7	-0.12769209
165	0x3ebe06e9	0.37114647
166	0xbda4ca8f	-0.080464475
167	0x3e6ee4ea	0.23329511
168	0x3eeb4bf7	0.45956394
169	0xbe758f9e	-0.23980567
170	0xbea8468b	-0.3286632
171	0x3eb56442	0.35428053
172	0xbe6085bc	-0.21926016
173	0xbd27be3d	-0.04095291
174	0x3ea20f5c	0.31652343
175	0xbd04104a	-0.032242097
176	0x3d2bbcc1	0.041928057
177	0xbd5c0687	-0.053717162
178	0xbe8bf52b	-0.27335486
179	0xb5dd1bd3	-1.6473881e-06
180	0x3e954218	0.29151988
181	0x3d9c1f70	0.07623184
182	0x3d11ed8b	0.03562693
183	0xbc92d457	-0.017923517
184	0xbcc03d9f	-0.023466883
185	0xbebbc728	-0.36675382
186	0xbd61c684	-0.05512096
187	0xbd897128	-0.06711036
188	0xbdc550bf	-0.09634542
189	0xbe5204cd	-0.20509644
190	0xbea0cc72	-0.3140598
191	0x3e03f466	0.128862
192	0x3e59a54d	0.21254463
193	0x3d7fb6dc	0.062430248
194	0xbe249a04	-0.16074377
195	0xbe1a2f81	-0.15057184
196	0x3dcd29df	0.10017752
197	0xbe4159d3	-0.18881921
198	0xbecdf3e6	-0.40225142
199	0xbda35e04	-0.079769164
200	0xbe07ce84	-0.13262373
201	0xbd563b5e	-0.05230271
202	0xbe2274c9	-0.15864863
203	0x3eea7c66	0.45798033
204	0xbeafe053	-0.34350833
205	0xbe3f946c	-0.18708962
206	0xbda46930	-0.080278754
207	0xbe6dd454	-0.23225528
208	0x3e379837	0.17929159
209	0xbeb53750	-0.35393763
210	0x3ea60864	0.32428277
211	0x3eacdfdf	0.3376455
212	0x3ed697fd	0.41912833
213	0xbe2a7a2a	-0.16648164
214	0x3e644a31	0.22293927
215	0x3e0cddc2	0.13756469
216	0x3e4d8631	0.20070721
217	0xbe894d40	-0.2681675
218	0xbe88aaf2	-0.2669292
219	0xbacd4344	-0.0015660306
220	0xbec60309	-0.3867419
221	0xbe6c3615	-0.23067506
222	0xbe8776c0	-0.26457787
223	0xbf71199a	-0.9417969
224	0xbe129065	-0.14312895
225	0x3eabbcdb	0.33542523
226	0xbd962983	-0.073321365
227	0xbed267bb	-0.41094765
228	0x3eb9b244	0.36268818
229	0xbe642086	-0.22278032
230	0x3eb6d69f	0.35710618
231	0x3eba892f	0.36432788
232	0xbe4eccba	-0.20195284
233	0x3f29c401	0.66314703
234	0xbf83d390	-1.0298939
235	0xbf67d5e1	-0.9056073
236	0x3eaf8dfd	0.34288016
237	0xbe2da2ff	-0.1695671
238	0xbf0a0110	-0.5390787
239	0x3d852dfb	0.06502911
240	0xbec39dc3	-0.382063
241	0xbeaf63fb	-0.34255967
242	0x3e4b43ba	0.19850054
243	0x3cc45831	0.023967834
244	0x3e052768	0.13003314
245	0x3d698ace	0.05701714
246	0xbda69acf	-0.08134996
247	0xbdcc4aa4	-0.09975174
248	0x3e4279f9	0.18991841
249	0xbf0ae664	-0.542578
250	0x3da86d1d	0.08223937
251	0x3c8d88fb	0.017277231
252	0x3d345cb7	0.044033732
253	0xbf28fff1	-0.66015536
254	0xbdd2cb4e	-0.102926835
255	0x3c0ac4d9	0.008469784

gconvs.3.combination_weights f4 [4, 3]
0	0x3ea140d2	0.31494766
1	0x3ed6250a	0.41825134
2	0x3ed5a1cb	0.41725
3	0x3ea1740a	0.31533843
4	0x3ed57434	0.41690218
5	0x3ed51b73	0.41622505
6	0x3ea0b152	0.31385285
7	0x3ed5fb75	0.4179341
8	0x3ed4867e	0.4150886
9	0x3ea11423	0.31460676
10	0x3ed54c29	0.41659668
11	0x3ed585cf	0.4170365

gconvs.3.weight f4 [3, 6, 6, 4, 3, 3]
0	0xbe95c759	-0.29253653
1	0xbf13d400	-0.5774536
2	0xbe7218b6	-0.23642239
3	0x3e9cbe59	0.30613974
4	0xbeb5caf7	-0.35506412
5	0xbe43c5ee	-0.19118473
6	0xbe0d9c8e	-0.13829252
7	0xbd2b9728	-0.0418922
8	0xbc5ebaf7	-0.013594381
9	0xbe8622f1	-0.26198533
10	0x3e0a7889	0.13522543
11	0xbd26ee84	-0.04075481
12	0x3e301790	0.17196488
13	0xbeae5e4b	-0.34056315
14	0x3e22bcee	0.15892383
15	0xbeb024b1	-0.34402993
16	0x3eb34b5c	0.35018432
17	0x3dac8716	0.08424203
18	0x3e272ef0	0.16326499
19	0x3e4aed65	0.19817121
20	0x3e98f4d3	0.29874286
21	0xbea5a708	-0.32353997
22	0x3eaf28c3	0.34210786
23	0x3e8b2481	0.27176288
24	0x3e4dfd17	0.20116077
25	0xbe309cce	-0.17247316
26	0x3e9a412e	0.30127853
27	0xbd559b46	-0.052150033
28	0xbd048b57	-0.032359447
29	0xbe787804	-0.24264532
30	0xbc7b4333	-0.015335846
31	0x3de9a942	0.114092365
32	0xbdd04a3c	-0.10170409
33	0x3ec483d4	0.38381827
34	0xbd89a703	-0.06721308
35	0x3ece1d80	0.40256882
36	0xbdabc2cb	-0.08386763
37	0x3e0e8152	0.1391652
38	0x3d233dc2	0.03985382
39	0x3def2251	0.11676467
40	0x3e504483	0.20338635
41	0x3eac641c	0.33670127
42	0xbdeca74d	-0.115553476
43	0x3e1cfa3a	0.15329829
44	0x3d820c66	0.06350021
45	0x3d77e115	0.06051739
46	0xbf157110	-0.58375645
47	0xbc975b81	-0.01847625
48	0x3dd938a8	0.106065094
49	0xbe539958	-0.20663965
50	0x3e95e2bc	0.29274547
51	0xbe4ab576	-0.19795784
52	0xbcf1d8b7	-0.029522283
53	0xbe002f67	-0.12518083
54	0xbe2fc942	-0.17166618
55	0xbdb38a0d	-0.087665655
56	0xbddee2b0	-0.10883081
57	0x3dc24ae8	0.094869435
58	0x3e51dade	0.20493647
59	0xbea7ce86	-0.32774752
60	0x3e22c517	0.15895496
61	0x3e9d3b77	0.3070943
62	0xbedcf4e0	-0.43155575
63	0x3d9c993e	0.07646416
64	0x3e4d2ca6	0.20036563
65	0x3d4ccb42	0.04999853
66	0x3dc21b3f	0.09477853
67	0xbea4a82e	-0.3215956
68	0x3e1b2dd1	0.15154196
69	0x3e8e6d6f	0.27817866
70	0xbe9e1f51	-0.30883268
71	0xbebf89a4	-0.374097
72	0xbe9832b7	-0.29726192
73	0x3eaea869	0.34112862
74	0x3e11dc23	0.14244132
75	0xbda0b689	-0.07847316
76	0xbe4c0a5a	-0.19925824
77	0x3e756e4f	0.2396786
78	0x3e9d5c5e	0.30734533
79	0xbcd74271	-0.026276799
80	0x3f2158ac	0.6302593
81	0xbe325611	-0.17415644
82	0xbdf55fcc	-0.119811624
83	0xbdd84967	-0.105608754
84	0x3e989c0c	0.29806554
85	0xbea6cf8f	-0.3258023
86	0xbe5d572e	-0.21615288
87	0x3d1fb3e3	0.038989913
88	0xbd9e650a	-0.077341154
89	0xbeb1b2d1	-0.3470674
90	0xbe9536fc	-0.29143512
91	0x3ea7ea2b	0.32795843
92	0xbed10801	-0.4082642
93	0xbe8f9537	-0.2804353
94	0x3edf1ee4	0.43578255
95	0x3cb44504	0.022005565
96	0xbbcf603c	-0.0063286107
97	0x3e66e194	0.22546989
98	0x3ee7a691	0.45244268
99	0xbeacc8fb	-0.33747086
100	0xbf1af56b	-0.6053073
101	0xbee483b5	-0.44631734
102	0x3e1f4fe5	0.15557821
103	0xbe8211f4	-0.25404322
104	0x3e9e3880	0.3090248
105	0x3f0497b8	0.51794004
106	0x3e13641f	0.14393662
107	0x3ed05dc0	0.40696526
108	0x3df9add2	0.12191357
109	0x3e380f3e	0.17974564
110	0x3e9ccac3	0.30623445
111	0xbe9a7cfd	-0.30173483
112	0x3e260f84	0.16216856
113	0x3e83362c	0.25627267
114	0xbea0a23d	-0.31373778
115	0x3ef38b47	0.47567198
116	0xbe3a682f	-0.18203805
117	0x3d4be4ae	0.049778633
118	0x3e344940	0.17606068
119	0x3eaa7392	0.33291298
120	0x3d9e06e2	0.077161565
121	0x3dd1a72b	0.10236963
122	0xbc964689	-0.01834418
123	0xbe6b76d4	-0.22994548
124	0x3e954d21	0.29160407
125	0xbdbee0be	-0.0932021
126	0x3edf2389	0.435818
127	0x3e6fe063	0.2342544
128	0xbec6fdef	-0.3886561
129	0xbebb9379	-0.3663595
130	0xbe636d7b	-0.22209732
131	0xbef9fc70	-0.48825407
132	0x3ec3f288	0.38270974
133	0xbd94e807	-0.07270818
134	0x3e6d6d6d	0.23186274
135	0xbf3436b9	-0.70396
136	0xbec8a430	-0.39187765
137	0xbf397236	-0.724399
138	0xbeb07d0d	-0.34470406
139	0xbf0fc0a3	-0.56153315
140	0x3e435664	0.19075924
141	0xbec35e2f	-0.38157794
142	0xbebf78c8	-0.37396836
143	0x3d0b740c	0.034046218
144	0xbe913f7e	-0.28368753
145	0xbf073e04	-0.52829003
146	0xbf221de7	-0.6332688
147	0xbed6c1db	-0.41944775
148	0xbdb6fc88	-0.08934885
149	0x3db97fdb	0.090575896
150	0xbe417f51	-0.18896224
151	0x3e9710c9	0.29504994
152	0xbde5555f	-0.11197924
153	0x3e01b07c	0.1266498
154	0xbeaa5b98	-0.33273005
155	0x3e17c8bb	0.14822666
156	0xbe90cc7d	-0.28281012
157	0xbe39ecc9	-0.18156733
158	0xbcb5a696	-0.02217416
159	0x3dca27b5	0.09870855
160	0xbeac18d1	-0.33612683
161	0xbf5298a6	-0.82264173
162	0xbe63a27d	-0.22229953
163	0xbf22fbf6	-0.6366571
164	0x3e4d0603	0.20021825
165	0x3eb2e0a3	0.3493701
166	0xbe01d735	-0.12679751
167	0x3e337759	0.17525996
168	0x3d7fec39	0.06248114
169	0x3e35d37e	0.17756459
170	0x3e0af262	0.13569024
171	0x3da6763d	0.08128021
172	0x3eb698b1	0.3566337
173	0x3dac25b0	0.08405626
174	0xbe2b13f8	-0.16706836
175	0x3e8c7e0f	0.27439925
176	0xbdc50990	-0.096209645
177	0x3e4505b9	0.19240464
178	0xbdc5634e	-0.096380815
179	0x3e0ef515	0.13960679
180	0xbf1667f3	-0.58752364
181	0x3e44da7c	0.1922397
182	0xbf0ebf54	-0.55760694
183	0xbde33eae	-0.110959396
184	0xbf0781c1	-0.52932364
185	0xbb2880f8	-0.0025711637
186	0xbe790cd9	-0.24321307
187	0xbd132be0	-0.035930514
188	0xbdda7b80	-0.10668087
189	0x3cee7b06	0.029111397
190	0x3e87bbf4	0.26510584
191	0x3c8bf4d5	0.017084518
192	0x3e49516a	0.19659963
193	0x3e8f2c73	0.279636
194	0x3ec0883c	0.3760394
195	0xbd572470	-0.052524984
196	0x3e416e95	0.1888984
197	0xbe2c3934	-0.16818696
198	0x3d99280a	0.0747834
199	0xbccbf794	-0.024898328
200	0x3e10ed57	0.14153038
201	0xbee84a7c	-0.45369327
202	0xbe445852	-0.19174317
203	0xbe13054e	-0.14357492
204	0xbef72f8c	-0.48278463
205	0xbe34c87d	-0.17654605
206	0x3ccbb531	0.024866672
207	0xbeb5e6f7	-0.35527775
208	0xbd65aac4	-0.056071058
209	0xbf152523	-0.5825979
210	0xbeb124e1	-0.3459845
211	0x3d7ef1af	0.062242206
212	0xbd8993cb	-0.067176424
213	0x3eca2b8c	0.3948635
214	0x3e5e0464	0.21681362
215	0x3f0c05d8	0.54696417
216	0xbe5f0d02	-0.21782306
217	0xbe8816ac	-0.26579797
218	0xbec07319	-0.37587813
219	0xbe03754a	-0.12837711
220	0xbed0e977	-0.4080312
221	0x3e80a28c	0.25124013
222	0xbe10e9e1	-0.14151718
223	0xbe296a60	-0.16544485
224	0x3e4ba8da	0.1988863
225	0x3e84bcef	0.25925395
226	0xbd53cd94	-0.051709726
227	0xbed2218c	-0.4104122
228	0x3c101a9e	0.0087954085
229	0xbe80f218	-0.25184703
230	0xbed7eba9	-0.42171982
231	0x3ced6c33	0.028982257
232	0xbea24b85	-0.31698242
233	0x3e4c02f5	0.19923003
234	0xbe1dfcd0	-0.15428472
235	0xbe1fffd5	-0.15624936
236	0xbeae9a07	-0.3410189
237	0x3d0e08cc	0.034676358
238	0xbe6c5e1a	-0.23082772
239	0xbdc498ec	-0.0959948
240	0xbdafcad9	-0.08583612
241	0xbce619fa	-0.028088558
242	0xbdc73f89	-0.09728915
243	0x3ee4e605	0.4470674
244	0xbe1e6180	-0.15466881
245	0xbd8a620e	-0.06756984
246	0x3ed6ed69	0.41978005
247	0xbb94fd33	-0.0045467853
248	0x3e15bb2b	0.1462218
249	0x3de89577	0.11356633
250	0xbe94e2eb	-0.29079375
251	0x3ecde2c3	0.40212068
252	0xbe8629e0	-0.26203823
253	0xbeb613d4	-0.35562003
254	0xbda4e493	-0.080514096
255	0x3da1309e	0.07870601

gconvs.4.combination_weights f4 [4, 3]
0	0x3ece485e	0.40289587
1	0x3eb5f8e8	0.35541463
2	0x3ed2772b	0.41106543
3	0x3ecd9a04	0.40156567
4	0x3eb68089	0.3564494
5	0x3ed2ae34	0.4114853
6	0x3ece39f0	0.40278578
7	0x3eb5f1b8	0.3553598
8	0x3ed202fa	0.41017896
9	0x3ece51b8	0.4029672
10	0x3eb653a6	0.35610694
11	0x3ed28a1f	0.41121003

gconvs.4.weight f4 [3, 6, 6, 4, 3, 3]
0	0x3ef218dc	0.4728459
1	0xbea58566	-0.32328337
2	0xbe57e6df	-0.21084164
3	0x3ed23eb3	0.4106346
4	0xbea74f08	-0.32677484
5	0x3e8ad6b8	0.27116942
6	0x3ec05f85	0.37572876
7	0xbe5fc497	-0.21852337
8	0x3e5412a3	0.20710234
9	0x3ec4e8ea	0.3845895
10	0xbde2ed96	-0.11080472
11	0x3db80042	0.08984424
12	0xbe298625	-0.16555078
13	0x3ea08119	0.31348494
14	0x3eb82bb7	0.35970852
15	0x3d27e44a	0.040989198
16	0x3e4470cd	0.19183655
17	0x3ecb556d	0.39713612
18	0xbf0777db	-0.5291726
19	0xbe363881	-0.17794992
20	0x3e0136bc	0.12618536
21	0xbdb45fd1	-0.08807338
22	0xbea6231b	-0.32448658
23	0x3d893d9d	0.06701205
24	0xbf0860c0	-0.5327263
25	0xbdb71533	-0.0893959
26	0x3eaa10e2	0.33216006
27	0x3c077f6a	0.008270124
28	0xbee68b26	-0.45028037
29	0xbee8a5ed	-0.4543909
30	0x3e58e097	0.21179424
31	0xbde85b82	-0.11345579
32	0xbe39f648	-0.18160355
33	0x3eebce3f	0.4605579
34	0xbe08ea3d	-0.13370605
35	0xbef431bf	-0.47694203
36	0xbde762dc	-0.11298153
37	0xbe7b98b6	-0.24569973
38	0x3ec07e10	0.37596178
39	0x3ea46a11	0.32112172
40	0x3d106567	0.035252955
41	0x3e78f8b9	0.2431363
42	0xbf085272	-0.532508
43	0xbe0b959b	-0.13631289
44	0xbe42ff80	-0.19042778
45	0xbd737fbd	-0.059447993
46	0x3e40b98e	0.18820783
47	0xbe5361a4	-0.20642716
48	0xbe60376a	-0.21896139
49	0xbe232609	-0.15932478
50	0xbe710e24	-0.2354055
51	0xbeaf690f	-0.3425984
52	0x3d961199	0.07327575
53	0x3c00ccf4	0.007861365
54	0x3d89e31b	0.0673277
55	0x3eac1b1c	0.33614433
56	0x3e0abcc3	0.1354857
57	0x3f0f7818	0.56042624
58	0x3ee0cd3b	0.43906578
59	0x3d7b6e5c	0.061384544
60	0xbee37c31	-0.44430688
61	0x3d0cd319	0.034381006
62	0xbf318849	-0.6934858
63	0x3dae7948	0.08519226
64	0x3e832380	0.25613022
65	0xbecbf024	-0.3983165
66	0xbd227e16	-0.039671026
67	0x3ea3fbbd	0.32028
68	0x3e0d2dbb	0.13786976
69	0xbee83b2b	-0.45357642
70	0x3e183317	0.14863239
71	0xbeb8af67	-0.3607132
72	0xbe589863	-0.21151881
73	0x3b067229	0.0020514822
74	0x3e151418	0.14558446
75	0x3db88722	0.090101495
76	0xbec1941a	-0.37808305
77	0x3e8c6b60	0.2742567
78	0x3eacb3ba	0.3373087
79	0x3e2cae0d	0.1686327
80	0x3d8d0bfc	0.068870515
81	0x3dd43842	0.10362293
82	0xbda134a3	-0.07871368
83	0x3ddc53d9	0.1075818
84	0xbe1e6be3	-0.15470843
85	0xbdbca3ee	-0.092109546
86	0x3eb5ab7c	0.35482395
87	0x3e591554	0.21199542
88	0x3e5b8bf6	0.2144011
89	0xbe9f7698	-0.31145167
90	0x3e5b427f	0.21412085
91	0x3eb7a713	0.35869655
92	0x3ee755a1	0.45182517
93	0xbe523806	-0.20529184
94	0x3c3dbb7e	0.011580346
95	0x3ec47a1a	0.38374406
96	0xbf0ad6d2	-0.5423404
97	0xbe73b10d	-0.23798008
98	0x3e04f9ec	0.12985963
99	0xbebb5315	-0.36586824
100	0x3e87a9dd	0.26496783
101	0xbe083eff	-0.13305281
102	0xbe900c71	-0.28134492
103	0x3d892861	0.06697155
104	0x3d25eac5	0.040507097
105	0x3e45f4e4	0.193317
106	0x3d29c7d7	0.041450348
107	0x3ed7e6ec	0.42168367
108	0xbc334e19	-0.010943913
109	0xbde408bf	-0.11134481
110	0xbe0996bc	-0.13436407
111	0xbe06ccb7	-0.1316403
112	0x3d740132	0.059571452
113	0x3e2fb158	0.17157495
114	0xbea324e8	-0.31864095
115	0xbf04c2b2	-0.5185958
116	0xbe6f51e7	-0.23371087
117	0x3e77fecf	0.24218296
118	0x3eb234ba	0.34805852
119	0x3c86c905	0.016453275
120	0x3ea15a0c	0.31514013
121	0xbe5e7ea9	-0.21728005
122	0x3e8262c7	0.25465986
123	0x3d5ab20e	0.053392462
124	0xbf0b14cd	-0.54328614
125	0x3e88f786	0.26751345
126	0xbdbf7187	-0.093478255
127	0x3e366179	0.1781062
128	0xbe010c3d	-0.12602325
129	0xbed931be	-0.42420763
130	0xbe7f3871	-0.24923874
131	0x3ea0fd53	0.3144327
132	0x3e52b3da	0.2057642
133	0xbd99788d	-0.07493696
134	0xbe9509ab	-0.2910894
135	0xbed4655e	-0.41483587
136	0xbd7a6357	-0.061129894
137	0xbebbd80a	-0.36688262
138	0x3eba2003	0.36352548
139	0x3e87efbe	0.26550096
140	0xbd3ed3d3	-0.04658873
141	0x3ee3ce45	0.4449331
142	0xbe4219fb	-0.18955223
143	0x3e504f38	0.2034272
144	0x3e9345cf	0.28764197
145	0xbe8bc26e	-0.27296776
146	0xbd381bf1	-0.044948522
147	0x3e5add09	0.2137338
148	0xbe9539ea	-0.29145747
149	0x3e2e4018	0.17016637
150	0xbe3740b2	-0.17895773
151	0xbeec2789	-0.46123913
152	0xbe96ca76	-0.2945134
153	0xbd98daac	-0.07463583
154	0x3e8d7ca1	0.27634147
155	0xbd6fc2e8	-0.058535486
156	0x3e8eadc7	0.27866957
157	0x3e0cd6e6	0.13753852
158	0x3ed3ab15	0.41341463
159	0xbed2adaf	-0.41148135
160	0x3e50b89a	0.2038292
161	0xbe557a55	-0.20847447
162	0x3e7199cc	0.23593825
163	0x3ab6f42e	0.0013958269
164	0x3e806e62	0.25084215
165	0xbe1f01c4	-0.15528017
166	0x3e0cada8	0.1373812
167	0x3e9ec2c7	0.31007978
168	0xbe1fbc63	-0.15599208
169	0x3ebc0318	0.3672111
170	0x3dc9b74e	0.09849416
171	0x3e6cb070	0.2311418
172	0xbec9f7fb	-0.39447007
173	0xbeff4322	-0.49855906
174	0x3e7262e9	0.23670544
175	0x3ea15b33	0.31514892
176	0x3bb33dfb	0.005470035
177	0xbe8db9d8	-0.2768085
178	0xbe46db89	-0.19419684
179	0xbedf892e	-0.43659347
180	0x3e811f9b	0.25219426
181	0xbc2c938a	-0.010533223
182	0xbe052812	-0.13003567
183	0xbebe8787	-0.37212774
184	0x3e4580d9	0.19287433
185	0xbba2e927	-0.0049716416
186	0x3d9b0aba	0.07570405
187	0x3eb4a71f	0.35283753
188	0x3ea88ace	0.329184
189	0x3e1d2fb2	0.15350226
190	0xbe24c547	-0.1609088
191	0x3e2f7db0	0.1713779
192	0xbe0f6c55	-0.14006169
193	0xbdee8bc4	-0.11647752
194	0x3eee77a8	0.46575665
195	0xbd04a22d	-0.032381225
196	0x3ed1ae11	0.40953115
197	0x3eae959d	0.3409852
198	0x3e04405c	0.12915176
199	0xbf09d2ef	-0.53837484
200	0xbf284fa3	-0.65746516
201	0xbead18d9	-0.3380802
202	0xbdc2ca36	-0.09511225
203	0xbeb5135a	-0.35366327
204	0x3d3f362d	0.046682525
205	0xbe531df5	-0.20616896
206	0xbd86d75c	-0.06584045
207	0x3dce3516	0.10068719
208	0xbed61674	-0.41814005
209	0xbe0854da	-0.13313618
210	0xbee00d4f	-0.43760154
211	0xbe629f29	-0.22131027
212	0xbed7c005	-0.42138687
213	0xbebce789	-0.36895397
214	0xbdf37c28	-0.11888915
215	0xbea19217	-0.3155677
216	0x3f0d8f47	0.5529675
217	0x3eb95c4f	0.36203238
218	0xbe89ca8d	-0.26912346
219	0x3ebd7f40	0.37011147
220	0xbe35a9d9	-0.17740573
221	0xbe9e7ab5	-0.30952993
222	0x3e2e5778	0.17025554
223	0x3e8f78d9	0.28021887
224	0xbe4dff58	-0.20116937
225	0x3d2a72a3	0.041613232
226	0x3ec0a30d	0.37624398
227	0xbdfe854d	-0.12427769
228	0xbdee36b9	-0.11631531
229	0x3eca2c0b	0.39486727
230	0xbe95dfd2	-0.29272324
231	0xbd7f06c6	-0.06226232
232	0x3e65c4c6	0.22438344
233	0xbd978414	-0.07398239
234	0x3e11c658	0.14235818
235	0x3e9dd815	0.3082892
236	0xbdc1e9d2	-0.09468426
237	0xbe8f962d	-0.28044263
238	0x3d4ee8a9	0.05051485
239	0x3e4f3982	0.20236781
240	0xbf45a0d2	-0.7719852
241	0xbe458eb6	-0.19292721
242	0xbd80c492	-0.06287493
243	0xbde3fd0e	-0.11132251
244	0xbea48983	-0.32136163
245	0x3e54340a	0.20722976
246	0x3c9828d2	0.018574152
247	0x3d865949	0.065599985
248	0x3ecf2e9a	0.40465242
249	0xbe1ae09d	-0.15124746
250	0x3e826c93	0.2547346
251	0xbe92f681	-0.28703693
252	0xbd0aad4d	-0.03385668
253	0xbe0eeca6	-0.13957462
254	0xbe9e21f6	-0.30885285
255	0x3dfb0e30	0.122585654

gconvs.5.combination_weights f4 [4, 3]
0	0x3ec9ef89	0.39440563
1	0x3edab270	0.42714262
2	0x3ecfb178	0.40565085
3	0x3eca19c4	0.39472783
4	0x3edb5fc2	0.42846495
5	0x3ed006ad	0.40630093
6	0x3ec9947b	0.39371094
7	0x3edb1a11	0.42793325
8	0x3ed02f9c	0.40661323
9	0x3ec9c6b4	0.3940941
10	0x3edaef7e	0.42760843
11	0x3ecfa204	0.40553296

gconvs.5.weight f4 [3, 6, 6, 4, 3, 3]
0	0x3ead7055	0.33874765
1	0xbee0ca10	-0.4390416
2	0xbea51877	-0.32245228
3	0xbec9e4fa	-0.39432508
4	0xbea3a5a8	-0.31962323
5	0xbe7ebf6d	-0.2487771
6	0x3ebfb504	0.3744279
7	0x3e8baf07	0.27281973
8	0x3eb52f24	0.35387528
9	0x3e373444	0.17891032
10	0xbeb89218	-0.3604896
11	0x3dbf636b	0.09345134
12	0x3e780079	0.2421893
13	0x3dd02c35	0.10164682
14	0xbe2ed4a5	-0.17073305
15	0x3ec52acd	0.38509217
16	0x3caeee95	0.021354
17	0x3e7bd31d	0.24592252
18	0x3d76cdee	0.060254984
19	0x3e2614a9	0.16218819
20	0x3e02029f	0.12696312
21	0x3e7c47a9	0.24636711
22	0xbd53bcc6	-0.0516937
23	0x3ef09dd6	0.4699542
24	0x3ef5c0c6	0.47998637
25	0xbe2cba94	-0.16868049
26	0x3d43c98d	0.047799636
27	0x3e84fe19	0.2597511
28	0xbe9343b4	-0.2876259
29	0xbe865ad8	-0.26241183
30	0x3ed5031d	0.41603938
31	0xbe4d487d	-0.20047183
32	0x3ea5e719	0.32402876
33	0x3ed60ea6	0.4180805
34	0x3f000829	0.5001245
35	0x3d23645d	0.039890636
36	0xbe5ad79b	-0.2137131
37	0xbee310f1	-0.44348863
38	0xbf0bb520	-0.5457325
39	0x3e463ca0	0.19359064
40	0x3e05e691	0.13076235
41	0x3ded02c6	0.115727946
42	0x3e062087	0.13098346
43	0x3e3991b2	0.18121985
44	0xbe872883	-0.26398095
45	0x3f0836ac	0.5320842
46	0x3ee5b333	0.4486328
47	0x3e00fdce	0.12596819
48	0xbe839ddb	-0.25706372
49	0xbc0ab92a	-0.008466998
50	0xbe1b3edf	-0.15160702
51	0x3e8b1a60	0.2716856
52	0xbe7fd98b	-0.2498533
53	0xbc732216	-0.01483967
54	0x3eec4730	0.46148062
55	0xbe74338d	-0.2384779
56	0x3e441446	0.19148359
57	0xbcc1361f	-0.023585377
58	0xbdebe65d	-0.11518548
59	0x3ecb2b56	0.396815
60	0x3efa631c	0.4890374
61	0xbcf1e216	-0.029526751
62	0x3e99cbe8	0.3003838
63	0xbc869a6f	-0.016431062
64	0xbe99b2a9	-0.3001912
65	0xbecebf74	-0.40380442
66	0x3e8a6381	0.2702904
67	0x3e613f13	0.21996717
68	0xbd828d9a	-0.063746646
69	0x3f9fc2f2	1.2481368
70	0x3f16e733	0.5894653
71	0x3ea04c32	0.31308132
72	0x3def2406	0.11676793
73	0xbe89cf7a	-0.26916105
74	0x3e832b80	0.25619125
75	0x3e8dacf4	0.27671015
76	0x3e9cf7ad	0.30657712
77	0xbe27b859	-0.16378917
78	0xbd60bb74	-0.05486627
79	0xbe5ea60c	-0.2174303
80	0xbdea7607	-0.11448293
81	0x3ddaf403	0.10691073
82	0x3dab68a3	0.08369567
83	0x3e7b6977	0.2455195
84	0x3e031728	0.12801802
85	0x3e9c5358	0.30532336
86	0xbd7236c8	-0.059134275
87	0x3c5d81c3	0.013519707
88	0x3ea572ae	0.32314056
89	0x3e7584a8	0.23976386
90	0x3ea17ba1	0.31539634
91	0x3d90b384	0.0706549
92	0xbe5b0edf	-0.21392392
93	0x3ea47d3b	0.32126793
94	0xbe6aef43	-0.22942834
95	0x3e4b6e64	0.1986633
96	0x3deb841c	0.11499807
97	0x3ec16b6b	0.37777266
98	0x3e59d2fb	0.21271889
99	0x3ef9e010	0.4880376
100	0x3edd6a3f	0.43245122
101	0xbc5d916c	-0.013523441
102	0x3e8acc5c	0.2710904
103	0xbee690c4	-0.45032322
104	0xbd23a8b4	-0.03995581
105	0xbe9f4c51	-0.31112912
106	0xbd178806	-0.036994956
107	0xbe9b140d	-0.30288735
108	0xbf8bcb68	-1.092145
109	0xbf3790af	-0.71705145
110	0xbe80b03f	-0.25134465
111	0xbe9faff7	-0.31188938
112	0xbe7509ef	-0.2392957
113	0xbed9440a	-0.42434722
114	0xbec379e4	-0.38178933
115	0x3f0202a9	0.5078531
116	0x3e5c17c8	0.21493447
117	0x3f1968aa	0.5992533
118	0x3dfdb0fb	0.12387272
119	0xbe94b537	-0.29044506
120	0x3daf1646	0.0854917
121	0xbe74413b	-0.23853008
122	0xbf151e5d	-0.58249456
123	0x3ed75a22	0.42060953
124	0xbf07a10a	-0.529801
125	0xbf101042	-0.5627481
126	0xbe8e53c6	-0.2779829
127	0x3d384314	0.044985846
128	0x3ce1a4d7	0.027544422
129	0xbf0c2a29	-0.5475183
130	0xbee39a26	-0.44453543
131	0xbdfbb629	-0.12290604
132	0xbf8e2095	-1.1103693
133	0xbecd83f6	-0.4013974
134	0xbf024cc5	-0.5089839
135	0xbf09dd36	-0.53853166
136	0xbde4479b	-0.1114647
137	0x3ebfe353	0.37478122
138	0xbdadd429	-0.08487732
139	0x3b3e0dde	0.0028999965
140	0xbe94306d	-0.28943196
141	0xbee8edb4	-0.45493853
142	0xbea95f6d	-0.33080617
143	0x3d1751fa	0.036943413
144	0xbdf9fc36	-0.122063085
145	0xbe0faa0c	-0.14029711
146	0x3d13b1b7	0.036058154
147	0x3ca88ee4	0.020575948
148	0x3df3385a	0.118759826
149	0xbeea3afc	-0.45748127
150	0xbe49b893	-0.19699316
151	0xbc6783c9	-0.014130541
152	0xbe69906f	-0.22809003
153	0xbdca50bd	-0.09878681
154	0xbf2a53ee	-0.66534317
155	0x3cfbe9f7	0.030751212
156	0xbe072af9	-0.13199987
157	0x3e6a10d5	0.22857983
158	0xbe6f4dc9	-0.23369516
159	0x3e8c5469	0.2740815
160	0xbd0008ae	-0.031258278
161	0xbe98b2dc	-0.2982396
162	0x3ddc7b4a	0.10765703
163	0xbd903f4c	-0.07043323
164	0xbf226802	-0.63439953
165	0xbec4f161	-0.38465407
166	0xbe949504	-0.2901994
167	0xbec73002	-0.38903815
168	0x3d880d40	0.06643152
169	0xbeec215a	-0.46119195
170	0xbf40acc3	-0.75263613
171	0x3e6256ca	0.2210342
172	0xbe841c47	-0.25802824
173	0x3d721c60	0.05910909
174	0xbe71fab8	-0.23630798
175	0xbece2b0d	-0.4026722
176	0x3e356f6e	0.17718288
177	0xbeaa0d3f	-0.3321323
178	0xbe25c187	-0.16187106
179	0x3c60a947	0.013712234
180	0x3ee949b7	0.45564052
181	0x3d9d98bf	0.0769515
182	0x3ef282e1	0.47365478
183	0x3e8c83f7	0.2744443
184	0xbe7c2359	-0.24622859
185	0x3ee9938a	0.45620376
186	0x3e2ac99d	0.16678472
187	0xbac15afa	-0.0014751845
188	0x3e18a69f	0.14907311
189	0x3eb1207f	0.34595105
190	0xbcba4790	-0.022739202
191	0x3ddb3cc0	0.107049465
192	0x3e923b2f	0.28560778
193	0x3dcab93a	0.098986104
194	0x3f00f0c0	0.50367355
195	0x3ef257ec	0.47332704
196	0x3e6e305b	0.23260634
197	0x3f548fb3	0.8303177
198	0xbec02839	-0.37530687
199	0xbed769cd	-0.42072907
200	0xbcd8b858	-0.02645509
201	0xbdead499	-0.11466331
202	0x3e6b972c	0.23006886
203	0x3dad6fa8	0.08468562
204	0xbc285c48	-0.010275908
205	0x3f1ced78	0.6129985
206	0x3e5449f4	0.20731336
207	0xbdf31bb4	-0.11870518
208	0xbf30ea4f	-0.69107527
209	0xbeb53491	-0.35391667
210	0x3ec0e30f	0.37673232
211	0xbea76ace	-0.32698673
212	0xbeadeea9	-0.33971146
213	0x3e0d6688	0.13808644
214	0xbee29019	-0.44250563
215	0xbe24eec2	-0.16106704
216	0xbe90de69	-0.28294685
217	0x3e1ec6ed	0.15505572
218	0xbd9fa17a	-0.07794471
219	0x3e1af85d	0.15133806
220	0xbd854e48	-0.065090716
221	0xbe4efd49	-0.20213808
222	0xbe8eb991	-0.2787595
223	0xbf1061f5	-0.5639947
224	0x3b946a99	0.004529309
225	0x3d8dff68	0.069334805
226	0x3ed7079a	0.41997987
227	0x3d82a3e0	0.06378913
228	0xbe529d68	-0.20567858
229	0x3ed59b45	0.41720024
230	0x3e1cda0f	0.15317558
231	0xbeb7ec4c	-0.35922468
232	0x3ea4f3d1	0.32217267
233	0x3ea1aaf9	0.31575754
234	0xbefa6ea6	-0.48912543
235	0xbeec9396	-0.4620635
236	0xbf084efb	-0.53245515
237	0xbe360d50	-0.17778516
238	0xbd836407	-0.06415563
239	0xbdc1a91b	-0.094560824
240	0xbe9ea26c	-0.30983293
241	0x3f20ab6a	0.6276156
242	0x3e2ef0e0	0.17084074
243	0x3e64be14	0.22338134
244	0xbe100c12	-0.14067104
245	0xbe10523f	-0.14093874
246	0xbdbb9ac5	-0.09160379
247	0x3de2c904	0.11073497
248	0xbe345fe5	-0.17614706
249	0x3eb2bbdf	0.3490896
250	0x3d853ddd	0.0650594
251	0xbd022ae1	-0.031779174
252	0xbe99709f	-0.29968736
253	0xbedbabef	-0.42904612
254	0xbf01a6ce	-0.5064515
255	0xbeda7652	-0.42668396

final_layer.combination_weights f4 [4, 3]
0	0x3eb6f09e	0.3573045
1	0x3eeb52e3	0.45961675
2	0x3edb8bc3	0.42880067
3	0x3eb7156d	0.35758534
4	0x3eeb4def	0.45957896
5	0x3edbbf55	0.42919412
6	0x3eb72f19	0.3577812
7	0x3eeb63bc	0.4597453
8	0x3edbd5b0	0.42936468
9	0x3eb6e2bd	0.35719863
10	0x3eeb3548	0.45939088
11	0x3edbcd22	0.4292994
