runs/P4CNN_aniso_std0.1_gamma2_lr0.002/model.pt (torch, 105509 bytes, 10 tensors)

lifting_conv.weight f4 [10, 1, 3, 3]
0	0x3e268efe	0.16265485
1	0xbe897e59	-0.26854208
2	0xbeab1e72	-0.33421665
3	0x3e1e4168	0.15454638
4	0x3e1f917d	0.15582843
5	0x3dfd6fd3	0.123748444
6	0xbd67c275	-0.056581933
7	0x3d5d9599	0.054097746
8	0xbe0a3dd5	-0.1350015
9	0x3e70aaa7	0.23502599
10	0x3db42fc9	0.08798177
11	0xbeb31a3a	-0.34980947
12	0x3cd10ffd	0.02552032
13	0xbe3ed2b6	-0.18635067
14	0xbe4b2058	-0.19836557
15	0x3e9d59ff	0.30732724
16	0xbd5c4a47	-0.053781774
17	0xbe11ec50	-0.14250302
18	0x3d32e024	0.04367079
19	0x3d518f8e	0.051162295
20	0xbf002849	-0.5006147
21	0x3dd62701	0.10456658
22	0x3e986ee0	0.2977209
23	0xbe685d9c	-0.22691959
24	0xbe6ea9f8	-0.23307025
25	0x3eea2ae2	0.45735842
26	0xbf3c25b1	-0.7349501
27	0x3d5520de	0.052033298
28	0x3e06db61	0.13169624
29	0xbe2b05a1	-0.16701366
30	0x3de33ef0	0.11095989
31	0x3e1fbaf5	0.15598662
32	0xbd754ae1	-0.059885863
33	0xbe8ac131	-0.27100518
34	0x3ddde228	0.108341515
35	0xbdf321f0	-0.118717074
36	0xbd6dbb19	-0.05803976
37	0xbe50797e	-0.20358846
38	0xbdee8f9f	-0.11648487
39	0xbd8907f9	-0.06690974
40	0xbd236967	-0.03989544
41	0x3e87e638	0.2654283
42	0xbe78eed0	-0.2430985
43	0x3e06f903	0.13180928
44	0x3f2e2913	0.68031424
45	0x3dc542ae	0.09631859
46	0x3e59f663	0.21285395
47	0x3e831d09	0.2560809
48	0xbdeb211c	-0.114809245
49	0xbc9ccc58	-0.019140407
50	0xbe1197fc	-0.14218134
51	0xbf00748a	-0.50177824
52	0xbd8553c9	-0.065101214
53	0x3e129916	0.1431621
54	0xbe9ff6cc	-0.3124298
55	0xbe95fc01	-0.29293826
56	0x3eac8ca5	0.33701053
57	0x3c2b4db4	0.010455538
58	0x3e8f2861	0.27960494
59	0x3e0bc111	0.13647868
60	0xbdb19be0	-0.08672309
61	0xbd9ea371	-0.07746018
62	0xbed7e3b5	-0.42165914
63	0xbe13efc2	-0.14446929
64	0x3ea92390	0.33034945
65	0xbe7f67fe	-0.24942014
66	0xbec7c96f	-0.3902087
67	0xbd0059d9	-0.031335685
68	0xbe1f77df	-0.15573071
69	0x3e4db25c	0.2008757
70	0x3e5b3a4d	0.21408959
71	0x3e657750	0.22408795
72	0x3dfc0304	0.12305263
73	0xbb3394de	-0.0027401964
74	0xbeb3539c	-0.35024726
75	0x3d6eca2c	0.058298275
76	0x3ddcc44b	0.107796274
77	0xbe6bfdd9	-0.23046054
78	0xbddb2aff	-0.1070156
79	0xbd4e68b9	-0.05039284
80	0x3e882fe8	0.2659905
81	0xbea8356d	-0.3285326
82	0x3dcad78a	0.09904392
83	0x3ec99437	0.3937089
84	0xbf10803d	-0.56445676
85	0x3ebecd7c	0.37266147
86	0xbe07cb09	-0.13261046
87	0x3d00d8de	0.03145682
88	0xbef1aa0a	-0.47200042
89	0xbef91eac	-0.48656213

gconvs.0.weight f4 [10, 10, 4, 3, 3]
0	0x3d3189f6	0.04334446
1	0xbc47c043	-0.012191835
2	0xbd15aed2	-0.036543675
3	0x3e1d7dee	0.1538007
4	0xbe0f3805	-0.13986214
5	0xbdb45a09	-0.08806235
6	0xbcfee126	-0.031113219
7	0xbe0aa995	-0.13541253
8	0xbe871eba	-0.2639063
9	0x3db9ad7f	0.09066295
10	0xbda57b1a	-0.080801204
11	0xbc38d19f	-0.011280446
12	0x3e5430be	0.20721719
13	0xbc860064	-0.016357608
14	0xbd735119	-0.059403513
15	0x3e6ce12f	0.23132776
16	0xbde80ab3	-0.11330166
17	0xbe2ad7a8	-0.16683829
18	0xbc3dce5a	-0.011584843
19	0x3cf6901c	0.030098014
20	0xbd2d798b	-0.04235224
21	0x3ca97b67	0.020688726
22	0x3d01d6ac	0.031698868
23	0x3bafa072	0.0053597027
24	0xbe55b858	-0.20871103
25	0xbde32ac0	-0.11092138
26	0x3da71973	0.08159151
27	0x3d4947b2	0.04914064
28	0xbd901f81	-0.07037259
29	0xbc9c492a	-0.019077856
30	0x3df0fbde	0.1176679
31	0xbd9310ee	-0.071809635
32	0x3db893a3	0.090125345
33	0x3d8025c6	0.06257205
34	0xbe212e39	-0.15740289
35	0x3e2a14ae	0.16609451
36	0x3e31e843	0.17373757
37	0x3dd063f2	0.10175313
38	0x3e52dac4	0.20591265
39	0x3dba7581	0.09104443
40	0x3daa362b	0.08311113
41	0x3d0c5865	0.034263987
42	0x3c80a1be	0.015702125
43	0xbd589159	-0.05287299
44	0xbe289847	-0.16464339
45	0x3dcc893b	0.09987112
46	0xbd8e92fd	-0.069616295
47	0xbefe3fb4	-0.49657977
48	0x3a5dfd18	0.0008468195
49	0x3e2a1c47	0.1661235
50	0xbe99d400	-0.30044556
51	0x3de0278b	0.10945042
52	0x3d1dd0bc	0.038529143
53	0xbe24d0a2	-0.16095212
54	0x3e052ae3	0.13004641
55	0x3dd50fd7	0.10403412
56	0xbd8191b8	-0.06326622
57	0xbd4c22a8	-0.04983774
58	0x3dd264e7	0.10273152
59	0xbd4d6577	-0.050145593
60	0xbd96e85f	-0.0736854
61	0x3dc20c56	0.09475009
62	0x3e04bc38	0.12962425
63	0xbe085516	-0.13313708
64	0xbc17aea8	-0.00925795
65	0xbe196926	-0.14981517
66	0x3d6d29ee	0.057901315
67	0x3e0f3635	0.13985522
68	0xbe83524c	-0.25648725
69	0xbe8a2877	-0.26983997
70	0xbe95ff99	-0.29296568
71	0xbeb90e0d	-0.36143532
72	0x3db13482	0.08652593
73	0x3e4a2c2b	0.19743411
74	0x3eee5a38	0.46553206
75	0xbe477957	-0.19479881
76	0x3e27598e	0.16342756
77	0x3eebcbd9	0.4605396
78	0xbea8ac1d	-0.32943812
79	0x3da6dff4	0.081481844
80	0x3ecdf7ab	0.40228018
81	0xbcf69556	-0.030100506
82	0xbe324fcd	-0.17413254
83	0xbef7bfaa	-0.48388416
84	0x3cea679b	0.028613856
85	0x3d52693c	0.05136989
86	0xbe0b6989	-0.13614477
87	0xbe5c0b59	-0.21488704
88	0xbdc30b60	-0.09523654
89	0xbeefecd3	-0.4686037
90	0xbeab51ba	-0.3346079
91	0xbd04ec6b	-0.03245203
92	0x3e35a31c	0.17738003
93	0x3d3909f9	0.045175526
94	0x3e042818	0.1290592
95	0x3db9b1b0	0.09067094
96	0x3dcf5f2c	0.101255745
97	0x3c6cc26d	0.014450652
98	0xbd88eb69	-0.06685526
99	0xbe791a26	-0.24326381
100	0xbe23717b	-0.15961258
101	0xbe48014f	-0.19531749
102	0xbed96022	-0.42456156
103	0xbe98e034	-0.29858553
104	0xbf266ad0	-0.6500673
105	0x3e45f806	0.19332895
106	0xbcf021d5	-0.029313007
107	0xbdf37bbf	-0.11888837
108	0x3dd68158	0.10473889
109	0x3be548c2	0.006997199
110	0x3df5930e	0.11990939
111	0xbc2607e4	-0.010133717
112	0xbd1d865c	-0.038458213
113	0x3dad9e9c	0.08477518
114	0xbd160be4	-0.036632434
115	0xbe429ace	-0.19004366
116	0x3cd64843	0.026157504
117	0xbd101a66	-0.035181426
118	0x3cf9218f	0.03041151
119	0x3baf593c	0.0053512137
120	0x3e2b00a0	0.16699457
121	0x3d0e0cf4	0.03468032
122	0x3d124cfa	0.03571794
123	0xbc99449a	-0.01870947
124	0xbe1a9545	-0.15096004
125	0x3dccbee1	0.09997345
126	0xbd4fd989	-0.050744567
127	0xbcb6fcb6	-0.022337299
128	0x3d43c4e6	0.0477952
129	0x3c195fe5	0.009361242
130	0xbd4809bf	-0.04883742
131	0xbd26e7cc	-0.040748402
132	0xbe6ee3c1	-0.23329069
133	0xbd67d986	-0.05660393
134	0x3dec1d9e	0.115290865
135	0x3d951d52	0.07280983
136	0xbd9b499d	-0.075824
137	0xbddd9890	-0.108201146
138	0x3e7c4876	0.24637017
139	0xbe8e4a73	-0.27791175
140	0xbe120e15	-0.14263184
141	0xbb86716c	-0.0041028764
142	0xbeab2b33	-0.33431396
143	0xbdd0352d	-0.101663925
144	0xbdc21778	-0.094771326
145	0x3c90d080	0.017677546
146	0xbe10521b	-0.14093821
147	0xbebddf01	-0.370842
148	0x3cf41864	0.029796787
149	0x3e3e0cfd	0.18559642
150	0xbe927bcb	-0.28610072
151	0x3bd4e11f	0.006496563
152	0x3db1b7ef	0.08677661
153	0xbb8da4ce	-0.0043226248
154	0x3c869652	0.0164291
155	0xbd86f345	-0.06589369
156	0x3de21994	0.11040035
157	0xbcd09a89	-0.025464313
158	0xbf079515	-0.52961856
159	0x3c7d4e63	0.015460583
160	0xbf08742e	-0.53302276
161	0xbe9b0d00	-0.30283356
162	0x3dd66fad	0.10470519
163	0x3e1195f1	0.14217354
164	0x3e79a9a9	0.24381126
165	0x3e66956e	0.2251794
166	0x3d3e19f5	0.046411473
167	0xbcde87a6	-0.027164292
168	0x3ea2da15	0.31807008
169	0x3d5a7e02	0.053342827
170	0xbe88fe5d	-0.26756564
171	0x3d09d72a	0.033652462
172	0x3e03cbef	0.12870763
173	0xbe9901ef	-0.29884288
174	0x3ccda138	0.02510129
175	0x3e803df6	0.25047272
176	0xbda16572	-0.07880677
177	0xbe31774b	-0.17330663
178	0x3dc52f5f	0.09628176
179	0xbcbdb93f	-0.023159621
180	0xbdb6df14	-0.089292675
181	0x3d606841	0.054786924
182	0xbe575fc1	-0.21032621
183	0xbdc2e953	-0.09517159
184	0x3d2998c5	0.041405458
185	0x3d052f2c	0.03251569
186	0xbdba77aa	-0.09104855
187	0xbd19fe57	-0.037596073
188	0x3c2fe71a	0.010736251
189	0xbe0d9c6b	-0.138292
190	0xbc9c14b6	-0.019052844
191	0xbd599579	-0.053121064
192	0xbde83a72	-0.113392726
193	0x3e1a126f	0.15046094
194	0x3d8c7ea4	0.06860092
195	0x3d4fd154	0.05073674
196	0xbdc74cf0	-0.097314715
197	0x3d8b38ff	0.067979805
198	0xbd32ae80	-0.043623447
199	0xbe6e41e1	-0.23267318
200	0xbe6f72f3	-0.23383693
201	0x3db23c5b	0.08702918
202	0xbd788a06	-0.060678504
203	0xbdf61180	-0.120150566
204	0xbed323dd	-0.412383
205	0xbea178d0	-0.31537485
206	0xbe95ae3a	-0.29234487
207	0x3d2adf4f	0.04171687
208	0xbc111dc8	-0.008857198
209	0xbcd62985	-0.026142845
210	0x3e6432aa	0.22284952
211	0x3e2b9ce4	0.16759068
212	0xbd036086	-0.032074474
213	0x3e77fe56	0.24218115
214	0x3d5b89a1	0.05359805
215	0xbe76e0dd	-0.24109216
216	0xbc911aeb	-0.01771303
217	0xbe1bb974	-0.15207464
218	0xbec2f337	-0.38076183
219	0x3dd48186	0.10376267
220	0x3d86c5f1	0.06580723
221	0xbdaee993	-0.085406445
222	0xbe16c8ae	-0.1472499
223	0x3e025a96	0.12729868
224	0x3d3e5a8b	0.046473067
225	0xbe7ad70a	-0.24496093
226	0xbe08e3da	-0.13368168
227	0xbd7fc6d5	-0.06244548
228	0xbd41c57e	-0.047307484
229	0xbe152e4e	-0.14568445
230	0x3d9101bf	0.07080411
231	0xbede323e	-0.43397707
232	0xbdbdc5c7	-0.09266239
233	0xbcb3b247	-0.021935595
234	0xbd91f238	-0.07126278
235	0xbe947828	-0.28997922
236	0x3bb18b07	0.0054181847
237	0x3d84636d	0.064642765
238	0xbda2f71c	-0.079572886
239	0xbe6d9908	-0.23202908
240	0x3e86a07f	0.26294324
241	0xbeb631ec	-0.35584962
242	0xbceaea33	-0.028676128
243	0xbe628e06	-0.2212449
244	0x3c62f5f0	0.013852581
245	0x3e06feda	0.13183156
246	0xbe62b055	-0.22137578
247	0x3d75c6c2	0.060004003
248	0x3e5ae349	0.21375765
249	0xbd63ef94	-0.0556484
250	0x3d6a9e87	0.05728009
251	0x3d1dfa13	0.038568567
252	0xbd7a340c	-0.061084792
253	0xbe88567e	-0.26628488
254	0xbd91866b	-0.07105716
255	0x3e2c8c3b	0.16850369

gconvs.1.weight f4 [10, 10, 4, 3, 3]
0	0x3e22c136	0.15894017
1	0x3e2a5ea4	0.16637665
2	0x3e4521d6	0.19251189
3	0xbda41fd0	-0.0801388
4	0xbe5896d0	-0.2115128
5	0xbd3cbfff	-0.04608154
6	0xbe52a0f8	-0.20569217
7	0x3d077f76	0.03308054
8	0x3e1088b0	0.14114642
9	0xbe58d99b	-0.2117676
10	0x3df99368	0.12186319
11	0x3d2e236b	0.042514246
12	0xbe63c9de	-0.22244975
13	0x3cfc95f5	0.030833224
14	0xbcdf7d1c	-0.027281336
15	0xbcd373a8	-0.025811985
16	0x3ea0bc4b	0.31393656
17	0x3d78b167	0.06071606
18	0xbd70a200	-0.058748245
19	0x3cb22235	0.021744827
20	0x3d046ed9	0.032332275
21	0x3dc01fca	0.09381063
22	0xbdaa4b4f	-0.08315145
23	0xbe014dc4	-0.12627321
24	0xbdbf106b	-0.09329303
25	0xbe43a6cc	-0.19106597
26	0xbedcf8ec	-0.43158662
27	0x3e4cb1b8	0.1998967
28	0x3d9b3b93	0.07579722
29	0x3d9c349f	0.07627224
30	0x3c8c7a1f	0.017148076
31	0x3e133451	0.14375426
32	0xbe07654c	-0.13222235
33	0xbeca63f7	-0.39529392
34	0x3d558168	0.052125365
35	0x3e03516f	0.12824033
36	0xbf242174	-0.64113545
37	0xbe86f3c9	-0.26357868
38	0x3d16307b	0.03666733
39	0x3d701eae	0.05862301
40	0x3e31986a	0.17343298
41	0x3d774c3f	0.06037545
42	0xbd8b375b	-0.067976676
43	0xbe42829b	-0.18995135
44	0xbdef07b9	-0.11671395
45	0xbdcdcc39	-0.10048718
46	0xbe032d63	-0.12810282
47	0x3d78b993	0.060723852
48	0x3cd49a3c	0.02595245
49	0xbe9a7655	-0.30168405
50	0xbe169dbf	-0.14708613
51	0xbe48a734	-0.19595033
52	0xbea1652d	-0.31522503
53	0x3cf57a9a	0.029965688
54	0x3ce14a1e	0.027501162
55	0x3d87499d	0.066058375
56	0xbe454fe4	-0.19268757
57	0x3dec500a	0.11538704
58	0x3da130a1	0.07870603
59	0xbd99ffb8	-0.075194776
60	0x3e5064f6	0.20351014
61	0xbd7e28b3	-0.062050533
62	0xbd12a726	-0.035803936
63	0xbf270469	-0.65241104
64	0xbe0f3391	-0.13984515
65	0x3dd8fb86	0.10594849
66	0xbea54770	-0.32281065
67	0x3e94de92	0.29076058
68	0x3e3c90c7	0.18414603
69	0xbe60f4d3	-0.21968393
70	0x3d384cd0	0.04499513
71	0xbd9ef10b	-0.07760819
72	0xbf1d140d	-0.6135872
73	0xbdd5472a	-0.10413964
74	0x3dc87bf5	0.09789268
75	0x3b02fc31	0.0019986744
76	0x3e21f66f	0.15816663
77	0x3e40f456	0.18843207
78	0x3dcdb57c	0.10044381
79	0xbc59e28a	-0.01329864
80	0xbe484ccd	-0.19560547
81	0x3d3cd067	0.046097185
82	0xbdaadde5	-0.08343104
83	0xbd07482d	-0.033027817
84	0x3caee31e	0.021348532
85	0xbe615bdd	-0.220077
86	0xbea15cce	-0.31516117
87	0xbad93673	-0.0016572013
88	0xbe20314f	-0.1564381
89	0xbeb72e21	-0.3577738
90	0x3d4fba80	0.05071497
91	0xbea2b3f4	-0.31777918
92	0xbf1376d4	-0.5760319
93	0xbe0f9157	-0.14020287
94	0xbdb9b1ec	-0.09067139
95	0xbe6dc57d	-0.23219867
96	0xbe485b2a	-0.19566026
97	0xbe68086f	-0.22659467
98	0xbe1d21d2	-0.15344933
99	0xbd6a0a5e	-0.057138793
100	0xbd188cfb	-0.037243824
101	0xbeb10b22	-0.34578806
102	0x3e25868c	0.16164607
103	0x3d51aff9	0.05119321
104	0xbe82e4da	-0.25565225
105	0x3c8b5ac9	0.017011063
106	0xbe8ab045	-0.27087608
107	0xbe322835	-0.1739815
108	0xbeef9bbd	-0.46798506
109	0xbf01d550	-0.50716114
110	0xbe9a9a7c	-0.30195987
111	0xbde6b403	-0.11264803
112	0xba0fc8f4	-0.00054849614
113	0xbcf00af3	-0.029302096
114	0x3def1e2c	0.11675677
115	0x3d49fe7a	0.049314953
116	0x3df3decb	0.11907729
117	0x3da5d0b8	0.080964506
118	0xbd857dba	-0.06518121
119	0xbe533a23	-0.20627646
120	0x3ca4c67c	0.020114176
121	0xbe36bcfc	-0.1784553
122	0xbc00e85a	-0.007867897
123	0xbd597766	-0.053092383
124	0x3c7baa36	0.015360406
125	0x3d2ca101	0.042145733
126	0xbeefe3c2	-0.46853453
127	0xbea87b85	-0.32906738
128	0x3e252f87	0.16131411
129	0xbd34109e	-0.04396116
130	0x3cbc1d44	0.022963174
131	0x3e04c796	0.12966761
132	0xbcca7b38	-0.024716958
133	0x3e183e8e	0.14867613
134	0x3c36eac9	0.011164376
135	0x3b6d66e1	0.003622465
136	0xbdfc9c21	-0.12334467
137	0xbe05a03f	-0.1304941
138	0x3e15ac27	0.14616452
139	0x3e5883c0	0.21144009
140	0x3d1a9b80	0.037745953
141	0x3cb648ce	0.022251513
142	0x3e4790fd	0.19488902
143	0x3e8ad466	0.27115172
144	0xbf7c38f0	-0.9852438
145	0xbd274ecb	-0.040846627
146	0x3c9f95df	0.019480644
147	0xbe3a1c62	-0.1817489
148	0x3d8b0458	0.06787938
149	0x3daf694d	0.085650064
150	0xbec69224	-0.3878337
151	0xbd56abf1	-0.05241007
152	0x3d1585e1	0.03650463
153	0xbdbd6c71	-0.09249199
154	0x3c388a00	0.0112633705
155	0xbeee4c8a	-0.4654277
156	0xbe87474c	-0.26421583
157	0xbf05b3d2	-0.5222751
158	0xbe4f169e	-0.20223472
159	0x3c5c43b6	0.013443878
160	0x3d3ad7a5	0.04561581
161	0x3e995334	0.2994629
162	0x3cca295a	0.024677921
163	0xbebc14eb	-0.3673471
164	0xbe617cde	-0.2202029
165	0xbe6a79f0	-0.22898078
166	0xb9e0f1aa	-0.00042904663
167	0x3e2a7139	0.16644754
168	0x3e08a0d6	0.13342604
169	0xbcc6bc2d	-0.024259651
170	0xbea6d4b5	-0.32584158
171	0xbe4b719d	-0.19867559
172	0xbe0fc521	-0.14040042
173	0xbd349fb2	-0.04409761
174	0xbda6f741	-0.08152629
175	0xbb55b031	-0.003260624
176	0x3e3c3a24	0.18381554
177	0x3e6942e6	0.22779426
178	0xbd412d67	-0.04716244
179	0x3d946d78	0.07247442
180	0x3e8b1419	0.2716377
181	0x3e5c7515	0.21529038
182	0x3dde9009	0.10867316
183	0x3e1c33b4	0.15254098
184	0x3cb6daba	0.022321094
185	0xbd09f093	-0.033676695
186	0xbdbf7a63	-0.09349515
187	0xbe1dc1cf	-0.15405963
188	0xbe17df62	-0.14831308
189	0x3d2e4da8	0.042554528
190	0x3e8ac9cf	0.27107093
191	0x3df62dd6	0.12020461
192	0xbd44fa5e	-0.04809033
193	0xbe2a586e	-0.16635296
194	0xbe76b5fe	-0.24092862
195	0xbe2d454d	-0.16920967
196	0xbe8a1065	-0.26965633
197	0xbe47e15e	-0.19519565
198	0xbc8aceef	-0.016944377
199	0x3e1c9bdd	0.15293832
200	0x3cad25d1	0.021136196
201	0xbe54f13b	-0.20795147
202	0xbc46a125	-0.012123381
203	0xbea0dc4c	-0.31418073
204	0xbe8c7db4	-0.27439654
205	0xbe6a7759	-0.2289709
206	0xbd99dc5f	-0.075127356
207	0xbd21fb8f	-0.039546546
208	0xbb595358	-0.003316125
209	0xbde7e372	-0.113226786
210	0x3dc4ab92	0.09603037
211	0xbd701a4b	-0.058618825
212	0xbd5362b8	-0.051607817
213	0x3c8453d2	0.01615325
214	0xbec5693f	-0.3855686
215	0xbf21e0e9	-0.6323381
216	0xbe169e01	-0.14708711
217	0xbe1e9088	-0.15484822
218	0xbd9d50cc	-0.076814264
219	0xbd03b435	-0.03215428
220	0x3d3f05d4	0.046636418
221	0xbe0a92b6	-0.13532528
222	0xbd29e9ba	-0.041482665
223	0x3d79c581	0.06097937
224	0x3d6fae3c	0.058515772
225	0xbda4c95f	-0.08046221
226	0xbcd53dc0	-0.026030421
227	0x3d83a1fe	0.06427382
228	0x3ddf8ccb	0.10915526
229	0xbd0780ba	-0.033081748
230	0xbd8d613b	-0.06903311
231	0xbe08b328	-0.13349593
232	0xbe29cd1f	-0.16582154
233	0x3dbc5d74	0.09197512
234	0xbec13ff7	-0.37744114
235	0xbed0916e	-0.40735954
236	0xbd803ddf	-0.06261801
237	0xbe6eb5d0	-0.23311543
238	0xbce4d747	-0.027934683
239	0xbecf6829	-0.40509155
240	0xbdb338f5	-0.08751098
241	0x3d619ec8	0.055083066
242	0x3dbd7529	0.09250862
243	0x3d06d7d2	0.032920666
244	0x3ac89e8b	0.0015306039
245	0xbd69922c	-0.057024166
246	0x3d34a3f5	0.044101674
247	0xbe0420e5	-0.12903173
248	0xbc49666a	-0.012292484
249	0xbde028a9	-0.10945255
250	0xbdc17f1e	-0.09448074
251	0x3e93125d	0.28724948
252	0xbe570b7d	-0.21000476
253	0x3e544486	0.20729265
254	0x3e78177b	0.24227707
255	0xbe281a91	-0.16416384

gconvs.2.weight f4 [10, 10, 4, 3, 3]
0	0x3e05f4b9	0.13081636
1	0xbd216d48	-0.03941086
2	0x3dd81ded	0.10552583
3	0x3dcf31f9	0.101169534
4	0xbd991c5c	-0.07476112
5	0x3d119f14	0.0355521
6	0x3e2cd334	0.16877443
7	0xbd5b6936	-0.053567134
8	0x3cafa10e	0.021439102
9	0xbe79130f	-0.24323677
10	0xbc3cd116	-0.011524459
11	0x3e9984c5	0.29984108
12	0xbedfa3c8	-0.43679643
13	0xbe327e7a	-0.1743106
14	0xbc5d557d	-0.0135091515
15	0xbe4a6650	-0.19765592
16	0xbd746ac1	-0.05967212
17	0x3df6de82	0.12054159
18	0x3d2e0234	0.04248257
19	0xbda80370	-0.08203781
20	0xbe10842c	-0.1411292
21	0x3c6178b5	0.013761689
22	0xbe07c229	-0.1325766
23	0xbd5e7775	-0.05431314
24	0x3d5d615d	0.05404793
25	0xbdcdff03	-0.10058405
26	0xbd12ccb3	-0.035839748
27	0x3d82c675	0.06385509
28	0xbdb9c679	-0.09071059
29	0xbe200cf6	-0.15629944
30	0xbe47406d	-0.1945817
31	0xbd914b44	-0.07094434
32	0x3d163275	0.036669213
33	0xbd9878f3	-0.07444944
34	0x3e0f381a	0.13986245
35	0x3cdb97b3	0.026805734
36	0xbe3af379	-0.1825694
37	0x3c156382	0.009117963
38	0x3e328369	0.17432941
39	0xbe484fa6	-0.19561633
40	0x3d4e30b4	0.050339416
41	0x3d45c1f8	0.048280686
42	0xbd45b1c7	-0.048265245
43	0xbcc8eae7	-0.024526073
44	0x3e3e3ea1	0.18578579
45	0x3e13bff4	0.14428693
46	0x3c6695f5	0.0140738385
47	0x3e134b69	0.14384235
48	0x3de61405	0.11234287
49	0x3e02e120	0.12781191
50	0xbd7da662	-0.061926253
51	0x3e3c482a	0.18386903
52	0x3ce0913f	0.027413009
53	0x3d01a294	0.031649187
54	0xbdcb2d0e	-0.09920703
55	0xbdf834fd	-0.12119482
56	0x3d0a8926	0.0338222
57	0xbe099b84	-0.13438231
58	0x3ca18123	0.019714897
59	0xbe440b23	-0.19144873
60	0xbdc103e8	-0.09424573
61	0x3cc101d1	0.023560436
62	0xbd6cda85	-0.057825584
63	0xbd821f7f	-0.06353664
64	0x3dc40011	0.09570325
65	0x3f0e605f	0.556158
66	0xbcd720c4	-0.026260741
67	0x3d26c8b7	0.04071876
68	0x3e565f50	0.20934796
69	0x3d0a516e	0.033769064
70	0x3d5d2dc6	0.05399873
71	0x3d7bff72	0.06152291
72	0x3dd2fbdc	0.103019446
73	0x3e3c983c	0.18417448
74	0x3e418bce	0.18900988
75	0xbd19b672	-0.03752751
76	0xbd2bd7df	-0.041953918
77	0xbded6baa	-0.11592801
78	0x3dcf6f87	0.10128694
79	0x3d75c451	0.060001675
80	0xbd70cf3b	-0.05879138
81	0xbdc157dc	-0.09440586
82	0xbd8f360c	-0.069927305
83	0x3d3cebb4	0.04612322
84	0xbdf2fb6c	-0.11864361
85	0xbe029250	-0.12751126
86	0xbd898f11	-0.06716741
87	0xbd869ac2	-0.065724865
88	0xbd1fa99e	-0.03898012
89	0xbd5e90ea	-0.05433742
90	0x3e34e658	0.17665994
91	0x3e853af2	0.26021534
92	0x3eaffb19	0.3437126
93	0xbd31ba75	-0.04339071
94	0x3d08f19f	0.033433553
95	0x3da910c0	0.08255148
96	0x3d7ae9f6	0.06125828
97	0xbcf40f28	-0.029792383
98	0xbdfbc861	-0.122940786
99	0x3dac5750	0.08415091
100	0xbd3ab9b7	-0.045587268
101	0xbcf5c6fa	-0.030002106
102	0x3da49aa3	0.08037307
103	0x3dd3bf5e	0.10339235
104	0xbc215c9c	-0.00984874
105	0x3cdce5f4	0.026965119
106	0xba8930a1	-0.0010466763
107	0xbd12899e	-0.035775773
108	0xbd4336e7	-0.04765978
109	0xbd2c26a0	-0.042029023
110	0xbdc95249	-0.09830148
111	0xbdda9f8f	-0.10674965
112	0xbdd6ed98	-0.10494536
113	0xbd5270a6	-0.05137696
114	0x3d4c6517	0.049901094
115	0xbd0dcd31	-0.034619514
116	0xbdede2c6	-0.11615519
117	0xbb5c3503	-0.0033600933
118	0x3d69b1b7	0.057054248
119	0x3e069467	0.13142549
120	0xbd046114	-0.032319143
121	0xbd859910	-0.06523335
122	0xb9d9d4a6	-0.000415479
123	0x3c851dfa	0.016249646
124	0xbe0c03f6	-0.13673386
125	0x3bd505ba	0.006500927
126	0x3d9f2f3e	0.077726826
127	0xbe210e73	-0.15728168
128	0x3df4535a	0.119299605
129	0x3da75401	0.08170319
130	0xbd0060e4	-0.031342402
131	0x3e002964	0.1251579
132	0x3e37d1f4	0.17951185
133	0x3e344d08	0.1760751
134	0x3d14db23	0.036341798
135	0xbe4b5585	-0.19856842
136	0xbe1baccc	-0.15202636
137	0xbd63ff1f	-0.055663224
138	0xbe177b28	-0.14793074
139	0xbe090f6c	-0.13384789
140	0x3cdf22b3	0.027238226
141	0xbccafadd	-0.024777824
142	0xbd2fc991	-0.042916838
143	0x3c1b4ad3	0.009478289
144	0x3e1a8e2e	0.150933
145	0x3e2afa7b	0.16697113
146	0x3d546000	0.051849365
147	0xbca6cc73	-0.02036116
148	0xbddf4f9b	-0.109038554
149	0xbd18e6c7	-0.03732946
150	0xbb1a7a5d	-0.002357147
151	0x3e35b96c	0.17746514
152	0xbcbe8dc6	-0.023260962
153	0xbe842b06	-0.25814074
154	0xbe083b71	-0.13303925
155	0x3e12a624	0.1432119
156	0xbe2d3f83	-0.16918759
157	0xbe83e61b	-0.25761494
158	0x3dcf18ca	0.1011215
159	0xbd168912	-0.036751814
160	0xbde395e4	-0.11112574
161	0x3e47c018	0.19506872
162	0x3cde6537	0.027147872
163	0x3e4cc94b	0.19998662
164	0x3dee0d1b	0.116235934
165	0x3d6fbb42	0.058528192
166	0x3d2876ba	0.04112885
167	0x3dd1bba7	0.1024087
168	0x3ebeb5ad	0.37247983
169	0x3e51ba96	0.20481333
170	0xbbd2c136	-0.006431724
171	0x3e084a9d	0.13309713
172	0xbdf139d8	-0.11778611
173	0xbe166196	-0.14685664
174	0x3e8c1621	0.27360633
175	0x3d1b5fb3	0.037933063
176	0x3d79bee9	0.06097308
177	0x3e37855b	0.17921965
178	0x3e76ff6e	0.24120876
179	0x3e070073	0.13183765
180	0x3d6ca15a	0.057771064
181	0xbd6da2d4	-0.058016613
182	0x3e11fd92	0.14256886
183	0x3b6396df	0.0034727377
184	0xbdd44f57	-0.103666954
185	0x3d49ff71	0.049315874
186	0x3e8f1b8f	0.27950713
187	0x3d9d009a	0.0766613
188	0x3d89489c	0.06703302
189	0x3e9067ff	0.28204343
190	0x3d002c6c	0.031292364
191	0x3da660ee	0.081239566
192	0x3e3fbc43	0.1872416
193	0x3ce1b280	0.027550936
194	0x3d0d93c1	0.034564737
195	0x3eb4d725	0.35320392
196	0x3dc6fd3f	0.097162716
197	0x3ac0a764	0.0014698324
198	0x3e848ad2	0.25887161
199	0xbc1f1919	-0.009710574
200	0xbcbec192	-0.02328566
201	0x3e2e1678	0.17000759
202	0xbdcb1211	-0.09915555
203	0x3d445b8d	0.047938872
204	0x3e1d56f2	0.15365198
205	0x3e3803ae	0.17970154
206	0x3e2791bf	0.16364191
207	0x3da96c6d	0.08272634
208	0x3dce059b	0.10059663
209	0x3e0d405f	0.13794087
210	0x3e9893d7	0.29800293
211	0x3d2b020d	0.041750003
212	0x3d1436ac	0.03618495
213	0x3e384a92	0.17997196
214	0x3e04d4a9	0.12971748
215	0x3d8fc7d4	0.07020536
216	0xbd536ae6	-0.05161562
217	0xbdb128cf	-0.08650362
218	0x3cd5901d	0.026069695
219	0x3e0655a2	0.13118604
220	0x3d31b92e	0.04338949
221	0xbc36619a	-0.011131668
222	0x3b2cb615	0.0026353647
223	0xbb47ccde	-0.00304871
224	0x3df21ce5	0.118219174
225	0x3ca45661	0.02006072
226	0x3d68458d	0.056706954
227	0xbdf7487b	-0.120743714
228	0x3d389917	0.045067873
229	0xbc79efbf	-0.015254914
230	0xbdf03538	-0.11728901
231	0xbd8076cb	-0.06272658
232	0xbd7461d6	-0.059663616
233	0xbd808803	-0.06275942
234	0x3d956d54	0.07296243
235	0x3d8f6673	0.070019625
236	0x3ce8a7fb	0.028400412
237	0xbb3dc023	-0.0028953634
238	0xbda73b74	-0.08165637
239	0x3e362495	0.17787392
240	0xbc1ae169	-0.009453156
241	0x3d7fea3d	0.062479246
242	0x3ac22871	0.0014813078
243	0x3cdfdc7f	0.02732682
244	0xbdaee7f1	-0.08540333
245	0xbccdea86	-0.025136244
246	0x3e492750	0.19643903
247	0x3cc82e2a	0.024436075
248	0x3dd9dfc8	0.10638386
249	0x3e304848	0.17215073
250	0x3db94aea	0.09047492
251	0x3dd9e126	0.10638647
252	0x3e04ec65	0.12980802
253	0x3e08e9e1	0.13370468
254	0x3db145fe	0.08655928
255	0x3d783530	0.0605976

gconvs.3.weight f4 [10, 10, 4, 3, 3]
0	0xbe6e66e8	-0.23281443
1	0xbda0359a	-0.07822724
2	0xbe2e288a	-0.17007652
3	0xbe2a382b	-0.16622989
4	0xbde54062	-0.11193921
5	0xbe1bdcbe	-0.15220925
6	0x3db8dd21	0.09026552
7	0x3a4a5618	0.00077185174
8	0xbe7c668e	-0.24648497
9	0xbe016248	-0.12635148
10	0x3dc023b8	0.09381813
11	0xbcfb25a7	-0.030657602
12	0xbe0c4d0e	-0.13701269
13	0x3d8ad784	0.067793876
14	0x3d8218f6	0.06352417
15	0x3d9f8777	0.0778951
16	0x3e324298	0.17408216
17	0x3e4dcd23	0.20097785
18	0xbd837a04	-0.06419757
19	0x3e1b1389	0.15144171
20	0x3e5c259b	0.2149872
21	0x3d02e322	0.031954892
22	0x3e1d3e9f	0.1535592
23	0x3e84948e	0.25894588
24	0xbe0c2ebd	-0.13689704
25	0xbcd734d9	-0.026270317
26	0x3dffe2d8	0.12494439
27	0xbedd8002	-0.43261725
28	0xbcbd540d	-0.023111368
29	0xbacfff68	-0.0015868964
30	0xbe06fe66	-0.13182983
31	0xbddd4ee3	-0.10806062
32	0x3d85d118	0.06534022
33	0x3e44297d	0.19156452
34	0xbc418499	-0.011811399
35	0xbc37d221	-0.011219532
36	0xbd93fd7d	-0.072260834
37	0xbdb17f41	-0.0866685
38	0xbe0690ae	-0.13141128
39	0xbe41dfdc	-0.18933052
40	0xbe3302a2	-0.17481473
41	0xbdaf3693	-0.08555331
42	0x3c92afc1	0.017906072
43	0x3cdbc0fc	0.02682542
44	0xbe0a49a3	-0.13504653
45	0x3e6a34fc	0.22871774
46	0x3da58704	0.08082393
47	0x3d5c5491	0.053791586
48	0xbe26a4d8	-0.1627382
49	0xbc9d9297	-0.019234939
50	0x3d884b54	0.06654993
51	0x3dffea25	0.124958314
52	0xbda68bc7	-0.08132129
53	0xbcdfb1b8	-0.027306423
54	0xbe5e5c99	-0.2171501
55	0xbe82764a	-0.25480872
56	0xbe3a47d0	-0.18191457
57	0xbd12c1f1	-0.03582949
58	0xbe08e892	-0.13369969
59	0xbe98bcce	-0.29831547
60	0x3ca1a00f	0.019729642
61	0x3d72746b	0.059193056
62	0x3c9f7129	0.019463139
63	0x3b9ee80a	0.0048494386
64	0xbd15605b	-0.036468845
65	0xbe579d02	-0.21055987
66	0x3df24614	0.118297726
67	0x3d9a32f0	0.07529247
68	0xbe33dccd	-0.17564698
69	0x3df2685e	0.11836313
70	0xbd446c0d	-0.047954608
71	0xbe8c942e	-0.27456802
72	0xbb09a8a0	-0.002100505
73	0xbdee2a89	-0.11629207
74	0xbf09d7a0	-0.5384464
75	0x3e96242b	0.2932447
76	0x3e1d647a	0.1537036
77	0xbe1b1319	-0.15144004
78	0x3daf4e0e	0.085598096
79	0x3d6cf74c	0.05785303
80	0xbcec7ec0	-0.028869033
81	0xbda8e48d	-0.082467176
82	0xbea4592e	-0.3209929
83	0xbecd92ed	-0.40151158
84	0xbca41179	-0.020027863
85	0xbd38a4f8	-0.0450792
86	0xbe6d1b30	-0.23154902
87	0x3dcdc0b7	0.10046523
88	0x3cc12c37	0.023580654
89	0x3d97e940	0.07417536
90	0x3db0e01a	0.08636494
91	0xbe1defc3	-0.15423493
92	0xbe14f152	-0.14545181
93	0xbbbe8a3d	-0.005814819
94	0xbe87dce6	-0.2653572
95	0xbe4f157f	-0.20223044
96	0xbe348669	-0.17629398
97	0xbe719be4	-0.23594624
98	0xbe1119dd	-0.14170022
99	0xbdff4b86	-0.12465577
100	0xbe18280d	-0.14859028
101	0xbea2debc	-0.31810558
102	0xbc2e36bd	-0.010633168
103	0x3cf0bfad	0.029388273
104	0xbe5489a6	-0.20755634
105	0x3e265b6f	0.16245817
106	0x3e19f29e	0.15033957
107	0xbdf54812	-0.11976637
108	0xbbb98bf3	-0.005662435
109	0x3e071543	0.13191704
110	0x3d9a93b3	0.07547703
111	0xbccc01ff	-0.024903296
112	0x3e00d7b6	0.12582287
113	0x3cf1634f	0.0294663
114	0x3d6e6f8a	0.05821184
115	0x3e2d6694	0.16933662
116	0x3e47a0e5	0.1949497
117	0x3dd3fb28	0.10350639
118	0x3dfe2484	0.124093086
119	0x3ea41c6b	0.3205293
120	0xbe3a420c	-0.18189257
121	0xbddd0596	-0.10792081
122	0x3e59d24f	0.21271633
123	0xbdd9de3b	-0.1063809
124	0xbe1a1cad	-0.15050001
125	0x3e0856d9	0.1331438
126	0x3dd393ed	0.10330949
127	0xbd87c786	-0.06629853
128	0xbdc54cc9	-0.09633786
129	0x3d4adf2d	0.049529243
130	0xbc806582	-0.015673403
131	0xbd084f32	-0.03327865
132	0xbc88a33b	-0.016679397
133	0xbdc90e31	-0.0981716
134	0xbe9451bd	-0.2896861
135	0xbdb24a9b	-0.08705636
136	0xbd84446b	-0.06458362
137	0xbe210b3c	-0.15726942
138	0xbe4867d8	-0.19570863
139	0xbe20f629	-0.15718903
140	0xbe9e9c55	-0.30978647
141	0xbd9028ef	-0.070390575
142	0xbd629eb9	-0.05532715
143	0xbdff0bc9	-0.1245342
144	0x3e35ffc3	0.17773347
145	0x3d42ae3d	0.047529448
146	0xbe8854eb	-0.26627287
147	0xbc8ed61f	-0.017436085
148	0x3d92b708	0.07163817
149	0xbe49fc5d	-0.19725175
150	0xbd48e3ca	-0.04904536
151	0xbd7d9411	-0.061908785
152	0xbd999032	-0.07498206
153	0xbd67cf7a	-0.05659435
154	0x3e2ec9b3	0.1706913
155	0x3e08527e	0.13312718
156	0xbd3f65b6	-0.04672786
157	0xbcf31e67	-0.029677583
158	0xbd110b8b	-0.0354114
159	0xbd044c79	-0.032299493
160	0xbd60d520	-0.05489075
161	0xbeb7e5e8	-0.35917592
162	0xbccfcc1b	-0.02536588
163	0xbd043880	-0.032280445
164	0x3de17ab2	0.110097304
165	0xbd07eba4	-0.03318371
166	0xbd9ce550	-0.076609254
167	0x3d5c5c3e	0.053798907
168	0xbdae4ff1	-0.08511341
169	0xbe0f93b0	-0.14021182
170	0xbe2fade3	-0.17156176
171	0x3c81cfcf	0.015846161
172	0x3e4aab3c	0.19791883
173	0x3ea2fd15	0.3183371
174	0xbe27a156	-0.16370139
175	0x3d206340	0.039157152
176	0x3dadf722	0.084944025
177	0xbe090984	-0.13382536
178	0x3c184b72	0.009295331
179	0x3e3dd715	0.18539079
180	0xbd6afd35	-0.057370383
181	0x3e4ba3cc	0.19886702
182	0x3eac644f	0.3367028
183	0xbe7a0a12	-0.24417904
184	0x3c6b66b0	0.014367744
185	0x3eaa221c	0.33229148
186	0x3de735d2	0.11289562
187	0x3e0afe51	0.13573577
188	0x3ed2f2c9	0.41200855
189	0x3d139d33	0.03603859
190	0x3e499cdd	0.19688745
191	0xbe2ac5a2	-0.16676953
192	0x3d0ec63b	0.034857016
193	0x3d78d2a9	0.060747776
194	0xbee0e0c8	-0.43921494
195	0x3b05db89	0.0020425043
196	0xbe40e0ae	-0.18835708
197	0xbf095a0f	-0.53653044
198	0xbdadae37	-0.084804945
199	0xbe175a34	-0.14780504
200	0xbeac7822	-0.33685404
201	0x3d3cbc01	0.046077732
202	0xbd1b61e9	-0.03793517
203	0xbed813ff	-0.42202756
204	0x3e7d5a19	0.24741401
205	0xbe222bb1	-0.1583698
206	0xbee18643	-0.44047746
207	0xbd9862ae	-0.07440697
208	0xbe9af741	-0.30266765
209	0xbe1b2b68	-0.15153277
210	0xbe2219b6	-0.1583012
211	0xbe32b550	-0.17451978
212	0xbe0e0982	-0.13870814
213	0xbc9a699f	-0.018849192
214	0xbd745790	-0.05965382
215	0xbdcb8285	-0.09937004
216	0xbe37725c	-0.17914718
217	0xbe070e13	-0.13188963
218	0x3da44f9a	0.08022995
219	0xbd93f9ef	-0.072254054
220	0xbec7511d	-0.38929072
221	0xbe0bc451	-0.13649108
222	0x3e60a96a	0.21939626
223	0xbbb1767a	-0.005415735
224	0xbe6b309f	-0.22967766
225	0xbe5fa692	-0.21840885
226	0x3d3162df	0.04330718
227	0x3e15c2c2	0.14625075
228	0xbe31e5f3	-0.17372875
229	0xbe13c0e3	-0.14429049
230	0x3e004cdf	0.12529324
231	0x3e2eacbc	0.1705808
232	0x3dd742dd	0.105108
233	0x3d73ed4c	0.059552476
234	0xbe0b5258	-0.1360563
235	0x3e1aa552	0.15102127
236	0x3ee8397e	0.45356363
237	0xbec175cf	-0.37785193
238	0xbd966ef3	-0.07345381
239	0x3e075211	0.132149
240	0x39a0bea1	0.00030659608
241	0xbd95b320	-0.07309556
242	0x3e28ea10	0.16495538
243	0xbf068cde	-0.52558696
244	0xbee13f1f	-0.4399347
245	0xbe881f00	-0.2658615
246	0xbe7f187e	-0.24911687
247	0xbed5cdb6	-0.41758507
248	0xbe61381b	-0.21994059
249	0x3dc729b6	0.097247526
250	0x3bd0162c	0.0063502993
251	0xbd85633d	-0.06513069
252	0xbd0e13d5	-0.034686882
253	0xbe3cde61	-0.18444206
254	0xbea65e5f	-0.32493874
255	0x3e268e0f	0.16265129

gconvs.4.weight f4 [10, 10, 4, 3, 3]
0	0xbd2487ea	-0.04016868
1	0x3b6f61a7	0.0036526711
2	0xbf083801	-0.53210455
3	0x3de752a3	0.112950586
4	0x3dbe6837	0.09297221
5	0xbea6605d	-0.32495394
6	0x3eb7af5e	0.35875982
7	0x3e43f505	0.19136436
8	0xbd0dff43	-0.034667265
9	0xbd8ec598	-0.06971282
10	0xbdcd7749	-0.100325175
11	0xbd19b5df	-0.03752696
12	0x3dbe6d09	0.092981406
13	0x3db6491e	0.08900665
14	0x3e882ef9	0.26598337
15	0xbdd07c98	-0.10180014
16	0xbe036bc0	-0.12834072
17	0x3dbd55fa	0.09244914
18	0xbee60c60	-0.44931316
19	0xbe00e43a	-0.12587062
20	0x3d8f6e9f	0.07003521
21	0xbea0dedb	-0.31420025
22	0xbe4b2a07	-0.19840251
23	0x3dbad109	0.091219015
24	0xbcb71a26	-0.022351336
25	0x3d125027	0.03572097
26	0x3cde6da5	0.027151892
27	0xbef1a9a7	-0.47199747
28	0xbe4dc6ec	-0.20095414
29	0xbdd2e97e	-0.10298441
30	0xbed1c90f	-0.40973708
31	0xbe294765	-0.16531141
32	0x3ba6a281	0.00508529
33	0xbd16acf5	-0.03678604
34	0x3ca869d8	0.020558283
35	0x3d87b412	0.066261426
36	0x3e46aa0a	0.19400802
37	0xbeb09755	-0.34490457
38	0xbe675316	-0.22590289
39	0xbe88596e	-0.2663073
40	0xbec0796c	-0.37592638
41	0xbee5a734	-0.44854128
42	0xbf03c538	-0.51472807
43	0xbec4c14a	-0.38428718
44	0xbee49b87	-0.44649908
45	0x3eac68b9	0.33673647
46	0x3c9d87c8	0.019229785
47	0xbe5d1660	-0.21590567
48	0x3daeeb77	0.08541005
49	0xbdcdb6a1	-0.10044599
50	0xbde251cc	-0.11050758
51	0xbe5e23f2	-0.216934
52	0xbe792bec	-0.24333161
53	0xbdcf080c	-0.10108957
54	0xbc0fe08e	-0.008781565
55	0x3da270d7	0.07931679
56	0x3e774fbd	0.24151511
57	0xbeabd141	-0.33558086
58	0x3d900d43	0.070337795
59	0xbd83478d	-0.064101316
60	0xbf061dec	-0.5238941
61	0xbe7d9540	-0.24763966
62	0xbcdd28cd	-0.026996994
63	0x3eaef344	0.34169972
64	0x3e8fd71a	0.28093797
65	0x3e1b20b6	0.15149197
66	0x3ed98e90	0.4249158
67	0x3e50e0df	0.20398282
68	0x3e940b27	0.2891476
69	0xbeaf26fd	-0.34209433
70	0xbe83ada5	-0.25718418
71	0xbd56e36c	-0.05246298
72	0xbe0bc3d3	-0.1364892
73	0x3b307271	0.002692368
74	0x3e62161b	0.22078745
75	0xbe963dd6	-0.29344052
76	0xbccf9e7d	-0.025344128
77	0x3dcc227c	0.09967515
78	0xbec3e724	-0.38262284
79	0xbe52cf60	-0.2058692
80	0xbbed06b2	-0.007233464
81	0x3dd0b659	0.1019103
82	0x3dcadaf2	0.09905042
83	0x3e81fec7	0.25389692
84	0xbe7416fa	-0.2383689
85	0xbdd4e439	-0.103950925
86	0x3d9f74bc	0.07785937
87	0xbeaa3ec1	-0.33251002
88	0xbe8e2969	-0.27765968
89	0x3d1e16d6	0.038595997
90	0x3c2a6e15	0.010402222
91	0x3ded25e5	0.115794934
92	0x3e6e7dc7	0.23290168
93	0xbe473e7f	-0.19457434
94	0xbdf489ad	-0.11940322
95	0x3da4fb73	0.08055773
96	0xbecea2cd	-0.40358582
97	0xbe6ee595	-0.23329766
98	0x3d81ba19	0.063343234
99	0xbe09c4e6	-0.13454017
100	0xbcf06b2e	-0.029347982
101	0x3e3b68e3	0.1830173
102	0xbe927d45	-0.28611198
103	0xbe598dd2	-0.21245506
104	0x3c986cd6	0.018606585
105	0xbf167b19	-0.5878158
106	0xbe3837a5	-0.17989977
107	0xbe078b0e	-0.13236639
108	0x3e69456a	0.22780386
109	0xbeefeb23	-0.46859083
110	0xbf6af3f9	-0.9177852
111	0x3e4ba875	0.1988848
112	0xbe4d88d6	-0.2007173
113	0xbed8aea9	-0.42320755
114	0x3d3162d1	0.04330713
115	0xbe68b918	-0.22726858
116	0xbea5b33e	-0.32363313
117	0x3e76bb9b	0.24095003
118	0x3dd89299	0.10574836
119	0x3dbd1330	0.09232175
120	0xbd46a5a7	-0.048497822
121	0x3cc13833	0.023586368
122	0x3caf0066	0.021362495
123	0xbe8a81c2	-0.27052122
124	0xbe83b9fb	-0.2572783
125	0xbdb2e5ea	-0.08735259
126	0xbdbe8a27	-0.09303694
127	0xbda58d14	-0.08083549
128	0xbbf3fe6a	-0.0074461
129	0x3d923f18	0.071409404
130	0x3d98f7dc	0.074691504
131	0xbdc79e7f	-0.097470276
132	0xbe157cab	-0.14598338
133	0xbe27ea76	-0.16398033
134	0x3d8333dc	0.06406376
135	0x3e869ef7	0.26293156
136	0xbd6ff290	-0.058580935
137	0x3cd23295	0.025658885
138	0xbd1a1324	-0.03761591
139	0x3dc1ff2d	0.09472499
140	0x3e2c9d4d	0.1685688
141	0xbeb10619	-0.34574965
142	0x3cbc681a	0.022998858
143	0x3e1f0111	0.1552775
144	0xbe7ec261	-0.24878837
145	0xbf01ec75	-0.5075143
146	0xbf4ee4ae	-0.8081769
147	0xbe70a57f	-0.23500632
148	0xbdc096ac	-0.094037384
149	0xbe11bdd4	-0.1423257
150	0xbf46429e	-0.774454
151	0xbe829e85	-0.25511566
152	0x3ced15dd	0.02894109
153	0xbe0eeb90	-0.13957047
154	0xbe543663	-0.20723872
155	0xbe4f77b2	-0.20260504
156	0x3d84751b	0.064676486
157	0x3c853389	0.016259925
158	0xbe07484c	-0.13211173
159	0x3e3c7acd	0.1840622
160	0x3db508b4	0.088395506
161	0xbd6dbb34	-0.05803986
162	0xbc026aa1	-0.007959993
163	0x3ddefefe	0.1088848
164	0x3e154dd6	0.14580473
165	0x3e53ed47	0.20695983
166	0x3e16f135	0.1474045
167	0x3e82826d	0.25490132
168	0x3e8cfd0c	0.2753681
169	0x3e257a2e	0.16159889
170	0x3e20e57a	0.15712538
171	0xbe9841a9	-0.29737595
172	0xbf1085ca	-0.56454146
173	0xbf2fbce4	-0.686476
174	0xbe6f3b76	-0.23362526
175	0xbf188f19	-0.5959335
176	0xbf1bb414	-0.6082165
177	0xbdfe027c	-0.124028176
178	0xbe5cc3f3	-0.21559124
179	0xbe804c83	-0.25058374
180	0xbf12fd69	-0.57417923
181	0xbe88b2f2	-0.26699024
182	0x3e442acf	0.19156955
183	0xbebcc1a4	-0.36866486
184	0xbe1b8a89	-0.15189566
185	0x3e60e184	0.21961027
186	0x3c3c3be4	0.011488888
187	0x3d6b34c2	0.05742336
188	0x3eb367e3	0.35040197
189	0x3eaa999c	0.3332032
190	0xbd806c5e	-0.062706694
191	0xbed5f684	-0.4178964
192	0x3e9b6145	0.30347648
193	0xbd930589	-0.0717879
194	0xbe93b641	-0.28849986
195	0x3d1fcfe5	0.039016623
196	0xbebabb48	-0.3647101
197	0xbed62b28	-0.418298
198	0x3dcbf144	0.09958127
199	0xbe527cb0	-0.20555377
200	0xbefdff56	-0.49608868
201	0x3e0c8e4f	0.13726161
202	0xbdf4a0db	-0.11944743
203	0xbe450a6a	-0.19242254
204	0x3e9ff438	0.31241012
205	0x3daf2fbb	0.08554026
206	0xbe1e9338	-0.15485847
207	0x3e10dd1b	0.14146845
208	0x3dc153ed	0.09439836
209	0x3dd654ca	0.10465391
210	0x3dbe7da4	0.09301308
211	0xbd644d6c	-0.055737898
212	0x3d025780	0.031821728
213	0xbd2dfb8e	-0.04247623
214	0xbc2adc3f	-0.010428487
215	0xbd5d2d34	-0.053998187
216	0xbba1c7a9	-0.0049371314
217	0xbc93c37e	-0.018037554
218	0x3dfe5344	0.124182254
219	0x3bd99e69	0.0066411984
220	0x3e275909	0.16342558
221	0x3d51eab1	0.05124921
222	0x3e97c0cd	0.29639283
223	0x3df7a8a5	0.12092713
224	0x3ea4d0a1	0.3219042
225	0xbe34729f	-0.1762185
226	0xbdedf422	-0.1161883
227	0xbd65c6fc	-0.05609797
228	0xbda234b3	-0.07920208
229	0xbbbead8c	-0.0058190282
230	0xbd738b9b	-0.05945931
231	0x3dfdf001	0.12399293
232	0x3d3cca39	0.046091292
233	0x3d13ca44	0.036081567
234	0xbfb6dd24	-1.4286237
235	0xbf41411b	-0.7548997
236	0xbf811912	-1.0085776
237	0xbf586bf6	-0.84539735
238	0xbe9bbc55	-0.30417123
239	0xbf59b715	-0.85044986
240	0xbf5bead8	-0.8590522
241	0xbee54ec8	-0.44786668
242	0xbf4ea074	-0.8071358
243	0xbe68e998	-0.22745359
244	0x3c64f8b6	0.013975313
245	0x3d4fb40d	0.05070882
246	0xbe686e53	-0.22698335
247	0xbcb4d902	-0.022076134
248	0xbc5d9af4	-0.013525713
249	0x3d2416b0	0.0400607
250	0x3dc0cbc1	0.09413863
251	0x3cd1aa93	0.025594031
252	0xbe13b1ce	-0.14423296
253	0xbed249b5	-0.4107186
254	0xbf0c0a90	-0.5470362
255	0x3e03ec6c	0.12883157

gconvs.5.weight f4 [10, 10, 4, 3, 3]
0	0xbe1c9cd3	-0.15294199
1	0xbdb923b6	-0.090400144
2	0x3db2db4d	0.087332346
3	0xbe04faad	-0.1298625
4	0xbd532f26	-0.051558636
5	0x3dd9c4d1	0.10633243
6	0xbcebbcda	-0.028776575
7	0xbdfad7d7	-0.122481994
8	0x3e19554a	0.14973941
9	0x3dc58b3c	0.096456975
10	0xbdb80542	-0.08985378
11	0xbdadc3c3	-0.08484604
12	0xbcc4882e	-0.023990717
13	0xbda3383f	-0.079697125
14	0xbd02d802	-0.031944282
15	0xbe4f1321	-0.20222141
16	0xbd5d8c25	-0.05408873
17	0xbdc34e98	-0.09536475
18	0xbd847926	-0.0646842
19	0xbcba9d45	-0.02278007
20	0x3e1e1b66	0.15440139
21	0x3b4d0d57	0.0031288469
22	0x3d876ed7	0.06612938
23	0x3d2e95af	0.04262322
24	0xbe1fbece	-0.1560013
25	0xbe1dd8a1	-0.15414669
26	0xbc8595a3	-0.016306704
27	0x3c978093	0.018493926
28	0x3e60d01b	0.21954386
29	0x3e12d7de	0.1434016
30	0xbd99830c	-0.07495698
31	0xbc8ca7b0	-0.017169803
32	0x3e20a8fa	0.1568946
33	0xbe115d95	-0.14195855
34	0xbdb3725c	-0.08762047
35	0x3ca7862a	0.020449717
36	0x3e235685	0.15950973
37	0x3e1851ea	0.14874998
38	0x3e31b499	0.17354049
39	0x3db50d3e	0.08840416
40	0x3dfcf762	0.12351872
41	0x3e62fd43	0.22166924
42	0x3e79625f	0.24353932
43	0x3e485eba	0.19567385
44	0x3e4c3aa0	0.19944239
45	0x3e882238	0.26588607
46	0x3e64ea57	0.22355019
47	0x3d8ee6cd	0.069776155
48	0x3d953b21	0.072866686
49	0x3e556b19	0.20841636
50	0x3e38ac54	0.18034488
51	0x3e982b66	0.2972061
52	0x3e473e36	0.19457325
53	0x3e71d5a6	0.23616657
54	0xbcc33b44	-0.023831971
55	0x3d07f225	0.03318991
56	0xbd067042	-0.0328219
57	0x3d9ba8c4	0.07600549
58	0x3decca3a	0.11562009
59	0x3e5107b6	0.20413098
60	0x3e170f82	0.1475201
61	0x3e9029b6	0.28156823
62	0x3e1a0a13	0.15042906
63	0x3e760eb3	0.24029045
64	0x3da8a3c7	0.08234363
65	0x3d9636ae	0.07334648
66	0x3e2b71d8	0.16742647
67	0x3be509a3	0.006989674
68	0xbd4153fa	-0.047199227
69	0x3e4fe61b	0.20302622
70	0x3d549aef	0.05190557
71	0x3c644bef	0.01393412
72	0x3c38eeae	0.011287374
73	0xbccac8f5	-0.024754027
74	0xbc71f43f	-0.014767705
75	0xbc8e1625	-0.017344544
76	0x3e1a8aeb	0.15092055
77	0x3cc1b878	0.023647532
78	0xbe167c87	-0.14695941
79	0xbd2ed31d	-0.042681802
80	0xbc8725f1	-0.016497584
81	0xbc22f13b	-0.009945209
82	0x3cb6e57d	0.022326225
83	0xbb1d21d7	-0.002397647
84	0x3db6d3a1	0.08927084
85	0x3d1b29ec	0.037881777
86	0xbc95cb91	-0.018285545
87	0x3e02a845	0.12759502
88	0x3e481d3e	0.19542405
89	0x3e1549a1	0.14578868
90	0x3e063a5e	0.13108203
91	0x3d62ec73	0.055401277
92	0xbe4b8dac	-0.19878262
93	0x3e35e5cd	0.17763443
94	0xbceb8933	-0.028751945
95	0xbe0032a1	-0.12519313
96	0x3daa6c53	0.083214425
97	0xbd349c44	-0.04409434
98	0xbe4aebb3	-0.19816475
99	0xbe2f02fb	-0.1709098
100	0xbd668496	-0.056278788
101	0xbe22d513	-0.15901594
102	0xbe2ffd2d	-0.17186423
103	0xbd98607c	-0.07440278
104	0xbd94e464	-0.072701246
105	0xbe5945cd	-0.21218033
106	0xbead4015	-0.33837953
107	0xbe25be3a	-0.16185847
108	0x3e719369	0.23591389
109	0x3e8106f9	0.25200632
110	0x3e9410c6	0.28919047
111	0x3d8e00b9	0.069337316
112	0x3dde0ac8	0.108419
113	0x3ea22306	0.31667346
114	0x3dd2fa7f	0.103016846
115	0x3e204aad	0.15653487
116	0x3e98b9b8	0.29829192
117	0xbd1a561b	-0.037679773
118	0x3ca73cfe	0.020414826
119	0xbdb24ebc	-0.08706424
120	0xbe0267de	-0.12734935
121	0x3d4c18ff	0.049828526
122	0xbc74da0a	-0.014944563
123	0xbdd0b0ae	-0.10189949
124	0x3d199e35	0.037504394
125	0xbc927860	-0.017879665
126	0x3c55c0a2	0.0130464155
127	0xbe207c7e	-0.1567249
128	0xbd2ccccf	-0.04218751
129	0xbd899f05	-0.06719784
130	0xbd2239b3	-0.039605808
131	0xbda8378e	-0.08213721
132	0xbcc68055	-0.024231115
133	0x3c2829d0	0.010263875
134	0xbcf32599	-0.029681014
135	0x3d73ecc9	0.059551988
136	0x3db494f3	0.08817472
137	0x3daa6f18	0.08321971
138	0xbcc4d470	-0.02402708
139	0x3d2bd70d	0.041953135
140	0xbdca2791	-0.09870828
141	0xb94df465	-0.00019641368
142	0x3c8ab1e0	0.01693052
143	0xbe018321	-0.12647678
144	0x3d716e55	0.05894311
145	0x3e19369f	0.14962243
146	0x3d58684a	0.052833833
147	0xbe38ef25	-0.18059976
148	0x3dd5d290	0.10440552
149	0x3da41beb	0.080131374
150	0xbe128546	-0.14308652
151	0xbdb2da1c	-0.08733007
152	0x3d85b228	0.06528121
153	0xbe45dc5f	-0.19322346
154	0xbe152182	-0.14563563
155	0x3c81505d	0.01578539
156	0xbe6f5b02	-0.2337456
157	0x3c8a0904	0.016850002
158	0x3db7d73d	0.089766
159	0xbe94570d	-0.28972664
160	0xbe124cdb	-0.1428713
161	0x3dc147d5	0.09437529
162	0xbd5d7ce2	-0.054074176
163	0xbe43dc6f	-0.19127057
164	0xbe1c8c32	-0.15287855
165	0xbdf76a11	-0.120807774
166	0xbde1b512	-0.110208645
167	0xbd8d7f10	-0.06909001
168	0xbeb31ffd	-0.34985343
169	0x3c9bf08a	0.019035596
170	0xbdc7af88	-0.09750277
171	0xbd4a3119	-0.04936323
172	0xbccf20eb	-0.025284251
173	0xbe12b934	-0.14328462
174	0xbe55233b	-0.2081422
175	0xbc8c26ba	-0.01710831
176	0xbd9ba548	-0.07599884
177	0xbe893689	-0.2679942
178	0xbe1f28de	-0.15542933
179	0xbdd58b22	-0.10426928
180	0xbdbd8c71	-0.09255303
181	0xbed15058	-0.4088161
182	0xbef2d935	-0.4743134
183	0xbd89fcde	-0.06737684
184	0xbe7ca143	-0.24670891
185	0xbf06dcf4	-0.526809
186	0xbba5cf7a	-0.0050601335
187	0xbe434da6	-0.1907259
188	0xbf108555	-0.5645345
189	0x3cc86f33	0.024467086
190	0xbe6d422b	-0.23169772
191	0xbf024000	-0.50878906
192	0xbdaa40b8	-0.08313125
193	0xbeb7f36a	-0.35927898
194	0xbefbdce6	-0.4919197
195	0xbe09a2a5	-0.1344095
196	0xbe78bbe2	-0.24290422
197	0xbec208a6	-0.37897223
198	0xbe016c56	-0.12638983
199	0xbe044dee	-0.12920353
200	0xbe90064d	-0.28129807
201	0xbda0f663	-0.078594945
202	0xbdd42501	-0.103586204
203	0xbe00425d	-0.12525316
204	0xbdcb726a	-0.09933932
205	0xbdfb7f54	-0.12280145
206	0xbe262b0a	-0.16227356
207	0xbea45a93	-0.32100353
208	0xbe80a6ee	-0.25127357
209	0xbe96fb7b	-0.2948874
210	0xbdeea8be	-0.11653279
211	0xbe99908e	-0.299931
212	0xbeeca132	-0.46216732
213	0xbe2c0198	-0.16797483
214	0xbe611cc3	-0.21983628
215	0xbe865566	-0.2623703
216	0x3df6b956	0.12047069
217	0x3e484523	0.19557624
218	0x3e395aca	0.1810104
219	0x3e8b3f1b	0.27196583
220	0x3e22533c	0.15852064
221	0x3e8efd10	0.27927446
222	0x3e9d86f0	0.30767012
223	0x3eb01a07	0.34394857
224	0x3e17e911	0.14835002
225	0x3e4d8ad0	0.20072484
226	0x3e2b3c21	0.16722156
227	0xbd4c1c1b	-0.04983149
228	0x3e15d3b1	0.14631535
229	0x3e49e2d9	0.19715442
230	0x3d6b45ca	0.057439603
231	0x3e7288af	0.23684953
232	0x3d71f440	0.059070826
233	0x3e24d43e	0.16096589
234	0xbda419b9	-0.08012719
235	0x3ced93d0	0.029001147
236	0x3d80d15f	0.06289934
237	0x3d27afed	0.04093926
238	0xbde4c2dd	-0.1116998
239	0x3ddd1f42	0.107969776
240	0x3bc0eccc	0.0058876034
241	0xbdc40813	-0.095718525
242	0x3e132ce4	0.14372593
243	0xbc92801d	-0.017883355
244	0xbd55bb7c	-0.052180752
245	0xbe30190b	-0.17197053
246	0x3d6bc6d0	0.05756265
247	0xbd5cbcd3	-0.053891014
248	0xbddf43bb	-0.109015904
249	0x3b3357a0	0.002736546
250	0x3d2fc1bb	0.042909365
251	0xbd6914f8	-0.056904763
252	0x3d263292	0.04057557
253	0xbcbf4813	-0.023349797
254	0xbe0eb462	-0.13935998
255	0x3e1746d0	0.14773107

final_layer.weight f4 [10, 10, 4, 3, 3]
0	0xbe8021fb	-0.25025925
1	0xbe520780	-0.20510674
2	0xbe4b02a8	-0.19825232
3	0xbe1710e0	-0.14752531
4	0xbe674f97	-0.22588955
5	0xbe2e3150	-0.17010999
6	0xbe6fb395	-0.23408349
7	0xbe49adce	-0.19695207
8	0xbe884407	-0.266144
9	0xbe914494	-0.28372633
10	0xbe22275f	-0.15835331
11	0xbdeb6838	-0.114944875
12	0xbdcfa299	-0.10138435
13	0xbdae70d3	-0.08517613
14	0xbe3502b8	-0.17676818
15	0xbe2346db	-0.15944998
16	0xbe71afad	-0.23602171
17	0xbdd8bde0	-0.10583091
18	0xbdcbf564	-0.09958914
19	0xbdc2dcbd	-0.09514759
20	0xbde728b8	-0.11287063
21	0xbdb934bd	-0.09043262
22	0xbe7efaf6	-0.24900422
23	0xbe30f395	-0.17280419
24	0xbdd09da3	-0.10186317
25	0xbe7b23ce	-0.24525377
26	0xbdd85495	-0.10563008
27	0xbdcf8ea3	-0.10134628
28	0xbdb5c2c8	-0.08875042
29	0xbe54f4b8	-0.20796478
30	0xbe7af620	-0.24507952
31	0xbdd64f9b	-0.10464402
32	0xbe69cc10	-0.2283175
33	0xbe81c8db	-0.25348553
34	0xbdffd87f	-0.12492465
35	0xbdbbfe43	-0.09179356
36	0x3e9679be	0.29389757
37	0x3eb758c2	0.35809904
38	0x3e983d0a	0.2973407
39	0x3ebe9a43	0.37227067
40	0x3e62f91c	0.2216534
41	0x3e4a033b	0.19727795
42	0x3e81ad5c	0.25327575
43	0x3e5bd2c3	0.21467118
44	0x3e4c5c85	0.19957168
45	0x3e6a18fb	0.22861092
46	0x3e84a091	0.25903752
47	0x3e4db159	0.20087184
48	0x3eb6cd20	0.35703373
49	0x3e879584	0.2648126
50	0x3eb17229	0.3465741
51	0x3e99c3d2	0.30032212
52	0x3e9ce2f7	0.3064191
53	0x3e6929fc	0.22769922
54	0x3e5726ec	0.21010941
55	0x3ea68b58	0.32528186
56	0x3e97f93c	0.29682338
57	0x3e5910e9	0.21197857
58	0x3e79b7c0	0.24386501
59	0x3e905967	0.2819321
60	0x3ea31c58	0.31857562
61	0x3e837bfa	0.25680524
62	0x3e859791	0.26092198
63	0x3ea65831	0.3248916
64	0x3e609c9e	0.21934745
65	0x3eb60a28	0.35554624
66	0x3e4de8c8	0.2010833
67	0x3e8f4fef	0.27990672
68	0x3ebfa034	0.37426913
69	0x3e9bfee2	0.30467898
70	0x3eb687cf	0.3565049
71	0x3eac644e	0.33670276
72	0x3d8780d0	0.06616366
73	0xbbad5db8	-0.005290713
74	0xbcb0c704	-0.021579273
75	0xbd3157e4	-0.04329671
76	0x3c3dba6a	0.011580089
77	0x3db1fece	0.08691178
78	0x3dc48ff6	0.09597771
79	0x3df96c47	0.121788554
80	0xbd8849e5	-0.06654719
81	0xbd948408	-0.072517455
82	0x3df45ee8	0.119321644
83	0xbca254d0	-0.019815832
84	0x3d9b3986	0.07579331
85	0x3e0959f6	0.13413224
86	0x3de5f343	0.11228039
87	0x3d52f86e	0.051506452
88	0xbc802811	-0.015644105
89	0xbcaa846e	-0.0208151
90	0xbcb0a1d3	-0.021561539
91	0xbc5fdda8	-0.013663687
92	0x3d93817f	0.07202434
93	0xbd1775b9	-0.036977503
94	0x3dddc1b6	0.10827963
95	0x3d2f2e03	0.04276849
96	0x3dd015aa	0.10160382
97	0xbcc09777	-0.023509724
98	0xbbc19f0e	-0.0059088534
99	0xbc7c6ad4	-0.015406329
100	0x3d904c10	0.07045758
101	0x3daf0bed	0.085471965
102	0x3d52900e	0.051406913
103	0x3dd374b8	0.10324997
104	0x3e030b83	0.1279736
105	0x3d7750e2	0.06037987
106	0x3cccf31c	0.025018267
107	0x3dd91c08	0.1060105
108	0xbda39469	-0.07987291
109	0xbd7acb8a	-0.061229266
110	0xbdcd8ada	-0.100362495
111	0xbda57e2b	-0.08080705
112	0xbdab7824	-0.083725244
113	0xbdc78b0e	-0.097433195
114	0xbd9cda5d	-0.07658837
115	0xbdbdb76e	-0.09263502
116	0xbe30222b	-0.17200534
117	0x3bb8ecc3	0.0056434586
118	0xbe21eff2	-0.15814188
119	0xbe08b3f8	-0.13349903
120	0xbe2d519c	-0.16925663
121	0xbdbd6926	-0.09248571
122	0xbe29a848	-0.165681
123	0xbe1e5fe8	-0.15466273
124	0xbd4b4c35	-0.049633224
125	0xbdd6afa5	-0.1048272
126	0xbd22de13	-0.039762568
127	0x3c18b2f4	0.0093200095
128	0xbe1005e9	-0.14064755
129	0xbcae2811	-0.02125934
130	0xbde9fa67	-0.114247136
131	0xbdc51e1a	-0.09624882
132	0xbe2ff3cc	-0.17182845
133	0xbddf6711	-0.1090833
134	0xbe18bd12	-0.14915875
135	0xbdde3d30	-0.10851514
136	0xbe112b21	-0.14176609
137	0xbe388c89	-0.1802236
138	0x3a84e15c	0.0010137963
139	0xbc301be9	-0.010748842
140	0xbe1b9dba	-0.15196887
141	0xbc9dbab3	-0.019254064
142	0xbe195eb5	-0.14977534
143	0x3c4923da	0.012276614
144	0x3e895aca	0.2682708
145	0x3e58aad0	0.2115891
146	0x3e121660	0.14266348
147	0x3e2602ac	0.16211957
148	0x3e815e0c	0.25267065
149	0x3e8d523a	0.27601796
150	0x3df53a1f	0.11973976
151	0x3e86eda8	0.26353192
152	0x3e8760f9	0.26441172
153	0x3e3f22cc	0.18665618
154	0x3e0118dc	0.1260714
155	0x3e8b6c1e	0.27230924
156	0x3e825e3f	0.2546253
157	0x3e2e1846	0.17001447
158	0x3e77610c	0.24158114
159	0x3e6e3832	0.23263624
160	0x3e6e4a37	0.23270498
161	0x3e6fdcc7	0.23424064
162	0x3e1cb2e7	0.15302621
163	0x3dd50c28	0.10402709
164	0x3de51ff4	0.11187735
165	0x3e3fe0b1	0.18738057
166	0x3e9afd70	0.30271482
167	0x3e76f404	0.24116522
168	0x3e8024ad	0.2502798
169	0x3e7c4a12	0.2463763
170	0x3e725006	0.23663339
171	0x3e5b7545	0.21431454
172	0x3dea1fec	0.1143187
173	0x3e6333a0	0.22187662
174	0x3e0af678	0.13570583
175	0x3e0c62f8	0.13709629
176	0x3e6c0203	0.23047642
177	0x3e8dc8bb	0.27692208
178	0x3e71e816	0.2362369
179	0x3e0a3c77	0.13499628
180	0xbe7c72c6	-0.24653158
181	0xbe5ef3c8	-0.21772683
182	0xbeb5ac97	-0.35483238
183	0xbed00384	-0.40627682
184	0xbeb7f5da	-0.35929757
185	0xbec1c179	-0.3784292
186	0xbe764d19	-0.24052848
187	0xbeb693c5	-0.35659614
188	0xbe80d6ff	-0.2516403
189	0xbec599ba	-0.38593847
190	0xbe818a21	-0.25300696
191	0xbe678340	-0.22608662
192	0xbeceac89	-0.4036601
193	0xbec51bdc	-0.38497818
194	0xbeb25b68	-0.34835362
195	0xbe8ae68f	-0.27129027
196	0xbeab7825	-0.334901
197	0xbec8f285	-0.39247528
198	0xbeb2095c	-0.34772766
199	0xbec3a220	-0.3820963
200	0xbeb40d9a	-0.35166627
201	0xbe8771e6	-0.26454085
202	0xbec3849b	-0.38187107
203	0xbebfc6b9	-0.374563
204	0xbe74f75d	-0.23922487
205	0xbe8b7178	-0.27235007
206	0xbe7d8e23	-0.24761252
207	0xbec7b64e	-0.39006275
208	0xbe8f8b07	-0.28035757
209	0xbec94016	-0.39306706
210	0xbebac5a1	-0.36478904
211	0xbe9c4921	-0.30524543
212	0xbe978a0b	-0.29597506
213	0xbe9348d6	-0.28766507
214	0xbed0e78a	-0.4080165
215	0xbea59707	-0.32341787
216	0xbc1000f4	-0.00878929
217	0x3e10302b	0.14080875
218	0x3de37065	0.11105422
219	0x3e1804d4	0.14845592
220	0x3dd5454a	0.104136065
221	0x3e396aff	0.18107222
222	0xba1333c2	-0.00056153175
223	0x3d2ba0d4	0.041901425
224	0x3dc4aefa	0.09603687
225	0x3e389a8b	0.18027703
226	0xbcaa5453	-0.020792162
227	0x3e3b2cd8	0.18278825
228	0x3cbba669	0.022906499
229	0xbb8e397d	-0.004340349
230	0x3e3bf97a	0.18356887
231	0x3c5a2ffb	0.0133171035
232	0x3d5ebc50	0.054378808
233	0x3d88148c	0.06644544
234	0x3d7c3dfa	0.061582543
235	0x3d55ea50	0.05222541
236	0x3dbd81d3	0.09253278
237	0x3d9b9b40	0.07597971
238	0x3e2700e4	0.16308933
239	0x3d730db6	0.059339248
240	0x3e34f7f3	0.1767271
241	0x3c40761d	0.01174691
242	0x3e133003	0.14373784
243	0x3ca34915	0.01993231
244	0xbca2743b	-0.019830814
245	0x3e2de82a	0.16983095
246	0xbc17792b	-0.009245197
247	0x3d22f082	0.039780147
248	0x3a35e4ef	0.0006938716
249	0x3e01019d	0.12598272
250	0x3da4d2a5	0.0804799
251	0x3e155925	0.14584787
252	0x3e45777f	0.19283865
253	0x3dd74760	0.105116606
254	0x3dc35760	0.0953815
255	0x3e57d0e9	0.21075787
