runs/PlainCNN_none_std0_gamma0_lr0.002/model.pt (torch, 109053 bytes, 18 tensors)

first.weight f4 [20, 1, 3, 3]
0.38647065 0.18324247 0.3196837 -0.4096115 0.18773179 0.16957279 -0.6314973 -0.45765772
0.31980166 -0.038612444 0.030916855 -0.145514 0.15836953 0.19497536 -0.26589748 0.058696654
0.25462362 -0.40296963 0.16377711 0.18027608 0.26044318 -0.33421054 -0.43808964 -0.02271357
0.29263774 -0.17880493 0.01461392 -0.8594915 -0.43797815 0.070569925 -0.32629618 -0.33684513
0.004563252 -0.057918742 -0.50937766 -0.5157807 0.21240959 0.21389523 0.21391945 -0.21039824
0.0059073726 0.037278578 0.12833722 -0.05963246 -0.6102188 0.034648124 0.022487821 0.31420958
0.07072974 0.17012002 0.3451981 -0.1305934 -0.3185406 -0.33761102 0.26594254 0.35166442
-0.3873682 -0.20654455 0.17729026 -0.16856875 0.33844194 -0.4033562 -0.14148208 0.49766487
-0.17217046 0.08300644 0.07927023 -0.4499194 -0.2456066 0.135155 -0.058591213 0.1604193
-0.44365606 0.086362936 0.1010373 0.18770446 0.17016733 -0.16999185 -0.22393493 0.18601091
-0.35117564 -0.64376324 -0.65348524 -0.64448905 0.17596498 0.35120973 -0.48171374 0.045961596
0.26769325 -0.7714877 -0.15966262 0.4396519 0.12310755 -0.69625807 0.0072805895 -0.36174572
-0.5162861 -0.06658068 -0.2528382 -1.3021933 0.25673094 0.11032838 -0.47897917 -0.1725829
0.437782 0.046739142 -0.5583036 -0.39457065 -0.33457544 0.46222258 0.0452315 -0.807283
0.20770727 0.12766722 -0.1968481 0.33019036 0.18537684 0.04691775 -0.5316181 -0.3686855
-0.7502018 -0.23337911 0.02414936 -0.97295755 -0.09300997 0.41153485 0.08055857 -0.24632564
-0.53989446 -0.4833267 -0.39824733 -0.69291395 -0.46974218 -0.12416886 -0.6034928 0.13491024
-0.21985617 -0.43206677 0.574481 0.09757415 -0.63928753 0.011116288 -0.5777912 -0.64343554
-0.4385417 -0.34101823 0.1190917 -0.12705703 -0.06588577 0.06689624 0.53446037 0.32764676
0.23652415 -0.06380179 0.124824114 0.32687026 -0.20445088 0.2845018 0.15028848 0.22858594
-0.3317228 -0.6027369 0.10982266 0.2432388 -0.5948264 0.22576372 0.19715723 -0.2580659
-0.47456887 0.12769008 0.08220192 -0.31033236 -0.15585522 0.011783203 -0.13346148 -0.10135722
0.12466081 -0.021737656 -0.15709734 -0.23333344
00000000: 7bdf c53e eaa3 3b3e 95ad a33e 99b8 d1be
00000010: c33c 403e 7da4 2d3e cfa9 21bf 1d52 eabe
00000020: 0bbd a33e 1528 1ebd 5845 fd3c 9f01 15be
00000030: 9f2b 223e 9fa7 473e b723 88be e76b 703d
00000040: 075e 823e 0952 cebe 30b5 273e 4b9a 383e
00000050: cf58 853e a51d abbe 494d e0be cf11 babc
00000060: 9dd4 953e a418 37be 396f 6f3c a307 5cbf
00000070: ac3e e0be f786 903d 4b10 a7be f776 acbe
00000080: 5587 953b 343c 6dbd 9366 02bf 340a 04bf
00000090: e681 593e 5a07 5b3e b30d 5b3e a372 57be
000000a0: a292 c13b 6cb1 183d d56a 033e 2b41 74bd
000000b0: 4d37 1cbf 31eb 0d3d 6138 b83c 14e0 a03e
000000c0: c1da 903d f133 2e3e cebd b03e 47ba 05be
000000d0: c117 a3be 5adb acbe 9f29 883e 5c0d b43e
000000e0: 2055 c6be 6a80 53be 948b 353e 499d 2cbe
000000f0: 4348 ad3e b484 cebe aee0 10be eecd fe3e
00000100: 744d 30be 48ff a93d 6e58 a23d d65b e6be
00000110: 4c80 7bbe 1366 0a3e 57fd 6fbd f544 243e
00000120: e326 e3be 0ddf b03d a5ec ce3d 9935 403e
00000130: 5840 2e3e 5812 2ebe 334f 65be a579 3e3e
00000140: 4bcd b3be abcd 24bf cf4a 27bf 3cfd 24bf
00000150: 2a30 343e c3d1 b33e 2fa3 f6be 3a42 3c3d
00000160: 170f 893e 3880 45bf 997e 23be 0e1a e13e
00000170: d01f fc3d f83d 32bf 0392 ee3b bc36 b9be
00000180: 532b 04bf 745b 88bd 0274 81be 45ae a6bf
00000190: 3d72 833e d8f3 e13d c23c f5be 92b9 30be
000001a0: f624 e03e 8b71 3f3d fcec 0ebf 2a05 cabe
000001b0: 794d abbe 70a8 ec3e aa44 393d 19aa 4ebf
000001c0: 37b1 543e 32bb 023e 8c92 49be b60e a93e
000001d0: 6dd3 3d3e d42c 403d 2018 08bf 59c4 bcbe
000001e0: 3a0d 40bf effa 6ebe e1d4 c53c bf13 79bf
000001f0: 037c bebd b2b4 d23e e4fb a43d ca3c 7cbe
00000200: 8636 0abf 9976 f7be 13e7 cbbe cf62 31bf
00000210: 0c82 f0be 3e4c febd 817e 1abf e925 0a3e
00000220: fa21 61be db37 ddbe 3011 133f f5d4 c73d
00000230: 59a8 23bf 1721 363c 20ea 13bf 31b8 24bf
00000240: 8a88 e0be f199 aebe 59e6 f33d 3d1b 02be
00000250: 1eef 86bd e500 893d 65d2 083f 51c1 a73e
00000260: 6333 723e 83aa 82bd c9a3 ff3d 8a5b a73e
00000270: 925b 51be 38aa 913e 39e5 193e 6f12 6a3e
00000280: 92d7 a9be f74c 1abf b4ea e03d 9813 793e
00000290: 8b46 18bf 9b2e 673e 96e3 493e 3721 84be
000002a0: b1fa f2be 30c1 023e 7b59 a83d e2e3 9ebe
000002b0: 8398 1fbe 560e 413c 20aa 08be 6094 cfbd
000002c0: 2b4e ff3d 2b13 b2bc 20de 20be f6ee 6ebe

first.bias f4 [20]
-0.019462302 0.09867018 -0.048831355 0.2783704 -0.015363244 0.05239552 0.12804669 -0.102386124
0.013247025 0.21692415 0.08453576 0.098091446 -0.058009345 0.1925622 0.24956042 -0.05763934
-0.021694522 -0.005043749 0.17566328 -0.27857623
00000000: 686f 9fbc 9713 ca3d 6303 48bd 9186 8e3e
00000010: 1eb6 7bbc af9c 563d ac1e 033e d1af d1bd
00000020: 0d0a 593c 5d21 5e3e 1621 ad3d 2be4 c83d
00000030: 359b 6dbd 062f 453e c48c 7f3e 3b17 6cbd
00000040: b6b8 b1bc 0946 a5bb 13e1 333e 8ba1 8ebe

hiddens.0.weight f4 [20, 20, 3, 3]
0.35700607 0.04297986 0.005376916 0.27254072 0.15058182 -0.01232425 -0.0056907614 0.008737585
0.039403126 -0.1300184 -0.10401639 -0.042659916 -0.14619292 -0.09412248 -0.09028817 -0.12026607
-0.07671808 -0.03659127 0.11473823 0.008029625 -0.040558454 0.05906071 -0.029319538 -0.113834694
0.15117145 -0.088530876 -0.21274273 -0.11723029 -0.07897756 -0.20112257 -0.021526605 -0.011519859
0.0005875976 0.17367537 0.07795562 -0.029072845 0.054649662 0.019892555 0.16169755 0.08000651
-0.006003569 0.026435299 0.09974546 -0.00037020555 -0.06121747 0.26483688 0.14142452 0.116037026
0.15426321 0.107679315 0.10572692 0.09515505 0.05190615 0.09081364 -0.020506738 -0.12150442
-0.034282833 -0.012079215 -0.080823526 0.033691086 -0.07457664 0.036421794 0.040224157 -0.24965733
-0.16509707 0.11369468 -0.08909183 -0.2759838 -0.02336883 -0.23250988 -0.40011376 -0.16871569
0.07002358 0.34571046 0.4586087 -0.3106839 0.005643366 0.065541424 -0.054380417 0.16120861
-0.1071294 -0.11635321 -0.19225219 -0.38095322 -0.010997326 -0.16046675 -0.15665492 0.05125324
-0.11625498 0.019889336 0.15443252 0.009112181 0.041570075 0.17203204 0.07923529 0.052153908
0.20473132 -0.00440587 0.08611498 -0.07269421 -0.2592137 0.05673357 0.2283756 -0.036480565
0.10021438 0.30566546 0.17918888 -0.028677514 0.110223465 -0.10892276 -0.1881145 0.18783796
-0.044732265 -0.09407852 -0.040031724 0.1264202 -0.02978747 -0.21394007 -0.09222433 -0.3532051
0.13223754 0.08049897 -0.08059162 0.23487271 0.22154365 0.12375255 -0.09000862 -0.21207233
-0.26380032 0.13856278 0.0014543504 -0.076356776 0.24691284 0.1331153 -0.014273771 -0.736062
-0.2557359 -0.2273667 -0.3704885 -0.46427795 -0.08073816 -0.93362164 -0.27319944 0.036032993
-0.111657366 -0.23028542 -0.15467957 -0.23313217 -0.16999367 -0.2647383 -0.08067737 -0.1641753
-0.12875338 -0.031227866 -0.10307672 0.2925024 0.22601764 0.17397107 0.26927617 0.26106703
0.25768352 0.255886 0.113783345 0.25140458 -0.20606881 0.09084796 0.12724046 0.090299964
-0.048816785 0.10399037 0.23631877 -0.068388216 0.033482675 -0.05508027 -0.06935494 0.042826716
0.046722483 0.02092981 -0.0033269986 0.022476088 0.0053046504 -0.03887355 -0.08832578 0.022365868
-0.07771425 -0.054822363 -0.060262296 -0.049375046 -0.035206772 0.05497735 0.05130272 -0.04984681
0.012851055 -0.03633736 0.01601938 -0.002841705 -0.014943664 0.018407464 -0.09242372 -0.004186531
-0.059539307 -0.041503865 -0.0699562 -0.094280906 -0.014005834 -0.018875703 -0.06069805 0.04992162
-0.0655136 0.02969956 0.05705065 0.017862206 -0.038623624 -0.053731453 0.019168261 0.047683254
-0.08401303 -0.07620588 0.020883793 -0.058181014 -0.079213955 -0.0045660785 0.030606207 -0.06307352
-0.01317058 -0.019011369 0.014700822 0.021204218 0.0014186419 0.044477444 0.04046036 0.04654366
-0.045841753 0.0059498665 0.051437814 0.04505219 0.0002728126 -0.07614051 -0.03650567 0.031160112
3.57915e-05 -0.035716005 0.04665875 0.05053505 0.00887445 -0.035331998 -0.037984617 -0.0013654921
0.011429006 0.022994509 0.028366022 0.06270642 -0.05122062 -0.064187236 0.06687207 0.011447076
00000000: 80c9 b63e a60b 303d d730 b03b 758a 8b3e
00000010: 1f32 1a3e a7eb 49bc 9179 babb 1628 0f3c
00000020: 2c65 213d 8b23 05be 8c06 d5bd 2abc 2ebd
00000030: 99b3 15be 49c3 c0bd 01e9 b8bd 0f4e f6bd
00000040: 5e1e 9dbd bae0 15bd e1fb ea3d b08e 033c
00000050: 9f20 26bd a5e9 713d 872f f0bc 2a22 e9bd
00000060: b0cc 1a3e ad4f b5bd 3bd9 59be 6f16 f0bd
00000070: fdbe a1bd 13f3 4dbe 9058 b0bc cabd 3cbc
00000080: 0209 1a3a f5d7 313e 32a7 9f3d 2d2a eebc
00000090: 53d8 5f3d b6f5 a23c 0b94 253e 74da a33d
000000a0: 96b9 c4bb d78e d83c 5947 cc3d 2618 c2b9
000000b0: 2bbf 7abd b398 873e 97d1 103e d2a4 ed3d
000000c0: 2df7 1d3e f986 dc3d 5b87 d83d a7e0 c23d
000000d0: 8b9b 543d 80fc b93d bffd a7bc 4fd7 f8bd
000000e0: 286c 0cbd e6e7 45bc ce86 a5bd aaff 093d
000000f0: a3bb 98bd 052f 153d 16c2 243d 2ca6 7fbe
00000100: 350f 29be c2d8 e83d c775 b6bd c04d 8dbe
00000110: fd6f bfbc 1217 6ebe b6db ccbe cec3 2cbe
00000120: 8668 8f3d f600 b13e c2ce ea3e f611 9fbe
00000130: fceb b83b 953a 863d 00be 5ebd df13 253e
00000140: a966 dbbd 974a eebd c2dd 44be 4d0c c3be
00000150: 212e 34bc 6551 24be 266a 20be ebee 513d
00000160: 1717 eebd f6ee a23c 8f23 1e3e 424b 153c
00000170: 6245 2a3d 2b29 303e 1d46 a23d 569f 553d
00000180: 16a5 513e 1e5f 90bb 0d5d b03d b4e0 94bd
00000190: a8b7 84be 7661 683d 4bdb 693e a56c 15bd
000001a0: 323d cd3d 2f80 9c3e 4a7d 373e 1bed eabc
000001b0: d7bc e13d e512 dfbd 16a1 40be 9858 403e
000001c0: 2e39 37bd 3dac c0bd 4ef8 23bd 4c74 013e
000001d0: da04 f4bc 1b13 5bbe 1ce0 bcbd 4dd7 b4be
000001e0: 4769 073e a5dc a43d 380d a5bd 7982 703e
000001f0: 57dc 623e fa71 fd3d 7056 b8bd 7d29 59be
00000200: d610 87be 67e3 0d3e e79f be3a f160 9cbd
00000210: b8d6 7c3e 614f 083e 89dc 69bc 8f6e 3cbf
00000220: d1ef 82be d1d2 68be abb0 bdbe d7b5 edbe
00000230: 0c5a a5bd d401 6fbf cce0 8bbe 5597 133d
00000240: 9eac e4bd f1cf 6bbe 5264 1ebe 33ba 6ebe
00000250: d212 2ebe c78b 87be 2d3a a5bd 921d 28be
00000260: edd7 03be 95d1 ffbc e319 d3bd e0c2 953e
00000270: 2b71 673e 7925 323e 91de 893e 94aa 853e
00000280: 18ef 833e 7d03 833e 3e07 e93d 1ab8 803e
00000290: b403 53be 7f0e ba3d 534b 023e 30ef b83d
000002a0: 1cf4 47bd e7f8 d43d 8cfd 713e 1f0f 8cbd
000002b0: 2125 093d d99b 61bd f609 8ebd 116b 2f3d
000002c0: 1360 3f3d fe74 ab3c c609 5abb c61f b83c
000002d0: a2d2 ad3b df39 1fbd 26e4 b4bd a038 b73c
000002e0: a628 9fbd 6a8d 60bd 99d5 76bd 7d3d 4abd
000002f0: fa34 10bd ee2f 613d cd22 523d 2b2c 4cbd
00000300: 3b8d 523c 7cd6 14bd 133b 833c e63b 3abb
00000310: 45d6 74bc 40cb 963c a648 bdbd 2b2f 89bb
00000320: 7ddf 73bd f5ff 29bd 3245 8fbd 5916 c1bd
00000330: ba78 65bc 38a1 9abc 859e 78bd 9d7a 4c3d
00000340: ff2b 86bd 7e4c f33c f1ad 693d c353 923c
00000350: ce33 1ebd 8315 5cbd c206 9d3c 844f 433d
00000360: 060f acbd d411 9cbd 7d14 ab3c 374f 6ebd
00000370: ed3a a2bd 0b9f 95bb deb9 fa3c b12c 81bd
00000380: 6bc9 57bc bbbd 9bbc b7db 703c 78b4 ad3c
00000390: b9f1 b93a fb2d 363d c3b9 253d 91a4 3e3d
000003a0: 90c4 3bbd 19f7 c23b 75b0 523d a588 383d
000003b0: 4a08 8f39 8eef 9bbd f886 15bd 7e43 ff3c
000003c0: d51e 1638 f24a 12bd 3f1d 3f3d d7fd 4e3d
000003d0: 2466 113c 49b8 10bd c295 1bbd 50fa b2ba
000003e0: ba40 3b3c fb5e bc3c dc5f e83c 396c 803d
000003f0: b6cc 51bd 9974 83bd 39f4 883d 848c 3b3c

hiddens.0.bias f4 [20]
0.009116368 -0.080886126 -0.110147566 0.12836064 0.025497673 0.078097016 0.018471247 -0.09163181
-0.0047099236 -0.00768595 -0.07226044 -0.0038461813 0.032233577 -0.062403034 0.1315596 0.08410176
0.12739958 0.00095717906 -0.009456353 0.05030492
00000000: d25c 153c a0a7 a5bd 0c95 e1bd f970 033e
00000010: 7fe0 d03c 54f1 9f3d 0351 973c 75a9 bbbd
00000020: b455 9abb 6cda fbbb 48fd 93bd 3710 7cbb
00000030: 5b07 043d 539a 7fbd 8fb7 063e 8b3d ac3d
00000040: 0975 023e 33eb 7a3a d2ee 1abc 880c 4e3d

hiddens.2.weight f4 [20, 20, 3, 3]
-0.0749974 0.025174467 -0.03823719 -0.012763658 0.020652032 -0.04263573 -0.013199014 0.014856498
-0.024527015 -0.05672003 0.012705581 -0.06830712 -0.054238696 0.061398882 -0.0389093 -0.079488695
-0.048141602 -0.00017778127 -0.06849313 0.049632225 0.04319561 -0.03537002 0.056372836 -0.022892801
-0.07194834 -0.004945258 0.03466812 -0.110651776 0.032796655 -0.0056294976 -0.0009909295 -0.08107698
-0.06689714 -0.0006326973 -0.09450643 -0.058630843 0.003727492 -0.124223776 -0.002801916 -0.059864704
-0.13971825 -0.013513031 -0.018044341 -0.021038853 -0.015937798 -0.042779826 0.013648162 -0.14152156
-0.065767884 -0.048094396 0.057017066 0.022701573 -0.05640026 0.018054413 -0.03743718 0.015735263
-0.042930327 -0.03134278 -0.048771713 -0.07594401 -0.09005697 -0.08435598 -0.024270108 0.051147297
-0.042776812 0.005765989 0.049207825 -0.006044735 0.025937239 -0.06062702 0.0054504042 -0.067429684
-0.077138245 -0.06433021 -0.05026917 -0.07601701 -0.08213779 0.047947165 0.07548389 0.07841466
-0.064421736 0.023530643 -0.027349915 -0.038719095 -0.07547159 -0.012071486 -0.060132634 -0.055869255
-0.107866384 -0.04538155 -0.04440031 -0.014158019 0.055417303 0.009981504 -0.0015804423 0.043413974
-0.0014947158 -0.05927793 -0.05117937 0.045779344 -0.05233024 0.06023009 -0.0016504121 -0.03982049
-0.04661287 -0.038530234 -0.013141092 0.043377593 -0.007651423 0.062334105 -0.058684632 -0.02483792
0.029379616 -0.034350038 -0.038437642 0.036073443 -0.04876824 0.03492115 -0.043306064 -0.024907548
0.060032893 -0.04918205 0.013535233 -0.025843639 -0.083117776 -0.07652702 -0.12248328 0.07017088
-0.036369614 -0.10696033 0.0017411389 -0.07100532 0.0035138456 -0.083907284 0.013135789 -0.08636908
0.0417656 0.024938224 -0.083445534 0.031067796 -0.08594831 -0.12686664 -0.1319548 -0.028204646
-0.046807915 -0.010400559 -0.044316854 -0.07887923 -0.01798302 -0.077791594 -0.043210223 -0.045259513
-0.0019930275 0.012549522 -0.057561878 -0.11585043 -0.055564675 0.0015283567 -0.08381438 -0.07381204
-0.09602383 0.0004754077 -0.06763791 -0.050514214 -0.03284036 -0.061252788 -0.07552775 -0.04804521
-0.08336588 -0.071215644 0.010314395 -0.13630733 -0.02212219 -0.026363349 -0.030515125 -0.029426187
0.016468262 -0.057959873 -0.031977564 -0.085509725 -0.017710008 -0.06421114 -0.045681216 -0.015797654
-0.050061785 -0.014451762 0.0058484157 -0.07828636 0.030551635 0.055283595 0.015123536 0.00043276994
-0.04896866 0.039196357 0.04558295 0.042788148 -0.012106515 0.0098085785 -0.033804785 -0.022650454
-0.030108344 -0.05338722 0.03779812 0.0059404336 -0.02472926 -0.04646788 0.004789374 -0.03287252
-0.0077383425 -0.01224004 -0.06856079 -0.080530554 0.05397969 0.042974744 -0.02974605 0.056347996
0.029923469 -0.017411573 -0.056215275 -0.056617707 0.049729828 0.05469672 -0.06352276 -0.03351714
-0.051073134 -0.007945932 -0.0762485 -0.0036819694 -0.031973787 -0.059246313 -0.076170385 -0.03836791
-0.08268673 0.024659727 -0.09049772 0.022585269 0.0048386646 0.033361867 -0.03143644 -0.01839672
-0.008857796 -0.045180857 -0.061657205 0.02629353 0.02697434 -0.037206016 0.07140372 0.011387613
0.006760263 -0.04267032 -0.008701115 0.013066607 -0.030749632 -0.047978938 -0.017064137 -0.02022302
00000000: 3d98 99bd af3a ce3c 9a9e 1cbd a91e 51bc
00000010: 732e a93c cea2 2ebd ad40 58bc ab68 733c
00000020: e1ec c8bc 4353 68bd 122b 503c 9ae4 8bbd
00000030: 6529 5ebd 657d 7b3d 5c5f 1fbd f8ca a2bd
00000040: 2130 45bd cc6a 3ab9 2046 8cbd 294b 4b3d
00000050: e1ed 303d 27e0 10bd 34e7 663d af89 bbbc
00000060: a759 93bd d50b a2bb 2900 0e3d 669d e2bd
00000070: c955 063d a677 b8bb 14e2 81ba b00b a6bd
00000080: 5e01 89bd 99db 25ba 968c c1bd e526 70bd
00000090: f048 743b 0969 febd 5aa0 37bb b134 75bd
000000a0: 4d12 0fbe c365 5dbc bad1 93bc ac59 acbc
000000b0: fc8f 82bc e639 2fbd 8a9c 5f3c 07eb 10be
000000c0: 50b1 86bd a1fe 44bd ba8a 693d a6f8 b93c
000000d0: f603 67bd d9e6 933c ba57 19bd 3de7 803c
000000e0: b6d7 2fbd 4961 00bd d9c4 47bd 8888 9bbd
000000f0: ca6f b8bd d4c2 acbd 1bd2 c6bc d47f 513d
00000100: bd36 2fbd 9ff0 bc3b 258e 493d ea12 c6bb
00000110: 557a d43c 0a54 78bd 4e99 b23b 9318 8abd
00000120: a8fa 9dbd 8fbf 83bd 0ce7 4dbd ceae 9bbd
00000130: dc37 a8bd 3f64 443d 4c97 9a3d de97 a03d
00000140: 8bef 83bd 56c3 c03c ee0c e0bc ea97 1ebd
00000150: d990 9abd 7bc7 45bc a34d 76bd 29d7 64bd
00000160: 0de9 dcbd 01e2 39bd 19dd 35bd 09f7 67bc
00000170: 41fd 623d 7689 233c d826 cfba dad2 313d
00000180: 57ea c3ba 6acd 72bd 76a1 51bd 1f83 3b3d
00000190: 3c58 56bd d4b3 763d a452 d8ba cf1a 23bd
000001a0: 23ed 3ebd e1d1 1dbd bc4d 57bc b4ac 313d
000001b0: cab8 fabb 0c52 7f3d 4c5f 70bd e578 cbbc
000001c0: 85ad f03c a0b2 0cbd ca70 1dbd bfc1 133d
000001d0: 35c1 47bd 7b09 0f3d b361 31bd ea0a ccbc
000001e0: 0de5 753d 1e73 49bd e2c2 5d3c 0ab6 d3bc
000001f0: a739 aabd 33ba 9cbd 84d8 fabd c0b5 8f3d
00000200: 4ef8 14bd 040e dbbd ed36 e43a 3d6b 91bd
00000210: 8c48 663b 95d7 abbd 7e37 573c 46e2 b0bd
00000220: 6812 2b3d 3f4b cc3c 7ee5 aabd e481 fe3c
00000230: ab05 b0bd 54e9 01be 291f 07be 6e0d e7bc
00000240: a8b9 3fbd 1b67 2abc 9785 35bd 6f8b a1bd
00000250: 2051 93bc 3351 9fbd 34fd 30bd 0a62 39bd
00000260: 749d 02bb 839c 4d3c 01c6 6bbd fe42 edbd
00000270: c997 63bd 2453 c83a e0a6 abbd c42a 97bd
00000280: 24a8 c4bd 2440 f939 bf85 8abd fee7 4ebd
00000290: 9d83 06bd 34e4 7abd 4bae 9abd 0ecb 44bd
000002a0: bbbb aabd 82d9 91bd b5fd 283c 2694 0bbe
000002b0: 9839 b5bc f3f7 d7bc dbfa f9bc 300f f1bc
000002c0: 73e8 863c 5567 6dbd e8fa 02bd b91f afbd
000002d0: 9414 91bc 2181 83bd 3a1c 3bbd 156a 81bc
000002e0: 960d 4dbd 15c7 6cbc 11a4 bf3b 9954 a0bd
000002f0: 6c47 fa3c 0d71 623d b5c8 773c 66e5 e239
00000300: 5d93 48bd 5c8c 203d 30b5 3a3d a042 2f3d
00000310: 675a 46bc 29b4 203c e376 0abd 728d b9bc
00000320: c6a5 f6bc 8fac 5abd 34d2 1a3d f8a7 c23b
00000330: 0495 cabc 1b55 3ebd 2ef0 9c3b 56a5 06bd
00000340: ec91 fdbb 738a 48bc 9969 8cbd 34ed a4bd
00000350: cf19 5d3d 4906 303d fdad f3bc 28cd 663d
00000360: 1022 f53c b7a2 8ebc fd41 66bd f8e7 67bd
00000370: 81b1 4b3d ab09 603d 3918 82bd 4549 09bd
00000380: 1032 51bd a82f 02bc 2c28 9cbd 324d 71bb
00000390: f2f6 02bd 43ac 72bd 38ff 9bbd ab27 1dbd
000003a0: a957 a9bd 3203 ca3c de56 b9bd be04 b93c
000003b0: a98d 9e3b 74a6 083d 7fc3 00bd b8b4 96bc
000003c0: 4a20 11bc 900f 39bd 448c 7cbd 8765 d73c
000003d0: 4bf9 dc3c 5665 18bd 1d3c 923d 1c93 3a3c
000003e0: 3285 dd3b 13c7 2ebd 1f8f 0ebc 5215 563c
000003f0: a7e6 fbbc 9085 44bd 17ca 8bbc bfaa a5bc

hiddens.2.bias f4 [20]
-0.15999633 -0.15370947 0.06150951 -0.003739503 0.15678665 -0.1290503 -0.13587168 0.18934354
-0.008718393 -0.17147897 0.13817376 -0.11159148 -0.018326074 -0.061132815 0.12505136 -0.1923835
0.12357023 -0.05453128 0.06673404 -0.10047764
00000000: 14d6 23be 0466 1dbe 65f1 7b3d 7312 75bb
00000010: ae8c 203e c325 04be f221 0bbe 46e3 413e
00000020: 97d7 0ebc 2f98 2fbe 6c7d 0d3e 138a e4bd
00000030: 9020 96bc 6766 7abd 770d 003e 2e00 45be
00000040: 6412 fd3d 315c 5fbd dbab 883d 39c7 cdbd

hiddens.4.weight f4 [20, 20, 3, 3]
0.06753157 -0.027157586 0.10678135 0.11142572 0.012626095 -0.039453838 0.105189845 0.007447506
0.112839594 -0.04645893 0.017918102 0.073152475 0.0034642413 -0.052748024 -0.0005518157 0.06701424
0.03750865 0.060767647 -0.13003154 -0.028609594 0.09201562 -0.011815889 0.089174286 0.26230863
-0.12011145 0.06890348 0.3352769 -0.033015653 -0.093082465 -0.05133563 -0.010999111 -0.03982408
0.08958429 -0.076530926 0.112855755 0.22376537 -0.10690146 0.13308316 0.2827748 -0.13609883
0.16888471 0.5358788 0.058059897 0.3113169 0.6170429 -0.0148015795 0.0652546 -0.086138085
0.03325252 -0.061973754 0.021199295 0.053623073 0.020839246 0.012628255 0.08622151 -0.048657496
-0.072463565 -0.021800384 0.01684661 0.09581749 -0.020600712 -0.077706434 -0.0053656367 -0.02465653
-0.65019023 -0.24039234 0.26528755 -0.1984616 -0.01650526 0.06728844 -0.1523762 -0.19606514
0.23010369 -0.03407312 -0.46212432 0.34258553 0.0800464 -0.2760642 0.49025127 0.1981535
0.056358602 -0.09646012 0.040592503 -0.029006626 -0.02002928 0.04980091 0.032445285 -0.04764062
0.021984281 -0.0007992457 0.07008267 0.36216694 0.1345426 0.05076644 0.23660515 0.042538118
0.12165564 0.40051877 0.16069362 -0.049639557 -0.10514111 -0.0011630246 -0.007944231 -0.045966964
0.116842024 -0.009874595 -0.0070241485 0.27153355 -0.0048470367 -0.0006551128 0.057731047 -0.0395544
-0.06439799 -0.09306319 -0.0128326835 0.040573128 -0.06629252 0.015848612 0.011094467 0.029199429
0.00795323 -0.04803504 -0.052367274 0.031392217 -0.0200248 -0.027723504 0.1554953 0.023312405
-0.24845527 0.21165036 -0.019069772 -0.3400905 0.31125945 0.04175857 -0.24939136 -0.039216444
0.19582824 0.10879114 0.13237639 0.009245248 0.09928221 -0.05491766 -0.052925892 0.14159638
-0.11303605 -0.08003257 -0.0312285 -0.1706056 -0.0011502738 0.18628639 -0.14700523 0.0643787
0.34030604 0.00037173735 0.09034576 0.017388945 0.14539537 0.055859543 -0.0057470715 0.07189602
-0.009668248 -0.018910749 -0.00838804 -0.13091631 -0.26172522 0.123826616 -0.097639695 -0.2242095
0.2579873 0.23763777 -0.15417784 0.04469802 0.04974126 0.11233946 0.080063716 0.08912241
0.17222376 0.108249806 -0.041211605 0.052833647 0.03858983 -0.07067101 -0.026324289 0.026598634
-0.030452145 -0.027474636 0.02223662 -0.06559538 -0.07136994 0.029379461 -0.0050524618 0.020305855
0.019434737 -0.04272896 -0.050039228 -0.0031424058 -0.062417626 -0.0120479595 -0.069052525 -0.14403191
-0.5151128 -0.22398263 0.2317067 -0.06208586 -0.16198504 0.21982968 0.21158232 0.08836743
-0.0057010218 -0.7090964 -0.18554564 0.21378039 -0.33381674 -0.11084429 0.16139555 0.123887606
-0.27792826 -0.21473317 0.14868823 -0.40170786 -0.37886563 0.10141346 -0.4883257 -0.90257496
-0.7499716 0.07022365 -0.036955312 0.04871899 0.02904898 -0.050830092 0.04525313 -0.039944213
0.021365218 -0.07439126 0.0340083 -0.0564557 0.043196578 -0.07424653 0.054645054 0.06835828
0.06630933 0.026035093 -0.056677517 0.2695413 -0.07060807 0.009676544 1.0587832 0.64311945
0.037364073 1.3070979 0.8724955 0.43964624 -0.33284247 -0.27986664 -0.36581898 -0.17542507
00000000: fe4d 8a3d 9679 debc 2eb0 da3d 2b33 e43d
00000010: aedd 4e3c 599a 21bd c66d d73d 350a f43b
00000020: 7218 e73d b84b 3ebd fcc8 923c f7d0 953d
00000030: 5308 633b 500e 58bd baa7 10ba c33e 893d
00000040: aca2 193d 7fe7 783d fd26 05be ab5e eabc
00000050: af72 bc3d 6e97 41bc 02a1 b63d 514d 863e
00000060: fefc f5bd 451d 8d3d 6aa9 ab3e 6c3b 07bd
00000070: 05a2 bebd 4f45 52bd 9e35 34bc 931e 23bd
00000080: f877 b73d 3fbc 9cbd eb20 e73d c022 653e
00000090: 27ef dabd f446 083e dcc7 903e 7e5d 0bbe
000000a0: 1df0 2c3e 5a2f 093f 37d0 6d3d ee64 9f3e
000000b0: 86f6 1d3f 5382 72bc 34a4 853d 2a69 b0bd
000000c0: cb33 083d 31d8 7dbd 25aa ad3c dea3 5b3d
000000d0: 11b7 aa3c bee6 4e3c e794 b03d 154d 47bd
000000e0: c767 94bd b896 b2bc e701 8a3c f63b c43d
000000f0: d3c2 a8bc 8d24 9fbd 39d2 afbb 7efc c9bc
00000100: de72 26bf 6929 76be c5d3 873e 8539 4bbe
00000110: 0a36 87bc 86ce 893d 8208 1cbe 4dc5 48be
00000120: 4da0 6b3e 4290 0bbd 8f9b ecbe 5f67 af3e
00000130: 5eef a33d 4958 8dbe 3702 fb3e c0e8 4a3e
00000140: 47d8 663d e28c c5bd 5344 263d 4e9f edbc
00000150: 7214 a4bc 0afc 4b3d 59e5 043d d022 43bd
00000160: 6118 b43c 7984 51ba 8187 8f3d f26d b93e
00000170: 89c5 093e 78f0 4f3d 9f48 723e 733c 2e3d
00000180: 9826 f93d cc10 cd3e de8c 243e d952 4bbd
00000190: 3954 d7bd a170 98ba 8528 02bc db47 3cbd
000001a0: df4a ef3d 0ec9 21bc d42a e6bb 7206 8b3e
000001b0: e4d3 9ebb e0bb 2bba 6477 6c3d cb03 22bd
000001c0: 18e3 83bd ea97 bebd 2d40 52bc 0230 263d
000001d0: 5fc4 87bd f3d4 813c 91c5 353c a433 ef3c
000001e0: 444e 023c 64c0 44bd 117f 56bd 2095 003d
000001f0: 0d0b a4bc 671c e3bc 293a 1f3e a8f9 be3c
00000200: 0f6b 7ebe dfba 583e 3638 9cbc 5820 aebe
00000210: 665d 9f3e 090b 2b3d 7360 7fbe 6ca1 20bd
00000220: 3387 483e e4cd de3d ad8d 073e 6179 173c
00000230: 7954 cb3d 57f1 60bd d2c8 58bd a4fe 103e
00000240: 727f e7bd 1ee8 a3bd e9d2 ffbc 3cb3 2ebe
00000250: c9c4 96ba dcc1 3e3e 8a88 16be fbd8 833d
00000260: 983c ae3e bee5 c239 3307 b93d 4373 8e3c
00000270: 86e2 143e facc 643d ee51 bcbb 383e 933d
00000280: 9267 1ebc b7ea 9abc fd6d 09bc ed0e 06be
00000290: d900 86be cf98 fd3d 52f7 c7bd 2d97 65be
000002a0: e916 843e 5157 733e cce0 1dbe 4515 373d
000002b0: 7ebd 4b3d 3b12 e63d 72f8 a33d cf85 b63d
000002c0: 6d5b 303e 13b2 dd3d 80cd 28bd 1868 583d
000002d0: 5f10 1e3d f6bb 90bd 09a6 d7bc 61e5 d93c
000002e0: c776 f9bc 7d12 e1bc 9229 b63c df56 86bd
000002f0: 672a 92bd 32ad f03c 1f8f a5bb 7758 a63c
00000300: 9935 9f3c 9004 2fbd eff5 4cbd d2f0 4dbb
00000310: a0a9 7fbd ce64 45bc 696b 8dbd 1a7d 13be
00000320: 6fde 03bf b45b 65be 8544 6d3e be4d 7ebd
00000330: 68df 25be 081b 613e 09a9 583e fcf9 b43d
00000340: a3cf babb 5787 35bf adff 3dbe 3fe9 5a3e
00000350: 07ea aabe 5502 e3bd e044 253e c9b8 fd3d
00000360: 9d4c 8ebe 03e3 5bbe ba41 183e a7ac cdbe
00000370: adfa c1be dcb1 cf3d d305 fabe 270f 67bf
00000380: 24fe 3fbf 6bd1 8f3d 745e 17bd 908d 473d
00000390: 20f8 ed3c 3733 50bd 595b 393d 8b9c 23bd
000003a0: 1c06 af3c 725a 98bd 4a4c 0b3d 183e 67bd
000003b0: e5ee 303d 910e 98bd 7ed3 5f3d 6dff 8b3d
000003c0: 30cd 873d 8c47 d53c af26 68bd 5101 8a3e
000003d0: f79a 90bd 5e8a 1e3c 3586 873f 7aa3 243f
000003e0: 120b 193d fc4e a73f dd5b 5f3f 5019 e13e
000003f0: 546a aabe ae4a 8fbe a04c bbbe a1a2 33be

hiddens.4.bias f4 [20]
0.015199957 0.18908782 -0.02727122 -0.027123423 0.17736588 0.07185207 0.17035294 -0.04268886
0.19762993 -0.105214484 -0.16130713 -0.014114849 -0.039809242 0.10847141 -0.061607998 0.08538473
-0.12805565 0.22123402 -0.06472127 0.19439968
00000000: 3e09 793c 3da0 413e e567 dfbc f131 debc
00000010: 679f 353e 2e27 933d 0071 2e3e 84da 2ebd
00000020: 805f 4a3e b17a d7bd b22d 25be f841 67bc
00000030: 040f 23bd 4226 de3d ab58 7cbd 30de ae3d
00000040: 0521 03be 2c8b 623e 968c 84bd b610 473e

hiddens.6.weight f4 [20, 20, 3, 3]
-0.09618272 -0.019799132 -0.08194675 -0.073871635 -0.07614189 -0.05173366 -0.057245698 -0.06913375
-0.018899206 -0.0015742405 -0.104426704 -0.067135185 -0.04850639 -0.13471028 -0.04985832 0.03524784
-0.04482611 0.049717735 0.007974094 -0.03470426 0.032902 -0.07605958 -0.078374214 -0.07295472
0.020021424 0.046970658 -0.063710436 -0.066321224 0.0032605405 0.014945173 -0.007747789 -0.01642243
0.05220075 -0.07002314 0.010579528 0.052800402 0.0004475277 -0.08563194 -0.052407686 -0.03772155
-0.010453334 -0.057050243 -0.03764783 -0.08549162 0.026211914 -0.015794748 -0.07988449 0.04673362
-0.039311584 -0.08895793 -0.06898935 -0.041172143 -0.08416796 -0.08981546 -0.05028799 0.036569446
0.0012653555 0.043466635 0.056450352 0.06206946 0.0506974 -0.078539096 -0.03989686 0.03482073
-0.095759526 -0.042032745 -0.044683807 -0.022187296 0.010764388 -0.04115865 -0.011146837 -0.0064818547
-0.06805968 -0.02196465 -0.0060598413 -0.016534112 -0.06356099 -0.07930614 0.004027692 -0.07694239
-0.036717266 0.011789135 0.025188988 -0.043364607 0.06322682 0.026057519 0.012536018 -0.021066785
-0.0017731666 -0.047663447 -0.0008710114 -0.0008178688 0.017896308 0.027121358 -0.047428425 -0.01856754
0.022795884 -0.08506521 0.061111078 -0.029734418 0.082977384 0.06797981 -0.009489238 0.068606384
0.009076633 -0.05492534 0.005943367 -0.022284975 -0.01475113 -0.030511502 0.013823288 0.015398327
-0.06093346 -0.017700287 -0.02315763 0.06380416 0.02226998 0.05236908 -0.018912941 0.032311626
-0.05631121 -0.07104444 -0.009596049 -0.081893995 -0.083926514 -0.053467542 -0.07001007 0.03212431
0.015076196 0.012199349 0.017857859 0.01962811 -0.053097486 0.044892788 -0.013803416 0.025897527
-0.063966036 -0.04801337 -0.06947444 -0.07088953 0.020622283 0.044949856 -0.083543375 -0.010648939
0.0070406324 -0.051949117 -0.03279349 -0.04956005 0.063220315 -0.015439572 -0.038025983 -0.052174784
-0.070364594 0.021378243 -0.035621006 -0.04832319 -0.088064946 -0.06116768 -0.00084231247 -0.05431005
0.010452989 -0.0689686 0.03207108 -0.03165045 0.047765117 -0.07785527 -0.0022883557 -0.06503321
0.0116927875 -0.073268086 -0.01349523 0.04371747 -0.07350187 -0.07000979 0.051219143 -0.01715828
0.05081419 0.020351779 -0.051750474 -0.07442279 -0.034377135 -0.05727179 -0.113455415 -0.0730142
-0.048909493 -0.12745208 -0.05687444 -0.06355941 -0.09909628 0.057312913 -0.04418816 -0.028268524
-0.06686503 0.04183559 0.042934112 -0.008438901 0.014147605 -0.04128748 0.06851584 -0.029674465
-0.054594774 0.018655136 -0.0104899835 0.017435431 -0.04379496 0.06250376 0.006475382 -0.034305528
0.071152225 0.012979246 0.028364107 -0.028533187 0.054398265 0.012701464 0.038319238 -0.054935277
-0.011210308 -0.02106083 -0.04820047 0.028204473 -0.13193695 -0.021995569 0.03287242 -0.0335044
0.027164828 -0.0684152 -0.06783272 0.0005185426 -0.11802637 -0.04437842 -0.055474665 -0.0042306175
-0.0081029115 -0.0140547715 -0.011636245 0.016333478 0.029371837 -0.026429947 0.029276177 -0.009897758
-0.057986367 -0.07308101 0.05571288 0.005540025 -0.00859782 0.029532991 -0.08966613 -0.05223853
-0.072711185 -0.023527576 -0.061352793 0.07075521 0.03557628 -0.070833854 -0.12728444 -0.055811
00000000: 72fb c4bd ca31 a2bc b3d3 a7bd 034a 97bd
00000010: 47f0 9bbd ade6 53bd 777a 6abd ff95 8dbd
00000020: 82d2 9abc bf56 ceba abdd d5bd 2c7e 89bd
00000030: a3ae 46bd 7ef1 09be 3d38 4cbd 0a60 103d
00000040: 959b 37bd d3a4 4b3d c6a5 023c 0e26 0ebd
00000050: 3fc4 063d 20c5 9bbd a982 a0bd 4969 95bd
00000060: f803 a43c 4e64 403d 9e7a 82bd 6cd3 87bd
00000070: cbae 553b 99dc 743c 2ae1 fdbb 5588 86bc
00000080: 74d0 553d 4b68 8fbd c255 2d3c 3c45 583d
00000090: 27a2 ea39 cc5f afbd 71a9 56bd e981 1abd
000000a0: 7644 2bbc 84ad 69bd 9c34 1abd 3b16 afbd
000000b0: 5eba d63c fd63 81bc 7b9a a3bd c16b 3f3d
000000c0: 2f05 21bd 932f b6bd 4a4a 8dbd 1fa4 28bd
000000d0: 4060 acbd 2bf1 b7bd c8fa 4dbd d8c9 153d
000000e0: 49da a53a 120a 323d 7c38 673d 8c3c 7e3d
000000f0: 14a8 4f3d 1bd9 a0bd e46a 23bd 2fa0 0e3d
00000100: 921d c4bd 872a 2cbd 5e06 37bd 22c2 b5bc
00000110: 1e5d 303c f995 28bd 39a1 36bc bd65 d4bb
00000120: e062 8bbd 36ef b3bc a291 c6bb 8c72 87bc
00000130: 442c 82bd 426b a2bd bbfa 833b f993 9dbd
00000140: d864 16bd 3727 413c 2359 ce3c 169f 31bd
00000150: 107d 813d 9476 d53c df63 4d3c 4094 acbc
00000160: 9969 e8ba bf3a 43bd 9654 64ba 3f66 56ba
00000170: 479b 923c 9c2d de3c 4f44 42bd f41a 98bc
00000180: 6fbe ba3c ab36 aebd 9c4f 7a3d 9895 f3bc
00000190: 0cf0 a93d 0039 8b3d c078 1bbc 8181 8c3d
000001a0: 28b6 143c 65f9 60bd 93c0 c23b fb8e b6bc
000001b0: b9ae 71bc 42f3 f9bc 127b 623c 4449 7c3c
000001c0: 5d95 79bd 3100 91bc 12b5 bdbc c1ab 823d
000001d0: 886f b63c f680 563d 50ef 9abc 3259 043d
000001e0: 95a6 66bd bf7f 91bd bf38 1dbc 0ab8 a7bd
000001f0: aae1 abbd c800 5bbd 7161 8fbd c894 033d
00000200: 2602 773c c7df 473c a54a 923c 21cb a03c
00000210: c07c 59bd 80e1 373d b927 62bc 0d27 d43c
00000220: a000 83bd aba9 44bd 9d48 8ebd 882e 91bd
00000230: 10f0 a83c 571d 383d ca18 abbd e378 2ebc
00000240: 1bb5 e63b 99c8 54bd 7752 06bd 7bff 4abd
00000250: a779 813d 42f6 7cbc 22c1 1bbd 3ab5 55bd
00000260: 501b 90bd 6d21 af3c 55e7 11bd 8aee 45bd
00000270: 655b b4bd f68a 7abd a2ce 5cba 3774 5ebd
00000280: 0343 2b3c 693f 8dbd f75c 033d e7a3 01bd
00000290: 5ba5 433d 9572 9fbd 3df8 15bb 2230 85bd
000002a0: 1b93 3f3c 940d 96bd 191b 5dbc 1711 333d
000002b0: 2688 96bd 4b61 8fbd 2acb 513d 858f 8cbc
000002c0: 8a22 503d c6b8 a63c 4ef8 53bd fa6a 98bd
000002d0: 0acf 0cbd d395 6abd 505b e8bd 7888 95bd
000002e0: 5255 48bd cc82 02be 2cf5 68bd 702b 82bd
000002f0: fef2 cabd f2c0 6a3d a5fe 34bd 6493 e7bc
00000300: 88f0 88bd cc5b 2b3d aedb 2f3d 5143 0abc
00000310: 5bcb 673c 101d 29bd 0852 8c3d dd17 f3bc
00000320: c59e 5fbd a8d2 983c 2ede 2bbc c0d4 8e3c
00000330: 5862 33bd f901 803d 712f d43b f483 0cbd
00000340: 42b8 913d e7a6 543c d85b e83c 6ebe e9bc
00000350: b7d0 5e3d cd19 503c a2f4 1c3d d003 61bd
00000360: 71ab 37bc c387 acbc db6d 45bd 110d e73c
00000370: 7b1a 07be 0d30 b4bc 3ba5 063d e93b 09bd
00000380: c688 de3c 451d 8cbd e2eb 8abd ceee 073a
00000390: cfb7 f1bd 25c6 35bd 6739 63bd fea0 8abb
000003a0: 13c2 04bc fc45 66bc f3a5 3ebc c9cd 853c
000003b0: 359d f03c 9e83 d8bc 98d4 ef3c 352a 22bc
000003c0: 1d83 6dbd 7fab 95bd 3033 643d 1989 b53b
000003d0: dfdd 0cbc 2cef f13c e0a2 b7bd 12f8 55bd
000003e0: 9ae9 94bd e7bc c0bc 114d 7bbd 1ce8 903d
000003f0: 6fb8 113d 5711 91bd da56 02be 139a 64bd

hiddens.6.bias f4 [20]
0.0207999 -0.12902857 0.00011156343 0.21988489 -0.040566016 0.3730104 -0.015896525 -0.035933863
0.188499 0.18458338 -0.037153065 -0.07411253 0.017459057 0.18498065 -0.11803132 -8.103014e-05
-0.16116878 -0.060521368 -0.08077516 0.093577676
00000000: 8d64 aa3c 1120 04be 29f7 e938 8129 613e
00000010: 8d28 26bd 38fb be3e 6e39 82bc 632f 13bd
00000020: e205 413e 6d03 3d3e d02d 18bd 4fc8 97bd
00000030: 4c06 8f3c 916b 3d3e 68ba f1bd baee a9b8
00000040: 6e09 25be 41e5 77bd 726d a5bd a7a5 bf3d

hiddens.8.weight f4 [20, 20, 3, 3]
-0.0062506483 -0.018042432 -0.025469512 -0.09236106 -0.04351366 0.052575663 0.0008762381 -0.042193215
-0.042344816 0.07452841 -0.045354616 -0.03160775 0.016169764 -0.06395449 0.08090039 0.0043501216
-0.06512868 0.024107113 0.036035318 0.052893702 -0.074833326 -0.070915446 0.12757264 0.06287821
-0.02788109 -0.017327968 -0.024532443 0.1547209 -0.09759521 -0.23639159 0.13836302 -0.027055427
-0.08646343 0.030717278 0.04645754 -0.0075605526 -0.008751712 -0.030770665 -0.07826419 0.03008906
0.12929645 -0.07979992 -0.076877385 0.07715706 -0.021558383 0.24989723 0.42209932 -0.047080647
0.14830853 0.28992283 0.15955648 0.23667578 0.39513385 0.32059458 -0.17023094 -0.3302606
-0.20131692 -0.016017253 0.161305 0.08444568 -0.5430756 -0.25623867 -0.53284013 0.008399728
0.04288354 0.066783085 -0.027694726 -0.011460506 0.10686981 -0.010451779 0.04574803 -0.03373221
-0.12467787 -0.08127326 -0.39144382 0.043522008 0.018929543 0.026453247 0.035783105 0.18058307
0.108321354 -0.04026795 -0.15370877 -0.32920873 -0.035950188 -0.025064014 -0.031354725 0.03339675
0.19324462 0.16430555 0.076244496 0.022442112 0.05583713 0.0049183103 0.006769123 -0.003140128
-0.049569026 -0.01858242 -0.0763568 0.013565688 -0.09440869 0.029548617 -0.072413824 -0.08613146
0.11150437 0.16514169 0.024077922 -0.06188435 0.04989656 -0.077354416 -0.08349421 -0.029285006
-0.05576639 -0.05398891 -0.005145542 -0.096328 -0.069560826 0.028857607 0.22433728 -0.17609395
-0.16973177 -0.322245 -0.36019132 -0.6879228 -0.58017164 -0.1978614 0.026428778 -0.021438206
-0.044467002 -0.07141284 -0.06926783 -0.051466644 -0.094577044 -0.15242217 -0.09317007 0.13207743
0.4760572 -0.008139196 0.31148416 0.5372228 -0.009588876 0.42583346 0.57155275 -0.14153513
-0.035528544 -0.0096901655 0.051606495 -0.051405147 -0.023085449 -0.047163624 0.019536091 -0.010563166
-0.00061857287 0.013387968 -0.04334822 -0.097596414 0.0031013894 -0.021494873 -0.07642634 0.04510376
0.03454205 0.047287673 0.0061302423 0.024307637 -0.020137308 -0.062261358 -0.01461223 0.03854489
-0.11891155 0.057190284 0.054809224 -0.14160913 0.031236079 0.23128769 -0.18864228 0.08841435
0.17509519 -0.29229352 -0.13288909 -0.0486681 0.041156333 0.065297656 0.0029954596 0.0364795
0.061605338 -0.045666616 -0.014762711 -0.044574026 0.07463512 0.039072007 0.06696391 0.0064944075
-0.048796315 0.024641555 -0.050769813 0.025323145 0.0782668 0.042095415 0.0008042989 -0.0392931
-0.0370798 0.0119852 0.018678684 -0.025853002 -0.08191456 0.041333176 0.054385364 -0.010240818
0.065840594 0.10002476 0.03501727 0.02716644 -0.0050569484 -0.112310916 -0.0040843072 -0.067056015
-0.068653986 -0.032595467 -0.05590492 -0.05892824 -0.02830815 -0.0735923 -0.008898079 -0.011838501
-0.022386242 0.4031361 -0.03589056 -0.007112172 0.48371425 0.038578432 0.3064383 0.16237013
-0.1110933 0.12762322 -0.0563877 0.047995534 0.1270222 0.09746099 -0.103072956 0.03136556
0.22828065 0.15138939 0.50261235 -0.10860101 -0.07691899 -0.01812162 -0.044368353 0.018276487
0.012386239 0.011943169 0.008338629 -0.064959094 -0.04908154 -0.06499517 0.12487619 0.045904092
00000000: 3dd2 ccbb b9cd 93bc 70a5 d0bc cc27 bdbd
00000010: 613b 32bd 9459 573d 58b3 653a cbd2 2cbd
00000020: c271 2dbd 5aa2 983d c3c5 39bd 2177 01bd
00000030: 7476 843c 92fa 82bd 1baf a53d 778b 8e3b
00000040: 2f62 85bd 487c c53c c599 133d 11a7 583d
00000050: 3742 99bd 1e3c 91bd 67a2 023e 4ac6 803d
00000060: e266 e4bc 62f3 8dbc 43f8 c8bc 286f 1e3e
00000070: ffdf c7bd a310 72be 09af 0d3e 58a3 ddbc
00000080: bd13 b1bd cda2 fb3c 434a 3e3d 83be f7bb
00000090: 5763 0fbc c312 fcbc fa48 a0bd 557d f63c
000000a0: 4a66 043e 246e a3bd e471 9dbd 8504 9e3d
000000b0: 359b b0bc 0fe5 7f3e 671d d83e a3d7 40bd
000000c0: 31de 173e c470 943e c662 233e 235b 723e
000000d0: fc4e ca3e f924 a43e 0551 2ebe eb17 a9be
000000e0: 0626 4ebe 9d36 83bc 232d 253e dbf1 ac3d
000000f0: 0107 0bbf b731 83be 3668 08bf 039f 093c
00000100: a7a6 2f3d 92c5 883d 0de0 e2bc d9c4 3bbc
00000110: 8fde da3d f03d 2bbc 4962 3b3d c92a 0abd
00000120: 1c57 ffbd 9872 a6bd 536b c8be 2244 323d
00000130: 2112 9b3c 7bb4 d83c 4e91 123d c5ea 383e
00000140: 96d7 dd3d 02f0 24bd d565 1dbe 0c8e a8be
00000150: 8140 13bd 0c53 cdbc d06d 00bd 08cb 083d
00000160: ebe1 453e b73f 283e 1326 9c3d 85d8 b73c
00000170: 79b5 643d c729 a13b 85cf dd3b 9bca 4dbb
00000180: e408 4bbd 293a 98bc f460 9cbd 9f42 5e3c
00000190: 5859 c1bd f10f f23c b34d 94bd b165 b0bd
000001a0: 675c e43d e71a 293e 103f c53c 727a 7dbd
000001b0: 5660 4c3d fe6b 9ebd 03ff aabd 1ce7 efbc
000001c0: 4c6b 64bd 7a23 5dbd ef9b a8bb 9d47 c5bd
000001d0: e875 8ebd ca66 ec3c acb8 653e f951 34be
000001e0: 2ace 2dbe 4cfd a4be ff6a b8be b51b 30bf
000001f0: 2186 14bf 2e9c 4abe 2a81 d83c 2d9f afbc
00000200: 0823 36bd e540 92bd 4bdc 8dbd b0ce 52bd
00000210: 9cb1 c1bd 8f14 1cbe f3cf bebd 4e3f 073e
00000220: c5bd f33e 435a 05bc da7a 9f3e 6f87 093f
00000230: a91a 1dbc d806 da3e 4851 123f 96ee 10be
00000240: 6186 11bd 80c3 1ebc 5561 533d 348e 52bd
00000250: b21d bdbc a52e 41bd 270a a03c 2111 2dbc
00000260: b927 22ba 3559 5b3c e78d 31bd a1e0 c7bd
00000270: ae40 4b3b 0416 b0bc 6a85 9cbd b8be 383d
00000280: f77b 0d3d b8b0 413d 33e0 c83b cf20 c73c
00000290: fff6 a4bc c405 7fbd 2268 6fbc 3fe1 1d3d
000002a0: e687 f3bd 5c40 6a3d a37f 603d fc01 11be
000002b0: cee2 ff3c aed6 6c3e 712b 41be 9512 b53d
000002c0: 274c 333e 7fa7 95be 1414 08be 3458 47bd
000002d0: 8b93 283d c7ba 853d 794f 443b 876b 153d
000002e0: e155 7c3d eb0c 3bbd 4cdf 71bc 4193 36bd
000002f0: 4cda 983d f809 203d 6024 893d 0acf d43b
00000300: a5de 47bd 16dd c93c 02f4 4fbd 7c72 cf3c
00000310: 584a a03d 3e6c 2c3d 96d7 523a cdf1 20bd
00000320: fde0 17bd 935d 443c 0a04 993c adc9 d3bc
00000330: d2c2 a7bd fa4c 293d 30c3 5e3d 1bc9 27bc
00000340: 6fd7 863d c8d9 cc3d 456e 0f3d 278c de3c
00000350: c2b4 a5bb 4403 e6bd a7d5 85bb aa54 89bd
00000360: 769a 8cbd d382 05bd 8ffc 64bd bd5e 71bd
00000370: 7ee6 e7bc 8fb7 96bd 40c9 11bc 46f6 41bc
00000380: 5a63 b7bc db67 ce3e fb01 13bd 390d e9bb
00000390: 65a9 f73e 6b04 1e3d 7be5 9c3e 5b44 263e
000003a0: e284 e3bd a9af 023e caf6 66bd f796 443d
000003b0: 1c12 023e a199 c73d ea17 d3bd 2c79 003d
000003c0: 67c2 693e d205 1b3e 34ab 003f 356a debd
000003d0: b487 9dbd cb73 94bc 97bb 35bd 92b8 953c
000003e0: a7ef 4a3c 48ad 433c bf9e 083c 4609 85bd
000003f0: ba09 49bd 301c 85bd 17bf ff3d ee05 3c3d

hiddens.8.bias f4 [20]
0.108903 0.21923095 0.037040185 0.32791036 0.1803541 -0.05167699 -0.06352004 -0.05442552
0.0110407295 0.22550242 0.064919904 0.20257334 0.06329119 0.09384146 0.33953086 0.15104769
0.10213011 -0.12975694 -0.0056739626 0.26099893
00000000: 8908 df3d 147e 603e 73b7 173d dee3 a73e
00000010: bfae 383e 40ab 53bd cb16 82bd 4bed 5ebd
00000020: 2de4 343c 1bea 663e baf4 843d 636f 4f3e
00000030: d09e 813d f42f c03d fdd6 ad3e 3fac 1a3e
00000040: 9729 d13d 01df 04be a6ec b9bb a7a1 853e

hiddens.10.weight f4 [20, 20, 3, 3]
-0.22922055 -0.1433645 -0.5807258 -0.5316331 -0.5181794 -0.6270717 -0.67092204 -0.51747155
-0.465508 -0.41585836 -0.17623639 -0.24106248 -0.6573298 -0.41122103 -0.16025196 -0.7194466
-0.6113044 -0.36766574 0.07231176 0.020559108 0.0012558212 0.046317127 -0.017956553 -0.039864056
-0.08514318 -0.001229771 0.11007563 0.16186517 0.7205909 -0.32650632 0.55540746 0.92742616
0.0778854 0.53629553 0.70381963 0.2091146 -1.0731777 -0.27826792 -0.32769918 -0.14131898
-0.04967886 -0.023266444 0.4006422 0.19969599 0.1430386 -0.001285191 0.033795148 -0.059277747
-0.06423777 0.025300594 -0.022478597 -0.03537249 -0.06595696 -0.022943102 -0.43677643 -0.2678112
0.13820684 -0.5422535 -0.39681283 0.21310388 -0.7028044 -0.51737136 0.11858225 -0.13035204
-0.11218165 -0.039494406 -0.023212634 -0.12354574 -0.07051281 -0.06775533 -0.007203971 -0.011248608
0.109660834 0.17602839 0.15818322 0.07817784 0.042929284 0.015302413 0.07327018 -0.03194563
0.011134175 -0.019251034 0.1374353 0.22260636 -0.122367665 0.013459925 0.060970884 -0.24230497
0.0306029 0.07425225 0.22980727 0.28402185 -0.060944095 0.22203062 0.16938938 0.072867066
-0.13019907 -0.18828133 -0.39952633 0.3945357 0.22632024 -0.09401637 0.1898834 0.13308333
-0.13444726 -0.19307552 -0.09922576 -0.008864687 0.09931901 0.12849385 0.12567455 0.009418873
-0.010969172 0.07172518 -0.047338113 0.096613094 0.06384668 -0.0037222954 0.038744632 0.14936583
-0.07050391 -0.0644604 0.13594814 0.00012226313 0.12523238 0.25257692 -0.817013 -0.9466611
-0.40652525 -0.75313437 -0.32758626 0.10071289 -0.24580471 0.3658123 0.42308912 -0.56961274
-0.21301253 -0.08383509 -0.23399217 -0.30775625 -0.22258694 0.23360066 0.06419142 -0.2931007
-0.47224978 0.094706416 -0.1896573 -0.483057 -0.32100904 -0.75351006 -0.9938904 -0.08539708
0.4040751 -0.035373475 -0.06670167 -0.026101662 0.030381177 -0.039439484 0.015786547 0.05411583
0.0064856806 -0.059878346 -0.17396386 0.20380367 0.036761824 -0.43367136 -0.20589557 -0.30410856
-0.7091019 -0.43695036 -0.4635347 -0.78573155 -0.7191708 -0.4666195 -0.6233972 -0.5479885
-0.5235316 -0.27445042 -0.16241434 -0.2481886 -0.23923364 -0.028361758 -0.20871188 -0.4431428
-0.10397083 0.096290395 -0.2906508 -0.1205278 0.1682212 -0.3498133 -0.31600007 -0.12806433
-0.7254062 -0.6543541 -0.48615766 -0.97084194 -0.98962986 -0.6121388 0.06038551 -0.014162226
-0.015167401 0.04505848 -0.006951567 -0.029148724 0.024223892 -0.03317904 0.033243593 -0.060724188
-0.13291775 -0.7511179 0.32665065 0.4716492 0.066335045 0.5948147 0.38006625 0.06328054
-0.37716076 -0.4266058 -0.016110955 -0.08302719 -0.1948292 -0.108132064 0.39685425 0.22089422
-0.28444168 -0.07375058 0.05365323 0.051233914 0.05816879 0.060435373 0.08270886 0.032886855
0.019077092 -0.021076648 -0.33787915 -0.32862827 -0.34810093 -0.39569283 -0.287592 -0.13465519
-0.4601053 -0.2707884 -0.16396627 -0.07000803 -0.16312423 -0.09684411 -0.089428686 -0.14262068
-0.06789067 -0.0032967974 -0.09290446 -0.09565932 0.13149028 0.12954867 0.15440816 -0.06543362
00000000: cbb8 6abe 25ce 12be 72aa 14bf 1b19 08bf
00000010: 68a7 04bf c587 20bf 8cc1 2bbf 0479 04bf
00000020: 1157 eebe 63eb d4be 5077 34be 15d9 76be
00000030: c446 28bf 908b d2be 1719 24be a72d 38bf
00000040: 727e 1cbf af3e bcbe 3018 943d 936b a83c
00000050: 5e9a a43a 07b7 3d3d 9f19 93bc 7e48 23bd
00000060: 8c5f aebd 4430 a1ba 556f e13d fcbf 253e
00000070: a578 383f d62b a7be 2f2f 0e3f cd6b 6d3f
00000080: 6182 9f3d aa4a 093f 862d 343f 2322 563e
00000090: e35d 89bf 2279 8ebe 30c8 a7be ecb5 10be
000000a0: 0f7c 4bbd 4599 bebc f920 cd3e 1b7d 4c3e
000000b0: b678 123e db73 a8ba c86c 0a3d 39cd 72bd
000000c0: 188f 83bd 3143 cf3c 0925 b8bc bee2 10bd
000000d0: 7114 87bd 2cf3 bbbc 29a1 dfbe 8d1e 89be
000000e0: 1886 0d3e 20d1 0abf 0d2b cbbe e737 5a3e
000000f0: fdea 33bf 7372 04bf 40db f23d 017b 05be
00000100: 7ebf e5bd e3c4 21bd 6c28 bebc 8d05 fdbd
00000110: 0569 90bd 4ec3 8abd 4a0f ecbb 154c 38bc
00000120: dc95 e03d c940 343e c8fa 213e b41b a03d
00000130: 9ed6 2f3d f9b6 7a3c ad0e 963d 6cd9 02bd
00000140: 1d6c 363c 58b4 9dbc d7bb 0c3e ecf2 633e
00000150: e69b fabd 0487 5c3c 9bbc 793d cb1e 78be
00000160: efb2 fa3c 9011 983d 9952 6b3e 506b 913e
00000170: 84a0 79bd ff5b 633e 6974 2d3e 543b 953d
00000180: e852 05be d2cc 40be b78e ccbe 9500 ca3e
00000190: 7ec0 673e a88b c0bd cb70 423e ff46 083e
000001a0: 8bac 09be 97b5 45be e036 cbbd 313d 11bc
000001b0: c467 cb3d e493 033e d4b0 003e 9e51 1a3c
000001c0: 0bb8 33bc a7e4 923d 9ce5 41bd 16dd c53d
000001d0: 0cc2 823d c1f1 73bb b1b2 1e3d 5bf3 183e
000001e0: 5b64 90bd d003 84bd fd35 0b3e c233 0039
000001f0: eb3c 003e c351 813e c427 51bf 6258 72bf
00000200: 1424 d0be 6acd 40bf 63b9 a7be 8f42 ce3d
00000210: 3bb4 7bbe c04b bb3e 239f d83e 24d2 11bf
00000220: f51f 5abe bbb1 abbd a59b 6fbe 3a92 9dbe
00000230: d5ed 63be 0335 6f3e cb76 833d 4c11 96be
00000240: b9ca f1be 70f5 c13d 8635 42be 3f53 f7be
00000250: 4c5b a4be 09e6 40bf 9a6f 7ebf aae4 aebd
00000260: eee2 ce3e c7e3 10bd e39a 88bd 27d3 d5bc
00000270: f2e1 f83c 4c8b 21bd ca52 813c 90a8 5d3d
00000280: d585 d43b ff42 75bd 9523 32be e9b1 503e
00000290: 9193 163d 2c0a debe 4ad6 52be 1eb4 9bbe
000002a0: b487 35bf f5b7 dfbe 6c54 edbe b425 49bf
000002b0: 941b 38bf c0e8 eebe f596 1fbf f948 0cbf
000002c0: 2b06 06bf c484 8cbe f24f 26be 2725 7ebe
000002d0: aaf9 74be eb56 e8bc 91b8 55be 9de3 e2be
000002e0: a9ee d4bd e633 c53d 2fd0 94be 47d7 f6bd
000002f0: 2e42 2c3e bb1a b3be c3ca a1be 4c23 03be
00000300: 39b4 39bf c083 27bf a8e9 f8be 1989 78bf
00000310: 6258 7dbf 21b5 1cbf cc56 773d ae08 68bc
00000320: b180 78bc 3e8f 383d f8c9 e3bb 4ec9 eebc
00000330: 2f71 c63c bfe6 07bd 6f2a 083d edb9 78bd
00000340: 971b 08be 4349 40bf c13e a73e 017c f13e
00000350: abda 873d c745 183f 0b98 c23e 3a99 813d
00000360: 371b c1be 136c dabe 1ffb 83bc 290a aabd
00000370: 4e81 47be 5874 ddbd 7b30 cb3e 1832 623e
00000380: 57a2 91be 8b0a 97bd 7dc3 5b3d a7da 513d
00000390: 6642 6e3d 158b 773d 4363 a93d 5eb4 063d
000003a0: 9047 9c3c efa8 acbc 7ffe acbe f741 a8be
000003b0: 493a b2be 4098 cabe 423f 93be 0de3 09be
000003c0: ec92 ebbe c7a4 8abe c6e6 27be 5f60 8fbd
000003d0: 0a0a 27be 3456 c6bd 6326 b7bd 280b 12be
000003e0: 430a 8bbd 150f 58bb b244 bebd 09e9 c3bd
000003f0: 63a5 063e 68a8 043e 2c1d 1e3e 1002 86bd

hiddens.10.bias f4 [20]
-0.066893026 0.024110414 0.12552114 0.09573242 0.07488182 -0.04686928 -0.0342735 0.021525327
0.472558 0.13067698 0.19757552 -0.10337301 -0.082824156 0.13134286 0.40322635 -0.16325784
-0.1042392 0.2206736 0.03265116 0.13411868
00000000: 36ff 88bd 3483 c53c 9d88 003e 5c0f c43d
00000010: a45b 993d 01fa 3fbd 5f62 0cbd e255 b03c
00000020: 1ff3 f13e 30d0 053e 3d51 4a3e 3bb5 d3bd
00000030: b69f a9bd be7e 063e af73 ce3e 102d 27be
00000040: 5d7b d5bd 43f8 613e 39bd 053d 6856 093e
