runs/RelaxedP4CNN_aniso_std0.3_gamma2_lr0.002/model.pt (torch, 116029 bytes, 18 tensors)

lifting_conv.combination_weights f4 [3, 4]
0	0x3e00163e	0.12508485
1	0x3e07500a	0.13214126
2	0x3df97cb0	0.121819854
3	0x3e084339	0.13306893
4	0x3c5fddfe	0.013663767
5	0x3d9fd46f	0.0780419
6	0x3c467ef4	0.012115229
7	0x3d9df20c	0.077121824
8	0xbd3dfbf1	-0.04638285
9	0xbd45448c	-0.048161075
10	0xbd2b7187	-0.041856315
11	0xbd5081c8	-0.05090502

lifting_conv.weight f4 [3, 6, 1, 3, 3]
0	0x3e7df50c	0.24800509
1	0x3da0f19e	0.07858585
2	0x3e091be2	0.13389543
3	0x3dc26f81	0.09493924
4	0xbd9b7abe	-0.075917706
5	0x3d348367	0.044070628
6	0x3e9c0378	0.30471396
7	0xbe138d32	-0.1440933
8	0xbd2868a1	-0.041115407
9	0x3ea7d200	0.32777405
10	0xbe97b853	-0.29632816
11	0xbdbc2389	-0.09186465
12	0xbee0fcd6	-0.439429
13	0x3e364b90	0.17802262
14	0x3ea9f052	0.33191162
15	0x3e42354f	0.18965648
16	0x3e328ac4	0.17435747
17	0x3e5d4378	0.21607769
18	0x3d94b09b	0.07260247
19	0x3edf798b	0.43647417
20	0x3e1c4468	0.1526047
21	0x3d11234f	0.035434064
22	0x3e41bdec	0.18920106
23	0x3cf7cbe6	0.030248594
24	0x3df63cb7	0.12023299
25	0xbe5ed622	-0.21761373
26	0xbe1400c1	-0.14453413
27	0xbe063c0a	-0.1310884
28	0xbbb8e70a	-0.0056427764
29	0xbe9a7b40	-0.30172157
30	0xbc9fff9a	-0.01953106
31	0xbe2eb939	-0.17062844
32	0x3e7d6181	0.24744226
33	0x3e0b5272	0.13605669
34	0x3dd5ab86	0.10433106
35	0x3f5b3adb	0.8563668
36	0xbce602a6	-0.028077435
37	0xbd92249b	-0.07135888
38	0x3e8acda8	0.27110028
39	0xbd91719e	-0.07101749
40	0x3e5f3869	0.21798863
41	0x3eb1b998	0.3471191
42	0xbe150fcb	-0.14556806
43	0x3e1ff2e5	0.1562
44	0x3f0bbf61	0.54588896
45	0x3cb72731	0.022357555
46	0x3d8a4ebc	0.06753299
47	0xbd05d8ab	-0.032677334
48	0x3e09de21	0.13463642
49	0x3e0d2a65	0.13785703
50	0x3e856eaf	0.26061007
51	0xbec3a3e5	-0.3821098
52	0xbe68612a	-0.22693315
53	0xbe89ca6e	-0.26912254
54	0x3ea8be7b	0.32957825
55	0x3dd1e268	0.10248262
56	0x3eb84917	0.35993263
57	0x3f13ea6b	0.5777957
58	0x3e961e06	0.2931978
59	0x3ee894f3	0.4542614
60	0x3ec6abfc	0.3880309
61	0x3ec904cd	0.39261475
62	0x3e2b9c8d	0.16758938
63	0x3eddd3d2	0.4332567
64	0xbef14113	-0.4711996
65	0x3ec060f1	0.3757396
66	0xbf1533f6	-0.5828241
67	0x3bf794dc	0.007555587
68	0xbecd9972	-0.40156132
69	0xbecf092a	-0.4043668
70	0xbe2b6909	-0.16739286
71	0xbf1f0c7e	-0.62128437
72	0x3f2a18d9	0.66444165
73	0x3f1fc9c8	0.6241727
74	0x3edf4255	0.43605295
75	0x3deda8ef	0.11604487
76	0x3d1a3edd	0.037657607
77	0xbd9e165c	-0.077191085
78	0xbe1a3476	-0.15059075
79	0x3eab1d36	0.33420724
80	0xbea3c041	-0.31982616
81	0xbea3ce2b	-0.3199323
82	0x3e41ba90	0.18918824
83	0x3e51fad9	0.20505847
84	0xbe2175b6	-0.1576756
85	0x3e22517a	0.15851393
86	0x3edcec38	0.4314897
87	0x3dd294d9	0.10282297
88	0x3f2f9b25	0.68596107
89	0x3ef4821f	0.47755525
90	0xbd005c7e	-0.031338207
91	0xbed3d1a9	-0.41370896
92	0xbedff6e0	-0.43743038
93	0x3cf69aa3	0.030103033
94	0xbe712b5d	-0.23551698
95	0x3e6b027e	0.2295017
96	0x3e8ec6e5	0.2788612
97	0x3e5bd856	0.21469244
98	0x3e9da6dd	0.3079137
99	0x3d47a011	0.048736636
100	0xbc14bda8	-0.009078421
101	0x3ec68ef2	0.38780934
102	0xbe11641d	-0.14198346
103	0x3eed092d	0.46296063
104	0x3f2e9dab	0.6820933
105	0xbd3749b0	-0.04474801
106	0x3e99378e	0.29925197
107	0x3ef2d17b	0.47425446
108	0x3d942e53	0.07235398
109	0xbe2eaea4	-0.17058808
110	0x3e67a523	0.22621588
111	0x3de8bf92	0.11364664
112	0xbe3d0ae3	-0.18461184
113	0x3e1f2106	0.15539941
114	0x3eb6691d	0.3562707
115	0xbdd21ead	-0.10259757
116	0xbebfd3d8	-0.3746631
117	0xbe804dba	-0.250593
118	0x3eb8816f	0.3603625
119	0x3e9e2a65	0.3089172
120	0x3f10a476	0.5650095
121	0x3df259ff	0.11833572
122	0x3e24911f	0.16070984
123	0x3e9b7881	0.30365375
124	0xbe789382	-0.2427502
125	0x3b80084b	0.0039072386
126	0xbcb79e3e	-0.022414323
127	0xbdde7ee9	-0.1086405
128	0xbe543050	-0.20721555
129	0xbea5951a	-0.32340318
130	0x3dd75ae3	0.10515382
131	0x3baac8df	0.005211934
132	0x3e5e6d7e	0.21721455
133	0x3de8c93c	0.113665074
134	0x3e878f31	0.26476434
135	0x3d7cb3ab	0.061694782
136	0xbd480308	-0.048831016
137	0xbd9d73be	-0.07688092
138	0x3e301c60	0.17198324
139	0xbe72f1f6	-0.23725113
140	0xbe4cb86f	-0.19992231
141	0xbce26f5d	-0.027640993
142	0xbe568790	-0.2095015
143	0xbecd3edc	-0.4008702
144	0x3ed6d358	0.41958117
145	0x3d366898	0.044533342
146	0x3e8c3c0e	0.27389568
147	0x3decca9d	0.11562083
148	0xbdeadf0c	-0.11468324
149	0x3c7dc4cd	0.0154888155
150	0xbc003134	-0.007824231
151	0xbe707ece	-0.23485872
152	0xbe43b2e0	-0.19111204
153	0x3e5342d2	0.20630959
154	0xbe0974e2	-0.13423494
155	0xbd9198da	-0.07109232
156	0xbc64567a	-0.013936633
157	0x3e6baf32	0.2301605
158	0xbe5beead	-0.21477766
159	0xbd100736	-0.035163127
160	0xbe35fa75	-0.17771323
161	0x3e2dd04b	0.16973989

gconvs.0.combination_weights f4 [4, 3]
0	0x3ed61def	0.41819713
1	0x3ec3f54c	0.38273084
2	0x3eb482a7	0.3525593
3	0x3ed438c2	0.41449553
4	0x3ec34710	0.38140154
5	0x3eb4e6ac	0.3533224
6	0x3ed6c670	0.4194827
7	0x3ec4c572	0.3843189
8	0x3eb685d7	0.35648987
9	0x3ed2913f	0.4112644
10	0x3ec24cc8	0.37949204
11	0x3eb3eec3	0.35143098

gconvs.0.weight f4 [3, 6, 6, 4, 3, 3]
0	0xbce1ea4e	-0.027577545
1	0x3e7761c3	0.24158387
2	0xbd7f277d	-0.06229352
3	0xbd7746b6	-0.06037017
4	0x3e39b4f2	0.18135431
5	0x3eb9c9ce	0.36286777
6	0xbed2c42e	-0.41165298
7	0xbed8200f	-0.4221196
8	0x3e84ab0e	0.25911754
9	0xbe565e72	-0.20934466
10	0x3eab5166	0.3346054
11	0xbe947bcf	-0.29000708
12	0x3e80f9bf	0.2519054
13	0xbb9bb6b3	-0.004752004
14	0xbe9937e0	-0.29925442
15	0xbd12c360	-0.035830855
16	0x3d0c25a0	0.03421557
17	0x3e7009df	0.23441266
18	0x3e255055	0.16143925
19	0xbc71816a	-0.014740327
20	0x3edd750e	0.43253368
21	0xbd25e07f	-0.0404973
22	0xbeb672a2	-0.35634333
23	0xbca3d1e9	-0.019997554
24	0xbe8ea297	-0.2785842
25	0xbd222bee	-0.039592676
26	0x3f1c9d1d	0.61177236
27	0x3d933606	0.071880385
28	0x3e972358	0.29519153
29	0xbee6983b	-0.45038018
30	0xbcfcad45	-0.03084434
31	0xbead949b	-0.3390244
32	0xbe116bb6	-0.14201245
33	0x3e22f9bb	0.15915577
34	0xbd53bbea	-0.05169288
35	0x3ef41181	0.47669604
36	0x3de8ab14	0.113607556
37	0xbf03a943	-0.5143015
38	0x3e581b2f	0.2110412
39	0xbe146b8d	-0.14494152
40	0x3d8db0b1	0.06918467
41	0xbe90617e	-0.2819938
42	0xbe308410	-0.17237878
43	0xbeb2f7a7	-0.3495457
44	0xbe0e4e95	-0.13897164
45	0x3e77d458	0.24202096
46	0x3efaf501	0.49015048
47	0xbd046e52	-0.032331772
48	0x3de71847	0.112839274
49	0x3e6b2c88	0.22966206
50	0xbe253711	-0.16134287
51	0x3e69eb1c	0.22843593
52	0x3d4499ba	0.047998168
53	0xbe0e0f1d	-0.13872953
54	0x3db48099	0.088135906
55	0x3de6b61b	0.112652026
56	0xbee35fe8	-0.44409108
57	0xbef0db50	-0.47042322
58	0x3ea9eb24	0.3318721
59	0x3e099de9	0.13439144
60	0x3db0a98c	0.086260885
61	0xbd90bdc3	-0.07067444
62	0xbeae9f4f	-0.34105918
63	0x3ebc1f9f	0.36742875
64	0x3f300a26	0.68765485
65	0x3eb536ad	0.35393277
66	0x3ea78c59	0.32724264
67	0x3eba7607	0.36418173
68	0xbe85d611	-0.26139882
69	0x3ea969c8	0.33088517
70	0x3e92b5be	0.28654283
71	0x3e153942	0.14572623
72	0xbd991448	-0.074745715
73	0x3ee82786	0.45342654
74	0x3e95ab7b	0.29232392
75	0x3e0e5d44	0.13902766
76	0x3d031287	0.03200009
77	0x3e8ed6a0	0.2789812
78	0xbd8510c4	-0.064973384
79	0x3e92e721	0.28691962
80	0xbc7b7540	-0.015347779
81	0x3da1c56d	0.07898984
82	0xbe1ddf03	-0.15417103
83	0xbebea596	-0.37235707
84	0x3d7b0a01	0.061288837
85	0x3d5004a1	0.050785664
86	0x3deb82a7	0.11499529
87	0xbe7465c1	-0.23866941
88	0x3d92ae36	0.07162134
89	0x3f4393af	0.7639722
90	0xbe03a94f	-0.12857555
91	0xbdae20a9	-0.08502323
92	0x3e390131	0.1806686
93	0x3d960cdc	0.073266715
94	0xbebd3aff	-0.36959073
95	0xbe820d0f	-0.25400588
96	0xbf0a7672	-0.54086983
97	0x3e0715b2	0.1319187
98	0x3ecb05f1	0.3965297
99	0x3e1274af	0.14302324
100	0xbd94de6e	-0.072689876
101	0xbe1ac789	-0.15115179
102	0xbe59cf5a	-0.21270505
103	0x3ec31e86	0.38109225
104	0xbdc733a5	-0.09726647
105	0xbf25f255	-0.64822894
106	0xbd8ae012	-0.06781019
107	0x3ed0dd3a	0.40793782
108	0x3e074f7f	0.13213919
109	0xbe25b20b	-0.16181199
110	0x3ece733d	0.40322295
111	0xbe682fdf	-0.22674511
112	0x3d0c6d51	0.03428394
113	0x3ee86927	0.45392725
114	0xbc6a1aa2	-0.014288576
115	0x3e747f8a	0.23876777
116	0x3e7df28a	0.24799553
117	0xbe4f4892	-0.20242527
118	0xbe377e5b	-0.17919295
119	0x3da27d63	0.07934072
120	0xbf0b5be7	-0.54437107
121	0x3e505f95	0.20348962
122	0xbecb9851	-0.39764646
123	0xbf096ff5	-0.5368646
124	0xbe6f0f44	-0.23345667
125	0xbac9fc62	-0.0015410299
126	0xbd307449	-0.04307965
127	0x3e3da238	0.18518913
128	0x3ee50d44	0.44736683
129	0x3e1ed89d	0.15512319
130	0x3da93d2d	0.082636215
131	0xbda31a0c	-0.079639524
132	0xbe481492	-0.19539097
133	0xbe981248	-0.29701447
134	0xbed06935	-0.40705267
135	0x3db4fe7e	0.08837603
136	0xbed2ad77	-0.41147968
137	0xbf27567d	-0.65366346
138	0x3e1859b1	0.14877965
139	0xbe0bcb74	-0.1365183
140	0x3e0941b1	0.13403966
141	0x3e83e531	0.25760797
142	0x3cff4a34	0.031163312
143	0x3f07b0a1	0.5300389
144	0xbe6374be	-0.22212502
145	0x3da2360e	0.07920466
146	0xbe900811	-0.28131154
147	0xbd881045	-0.06643728
148	0xbdae7b91	-0.08519662
149	0x3e697de5	0.22801931
150	0xbe92aece	-0.2864899
151	0x3e77c734	0.24197084
152	0xbba1091f	-0.0049144174
153	0x3ec97a1c	0.39350975
154	0x3e01a274	0.12659627
155	0x3e257b67	0.16160356
156	0xbe65553c	-0.22395796
157	0x3e63a4c4	0.22230822
158	0x3ee4e68a	0.44707137
159	0xbf018fae	-0.5060986
160	0xbe04393d	-0.1291246
161	0x3f2d550f	0.67707914
162	0x3dfa6667	0.12226563
163	0x3f053025	0.5202659
164	0x3eb1ab8a	0.34701186
165	0xbdc3b5b9	-0.09556145
166	0xbe45d8dd	-0.19321008
167	0xbdedb75e	-0.1160724
168	0xbeaec548	-0.3413489
169	0xbe5cc971	-0.21561219
170	0xbd73c52a	-0.059514202
171	0x3ca36fcd	0.019950772
172	0x3e988228	0.297868
173	0x3ef22a0e	0.4729771
174	0x3ea0f6ab	0.31438193
175	0x3d955396	0.072913334
176	0x3e4dc4fc	0.20094675
177	0xbe12308f	-0.14276336
178	0x3cecb143	0.028893119
179	0xbea8d1d2	-0.3297258
180	0xbd0ad275	-0.033892114
181	0x3e09da3f	0.1346216
182	0x3f0e2827	0.5553002
183	0xbe2961b4	-0.16541177
184	0xbda80593	-0.08204188
185	0xbeac025a	-0.33595544
186	0x3dabda7a	0.083912805
187	0x3e2cacfc	0.16862863
188	0x3eb834eb	0.35977873
189	0xbe97f954	-0.2968241
190	0xbebd3739	-0.36956194
191	0xbf0f7700	-0.56040955
192	0x3e97383b	0.29535088
193	0xbdfb2377	-0.12262624
194	0xbe1db3a7	-0.15400563
195	0xbe2b36b6	-0.1672009
196	0x3e1a7f61	0.15087654
197	0xbca695be	-0.020335075
198	0x3e92833f	0.28615758
199	0x3e263e8a	0.16234794
200	0x3e89f6d7	0.26946136
201	0xbe5c1ffb	-0.21496575
202	0x3df4975c	0.11942932
203	0x3eff5d33	0.49875793
204	0xbecea5c8	-0.40360856
205	0xbed4f5c6	-0.4159376
206	0xbdc33fc4	-0.09533647
207	0xbc97da4a	-0.018536706
208	0xbe89d69c	-0.26921546
209	0xbe8fbd88	-0.28074288
210	0x3e928a5c	0.28621185
211	0x3cc4801a	0.023986865
212	0xbedc5f5a	-0.43041497
213	0x3eeb6377	0.45974323
214	0xbd3b0003	-0.045654308
215	0xbf0955e9	-0.53646713
216	0x3de44cf4	0.1114749
217	0xbea39df4	-0.31956446
218	0xbdd54752	-0.10413994
219	0x3e6033b8	0.21894729
220	0xbe2af47d	-0.16694827
221	0xbead01ec	-0.3379053
222	0x3e2f22b0	0.17103076
223	0xbed15696	-0.40886372
224	0xbdf7a9c6	-0.120929286
225	0x3e14a01a	0.14514199
226	0xbeb5d064	-0.35510552
227	0x3de3dcc2	0.111260906
228	0xbe99640e	-0.29959148
229	0xbe7a602b	-0.24450748
230	0xbe188010	-0.14892602
231	0x3e3b3937	0.18283544
232	0xbf104d0e	-0.56367576
233	0x3e073dab	0.13207118
234	0xbde943a3	-0.11389854
235	0xbe34cbbd	-0.17655845
236	0x3ed3b469	0.4134858
237	0xbd2e1f08	-0.042510062
238	0xbde76a3b	-0.11299559
239	0xbde06470	-0.10956657
240	0xbec47dee	-0.38377327
241	0x3e64938a	0.22321907
242	0xbd57d152	-0.052689858
243	0xbe314f60	-0.17315435
244	0xbd450613	-0.048101496
245	0xbe23ace6	-0.15983924
246	0xbea56019	-0.3229988
247	0xbefc6d5a	-0.4930218
248	0x3e4132a0	0.18866968
249	0xbed9e56c	-0.42557847
250	0xbd6c930b	-0.05775742
251	0xbeae150a	-0.34000427
252	0x3da8867e	0.08228777
253	0x3ec93bb7	0.3930337
254	0xbec4f92d	-0.38471356
255	0x3ea1886d	0.31549397

gconvs.1.combination_weights f4 [4, 3]
0	0x3eae01f4	0.33985865
1	0x3eb2283b	0.34796318
2	0x3eef627c	0.46754825
3	0x3eaed96f	0.34150264
4	0x3eaf5be1	0.34249786
5	0x3eecdcb9	0.46262148
6	0x3eaf636a	0.34255534
7	0x3eafb5fc	0.3431853
8	0x3eeca48c	0.4621929
9	0x3eae8a63	0.34089956
10	0x3eaf2bdd	0.34213153
11	0x3eed1f74	0.4631306

gconvs.1.weight f4 [3, 6, 6, 4, 3, 3]
0	0xbd9a52cc	-0.075353235
1	0xbd8103df	-0.062995665
2	0xbeef25b1	-0.46708444
3	0xbe4cd45a	-0.2000288
4	0x3eb15ae1	0.34639648
5	0xbd444514	-0.04791744
6	0x3e565790	0.2093184
7	0x3ebadcd0	0.36496592
8	0xbf3c0639	-0.73446995
9	0x3e8cddb2	0.2751289
10	0x3e0e3dee	0.13890812
11	0x3e8bb02d	0.2728285
12	0x3f04718b	0.5173575
13	0xbe40ab92	-0.18815449
14	0x3e086c8c	0.13322657
15	0xbddb257d	-0.1070051
16	0x3e140136	0.14453587
17	0xbe076f3b	-0.13226025
18	0xbf435168	-0.7629609
19	0xbf1b2c78	-0.6061473
20	0xbf2f5f88	-0.68505144
21	0x3dda0bb2	0.10646762
22	0x3e069f31	0.13146664
23	0xbd0efb9b	-0.03490792
24	0xbce71dfe	-0.028212544
25	0x3e367a20	0.17820024
26	0x3ee12b5c	0.43978393
27	0x3cfd0fd5	0.030891338
28	0x3e98045e	0.29690832
29	0xbe5f8aaa	-0.2183024
30	0x3dc77c07	0.09740453
31	0x3f03e3a9	0.51519257
32	0x3ee76e99	0.45201567
33	0x3eb6d4f3	0.35709342
34	0xbe5f1120	-0.21783876
35	0x3ed0769e	0.40715498
36	0x3c0db2c7	0.008648581
37	0xbe5a4355	-0.21314748
38	0x3d897924	0.06712559
39	0x3dcc5610	0.099773526
40	0x3ecf9781	0.40545276
41	0xbcded52d	-0.02720126
42	0x3e8d86e7	0.27641985
43	0xbee4c07b	-0.446781
44	0x3e54c300	0.20777512
45	0xbe87db28	-0.2653439
46	0x3e9063c2	0.2820111
47	0xbe8a37e4	-0.26995766
48	0x3ea5ebf2	0.32406574
49	0xbf522601	-0.8208924
50	0xbe70cc3f	-0.23515414
51	0xbf074067	-0.52832645
52	0xbe0ef2bc	-0.13959783
53	0xbececfcc	-0.4039291
54	0xbf2e06f1	-0.6797934
55	0xbeaf13b5	-0.34194723
56	0x3df73bcc	0.12071952
57	0xbe8e31e6	-0.27772444
58	0xbf38bc0e	-0.7216195
59	0xbd8d6234	-0.069034964
60	0xbe837e6e	-0.25682396
61	0xbe3e174a	-0.18563572
62	0x3ddc41a5	0.10754708
63	0x3de39241	0.1111188
64	0x3b9371f6	0.004499669
65	0xbddbdd79	-0.10735602
66	0xbe85ad43	-0.2610875
67	0xbe13a3a1	-0.14417888
68	0xbf0c22cc	-0.54740596
69	0xbe5bee95	-0.2147773
70	0xbdaf2051	-0.08551086
71	0xbd5eaff2	-0.054367013
72	0xbe3308c2	-0.1748381
73	0xbf43781d	-0.76355153
74	0xbfa05e84	-1.2528844
75	0xbe960234	-0.29298556
76	0xbe5ec565	-0.21754988
77	0xbe82b37f	-0.2552757
78	0x3eec496c	0.46149766
79	0xbe73d667	-0.23812257
80	0xbf01d706	-0.50718725
81	0xbf218a9b	-0.6310212
82	0xbf17a1d6	-0.5923132
83	0xbe8b8049	-0.2724631
84	0xbe137800	-0.14401245
85	0xbd03c226	-0.032167576
86	0x3eebe906	0.4607622
87	0x3f204516	0.62605417
88	0x3ed9dc24	0.42550766
89	0xbf03c142	-0.51466763
90	0x3e143213	0.14472227
91	0x3ebff485	0.3749124
92	0xbead08b5	-0.33795705
93	0x3ee27038	0.4422624
94	0x3e2d5c08	0.16929638
95	0x3c1a4867	0.009416676
96	0x3d9abc1f	0.075554125
97	0x3ed5a1f9	0.41725138
98	0xbd36eba3	-0.044658314
99	0xbf0239fc	-0.5086973
100	0xbedb43f8	-0.42825294
101	0x3e57322f	0.21015237
102	0xbcae8e74	-0.021308161
103	0x3e22eb5e	0.15910098
104	0x3e320cfb	0.17387764
105	0xbe748eea	-0.23882642
106	0x3b82ef84	0.0039958376
107	0x3e8f1ba3	0.27950773
108	0xbcb8936a	-0.02253123
109	0xbe9c73f2	-0.3055721
110	0xbd969c31	-0.0735401
111	0x3dc57cc3	0.09642937
112	0xbed9ae04	-0.42515576
113	0xbe5484c1	-0.20753767
114	0x3e133e5a	0.14379254
115	0xbefbc806	-0.49176043
116	0xbed39be4	-0.41329873
117	0x3c7a773c	0.015287217
118	0xbdf6d60a	-0.120525435
119	0xbeb89030	-0.36047506
120	0xbf1085d3	-0.564542
121	0xbea5ffcc	-0.3242172
122	0xbe56ce2d	-0.20977087
123	0x3e2ed517	0.17073475
124	0x3de96fe9	0.11398298
125	0xbe504b74	-0.20341283
126	0xbe1645e1	-0.14675094
127	0xbeb4dae7	-0.3532326
128	0x3da20a7b	0.07912155
129	0xbed53489	-0.41641644
130	0xbea604f2	-0.32425648
131	0x3dd0dca0	0.10198331
132	0xbd8c3edb	-0.06847926
133	0xbcea02c1	-0.028565766
134	0x3ea17336	0.3153321
135	0x3e1a4b1e	0.15067717
136	0xbea2dc6a	-0.31808788
137	0xbec64a44	-0.38728535
138	0xbea9ef48	-0.3319037
139	0xbee3f3fc	-0.44522083
140	0x3b11c3fe	0.0022242065
141	0xbec485e6	-0.38383406
142	0x3e1db0cd	0.15399475
143	0xbd9cb9e4	-0.07652643
144	0x3e199f69	0.15002216
145	0x3e603f9a	0.21899262
146	0xbe876024	-0.26440537
147	0xbd85ebda	-0.06539126
148	0x3d7570f0	0.05992216
149	0xbe8a540c	-0.27017248
150	0xbe6313ba	-0.22175494
151	0x3ede160d	0.43376198
152	0xbed484d7	-0.415076
153	0xbeb225ed	-0.3479456
154	0x3eb94a21	0.36189368
155	0x3ea64093	0.3247114
156	0x3db2e255	0.08734576
157	0x3ea5df92	0.32397133
158	0xbdd59498	-0.10428733
159	0x3e8d805e	0.27637
160	0xbeadb806	-0.3392946
161	0x3eb2b01f	0.34899995
162	0xbd306bbe	-0.0430715
163	0x3e7338bc	0.23752111
164	0xbe10316a	-0.1408135
165	0x3c2e210f	0.010627999
166	0xbef44abe	-0.47713274
167	0x3e787d4e	0.2426655
168	0xbd453d93	-0.048154425
169	0xbf284e7e	-0.6574477
170	0xbe8c7798	-0.27434993
171	0xbdd9e34e	-0.10639058
172	0xbf529024	-0.8225119
173	0xbf3f3db5	-0.7470353
174	0x3e755ebe	0.23961923
175	0xbf002a09	-0.5006414
176	0xbe982fc1	-0.29723933
177	0xbe947321	-0.28994086
178	0xbf3c92a2	-0.73661244
179	0xbedf6aa1	-0.4363604
180	0x3dd83d57	0.10558575
181	0xbd9c6134	-0.076357275
182	0xbe1911ed	-0.14948244
183	0xbe5b2566	-0.21400985
184	0x3ed12c7c	0.4085425
185	0xbeb2db42	-0.34932905
186	0xbde924c0	-0.11383963
187	0xbeb324c2	-0.3498898
188	0x3d8b04c7	0.067880206
189	0xbd342e21	-0.043989304
190	0x3e9c684a	0.30548316
191	0xbe67558f	-0.22591232
192	0xbdecaa7d	-0.115559556
193	0x3e21e18d	0.15808697
194	0x3e37a78e	0.17935011
195	0x3eeebc04	0.4662782
196	0xbea847ea	-0.32867366
197	0xbf01f0bd	-0.5075796
198	0xbec910d4	-0.3927065
199	0xbdb50809	-0.08839423
200	0xbf93f1f2	-1.1558211
201	0x3f452da0	0.77022743
202	0x3f251d12	0.6449748
203	0xbeaedc44	-0.34152424
204	0xbe8a6b5f	-0.27035043
205	0xbcd5d1f2	-0.026101086
206	0xbef45467	-0.47720644
207	0x3c84af62	0.01619691
208	0x3e1db9c1	0.1540289
209	0xbe572337	-0.21009527
210	0x3ecfe775	0.40606275
211	0xbe89d475	-0.26919904
212	0xbeeff970	-0.46869993
213	0x3e6c788d	0.23092861
214	0xbc74719c	-0.014919665
215	0xbe576aaa	-0.21036783
216	0xbf68d486	-0.90949285
217	0xbf4c32cb	-0.79765004
218	0xbf4c5620	-0.79818916
219	0xbeba80eb	-0.36426482
220	0x3db7a70d	0.08967409
221	0xbf385067	-0.71997684
222	0x3ebb68f5	0.36603513
223	0xbd96fd60	-0.07372546
224	0xbd1a8cb4	-0.03773184
225	0xbe440046	-0.1914073
226	0xbe2c0a1d	-0.16800733
227	0xbf00194a	-0.5003859
228	0xbebf26fc	-0.3733443
229	0xbe389e14	-0.18029052
230	0x3ea0f6b7	0.31438228
231	0x3d5bb760	0.053641677
232	0xbded74aa	-0.115945175
233	0x3dc6acbc	0.09700915
234	0xbf4fe2de	-0.81205547
235	0xbf916c1e	-1.136112
236	0xbecb782c	-0.3974012
237	0x3e975fe0	0.29565334
238	0x3eb0d8a1	0.34540275
239	0x3f1c1e57	0.60983795
240	0x3eb2f935	0.34955755
241	0x3ccb32e1	0.024804534
242	0xbd097c45	-0.03356578
243	0xbea5e65d	-0.32402316
244	0xbf00d147	-0.5031933
245	0xbf6b1006	-0.91821325
246	0x3dc67cd9	0.096917816
247	0x3e4f9a58	0.20273721
248	0xbf32dde1	-0.6986981
249	0x3de1f191	0.11032403
250	0x3e8b384b	0.27191386
251	0xbeae7054	-0.34070075
252	0xbe9151c8	-0.28382707
253	0xbe594e25	-0.21221216
254	0xbf3df6a3	-0.7420446
255	0x3f119dc1	0.5688134

gconvs.2.combination_weights f4 [4, 3]
0	0x3eaf39b3	0.3422371
1	0x3ebb16be	0.36540788
2	0x3edf0145	0.43555656
3	0x3eaf8e77	0.3428838
4	0x3ebdb932	0.37055355
5	0x3ee12716	0.43975133
6	0x3eaf5f82	0.34252554
7	0x3ebbc923	0.36676893
8	0x3edfa82e	0.43682998
9	0x3eb0d106	0.34534472
10	0x3ebc0b95	0.36727586
11	0x3ee04609	0.43803433

gconvs.2.weight f4 [3, 6, 6, 4, 3, 3]
0	0xbcdf1156	-0.027229946
1	0x3e8f5f2e	0.28002304
2	0xbe59896e	-0.21243832
3	0x3e1edcc1	0.15513898
4	0x3ecf5fec	0.4050287
5	0x3bd3364a	0.0064456807
6	0x3d77337f	0.060351845
7	0xbf223ca3	-0.63373774
8	0xbd6d805c	-0.05798374
9	0xbea83bf4	-0.3285824
10	0xbf3d3f21	-0.7392445
11	0x3df9169a	0.12162514
12	0xbdeffa36	-0.11717646
13	0xbe8843d7	-0.26614258
14	0xbe11e92e	-0.14249107
15	0x3e8115c3	0.25211915
16	0xbf1648f5	-0.58705074
17	0xbd8fee2b	-0.07027849
18	0xbe6e3170	-0.23261046
19	0xbdc3f6f8	-0.0956859
20	0xbda073b6	-0.0783457
21	0xbe9ba791	-0.3040128
22	0xbee22b32	-0.4417358
23	0x3da24434	0.07923165
24	0x3db11275	0.086460985
25	0x3e42eae8	0.19034922
26	0xbebbd58f	-0.3668637
27	0x3f4e7ac7	0.80656093
28	0xbdeb1a6f	-0.11479651
29	0xbf03be26	-0.5146202
30	0x3ecfafa3	0.40563688
31	0xbdafd847	-0.085861735
32	0xbdee6b5e	-0.116415724
33	0x3f280211	0.65628153
34	0x3ea44172	0.3208118
35	0x3ec8d791	0.39226964
36	0x3e7ce7bb	0.24697773
37	0xbe3e3cdb	-0.18577902
38	0x3e4e9663	0.20174555
39	0xbec17c6a	-0.37790233
40	0xbec8a9fc	-0.39192188
41	0xbec1106d	-0.37707844
42	0x3d114203	0.035463344
43	0xbde027dd	-0.10945103
44	0x3ef9ccac	0.48788965
45	0x3e1e9671	0.15487076
46	0xbf18e221	-0.59720045
47	0xbf31e970	-0.6949682
48	0x3eadb83a	0.33929616
49	0xbec3cb5c	-0.38241088
50	0xbe03afe1	-0.12860061
51	0xbdd1bebf	-0.1024146
52	0xbebaeb21	-0.36507514
53	0xbe6d801f	-0.23193406
54	0xbd992073	-0.07476892
55	0xbeddb55c	-0.4330243
56	0x3efbabe8	0.49154592
57	0x3e9d510b	0.30725893
58	0xbbdb78e3	-0.0066977604
59	0xbea9db40	-0.33175087
60	0xbdc33211	-0.09531034
61	0x3edb49b4	0.4282967
62	0x3f15bdc4	0.58492684
63	0x3b581405	0.0032970917
64	0x3ebcac6d	0.368503
65	0x3ea10822	0.31451517
66	0x3f1a510e	0.6027993
67	0x3f070425	0.527407
68	0x3f67996a	0.90468466
69	0xbdf33850	-0.11875975
70	0x3e58267d	0.21108432
71	0x3ef8e38e	0.4861111
72	0xbe4f3ad7	-0.2023729
73	0xbee2a22e	-0.44264358
74	0x3db1e751	0.08686698
75	0x3edff391	0.43740514
76	0xbe6cb2f9	-0.23115148
77	0xbeb40993	-0.35163555
78	0xbd32208b	-0.043488067
79	0x3e058dc7	0.13042365
80	0xbec575b0	-0.3856635
81	0x3d9cafd7	0.07650726
82	0xbe21d1cb	-0.15802686
83	0xbe5ffb9e	-0.21873328
84	0xbec155ca	-0.37760764
85	0xbede79a0	-0.43452168
86	0x3ef502ba	0.47853643
87	0xbf04fc14	-0.5194714
88	0x3e7f5c42	0.24937537
89	0x3ba893c0	0.0051445663
90	0xbe119d36	-0.14220127
91	0x3d4d4204	0.050111786
92	0xbd02c3cf	-0.03192502
93	0x3e922e9f	0.28551194
94	0x3e66bfac	0.22534055
95	0x3e91d81b	0.28485188
96	0x3f1b1f08	0.60594225
97	0xbd21e778	-0.039527386
98	0xbe913724	-0.2836238
99	0x3eae519c	0.34046638
100	0x3e401e63	0.18761592
101	0xbe2df60e	-0.16988394
102	0x3db5808a	0.088624075
103	0x3ecae221	0.39625648
104	0xbe17aa2c	-0.14811009
105	0xbda1d656	-0.079022095
106	0x3e395fa7	0.18102895
107	0xbea4a597	-0.32157585
108	0x3ebb56cf	0.36589667
109	0xbeb3fc08	-0.35153222
110	0xbe9a48e1	-0.30133727
111	0xbe9054af	-0.28189608
112	0x3ed5ffde	0.41796774
113	0x3e2c9d8a	0.16856971
114	0xbe829bdf	-0.25509545
115	0x3e8fd7ef	0.28094432
116	0x3cc5d6be	0.024150249
117	0xbde224b1	-0.110421546
118	0xbd11d74a	-0.035605706
119	0x3f04497e	0.5167464
120	0xbe681bb0	-0.22666812
121	0xbc0ca717	-0.008584759
122	0x3de7161c	0.11283514
123	0x3dfc9ce0	0.12334609
124	0x3daa1a7a	0.08305831
125	0x3ea9a442	0.3313313
126	0xbe259e27	-0.16173612
127	0x3edd5a5d	0.43233004
128	0xbd99b8d8	-0.07505959
129	0x3d27f9fe	0.041009896
130	0xbe216b44	-0.15763575
131	0x3ec78051	0.38965085
132	0xbe115bfd	-0.14195247
133	0x3d04d8f6	0.032433473
134	0x3f029dea	0.5102221
135	0xbeb4b0d9	-0.35291174
136	0xbe6eac1d	-0.23307844
137	0x3e055083	0.13018994
138	0x3e8c19fe	0.2736358
139	0xbe9e8917	-0.30963966
140	0x3e81d4ab	0.25357565
141	0x3d0f84fe	0.03503894
142	0xbe21857e	-0.1577358
143	0x3f0ffff2	0.56249917
144	0x3e82f2a6	0.2557575
145	0xbe8fa77b	-0.28057465
146	0xbe128d4e	-0.14311716
147	0xbd688b53	-0.056773495
148	0x3e36a17e	0.17835042
149	0x39c951a7	0.00038398543
150	0xbe049125	-0.12945993
151	0xbe19bd09	-0.15013517
152	0x3e3e3442	0.18574622
153	0xbe6f3f3f	-0.2336397
154	0xbed91793	-0.42400798
155	0x3e83f031	0.2576919
156	0x3f191cb5	0.5980943
157	0xbf1ff8d4	-0.62489057
158	0xbed38c60	-0.41318035
159	0xbeeb5bf0	-0.4596858
160	0xbf0374b8	-0.51349974
161	0xbe2839cd	-0.16428299
162	0xbf1100c4	-0.56641793
163	0xbf05607a	-0.52100337
164	0xbeebe44f	-0.46072623
165	0xbe6efe9d	-0.23339315
166	0xbe696294	-0.22791511
167	0xbe03826e	-0.12842724
168	0xbf036805	-0.51330596
169	0xbe614542	-0.21999076
170	0xbe2bc425	-0.16774042
171	0xbf432ad5	-0.7623723
172	0xbf1e6758	-0.6187644
173	0xbee3d777	-0.44500324
174	0xbeee81d2	-0.4658342
175	0xbd0b6547	-0.034032132
176	0xbe881f46	-0.2658636
177	0xbe50ad70	-0.20378661
178	0x3c393e0d	0.011306298
179	0xbf02dcd0	-0.51118183
180	0xbeea6b95	-0.45785204
181	0xbe9710ad	-0.2950491
182	0xbf00d62e	-0.5032681
183	0x3c8a3729	0.016872006
184	0x3e85e85b	0.26153836
185	0x3e21d59b	0.1580414
186	0x3e241576	0.16023812
187	0x3ee7793e	0.45209688
188	0xbdb4b840	-0.088242054
189	0xbe22f5ce	-0.1591408
190	0xbef03489	-0.4691508
191	0xbecfc013	-0.40576228
192	0x3e664eaa	0.22490945
193	0x3ef23953	0.4730936
194	0xbe56f0d5	-0.20990308
195	0xbd96847c	-0.07349488
196	0x3cce50cf	0.025185017
197	0x3d9da5a5	0.0769761
198	0xbeefeefc	-0.46862018
199	0x3ec91c9e	0.39279646
200	0xbe9fb1de	-0.3119039
201	0x3dfe8a81	0.12428761
202	0x3f0995e4	0.5374434
203	0xbe4d1b02	-0.20029834
204	0x3eda164a	0.4259513
205	0xbe3339ec	-0.17502564
206	0x3b4f00c7	0.0031586157
207	0xbe92e5bf	-0.28690907
208	0xbe305cd4	-0.17222911
209	0x3cf2056a	0.029543597
210	0x3de4ec7e	0.1117792
211	0x3de62adf	0.11238646
212	0xbd0cd757	-0.03438505
213	0xbe8c1b28	-0.2736447
214	0xbe0ae196	-0.13562617
215	0xbe8e177f	-0.277523
216	0x3def4ac1	0.1168418
217	0x3eca6a26	0.3953411
218	0xbe01deef	-0.12682699
219	0x3e5f15e3	0.21785693
220	0xbe1fa578	-0.15590465
221	0xbe5b6625	-0.21425684
222	0x3ecfa4b3	0.40555343
223	0xbed23b7b	-0.41061005
224	0xbda54e74	-0.08071604
225	0x3de3ac7f	0.111168854
226	0x3ed2da69	0.4118226
227	0xbe9d22a8	-0.30690503
228	0x3ee91e7d	0.45531073
229	0xbcdb694b	-0.026783606
230	0xbf1c4fb0	-0.61059093
231	0x3f2c2aae	0.67252624
232	0x3f81a7c7	1.0129327
233	0x3e2ec22d	0.1706626
234	0xbea05cd0	-0.3132081
235	0xbf43d947	-0.76503414
236	0x3c613e61	0.013747782
237	0x3e8ac2d7	0.27101776
238	0x3ebefce9	0.3730233
239	0x3f0bfbbd	0.54681
240	0xbe036f8a	-0.12835518
241	0x3d850021	0.06494165
242	0x3c7881de	0.0151676815
243	0x3cf4a826	0.029865336
244	0x3dcef139	0.10104603
245	0xbebe8dbb	-0.37217507
246	0x3f0b47a7	0.5440621
247	0x3ebc1e16	0.36741704
248	0xbe572a5a	-0.2101225
249	0x3f7a6d2b	0.9782283
250	0xbdbe1e5b	-0.092831336
251	0xbe9c4c01	-0.30526736
252	0x3cc75df5	0.024336794
253	0xbf3a6b43	-0.7281992
254	0xbe98ea34	-0.29866183
255	0xbdef7ebe	-0.11694096

gconvs.3.combination_weights f4 [4, 3]
0	0x3ef2a4bd	0.4739131
1	0x3ec18f35	0.3780457
2	0x3eb5c97a	0.35505277
3	0x3ef569d8	0.47932315
4	0x3ec05c1e	0.3757028
5	0x3eb65192	0.35609108
6	0x3ef4a23b	0.47780022
7	0x3ec1fdd1	0.3788896
8	0x3eb632b4	0.35585558
9	0x3ef32eca	0.47496635
10	0x3ec23ffb	0.37939438
11	0x3eb5e427	0.3552563

gconvs.3.weight f4 [3, 6, 6, 4, 3, 3]
0	0xbeb6c4e9	-0.35697106
1	0xbe68da0a	-0.22739425
2	0xbf966f21	-1.1752664
3	0xbe9d216a	-0.30689555
4	0x3d4e154e	0.050313286
5	0xbef0becd	-0.4702057
6	0xbe6a0bf6	-0.22856125
7	0x3e252102	0.16125873
8	0xbd31215d	-0.04324471
9	0x3ca056ac	0.019572578
10	0xbe7fb305	-0.24970634
11	0xbd32c8bb	-0.043648463
12	0xbec15c8c	-0.3776592
13	0x3e11638f	0.14198135
14	0xbedfccfc	-0.43711078
15	0xbee22af8	-0.44173408
16	0x3e1c7caf	0.15281938
17	0xbe9ce6c7	-0.3064482
18	0xbf38b0f0	-0.72144985
19	0xbf18ae34	-0.5964081
20	0xbf415411	-0.755189
21	0xbe596be6	-0.21232566
22	0x3e902836	0.2815568
23	0xbe0552f2	-0.13019922
24	0xbe99f0f2	-0.3006664
25	0xbebd9542	-0.37027937
26	0xbdecd70f	-0.11564457
27	0xbf2e1886	-0.6800617
28	0xbf652fec	-0.8952625
29	0xbf562db0	-0.83663464
30	0xbf3a9178	-0.7287822
31	0xbe24f88c	-0.16110438
32	0xbea0c443	-0.31399736
33	0xbf30834d	-0.6895035
34	0x3e805d5c	0.25071228
35	0x3d3d1eff	0.04617214
36	0xbf5a27ad	-0.8521679
37	0xbdfae91d	-0.12251494
38	0x3c48a464	0.012246225
39	0xbd0f5c57	-0.03500017
40	0x3e1d167a	0.15340605
41	0x3e79874e	0.24368021
42	0x3d0865a4	0.033300057
43	0xbebfb421	-0.37442115
44	0x3e0a1842	0.13485816
45	0x3d8ba5e2	0.06818749
46	0xbf205c25	-0.626406
47	0x3e8e563a	0.2780016
48	0x3d46a205	0.048494358
49	0xbecaf174	-0.3963734
50	0xbddbc417	-0.107307605
51	0x3e8074ad	0.25089017
52	0xbed9460b	-0.4243625
53	0x3dea3e57	0.11437672
54	0xbe246f51	-0.16058089
55	0x3d1e6f84	0.03868057
56	0xbf0a827e	-0.54105365
57	0xbeb6df46	-0.3571722
58	0xbec3a038	-0.38208175
59	0xbe633813	-0.2218936
60	0xbc9c15cc	-0.019053362
61	0x3f158ad3	0.58414954
62	0xbe8a6f11	-0.27037862
63	0xbd98a0eb	-0.07452568
64	0x3d820ac9	0.06349713
65	0x3e809ae7	0.2511818
66	0xbeff2287	-0.4983103
67	0xbe61dce2	-0.22056916
68	0xbd5796a2	-0.05263389
69	0xbe6d1048	-0.23150742
70	0x3eaa852b	0.33304724
71	0xbd8c142b	-0.06839784
72	0xbef9ba34	-0.48774874
73	0xbe042f1f	-0.129086
74	0x3eb0b180	0.34510422
75	0xbe462e1b	-0.19353525
76	0xbf0a2af3	-0.53971785
77	0x3ca4c65e	0.02011412
78	0x3cef3b2e	0.029203024
79	0xbe15f54d	-0.14644356
80	0xbe8e532f	-0.2779784
81	0xbd49ce3c	-0.049268946
82	0xbf2c4246	-0.67288625
83	0xbc8dd9ac	-0.017315708
84	0xbf0540da	-0.5205208
85	0xbe840994	-0.25788558
86	0x3e8ae75f	0.27129647
87	0x3da5a61b	0.08088323
88	0x3df10dd1	0.117702134
89	0x3e9ed90e	0.31024975
90	0x3e66b272	0.22529009
91	0xbe71bcad	-0.2360713
92	0x3e4fb714	0.20284683
93	0xbe480328	-0.19532454
94	0xbe5e1cce	-0.21690676
95	0xbea8c460	-0.32962322
96	0xbeca230d	-0.39479867
97	0x3e8e2bdc	0.27767837
98	0xbe972ca3	-0.29526243
99	0xbf2902b9	-0.6601978
100	0xbe018cde	-0.12651393
101	0x3dbce84f	0.09223997
102	0x3eb1818c	0.3466915
103	0x3e25c6fe	0.16189191
104	0xbe66a96e	-0.2252557
105	0xbe71127b	-0.23542206
106	0xbe42c97e	-0.19022176
107	0xbef5b74d	-0.4799141
108	0x3e29cb7d	0.16581531
109	0x3ebf177b	0.37322602
110	0x3f053bb9	0.52044255
111	0xbe954979	-0.29157618
112	0x3e4a6fca	0.19769207
113	0x3bc26e99	0.0059335944
114	0x3e17598e	0.14780256
115	0x3e86687a	0.26251584
116	0x3e1e29e2	0.15445665
117	0xbe931d52	-0.28733307
118	0xbb8d3afd	-0.0043100105
119	0xbe61e8b9	-0.22061433
120	0xbee58115	-0.44825044
121	0xbd3802bd	-0.044924486
122	0xbcd0d8d7	-0.025494022
123	0xbeaeb453	-0.3412195
124	0x3e6d113d	0.23151107
125	0xbe0ae5c4	-0.13564211
126	0x3e79cc75	0.243944
127	0x3ebdca07	0.37068197
128	0x3e664baa	0.22489801
129	0x3d483512	0.048878737
130	0xbe0f0399	-0.13966216
131	0xbe860368	-0.26174474
132	0x3e02ec99	0.12785567
133	0xbe887be9	-0.26657036
134	0x3d7969f1	0.06089205
135	0x3d1c9ce8	0.038235575
136	0x3e08ace8	0.13347208
137	0x3dd22b3f	0.10262155
138	0x3ed4da6c	0.41572893
139	0xbd944e8e	-0.072415456
140	0x3dec76a0	0.115460634
141	0xbe74cbda	-0.23905888
142	0xbe0e9c86	-0.13926896
143	0x3e889bba	0.2668131
144	0xbcc8f01d	-0.024528557
145	0x3c9c0c80	0.01904893
146	0x3754205a	1.2643717e-05
147	0xbcbefc27	-0.023313595
148	0x3e926685	0.2859384
149	0x3d06a7d2	0.03287489
150	0x3f18284e	0.594365
151	0x3e8744e1	0.26419738
152	0x3ec54c94	0.38534987
153	0x3e11429c	0.14185566
154	0xbec60551	-0.3867593
155	0x3d6a561c	0.057211027
156	0x3e0aa68a	0.13540092
157	0xbd7ba8f1	-0.061440412
158	0x3e95d001	0.29260257
159	0xbdc1448f	-0.09436905
160	0x3e3f4624	0.186791
161	0x3e7bd0a0	0.24591303
162	0x3da0fb82	0.07860471
163	0x3d412d87	0.04716256
164	0xbe480532	-0.19533232
165	0xbe850952	-0.25983673
166	0xbe285b24	-0.16441017
167	0xbe49ba4c	-0.19699973
168	0xbda844e4	-0.08216265
169	0x3f19de90	0.6010523
170	0x3e512427	0.20423947
171	0xbf24d766	-0.6439117
172	0xbe37a6bc	-0.17934698
173	0xbe3fa6f7	-0.18716036
174	0xbe2bab76	-0.16764626
175	0x3e775b42	0.24155906
176	0xbe094c57	-0.13408028
177	0x3bb481e5	0.0055086487
178	0x3de59ef5	0.11211959
179	0xbe665dee	-0.22496769
180	0xbeddb9b5	-0.43305746
181	0xbd728145	-0.059205312
182	0xbe2b1ace	-0.16709444
183	0xb9aa2423	-0.0003245185
184	0xbe44fe89	-0.19237722
185	0xbe3757b7	-0.17904554
186	0x3eaee0ee	0.34155983
187	0xbd8986b1	-0.067151435
188	0x3da8053e	0.08204125
189	0x3d3afe61	0.04565275
190	0x3d805439	0.06266064
191	0x3e239c0f	0.159775
192	0x3eb09512	0.34488732
193	0xbded5be6	-0.11589794
194	0x3eafe563	0.34354696
195	0xbe56a8c8	-0.20962822
196	0x3d73486d	0.059395242
197	0x3e2e062f	0.16994546
198	0xbcc3d096	-0.023903172
199	0x3d1699e9	0.036767874
200	0x3ec16b32	0.37777096
201	0xbe8f971c	-0.28044975
202	0xbe0c561a	-0.1370472
203	0x3edd1ed1	0.43187574
204	0x3d7d21a9	0.06179968
205	0xbef89136	-0.48548287
206	0x3e8e6cab	0.27817282
207	0x3eca6c19	0.39535597
208	0xbf07ac0f	-0.52996916
209	0x3cbf0cb0	0.02332148
210	0xbef2f15c	-0.47449768
211	0x3ea566ad	0.32304898
212	0x3effcc3f	0.49960515
213	0xbd71df45	-0.059050817
214	0x3e1111ca	0.14166942
215	0x3ea483a5	0.32131687
216	0xbde4a2f0	-0.1116389
217	0x3dfa29b7	0.12214988
218	0x3e51eb58	0.20499933
219	0xbeac87f1	-0.33697465
220	0xbe363bc3	-0.17796235
221	0xbee3ed8b	-0.44517168
222	0xbe3218ab	-0.17392223
223	0x3e088a93	0.13334112
224	0x3e989aa9	0.29805496
225	0x3e95b4ca	0.29239494
226	0xbe373abd	-0.178935
227	0xbe9d6b8f	-0.30746123
228	0xbd388248	-0.04504612
229	0x3e64c3a2	0.22340253
230	0xbd2ab7eb	-0.041679304
231	0xbea96546	-0.33085078
232	0x3e88bd7a	0.2670706
233	0xbeb03776	-0.34417313
234	0xbedc25f8	-0.42997718
235	0x3df19021	0.117950685
236	0x3e99c2d0	0.30031443
237	0x3ea89d80	0.32932663
238	0xbcf44b43	-0.029821044
239	0x3e46d57f	0.1941738
240	0x3e8e1bef	0.27755687
241	0xbe8abaf3	-0.27095756
242	0xbdbb34f8	-0.09140962
243	0xbce40474	-0.027834155
244	0xbc964469	-0.018343167
245	0xbe9b714f	-0.30359885
246	0xbe0538ec	-0.13009995
247	0xbee3eb4f	-0.44515464
248	0xbe30a734	-0.17251283
249	0xbe58c1b7	-0.21167646
250	0xbe37130f	-0.17878364
251	0xbea71baa	-0.32638294
252	0xbe2f324d	-0.17109032
253	0xbef84905	-0.4849321
254	0xbf05f4ab	-0.5232646
255	0x3e59b40d	0.2126009

gconvs.4.combination_weights f4 [4, 3]
0	0x3edf6476	0.43631333
1	0x3ec95b83	0.3932763
2	0x3ed0683c	0.40704525
3	0x3eded512	0.43521935
4	0x3eca7758	0.39544177
5	0x3ed10e69	0.40831307
6	0x3edfab97	0.436856
7	0x3ec9bbfe	0.3940124
8	0x3ed2a391	0.41140416
9	0x3edfb1f2	0.4369045
10	0x3ec9dc20	0.39425755
11	0x3ed23e7e	0.41063303

gconvs.4.weight f4 [3, 6, 6, 4, 3, 3]
0	0x3ed9fd04	0.42575848
1	0xbe4c5bff	-0.19956969
2	0x3d4b0576	0.049565755
3	0x3e058920	0.1304059
4	0x3e3ee0a9	0.18640389
5	0x3eaa4588	0.33256173
6	0x3e825488	0.25455117
7	0x3e087e13	0.13329343
8	0x3e691eab	0.22765605
9	0xbe8c74cd	-0.27432862
10	0x3e3d95eb	0.1851422
11	0x3f0018f1	0.5003806
12	0x3ecff970	0.40619993
13	0x3eb9deea	0.36302882
14	0x3f1e6b13	0.6188213
15	0x3ec3c5cf	0.38236853
16	0x3e15aedf	0.1461749
17	0x3ebf5d1b	0.3737572
18	0xbdc4f00e	-0.09616099
19	0xbeb589d4	-0.35456717
20	0xbd56c526	-0.05243411
21	0x3ec28509	0.37992123
22	0x3eb94110	0.3618245
23	0xbe3ba874	-0.18325979
24	0x3ec8ecba	0.39243108
25	0x3e4ef0c6	0.20209035
26	0x3e197bb1	0.14988591
27	0x3e4c20b0	0.19934344
28	0x3d66d80d	0.056358386
29	0xbe4af067	-0.19818269
30	0x3f5ebac3	0.87003726
31	0x3f0d8c36	0.5529207
32	0x3e0f4894	0.1399253
33	0x3f6c59ea	0.923247
34	0x3d206df7	0.03916737
35	0xbe0b6c31	-0.1361549
36	0x3d985587	0.07438188
37	0x3eabbdea	0.3354333
38	0xbed3fda1	-0.4140444
39	0x3dd43cd4	0.103631645
40	0xbe0afb07	-0.13572322
41	0xbe214282	-0.15748027
42	0xbdc93f2e	-0.09826504
43	0xbefa9cff	-0.48947904
44	0xbd3f5d45	-0.046719808
45	0x3eb95b71	0.36202577
46	0xbed3f1ed	-0.41395512
47	0xbd2a5a3b	-0.041589957
48	0xbeb0b2de	-0.34511465
49	0xbeffadb4	-0.49937212
50	0xbeb241a2	-0.348157
51	0x3d20858a	0.039189853
52	0xbef88e98	-0.4854629
53	0xbe563ff2	-0.2092283
54	0x3ed9ace2	0.42514712
55	0xbdc0f200	-0.09421158
56	0xbdf8fa91	-0.12157167
57	0xbdf93105	-0.12167553
58	0xbe19b400	-0.15010071
59	0xbe446b76	-0.19181618
60	0x3f01edc3	0.5075342
61	0xbe108ef1	-0.14117028
62	0x3ec70fdb	0.38879284
63	0xbe45b225	-0.19306238
64	0xbd8674a7	-0.065652184
65	0xbe617f3e	-0.22021195
66	0xbebee3bf	-0.3728313
67	0xbeabd549	-0.3356116
68	0x3e183f7e	0.1486797
69	0xbdae902f	-0.085235946
70	0xbe2e6c7f	-0.17033575
71	0x385d163e	5.271122e-05
72	0xbf15445e	-0.58307445
73	0xbed9f76c	-0.4257158
74	0x3db905c4	0.09034303
75	0xbdfd6e2b	-0.123745285
76	0x3e4ed3bc	0.20197958
77	0xbd170436	-0.03686925
78	0xbe714ca6	-0.23564395
79	0xbe92bfcc	-0.28661954
80	0x3e233f9f	0.15942238
81	0x3e2ff806	0.17184457
82	0x3dd81f3f	0.10552835
83	0x3e98ebbb	0.29867348
84	0xbe14d839	-0.14535607
85	0xbe467df6	-0.19383988
86	0xbe890b7d	-0.26766577
87	0x3e2fd807	0.17172252
88	0x3e90cd19	0.28281477
89	0xbca62d46	-0.02028526
90	0x3f060afc	0.5236051
91	0x3d8dffa1	0.06933523
92	0x3ea99e44	0.3312856
93	0x3e53f747	0.20699798
94	0x3eafb357	0.34316513
95	0xbee68b7f	-0.45028302
96	0xbe8bbc71	-0.27292207
97	0x3ea66010	0.32495165
98	0x3e72ab0f	0.23698066
99	0xbeaec2e7	-0.34133074
100	0x3d0f5892	0.034996577
101	0x3ebb6e6e	0.3660769
102	0xbe11058b	-0.1416227
103	0x3e5e3cef	0.21702932
104	0x3e0d2146	0.13782224
105	0xbebc7af5	-0.3681256
106	0x3decebbd	0.11568401
107	0x3e6a019c	0.22852176
108	0x3e56f7a1	0.209929
109	0x3e47b364	0.19502026
110	0xbeb9c44d	-0.36282578
111	0xbef2a349	-0.47390202
112	0xbe49c903	-0.19705586
113	0x3e07b18b	0.13251321
114	0xbe95aab9	-0.29231814
115	0x3e280319	0.16407432
116	0xbe77134e	-0.24128458
117	0xbde5a86a	-0.11213763
118	0xbe8155cc	-0.2526077
119	0x3e55fb31	0.20896603
120	0xbf073ee6	-0.5283035
121	0xbecf0b21	-0.40438178
122	0xbeb8988c	-0.36053884
123	0xbe9373c5	-0.28799263
124	0xbe1b9004	-0.15191656
125	0xbdcd67e8	-0.10029584
126	0x3e8070eb	0.2508615
127	0xbec8bc3a	-0.39206105
128	0xbe845b59	-0.25850943
129	0x3ded0bb7	0.115745
130	0xbe874729	-0.26421478
131	0x3ed39d6e	0.41331047
132	0x3eba5afc	0.3639754
133	0xbeb1488f	-0.3462567
134	0x3e97c48f	0.2964215
135	0xbe1ea566	-0.15492782
136	0x3e70c4f1	0.23512627
137	0x3e8508da	0.25983316
138	0x3e14d607	0.1453477
139	0x3ea88ec6	0.32921427
140	0x3ea99c7e	0.33127207
141	0xbe8bad6f	-0.27280757
142	0x3e822765	0.2542068
143	0x3e555a09	0.20835127
144	0x3edca7c7	0.43096754
145	0xbe6aba19	-0.22922553
146	0xbf05ea4b	-0.5231063
147	0x3c95bb3c	0.018277757
148	0x3e869a4a	0.26289588
149	0xbe9035c9	-0.28166035
150	0xbe336ac9	-0.17521204
151	0x3e953332	0.2914062
152	0xbec97a93	-0.3935133
153	0xbd4d5b7b	-0.05013607
154	0x3e111a2c	0.1417014
155	0x3f089862	0.5335752
156	0x3e9a44d4	0.30130637
157	0x3d9e1d60	0.077204466
158	0x3e90072b	0.2813047
159	0xbd14e846	-0.036354326
160	0xbe8487b4	-0.25884783
161	0xbed75227	-0.42054865
162	0xbd3ffb97	-0.046870794
163	0x3ebb010c	0.36524236
164	0xbef9e807	-0.48809835
165	0x3d9be77a	0.0761251
166	0x3e9ccdcd	0.30625764
167	0xbe898de0	-0.26866055
168	0xbdf7104e	-0.12063657
169	0xbe83c05b	-0.25732693
170	0xbdf266ff	-0.11836051
171	0x3e08335e	0.13300845
172	0xbe271e4f	-0.16320156
173	0x3e146e64	0.14495236
174	0xbe72a5fa	-0.23696128
175	0x3e3cfc47	0.18455611
176	0x3e67f786	0.22653016
177	0xbe05c75d	-0.13064332
178	0xbdd536ed	-0.10410867
179	0x3ea87772	0.3290363
180	0x3ec3a0e3	0.38208684
181	0x3db5f601	0.08884812
182	0x3e26ebcc	0.16300887
183	0x3d992a30	0.0747875
184	0xbab72ed5	-0.0013975749
185	0xbd5258b6	-0.051354133
186	0x3de7f3f7	0.113258295
187	0x3f141ad5	0.5785344
188	0x3ee08781	0.4385338
189	0xbecd8862	-0.40143114
190	0xbe888604	-0.26664746
191	0xbf29020f	-0.66018766
192	0xbe933d65	-0.28757778
193	0xbea4f535	-0.32218328
194	0xbe431745	-0.19051845
195	0xbc3cef9a	-0.011531735
196	0xbf4f693d	-0.81019956
197	0xbf1cc254	-0.6123402
198	0x3e9e114e	0.30872577
199	0x3eeab57f	0.45841596
200	0xbcaaf766	-0.020869922
201	0xbe87a246	-0.26490992
202	0xbea49d53	-0.3215128
203	0xbe5c3a0c	-0.21506518
204	0x3d0e7633	0.034780692
205	0x3e3cb6f7	0.1842917
206	0xbea83493	-0.3285261
207	0x3e657e69	0.22411503
208	0xbe8b096f	-0.27155635
209	0x3ea731c4	0.32655156
210	0x3d556a28	0.05210319
211	0xbea28b7b	-0.3174704
212	0x3ea3eea3	0.32018003
213	0xbec74c6b	-0.3892549
214	0x3e4a1319	0.19733848
215	0x3eb1c1e9	0.34718254
216	0x3c4da498	0.012551449
217	0xbee0b0a6	-0.43884772
218	0x3ca694fe	0.020334717
219	0xbe24b435	-0.16084369
220	0xbe84080e	-0.25787395
221	0x3d81a680	0.063305855
222	0x3dbebe25	0.09313611
223	0xbed10218	-0.4082191
224	0xbdb573aa	-0.08859952
225	0xbe20a217	-0.15686832
226	0xbd527482	-0.05138064
227	0x3eed3869	0.463321
228	0xbe871d53	-0.2638956
229	0xbf112551	-0.56697565
230	0x3e6b68a5	0.22989137
231	0x3d8c561e	0.06852363
232	0x3e1c8b27	0.15287457
233	0x3f00d50c	0.50325084
234	0xbe9cc0e0	-0.30615902
235	0xbe0be452	-0.13661316
236	0xbe4ed36a	-0.20197836
237	0xbe68d79c	-0.22738498
238	0x3e692a77	0.22770105
239	0x3ead1181	0.33802417
240	0x3e915e62	0.2839232
241	0xbd761cee	-0.060086183
242	0xbeaa56e8	-0.3326943
243	0x3dc06215	0.09393708
244	0xbe04818b	-0.12940042
245	0xbdda69a7	-0.10664683
246	0xbdfea16e	-0.12433134
247	0xbc8fe2c3	-0.017564183
248	0x3e9bc9a8	0.3042729
249	0xbedb4eb8	-0.42833495
250	0x3f0cda1c	0.5502031
251	0x3da03871	0.07823265
252	0x3e3efdee	0.18651554
253	0x3eb42e7d	0.35191718
254	0xbe2d1b16	-0.16904864
255	0xbe1c1991	-0.15244128

gconvs.5.combination_weights f4 [4, 3]
0	0x3ed99492	0.42496163
1	0x3ea88c4d	0.3291954
2	0x3edaedc7	0.42759535
3	0x3eda9b5c	0.42696655
4	0x3ea846f1	0.32866624
5	0x3edba20c	0.4289707
6	0x3edbf487	0.42959997
7	0x3ea914ce	0.33023685
8	0x3edb824f	0.42872855
9	0x3edb9932	0.42890316
10	0x3ea869d3	0.32893237
11	0x3edb06c0	0.42778587

gconvs.5.weight f4 [3, 6, 6, 4, 3, 3]
0	0x3d97380b	0.07383736
1	0xbecc5ad4	-0.39913046
2	0xbe02b795	-0.12765343
3	0xbecad120	-0.39612675
4	0xbdf06c5d	-0.11739419
5	0xbe1c3701	-0.15255357
6	0x3d097178	0.033555478
7	0xbee53e56	-0.4477412
8	0xbf1d23bc	-0.6138265
9	0x3cb21ee4	0.021743245
10	0x3eec4d4e	0.4615273
11	0xbdf594e5	-0.1199129
12	0x3e30c43e	0.1726236
13	0x3ea03804	0.31292737
14	0xba0aff42	-0.00053023186
15	0xbbcfbc7d	-0.006339608
16	0x3d468fea	0.04847709
17	0xbdc97d1a	-0.09838314
18	0xbf46d087	-0.7766194
19	0xbebf30c1	-0.37341884
20	0xbec89bbb	-0.39181313
21	0xbf3c3683	-0.7352068
22	0xbed63ca3	-0.41843137
23	0xbdb2d6bf	-0.08732366
24	0x3e73ff2a	0.23827806
25	0xbdf267f5	-0.118362345
26	0xbf0978d2	-0.5369998
27	0x3e9be062	0.30444628
28	0x3ec337a4	0.38128388
29	0x3cea4dd5	0.028601566
30	0x3da33042	0.07968189
31	0x3eda2df4	0.42613184
32	0x3eb07db2	0.34470898
33	0x3ef62f90	0.48083162
34	0xbd7e6e4b	-0.062116902
35	0x3eb0bfa7	0.3452122
36	0x3c1fd6c1	0.009755791
37	0x3f0ff540	0.56233597
38	0x3ecff3b3	0.40615615
39	0xbe6911b5	-0.22760661
40	0x3ea58745	0.32329765
41	0xbc5d3758	-0.0135019645
42	0xbec51a05	-0.38496414
43	0xbed15c8e	-0.40890926
44	0xbcc5417a	-0.024079073
45	0xbf28284a	-0.65686476
46	0x3e746475	0.23866446
47	0x3eff40f1	0.49854234
48	0xbf47b2dc	-0.7800729
49	0x3e5912b4	0.21198541
50	0x3e8ea72d	0.2786192
51	0xbf3e0b13	-0.7423565
52	0x3f060f93	0.52367514
53	0x3f3f3773	0.74693984
54	0x3deae7e4	0.11470011
55	0x3d0290a7	0.031876232
56	0xbf1f00cd	-0.62110597
57	0x3efe594d	0.49677506
58	0x3e9ac081	0.30224994
59	0xbe1a8763	-0.15090708
60	0x3e3e4e32	0.18584517
61	0x3be73d4a	0.007056867
62	0xbc41fdac	-0.011840265
63	0x3e45d834	0.19320756
64	0x3e973cc5	0.2953855
65	0xbee0b323	-0.4388667
66	0x3f44490b	0.76673955
67	0x3ebc0bad	0.36727658
68	0xbe8ae6b3	-0.27129135
69	0x3f3c9bc1	0.7367516
70	0xbdf8eade	-0.12154172
71	0xbf2ddd95	-0.6791623
72	0xbdb6e2f7	-0.08930009
73	0xbdeba95c	-0.11506912
74	0xbeed166c	-0.4630617
75	0x3df91fe1	0.121642835
76	0xbc34a7c7	-0.011026329
77	0x3e6f9195	0.23395379
78	0x3e2e2ca2	0.17009214
79	0x3f20fe73	0.6288826
80	0xbc2e147a	-0.010624999
81	0xbe6230da	-0.22088948
82	0xbf10da34	-0.5658295
83	0xbf784388	-0.96978045
84	0x3ddd2c32	0.10799445
85	0xbf0ec8fc	-0.5577543
86	0xbf1a5f29	-0.6030145
87	0xbe5feea8	-0.21868384
88	0x3dcf8aad	0.10133872
89	0xbeaa2768	-0.3323319
90	0x3da39bc5	0.07988695
91	0xbdd3227f	-0.10309314
92	0xbdcd820d	-0.10034571
93	0x3cf63f7f	0.030059574
94	0xbc76e8d0	-0.015070155
95	0x3dcc8232	0.0998577
96	0xbd169183	-0.036759865
97	0x3dec62f1	0.11542309
98	0xbe88a545	-0.2668859
99	0xbf2099cc	-0.62734675
100	0xbdbf399e	-0.093371615
101	0xbe0a420c	-0.13501757
102	0xbf24a3f1	-0.64312655
103	0xbeb20f00	-0.3477707
104	0x3ecb84e8	0.39749837
105	0xbf75cac3	-0.96012515
106	0xbf2a0068	-0.6640687
107	0x3e11ccc9	0.14238276
108	0xbe340ede	-0.17583796
109	0xbeb9e72b	-0.3630918
110	0x3e73eb8a	0.2382032
111	0x3e341e90	0.17589784
112	0xbe6fc158	-0.23413599
113	0x3e8ed26f	0.27894923
114	0x3e98c1a0	0.29835224
115	0xbe969e64	-0.29417717
116	0x3f262978	0.64907026
117	0xbe5e94f5	-0.2173651
118	0x3e79754c	0.24361151
119	0xbf7d04c2	-0.98835385
120	0xbf001776	-0.500358
121	0xbed5f841	-0.41790965
122	0xbf6ab2ab	-0.91678876
123	0x3f12f9b1	0.5741225
124	0xbed1c4f7	-0.40970585
125	0xbf9b86fa	-1.2150567
126	0x3e57aeed	0.21062823
127	0x3eaff236	0.3436448
128	0xbc0af1cd	-0.008480501
129	0xbe66b2b0	-0.22529101
130	0x3dd28ae7	0.102804
131	0xbebbaf76	-0.36657304
132	0xbe5be9c0	-0.21475887
133	0xbe514355	-0.20435841
134	0xbe8b3e2c	-0.2719587
135	0xbeaf9c1a	-0.34298784
136	0x3dc32847	0.09529167
137	0xbd36ea2c	-0.044656917
138	0xbd338e04	-0.04383661
139	0xbe26f5d2	-0.1630471
140	0xbf5101a4	-0.8164313
141	0x3e59cc48	0.21269333
142	0x3e48b4fa	0.19600287
143	0xbdbde147	-0.09271484
144	0x3daca0e8	0.08429128
145	0xbeaaa78c	-0.33330953
146	0x3d91ca4b	0.071186624
147	0xbe7f2598	-0.24916685
148	0x3e623d41	0.22093679
149	0xbe46d59e	-0.19417426
150	0xbe256160	-0.16150427
151	0x3f062015	0.52392703
152	0x3eb95cc5	0.3620359
153	0x3e52b660	0.20577383
154	0xbe89cf00	-0.2691574
155	0xbcf8c72e	-0.030368414
156	0x3e45916f	0.1929376
157	0xbf1e74cf	-0.61896986
158	0xbf1839ff	-0.59463495
159	0x3df93fa9	0.12170345
160	0xbed1e4ef	-0.40994975
161	0xbf18a7c7	-0.5963101
162	0xbb9c9cb3	-0.004779422
163	0x3e822d51	0.254252
164	0x3e4ab6e5	0.19796331
165	0x3e820e1a	0.25401384
166	0xbe4d0b34	-0.20023805
167	0x3e822dd1	0.2542558
168	0x3e3fa7cd	0.18716355
169	0xbd5ab605	-0.053396244
170	0xbd40f936	-0.047112666
171	0xbe4db8c4	-0.20090014
172	0x3e0152c2	0.12629226
173	0x3e25e4bd	0.16200538
174	0xbe95a636	-0.2922837
175	0xbad9e2fa	-0.001662343
176	0xbe8fd87f	-0.2809486
177	0xbea12c5f	-0.31479165
178	0xbe196ccf	-0.14982913
179	0xbe401070	-0.1875627
180	0xbfccf19e	-1.6011236
181	0xbf32fc8e	-0.6991662
182	0x3ecb626e	0.39723533
183	0xbfb65fd7	-1.4247998
184	0xbf07e09b	-0.53077096
185	0x3ed98419	0.42483595
186	0xbf5706c2	-0.83994687
187	0xbe833127	-0.25623438
188	0x3dca023c	0.098637074
189	0xbdf98503	-0.12183573
190	0xbe38a4ff	-0.18031691
191	0xbf426211	-0.7593089
192	0xbf2be35c	-0.671438
193	0xbee0e4d8	-0.43924594
194	0xbef0ce3e	-0.4703235
195	0xbeececf0	-0.4627452
196	0xbebe0d19	-0.37119368
197	0x3e9e160a	0.3087619
198	0xbd125428	-0.03572479
199	0xbf2df221	-0.67947584
200	0xbee38a2a	-0.44441348
201	0xbebde456	-0.3708827
202	0xbf244eb2	-0.6418258
203	0xbf2fbda1	-0.68648726
204	0x3e0d668c	0.1380865
205	0xbf1ae0cd	-0.6049927
206	0xbffa2acf	-1.9544314
207	0xbf287007	-0.6579594
208	0xbf2c52de	-0.67313945
209	0x3e36506c	0.17804116
210	0xbee00e69	-0.43760994
211	0xbe042e65	-0.12908323
212	0x3d7189f3	0.05896945
213	0xbe64c7d8	-0.2234186
214	0xbdb03c60	-0.086052656
215	0xbef81398	-0.4845245
216	0xbd44f4d2	-0.04808504
217	0x3be6b0ac	0.007040104
218	0xbe2470f8	-0.16058719
219	0xbebd9bbb	-0.37032875
220	0xbde3fb15	-0.111318745
221	0xbecb96f1	-0.39763597
222	0xbf19ce37	-0.60080284
223	0xbe8d8c3e	-0.2764606
224	0xbe3f7d4d	-0.18700142
225	0x3e95043e	0.291048
226	0xbc9f627c	-0.01945614
227	0x3d1bc40e	0.03802877
228	0x3dbf4aa2	0.09340407
229	0x3ea8b1b4	0.32948077
230	0x3e0d4c7d	0.13798709
231	0x3d63268d	0.055456687
232	0x3e2e09a7	0.1699587
233	0xbea30e64	-0.31846917
234	0xbe82a550	-0.25516748
235	0x3e5da71e	0.21645781
236	0xbdeae173	-0.11468782
237	0xbda39704	-0.07987788
238	0xbde9aa92	-0.11409487
239	0xbed5e5f1	-0.41776994
240	0xbef557af	-0.4791846
241	0xbec6edcf	-0.3885331
242	0x3d75a9cf	0.059976395
243	0x3ecd8835	0.4014298
244	0xbe91c87f	-0.2847328
245	0x3b1e0715	0.0024113108
246	0x3e38a467	0.18031465
247	0xbe6b142b	-0.22956912
248	0x3e5ac093	0.21362524
249	0xbd938b9e	-0.07204364
250	0xbde5ff03	-0.1123028
251	0xbd83b8de	-0.06431745
252	0x3f0f943c	0.5608556
253	0x3e6271c7	0.22113715
254	0x3f0facda	0.56123126
255	0xbd47a0cb	-0.04873733

final_layer.combination_weights f4 [4, 3]
0	0x3eca8c3c	0.39560115
1	0x3ecd260b	0.40068087
2	0x3f04cc8b	0.5187461
3	0x3ecaa239	0.3957689
4	0x3ecc97c8	0.3995955
5	0x3f04d01b	0.51880044
6	0x3ecaa387	0.39577886
7	0x3eccf99a	0.4003418
8	0x3f04f69b	0.5193879
9	0x3eca88de	0.39557546
10	0x3ecc9b85	0.39962402
11	0x3f04e0d2	0.5190555
