oldruns/RelaxedP4CNN_iso_std0.1_gamma2_lr0.002/model.pt (torch, 116029 bytes, 18 tensors)

lifting_conv.combination_weights f4 [3, 4]
0.03172724 0.04037542 0.03543979 0.03398515 -0.15206252 -0.16278237 -0.15881851 -0.16056937
-0.10492382 -0.11391174 -0.10845294 -0.10549674
00000000: 6cf4 013d b260 253d 5029 113d 0334 0b3d
00000010: 47b6 1bbe 6cb0 26be 52a1 22be 4c6c 24be
00000020: 4de2 d6bd 8f4a e9bd 931c debd ad0e d8bd

lifting_conv.weight f4 [3, 6, 1, 3, 3]
-0.017473973 0.33589676 0.3253653 -0.18657313 0.10632068 0.15986578 0.08950929 -0.54598427
-0.17660302 0.4861329 0.037770446 -0.24626932 0.32151803 -0.03574869 0.032769315 0.040130593
-0.026812121 -0.2619481 -0.16618413 0.17591636 0.13605027 0.17309731 0.04646324 0.47849482
-0.3510978 -0.022188216 -0.08632271 -0.45178565 0.13854851 0.045670517 -0.22622235 0.1249691
0.20751745 0.3644484 -0.2894441 0.19962275 0.03802432 0.13661216 0.30113688 -0.010289019
0.3286117 0.3497431 0.05019689 0.29924902 -0.043716762 -0.15465915 0.17632152 0.39476812
0.2519264 0.157572 0.20370299 0.21925423 -0.06785874 -0.21261598 -0.25828627 0.097862005
0.06557306 0.18333577 -0.033956774 -0.30869716 0.5675451 0.23681581 0.554915 -0.2520299
-0.16387811 -0.25410444 0.13122715 -0.01789515 0.15610225 0.6459645 0.00035809254 -0.27470937
0.006642376 -0.20607434 -0.0030821546 0.41502392 -0.1761264 -0.028763358 0.1841154 -0.0034453126
-0.06258546 0.0553692 0.017749934 0.29115823 0.43853223 0.36397114 0.19993812 -0.47103566
0.12697318 -0.12269817 0.11872563 -0.0433232 0.10163508 0.2398098 0.114312254 0.21365173
0.0215443 -0.19115172 0.21256293 0.23320392 -0.16497327 -0.61702025 -0.010435922 0.02235094
0.03945466 -0.026223022 0.09655161 0.22491616 -0.3257639 -0.08391381 -0.23056073 0.21159025
-0.191857 0.09901983 0.074659705 -0.08713955 0.4915404 -0.24194095 -0.12873784 0.08608758
-0.25372833 -0.09596665 0.05527196 0.04760316 0.102768816 0.31513107 0.05127742 0.1535164
0.09074564 0.009548126 0.086834714 -0.12364809 0.3829262 0.031130996 -0.31139195 -0.021884674
-0.116558984 -0.23719425 0.4287615 0.04219903 -0.13933444 -0.46672633 0.12435425 0.19320875
-0.16979462 -0.014550545 0.20607525 -0.20051885 0.23986936 0.19572231 -0.06611374 0.05301542
0.09079955 -0.28379524 -0.24543563 -0.44529825 0.42331395 0.19901821 -0.23513527 -0.012867039
0.17800282 -0.07214204
00000000: 9425 8fbc a9fa ab3e 4896 a63e 070d 3fbe
00000010: a8be d93d dbb3 233e a650 b73d a0c5 0bbf
00000020: 6cd7 34be 69e6 f83e 2fb5 1a3d 062e 7cbe
00000030: 039e a43e 386d 12bd 1e39 063d fa5f 243d
00000040: 18a5 dbbc 101e 86be 2c2c 2abe 6b23 343e
00000050: c350 0b3e 6c40 313e 3d50 3e3d 46fd f43e
00000060: 17c3 b3be 10c4 b5bc f6c9 b0bd 7350 e7be
00000070: a9df 0d3e 0211 3b3d d5a6 67be cdef ff3d
00000080: 747f 543e fb98 ba3e 0432 94be e869 4c3e
00000090: 64bf 1b3d 0fe4 0b3e 9d2e 9a3e 4693 28bc
000000a0: cb3f a83e 8711 b33e 419b 4d3d 2b37 993e
000000b0: 5910 33bd f85e 1ebe a18d 343e 0c1f ca3e
000000c0: 7ffc 803e 8e5a 213e 8497 503e 2e84 603e
000000d0: 86f9 8abd 01b8 59be 193e 84be e06b c83d
000000e0: 2b4b 863d 5fbc 3b3e 4216 0bbd 8e0d 9ebe
000000f0: a34a 113f d87f 723e e90e 0e3f 100a 81be
00000100: aacf 27be fa19 82be 6960 063e da98 92bc
00000110: 45d9 1f3e ee5d 253f 5ebe bb39 b5a6 8cbe
00000120: 4aa8 d93b 2705 53be f9fd 49bb 047e d43e
00000130: 7b5a 34be 22a1 ebbc bf88 3c3e c1ca 61bb
00000140: ce2c 80bd d0ca 623d 4f68 913c b112 953e
00000150: 4c87 e03e 6d5a ba3e 94bc 4c3e 962b f1be
00000160: 4205 023e 2e49 fbbd 6c26 f33d ab73 31bd
00000170: 0e26 d03d b390 753e 8b1c ea3d 85c7 5a3e
00000180: ac7d b03c 47bd 43be 19aa 593e 02cd 6e3e
00000190: c1ee 28be 0af5 1dbf 6efb 2abc 5219 b73c
000001a0: 369b 213d aad1 d6bc dabc c53d 6c50 663e
000001b0: 87ca a6be 01db abbd 1d18 6cbe 1dab 583e
000001c0: 2976 44be e9ca ca3d 30e7 983d 3876 b2bd
000001d0: 2fab fb3e 5ebf 77be dad3 03be af4e b03d
000001e0: aee8 81be 2a8a c4bd da64 623d 88fb 423d
000001f0: 7578 d23d dc58 a13e 4608 523d 6733 1d3e
00000200: dad8 b93d be6f 1c3c 66d6 b13d 363b fdbd
00000210: e70e c43e 6e06 ff3c c46e 9fbe 7d47 b3bc
00000220: 7ab6 eebd 0de3 72be a186 db3e e4d8 2c3d
00000230: b0ad 0ebe c1f6 eebe 71ad fe3d 84d8 453e
00000240: a4de 2dbe 6965 6ebc 6405 533e d054 4dbe
00000250: 50a0 753e 6e6b 483e a466 87bd b226 593d
00000260: 1df5 b93d 9c4d 91be 7a53 7bbe 22fe e3be
00000270: 9bbc d83e 6ecb 4b3e 4dc7 70be 46d0 52bc
00000280: 5f46 363e 35bf 93bd

gconvs.0.combination_weights f4 [4, 3]
0.38118982 0.3833545 0.34909853 0.38522196 0.38428548 0.34925455 0.38352725 0.38251096
0.34816024 0.3837138 0.3852244 0.34891096
00000000: 502b c33e 0b47 c43e 0bbd b23e d03b c53e
00000010: 11c1 c43e 7ed1 b23e af5d c43e 7ad8 c33e
00000020: 0f42 b23e 2376 c43e 223c c53e 75a4 b23e

gconvs.0.weight f4 [3, 6, 6, 4, 3, 3]
-0.6669612 -0.06222094 -0.58595335 -0.7683057 -0.24368668 -0.48500997 -0.16831551 -0.5014524
-0.29763284 -0.1967235 0.22680193 0.67410564 -0.30120885 -0.45418158 -0.6025957 -0.03379232
-0.110727176 0.035153747 -0.13140349 -0.5248318 -0.65342283 -0.11938542 0.22063951 0.15822156
0.041498624 -0.38852042 0.09409757 -0.14484099 -0.17095612 -0.01822968 -0.007491145 0.35819602
0.08247652 0.09662794 0.40688285 0.5113828 -0.77694947 -0.2703013 -0.059347816 0.009458742
0.045011234 0.1750823 0.023070144 0.22646211 0.2685163 0.5152118 0.0750163 0.04162318
0.38580552 0.32064974 -0.028186321 0.35667413 -0.028505268 -0.577318 -0.48802763 -0.34487784
-0.47271925 0.16603877 -0.14078405 0.13392258 0.057548203 -0.18912317 -0.28472584 -0.054255385
-0.32156253 -0.2729225 -0.23848487 0.3296689 0.10808076 0.4255653 0.50471723 0.5110181
-0.14040011 -0.3360284 0.26616856 0.47522816 0.20769975 -0.28202108 -0.1857481 -0.15900382
0.39212275 0.070667796 0.29738322 0.19392265 -0.051667582 0.22288305 -0.31509593 0.10511332
-0.012624767 -0.5612 0.0014651255 -0.38353962 -0.18102463 0.20212124 -0.18193524 -0.2510922
0.3221935 0.02858573 0.016661609 -0.19455488 -0.2879167 -0.33870184 -0.015097497 -0.23112044
-0.20436761 -0.2859086 -0.35818487 0.10073656 -0.29191986 -0.23783456 0.013298586 -0.011997359
0.225277 -0.061413236 -0.24446891 -0.2646349 -0.13450584 -0.4021036 0.15947595 0.15192263
-0.54071623 0.15548837 0.11251392 -0.92559236 0.071469665 -0.26288098 0.06046859 -0.21714908
-0.6312372 -0.5880688 -0.18333676 -0.33756092 -0.24004017 -0.67904025 -0.26500323 0.06857986
0.2735102 -0.44139558 0.072885014 0.6024289 0.025817696 0.0051170895 0.45766377 -0.5252416
0.25957048 0.18377098 -0.2415405 -0.043174252 0.29333693 0.19913813 0.49392155 -0.2568415
0.023224108 -0.034941286 0.13594602 0.058393158 0.012155856 0.16012807 0.2438725 0.2112366
-0.31086648 -0.08771591 0.10510908 -0.06408568 -0.0437432 -0.41430777 -0.22935842 0.0902836
0.19692382 0.014684778 -0.05012487 0.011827715 0.099933095 0.17342775 -0.3139108 -0.38056445
0.06378451 0.22028115 0.08139441 -0.2654399 0.09336811 -0.32022166 0.68624383 -0.35539317
0.054160275 0.09438031 -0.044264305 0.28920713 -0.0013833432 -0.19365528 -0.056502134 -0.30844268
0.079934716 -0.058195118 -0.6485034 -0.090879396 -0.18737166 -0.37109903 0.30311283 -0.07277975
-0.22840469 0.16318993 -0.24121402 -0.26720282 0.3602226 -0.26096728 0.17002529 -0.6509757
0.43482938 0.34012088 -0.038087383 0.0065963995 0.11048016 -0.40559682 0.012557002 -0.20264827
0.23387387 -0.15271513 -0.4202336 0.15330084 -0.16335212 -0.45662868 -0.25628904 -0.57246673
-0.8273473 -0.2766224 -0.24862815 0.013036962 -0.14389114 0.021793066 -0.3781818 0.079728425
0.12545164 -0.14081605 0.17676233 0.096752554 -0.58218473 -0.10369029 0.016756985 -0.16400926
0.20930772 -0.03691592 0.24875844 -0.5738365 -0.10420398 -0.6010448 -0.005050066 -0.3531894
-0.20876253 0.22113281 0.49059725 0.38694513 0.1825289 0.4418134 -0.17173377 0.10808369
00000000: f8bd 2abf 62db 7ebd 0a01 16bf afaf 44bf
00000010: 0089 79be 3a53 f8be e75a 2cbe 2f5f 00bf
00000020: 5563 98be e371 49be c43e 683e 3092 2c3f
00000030: 0c38 9abe 7d8a e8be b643 1abf d169 0abd
00000040: eec4 e2bd 60fd 0f3d a38e 06be 605b 06bf
00000050: b846 27bf 5880 f4bd 53ef 613e d504 223e
00000060: 76fa 293d 26ec c6be 3ab6 c03d 3251 14be
00000070: 1f0f 2fbe 6956 95bc 4778 f5bb 7865 b73e
00000080: 73e9 a83d dfe4 c53d f352 d03e fce9 023f
00000090: 29e6 46bf ef64 8abe b216 73bd d7f8 1a3c
000000a0: b35d 383d c648 333e 99fd bc3c afe5 673e
000000b0: f87a 893e ece4 033f 25a2 993d 117d 2a3d
000000c0: 4d88 c53e 342c a43e 00e7 e6bc fe9d b63e
000000d0: e183 e9bc 1dcb 13bf c2de f9be d493 b0be
000000e0: 4208 f2be 1106 2a3e b229 10be 0023 093e
000000f0: aab7 6b3d 81a9 41be 96c7 91be e53a 5ebd
00000100: d8a3 a4be 7fbc 8bbe 6135 74be 5dca a83e
00000110: 7259 dd3d b2e3 d93e 2635 013f 15d2 023f
00000120: 0cc5 0fbe ea0b acbe 3f47 883e 1b51 f33e
00000130: 3eaf 543e 1165 90be c034 3ebe e6d1 22be
00000140: 50c4 c83e 47ba 903d 9d42 983e a993 463e
00000150: 63a1 53bd 743b 643e 4154 a1be a745 d73d
00000160: 1cd8 4ebc ceaa 0fbf 7409 c03a 4e5f c4be
00000170: 855e 39be dff8 4e3e 3b4d 3abe 288f 80be
00000180: 8cf6 a43e 9f2c ea3c ed7d 883c 6539 47be
00000190: d169 93be 546a adbe 7e5b 77bc d6aa 6cbe
000001a0: be45 51be 9d62 92be 0264 b7be f84e ce3d
000001b0: 8576 95be e78a 73be 50e2 593c 9290 44bc
000001c0: 04af 663e 728c 7bbd 0f56 7abe 3a7e 87be
000001d0: e6bb 09be 86e0 cdbe aa4d 233e 9b91 1b3e
000001e0: 616c 0abf 5838 1f3e b36d e63d 9ff3 6cbf
000001f0: b05e 923d 5698 86be eaad 773d 545c 5ebe
00000200: c398 21bf ad8b 16bf a2bc 3bbe c9d4 acbe
00000210: 17cd 75be 95d5 2dbf 81ae 87be 9973 8c3d
00000220: 8709 8c3e 9afe e1be bd44 953d c838 1a3f
00000230: a27f d33c 42ad a73b e852 ea3e 3c76 06bf
00000240: 6ce6 843e 762e 3c3e 6556 77be 7cd7 30bd
00000250: 4230 963e deea 4b3e 49e3 fc3e bb80 83be
00000260: 7c40 be3c 981e 0fbd 6f35 0b3e aa2d 6f3d
00000270: 5b29 473c 9df8 233e b6b9 793e 684e 583e
00000280: e429 9fbe 66a4 b3bd 6e43 d73d 5a3f 83bd
00000290: 122c 33bd 2620 d4be efdc 6abe 9ce6 b83d
000002a0: 66a6 493e 6c98 703c bc4f 4dbd 08c9 413c
000002b0: b9a9 cc3d 0b97 313e ebb8 a0be 58d9 c2be
000002c0: 74a1 823d 6291 613e 1db2 a63d bde7 87be
000002d0: c837 bf3d 18f4 a3be adad 2f3f 18f6 b5be
000002e0: 2ad7 5d3d 774a c13d 7d4e 35bd f512 943e
000002f0: 4c51 b5ba 924d 46be c86e 67bd 33ec 9dbe
00000300: d0b4 a33d 015e 6ebd 5204 26bf fa1e babd
00000310: 5bde 3fbe b100 bebe 9b31 9b3e 8d0d 95bd
00000320: ebe2 69be 431b 273e cf00 77be cfce 88be
00000330: 196f b83e 819d 85be 1c1b 2e3e 58a6 26bf
00000340: f5a1 de3e 5324 ae3e 8401 1cbd 9c26 d83b
00000350: 6c43 e23d 63aa cfbe e2bb 4d3c 0783 4fbe
00000360: a27c 6f3e 5b61 1cbe dc28 d7be e5fa 1c3e
00000370: c745 27be 3ccb e9be 5138 83be 2e8d 12bf
00000380: 08cd 53bf 74a1 8dbe 6198 7ebe fb98 553c
00000390: 3358 13be 5f87 b23c 0ba1 c1be a848 a33d
000003a0: 6576 003e 1532 10be 2f01 353e 3426 c63d
000003b0: 0f0a 15bf 935b d4bd f245 893c 0bf2 27be
000003c0: c354 563e 2635 17bd 88ba 7e3e f3e6 12bf
000003d0: e568 d5bd 12de 19bf 067b a5bb 3ed5 b4be
000003e0: d8c5 55be a470 623e 902f fb3e ac1d c63e
000003f0: dbe8 3a3e 5e35 e23e fada 2fbe fb5a dd3d

gconvs.1.combination_weights f4 [4, 3]
0.3551772 0.4095635 0.36600062 0.35266164 0.4079612 0.36514932 0.3564348 0.4105617
0.36634973 0.3536271 0.40774322 0.3651598
00000000: c9d9 b53e 4fb2 d13e 6f64 bb3e 1190 b43e
00000010: 4ae0 d03e daf4 ba3e 9f7e b63e 2535 d23e
00000020: 3192 bb3e 9c0e b53e b8c3 d03e 3af6 ba3e

gconvs.1.weight f4 [3, 6, 6, 4, 3, 3]
0.42966628 0.23583399 0.0059289318 0.51673675 -0.0847264 -0.15704966 0.19577011 0.14065927
-0.21783778 -0.14280279 0.2936815 0.41954443 0.06433558 0.13402015 -0.048955575 -0.27679682
0.04068386 0.29439187 0.32631314 0.15856567 0.47506982 0.14964782 0.003897617 -0.23664115
0.19212306 -0.17153725 -0.042553335 -0.05815495 0.30732074 0.3628606 -0.037512112 -0.31030005
0.28191775 0.056028653 -0.3985105 -0.22314966 0.24592 -0.11842838 -0.13543732 0.0075500403
-0.17555548 0.1251998 -0.50711495 0.10509379 0.06781341 -0.013867211 -0.16127229 -0.20189664
0.15376666 0.15197971 0.2655147 0.5541488 0.17517011 -0.4822851 0.2383079 -0.25849742
-0.12910706 0.3147404 0.17017938 -0.0061767716 -0.1635657 0.20797093 0.05536726 -0.011386265
0.015908998 -0.008065509 -0.04366457 0.18340181 -0.12419981 0.503885 -0.050846744 0.21194422
-0.048738297 0.24541889 -0.33763435 -0.17607722 -0.30332968 -0.24007659 -0.087570965 -0.21144602
-0.5751043 0.23993994 0.3134422 0.391198 0.47965646 -0.16385964 0.3023062 -0.046241336
0.3606006 -0.31279096 0.080463946 -0.39355946 0.14630106 -0.21352254 -0.062421087 -0.13869111
0.25288203 -0.13373682 0.2790843 0.19711258 -0.2815638 0.34170985 0.09557436 -0.14016485
-0.22953375 0.09467262 0.24966224 0.17639197 -0.015282534 0.108258925 -0.22821207 -0.28023517
0.44555208 0.022061603 -0.1514397 -0.15258059 -0.5418123 -0.97105986 0.25652558 -0.2513303
-0.42147696 -0.15948458 0.08557497 -0.7388399 0.11297583 0.50467926 -0.29273665 0.42914045
0.21458185 0.4284299 0.33845887 -0.3654028 0.71437836 0.040947415 -0.079367906 -0.11734168
-0.29758325 0.16031784 -0.17618234 -0.53579956 0.25353062 0.3236438 0.38817433 -0.044123605
-0.32372797 0.2634594 -0.51757795 -0.15955102 0.030758006 -0.3552258 -0.04291613 0.35966095
-0.029130947 -0.107382536 0.06794664 0.2524877 -0.028519245 0.16164623 -0.31735042 0.25030145
0.3867684 0.22810651 -0.15739657 -0.29977784 0.13754554 -0.12214665 -0.25380483 0.04896929
-0.934067 -0.16990289 -0.32314172 -0.011394312 -0.18319215 0.067565516 0.16595535 0.06363676
0.3453975 -0.32917526 0.003334236 -0.009133816 -0.062412154 -0.6737458 -0.586444 -0.911393
-0.3562816 -0.23899186 -0.58180416 0.16405156 0.3747165 -0.14607865 0.09173693 -0.568425
-0.38723397 0.13838089 -0.32453105 0.54895484 0.474487 -0.07967652 -0.5035 0.37897214
0.35950473 -0.11670948 0.37877303 0.17625087 0.3098045 0.2714384 0.4984805 0.15204826
-0.098091856 -0.16496603 -0.1930245 0.018461829 0.33219483 0.12395647 0.099553145 0.56875783
0.11568075 0.03643703 0.08563951 0.012870755 -0.15641761 0.07863317 0.059052985 0.20956329
-0.33973193 -0.3264714 -0.18648566 0.5387568 -0.005094608 -0.56604975 0.19256793 0.21290104
0.26010635 0.037361942 -0.07027146 -0.20144852 -0.032926142 0.21196152 0.40105656 0.36957976
-0.12901714 -0.2642429 0.3732635 -0.68956494 0.06886067 -0.036584467 -0.62481683 0.3399026
0.30149144 0.16127741 0.3000479 -0.052697167 0.15434255 0.051235206 -0.29510993 -0.11598637
00000000: 38fd db3e 777e 713e 7c47 c23b dc48 043f
00000010: 0985 adbd a0d1 20be f677 483e fc08 103e
00000020: de10 5fbe e53a 12be 6c5d 963e 87ce d63e
00000030: 5fc2 833d 943c 093e a485 48bd 50b8 8dbe
00000040: 1fa4 263d 88ba 963e 8412 a73e 0a5f 223e
00000050: 5a3c f33e 473d 193e 2a6f 7f3b 0f52 72be
00000060: e8bb 443e 76a7 2fbe 684c 2ebd e333 6ebd
00000070: 2559 9d3e ddc8 b93e 4da6 19bd a6df 9ebe
00000080: 8657 903e 4d7e 653d 9109 ccbe 5881 64be
00000090: 74d2 7b3e 948a f2bd 15b0 0abe 5466 f73b
000000a0: d1c4 33be 6034 003e 49d2 01bf 6a3b d73d
000000b0: c2e1 8a3d 4c33 63bc 9024 25be febd 4ebe
000000c0: 0275 1d3e 92a0 1b3e 8bf1 873e b2dc 0d3f
000000d0: cb5f 333e 13ee f6be fc06 743e c659 84be
000000e0: a434 04be a725 a13e 8143 2e3e 8466 cabb
000000f0: c47d 27be 55f6 543e c8c8 623d 758d 3abc
00000100: 9653 823c 3225 04bc 9fd9 32bd afcd 3b3e
00000110: 785c febd 9bfe 003f ad44 50bd e807 593e
00000120: cfa1 47bd 174f 7b3e 69de acbe 964d 34be
00000130: 074e 9bbe a3d6 75be 6858 b3bd 4e85 58be
00000140: 093a 13bf d1b2 753e 7f7b a03e 1b4b c83e
00000150: 8895 f53e d2ca 27be e1c7 9a3e 8e67 3dbd
00000160: a4a0 b83e 2326 a0be 48ca a43d a080 c9be
00000170: f2cf 153e a7a5 5abe 41ad 7fbd 0b05 0ebe
00000180: c179 813e 4ef2 08be 23e4 8e3e e1d7 493e
00000190: 2129 90be 98f4 ae3e 7dbc c33d 6087 0fbe
000001a0: e50a 6bbe b8e3 c13d 75a7 7f3e 19a0 343e
000001b0: 9863 7abc dbb6 dd3d 6db0 69be fc7a 8fbe
000001c0: 671f e43e 89ba b43c 0213 1bbe 163e 1cbe
000001d0: 36b4 0abf 6197 78bf 5257 833e 5dae 80be
000001e0: d4cb d7be ed4f 23be ee41 af3d 9d24 3dbf
000001f0: df5f e73d a932 013f 94e1 95be 4cb8 db3e
00000200: 58bb 5b3e 2a5b db3e 7b4a ad3e 1316 bbbe
00000210: 80e1 363f 7ab8 273d a48b a2bd d650 f0bd
00000220: d55c 98be 5c2a 243e 2569 34be 292a 09bf
00000230: c4ce 813e a4b4 a53e c9be c63e f4ba 34bd
00000240: acbf a5be 27e4 863e fd7f 04bf 5861 23be
00000250: 37f8 fb3c 28e0 b5be d3c8 2fbd 7b25 b83e
00000260: 06a4 eebc 60eb dbbd 9c27 8b3d 1146 813e
00000270: 31a1 e9bc 9786 253e c17b a2be 8327 803e
00000280: 8206 c63e c194 693e 912c 21be 7b7c 99be
00000290: bdd8 0c3e 0628 fabd b5f2 81be 0694 483d
000002a0: 041f 6fbf 06fb 2dbe d572 a5be 35af 3abc
000002b0: b996 3bbe ca5f 8a3d 33f0 293e fd53 823d
000002c0: f1d7 b03e a989 a8be 3383 5a3b 00a6 15bc
000002d0: e3a3 7fbd 9b7a 2cbf 3221 16bf 0d51 69bf
000002e0: 8b6a b6be 48ba 74be 1ef1 14bf 22fd 273e
000002f0: d7da bf3e a495 15be 92e0 bb3d 4d84 11bf
00000300: 8843 c6be b8b3 0d3e ef28 a6be 4e88 0c3f
00000310: f6ef f23e 712d a3bd 60e5 00bf a308 c23e
00000320: 0111 b83e 6105 efbd 8aee c13e 1c7b 343e
00000330: b29e 9e3e f9f9 8a3e d638 ff3e 8ab2 1b3e
00000340: 62e4 c8bd dbec 28be 37a8 45be 433d 973c
00000350: 7115 aa3e e4dc fd3d 85e2 cb3d 1d9a 113f
00000360: 07ea ec3d ff3e 153d c463 af3d dcdf 523c
00000370: f02b 20be 6d0a a13d 8be1 713d c297 563e
00000380: 58f1 adbe 4227 a7be 19f6 3ebe f7eb 093f
00000390: abf0 a6bb a3e8 10bf 8730 453e bb02 5a3e
000003a0: a92c 853e d608 193d 7cea 8fbd 8548 4ebe
000003b0: 90dd 06bd 710c 593e 4957 cd3e 8f39 bd3e
000003c0: 121d 04be d84a 87be 651c bf3e 5487 30bf
000003d0: d306 8d3d 98d9 15bd fff3 1fbf b707 ae3e
000003e0: 165d 9a3e e825 253e e19f 993e fcd8 57bd
000003f0: f90b 1e3e 02dc 513d a618 97be 438a edbd

gconvs.2.combination_weights f4 [4, 3]
0.4178525 0.32255116 0.39732534 0.41477734 0.31875965 0.39759645 0.41977507 0.3224047
0.40182292 0.41770026 0.32291907 0.4015092
00000000: c3f0 d53e 6d25 a53e 3a6e cb3e b25d d43e
00000010: 7734 a33e c391 cb3e c2ec d63e 3b12 a53e
00000020: bcbb cd3e cfdc d53e a655 a53e 9d92 cd3e

gconvs.2.weight f4 [3, 6, 6, 4, 3, 3]
0.3984526 -0.11214493 -0.06803825 -0.2846006 -0.05654192 0.1514536 -0.09193811 -0.13524365
0.29470906 -0.33009627 -0.48272362 0.590547 0.12710208 -0.18451028 0.3572484 -0.32152477
-0.24737579 -0.34481362 0.29254556 0.028686669 -0.4096918 0.264743 -0.269588 0.3115754
-0.015315264 -0.15636805 0.33101797 0.21396726 -0.004174893 -0.079366066 -0.045842998 -0.3213894
-0.21673612 -0.39245406 -0.33669963 0.120825164 0.2335151 -0.45017594 -0.44296205 0.1297652
0.2555621 -0.2872078 0.42118257 0.23040447 -0.026763368 -0.2820293 -0.16994171 -0.17792766
-0.4153891 -0.06363807 0.3235722 0.13813218 0.32555756 -0.22184418 0.28679785 0.51411587
0.09306562 0.37662253 -0.17988898 -0.10729555 0.12564336 -0.13202056 -0.11256182 -0.073190175
0.42239925 0.03083646 0.31364644 -0.04440013 0.19378006 -0.24873963 0.029091489 0.61560196
-0.20604207 -0.14944011 0.1634468 0.45928812 0.24646471 -0.14284219 0.56571734 0.42403543
0.39686146 -0.3231127 -0.11493573 -0.15312244 -0.4536435 -0.5922925 -0.25437137 -0.33677548
-0.40166035 -0.052531965 0.011794913 0.25322676 0.02435757 0.056636628 -0.14731352 -0.17762634
-0.15046418 -0.13655195 -0.1680427 0.41869706 -0.058267187 0.41515267 -0.02210115 -0.016571203
0.4400271 -0.3562545 0.067238346 -0.2711332 -0.08229047 0.32526255 0.23318446 -0.2211138
-0.15337971 -0.21602769 -0.090275705 0.009285431 -0.28236723 -0.420862 -0.452158 -0.3780868
-0.30471236 -0.1492814 -0.10785779 0.47120073 -0.29349086 0.43003914 -0.24790148 0.17471954
-0.3379337 -0.26744246 0.001034486 0.0066222996 -0.35429746 -0.2692665 -0.1404803 -0.33327493
0.36837673 0.3047611 -0.48295197 -0.12714998 -0.18844116 -0.1452735 0.15798466 0.15501219
-0.24599782 0.46494058 -0.020390483 0.31937104 0.36808124 0.19197385 -0.1115087 -0.13137978
-0.25421435 -0.05741597 -0.64386445 -0.4945854 -0.2629247 -0.2272193 -0.34300852 0.0422544
-0.15236881 -0.22058791 -0.3150259 0.12284817 0.27751258 -0.14369418 -0.3442805 0.3237194
0.2574773 0.101452954 0.22917096 -0.23301563 0.097414896 -0.48445734 0.02832612 -0.30529824
-0.026865928 0.37957448 0.2536278 -0.023962375 -0.36891374 -0.1495514 -0.39354524 -0.39290646
-0.17627786 0.13995275 -0.5095 0.1542768 -0.3041685 -0.0556764 -0.31352755 -0.029202024
-0.25852236 -0.0936401 0.35209164 -0.5372254 0.1752515 -0.18993278 -0.3869148 0.42293197
0.10848768 -0.37563193 0.192209 -0.13627665 -0.49162138 0.113211885 0.053465568 -0.47275123
0.09045972 0.12666701 -0.44610593 -0.36651838 -0.29843113 -0.49897116 -0.3989385 0.29304925
-0.559775 -0.41759938 -0.11865295 -0.57223624 -0.027218107 -0.0042093256 -0.14182252 0.06424089
-0.016252225 -1.23357 -0.93654996 -0.18795966 -0.7876198 -0.24312083 -0.06261694 -0.04561762
-0.32005516 -0.102135554 -1.0248013 -0.84602153 -0.22247076 0.25122818 -0.23964427 -0.42130804
-0.23255676 0.41025463 0.06898277 -0.43699917 -0.07788064 -0.4068027 -0.32638007 -0.036766995
0.038847763 -0.2939081 -0.061803564 0.4654861 0.51731896 0.25988147 -0.3737469 0.08723303
00000000: fb01 cc3e 3eac e5bd a357 8bbd 2bb7 91be
00000010: 8098 67bd a716 1b3e 0c4a bcbd 507d 0abe
00000020: 1be4 963e 6102 a9be 8d27 f7be 172e 173f
00000030: 0c27 023e 43f0 3cbe 43e9 b63e e59e a4be
00000040: 1450 7dbe 698b b0be 88c8 953e 4e00 eb3c
00000050: 20c3 d1be 658c 873e 7007 8abe d086 9f3e
00000060: e0ec 7abc f21e 20be 307b a93e 3c1a 5b3e
00000070: 8acd 88bb ad8a a2bd dec5 3bbd 278d a4be
00000080: 13f0 5dbe bdef c8be e563 acbe 2f73 f73d
00000090: 951e 6f3e 767d e6be eccb e2be 2be1 043e
000000a0: 09d9 823e e70c 93be 3ea5 d73e 26ef 6b3e
000000b0: da3e dbbc 2566 90be 3305 2ebe ab32 36be
000000c0: e1ad d4be ad54 82bd 41ab a53e 8672 0d3e
000000d0: 7baf a63e 1f2b 63be 2bd7 923e 199d 033f
000000e0: 3099 be3d abd4 c03e d134 38be c5bd dbbd
000000f0: a7a8 003e 6630 07be d086 e6bd bbe4 95bd
00000100: b744 d83e be9c fc3c 4496 a03e e9dc 35bd
00000110: 486e 463e 9ab5 7ebe 4651 ee3c 1798 1d3f
00000120: b1fc 52be d406 19be 995e 273e d027 eb3e
00000130: 3f61 7c3e 3945 12be dad2 103f 2c1b d93e
00000140: 6d31 cb3e 076f a5be 6d63 ebbd 21cc 1cbe
00000150: f643 e8be 7ba0 17bf f73c 82be d66d acbe
00000160: 6da6 cdbe c22b 57bd 733f 413c f0a6 813e
00000170: 8789 c73c cffb 673d 5bd9 16be aee3 35be
00000180: 4813 1abe 46d4 0bbe 6313 2cbe 765f d63e
00000190: 93a9 6ebd e48e d43e 790d b5bc 55c0 87bc
000001a0: 3b4b e13e fd66 b6be 42b4 893d f9d1 8abe
000001b0: e887 a8bd d088 a63e e8c7 6e3e a86b 62be
000001c0: 920f 1dbe 5d36 5dbe 78e2 b8bd ec21 183c
000001d0: 7092 90be 397b d7be 4181 e7be 9894 c1be
000001e0: 4203 9cbe 39dd 18be 8ce4 dcbd 3941 f13e
000001f0: 6f44 96be 172e dc3e e3d9 7dbe aee9 323e
00000200: a505 adbe 38ee 88be 9797 873a e0ff d83b
00000210: 7a66 b5be 4cdd 89be 11da 0fbe 03a3 aabe
00000220: e09b bc3e a609 9c3e 7b45 f7be 9b33 02be
00000230: b8f6 40be 94c2 14be bbc6 213e 84bb 1e3e
00000240: dae6 7bbe b10c ee3e f109 a7bc 9a84 a33e
00000250: 2575 bc3e cb94 443e ac5e e4bd 6c88 06be
00000260: 6228 82be 022d 6bbd 4dd4 24bf 4c3a fdbe
00000270: 119e 86be 2dac 68be d09e afbe f312 2d3d
00000280: 9206 1cbe cce1 61be 134b a1be d297 fb3d
00000290: 2116 8e3e 9124 13be 8945 b0be 8dbe a53e
000002a0: 11d4 833e 91c6 cf3d cbab 6a3e a69b 6ebe
000002b0: 7681 c73d cb0a f8be 2e0c e83c 0d50 9cbe
000002c0: ef15 dcbc 9657 c23e 81db 813e be4c c4bc
000002d0: 43e2 bcbe 0124 19be c37e c9be 092b c9be
000002e0: 2f82 34be c64f 0f3e 986e 02bf bdfa 1d3e
000002f0: f9bb 9bbe f00c 64bd af86 a0be 1539 efbc
00000300: 0b5d 84be 61c6 bfbd 5b45 b43e 9b87 09bf
00000310: 2175 333e bd7d 42be b219 c6be 8a8a d83e
00000320: ca2e de3d d452 c0be 70d2 443e 1b8c 0bbe
00000330: ccb5 fbbe a2db e73d b6fe 5a3d 730c f2be
00000340: f242 b93d ffb4 013e ff67 e4be 4ca8 bbbe
00000350: f7cb 98be 2679 ffbe ab41 ccbe 8d0a 963e
00000360: 6a4d 0fbf 96cf d5be 5100 f3bd 137e 12bf
00000370: 82f8 debc 62ee 89bb ec39 11be ba90 833d
00000380: 6323 85bc 9fe5 9dbf bdc1 6fbf 7f78 40be
00000390: 74a1 49bf abf4 78be 4f3d 80bd 8bd9 3abd
000003a0: 45de a3be 722c d1bd b02c 83bf de94 58bf
000003b0: 60cf 63be fba0 803e 4f65 75be b0b5 d7be
000003c0: 5c23 6ebe e50c d23e d746 8d3d 5bbe dfbe
000003d0: e37f 9fbd 7248 d0be 4a1b a7be fd98 16bd
000003e0: d51e 1f3d 1f7b 96be bc25 7dbd 3254 ee3e
000003f0: 046f 043f 2f0f 853e c15b bfbe 3ba7 b23d

gconvs.3.combination_weights f4 [4, 3]
0.4737981 0.45313832 0.31538343 0.47450522 0.45334223 0.31477782 0.47478035 0.45418465
0.31594014 0.47445628 0.45299944 0.31423637
00000000: aa95 f23e bf01 e83e f079 a13e 59f2 f23e
00000010: 791c e83e 8f2a a13e 6916 f33e e48a e83e
00000020: e8c2 a13e efeb f23e 8bef e73e 97e3 a03e

gconvs.3.weight f4 [3, 6, 6, 4, 3, 3]
-0.14727333 0.33876982 -0.3135178 0.0044165305 0.481597 -0.26149762 -0.21571992 0.18527018
-0.0862957 0.21833603 -0.037402228 0.29371175 -0.2559784 -0.07280601 -0.43276757 -0.14988478
-0.5713907 -0.7092962 0.26226285 -0.4828192 -0.43442973 -0.3985693 -0.024429508 -0.24077451
-0.107582405 -0.20615749 -0.43905002 -0.41116738 -0.396875 -0.33036613 -0.24894497 -0.20612338
0.27751267 -0.18558209 -0.0919207 0.19514513 -0.118983865 0.2103976 0.14598045 0.3477216
-0.10488624 -0.36148864 -0.20839301 -0.27085054 -0.34218034 -0.37283522 -0.06388846 0.031674813
0.35545966 -0.40515456 0.035617925 -0.17076029 0.13998505 0.21355079 -0.09847819 -0.24019116
-0.128537 0.04781571 0.122040756 -0.10114552 0.31721216 -0.092490666 -0.20717385 0.2585661
-0.41079858 -0.21092525 0.2624778 -0.24773784 -0.24883425 -0.04545694 0.09115973 -0.06276256
-0.30531177 -0.34990385 -0.38787082 0.118493624 0.10681175 -0.22389098 -0.19714725 0.24443586
-0.17837104 -0.2867813 0.3397815 -0.21492167 -0.051611118 -0.07239408 0.055438526 -0.19809972
-0.31701955 0.20757355 0.3125977 0.12793499 0.18086162 0.045939412 0.06939043 -0.0034373563
0.21016984 -0.18756734 0.53542787 0.31342804 0.28091982 -0.29139856 -0.39600602 0.419853
0.39300194 -0.25712162 0.06398384 0.2611897 0.022802433 -0.3317785 0.015077225 -0.14467548
0.28355247 -0.094439894 0.14984272 -0.3718397 0.39517584 0.19120394 0.024970382 -0.16820236
-0.22525652 0.2518625 0.39757475 0.3650198 0.48450828 0.20834716 -0.117556475 0.05497047
0.30037525 -0.21246514 -0.25943327 -0.62107 -0.2486132 -0.85662585 -0.47770494 0.38858965
0.20593882 -0.3028361 0.25953516 0.0321084 0.33284354 0.08133033 -0.15812486 -0.093286715
-0.17017846 -0.34571552 -0.12016585 -0.24609281 -0.35271293 -0.3259186 0.3101315 -0.2773486
-0.035922457 -0.056877192 0.12374454 -0.13160585 0.45569703 0.18600623 0.1886378 0.02144813
-0.0074267625 -0.16439222 0.07937705 0.08278629 -0.30010402 0.08354284 -0.15888223 -0.016673949
-0.16024941 0.4161823 -0.27419487 -0.44838718 0.12215916 -0.15502056 -0.042824194 -0.17130788
-0.28327468 0.106537156 0.09812169 -0.59099644 -0.25507003 0.019660443 -0.08445775 0.33660462
-0.33018237 -0.3190027 0.21027668 0.041342296 0.18995985 0.38444415 0.22871946 -0.32386833
0.47989792 0.4951867 -0.12600046 0.57120115 0.2560732 0.36307576 0.17335822 0.25598907
-0.17862897 0.2771697 0.26447418 0.14990357 0.25656256 0.17797557 -0.34482393 -0.21496136
-0.080657005 -0.11158903 -0.2802694 -0.12219575 -0.20938134 0.18046246 -0.16634591 -0.13583592
-0.041792993 0.24185257 -0.16917129 0.3830036 0.4163323 0.21376477 -0.1794133 -0.119229116
-0.05472187 -0.008947699 -0.3545956 0.26930216 -0.020201096 -0.1114598 -0.23089968 0.049283274
0.34721443 -0.068854384 0.11307039 0.391624 -0.123103864 0.3175465 -0.07376025 -0.02544199
0.119691014 -0.26738864 -0.7819911 -0.045223456 0.15742928 -0.008815413 0.02084523 0.2399002
0.42606536 -0.40804484 -0.17875616 0.039567284 -0.2326295 -0.062184747 0.03299216 -0.06788274
00000000: d2ce 16be 3d73 ad3e 6885 a0be 8bb8 903b
00000010: e293 f63e 04e3 85be afe5 5cbe 77b7 3d3e
00000020: cdbb b0bd 7b93 5f3e 1433 19bd 6361 963e
00000030: 9a0f 83be 511b 95bd b693 ddbe 657b 19be
00000040: a946 12bf 7094 35bf 5147 863e 1434 f7be
00000050: 936d debe 4611 ccbe 6420 c8bc 988d 76be
00000060: 2a54 dcbd f31a 53be 2acb e0be 8884 d2be
00000070: 3333 cbbe c025 a9be 6eeb 7ebe 0212 53be
00000080: 2416 8e3e 3b09 3ebe ec40 bcbd 20d4 473e
00000090: d0ad f3bd 7872 573e e67b 153e 9108 b23e
000000a0: 99ce d6bd 0a15 b9be fa64 55be ecac 8abe
000000b0: 4332 afbe 42e4 bebe f4d7 82bd 73bd 013d
000000c0: cffe b53e 6b70 cfbe 1ae4 113d c9db 2ebe
000000d0: 3e58 0f3e 0fad 5a3e efae c9bd acf4 75be
000000e0: 349f 03be 68da 433d 81f0 f93d 6225 cfbd
000000f0: a269 a23e bf6b bdbd 6225 54be c762 843e
00000100: 3154 d2be cafc 57be 7d63 863e fdae 7dbe
00000110: 68ce 7ebe 0e31 3abd f4b1 ba3d a889 80bd
00000120: d351 9cbe 9926 b3be 0197 c6be c9ac f23d
00000130: 1ec0 da3d ad43 65be f8e0 49be 654d 7a3e
00000140: e6a6 36be 00d5 92be d7f7 ad3e 6d14 5cbe
00000150: 2e66 53bd 5943 94bd 8213 633d a7da 4abe
00000160: 6350 a2be 298e 543e ce0c a03e 6401 033e
00000170: ca33 393e f72a 3c3d 921c 8e3d 4545 61bb
00000180: c336 573e a711 40be cd11 093f a479 a03e
00000190: b9d4 8f3e 3132 95be 4dc1 cabe f9f6 d63e
000001a0: 8d37 c93e 72a5 83be f609 833d a8ba 853e
000001b0: 2bcc ba3c dfde a9be 7706 773c cf25 14be
000001c0: ca2d 913e b469 c1bd 5f70 193e c661 bebe
000001d0: 7d54 ca3e f7ca 433e b08e cc3c 3d3d 2cbe
000001e0: a5a9 66be 1ff4 803e eb8e cb3e e0e3 ba3e
000001f0: 7811 f83e f558 553e 73c1 f0bd b728 613d
00000200: c9ca 993e 7690 59be 70d4 84be 72fe 1ebf
00000210: 7594 7ebe d54b 5bbf be95 f4be 39f5 c63e
00000220: a0e1 523e 550d 9bbe cbe1 843e 1984 033d
00000230: 786a aa3e 8490 a63d 7ceb 21be 1b0d bfbd
00000240: 4343 2ebe a001 b1be 8319 f6bd c1ff 7bbe
00000250: ca96 b4be cede a6be 8ec9 9e3e a300 8ebe
00000260: 6d23 13bd 0ff8 68bd c76d fd3d afc3 06be
00000270: 1f51 e93e 6b78 3e3e 442a 413e fdb3 af3c
00000280: 335c f3bb 6f56 28be 6f90 a23d dc8b a93d
00000290: 3ca7 99be 8218 ab3d 06b2 22be ce97 88bc
000002a0: 6c18 24be d915 d53e 4563 8cbe 0193 e5be
000002b0: 952e fa3d b6bd 1ebe 6c68 2fbd 556b 2fbe
000002c0: 6109 91be 2730 da3d 06f4 c83d 8b4b 17bf
000002d0: 8a98 82be f00e a13c 2ff8 acbd 7157 ac3e
000002e0: aa0d a9be 5254 a3be c552 573e 8a56 293d
000002f0: d684 423e ddd5 c43e 6f35 6a3e 12d2 a5be
00000300: 2eb5 f53e 1c89 fd3e 4406 01be 3d3a 123f
00000310: 071c 833e 11e5 b93e d184 313e 0011 833e
00000320: 83ea 36be 30e9 8d3e 2969 873e 5280 193e
00000330: 2b5c 833e 3a3f 363e c38c b0be d51e 5cbe
00000340: 802f a5bd ca88 e4bd 797f 8fbe c441 fabd
00000350: 1068 56be 27cb 383e 9556 2abe 9218 0bbe
00000360: 212f 2bbd 33a8 773e 3d3b 2dbe 0c19 c43e
00000370: 8229 d53e 27e5 5a3e 1fb8 37be 652e f4bd
00000380: 0a24 60bd 5f99 12bc 8e8d b5be f9e1 893e
00000390: c57c a5bc 0945 e4bd f770 6cbe 42dd 493d
000003a0: 17c6 b13e 8703 8dbd 7391 e73d f182 c83e
000003b0: e11d fcbd 7495 a23e 9d0f 97bd b86b d0bc
000003c0: 9020 f53d 2ae7 88be 9230 48bf 3b3c 39bd
000003d0: 2435 213e 866e 10bc 9ec3 aa3c 66a8 753e
000003e0: 3d25 da3e 41eb d0be db0b 37be 4e11 223d
000003f0: 6d36 6ebe 6fb5 7ebd ca22 073d 1b06 8bbd

gconvs.4.combination_weights f4 [4, 3]
0.52556896 0.38993502 0.35165963 0.52296025 0.38882685 0.35160783 0.52122587 0.38991684
0.3512413 0.52575094 0.3900502 0.35139325
00000000: b08b 063f 90a5 c73e bb0c b43e b9e0 053f
00000010: 5014 c73e f105 b43e 0f6f 053f 2ea3 c73e
00000020: e6d5 b33e 9d97 063f a9b4 c73e d1e9 b33e

gconvs.4.weight f4 [3, 6, 6, 4, 3, 3]
-0.10337924 0.029322116 -0.49122918 0.097913966 -0.31784728 0.12256109 -0.0070070666 -0.017814422
-0.05386683 -0.18664958 -0.3534192 -0.3069439 0.38439232 -0.21940294 0.25464514 0.38035622
0.023995074 0.39267808 -0.36323002 -0.042485356 0.37261096 -0.32600522 -0.39050364 -0.34520632
-0.09320832 0.12661062 0.23705652 -0.178237 0.36175668 0.3338285 -0.11752082 0.18087465
-0.041347954 -0.0736766 -0.4511518 -0.51376456 0.013661036 -0.0045439824 0.20843571 0.26791847
0.10774967 0.17562374 0.055101894 0.31270745 0.16828148 0.053837035 -0.0063141403 0.6119679
0.34073412 -0.39805055 -0.273927 0.22997403 -0.6985269 -0.5548504 -0.43928218 -0.24783653
0.56701803 -0.5087367 0.57550734 0.572153 -0.23795135 -0.1883807 0.5600308 -0.49940452
-0.2952952 -0.059871197 0.5545271 0.67117405 0.6731007 0.115010485 0.03571126 0.44949433
-0.4530983 -0.7271455 -0.13368545 0.30873618 -0.21771945 -0.09602854 0.002486401 0.13553728
0.36257353 -0.23302008 -0.24993435 -0.79479706 -0.86714303 -0.9528787 -0.47897863 -0.7986404
-0.8588523 -0.50872993 -0.13155149 -0.15639175 -0.213691 0.61590594 -0.13565417 0.10827465
0.08901564 0.2339144 -0.2086498 -0.18370801 0.2300626 -0.3443621 0.026991589 -0.046416815
-0.12992461 -0.74430317 -0.8656811 -0.39066958 -0.07366721 -0.038164217 -0.0915537 -0.21572569
-0.027639093 -0.034667883 -0.20875882 -0.38436696 0.2743222 -0.0014268804 -0.27820292 0.3659596
0.2692918 -0.2956741 0.16641992 -0.10391846 0.34157375 0.06847942 0.45407546 0.084907375
0.76026714 0.37354276 0.19443089 0.09490196 0.27703133 -0.093399644 -0.5062687 -0.71895516
-0.37694845 0.260873 0.16139424 0.52334744 0.11704552 -0.03007451 0.33835378 0.32183704
-0.20699517 -0.23810048 0.46162882 0.44856155 -0.28391188 0.36482728 0.39131826 0.4541867
0.19954266 -0.15831603 -0.27752596 0.25980002 0.10329653 -0.02088039 0.20940404 -0.13734084
0.09780169 0.30036354 0.069887996 -0.35733318 -0.6082236 -0.36070764 -0.037179735 -1.0583744
0.06360247 0.074730486 -0.54390377 -0.0066285366 -0.13526082 0.1948684 0.46479958 -0.45320028
-0.23500744 0.27885792 0.13865967 -0.098097585 -0.3860406 0.10986165 -0.19339848 0.082040556
0.16023263 0.4927473 -0.103396595 -0.09338644 0.120389216 0.08512608 -0.7649837 -0.4002225
-0.24148406 -0.27240187 0.2358644 -0.16511439 -0.07820279 0.21292262 0.33847058 -0.14048885
-0.28785416 -0.13316292 -0.05152466 -0.30774152 -0.62821877 -0.46288085 -0.5033308 -0.4267707
-0.040164385 -0.06077358 -0.44947472 -0.20968293 -0.35232958 0.24337156 -0.49207014 -0.2835972
-0.25710028 -0.018463405 0.41409954 -0.3451225 -0.23906606 0.015285424 0.21315917 -0.055707596
-0.22276987 -0.06813343 -0.36979198 0.35441163 0.4021265 0.14262794 0.19635123 0.063489705
0.39579487 -0.2096548 0.47999787 -0.032605063 -0.2631745 0.2710085 0.20850311 -0.38281682
-0.29380375 -0.2875019 -0.11409741 -0.251838 -0.0105077475 0.30742136 0.15470853 0.36229712
0.3511372 -0.08070771 -0.08551438 0.3267498 0.39159274 -0.6225055 0.09616347 0.1860731
00000000: 7fb8 d3bd ef34 f03c 6482 fbbe 1e87 c83d
00000010: e1bc a2be 4f01 fb3d 899b e5bb 8def 91bc
00000020: 77a3 5cbd 1121 3fbe 5df3 b4be c027 9dbe
00000030: 12cf c43e 2aab 60be d960 823e 0dbe c23e
00000040: 5191 c43c 1a0d c93e 49f9 b9be 2005 2ebd
00000050: ddc6 be3e 28ea a6be 18f0 c7be e2be b0be
00000060: 01e4 bebd 37a6 013e f2be 723e c383 36be
00000070: 2c38 b93e 92eb aa3e c1ae f0bd 3437 393e
00000080: 795c 29bd c2e3 96bd 5efd e6be 1386 03bf
00000090: 8ad2 5f3c b0e5 94bb 2c70 553e 9c2c 893e
000000a0: dcab dc3d b6d6 333e 86b2 613d 311b a03e
000000b0: fb51 2c3e 3984 5c3d d9e6 cebb eea9 1c3f
000000c0: b474 ae3e 48cd cbbe 2940 8cbe 507e 6b3e
000000d0: a9d2 32bf ad0a 0ebf 98e9 e0be dcc8 7dbe
000000e0: 1828 113f 923c 02bf 7354 133f 9e78 123f
000000f0: 85a9 73be dfe6 40be 2e5e 0f3f f3b1 ffbe
00000100: ef30 97be 803b 75bd 7df5 0d3f 10d2 2b3f
00000110: 5450 2c3f 9e8a eb3d f845 123d 1f24 e63e
00000120: 80fc e7be 3526 3abf d7e4 08be ab12 9e3e
00000130: d9f1 5ebe 9caa c4bd e3f2 223b 49ca 0a3e
00000140: 3da3 b93e d19c 6ebe caee 7fbe d277 4bbf
00000150: 16fd 5dbf dcef 73bf b03c f5be b273 4cbf
00000160: bfdd 5bbf 203c 02bf 6fb5 06be 2925 20be
00000170: d0d1 5abe 03ac 1d3f ede8 0abe 1abf dd3d
00000180: d54d b63d 4287 6f3e 4ba8 55be f41d 3cbe
00000190: 8895 6b3e 3b50 b0be 771d dd3c 8f1f 3ebd
000001a0: f50a 05be a78a 3ebf 479d 5dbf d805 c8be
000001b0: d6de 96bd 1552 1cbd 8280 bbbd 32e7 5cbe
000001c0: 616b e2bc e9ff 0dbd dfc4 55be bfcb c4be
000001d0: f673 8c3e 2906 bbba 9d70 8ebe 0f5f bb3e
000001e0: 9de0 893e 9862 97be fc69 2a3e 34d3 d4bd
000001f0: c1e2 ae3e f03e 8c3d 947c e83e ebe3 ad3d
00000200: dea0 423f ff40 bf3e e418 473e f55b c23d
00000210: 0dd7 8d3e 5048 bfbd d39a 01bf 720d 38bf
00000220: 63ff c0be 2591 853e 8844 253e 19fa 053f
00000230: 90b5 ef3d d25e f6bc b53c ad3e d3c7 a43e
00000240: 8bf6 53be 9dd0 73be 9d5a ec3e dca9 e53e
00000250: e65c 91be a4ca ba3e de5a c83e 298b e83e
00000260: e954 4c3e 991d 22be e217 8ebe 8204 853e
00000270: 228d d33d 5a0d abbc 036e 563e 14a3 0cbe
00000280: 414c c83d 40c9 993e 7021 8f3d 60f4 b6be
00000290: 8bb4 1bbf acae b8be c749 18bd d078 87bf
000002a0: 0342 823d 4c0c 993d 473d 0bbf 3234 d9bb
000002b0: d081 0abe 958b 473e 36fa ed3e de09 e8be
000002c0: caa5 70be 77c6 8e3e cdfc 0d3e 63e7 c8bd
000002d0: 1da7 c5be 25ff e03d 400a 46be e104 a83d
000002e0: 0614 243e 6049 fc3e 98c1 d3bd 6441 bfbd
000002f0: 9f8e f63d 9556 ae3d f9d5 43bf f7e9 ccbe
00000300: 9947 77be 4278 8bbe 7086 713e bf13 29be
00000310: c928 a0bd 6308 5a3e 044c ad3e 4fdc 0fbe
00000320: 9f61 93be dc5b 08be 860b 53bd 4c90 9dbe
00000330: f2d2 20bf b8fe ecbe 4ada 00bf b081 dabe
00000340: 6983 24bd b8ed 78bd 8d21 e6be 1fb7 56be
00000350: 8b64 b4be 6536 793e 9ef0 fbbe a733 91be
00000360: a6a2 83be 9140 97bc db04 d43e e5b3 b0be
00000370: bccd 74be b76f 7a3c 6646 5a3e a62d 64bd
00000380: c91d 64be 8a89 8bbd 6055 bdbe 7175 b53e
00000390: 86e3 cd3e 0f0d 123e 4c10 493e e406 823d
000003a0: a0a5 ca3e bfaf 56be 48c2 f53e e38c 05bd
000003b0: cfbe 86be a0c1 8a3e d781 553e 9100 c4be
000003c0: 726d 96be 7333 93be e7ab e9bd e9f0 80be
000003d0: b028 2cbc 5566 9d3e ea6b 1e3e 027f b93e
000003e0: 41c8 b33e 154a a5bd 2a22 afbd c04b a73e
000003f0: d87e c83e 855c 1fbf 5af1 c43d f289 3e3e

gconvs.5.combination_weights f4 [4, 3]
0.4456845 0.4469834 0.37364474 0.44579363 0.4465657 0.37366763 0.44579583 0.44685817
0.37360996 0.44556245 0.4462239 0.37303475
00000000: c230 e43e 02db e43e 5d4e bf3e 103f e43e
00000010: 42a4 e43e 5d51 bf3e 5a3f e43e 98ca e43e
00000020: ce49 bf3e c320 e43e 7677 e43e 69fe be3e

gconvs.5.weight f4 [3, 6, 6, 4, 3, 3]
-0.26452765 -0.4559765 -0.87175834 -0.3363462 -0.51101893 -1.8392019 0.5217288 -1.0555333
-2.5093424 0.20432162 0.19540216 0.36080343 -0.4624237 -0.4120672 -0.40868282 -0.06217719
-0.72818226 -0.97539234 0.32987332 0.58156514 0.4620928 0.5634652 0.1426963 0.373322
0.18049544 0.36898416 0.13517842 0.4951316 -0.31489798 -0.25220215 0.4728183 0.1460483
0.07106778 -0.16130672 -0.23389669 -0.1687197 0.051265065 -0.07963099 0.32585627 -0.17261532
0.15745522 -0.010032011 -0.80357534 -0.06917233 -0.5327782 0.35255754 0.42837074 0.52184737
-0.04611646 -0.29339993 -0.10633039 -0.97581905 -0.50173813 -0.6099482 -0.24049677 0.18556304
0.06399565 0.034467407 -0.1070743 -0.34373572 -0.7417483 -0.2546686 -0.045553457 0.32841083
-0.19812365 0.32787612 0.08938015 -0.30330697 0.025288176 -0.8096215 -0.3631897 -0.8287871
0.16208124 0.26765013 0.01137758 0.41160414 0.21475448 0.06797916 0.08476785 -0.31573352
-0.7368029 0.44639796 -0.34153414 -0.22459616 -0.21587461 0.097810015 -0.5255851 -0.25637597
-0.07713886 -0.8241752 -0.32928154 0.37771478 0.044076897 0.655017 0.36031127 -0.23838973
0.57682145 0.4971282 -0.024911223 -0.4331627 -0.5257777 -0.86900544 0.20897637 -0.42292082
-0.91669744 0.3596097 -0.045828935 -0.6058584 0.0076524764 0.3623327 -0.23586203 -0.1533245
-0.26112896 -0.38744724 0.03816407 0.08313101 -0.45990697 -0.35219327 -0.2614401 -0.39868298
0.059767306 -0.9248811 -0.9816631 0.070416674 0.049700387 -1.0739018 -0.0938187 -0.18797567
-0.50718755 -0.10357455 -0.011512127 0.20304045 0.26624867 0.263168 -0.58071333 0.26093903
-0.21268989 0.46156576 0.6561532 0.56357735 0.30488327 0.06793187 0.10657391 0.09937735
-0.54009545 -0.35384783 -0.86327183 -0.39697272 -0.6803542 -0.8511906 -0.40771708 -0.107616834
-0.45322782 0.06819974 -0.3193009 -0.3266627 -0.18310525 0.30416033 -0.34230265 0.4093746
0.6549564 -0.8790842 -0.24822403 -0.3208254 0.066598974 -0.035629865 0.25305247 0.6047165
0.06686165 -0.08169169 0.07818488 0.6443417 0.43929833 0.5076642 0.32039905 -0.06936905
-0.20615305 0.32204276 -0.09180555 0.02818441 -0.39513415 -0.32979116 -0.21411185 -0.44977215
-0.030289797 -0.55298364 0.025577813 0.28354698 -0.22730969 -0.09487889 -0.37024587 0.5218958
0.27775156 0.15320054 0.41768616 0.45020786 0.042964496 -0.11678241 -0.22656068 -0.0063569415
-0.34367597 0.045580864 -0.30422902 0.016173389 -0.22655293 0.06809638 -0.212819 -0.46317816
-0.21700619 -0.7045052 -0.0010216541 -0.8632745 -1.1527714 0.18233368 0.34052554 -1.1448334
-0.59589595 -0.70518845 -0.072111405 -0.55809045 -0.55622286 0.101398624 -0.44495466 -0.45903325
-0.4291468 0.03431188 0.3721543 -0.31116718 -0.34058505 0.12303682 -0.103437066 -1.4050156
-0.83558506 -1.0323772 0.45144942 0.44282186 0.15160671 0.13960199 0.27999637 0.4192367
-0.8463043 -0.30561337 0.1803526 0.14255011 0.31187674 0.6595001 0.10005999 0.26790038
0.6551147 0.025678687 0.056411643 0.29158622 0.06802885 0.0489895 -0.17377423 -0.15239768
00000000: 2b70 87be c075 e9be 8e2b 5fbf 9235 acbe
00000010: 23d2 02bf f86a ebbf 0590 053f b71b 87bf
00000020: 1199 20c0 b039 513e 8117 483e 3abb b83e
00000030: cdc2 ecbe 79fa d2be e03e d1be 82ad 7ebd
00000040: 276a 3abf 50b3 79bf 28e5 a83e 74e1 143f
00000050: 6d97 ec3e 413f 103f fb1e 123e 1024 bf3e
00000060: ccd3 383e 7eeb bc3e 366c 0a3e e481 fd3e
00000070: 4f3a a1be a420 81be 3d15 f23e b08d 153e
00000080: fc8b 913d 972d 25be 9d82 6fbe dbc4 2cbe
00000090: 51fb 513d 9315 a3bd a2d6 a63e 12c2 30be
000000a0: f13b 213e 4e5d 24bc 1db7 4dbf 39aa 8dbd
000000b0: 2764 08bf 6c82 b43e 6953 db3e ca97 053f
000000c0: 9de4 3cbd 8438 96be bfc3 d9bd 47cf 79bf
000000d0: e971 00bf 9125 1cbf c944 76be 3d04 3e3e
000000e0: 2710 833d b22d 0d3d c549 dbbd 21fe afbe
000000f0: 37e3 3dbf ec63 82be 4396 3abd 7725 a83e
00000100: ede0 4abe 61df a73e f10c b73d 0d4b 9bbe
00000110: 2629 cf3c 5b43 4fbf 00f4 b9be 642b 54bf
00000120: a0f8 253e 7009 893e 0869 3a3c c7bd d23e
00000130: 99e8 5b3e a838 8b3d c49a ad3d d3a7 a1be
00000140: 1d9f 3cbf 468e e43e 90dd aebe 89fc 65be
00000150: 3c0e 5dbe 9e50 c83d bf8c 06bf b643 83be
00000160: fbfa 9dbd 25fd 52bf 9797 a8be d563 c13e
00000170: fa89 343d 32af 273f b87a b83e 701c 74be
00000180: 92aa 133f 9687 fe3e 9f12 ccbc 80c7 ddbe
00000190: 5e99 06bf 2477 5ebf e7fd 553e 1489 d8be
000001a0: afac 6abf c31e b83e 1fb7 3bbd 8919 1bbf
000001b0: a0c1 fa3b ac83 b93e d185 71be 1901 1dbe
000001c0: b2b2 85be 7c5f c6be ee51 1c3d 9740 aa3d
000001d0: ed78 ebbe ad52 b4be 7adb 85be 2d20 ccbe
000001e0: 90ce 743d 02c5 6cbf 464e 7bbf 9e36 903d
000001f0: a292 4b3d 9d75 89bf 0524 c0bd b27c 40be
00000200: 0bd7 01bf e51e d4bd 5c9d 3cbc d6e9 4f3e
00000210: bf51 883e f5bd 863e a1a9 14bf cd99 853e
00000220: 61cb 59be 5952 ec3e a8f9 273f 9b46 103f
00000230: a919 9c3e dd1f 8b3d 6c43 da3d 5a86 cb3d
00000240: b243 0abf 8b2b b5be 62ff 5cbf 0240 cbbe
00000250: b12b 2ebf a1e7 59bf 4bc0 d0be 3766 dcbd
00000260: 7a0d e8be 4eac 8b3d 687b a3be 5540 a7be
00000270: f17f 3bbe e7ba 9b3e 4b42 afbe 8c99 d13e
00000280: 39ab 273f aa0b 61bf 712e 7ebe 3a43 a4be
00000290: 0b65 883d 9ff0 11bd 1890 813e b3ce 1a3f
000002a0: c3ee 883d f94d a7bd 651f a03d 94f3 243f
000002b0: b6eb e03e 48f6 013f 580b a43e 5c11 8ebd
000002c0: c919 53be cae2 a43e 8c04 bcbd fee2 e63c
000002d0: 064f cabe 63da a8be 2340 5bbe 8948 e6be
000002e0: 4f22 f8bc 5690 0dbf 9088 d13c 122d 913e
000002f0: dfc3 68be dd4f c2bd de90 bdbe f79a 053f
00000300: 7435 8e3e 9ae0 1c3e f6da d53e a581 e63e
00000310: 8afb 2f3d 9e2b efbd 86ff 67be e44d d0bb
00000320: 4cf6 afbe 00b3 3a3d e8c3 9bbe 0e7e 843c
00000330: 7efd 67be 1d76 8b3d 39ed 59be b025 edbe
00000340: df36 5ebe 745a 34bf 06e9 85ba 8fff 5cbf
00000350: 038e 93bf aeb5 3a3e 5d59 ae3e e789 92bf
00000360: a38c 18bf 3b87 34bf 25af 93bd 04df 0ebf
00000370: 9f64 0ebf 15aa cf3d 19d1 e3be 6806 ebbe
00000380: 21b9 dbbe 9d8a 0c3d 028b be3e 4e51 9fbe
00000390: 2a61 aebe bafa fb3d d0d6 d3bd 8dd7 b3bf
000003a0: e7e8 55bf f024 84bf 6124 e73e 8cb9 e23e
000003b0: ca3e 1b3e d3f3 0e3e af5b 8f3e 31a6 d63e
000003c0: 66a7 58bf 5b79 9cbe 5aae 383e a8f8 113e
000003d0: 4fae 9f3e 00d5 283f 41ec cc3d 3d2a 893e
000003e0: 99b5 273f 1c5c d23c e50f 673d ca4a 953e
000003f0: b652 8b3d 37a9 483d dff1 31be 230e 1cbe

final_layer.combination_weights f4 [4, 3]
0.4793106 0.4882719 0.36014816 0.4792972 0.48863527 0.3597037 0.47951496 0.48876637
0.36016035 0.47917095 0.4886149 0.36001235
00000000: 3368 f53e c6fe f93e 5765 b83e 7166 f53e
00000010: 672e fa3e 152b b83e fc82 f53e 963f fa3e
00000020: f066 b83e e555 f53e bb2b fa3e 8a53 b83e

final_layer.weight f4 [3, 6, 6, 4, 3, 3]
0.013247412 -0.13013783 0.3571619 0.65650725 0.25379592 0.38221043 0.7988038 0.75846374
0.34712982 0.52791756 0.7086257 -0.037461177 0.10655972 0.6748244 0.03804941 0.096206665
0.3040774 -0.07892185 0.78996813 0.66812587 0.33555248 0.651393 0.76862085 0.5157702
-0.30858606 0.016183684 -0.16587925 -0.08606116 0.22152312 0.05825451 0.14189215 0.8550404
0.5989104 0.06255988 0.7197692 0.56389827 0.042982817 -0.6480069 -0.20365903 -0.4311974
-0.1884623 -0.6898248 -0.34892914 -0.45428398 -0.15943466 0.07351245 -0.008184838 -0.5741641
-0.021178644 -0.18177232 0.0045635053 -0.24514669 -0.22421667 -0.43011275 -0.5907105 -0.49528396
-0.25446218 -0.5777735 -0.29513684 -0.45385876 -0.24117605 -0.33088124 -0.43948776 -0.3141031
-0.63260067 -0.73344284 -0.6902445 -0.46000168 -0.391451 -0.17955594 -0.0981496 -0.5142272
-0.23152252 0.39633483 -0.25226033 -0.16369629 0.00787361 -0.35458755 -0.2780547 0.1722799
-0.09010452 -0.28555533 0.032780245 -0.14182992 -0.017455615 -0.015529421 0.44346604 0.3263143
0.44088882 0.41235563 0.09241322 0.15096033 0.41140297 -0.28206936 -0.009729963 0.14471596
-0.21556301 -0.15790552 -0.028290922 -0.16578408 -0.12930696 0.11271763 -0.07144723 -0.20397669
-0.12741359 0.12238359 -0.14292431 0.17921504 0.46606854 0.05786919 0.30732882 -0.06358824
0.080512226 0.21926351 -0.028535224 -0.044772007 0.13475685 0.2796751 -0.044656225 0.41153672
-0.23209739 0.4792875 0.31788182 -0.21078451 0.13970995 0.40192458 -0.0024542338 0.33479306
0.1791962 -0.15756859 -0.06300272 0.24877569 -0.037093174 0.19830011 -0.24815182 0.4560028
0.4229789 0.39432535 0.29698887 0.13977453 0.49742514 0.16636346 -0.11037985 0.18152954
-0.1908512 -0.6616737 -0.5802096 -0.33902586 -0.20639047 -0.63588256 -0.114756964 -0.564587
0.121238396 -0.31619987 -0.19870892 -0.19600195 -0.14381345 -0.25024983 0.08592952 -0.49314398
-0.18268484 -0.62338156 -0.071240075 -0.22083336 -0.11590226 -0.068047285 -0.2827331 -0.16753969
-0.07635729 0.019865718 -0.40861264 -0.069128454 0.0057033356 -0.014033773 -0.3048394 -0.48859283
-0.012438202 -0.4522984 -0.4718976 -0.20763838 0.24539067 -0.057329733 -0.5163155 -0.25058892
-0.55819666 -0.56044585 -0.5269798 0.05402813 -0.28447154 -0.21465878 -0.33598486 -0.15759574
-0.44116893 0.18546487 -0.41948453 0.17689075 0.13967294 -0.0038016234 -0.17580846 -0.1869565
-0.38126022 -0.04276763 -0.068580434 -0.08219619 0.037569415 -0.32220605 -0.18645793 -0.41428515
0.062968366 -0.455426 -0.5074603 -0.3365944 0.17667854 0.2586215 0.1967884 0.10747401
-0.22377212 0.4031992 0.33312672 -0.49814454 -0.100155376 -0.15663621 -0.06472276 -0.26658857
-0.48668376 -0.30271494 -0.5063401 -0.13127333 -0.2845483 0.12628536 -0.1821499 -0.5126194
0.029408306 -0.08476357 0.19210339 -0.21419053 -0.0149280755 0.18776299 0.07183415 -0.3959508
-0.25639802 -0.06592838 -0.10616651 -0.049606778 -0.032167677 0.11465946 0.13321003 -0.49595898
-0.36703947 0.21879536 -0.28144813 -0.43217874 -0.67305833 -0.19768408 -0.6808776 -0.2532185
00000000: ac0b 593c da42 05be eddd b63e dc10 283f
00000010: 8af1 813e 16b1 c33e 687e 4c3f ae2a 423f
00000020: 00bb b13e 9b25 073f 7e68 353f e470 19bd
00000030: fc3b da3d 4bc1 2c3f b3d9 1b3d 0008 c53d
00000040: 08b0 9b3e c7a1 a1bd 5a3b 4a3f 4c0a 2b3f
00000050: 89cd ab3e b1c1 263f 56c4 443f 8409 043f
00000060: fefe 9dbe a593 843c 40dc 29be d540 b0bd
00000070: f5d6 623e 489c 6e3d 2d4c 113e ede3 5a3f
00000080: 3152 193f 651f 803d cb42 383f a35b 103f
00000090: c00e 303d c8e3 25bf fe8b 50be e8c5 dcbe
000000a0: 43fc 40be 5c98 30bf d7a6 b2be e997 e8be
000000b0: d742 23be b28d 963d b319 06bc 6bfc 12bf
000000c0: d67e adbc 8622 3abe 7589 953b bc07 7bbe
000000d0: 0e99 65be bd37 dcbe ce38 17bf dc95 fdbe
000000e0: de48 82be f7e8 13bf 2d1c 97be 2d60 e8be
000000f0: dbf6 76be 4469 a9be 8a04 e1be 1fd2 a0be
00000100: 1ef2 21bf e9c2 3bbf ddb3 30bf 5785 ebbe
00000110: 446c c8be 83dd 37be a802 c9bd 65a4 03bf
00000120: 3d14 6dbe 66ec ca3e 4428 81be 00a0 27be
00000130: 5000 013c 808c b5be 305d 8ebe 246a 303e
00000140: b888 b8bd 4f34 92be 9444 063d dd3b 11be
00000150: 14ff 8ebc 1d6f 7ebc fb0d e33e ab12 a73e
00000160: 2ebc e13e 4720 d33e 2443 bd3d 5895 1a3e
00000170: 69a3 d23e 656b 90be 6c6a 1fbc 6c30 143e
00000180: 8dbc 5cbe fcb1 21be 5dc2 e7bc 4dc3 29be
00000190: 0b69 04be 80d8 e63d ed52 92bd 44df 50be
000001a0: b578 02be 3fa4 fa3d c05a 12be 2684 373e
000001b0: 89a0 ee3e 3e08 6d3d 345a 9d3e 8d3a 82bd
000001c0: 98e3 a43d 9d86 603e b4c2 e9bc da62 37bd
000001d0: b3fd 093e 9331 8f3e 72e9 36bd f1b4 d23e
000001e0: f0aa 6dbe 2c65 f53e 68c1 a23e e5d7 57be
000001f0: 2010 0f3e 0fc9 cd3e 36d7 20bb ff69 ab3e
00000200: 357f 373e a959 21be 9207 81bd 0ebf 7e3e
00000210: 03ef 17bd 2f0f 4b3e 831b 7ebe 3379 e93e
00000220: b190 d83e 03e5 c93e ed0e 983e 0e21 0f3e
00000230: 82ae fe3e 2f5b 2a3e d50e e2bd e1e2 393e
00000240: 7f6e 43be 7363 29bf 9e88 14bf cc94 adbe
00000250: 0658 53be 33c9 22bf b305 ebbd c688 10bf
00000260: d64b f83d f3e4 a1be 5a7a 4bbe bcb4 48be
00000270: d543 13be bf20 80be d1fb af3d 5e7d fcbe
00000280: bc11 3bbe ef95 1fbf 51e6 91bd 2422 62be
00000290: 2a5e edbd 605c 8bbd 65c2 90be 868f 2bbe
000002a0: 3661 9cbd 6ebd a23c ad35 d1be 3893 8dbd
000002b0: 0ce3 ba3b e9ed 65bc e913 9cbe d728 fabe
000002c0: 9ac9 4bbc a893 e7be 909c f1be 289f 54be
000002d0: b147 7b3e 95d2 6abd 412d 04bf 314d 80be
000002e0: fae5 0ebf 6179 0fbf 26e8 06bf 9a4c 5d3d
000002f0: 41a6 91be 83cf 5bbe 3506 acbe c760 21be
00000300: e5e0 e1be 81ea 3d3e adc6 d6be d922 353e
00000310: 6c06 0f3e a824 79bb 2207 34be 8671 3fbe
00000320: 8a34 c3be 1c2d 2fbd e673 8cbd 7a56 a8bd
00000330: 63e2 193d 31f8 a4be d4ee 3ebe 2f1d d4be
00000340: 8ff5 803d 992d e9be ebe8 01bf 1a56 acbe
00000350: 38eb 343e 0a6a 843e e682 493e 551b dc3d
00000360: 8524 65be 2070 ce3e 968f aa3e cd0c ffbe
00000370: 431e cdbd 3e65 20be 5e8d 84bd 4c7e 88be
00000380: 9d2e f9be 74fd 9abe 819f 01bf 846c 06be
00000390: 51b0 91be f350 013e 8185 3abe 063b 03bf
000003a0: b0e9 f03c 8698 adbd c0b6 443e c354 5bbe
000003b0: e394 74bc f144 403e c81d 933d 10ba cabe
000003c0: 9a46 83be 7505 87bd d46d d9bd 7a30 4bbd
000003d0: 41c2 03bd 94d2 ea3d 3668 083e 56ee fdbe
000003e0: 99ec bbbe e40b 603e f819 90be 8846 ddbe
000003f0: 8d4d 2cbf b26d 4abe ff4d 2ebf dba5 81be
