runs/P4CNN_iso_std0.3_gamma2_lr0.002/model.pt (torch, 105509 bytes, 10 tensors)

lifting_conv.weight f4 [10, 1, 3, 3]
000000 34 07 12 3e 01 7d dd bd 68 17 83 be bc 7c d2 be
       0.1426056 -0.10814858 -0.25603795 -0.4111079
000010 03 02 c8 be ee 3b 0c bc d3 74 22 3e ca 3d 45 3e
       -0.39064035 -0.00855921 0.15864877 0.19261852
000020 d8 0c 86 3e ae 97 9c 3e 89 27 d2 3d 32 dc 2a be
       0.26181674 0.30584472 0.10261447 -0.1668556
000030 4a f4 5c 3e 3e 7a 9e be 88 af bd be 12 94 3e bf
       0.21577564 -0.30952638 -0.37047982 -0.7444469
000040 aa 2d 90 be d6 60 f9 bd 44 eb 5e 3e 26 f2 3b 3e
       -0.2815984 -0.12176673 0.21769434 0.18354091
000050 c5 da d8 3e 6f 50 8d be f0 d7 ec be 77 07 2a bb
       0.42354408 -0.27600428 -0.46258497 -0.002594439
000060 4b 51 41 be 5c 12 ad be c5 b4 99 be 1c 4c 01 3e
       -0.18878667 -0.3380307 -0.3002073 0.1262669
000070 98 12 2e 3e d6 45 80 3e 60 1d 39 be 60 2f 71 3d
       0.1699928 0.2505328 -0.18077612 0.05888307
000080 25 36 c5 3d 6a 4f 7d be 2d 8d c9 be 79 ef f6 be
       0.09629468 -0.24737325 -0.3936552 -0.48229578
000090 aa 60 4b 3d a2 55 9c be 36 cb e1 be 23 a3 83 3e
       0.049652733 -0.30534083 -0.4410035 0.257104
0000a0 c8 66 b5 3d 59 6f 20 be 4f a0 a0 3e 07 40 90 3d
       0.088574946 -0.15667476 0.31372306 0.07043462
0000b0 43 f5 37 3c 6e 27 c6 be 38 19 b2 3d fb 7a f5 bd
       0.011227909 -0.38701957 0.08696216 -0.11986347
0000c0 8d f5 ad 3e 75 8b 61 be 61 9d 92 be 3c ac 04 bf
       0.33976403 -0.22025855 -0.28635696 -0.5182531
0000d0 d2 5d 9b 3e 50 12 9d 3d 8b a0 b6 3d 23 eb ca bd
       0.30345017 0.076695085 0.0891734 -0.0990813
0000e0 1b c8 5c be d7 2b ec bd a1 9c 07 3e 0c d0 99 3c
       -0.21560709 -0.11531799 0.13243343 0.018775962
0000f0 6d 0f 90 3e 04 31 36 3e 34 2c 7f 3e 7d 1a 5a bd
       0.2813677 0.17792135 0.24919206 -0.053247917
000100 cb 50 a0 bc dd f3 58 bd c0 19 51 3c 4b 6b 1a 3c
       -0.019569775 -0.05296694 0.012762487 0.009424995
000110 67 97 9a bd bb 9d b7 3e 2e 1e d6 3d f7 48 6f bc
       -0.07548409 0.35862526 0.10454975 -0.0146047985
000120 9c c4 ca be 6f 0b c6 be 76 80 65 be 5d c1 6f 3e
       -0.39603126 -0.38680598 -0.22412285 0.23413606
000130 c5 d3 2f 3e e1 0e 29 3e dc 7d 74 bb 9d 13 42 be
       0.17170627 0.16509582 -0.0037306463 -0.18952794
000140 35 35 31 3e a5 48 3a be 1a 75 6f 3e 64 cb dc 3e
       0.17305453 -0.18191774 0.23384514 0.43123925
000150 89 ab 1c 3d fb 1a 90 bc f2 7b 1d be d6 2e f7 3d
       0.038249526 -0.01759099 -0.15379313 0.1206948
000160 dd 9d a7 bd 88 c4 1b bf
       -0.08184407 -0.6084676

gconvs.0.weight f4 [10, 10, 4, 3, 3]
000000 40 2a 21 3e 9b cb 34 3e 7c 45 a1 3c 63 1e aa 3e
       0.15738773 0.17655794 0.019686453 0.33226308
000010 92 56 04 bd e2 35 03 be c4 32 15 3d 19 01 5f 3e
       -0.032309122 -0.12813523 0.036425367 0.21777762
000020 af 45 bb 3e 24 23 ba be d5 fd 8a be c3 74 15 be
       0.36576602 -0.36354935 -0.27146783 -0.14595322
000030 d0 99 99 bd 91 14 dd bd 63 f2 a2 bd 96 c1 84 be
       -0.075000405 -0.10794938 -0.07956388 -0.25928944
000040 97 8a 8f be d1 f2 00 be d7 31 eb bb 86 c7 cd be
       -0.28035423 -0.12592627 -0.007177572 -0.40191287
000050 05 61 b7 be a1 88 31 bd d6 ac 43 3e 61 3c 08 3f
       -0.35816208 -0.04334319 0.191089 0.5321713
000060 87 30 81 3e 29 74 80 3e f6 70 86 3e 16 28 02 be
       0.25232336 0.25088623 0.26258057 -0.12710604
000070 de 10 10 bd 8f da 68 be 13 fc 0e be 32 19 38 be
       -0.035172336 -0.22739623 -0.13963346 -0.17978361
000080 89 62 23 bf 0f 13 51 bd 99 92 99 be df 4f 17 bf
       -0.6382223 -0.051043566 -0.29994658 -0.5910625
000090 8c 50 3e bb 18 9a 78 be 11 48 8b be 3c 10 14 be
       -0.002903971 -0.24277532 -0.2720342 -0.14459318
0000a0 be 66 cb 3d b6 03 67 3d 9c fb 28 3e 11 4f 76 bb
       0.09931706 0.056400023 0.16502231 -0.0037583748
0000b0 39 9f 81 bc a6 05 75 be c3 58 08 bf 26 d4 b8 be
       -0.015822994 -0.23927936 -0.5326044 -0.36099356
0000c0 72 2c 53 be b6 6e fc bd 5f d3 97 be 49 8e 9e be
       -0.20622423 -0.12325804 -0.2965345 -0.3096793
0000d0 07 ec f2 bd 8c 81 1b bf 2f 14 36 3e f5 b9 b4 3e
       -0.11861425 -0.6074455 0.17781137 0.35298124
0000e0 4b 51 39 3f 15 72 bf 3e c2 27 25 be 66 6c bd bd
       0.7238967 0.37391725 -0.16128448 -0.09249191
0000f0 12 36 f1 3b 17 ec b7 3e a7 9a a6 3e 03 31 53 bf
       0.007361182 0.3592231 0.32539865 -0.8249666
000100 e0 dd f0 be a0 b6 76 bf 41 4f 97 be a0 85 47 be
       -0.47044277 -0.96372414 -0.29552653 -0.19484568
000110 17 b2 33 bf 92 9c 45 be 3c d6 05 bf cc 15 0c bf
       -0.7019362 -0.19298008 -0.5228002 -0.5472076
000120 42 a6 96 be 36 42 02 bf 24 e2 ec be 54 be 37 bd
       -0.2942372 -0.5088228 -0.46266282 -0.044859245
000130 cd 1a 88 be 3a 9f 09 3d 59 07 8c bc 9d ce 3f 3d
       -0.26582947 0.033599116 -0.017093347 0.0468279
000140 e1 9b 6e 3e a9 03 85 bd bd 44 c9 3b 5f c0 33 3c
       0.2330165 -0.06494839 0.0061422274 0.010971158
000150 7b 80 e6 bc b6 05 d5 bd ca 20 21 bf a6 7d 12 be
       -0.028137436 -0.1040148 -0.6294066 -0.14305744
000160 02 67 f8 be 05 e8 d9 be 09 c3 fa 3d 42 23 be bc
       -0.4851609 -0.4255983 0.12244231 -0.023210172
000170 a9 b9 08 bf 2f e9 25 3e 03 6c 42 be 12 2a ee be
       -0.53408295 0.16202234 -0.18986516 -0.46516472
000180 d9 ad f8 be e8 5e b8 be d1 08 28 3d a3 68 05 bf
       -0.48570135 -0.36009908 0.041024033 -0.5211279
000190 d5 5b e9 be 28 1c 14 bf 2f 40 71 be ca 09 54 be
       -0.45577875 -0.57855463 -0.2355964 -0.20706859
0001a0 27 dd 2a be a3 b8 47 bb ab e8 06 3d d3 5b 18 3e
       -0.16685925 -0.0030475042 0.032936733 0.14878778
0001b0 08 2b 43 be f1 a4 88 be f6 cb 93 bb 92 f8 05 3d
       -0.19059384 -0.2668834 -0.004510398 0.03270776
0001c0 35 ac 06 be 6f 46 45 3e bd f4 d4 3d 87 71 0e 3d
       -0.1315163 0.1926515 0.103982426 0.034776237
0001d0 40 4a 04 3e 42 ec 56 bd 55 f3 00 3e b4 bc 8d bd
       0.12918949 -0.052471407 0.12592824 -0.06920758
0001e0 9b 58 e3 bd cc e4 cd bc 5c d6 c0 be 5f 7e 25 be
       -0.111008845 -0.025133513 -0.37663543 -0.16161488
0001f0 3b 07 81 be 99 a5 8c be af 1d 27 bc 00 9d 07 3e
       -0.2520083 -0.2747009 -0.010199948 0.13243484
000200 56 f7 95 be b6 6e 03 3e 6a cc 7f 3d c8 6a b5 be
       -0.29290265 0.12835202 0.062450804 -0.3543303
000210 e7 34 6c 3d 46 81 75 be 3f ad 08 be 68 e1 5c be
       0.05766764 -0.23975095 -0.13347338 -0.2157036
000220 92 a6 75 be d7 7e 2f bf 0d a9 9e 3c e9 de 32 be
       -0.23989323 -0.6855292 0.01936772 -0.17467846
000230 96 ad 57 be 5d b6 89 bd e7 1f db bd 1a 63 62 bd
       -0.21062312 -0.06724236 -0.10699444 -0.055270292
000240 b4 eb 9d 3d 2c 25 72 bd a6 22 27 bf 74 b4 8a 3c
       0.077109724 -0.05911748 -0.65287244 0.01693175
000250 42 35 be be bd fd 32 bf 15 77 88 be 6c 73 9f be
       -0.37150007 -0.69918424 -0.26653352 -0.31142747
000260 70 1b 4e be 69 5e 46 be 56 cc b2 be cd a2 1e be
       -0.20127654 -0.19371952 -0.3492152 -0.15491791
000270 47 64 b3 bc 99 9d d1 b8 2f e2 ff 3b ee 79 82 3d
       -0.021898402 -9.9952515e-05 0.0078089456 0.063709125
000280 21 ba d4 3d 3e d7 f7 3d 34 f4 49 be b0 91 e4 be
       0.10387064 0.12101601 -0.19722062 -0.446424
000290 7d f4 e0 be 2c 14 b0 bc d8 59 63 bc 77 b6 c9 3d
       -0.4393653 -0.021493994 -0.013876401 0.098492555
0002a0 fc 85 2f bd 4b c4 7a bc 15 30 50 3d b1 a0 3b 3d
       -0.042852387 -0.015305589 0.050827105 0.045807544
0002b0 1f 48 2a bc 5e 9f 04 3e 88 61 fb 3d 64 f4 1c 3c
       -0.010393172 0.12951419 0.12274462 0.009579752
0002c0 a1 a0 46 be 06 df e9 bc 6b 34 85 be a6 02 6f be
       -0.19397213 -0.028548729 -0.26016554 -0.23340854
0002d0 00 a8 f4 3d 84 6e e6 3c 02 89 ed bd 9a ff 38 be
       0.11946106 0.02812887 -0.11598398 -0.18066254
0002e0 09 75 44 be c8 c1 20 3c a5 c6 1e be a3 af 31 be
       -0.1918527 0.009811826 -0.15505464 -0.17352156
0002f0 d8 bd 53 3d 36 78 73 3d 54 8e f5 3d df f0 67 3d
       0.05169472 0.059440814 0.119900376 0.056626197
000300 2c 24 75 bd 6e e1 f0 3c f8 3e bb 3c fe 81 47 be
       -0.05984895 0.029404368 0.022857174 -0.19483182
000310 2e 43 4f 3e d2 1c f1 3d b0 af 00 be 43 5b 25 3d
       0.20240471 0.11773075 -0.1256702 0.040370237
000320 a6 e8 1b be 29 5e a6 bd d6 37 46 be 75 18 4a be
       -0.15225467 -0.081234284 -0.19357237 -0.19735892
000330 2b 24 0c 3e 9e ac 79 3d 28 19 0e bc e0 7d dd bd
       0.13685672 0.060955636 -0.00867299 -0.108150244
000340 2d cf 59 3e 59 b7 24 3e 6e 41 a5 be 06 a8 3c 3e
       0.21270438 0.16085567 -0.3227648 0.18423471
000350 41 62 97 bd 3e b0 60 bd 3c d1 72 be ab e7 10 be
       -0.07391787 -0.054855578 -0.23712629 -0.14150874
000360 85 9d eb 3d 36 9f 64 bd e0 0d 76 3d 64 52 03 3e
       0.11504654 -0.055815898 0.060071826 0.12824398
000370 9b 55 02 3d 0f 2b 1f bd 75 31 b9 3c 20 28 ad 3d
       0.03181992 -0.038859423 0.02260659 0.08454919
000380 28 83 6f bd 1a 74 ac 3d 6e 26 2c bc 02 5b 2f 3e
       -0.05847469 0.08420582 -0.010507209 0.1712456
000390 42 a2 00 3e 6b 5c 97 3d 23 8e 2a 3e 51 8d 36 3c
       0.12561896 0.07390674 0.16655783 0.011142091
0003a0 b9 9e 7e bd 5a 5a 80 3d 24 49 25 3e 9f cb bc bc
       -0.06216309 0.06267233 0.16141182 -0.023046313
0003b0 58 c0 2f 3e 46 e5 7c 3d b6 8c 16 3e e2 46 88 3e
       0.17163217 0.06174209 0.14702114 0.2661658
0003c0 ed 31 75 3d 1c 8d 87 3d 8c 18 f3 3d 63 00 3c 3d
       0.059862066 0.06618711 0.11869916 0.045898806
0003d0 2a e8 51 3d a7 0b fd 3e 95 a5 11 bc 51 66 6a 3d
       0.0512468 0.49422953 -0.0088895755 0.057226483
0003e0 54 2f 53 3e 1d 1d 75 3c ae bc d2 bc 38 88 fa bd
       0.20623523 0.014960554 -0.025724735 -0.12233013
0003f0 60 27 58 3d 07 3e 37 bd 1d 0f 44 bd 58 2c 9d 3d
       0.052771926 -0.04473689 -0.047865976 0.076744735

gconvs.1.weight f4 [10, 10, 4, 3, 3]
000000 e2 ba 08 3e a3 a4 08 be 16 eb 04 bf 07 34 f9 3d
       0.1335254 -0.13344054 -0.5192121 0.121681266
000010 e7 7f b8 3d f7 35 65 be 2c c3 92 bc 2c 00 34 bd
       0.090087704 -0.22383867 -0.01791533 -0.043945476
000020 23 49 69 3c 5b c0 08 3e 94 4e 34 3e 1e 55 4d 3d
       0.014238629 0.13354628 0.176081 0.050130002
000030 ea e6 f4 3d da 05 23 3e 7e e2 b8 be d1 64 ec 3c
       0.11958106 0.15920201 -0.361103 0.028856667
000040 57 a0 48 bc 5e 7d 5e bd 90 7a 96 3e b0 1c 0d 3e
       -0.012245259 -0.05431878 0.29390383 0.13780475
000050 47 60 35 be 15 b3 84 3d 9d 98 1b 3e cf 66 51 be
       -0.17712508 0.0647947 0.15194936 -0.20449375
000060 53 4d a8 3c fe 2f 9d 3e 57 4a 07 be b9 37 68 3e
       0.020544684 0.30700678 -0.13211952 0.22677507
000070 87 b8 1b 3e b6 b5 86 be 48 78 27 3e cb dd 88 3e
       0.1520711 -0.2631051 0.16354477 0.26731715
000080 5c 15 c0 3c a2 69 86 3e ff 4a b1 3d 9e e3 3b bd
       0.023447685 0.26252466 0.086568825 -0.04587137
000090 88 6c a5 bd c2 72 66 3d 3d 28 09 bd e1 82 f2 bc
       -0.08077341 0.056261785 -0.03348564 -0.029603424
0000a0 f7 73 c1 bd ed 06 9b 3d e2 3d 8e 3c 9c a1 93 bd
       -0.09445947 0.0756968 0.017363492 -0.07208559
0000b0 b7 7f 1d 3d 0e 91 6f bd 76 b9 05 bd f7 b6 c7 bc
       0.038451876 -0.058487944 -0.032647572 -0.024379237
0000c0 6e 07 1e 3c 23 e0 51 bd 82 a2 9c 3d 40 8a 2d 3c
       0.009645326 -0.051239144 0.076481834 0.010592043
0000d0 4a e6 bd bc c9 e0 b3 bc 36 45 3d bd 43 f6 08 be
       -0.0231811 -0.021957772 -0.046208583 -0.13375191
0000e0 ce bf b4 3d 41 ac 1d be c8 07 6a bd 26 ae 0e 3b
       0.08825646 -0.15397741 -0.057136327 0.002177128
0000f0 a9 8a 69 bd 27 d3 a8 3d 45 35 2e 3d dc 31 0c be
       -0.057017002 0.08243399 0.04253127 -0.13690895
000100 ae 48 2e 3e 07 07 b8 3d ad d5 e7 bc 4f 4d 2d 3e
       0.17019913 0.08985715 -0.02830013 0.16924022
000110 1a 5e 52 bd 26 f4 17 3b 85 c3 cd 3d 38 ae aa bd
       -0.051359273 0.0023186295 0.10047058 -0.08334011
000120 8c af b4 bd 88 ba 9a be b8 5f 4c bf be 72 d9 3d
       -0.088225454 -0.30220437 -0.79833555 0.106175885
000130 8a e6 2f be 2a b2 51 bf 76 cb f6 bd 72 bc e3 bd
       -0.17177787 -0.8191248 -0.12050526 -0.111199275
000140 3c 0d d6 be bd 1a 1c 3e c9 c4 bc 3b 08 01 a8 be
       -0.41806972 0.15244575 0.0057607633 -0.32813287
000150 68 47 52 3e db a5 53 be 94 fa cb be 54 aa b4 3c
       0.20535052 -0.20668738 -0.39839613 0.022053875
000160 f7 7b 3c be 19 75 da be b5 9d 38 bd 61 7a bb bd
       -0.18406664 -0.42667463 -0.045072276 -0.09154201
000170 94 95 22 bf a6 4a 1c 3e 45 ef 8c bc 73 f9 37 bf
       -0.6350949 0.15262851 -0.017203936 -0.71865004
000180 47 72 fb bc 4c f6 7c 3d 10 5c 3c bf 51 5f 2e be
       -0.03069414 0.061758325 -0.73577976 -0.17028548
000190 ad c9 3a bd 7f 67 06 be 31 67 06 3e 6e c6 36 3d
       -0.04560249 -0.13125418 0.13125302 0.04462283
0001a0 99 c3 23 bd 7b a5 ae bc e2 2a 45 be fa 0d f4 bd
       -0.03998146 -0.021319142 -0.1925464 -0.11916728
0001b0 b0 c5 92 3d 33 a0 40 bd 0f f8 60 be 62 6a 5e 3e
       0.07166612 -0.047027778 -0.21969627 0.2172027
0001c0 f1 db 57 3e 41 50 71 be 3d 31 45 3e db b0 e5 3d
       0.21079995 -0.2356577 0.19257064 0.11215373
0001d0 0d 26 c5 be 9f 3f 1b bd aa 90 a5 3d a8 11 d5 be
       -0.38505593 -0.03790247 0.08084233 -0.41615033
0001e0 ea c8 9a bd c7 dd 0a 3e f2 ad c8 be 0e 72 ad 3d
       -0.075578526 0.13561164 -0.3919521 0.0846902
0001f0 e5 79 1a bd 40 a6 e3 be 33 54 15 be 3d c8 6b be
       -0.037713904 -0.44462776 -0.145829 -0.23025604
000200 94 01 b5 be 53 ce dc 3c 19 b7 b3 be e5 f7 07 bf
       -0.35352767 0.026953852 -0.3510063 -0.5311263
000210 93 01 11 be aa db 1a 3d 74 80 32 be b5 db 2b 3d
       -0.14160757 0.037807144 -0.17431813 0.041957576
000220 34 db a7 3b a7 6a 4f bf a4 89 71 be c0 a3 73 be
       0.0051225666 -0.81022114 -0.23587662 -0.23792934
000230 5e da f9 be 48 4b 5b be c0 7e c5 be bd 00 d4 be
       -0.48799413 -0.21415436 -0.38573265 -0.41406813
000240 aa 8d 73 bd fb f9 c9 bd b1 37 1b be e9 4a 1f 3d
       -0.059461273 -0.09862133 -0.15157963 0.0388898
000250 5c 77 70 bd 95 e3 92 be 3f aa 45 bd d3 3a 15 bb
       -0.05870758 -0.28689256 -0.048258062 -0.0022770658
000260 96 77 11 be 9a b9 0c be 6e d7 c2 be 3b 20 54 bf
       -0.14205775 -0.13742676 -0.38054985 -0.8286168
000270 c1 7f f5 3c eb df 37 3c b0 aa ee be 4e 5b f9 bd
       0.029968144 0.01122282 -0.466146 -0.12175618
000280 34 b8 94 be 34 ce bb be 1c 77 d1 3e 8d 68 96 3b
       -0.29046786 -0.36680758 0.40911186 0.0045901
000290 b3 8b c0 bd 5e 9c b0 3e 50 7d bd 3c 16 3a 7c be
       -0.094016455 0.344943 0.023131043 -0.24631533
0002a0 ca 8c da 3e 2d f6 1c bd 19 95 8c be e9 71 15 3e
       0.4268554 -0.03832071 -0.27457502 0.14594235
0002b0 e2 5e 2b 3d 04 f6 92 be c1 70 c8 3d 79 5c 87 bd
       0.041838534 -0.2870332 0.09787131 -0.06609435
0002c0 86 eb d6 be a8 9d ce 3d 4d cd 99 3b 7e 31 f3 be
       -0.41976565 0.10088664 0.004693663 -0.47498697
0002d0 2a 44 30 3e 0d 6b c4 3d d5 e1 00 bf 3b 47 45 3d
       0.17213503 0.09590731 -0.5034459 0.048163634
0002e0 a5 b0 d1 3c 2e 7e b1 be da c7 13 3e 6d 20 b2 3c
       0.025596926 -0.3466658 0.14431706 0.021743977
0002f0 91 18 c1 be c5 c9 7a 3d ef c1 4c be a3 12 29 bf
       -0.37714055 0.06122758 -0.19995855 -0.6604406
000300 30 6a 26 3e aa 47 4b be 62 bf 13 bf d8 fd 17 3e
       0.16251445 -0.19851556 -0.577139 0.14842927
000310 db fa 5f be 7b 07 06 bf a1 94 20 3e 21 a4 7b 3e
       -0.21873038 -0.52355164 0.15681697 0.24574329
000320 c1 92 d4 be bc b0 50 3e 64 f6 c0 3d 4b 8a 0a bf
       -0.41518214 0.20379919 0.09421995 -0.5411727
000330 bc e8 9d 3e df 76 c7 3d f4 f7 03 bf a0 2d 34 3e
       0.30841625 0.0973947 -0.5155022 0.1759553
000340 26 0c a4 3e 05 d9 08 bf 8a 13 e1 3d b3 db 64 3e
       0.3204052 -0.53456146 0.10990055 0.22349434
000350 3a 49 ff be ef 38 8c 3e 64 b3 9a 3e 23 33 d8 be
       -0.49860555 0.27387187 0.3021499 -0.42226514
000360 77 96 1c be 09 7a 73 bd 62 76 db 3d 42 0d 5a bd
       -0.15291773 -0.059442554 0.10715939 -0.0532353
000370 b3 35 bf bd 57 de 40 be 4a 3d 79 3d 69 db 16 3e
       -0.09336414 -0.18834816 0.060849465 0.14732136
000380 ef 62 cb 3c 18 2d 55 3c c7 5b 34 be 4d 24 d7 3d
       0.024827449 0.0130112395 -0.17613135 0.10504971
000390 46 e8 58 bd 5c 3d 24 be 66 cd 84 be 09 ab d0 bd
       -0.05295589 -0.16039032 -0.25937957 -0.10188872
0003a0 b6 ed 5e bc 76 c3 2c be db 23 4d 3e 64 34 3d be
       -0.013606479 -0.16871437 0.20033209 -0.18477017
0003b0 85 db af be 70 5a 0c 3e cb a9 46 bd e2 1e cd bd
       -0.34347168 0.13706374 -0.04850177 -0.10015656
0003c0 9f af b2 3e 5c ab c3 3d ba 77 9e be 61 0e 96 be
       0.34899613 0.095541686 -0.3095072 -0.29307845
0003d0 ea 7c e0 3c b4 87 25 3e de da a7 be e5 4f 44 be
       0.027403314 0.16165048 -0.3278417 -0.19171102
0003e0 e2 ac 68 3e 21 fa 0a be 85 57 b5 be fb cb 5d 3e
       0.227222 -0.13571979 -0.35418335 0.21659844
0003f0 84 66 ed 3d 99 5b 1f be 70 c7 81 be b3 f5 42 3e
       0.11591819 -0.15562285 -0.2534747 0.1903904

gconvs.2.weight f4 [10, 10, 4, 3, 3]
000000 07 7b 0c be 2a ed 23 be 34 f9 58 be cd c2 36 be
       -0.13718806 -0.1600844 -0.21188813 -0.17847748
000010 d7 59 0b bc 4b ed 0d 3d 92 b3 02 be 69 7e 68 bd
       -0.008505306 0.03465013 -0.12763813 -0.05676118
000020 7c e7 d5 3c 76 6f 50 3d ba 72 73 be c8 42 2c 3c
       0.026111357 0.050887547 -0.23774233 0.010513969
000030 14 f4 36 3c 2a 72 b0 3a 3d 55 48 3c c6 24 87 bc
       0.011166591 0.0013461758 0.012227354 -0.016497027
000040 90 6a 12 be a7 9f e1 3d 3d 09 7f bd 70 80 5c bd
       -0.14298463 0.110167794 -0.06226467 -0.053833425
000050 21 c3 26 3e a4 f8 a0 be 82 fa 4b bd 38 ab cd bd
       0.16285373 -0.31439698 -0.04979945 -0.10042423
000060 2b d5 23 be fb 57 bb 3d 60 9a 87 3d 05 81 9b 3d
       -0.15999286 0.0914764 0.066212416 0.07592968
000070 9e 45 59 3e 0d ec 2c be 26 79 27 bd 7c 54 b8 bd
       0.21217963 -0.16886921 -0.04088702 -0.09000489
000080 94 0c 4e be 08 60 88 bd 3c e1 d0 bd 4b 01 b9 bb
       -0.20121986 -0.066589415 -0.1019921 -0.005645906
000090 2a 73 fb bd 09 70 28 bd 9e 90 b2 bd a0 8f 78 be
       -0.12277825 -0.04112247 -0.0871899 -0.24273539
0000a0 bf 8f 61 bd 05 fc 1f be bb d9 9d 3d c4 6f 6f be
       -0.055068728 -0.15623482 0.077075444 -0.23382479
0000b0 58 95 30 be 0b e2 3e 3b 51 0d f8 bd f6 fc 30 3b
       -0.1724447 0.0029126431 -0.12111915 0.0027006245
0000c0 05 20 86 be 45 cd c0 bd dd 37 61 3d 47 8c 92 3d
       -0.26196304 -0.09414152 0.054984916 0.07155662
0000d0 e1 6d a3 bd e5 92 3c bc ef d7 3c be e5 24 44 be
       -0.07979942 -0.011509632 -0.18441747 -0.19154699
0000e0 e6 9f 1c bd c8 8e 3b be 3c 00 03 be b0 0c 3d bd
       -0.03823843 -0.18316185 -0.12793058 -0.046154678
0000f0 06 64 da 3d 15 d9 34 3c 10 a6 90 3c fc ba 03 3d
       0.10663609 0.0110380845 0.01765731 0.032160744
000100 80 32 9f 3c b3 b1 09 3c ed 0b 88 39 a1 a2 1f be
       0.01943326 0.008404183 0.00025948827 -0.15589382
000110 04 72 a5 3d 59 b2 8c 3b 9c 84 19 be 4b 2c 8a bd
       0.080783874 0.0042937216 -0.14991993 -0.067467295
000120 76 83 4d be eb c2 8c be b1 3d 6b be 6f 22 5d be
       -0.2006968 -0.2749246 -0.22972752 -0.21595167
000130 1f 73 d9 be 21 ed aa bd 3b d4 1c 3e 02 99 e8 3d
       -0.42470643 -0.0834601 0.15315334 0.11357309
000140 4d 66 cc bd e2 5e 50 bd 53 49 d1 be fa f4 8c be
       -0.0998045 -0.050871737 -0.40876254 -0.27530652
000150 8f 73 2b 3c 93 1c 01 3e 8e 5f 22 be 67 ff 5b be
       0.010464563 0.12608556 -0.15856764 -0.21484147
000160 19 18 d5 bd 97 8a ed bc 75 31 c2 3d 0a 9f 88 3d
       -0.10404987 -0.028996749 0.094820894 0.06670959
000170 88 ca 8b 3d 0e 4d a5 be 53 b7 a8 be b4 4b 1c be
       0.06825739 -0.3228535 -0.32952365 -0.15263253
000180 3d 2e ef bd cc a6 52 bd e9 c1 a1 be e3 13 a2 3d
       -0.11678741 -0.0514286 -0.31593254 0.07913949
000190 08 12 bc 3d 4a 1f c5 be 62 e0 90 be bc 15 7c be
       0.09183127 -0.38500434 -0.2829619 -0.24617666
0001a0 01 5d 02 bf be 7c 07 bf 1b a8 8a be 03 d9 56 be
       -0.5092316 -0.52924716 -0.2708138 -0.20981221
0001b0 55 9c 0e be 56 5c 43 be 5d 49 89 be 81 6f 2a be
       -0.13926823 -0.19078192 -0.26813784 -0.16644098
0001c0 5a d0 ab bd 17 8b d1 bc 57 5a 69 be 48 04 4d be
       -0.08389349 -0.025579019 -0.22788368 -0.20021164
0001d0 5f eb 86 3c d5 a0 b1 bd 57 c3 0a 3a 1e fa 7d be
       0.016469656 -0.086732544 0.000529339 -0.24802443
0001e0 ad 2a 37 3b 2d 3f 7f bd 64 60 5d be 06 16 45 bd
       0.002794902 -0.06231611 -0.21618801 -0.048116706
0001f0 e0 04 91 bc 1e cb 6b be 2e ab 04 be 71 f0 23 3e
       -0.01770252 -0.23026702 -0.12955925 0.1600969
000200 31 70 2b 3d ba 9e 27 be 12 0e d4 bd a8 90 1e 3b
       0.04185504 -0.16369143 -0.10354246 0.0024195109
000210 d8 87 92 be 2f ad 2a be ae 67 42 be b7 6d 7b bd
       -0.28619266 -0.16667627 -0.18984863 -0.06138393
000220 67 6a 78 be ad ac d7 3a 8e 3a 0f bd 28 ae 62 be
       -0.2425934 0.001645466 -0.03496795 -0.22136748
000230 52 d9 c4 be dc 4d 35 3e d2 bc 1b be 00 35 80 be
       -0.38447052 0.17705482 -0.15208748 -0.25040436
000240 c4 cb a2 3d e3 9b cb bd 66 9d 36 3e 17 5f e6 be
       0.079490215 -0.099418424 0.1783348 -0.44994423
000250 fb 20 a3 be 03 f9 d6 bd 53 26 b1 be 5d 05 fb be
       -0.318611 -0.10496714 -0.34599552 -0.4902753
000260 ad b2 84 be d6 1e dc 3c 99 ed 30 be 36 9e 80 be
       -0.2591757 0.026870172 -0.17278136 -0.25120705
000270 01 03 27 be a7 d4 3b be 18 92 5f 3d 6a 9e ac be
       -0.1630974 -0.18342839 0.054582685 -0.3371461
000280 c1 d1 88 be 7e 5f 68 be a0 00 3f be 83 16 2a be
       -0.2672253 -0.22692677 -0.18652582 -0.1661015
000290 c2 6c 95 bd 08 44 48 3d ef eb a2 be 38 2e c7 bc
       -0.072961345 0.048893005 -0.31820628 -0.024314031
0002a0 9f b5 98 be 6f ce 54 bd 97 75 8f bc 22 22 32 be
       -0.29826066 -0.051954683 -0.017512126 -0.17395833
0002b0 a4 8c 9c be 89 92 82 be 63 79 10 3e 5c d9 17 3e
       -0.3057605 -0.25502422 0.14108805 0.1482901
0002c0 c8 2e fc bd ee 2f 9b bd 30 6c 11 be be 1b 94 3d
       -0.1231361 -0.07577501 -0.14201427 0.07231854
0002d0 c1 d0 72 3c e5 90 03 3d 86 67 bf bd db 46 d0 3b
       0.014820279 0.032120604 -0.093459174 0.006356103
0002e0 a0 09 e2 3c 60 0b a1 3d e4 2a a3 bd 02 66 83 bd
       0.02759248 0.07863498 -0.07967165 -0.06415941
0002f0 8c ed 23 bc 53 ed 63 3c 28 d3 4e 3c 6d a3 9d 3d
       -0.010005366 0.013911563 0.012623586 0.076971866
000300 ac 9a 02 3d 56 ab a7 bc b4 01 00 bd a2 2f e9 bd
       0.031885788 -0.020467442 -0.031251624 -0.11386038
000310 38 95 92 bd 40 8b a2 3c 8d c1 06 3b 04 ed 55 bd
       -0.071573675 0.01984179 0.0020562143 -0.05222799
000320 3d d1 8b 3c 16 93 94 3c a8 fc 9e bd 8f 00 2b 3b
       0.017067546 0.018136542 -0.07763034 0.0026092862
000330 03 08 ed bd 2c 61 e4 bd 8d 48 d4 bc 26 2f 8b 3d
       -0.11573794 -0.111513466 -0.025913501 0.06796102
000340 35 21 a2 3d ca 6a a6 3c 3b e3 d9 3c 3c 7b c5 bd
       0.0791649 0.020314593 0.02659761 -0.09642646
000350 82 c0 66 3c 28 13 66 bc 8d 55 2e 3c e7 3f 17 bc
       0.014083983 -0.014042653 0.010640514 -0.009231544
000360 30 b6 1f be bc 78 91 bd 7d 1f 78 3e 55 08 a0 3d
       -0.15596843 -0.071031064 0.24230762 0.07814089
000370 56 44 97 bd 74 fa 1e 3e db 6c 37 bd 13 13 cd bc
       -0.07386081 0.15525228 -0.044781547 -0.02503351
000380 57 3d 79 be 4b 6c 2a 3e c6 b9 1f bd 3c c5 06 be
       -0.24339806 0.16642873 -0.038995527 -0.13161176
000390 7d 3a 91 3d 23 35 03 be 70 95 f3 bc 56 7b 18 be
       0.07091234 -0.12813239 -0.029734343 -0.14890799
0003a0 be ff 31 be 1b 47 82 be bd 7a 5e bd 4d eb c0 3c
       -0.17382714 -0.25444874 -0.05431627 0.0235497
0003b0 44 17 86 bd 56 f7 a5 bd ba 76 48 be 0d 0b 1b 3e
       -0.06547406 -0.08103816 -0.1957654 0.15140934
0003c0 11 8d 89 be 7a 79 17 be af 00 6c be 63 44 fb bd
       -0.26865438 -0.14792433 -0.23047136 -0.12268903
0003d0 10 c2 e8 bd 8c 0e 0a be 63 91 f9 bb bb 6b 49 be
       -0.113651395 -0.13482112 -0.0076162084 -0.19670002
0003e0 b6 4c 4d be 58 30 6c 3d 14 11 07 be ef 1b 3d be
       -0.20048794 0.05766329 -0.13190109 -0.18467687
0003f0 23 f7 79 bd f3 4f 3e bd 39 48 0c 3d a0 1a 86 3c
       -0.061026704 -0.046462964 0.034248564 0.016370118

gconvs.3.weight f4 [10, 10, 4, 3, 3]
000000 54 9b d8 bd f2 46 8a 3e c9 cc 8b bd 41 d2 70 3e
       -0.105765015 0.27007252 -0.06826169 0.23517706
000010 c2 39 81 be 35 68 af 3c f1 dd 72 3e 79 31 71 3d
       -0.25239378 0.021411994 0.23717476 0.05888507
000020 46 01 db bc 17 fe 89 3d bf 4e 06 be 63 47 ec be
       -0.026734006 0.06737917 -0.13115977 -0.46148214
000030 e7 4e 26 3e f9 11 b7 3d 4e e4 80 3d 78 b9 83 bc
       0.16241036 0.08938975 0.06293546 -0.01607965
000040 03 60 85 3e da 22 1d 3e d9 ae ab 3e 0c c4 52 be
       0.26049814 0.15345326 0.33531836 -0.20582598
000050 fe de 0f be e6 a9 fd bd 67 17 b5 be cd b1 75 be
       -0.14049909 -0.12385921 -0.35369417 -0.23993607
000060 94 62 ef 3c 12 8f c8 be 93 52 c6 3d a6 ad 5a bd
       0.02922181 -0.39171654 0.096837185 -0.05338826
000070 b3 68 b8 bd e5 b4 86 3d f7 be 19 be 04 43 98 be
       -0.09004345 0.06577472 -0.15014254 -0.2973863
000080 63 34 20 be 05 ec 50 be e4 fa 0f be a5 99 b7 3d
       -0.15644984 -0.20402534 -0.14060551 0.08964852
000090 7c ce fe bd c4 92 36 be e7 b0 6e 3e 9d d3 17 3e
       -0.124417275 -0.17829424 0.2330967 0.14826818
0000a0 77 22 39 be fa f1 83 bb 5b cd 68 3e e9 11 cf bd
       -0.18079554 -0.0040266486 0.22734587 -0.10110838
0000b0 c5 41 d7 bd ec f9 95 be 0b e2 78 be 2b 11 e6 bd
       -0.105105914 -0.29292238 -0.24304979 -0.11233743
0000c0 9e 85 53 be 8a e2 be 3d a3 cc e7 3a 71 7a b2 be
       -0.2065644 0.09320553 0.0017684888 -0.3485904
0000d0 b0 c3 3e 3e 22 ce 04 3d d9 13 7c be a5 e2 b6 3e
       0.18629336 0.032423146 -0.24616946 0.3571979
0000e0 49 00 f1 3e 6c 91 8b be 0b ca 56 3e a5 df a8 3e
       0.4707053 -0.27259386 0.20975511 0.32983127
0000f0 d5 a7 29 be 56 c6 63 3e a5 8f 2a 3e 26 14 89 3d
       -0.16567929 0.22243628 0.16656359 0.06693296
000100 bb 3b 21 3e b1 a9 77 be 81 96 1d 3e 9c ae 41 3e
       0.15745442 -0.24185826 0.15389444 0.18914264
000110 8f da f0 3c 1a ca e8 be eb 1b 87 be 5d ce b3 be
       0.029401092 -0.4546669 -0.26388487 -0.3511838
000120 1c 76 02 3e 55 16 82 3e 74 d3 9f bd 2b 7d 3c 3e
       0.12740368 0.25407663 -0.07804003 0.18407123
000130 e8 75 a1 3e db 7d d8 3c 73 fd c0 bd 7a df 59 3d
       0.31535268 0.0264272 -0.094233416 0.05319164
000140 22 de 6d 3d 4d e7 7f be 81 88 bc be bc fe 37 bf
       0.05807317 -0.24990578 -0.36822894 -0.7187307
000150 dc e8 de bd 92 65 11 3e fa bd 15 be 2f 33 64 bd
       -0.10884258 0.14198902 -0.14623252 -0.055712875
000160 0a 5b 18 3e b1 4f 67 3e 86 e8 b3 be c9 9c 64 be
       0.14878479 0.22588994 -0.3513834 -0.22325434
000170 28 e2 b2 bd 1c 5b 99 be 82 a7 7e be 49 c6 c2 bd
       -0.08734542 -0.29952323 -0.24868587 -0.09510476
000180 58 b8 84 be 16 25 e6 3d a3 cb 5a 3e ba 68 15 bd
       -0.25921893 0.11237542 0.21366744 -0.03647683
000190 fe 68 5f bd 37 fb 84 be 1a c3 3a bb b3 fe f6 bd
       -0.054543488 -0.25972912 -0.0028497637 -0.12060299
0001a0 99 d9 da bd b5 ec 1f 3d d9 59 ce be 86 a1 4d be
       -0.10686035 0.0390441 -0.40302923 -0.20081148
0001b0 cf ee cd 3d 89 80 2b 3d c6 01 90 bc b8 dc 29 bc
       0.10055315 0.041870628 -0.01757897 -0.010367565
0001c0 98 52 4d 3d 45 5b 34 3d ef cc 50 bd 9e 5d 89 3e
       0.050127596 0.044032354 -0.05097669 0.26829237
0001d0 c4 d2 5f 3e f9 6f ed 3d de 01 bf bd b2 d2 c9 be
       0.21857744 0.11593623 -0.09326528 -0.3941856
0001e0 99 91 72 ba cc ae 7e bc 95 87 53 be 6a 5e fc 3d
       -0.0009253263 -0.0155446045 -0.20657189 0.123226956
0001f0 59 54 dd 3d 9b 50 04 3e 30 c6 5a 3e 52 26 13 3e
       0.10807104 0.12921374 0.21364665 0.14370087
000200 26 45 83 be 3d 1f 40 3e 9a 79 13 3e 10 07 0e be
       -0.25638694 0.18761916 0.14401856 -0.13869882
000210 9d 7e ba 3d 84 34 e2 3c fb 2e 1e 3d 7d 6a 81 be
       0.09106181 0.027612932 0.038619023 -0.25276557
000220 3f 9f 7a bd f8 cd e6 be 8a f3 a9 bd d8 04 23 3d
       -0.061187025 -0.45079017 -0.082984045 0.03979954
000230 80 95 b1 be 7c 8b 00 be 3f b6 f4 bd 53 3e a1 be
       -0.34684372 -0.12553209 -0.11948823 -0.31492862
000240 3e 17 a6 3d f5 9a a1 3e 19 65 1c be c7 2a 05 be
       0.08109902 0.31563535 -0.1527294 -0.130046
000250 52 a0 89 3d 1b 57 81 be 1d c4 30 be 4f 52 dd be
       0.06720032 -0.2526177 -0.17262311 -0.4322686
000260 2f e7 0d 3e 88 80 20 3e f2 ec 00 3c 6b 30 94 3d
       0.13857721 0.15674031 0.007868992 0.072357975
000270 f3 cf 61 3c e1 9c a0 3d 55 81 8c bd 00 a2 08 bd
       0.013782489 0.07842422 -0.068606056 -0.03335762
000280 5b e2 d5 bb 04 85 a3 3c 64 26 ca be b7 86 bc be
       -0.006527228 0.019960888 -0.39482415 -0.3682153
000290 5b 6d 3d bf ca cd 08 be 3a 1f 43 3c 1c 4a 82 bd
       -0.7399499 -0.13359752 0.0119093 -0.063617915
0002a0 4a c7 91 3d e3 e3 e2 bb 05 3c 65 3e 4a 95 39 be
       0.071180895 -0.006924139 0.22386177 -0.18123356
0002b0 7b 19 0e be 2c 42 0e bd 05 ec 78 3d 49 70 24 3e
       -0.13876908 -0.034731075 0.06077196 0.16058458
0002c0 10 8e b7 bc fa c5 26 3d 66 01 5c 3e 7e 41 fe bc
       -0.022406608 0.04071615 0.21484908 -0.031037088
0002d0 f2 0d 5c 3d 2a a7 a4 bd 2d 2a f0 be cb 4c 71 bd
       0.053724237 -0.080396965 -0.46907178 -0.058911126
0002e0 b9 1f 49 bc e5 78 d7 be 24 82 d5 be 7b 67 ce be
       -0.01227563 -0.42084423 -0.41700852 -0.40313324
0002f0 0b 5c 89 bf cc d8 d4 bd 29 a6 42 bc e8 8e a8 3d
       -1.0731214 -0.10392913 -0.011880436 0.08230382
000300 2f c9 aa bd f4 d2 bf 3c 04 5d bd bd ae 10 c5 bd
       -0.08339154 0.02341602 -0.09246257 -0.09622322
000310 26 21 21 3d f4 24 11 be e0 3a 8b 3c 4a c5 82 3d
       0.039338253 -0.14174253 0.016995847 0.06385286
000320 94 46 22 3d 1e f0 97 bc c3 5a 33 bc bd 9c 2f 3e
       0.03961809 -0.018547114 -0.010946932 0.17149635
000330 b3 6b e8 be 82 00 17 be 29 c6 22 be 31 6c 71 bc
       -0.45394668 -0.14746287 -0.15895905 -0.0147352675
000340 f8 a7 cc be 8f 61 02 bf 32 22 92 3d a0 eb b5 3b
       -0.399719 -0.5093011 0.071354285 0.0055517703
000350 c2 2c 4e be 56 b8 08 3e 16 71 0c 3e 43 10 62 3d
       -0.20134261 0.13351569 0.13715014 0.05519129
000360 cc f2 62 3d db d7 af bd 66 48 23 bd 1a e9 69 3e
       0.05540733 -0.08586093 -0.039863966 0.22842827
000370 3c f0 83 bd 94 79 dc bd f8 1e ae 3d be 1f bf 3d
       -0.064423054 -0.10765377 0.085020006 0.09332226
000380 48 27 a5 bd be 46 5c be 9a ea b5 bd d9 53 27 bf
       -0.08064133 -0.21511361 -0.08882637 -0.65362316
000390 11 38 21 3d 4a c1 1d 3e 29 80 2d bf be b5 55 3e
       0.03936011 0.15405765 -0.6777368 0.2087011
0003a0 3a a8 95 3e 36 eb a3 be de b8 34 3e cc ac 69 be
       0.2922991 -0.3201539 0.17648646 -0.22819823
0003b0 99 58 9c be af ee 44 3d 7f b3 84 bc ea 96 11 be
       -0.30536345 0.04807919 -0.016198872 -0.14217725
0003c0 8a 45 4b 3e fc e3 28 3e 2b 54 a5 3d b5 29 84 be
       0.19850746 0.16493219 0.080726944 -0.2581307
0003d0 66 b8 33 be cb 70 34 bf 7d 62 10 be e6 51 42 3e
       -0.17550811 -0.7048461 -0.1410007 0.18976554
0003e0 76 c8 3d be 0f fd ba bd f2 9f 7b be 27 96 15 bf
       -0.18533501 -0.09130298 -0.24572733 -0.5843224
0003f0 4d 0d 02 bd 44 f1 03 bd 41 ba 23 3d 91 c5 de 3c
       -0.031750966 -0.03221251 0.039972547 0.027193816

gconvs.4.weight f4 [10, 10, 4, 3, 3]
000000 e6 8b 28 3e 2d 35 17 3d 10 64 fe 3d 24 a1 ba 3d
       0.16459617 0.036915947 0.12421429 0.091127664
000010 00 f2 5b 3e bb 1c c9 bb 26 f5 3f be 2d e7 6a bc
       0.21479034 -0.006137458 -0.1874586 -0.014337343
000020 46 2d 0d be 68 62 2e 3d 53 50 95 bd de ec 22 3e
       -0.13786802 0.042574316 -0.07290711 0.1591067
000030 12 d8 22 3e c3 d6 a9 3d af 26 c1 3e 0a d7 14 3e
       0.15902737 0.08292916 0.37724826 0.14535156
000040 06 8d 2b 3e 03 c1 af 3e 1b bf 35 3c 86 0d 23 be
       0.16753015 0.34326944 0.011092926 -0.15923128
000050 18 84 be bd b8 44 6f bd 53 15 53 be 47 9d dd be
       -0.09302539 -0.058415145 -0.20613603 -0.43284056
000060 f2 4c 5a be 43 b8 b4 be 63 21 fb be 9d c8 46 be
       -0.21318415 -0.3529683 -0.4904891 -0.19412465
000070 d7 b6 41 3d 26 41 37 be d9 c8 ea be 1b c1 14 bd
       0.04729351 -0.17895946 -0.4585636 -0.036316972
000080 32 8a 8b be 2d ea 40 be da be 01 bd 3c ca 5f be
       -0.27253872 -0.18839331 -0.03167615 -0.2185449
000090 07 ec 4a 3e 29 2d fc 3d 2f ab 96 bd 1b 36 a2 3d
       0.198166 0.12313301 -0.073568694 0.07920476
0000a0 05 5b dc bd 5e 60 a4 bd 53 4d 9e bd d0 14 87 be
       -0.10759548 -0.08026193 -0.07729592 -0.26383066
0000b0 3e 13 82 be 76 68 3e 3d 3f 69 29 be c6 d4 9d be
       -0.25405306 0.04648634 -0.16544054 -0.30826396
0000c0 ff 4f 80 bc 00 6d 9f be d9 5d d4 be 08 6c 01 be
       -0.015663145 -0.31137848 -0.4147785 -0.12638867
0000d0 fe 59 af be 64 cc f9 be d6 88 ea bd d9 21 17 be
       -0.34248346 -0.4878875 -0.11451881 -0.14759006
0000e0 87 72 19 bd a5 67 94 3c 22 6a 7f bb ba c3 4b be
       -0.037462737 0.018115828 -0.0038973172 -0.19898883
0000f0 34 e4 15 3d 3b 9c af 3d cc 62 3c be 47 01 25 3e
       0.036594585 0.085747205 -0.18397063 0.16113769
000100 4c 2b 43 bc 80 2f a5 be 06 c0 01 3e 40 2c 4c be
       -0.011912178 -0.32262802 0.12670907 -0.19938755
000110 96 c2 9a be 07 b1 c5 bc de fd b2 be cc f7 bc bd
       -0.30226582 -0.024132265 -0.3495931 -0.09226951
000120 67 6c 64 3e 1f 98 8c 3d 91 20 93 bd 54 1d f7 3b
       0.22306977 0.06864952 -0.07183946 0.007541338
000130 1c 74 61 be 6a 74 9a be ae b1 7a be 71 f1 88 be
       -0.22016948 -0.30166942 -0.24481842 -0.26746705
000140 01 13 90 be 87 3b 17 be f0 98 f8 bd 8d 6c 86 be
       -0.281395 -0.14768802 -0.121385455 -0.26254693
000150 6b 7f 98 bd b8 55 04 be a3 6e a3 be 73 db 39 3d
       -0.07446178 -0.12923324 -0.31920347 0.0453753
000160 66 cb 97 bd 59 90 c7 be c5 ca aa 3d 64 ec cb 3d
       -0.07411842 -0.38977316 0.083394565 0.09957197
000170 58 8c 82 bd 33 4a 3b 3e 69 4e a4 3b 95 e1 4c 3e
       -0.06374425 0.18290024 0.00501423 0.20007928
000180 0f af e9 3c a2 a5 a6 bb 00 57 07 3e 9b 3a b0 3d
       0.028525857 -0.005085663 0.13216782 0.08604928
000190 bc 73 28 bd 1e db 7c 3c 6b e7 9b bc 16 f1 a2 bd
       -0.041125998 0.015433101 -0.019031247 -0.0795614
0001a0 22 03 14 3e f7 e6 5a 3e 29 67 2c 3e ea ff 37 3e
       0.1445432 0.21377169 0.16836227 0.17968717
0001b0 0e 15 f1 3d f6 fa 2b 3e d1 76 c7 3d 62 f8 89 bd
       0.11771594 0.16794953 0.09739459 -0.067368284
0001c0 b6 fc 05 3c a3 e8 39 be 5a 65 ce be 34 eb a5 be
       0.008177927 -0.1815515 -0.403117 -0.32406008
0001d0 61 bb 94 be 03 3c 33 bd f6 6c b3 bd ee c2 8e bd
       -0.2904921 -0.043758404 -0.08761017 -0.06970774
0001e0 b7 02 3b 3d 68 a4 9e 3d db 8b fe 3d df 78 13 3e
       0.045656886 0.07746202 0.12429019 0.14401577
0001f0 86 15 35 3d 12 bf 53 3e c1 c9 0c be 1f e7 1f be
       0.04420998 0.20678356 -0.13748838 -0.1561551
000200 bb 8c 9e be 2c 34 84 be 0e e0 85 be eb 61 9f be
       -0.30966744 -0.25821054 -0.26147503 -0.31129393
000210 82 20 96 be 16 e1 28 be 5a b0 9f be 62 8d ec bd
       -0.29321676 -0.16492113 -0.31189233 -0.11550404
000220 7d 30 87 be f6 54 05 bf 27 4e 2f bd d7 aa 55 3d
       -0.2640418 -0.52082765 -0.04279914 0.05216488
000230 eb 1e c8 bd 4e ce 14 be 51 82 11 3e 7b 7b cc bd
       -0.09771522 -0.14531824 0.14209868 -0.099844895
000240 08 6c 4b be 57 d5 fb bd 18 91 81 3d 6f af a2 3c
       -0.1986543 -0.12296551 0.063265026 0.019859044
000250 c5 9a e5 3d 0d dd 0e 3e 86 92 a3 3e d4 af 3a 3e
       0.112111606 0.13951512 0.31947726 0.18231136
000260 18 56 0f 3e 6a fc 92 3e 09 17 f7 3d 9d e3 0f 3e
       0.13997686 0.28708202 0.120649405 0.14051671
000270 ff 99 d3 3d 91 16 fc bb dc a8 9b 3d 43 92 6d be
       0.10332107 -0.00769312 0.07600567 -0.23200326
000280 65 ab 98 be 28 1f 26 bd d8 c8 73 be 57 68 ff bd
       -0.29818264 -0.040557057 -0.23807085 -0.12471073
000290 d3 11 8e be cf 51 5d be 87 00 3b be 2c 0f 98 be
       -0.27747974 -0.21613239 -0.1826192 -0.29699075
0002a0 f2 0b a5 be 82 c6 55 be d0 90 24 bf 78 a6 07 3e
       -0.32235676 -0.20876506 -0.64283466 0.13247097
0002b0 18 f6 41 3e 33 84 9a 3d 9b 38 66 3e 51 d9 7f bd
       0.18941534 0.07544746 0.22482531 -0.06246311
0002c0 fb c6 d0 bc 84 16 8e be 9b 6e c2 bd ba 2f 89 bd
       -0.025485506 -0.27751553 -0.094937526 -0.06698556
0002d0 19 b5 7f 3e cf fe 77 3d f6 38 0d 3e 8a 4f 30 3e
       0.24971427 0.06054574 0.1379126 0.17217842
0002e0 2b 9f 59 3e fd 31 1d 3e f1 ae d2 3d 86 bc 3b 3e
       0.21252124 0.153511 0.10287274 0.18333635
0002f0 43 6a e7 3d 9e 7d 53 3e 92 9f 04 bd 2b 2b da bd
       0.11299565 0.20653388 -0.03237874 -0.10652765
000300 0e 8e ac 3d d4 95 99 bc 7c f8 14 3d a2 cf 11 3e
       0.08425532 -0.018748201 0.036369786 0.14239362
000310 99 ae 8f 3d 69 13 ad 3c 76 1d 38 3e f1 85 b4 39
       0.07015724 0.02112742 0.17979988 0.0003443207
000320 02 44 ab bd 46 1e ed 3c 31 43 f5 3d ec 35 fa bd
       -0.08362581 0.0289451 0.11975706 -0.12217316
000330 b1 ed 4a bd 48 94 7e bd 58 29 db bc ba 9a d9 bc
       -0.049543086 -0.06215313 -0.026753113 -0.026563037
000340 cf f1 3d 3d 22 19 f3 3c cd 8c ad be 54 d1 cc bd
       0.046373185 0.02967507 -0.33896485 -0.10000864
000350 e9 96 16 bd d3 9a ca be aa 6a 8c be b9 c4 25 bf
       -0.036765013 -0.39571247 -0.27425128 -0.647533
000360 22 18 8b 3d 33 7f 89 bd 85 db 06 be 80 c2 a4 3d
       0.06791712 -0.067137145 -0.13169678 0.080449104
000370 7a 59 9a bd 11 6b 8a be f9 b2 ee 3c fa 3f 76 3d
       -0.075365975 -0.2703481 0.029138075 0.060119607
000380 13 b4 39 be 06 3f c4 3d 83 be f4 bd e2 b9 5a be
       -0.18135099 0.09582333 -0.119504 -0.21359971
000390 cb e0 34 bd 42 92 c8 bc bb 0a 02 be 37 61 2f bb
       -0.04415969 -0.024483804 -0.12699406 -0.0026760825
0003a0 7d be 96 3c d5 02 c1 bd 29 8a 9f be 77 23 6a be
       0.018401379 -0.09424368 -0.31160095 -0.22865091
0003b0 ff b1 19 bf d2 56 a4 be 08 99 9e be 6b fb 06 bf
       -0.60037225 -0.3209749 -0.3097613 -0.52727383
0003c0 04 ae 6d be d5 94 32 be e8 00 2d be 50 cd 03 bd
       -0.23210913 -0.17439587 -0.16894877 -0.032178223
0003d0 6e f0 cc 3d ec 06 ff 3c 74 e6 8d 3c 69 82 8f 3d
       0.10006796 0.03113123 0.017321803 0.07007296
0003e0 70 0f db bd 12 ea e1 3d c6 27 aa 3d 1d 89 ce bd
       -0.10696304 0.110309735 0.083083674 -0.10084746
0003f0 ed c6 31 be 53 97 80 be 80 49 8e be fa 6f 82 be
       -0.1736104 -0.2511545 -0.2779045 -0.25476056

gconvs.5.weight f4 [10, 10, 4, 3, 3]
000000 80 24 2d be 53 8d 25 bc 58 d3 aa 3d dd 13 62 3d
       -0.16908455 -0.010104495 0.08341092 0.055194724
000010 65 9d 0e 3e b2 22 74 3d 76 6c 55 3d 85 af 16 3e
       0.13927229 0.0596034 0.05210539 0.14715393
000020 15 b3 8b 3e ef f8 09 3e 33 de ea bd 57 fa 2e be
       0.27285066 0.13473867 -0.114681624 -0.17087685
000030 c2 3c 6a 3e 39 e7 25 3e f6 bd 79 3d d3 c7 80 3e
       0.2287474 0.16201486 0.060972176 0.25152454
000040 f2 bf ce 3d 50 bf bd 3d 99 fd 4e 3e 1c 19 57 3e
       0.100952044 0.092650056 0.20213927 0.21005672
000050 20 7d a9 3b d5 45 16 3e 20 0c 0f 3e 8d a1 1e bc
       0.0051723868 0.14675076 0.13969469 -0.009682071
000060 c6 d9 93 3d 95 ca 4e 3d f7 4d 2b bd 8a f4 8f 3d
       0.07219271 0.050486166 -0.0418224 0.07029064
000070 50 74 e8 3d 4d 63 7e 3e 22 75 a0 3c af 9a 8a 3d
       0.1135031 0.24842568 0.019587103 0.06767785
000080 6e 6b 05 3e 7f 82 bd bd 55 b1 38 3c 36 91 f0 3d
       0.13029262 -0.09253406 0.011272748 0.11746447
000090 45 db 29 3e 61 5c 11 3e 0d 01 07 3e 66 74 8f 3e
       0.16587551 0.14195396 0.13183995 0.28018492
0000a0 bb 5f 1c 3e cc fb 72 3e 4c 89 a8 3e 50 0e b1 3e
       0.15270893 0.23728865 0.3291725 0.34581232
0000b0 9a 03 6d 3e 10 a3 a5 3e ee 18 a4 3e 77 7e 82 3e
       0.23145905 0.3235097 0.3205027 0.2548711
0000c0 20 fd 14 3e dd 41 81 3e 0f c9 93 3d 75 31 45 3e
       0.14549685 0.25245562 0.07216083 0.19257148
0000d0 f7 a1 ca 3d 44 48 b6 3d 05 28 e4 3d 16 f1 2a 3e
       0.098941736 0.08900502 0.111404456 0.1669353
0000e0 c3 c1 45 3e 57 18 64 bb 2a 8b 95 3e 16 9e ae 3e
       0.19312195 -0.0034804547 0.29207736 0.34104985
0000f0 57 7a 19 be 39 9e c6 3d d7 e7 ab 3e f7 cb c4 3d
       -0.14988075 0.09698147 0.33575317 0.09609216
000100 ff dc 51 3e 37 7b 20 3e 80 bf 07 3e 60 c3 08 3e
       0.2049446 0.15672003 0.13256645 0.1335578
000110 7d b9 52 3e db ce 10 3e 88 24 a1 3e bf b2 7d 3e
       0.2057857 0.14141409 0.31473184 0.24775217
000120 39 29 f5 bb 93 83 23 be 37 28 61 bd a2 2f 6b 3c
       -0.0074817208 -0.1596816 -0.054969992 0.014354618
000130 ce 9c e5 bc 91 8c 06 be 2d 76 bc bd 89 fa ef 3c
       -0.028028872 -0.1313956 -0.09202228 0.02929427
000140 50 ae a7 bd 05 2b c3 bd 78 32 51 bd 9c 99 61 bd
       -0.08187544 -0.0952969 -0.05107352 -0.055078134
000150 56 c1 65 3c 8f 71 4e 3b 5a 10 02 3d 8a 31 0f 3b
       0.014023146 0.0031500792 0.031753875 0.0021849596
000160 5a 15 f2 bc 03 19 3b bd d5 d3 21 bb 10 a8 9a bd
       -0.029551197 -0.04567815 -0.0024692912 -0.07551587
000170 2c e4 2b 3d 5d 6c 13 be 65 4f 70 bc f0 97 a0 3d
       0.04196565 -0.14396806 -0.014667367 0.0784148
000180 79 10 2f 3c 01 dc cf bd 64 1b 81 bd 2d e9 17 be
       0.01068508 -0.10149384 -0.063040525 -0.14835043
000190 4a 21 bc 3b 7e bd 9f 3d 34 54 21 bd 04 a4 83 3c
       0.005741273 0.07799815 -0.039386943 0.01606942
0001a0 65 9c 0c 3d 45 65 de bd 6d 8d 19 3c 6a 04 a5 bd
       0.034328837 -0.108591594 0.009372097 -0.080574825
0001b0 dd 4c 1f 3e af 94 e5 3c 3a 17 a1 3d 64 52 6a 3d
       0.15556665 0.028025 0.07865758 0.05720748
0001c0 3a f3 c8 b9 8d 23 ec 3d a5 12 14 bb ba 05 9b bc
       -0.0003832819 0.11530218 -0.002259412 -0.01892363
0001d0 66 68 c1 3d 3a 99 74 bd 01 d1 f6 bc e9 ce 17 3e
       0.094437405 -0.05971644 -0.030128958 0.14825024
0001e0 ef ef d7 3b 03 28 1d 3e 8b 7d 2d bd 1d 00 de 3c
       0.0065898816 0.15347295 -0.042356055 0.027099663
0001f0 e0 53 83 3c a8 1d 08 3c 85 a7 ae 3d eb c9 48 3d
       0.016031206 0.008307852 0.085280456 0.04902069
000200 5d c5 22 bd 80 18 8d bc 1f 21 3b 3d b3 c7 11 3e
       -0.039739 -0.017223597 0.045685884 0.14236335
000210 e8 fc d9 bc 79 90 e5 ba 13 97 15 3e c6 78 5e bc
       -0.026609853 -0.001751437 0.14608411 -0.013578599
000220 49 58 c3 3d c7 1d e6 3b 06 4d 3b 3c 2f 50 ed 3d
       0.095383234 0.0070225927 0.011431938 0.115875594
000230 7b d1 8e 3d f9 d4 10 3e 71 42 8e 3a 98 53 4f bc
       0.06973549 0.14143743 0.0010853541 -0.012654208
000240 b0 76 52 bd 8f f0 4a be 7d 57 27 be c5 c5 6e bc
       -0.05138272 -0.19818328 -0.16341968 -0.014573519
000250 24 e5 b1 bc e9 56 16 be 1c ed 32 bd 4b c4 18 3d
       -0.021715708 -0.14681591 -0.043683156 0.037296575
000260 04 ab 10 be 44 03 9c 3d 69 7a 4d bc a5 67 10 bc
       -0.14127737 0.0761781 -0.012541392 -0.008813773
000270 dd d5 64 bd e1 01 24 be 63 a9 ea bd f1 4a 3e bc
       -0.05586802 -0.16016342 -0.11458089 -0.011614547
000280 79 1a db bd 4d a1 2f be d0 59 af bb db 55 f0 bd
       -0.10698409 -0.17151375 -0.0053512827 -0.11735126
000290 16 9c 70 3b ff 26 c6 bd 52 6a 0a be c3 a4 92 bc
       0.0036714128 -0.09675407 -0.1351712 -0.01790083
0002a0 ef 03 de bd 9d 2e 66 be bb ca 9b 3b ff 69 6c be
       -0.10840594 -0.22478719 0.004754392 -0.2308731
0002b0 40 e6 ea bd ec 34 f4 bc 11 62 c6 bd 60 7d 9e bd
       -0.11469698 -0.029810391 -0.096866734 -0.07738757
0002c0 29 c0 2f bd 17 30 c0 bd a3 26 e2 bd 55 ff 9b 3b
       -0.042907868 -0.093841724 -0.110425256 0.0047606626
0002d0 56 fc 37 3d 11 d6 91 3c b7 41 a6 bd fb 26 08 be
       0.04491838 0.01780227 -0.08118003 -0.1329612
0002e0 ea 3f 17 be ec 85 b7 bd 31 ac ae 3d 4e 62 5c 3c
       -0.14770475 -0.089610904 0.08528937 0.013451172
0002f0 a6 88 6b be 33 1a ca 3d ac 2b 70 3c 7a 82 a7 3c
       -0.23001346 0.09868278 0.01465885 0.020447958
000300 89 b8 e0 bd ec 50 5d bd 8f b2 e2 bd 44 a2 a6 be
       -0.10972697 -0.05403225 -0.110692136 -0.32545674
000310 10 95 0b be b3 98 c7 bd 59 90 30 be 40 74 a2 bc
       -0.13631082 -0.09745922 -0.17242564 -0.019830823
000320 4b 6d c3 3b 80 f6 a5 be bf 56 25 be b6 4e 3c 3d
       0.0059639565 -0.32414627 -0.16146372 0.045973502
000330 42 f7 3f be 03 92 df bd 7a 61 d7 bc 44 f2 1f be
       -0.18746665 -0.109165214 -0.026291598 -0.15619761
000340 fe f4 a9 bd 3b b4 58 be 8c d0 1d be 27 6a 1e be
       -0.08298682 -0.21162502 -0.15411586 -0.15470181
000350 3b 76 cc bc 36 68 79 bc f8 5d 02 be 7a ae c0 3d
       -0.02495872 -0.0152226 -0.12731159 0.09408279
000360 90 0f 1c 3e cc d1 3d 3e 1d 9b 49 3e b2 7e 27 3e
       0.15240312 0.18537062 0.19688077 0.16356924
000370 3d d0 0b 3e 0c 79 7d 3d d1 c9 1c 3e 16 d6 55 3d
       0.13653655 0.061883017 0.15311362 0.05220612
000380 0d 2f 59 3e 2e 96 10 3e ae f3 15 3e 2e 52 2a 3e
       0.21209355 0.14119789 0.14643738 0.16632912
000390 78 2c 75 3d 69 87 e8 3d 00 4d b3 3d 1d b9 09 3e
       0.05985686 0.113539524 0.08754921 0.13449521
0003a0 f0 3e fa 3c f0 68 f8 3d cd 9c 3a 3d 00 f6 b3 3d
       0.030547589 0.1212939 0.045559693 0.08787155
0003b0 0c ef 0c 3d 49 b3 01 3d 70 c7 08 3e 6e be b1 3d
       0.03440766 0.03166512 0.1335733 0.086789
0003c0 73 12 ab 3d d2 d9 14 3e 36 24 eb 3d c7 b3 c6 3d
       0.08353128 0.14536217 0.11481516 0.097022586
0003d0 41 64 1e 3e 10 30 48 3e 4a 4b 6a 3d 9d 99 59 3d
       0.15467931 0.19549584 0.057200707 0.053125013
0003e0 19 48 46 3e b2 e2 c0 3d d0 1e 5a 3e b3 29 2c 3e
       0.1936344 0.09418239 0.21300817 0.16812782
0003f0 27 45 18 be 7d a8 22 be 0b 8d 18 be 71 5d 04 be
       -0.1487013 -0.15884586 -0.14897554 -0.1292627
