runs/RelaxedP4CNN_iso_std0.3_gamma2_lr0.002/model.pt (torch, 116029 bytes, 18 tensors)

lifting_conv.combination_weights f4 [3, 4]
0.13933565 0.136986 0.13387695 0.1354796 0.008270736 0.009240859 0.008654234 0.009091989
0.17611071 0.1740822 0.16969994 0.17319578
00000000: 01ae 0e3e 0f46 0c3e 0a17 093e 2abb 0a3e
00000010: fb81 073c f966 173c 7dca 0d3c 91f6 143c
00000020: 5e56 343e 9b42 323e d2c5 2d3e 3c5a 313e

lifting_conv.weight f4 [3, 6, 1, 3, 3]
-0.18302953 0.1410711 0.542155 -0.18140328 0.19187576 -0.011611068 -0.31964785 0.13423517
-0.1595242 0.39230177 0.056506008 -0.59337366 0.06397268 0.018155117 -0.37407792 -0.099455476
-0.018414643 -0.5097247 -0.3979433 -0.22676787 0.19380513 0.11642618 0.06255527 -0.5214432
-0.14910743 -0.15620677 0.331905 -0.38956752 -0.061500978 -0.34614694 0.18642741 0.19787192
0.3777166 0.15214579 0.04691474 -0.21582697 0.1654088 0.05737809 -0.23062648 0.07155915
0.010354455 0.15377694 0.3321409 0.16378716 -0.19691648 0.11489834 -0.029148538 0.3253108
0.21873073 -0.2655354 -0.19368704 0.2074964 -0.009502296 0.07131853 -0.1311261 0.1032118
-0.21820594 0.07560213 -0.09566983 0.27564287 0.11304668 0.0043599694 0.30581704 -0.113196634
0.008688835 0.22707728 -0.26698214 -0.18091027 0.1644878 0.08206761 -0.34476978 0.112802036
0.11967243 -0.4429475 0.26566845 0.19245148 -0.26941904 0.06465266 -0.26150158 0.26851323
0.27591097 -0.4262275 0.31982023 0.14845069 0.045171384 -0.45041716 -0.083983704 -0.089110285
0.36817965 0.09655803 0.004742491 -0.07842575 -0.009028853 -0.27449575 0.06431691 0.19375831
-0.31553322 0.06916377 0.29583126 0.02872612 0.036683023 0.178145 0.25960717 -0.031930078
0.027016476 0.25108725 0.27258462 -0.18605381 0.20680012 0.49596012 0.40233135 0.08231669
0.18208098 0.12129466 0.046188638 -0.2444858 -0.16245124 0.37457448 0.08817683 -0.2825877
0.38710803 -0.32623103 -0.36693543 0.18493965 -0.2994142 -0.0001564396 -0.3669847 0.115337476
0.007331167 0.035232216 0.23076555 -0.23823807 -0.11402793 -0.20525706 -0.09246328 -0.28140855
-0.3927665 -0.50608623 -0.23741375 0.02966333 0.22290245 -0.15730558 0.3179049 0.21269585
0.17401819 0.14337136 0.11753123 0.28526115 -0.10883209 -0.35081178 0.071322314 -0.12379698
-0.11911547 0.46655768 0.08701992 -0.2425871 -0.048758257 0.2707071 0.13123897 -0.2484349
-0.0961399 -0.17392297
00000000: 186c 3bbe f174 103e acca 0a3f c8c1 39be
00000010: 147b 443e 593c 3ebc e2a8 a3be f274 093e
00000020: 505a 23be c7db c83e d872 673d 56e7 17bf
00000030: 1c04 833d 0aba 943c 2487 bfbe 50af cbbd
00000040: 4eda 96bc 517d 02bf 39bf cbbe d635 68be
00000050: da74 463e d970 ee3d fa1c 803d 4d7d 05bf
00000060: 9eaf 18be abf4 1fbe 74ef a93e 6575 c7be
00000070: 73e8 7bbd 2c3a b1be d4e6 3e3e f09e 4a3e
00000080: 1264 c13e 1bcc 1b3e ac29 403d bf01 5dbe
00000090: ed60 293e 4a05 6b3d 5929 6cbe 9b8d 923d
000000a0: bba5 293c b477 1d3e 5f0e aa3e d2b7 273e
000000b0: 79a4 49be d24f eb3d eac8 eebc 238f a63e
000000c0: f3fa 5f3e 42f4 87be e555 46be f079 543e
000000d0: 85af 1bbc 730f 923d ec45 06be b560 d33d
000000e0: 6171 5fbe 4ad5 9a3d 8bee c3bd 1021 8d3e
000000f0: 0585 e73d 13de 8e3b 0d94 9c3e a3d3 e7bd
00000100: 9e5b 0e3c f286 683e e2b1 88be 8b40 39be
00000110: 7d6f 283e 1013 a83d aa85 b0be c104 e73d
00000120: d216 f53d 04ca e2be b205 883e 0012 453e
00000130: 4bf1 89be 9d68 843d 89e3 85be 917a 893e
00000140: 3444 8d3e 7e3a dabe 7abf a33e 7503 183e
00000150: a105 393d 149d e6be a6ff abbd 747f b6bd
00000160: 0b82 bc3e 37c0 c53d e666 9b3b ae9d a0bd
00000170: c1ed 13bc b58a 8cbe 96b8 833d 9468 463e
00000180: 928d a1be bca5 8d3d 3277 973e 0a53 eb3c
00000190: f040 163d a56b 363e 3beb 843e 1dc9 02bd
000001a0: a851 dd3c 828e 803e 3690 8b3e e484 3ebe
000001b0: 69c3 533e 7cee fd3e 60fe cd3e a795 a83d
000001c0: 7073 3a3e 5669 f83d 4c30 3d3d 7c5a 7abe
000001d0: 9e59 26be 3ac8 bf3e 0e96 b43d 56af 90be
000001e0: 0633 c63e c107 a7be f6de bbbe d260 3d3e
000001f0: d14c 99be ef09 24b9 6be5 bbbe 0e36 ec3d
00000200: 493a f03b a84f 103d ce4d 6c3e aef4 73be
00000210: 7a87 e9bd e82e 52be 635d bdbd c814 90be
00000220: b118 c9be de8e 01bf 971c 73be 8300 f33c
00000230: 8a40 643e b714 21be 6ec4 a23e f1cc 593e
00000240: d331 323e f1cf 123e 37b4 f03d c00d 923e
00000250: 5ce3 debd 9a9d b3be 6f11 923d 4589 fdbd
00000260: d0f2 f3bd a6e0 ee3e 8037 b23d c168 78be
00000270: bdb6 47bd 1f9a 8a3e 8263 063e b865 7ebe
00000280: ffe4 c4bd dd18 32be

gconvs.0.combination_weights f4 [4, 3]
0.39647517 0.3275036 0.42188257 0.39662528 0.33631173 0.42183885 0.39808166 0.33899564
0.42154354 0.39630443 0.33044195 0.41844234
00000000: cbfe ca3e 8dae a73e fe00 d83e 7812 cb3e
00000010: 0d31 ac3e 43fb d73e 5cd1 cb3e d690 ad3e
00000020: 8ed4 d73e 6ae8 ca3e b02f a93e 133e d63e

gconvs.0.weight f4 [3, 6, 6, 4, 3, 3]
-0.28167817 -0.43609628 0.18617311 -0.17231715 0.10456876 -0.25383535 0.34016925 -0.36986974
-0.021648144 -0.24410985 0.17197208 0.27386907 -0.23344582 -0.32907274 0.3283289 0.47410205
-0.38318372 0.50259215 -0.1499903 0.29928476 0.026370652 -0.2224097 0.008916604 0.3562263
-0.80681616 -0.30750135 0.13567942 0.3723039 -0.052614935 -0.47280693 0.47227803 0.2253918
-0.56762445 -0.29907867 -0.38679594 -0.22367166 0.027833385 0.23445357 -0.12548497 0.32916248
-0.1747451 0.47316286 -0.31178 -0.4098387 -0.22628734 0.33456105 -0.28523856 -0.20420538
0.0405475 0.08931965 0.003120021 0.17817558 0.119666345 0.3403439 0.112805516 0.20292304
-0.061690718 0.36284772 -0.48520786 -0.0046365443 -0.2695092 -0.5471591 0.14264075 -0.06843919
0.014012239 -0.44428205 0.50819176 0.3235309 -0.30405095 -0.35506326 -0.027294282 -0.33595166
0.099988885 -0.23767912 0.23991743 0.37016732 -0.011965105 -0.04980047 0.21320114 0.044457655
-0.2844257 0.3807678 0.09898854 0.13458686 0.12862611 -0.1809994 -0.15131158 -0.18586706
-0.5364371 -0.5170135 0.24909446 0.06261852 0.099096306 0.36553672 0.4248498 0.33126444
-0.12062968 -0.15775473 -0.15564206 -0.2450301 0.15417698 -0.25201264 0.25113994 0.005310491
-0.4488101 0.33628488 -0.25876114 0.17453438 0.48848352 -0.1344119 -0.38324726 0.07092754
-0.22659162 -0.4794703 0.16378845 -0.2307973 -0.20773986 0.22236851 0.28412983 0.22320966
0.35166663 0.30620107 0.13906966 -0.36682045 -0.29638624 -0.019980049 0.18867536 -0.16713922
-0.13894773 0.2210646 0.3802816 0.19808742 -0.033626072 -0.06911963 0.08340628 0.065265395
0.54838246 0.11981534 0.10409602 -0.09527077 -0.11125969 0.38957736 -0.003696456 -0.45755398
0.56053066 0.54351115 -0.24815702 0.12035882 0.072657764 -0.11674933 0.07302752 -0.5272355
0.13754287 0.14593868 0.2474529 -0.19438842 -0.29645973 -0.029024098 -0.15305921 -0.0338774
-0.44058743 -0.19578716 -0.3595723 -0.49438176 0.38720953 -0.42149675 0.22534336 -0.19837286
-0.27423695 -0.108466126 -0.15800893 0.30492118 0.29228857 -0.04672967 0.2645233 0.35279864
-0.09847614 -0.5490348 -0.46895808 0.39240724 -0.014866095 -0.22712258 0.19444533 0.2479371
-0.44847414 -0.13054983 -0.32283127 0.2224706 0.11508791 0.4905367 0.034770854 0.14641114
0.22444443 -0.419354 -0.03594156 -0.048276506 0.24362683 -0.025941761 -0.14383018 -0.17710817
-0.0988165 0.09983836 0.25600675 0.006702748 -0.5885263 0.18760382 0.5265024 0.3581216
-0.04726975 -0.24125345 -0.34127167 -0.23836666 -0.055334676 -0.5070141 0.06889912 0.016957492
-0.5469636 -0.9492068 -0.2894611 -0.2054824 0.11292299 0.10648851 -0.07090076 -0.18510304
0.07296586 -0.06665823 -0.108834565 -0.114838555 0.018906452 0.16298689 0.29676688 -0.29883045
0.49536598 0.36189577 0.2768277 -0.045416355 0.167909 -0.029027333 -0.13000853 -0.29212195
0.20965894 -0.015221467 0.048714705 0.3174523 0.18936895 -0.32025236 -0.23095599 -0.19984715
0.075628124 -0.24640696 0.13807754 -0.08872998 -0.40807337 -0.2411832 -0.29582828 0.21344765
00000000: 1f38 90be 0348 dfbe 2aa4 3e3e e873 30be
00000010: 2528 d63d b5f6 81be aa2a ae3e 915f bdbe
00000020: 7357 b1bc eff7 79be 7319 303e 9138 8c3e
00000030: 6c0c 6fbe 397c a8be ba1a a83e 81bd f23e
00000040: a830 c4be e1a9 003f 0f97 19be da3b 993e
00000050: 4407 d83c 5ebf 63be f316 123c 4b63 b63e
00000060: 818b 4ebf d170 9dbe 8cef 0a3e 9e9e be3e
00000070: c282 57bd c013 f2be 6dce f13e 1ccd 663e
00000080: d64f 11bf d720 99be 1e0a c6be 2f0a 65be
00000090: d702 e43c 9914 703e 227f 00be fc87 a83e
000000a0: 61f0 32be 6742 f23e a1a1 9fbe 61d6 d1be
000000b0: deb7 67be 964b ab3e ca0a 92be 371b 51be
000000c0: 2315 263d 38ed b63d 4479 4c3b a973 363e
000000d0: a113 f53d 8e41 ae3e 9406 e73d 0fcb 4f3e
000000e0: 68af 7cbd 2dc7 b93e 2a6d f8be 27ee 97bb
000000f0: 1cfd 89be 9e12 0cbf 6b10 123e d929 8cbd
00000100: 9793 653c f078 e3be db18 023f d8a5 a53e
00000110: 91ac 9bbe daca b5be 4298 dfbc db01 acbe
00000120: f9c6 cc3d 2862 73be eaac 753e 9286 bd3e
00000130: 4a09 44bc 94fb 4bbd 6651 5a3e 3b19 363d
00000140: 3fa0 91be fff3 c23e 81ba ca3d 23d1 093e
00000150: 90b6 033e e857 39be 6cf1 1abe ef53 3ebe
00000160: f153 09bf ff5a 04bf 9e12 7f3e 233e 803d
00000170: 01f3 ca3d a127 bb3e ea85 d93e 7e9b a93e
00000180: b20c f7bd 758a 21be a260 1fbe 2ce9 7abe
00000190: 92e0 1d3e cd07 81be 6a95 803e a103 ae3b
000001a0: 70ca e5be 882d ac3e 577c 84be 24b9 323e
000001b0: 831a fa3e 46a3 09be fc38 c4be 7542 913d
000001c0: a207 68be 227d f5be 29b8 273e 2156 6cbe
000001d0: c2b9 54be 92b4 633e 7779 913e 1391 643e
000001e0: a60d b43e 63c6 9c3e 4768 0e3e e4cf bbbe
000001f0: f0bf 97be 33ad a3bc 1d34 413e 8b26 2bbe
00000200: 5048 0ebe c25e 623e 45b4 c23e 6ed7 4a3e
00000210: 7ebb 09bd 988e 8dbd e9d0 aa3d dda9 853d
00000220: cb62 0c3f bf61 f53d 4b30 d53d 521d c3bd
00000230: 1fdc e3bd af76 c73e 3e40 72bb 8444 eabe
00000240: f07e 0f3f 8c23 0b3f e01c 7ebe af7e f63d
00000250: 98cd 943d 461a efbd 748f 953d e8f8 06bf
00000260: 0ad8 0c3e f370 153e 4b64 7d3e c20d 47be
00000270: 92c9 97be f2c3 edbc 8ebb 1cbe 07c3 0abd
00000280: ad94 e1be 6e7c 48be dc19 b8be 9b1f fdbe
00000290: 5440 c63e 6cce d7be 69c0 663e 4122 4bbe
000002a0: c968 8cbe 7d23 debd 18cd 21be a11e 9c3e
000002b0: d9a6 953e 9c67 3fbd 996f 873e 06a2 b43e
000002c0: dcad c9bd 8b8d 0cbf 461b f0be 9ae9 c83e
000002d0: ec90 73bc d292 68be ad1c 473e 39e3 7d3e
000002e0: 679e e5be dbae 05be 244a a5be 55cf 633e
000002f0: 36b3 eb3d a027 fb3e e26b 0e3d cdec 153e
00000300: c3d4 653e 91b5 d6be 7537 13bd 96bd 45bd
00000310: 5079 793e d183 d4bc 3848 13be d85b 35be
00000320: 4e60 cabd 0e78 cc3d 5113 833e baa2 db3b
00000330: a9a9 16bf 371b 403e dcc8 063f b75b b73e
00000340: ed9d 41bd 250b 77be 29bb aebe 6416 74be
00000350: 9da6 62bd adcb 01bf fb1a 8d3d 70ea 8a3c
00000360: ce05 0cbf 38ff 72bf 3f34 94be fa69 52be
00000370: 2b44 e73d a616 da3d 6b34 91bd a78b 3dbe
00000380: 206f 953d 1c84 88bd a8e4 debd 7a30 ebbd
00000390: b4e1 9a3c 09e6 263e d4f1 973e 4e00 99be
000003a0: 9ca0 fd3e 674a b93e 5cbc 8d3e 8006 3abd
000003b0: 56f0 2b3e bbca edbc f520 05be 0291 95be
000003c0: d5b0 563e 7663 79bc 1289 473d 1c89 a23e
000003d0: efe9 413e 1ef8 a3be ba7f 6cbe bba4 4cbe
000003e0: ebe2 9a3d 1b52 7cbe 3364 0d3e 10b8 b5bd
000003f0: feee d0be bbf8 76be ce76 97be 0592 5a3e

gconvs.1.combination_weights f4 [4, 3]
0.37658775 0.35060236 0.40971458 0.37608486 0.34920472 0.4094273 0.37665918 0.35037968
0.40627337 0.37491587 0.35004434 0.4093676
00000000: 1cd0 c03e 2782 b33e 1cc6 d13e 328e c03e
00000010: f6ca b23e 74a0 d13e 79d9 c03e f764 b33e
00000020: 1003 d03e f9f4 bf3e 0339 b33e a198 d13e

gconvs.1.weight f4 [3, 6, 6, 4, 3, 3]
-0.6604388 0.09513876 0.15342732 -1.0114522 -0.43475592 0.25575572 -0.18944229 0.05420412
0.4495055 0.162033 -0.17549038 -0.13731666 0.050838456 -0.036767468 0.19787277 -0.5339234
0.18461342 0.007981408 -0.033463154 -0.37999985 -0.48666638 -0.056629393 -0.039889816 -0.116204455
-0.20585367 0.17936249 -0.15342042 0.5003823 -0.05504085 0.43138227 -0.026645433 0.17913681
0.42931476 0.0009277279 -0.3133521 0.64787865 -0.25004452 0.040516883 0.010749449 0.031591866
-0.04169755 0.10769451 -0.99865246 -0.92843944 -0.45860156 -0.08457355 0.40613756 0.14444616
0.06960827 0.10368276 -0.026348243 -0.18736464 -0.2710462 -0.35785684 0.15576239 -0.48744005
-0.27286866 -0.26073736 -0.034974515 0.20700304 0.03585667 0.1947368 -0.21893126 -0.7494906
-0.2827203 0.17612642 -0.24879524 -0.13627177 0.057368536 0.04662913 0.21201748 0.089686096
-0.59280896 0.27789584 0.2592727 -0.23777363 0.0078008086 0.002819279 -0.3309204 0.11402983
0.22676894 -0.240567 -0.20520508 -0.5721613 -0.28395337 -0.029038243 0.053021684 -0.1503558
0.2992636 -0.4520635 -0.039670564 0.4488786 0.68643224 0.46350288 0.0808709 0.46652055
-0.11356577 0.23241565 0.119452804 0.053428095 0.09473428 -0.63058597 0.63671356 0.29067212
-0.48591757 0.18995324 0.29493675 -0.41100678 0.14512508 0.10798201 -0.02958291 0.031249749
0.31629586 0.42965922 -0.46695322 -0.35675907 -0.5724638 0.16395938 -0.037851058 0.23846106
-0.17000775 -0.087927714 -0.011633993 -0.2535725 -0.034423586 -0.40112227 -0.26502156 0.36024982
0.07929056 0.095477626 0.09375589 -0.031703673 0.46530592 0.52369213 0.25075254 0.23039733
0.052216575 -0.015272638 -0.32702747 -0.31622624 -0.05583468 0.19430344 0.26470268 -0.63758993
-0.3968095 -0.34726882 -0.19663768 -0.43744838 -0.087232895 -0.10142697 -0.08762182 0.008298759
0.21204028 0.2675081 -0.5191877 -0.45950404 0.52584624 0.05180279 -0.12093006 0.3965021
0.4288208 0.1740868 0.3761962 -0.33631 0.32283562 -0.2617929 -0.07524169 0.1340808
-0.22859706 0.09045621 -0.20906368 -0.37830687 -0.41614243 -0.006046014 -0.08709797 -0.3196136
-0.34047398 0.08176987 0.28274515 -0.055379517 0.43779817 -0.14875399 0.097138874 -0.012672312
-0.37122598 -0.4963252 -0.2483829 0.15396248 0.22708984 0.45563126 0.21757053 0.38195848
-0.1373371 0.028392443 0.012586485 0.074368246 0.32717288 0.5046565 0.14695121 -0.13909791
0.20726633 -0.14751261 -0.057062324 -0.10803144 -0.6283379 0.04871839 -0.32477167 -0.10999026
-0.3884971 0.1316114 0.61004364 0.19463588 -0.47929952 0.060216077 -0.07278163 0.15029097
0.0381571 -0.20581296 0.23743778 -0.37508467 -0.24846986 -0.067643575 -0.3268649 0.047630858
0.044909853 0.21705447 -0.014583259 0.5390126 0.12110928 0.15602379 -0.12585472 -0.09178644
0.17573027 0.36021757 -0.16944888 -0.20006706 -0.30144697 -0.28241676 -0.2079818 0.19714227
0.043163996 -0.12057916 0.6034146 -0.28362665 -0.092019744 -0.042089403 0.0009164377 -0.22619973
-0.015820842 0.36171496 -0.19233258 -0.30453333 -0.1786336 0.5255209 0.559512 -0.10269925
00000000: 8412 29bf 1cd8 c23d 0d1c 1d3e 4477 81bf
00000010: 5498 debe 6af2 823e 29fd 41be 2405 5e3d
00000020: 9625 e63e fbeb 253e c0b3 33be bd9c 0cbe
00000030: fc3b 503d 7c99 16bd 299f 4a3e 34af 08bf
00000040: 4d0b 3d3e 74c4 023c a910 09bd 578f c2be
00000050: 562c f9be 39f4 67bd 8163 23bd 9afc edbd
00000060: 4ecb 52be cdaa 373e 3e1a 1dbe 0e19 003f
00000070: 8472 61bd 23de dc3e 8647 dabc a46f 373e
00000080: 25cf db3e c432 733a b06f a0be 60db 253f
00000090: d605 80be 08f5 253d 751e 303c 7966 013d
000000a0: 0dcb 2abd f08e dc3d b0a7 7fbf 35ae 6dbf
000000b0: d3cd eabe e634 adbd 43f1 cf3e b2e9 133e
000000c0: c88e 8e3d a057 d43d 45d8 d7bc 84dc 3fbe
000000d0: 91c6 8abe 0339 b7be 2d80 1f3e be91 f9be
000000e0: 71b5 8bbe 5e7f 85be 7041 0fbd 9bf8 533e
000000f0: 72de 123d 1569 473e 842f 60be 9ede 3fbf
00000100: b7c0 90be 7c5a 343e 2ec4 7ebe d48a 0bbe
00000110: 45fb 6a3d 30fe 3e3d 1c1b 593e 58ad b73d
00000120: 54c2 17bf 5d48 8e3e 64bf 843e ee7a 73be
00000130: ed9d ff3b a7c3 383b 666e a9be 7988 e93d
00000140: 1e36 683e 3257 76be 4821 52be 2a79 12bf
00000150: 5662 91be 9ce1 edbc 442d 593d dff6 19be
00000160: 1439 993e de74 e7be 9a7d 22bd 6ad3 e53e
00000170: 06ba 2f3f 4050 ed3e a49f a53d c8db ee3e
00000180: 2c95 e8bd 5efe 6d3e aca3 f43d 6bd7 5a3d
00000190: 0c04 c23d 156e 21bf a9ff 223f fad2 943e
000001a0: 30ca f8be 1a83 423e f301 973e 7b6f d2be
000001b0: ab9b 143e ac25 dd3d dc57 f2bc 79ff ff3c
000001c0: 88f1 a13e 4bfc db3e 7e14 efbe 20a9 b6be
000001d0: fd8c 12bf f8e4 273e b609 1bbd 232f 743e
000001e0: 8316 2ebe 7213 b4bd 819c 3ebc 41d4 81be
000001f0: bfff 0cbd e65f cdbe e8b0 87be aa72 b83e
00000200: 1763 a23d c689 c33d 1703 c03d b6db 01bd
00000210: 943c ee3e b010 063f a362 803e 47ed 6b3e
00000220: 0ce1 553d 163a 7abc 2570 a7be 68e8 a1be
00000230: e8b2 64bd 7bf7 463e 1c87 873e 1839 23bf
00000240: 9d2a cbbe 38cd b1be 635b 49be 3cf9 dfbe
00000250: 29a7 b2bd f1b8 cfbd 1273 b3bd 85f7 073c
00000260: 1621 593e d2f6 883e 7ce9 04bf 1d44 ebbe
00000270: dc9d 063f 2a2f 543d 2eaa f7bd 5302 cb3e
00000280: 668e db3e cf43 323e ca9c c03e d330 acbe
00000290: b64a a53e b809 86be 5118 9abd 7a4c 093e
000002a0: 5915 6abe 1b41 b93d ca14 56be 70b1 c1be
000002b0: 9f10 d5be a41d c6bb 6c60 b2bd 65a4 a3be
000002c0: 9b52 aebe f676 a73d f9c3 903e a2d5 62bd
000002d0: 1527 e03e f752 18be bff0 c63d 879f 4fbc
000002e0: 5511 bebe 561e febe 1658 7ebe 57a8 1d3e
000002f0: 3d8a 683e 8048 e93e cfca 5e3e 1090 c33e
00000300: 19a2 0cbe 4597 e83c 8b37 4e3c 614e 983d
00000310: 3483 a73e 2b31 013f 617a 163e af6f 0ebe
00000320: a03d 543e 8c0d 17be 2fba 69bd 963f ddbd
00000330: c1da 20bf ef8c 473d 7948 a6be 9342 e1bd
00000340: 18e9 c6be 24c5 063e d22b 1c3f a14e 473e
00000350: bf66 f5be 22a5 763d 890e 95bd e0e5 193e
00000360: 9f4a 1c3d a2c0 52be e422 733e 190b c0be
00000370: e26e 7ebe b788 8abd d65a a7be 9318 433d
00000380: 65f3 373d 8743 5e3e 9fee 6ebc bbfc 093f
00000390: 2408 f83d b3c4 1f3e 0fe0 00be 87fa bbbd
000003a0: a3f2 333e 706e b83e 0284 2dbe 61de 4cbe
000003b0: 4257 9abe ee98 90be 2ef9 54be aadf 493e
000003c0: bbcc 303d 35f2 f6bd 6179 1a3f 8337 91be
000003d0: d974 bcbd f065 2cbd 183d 703a e7a0 67be
000003e0: b69a 81bc b432 b93e d5f2 44be cbeb 9bbe
000003f0: baeb 36be 8a88 063f 2e3c 0f3f fc53 d2bd

gconvs.2.combination_weights f4 [4, 3]
0.40891635 0.41063553 0.32542944 0.41139975 0.41073227 0.32645288 0.41337502 0.41279563
0.32764807 0.41308603 0.41182745 0.33055687
00000000: 7c5d d13e d23e d23e b09e a63e fda2 d23e
00000010: 804b d23e d524 a73e e4a5 d33e f359 d33e
00000020: 7dc1 a73e 0380 d33e 0cdb d23e c03e a93e

gconvs.2.weight f4 [3, 6, 6, 4, 3, 3]
-0.24780047 0.17742233 0.09824785 0.0048169126 0.22659864 -0.3164606 0.58500814 0.16070291
-0.34601152 -0.2671934 -0.024050398 0.25848186 0.051393963 0.09696919 -0.28194204 0.2291523
-0.0898877 -0.28343886 0.242886 0.18922336 -0.22865829 0.15794109 -0.30285174 0.035495643
0.17732693 -0.26893985 -0.18777183 -0.46580374 -0.16168676 -0.040919907 -0.33067292 0.06744461
0.42577395 0.14605324 0.39256486 0.20289202 -0.027913796 -0.0969985 0.11867939 -0.7314483
-0.2663725 0.09192343 -0.41081038 -0.4303086 -0.2762852 0.43738797 0.39584714 0.023495825
-0.05258908 -0.12236215 -0.23912087 -0.22952095 -0.4089839 0.11758159 -0.13438228 -0.31912786
-0.05204594 0.11840257 0.06535802 -0.035800926 -0.35901487 0.15207084 0.1189145 -0.12382586
-0.091245204 0.537693 -0.50841635 0.060572416 0.492211 -0.7844023 -0.38597888 0.48773152
-0.06413353 -0.48936868 -0.14195971 0.51163644 -0.14322859 -0.43468836 0.7098946 0.5823454
0.2077541 0.15613995 -0.58014804 -0.82206416 -0.1351313 0.28548998 -0.5782855 -0.05008455
0.27424657 0.2400267 0.36675322 -0.19481942 0.45703855 0.11078497 0.34889597 0.57998526
0.26500633 0.32345322 0.31184202 -0.46210212 -0.44805345 -0.2142458 0.30874145 0.082840785
0.498643 0.075506315 -0.3268445 0.35021925 0.2221934 0.20528696 0.2541471 0.04477031
0.27994072 -0.024098124 -0.07595615 -0.037783552 0.357324 0.340892 0.070061155 0.11820664
0.41394967 -0.046958447 -0.1828481 0.17670313 -0.3308707 0.029010898 0.5687418 -0.12182431
-0.0943121 0.084750034 -0.18889607 0.28950328 -0.022049146 0.09779983 -0.35374522 0.09499263
0.20521666 -0.05408422 0.4106892 -0.3243856 0.50595033 0.29128933 0.14369129 0.06431447
-0.40278146 0.36668918 0.23240148 -0.15697709 0.20348409 0.04492301 -0.40000382 -0.060719136
-0.055211578 0.21233389 -0.19862713 -0.064018644 -0.07594109 0.17588715 -0.47370288 0.12009559
0.19668064 -0.5132177 -0.010867432 0.29344434 0.04062825 0.2751599 0.31622857 -0.21555372
0.29501373 0.030896628 -0.08458588 -0.19398096 -0.32761678 -0.3718671 -0.18174765 -0.08287426
0.19289286 -0.29902372 -0.040569395 -0.11117189 0.094774485 0.05080713 -0.3138194 -0.33360267
0.14341165 0.041265387 -0.16137615 -0.42571002 -0.32270005 -0.15426832 0.34057176 0.09305331
0.5976545 0.15974583 -0.22955649 0.13416436 0.49364606 -0.022010997 -0.52687603 -0.20243174
-0.30203855 -0.41220286 0.21193363 -0.057514176 -0.007955071 0.0017220922 0.43110412 0.3696536
-0.17044935 -0.49667624 0.4745911 -0.12548757 -0.36696538 -0.5974966 -0.52388436 0.08258998
-0.072155625 0.14553449 0.26665643 0.2823403 -0.093632735 -0.32130432 -0.09109825 -0.3826122
0.14492765 -0.45942912 0.2681756 0.29243758 -0.24344456 0.13213621 0.25531396 0.054623365
-0.0009155585 0.56561947 0.30309433 0.20659469 0.38923293 -0.46145353 -0.32431045 0.28522718
-0.26449516 -0.28193685 0.06558481 0.31201681 -0.2581688 -0.24700227 0.44971114 0.17948215
-1.4397835e-05 0.43968165 0.32578656 0.2833692 -0.31369853 0.25252372 -0.006325726 -0.34876236
00000000: 68bf 7dbe 33ae 353e 2b36 c93d 31d7 9d3b
00000010: 7909 683e 2007 a2be 18c3 153f 4e8f 243e
00000020: 6c28 b1be 93cd 88be 5705 c5bc bc57 843e
00000030: 7a82 523d c897 c63d b55a 90be e7a6 6a3e
00000040: 0b17 b8bd e61e 91be 1cb7 783e c5c3 413e
00000050: 6625 6abe 4fbb 213e 620f 9bbe e163 113d
00000060: 3195 353e 7cb2 89be 4247 40be d47d eebe
00000070: 3791 25be a29b 27bd f64d a9be 6620 8a3d
00000080: 0bff d93e fb8e 153e 43fe c83e edc2 4f3e
00000090: 79ab e4bc 26a7 c6bd 2e0e f33d 3240 3bbf
000000a0: fa61 88be 5a42 bc3d bd55 d2be 6951 dcbe
000000b0: 4175 8dbe 51f1 df3e 7aac ca3e 517a c03c
000000c0: a667 57bd 0299 fabd 1adc 74be 8a07 6bbe
000000d0: 5666 d1be 9ece f03d 829b 09be ba64 a3be
000000e0: 202e 55bd 0c7d f23d 6dda 853d fea3 12bd
000000f0: ccd0 b7be 75b8 1b3e 7289 f33d 6a98 fdbd
00000100: c4de babd 40a6 093f 9327 02bf c81a 783d
00000110: 1503 fc3e 97ce 48bf 069f c5be f2b7 f93e
00000120: 7158 83bd 888e fabe e35d 11be 9bfa 023f
00000130: 84aa 12be 798f debe a7bb 353f 9714 153f
00000140: 7ebd 543e 27e3 1f3e 9584 14bf cc72 52bf
00000150: dc5f 0abe be2b 923e 850a 14bf 7525 4dbd
00000160: 0c6a 8c3e 8fc9 753e 14c7 bb3e be7e 47be
00000170: f500 ea3e 3be3 e23d 7ea2 b23e ea79 143f
00000180: e9ae 873e a99b a53e c2a9 9f3e a698 ecbe
00000190: 4367 e5be 4063 5bbe 5c13 9e3e 6ea8 a93d
000001a0: 234e ff3e 0ea3 9a3d 2a58 a7be f04f b33e
000001b0: ab86 633e bf36 523e 921f 823e 1361 373d
000001c0: 6454 8f3e 6e69 c5bc e68e 9bbd edc2 1abd
000001d0: 2cf3 b63e 6589 ae3e 397c 8f3d 5316 f23d
000001e0: 36f1 d33e 8057 40bd 883c 3bbe aaf1 343e
000001f0: e267 a9be 43a8 ed3c 1099 113f 067f f9bd
00000200: b426 c1bd 6d91 ad3d f96d 41be c639 943e
00000210: 69a0 b4bc 474b c83d 181e b5be 7f8b c23d
00000220: 5124 523e 6a87 5dbd db45 d23e df15 a6be
00000230: f685 013f e023 953e cf23 133e 4eb7 833d
00000240: 5f39 cebe afbe bb3e a7fa 6d3e 9abe 20be
00000250: 225e 503e 3101 383d 4dcd ccbe a1b4 78bd
00000260: 8925 62bd 0e6e 593e e964 4bbe 351c 83bd
00000270: 0187 9bbd c31b 343e 2f89 f2be adf4 f53d
00000280: a666 493e 3c62 03bf 500d 32bc 563e 963e
00000290: cf69 263d c2e1 8c3e b6e8 a13e 1dba 5cbe
000002a0: 0a0c 973e ed1a fd3c 5d3b adbd f2a2 46be
000002b0: 63bd a7be 5d65 bebe 0e1c 3abe fbb9 a9bd
000002c0: b585 453e a319 99be 182c 26bd 16ae e3bd
000002d0: 2019 c23d 231b 503d f0ac a0be f8cd aabe
000002e0: 81da 123e e505 293d ca3f 25be aaf6 d9be
000002f0: f138 a5be 84f8 1dbe 6c5f ae3e bc92 be3d
00000300: e3ff 183f 6994 233e db10 6bbe 6262 093e
00000310: 2dbf fc3e 6850 b4bc 59e1 06bf 444a 4fbe
00000320: cca4 9abe 410c d3be 2105 593e fc93 6bbd
00000330: fc55 02bc d3b7 e13a aeb9 dc3e 3d43 bd3e
00000340: 468a 2ebe 594c febe 9bfd f23e d07f 00be
00000350: e3e2 bbbe 8af5 18bf 491d 06bf ef24 a93d
00000360: 54c6 93bd fe06 153e 3187 883e e88e 903e
00000370: 85c2 bfbd 0082 a4be b891 babd bfe5 c3be
00000380: ea67 143e 4b3a ebbe 504e 893e 61ba 953e
00000390: 8849 79be b74e 073e 83b8 823e c0bc 5f3d
000003a0: 1702 70ba 70cc 103f 2e2f 9b3e 8f8d 533e
000003b0: 8a49 c73e a343 ecbe 050c a6be 4c09 923e
000003c0: e96b 87be 075a 90be 5451 863d abc0 9f3e
000003d0: b32e 84be 2aee 7cbe 8a40 e63e 2bca 373e
000003e0: 3b8e 71b7 f41d e13e 7fcd a63e c515 913e
000003f0: 189d a0be ca4a 813e 0948 cfbb fb90 b2be

gconvs.3.combination_weights f4 [4, 3]
0.3998663 0.40128383 0.36889023 0.40072912 0.40096545 0.3693398 0.40313786 0.39974883
0.37003016 0.4003671 0.40077555 0.36829436
00000000: 47bb cc3e 1375 cd3e 2edf bc3e 5e2c cd3e
00000010: 584b cd3e 1b1a bd3e 1668 ce3e e1ab cc3e
00000020: 9874 bd3e ebfc cc3e 7432 cd3e 1491 bc3e

gconvs.3.weight f4 [3, 6, 6, 4, 3, 3]
-0.090244375 0.4545307 0.14050291 -0.21981728 -0.05889296 -0.034601636 -0.44322056 0.056531128
0.41591194 -0.18641004 0.11094738 -0.12862468 0.17870831 0.19627216 0.20145187 -0.064143226
-0.426112 0.08668954 0.20087568 -0.21041346 0.35316285 -0.47005895 -0.05548741 0.5766985
-0.3413247 0.03179192 0.3429554 -0.081915475 -0.17896914 0.32924613 0.0073925746 0.51600146
0.57359743 -0.25904268 0.48531327 0.2788433 -0.20100774 0.36673537 0.51831174 -0.39033365
-0.22945374 0.12791814 -0.6837503 -0.28139707 -0.098768644 -0.578937 0.07554589 -0.51177555
-0.06277427 -0.39984167 -0.20397016 -0.21086065 -0.1185874 0.06869762 0.30251747 0.24517617
0.35577655 -0.16607334 0.044811938 -0.39195347 0.4024929 0.3813197 0.022886852 -0.33297905
0.30693313 0.34232783 -0.17272864 0.32774568 -0.041199446 0.11717432 0.24283968 -0.13537559
-0.17826235 -0.28307733 0.32140183 0.06092703 -0.2222149 0.08048065 0.27212748 -0.062063
0.2384826 0.2710126 0.08167359 0.28214628 -0.2224248 0.11960498 0.13814433 -0.75762045
-0.4722674 -0.588013 -0.5909863 -0.52966857 -0.52532065 -0.44675925 -0.39469975 -0.29483396
-0.29030356 -0.1778456 -0.3834189 -0.19656505 -0.1989778 0.16909297 0.24333873 0.3735599
0.012743642 0.30059952 -0.30908284 -0.2941795 0.0839365 -0.13493267 0.35149956 -0.12634543
0.115094036 0.46612725 0.11301362 -0.14305478 0.31238157 -0.44771066 -0.069842614 0.07987498
0.23433547 -0.2608716 0.13166104 -0.26836815 0.13293286 0.10410725 0.39437547 -0.117686026
-0.26911008 -0.0422001 -0.03863692 0.11339981 -0.09934206 0.3692688 -0.23013693 0.20634921
0.16561599 0.33762997 -0.31969997 0.29925734 -0.3249457 0.015120872 -0.223758 -0.75680566
0.40080005 0.34880263 0.6096923 0.14989626 0.045327798 0.615437 -0.061506268 -0.21474358
0.18593697 -0.31449497 0.34823197 0.31791422 -0.44095877 -0.080883995 -0.40989736 -0.6765382
-0.33499226 0.2692554 -0.09285212 -0.24838136 0.2227117 -0.30053407 0.20866865 0.22621582
0.12741117 -0.19725782 0.2632921 -0.2444096 -0.36477262 -0.21958877 -0.19781123 0.089886405
-0.21314423 0.12642117 0.4896747 -0.2606987 -0.018545648 0.059105236 0.23087189 0.17451212
-0.39634755 0.27298158 0.41494387 -0.23970585 -0.25075763 -0.11154305 -0.2467782 0.25970492
0.22079434 0.14079984 0.1609125 0.33583522 0.14014989 0.026662063 0.13664767 -0.29919532
0.23379762 -0.2547578 -0.100254424 -0.19685435 -0.06333994 0.2624092 0.35673884 -0.9084079
-0.14951836 -0.25668603 -0.3508768 -0.34057018 -0.39703137 -0.30118975 -0.08888364 -0.60828954
-0.122150205 -0.26030725 0.40162098 -0.124884374 -0.15196477 0.36464775 -0.38332477 -0.30373654
0.06543322 -0.044697773 0.07726277 0.45899197 -0.1931027 0.46858218 0.12608957 -0.54600805
-0.49879766 -0.082941204 0.025628379 -0.252233 0.2542358 0.16671592 -0.41422117 0.21632369
-0.27462408 0.25257203 0.14202926 -0.41535366 -0.47368935 -0.11308193 -0.47322407 0.22841598
-0.00884152 0.4021032 -0.03900222 -0.22103721 0.29437765 -0.30287236 0.09331908 -0.21414523
00000000: 0bd2 b8bd 3fb8 e83e ffdf 0f3e c817 61be
00000010: bf39 71bd 72ba 0dbd ceed e2be 2f8d 673d
00000020: 69f2 d43e 46e2 3ebe 6138 e33d 30b6 03be
00000030: 50ff 363e 92fb 483e 6649 4e3e 865d 83bd
00000040: 5a2b dabe 498a b13d 5bb2 4d3e a076 57be
00000050: c3d1 b43e 91ab f0be c446 63bd 83a2 133f
00000060: 1cc2 aebe 3f38 023d da97 af3e 4dc3 a7bd
00000070: b043 37be f392 a83e 693d f23b ac18 043f
00000080: 48d7 123f 3ea1 84be fb7a f83e 8dc4 8e3e
00000090: f9d4 4dbe bdc4 bb3e 14b0 043f d0d9 c7be
000000a0: ecf5 6abe f9fc 023e 420a 2fbf 4713 90be
000000b0: 3747 cabd 3735 14bf ceb7 9a3d b903 03bf
000000c0: cc8f 80bd 0cb8 ccbe 8edd 50be dbeb 57be
000000d0: f3dd f2bd 56b1 8c3d 92e3 9a3e 760f 7b3e
000000e0: 5828 b63e 210f 2abe b98c 373d 20ae c8be
000000f0: 8d13 ce3e 563c c33e 357d bb3c 3b7c aabe
00000100: 5726 9d3e 9845 af3e c7df 30be 48ce a73e
00000110: c0c0 28bd 17f9 ef3d f7aa 783e e69f 0abe
00000120: 688a 36be 83ef 90be c88e a43e 9f8e 793d
00000130: 4e8c 63be 0ad3 a43d 4b54 8b3e c635 7ebd
00000140: c834 743e 2ac2 8a3e 7c44 a73d 7a75 903e
00000150: 54c3 63be 75f3 f43d b575 0d3e 6af3 41bf
00000160: 08cd f1be 0588 16bf e14a 17bf 5c98 07bf
00000170: 6a7b 06bf a1bd e4be 1616 cabe 7af4 96be
00000180: aba2 94be 281d 36be 7b4f c4be 5948 49be
00000190: d6c0 4bbe b526 2d3e ca2d 793e 3e43 bf3e
000001a0: b5ca 503c 2ee8 993e 1b40 9ebe b29e 96be
000001b0: e6e6 ab3d ca2b 0abe c0f7 b33e b260 01be
000001c0: 6cb6 eb3d 3ba8 ee3e af73 e73d f47c 12be
000001d0: 7af0 9f3e 553a e5be a509 8fbd 7e95 a33d
000001e0: a3f5 6f3e f690 85be 27d2 063e 8d67 89be
000001f0: 8d1f 083e 2f36 d53d 95eb c93e 5f05 f1bd
00000200: ccc8 89be 03da 2cbd bf41 1ebd 293e e83d
00000210: da73 cbbd cd10 bd3e 04a9 6bbe 354d 533e
00000220: 3d97 293e d6dd ac3e b7af a3be 4238 993e
00000230: 485f a6be 89bd 773c d120 65be 04be 41bf
00000240: aa35 cd3e 4296 b23e cb14 1c3f 687e 193e
00000250: a4a9 393d 478d 1d3f ffed 7bbd bee5 5bbe
00000260: 4366 3e3e 7c05 a1be 764b b23e a7c5 a23e
00000270: 59c5 e1be 82a6 a5bd 11de d1be 9c31 2dbf
00000280: 1b84 abbe d8db 893e 4129 bebd af57 7ebe
00000290: 890e 643e 9adf 99be 3cad 553e 1fa5 673e
000002a0: 1378 023e f4fd 49be 39ce 863e 8346 7abe
000002b0: 7ac3 babe e1db 60be 078f 4abe 5d16 b83d
000002c0: 7b42 5abe 8d74 013e a4b6 fa3e 4d7a 85be
000002d0: 0bed 97bc 5518 723d ae69 6c3e 4eb3 323e
000002e0: 11ee cabe 3ec4 8b3e 8673 d43e 7375 75be
000002f0: 4e63 80be af70 e4bd 6db3 7cbe 0bf8 843e
00000300: e917 623e d52d 103e 3fc6 243e 98f2 ab3e
00000310: 7483 0f3e 666a da3c 5eed 0b3e 2130 99be
00000320: a568 6f3e 9d6f 82be 3152 cdbd 3094 49be
00000330: 5fb8 81bd 805a 863e 79a6 b63e 6c8d 68bf
00000340: 571b 19be 5a6c 83be 20a6 b3be 375f aebe
00000350: b247 cbbe 8b35 9abe a008 b6bd ddb8 1bbf
00000360: e329 fabd fe46 85be 44a1 cd3e 61c3 ffbd
00000370: a79c 1bbe 1cb3 ba3e 2543 c4be 5b83 9bbe
00000380: da01 863d 0315 37bd f13b 9e3d ff00 eb3e
00000390: b7bc 45be 01ea ef3e a01d 013e 2fc7 0bbf
000003a0: 6862 ffbe 14dd a9bd 9bf2 d13c af24 81be
000003b0: 322b 823e 94b7 2a3e cc14 d4be f583 5d3e
000003c0: 879b 8cbe 1f51 813e 1e70 113e 3ca9 d4be
000003d0: 6987 f2be 8097 e7bd 6d4a f2be e1e5 693e
000003e0: 06dc 10bc 78e0 cd3e cbc0 1fbd 9457 62be
000003f0: abb8 963e 1612 9bbe 131e bf3d e348 5bbe

gconvs.4.combination_weights f4 [4, 3]
0.39680007 0.34499502 0.3876729 0.39533418 0.34598926 0.38807756 0.39463702 0.34423834
0.3938751 0.3952563 0.34575394 0.3907125
00000000: 6129 cb3e 30a3 b03e 107d c63e 3e69 ca3e
00000010: 8125 b13e 1ab2 c63e dd0d ca3e 0240 b03e
00000020: ffa9 c93e 095f ca3e a906 b13e 780b c83e

gconvs.4.weight f4 [3, 6, 6, 4, 3, 3]
0.41572654 -0.030110095 -0.33990258 -0.1302175 -0.22030906 -0.24110086 0.3567253 0.456459
-0.07960634 0.24543095 -0.18621297 -0.30317453 0.60300255 -0.26247415 0.04120346 0.4368565
-0.1733759 -0.20205343 0.22712635 -0.325019 -0.2795992 -0.4073777 -0.40743166 0.17735375
0.19114307 -0.42966115 -0.34065405 -0.30893996 -0.04323157 -0.10247315 -0.23717307 -0.13355078
0.35236526 0.0012856326 -0.01956855 0.042495437 0.20398343 -0.043754138 0.1726541 0.38275188
-0.14503299 -0.38060942 -0.37888497 -0.16868906 -0.12412966 -0.7836743 -0.12669635 -0.34057188
-0.5184352 -0.0699848 -0.10584368 -0.19714093 -0.023682423 -0.16216688 0.44388202 -0.099177845
0.40234506 0.23357032 0.24495414 0.2863477 0.29863358 0.30311558 0.17714112 0.08930598
-0.090719104 0.041291654 0.39391226 -0.06681644 -0.044891633 0.18618192 0.23706317 -0.16807754
0.06553034 -0.6091629 -0.4844203 0.024563394 -0.1701384 -0.7679687 -0.20619662 -0.39506906
-0.6456935 0.11095396 0.059508353 0.10828348 -0.21262859 0.33067164 0.38360885 -0.44646704
-0.07185886 -0.11807252 -0.059766036 -0.046237692 -0.021674085 -0.17494339 -0.27143377 0.2826902
0.06686225 0.37011972 -0.16814494 0.03940249 0.4735346 0.22998586 0.2220086 0.3370291
0.056157842 -0.28596348 -0.2827305 -0.1732902 0.0046326807 0.17379217 0.19752912 -0.37060806
0.2520754 0.1498176 -0.57850367 0.025511406 -0.16078895 0.5058062 0.40635526 0.04514702
0.15298006 0.40107468 -0.30357775 0.13010868 0.18664806 -0.4276867 -0.23604293 0.09412254
0.31522217 -0.30583835 -0.26293197 0.24665633 0.23209289 -0.13070449 0.06052697 -0.7013234
-0.14857237 -0.011021104 -0.41371274 0.079026006 -0.0698319 0.35054484 -0.18534349 -0.29600334
-0.16557342 0.3674124 0.19334128 0.14096574 0.08514861 0.2087984 -0.049397163 -0.3154959
-0.36542624 0.29045665 0.07888133 0.060290854 0.2074912 0.5194621 0.046162356 0.13260975
0.39087823 -0.043194186 0.23825209 0.23528948 -0.3195912 0.32035783 0.019490825 0.39724106
-0.083068796 0.26337993 0.23293188 0.17895548 0.12407516 -0.1261553 0.14277408 0.13525322
-0.07767594 -0.05008182 0.21780382 -0.16561899 -0.31116807 -0.1487608 0.3924945 0.0011078506
0.35883275 -0.025313571 0.016027274 0.05060021 -0.23515837 -0.088722445 0.2953574 0.23139116
0.13225849 0.22516151 -0.09121229 -0.17405276 0.13164909 -0.28966948 -0.15180157 0.10578376
-0.2809038 0.53999656 -0.35887888 -0.61876667 0.3682518 -0.26291704 -0.68142635 -0.340986
0.4013124 0.37726548 -0.19462676 -0.4649991 -0.20473072 -0.11997903 -0.26476648 0.0072076507
-0.37424648 0.20902583 -0.24733949 -0.33236367 0.21829511 -0.33924276 -0.3659225 -0.33690926
-0.042521562 0.2744619 0.005520239 0.49782467 -0.29951468 0.25968683 0.19732016 -0.34643647
-0.462536 -0.028022762 0.08513938 0.2036625 0.15933773 -0.29705274 -0.3014887 0.016446965
-0.44591635 -0.28549904 0.09903661 0.16686185 0.140288 0.035694353 -0.38958287 -0.4892228
-0.29554808 0.36951372 -0.16654295 -0.59413636 0.48627812 -0.20000029 -0.58617675 0.27399457
00000000: 1cda d43e 72a9 f6bc b607 aebe bc57 05be
00000010: b398 61be 25e3 76be b3a4 b63e feb4 e93e
00000020: a608 a3bd 4052 7b3e 9dae 3ebe b139 9bbe
00000030: 605e 1a3f 0363 86be f6c4 283d a8ab df3e
00000040: 7489 31be 18e7 4ebe cf93 683e e468 a6be
00000050: a027 8fbe cf93 d0be e29a d0be 399c 353e
00000060: 02bb 433e 8cfc dbbe 356a aebe 612d 9ebe
00000070: 9613 31bd 71dd d1bd 7fdd 72be 89c1 08be
00000080: 3869 b43e ac82 a83a 394e a0bc b20f 2e3d
00000090: 08e1 503e 8a37 33bd 3dcc 303e 0ef8 c33e
000000a0: 8783 14be 3ddf c2be 36fd c1be d3bc 2cbe
000000b0: b137 febd e19e 48bf b0bc 01be 705f aebe
000000c0: 2bb8 04bf 3154 8fbd 92c4 d8bd 50df 49be
000000d0: a401 c2bc 130f 26be 8144 e33e c11d cbbd
000000e0: 2c00 ce3e 0f2d 6f3e 42d5 7a3e 2a9c 923e
000000f0: 80e6 983e f731 9b3e 7b64 353e 0ee6 b63d
00000100: f0ca b9bd 7021 293d deae c93e 0fd7 88bd
00000110: 4ae0 37bd 79a6 3e3e b0c0 723e 851c 2cbe
00000120: c534 863d 1af2 1bbf f005 f8be 2c39 c93c
00000130: c338 2ebe 9999 44bf 3525 53be 7e46 cabe
00000140: 2b4c 25bf d43b e33d 08bf 733d bbc3 dd3d
00000150: 4fbb 59be cb4d a93e 6168 c43e 5497 e4be
00000160: bd2a 93bd 01d0 f1bd 3bcd 74bd bc63 3dbd
00000170: da8d b1bc 5c24 33be 5ef9 8abe c5bc 903e
00000180: 13ef 883d 5580 bd3e 302e 2cbe 8164 213d
00000190: 2173 f23e 6a81 6b3e 3956 633e 148f ac3e
000001a0: c405 663d ce69 92be 0dc2 90be fc72 31be
000001b0: becd 973b 93f6 313e 1345 4a3e 57c0 bdbe
000001c0: 0710 813e c969 193e d118 14bf 4cfd d03c
000001d0: dca5 24be 847c 013f cc0d d03e 15ec 383d
000001e0: cea6 1c3e a959 cd3e 8b6e 9bbe 363b 053e
000001f0: ab20 3f3e c0f9 dabe 3db5 71be 51c3 c03d
00000200: cd64 a13e d896 9cbe 059f 86be 7a93 7c3e
00000210: c2a9 6d3e 66d7 05be 21eb 773d ee89 33bf
00000220: 5b23 18be dc91 34bc 28d2 d3be 63d8 a13d
00000230: 0704 8fbd 9d7a b33e afca 3dbe c08d 97be
00000240: 148c 29be 7a1d bc3e 42fb 453e 5359 103e
00000250: 6562 ae3d 3fcf 553e ae54 4abd ae88 a1be
00000260: 2619 bbbe bcb6 943e 898c a13d 8bf3 763d
00000270: 9378 543e 78fb 043f bd14 3d3d daca 073e
00000280: 3121 c83e 63ec 30bd 5bf8 733e baef 703e
00000290: 75a1 a3be f105 a43e 39ab 9f3c 2e63 cb3e
000002a0: f91f aabd bcd9 863e b285 6e3e 1b40 373e
000002b0: 1e1b fe3d db2e 01be 5e33 123e d27f 0a3e
000002c0: 9014 9fbd 9822 4dbd f707 5f3e 0698 29be
000002d0: 6c51 9fbe c054 18be 0af5 c83e 4c35 913a
000002e0: edb8 b73e 685e cfbc a14b 833c 2a42 4f3d
000002f0: 5bcd 70be 1db4 b5bd 1639 973e cef1 6c3e
00000300: c56e 073e bd90 663e 82cd babd e33a 32be
00000310: 05cf 063e 8f4f 94be df71 1bbe 28a5 d83d
00000320: 9fd2 8fbe 373d 0a3f f9be b7be 7e67 1ebf
00000330: 808b bc3e 109d 86be f571 2ebf b895 aebe
00000340: d278 cd3e f128 c13e 3d4c 47be 5d14 eebe
00000350: eea4 51be 91b7 f5bd 798f 87be 282e ec3b
00000360: 3c9d bfbe de0a 563e 9046 7dbe 922b aabe
00000370: c188 5f3e 3ab1 adbe 325a bbbe 5f7f acbe
00000380: 172b 2ebd 4586 8c3e 1fe3 b43b e0e2 fe3e
00000390: fd59 99be acf5 843e 4c0e 4a3e 1f60 b1be
000003a0: 85d1 ecbe fe8f e5bc 8e5d ae3d e78c 503e
000003b0: 6e29 233e 4c17 98be ba5c 9abe c9bb 863c
000003c0: 264f e4be ee2c 92be b5d3 ca3d d5dd 2a3e
000003d0: a8a7 0f3e 3e34 123d 6877 c7be 697b fabe
000003e0: 1452 97be e730 bd3e 3c8a 2abe 5219 18bf
000003f0: 72f9 f83e e0cc 4cbe ae0f 16bf 0449 8c3e

gconvs.5.combination_weights f4 [4, 3]
0.3983721 0.41331026 0.34671354 0.39636514 0.41224974 0.34182978 0.39704666 0.409514
0.34487757 0.3964148 0.4120695 0.34587368
00000000: 6ef7 cb3e 679d d33e 7084 b13e 5ff0 ca3e
00000010: 6612 d33e 5004 af3e b349 cb3e d2ab d13e
00000020: cb93 b03e e1f6 ca3e c6fa d23e 5b16 b13e

gconvs.5.weight f4 [3, 6, 6, 4, 3, 3]
-0.3675782 0.29094473 -0.029440945 -0.14239894 0.027085608 -0.016951509 -0.0035678865 0.32965013
-0.08098684 -0.22888239 -0.630045 -0.5202873 -0.5178029 -0.45067218 0.20061053 -0.37383974
0.0025138978 -0.16748175 0.43772075 -0.011508732 0.33221152 -0.3199217 -0.23681444 0.31894913
0.03049866 -0.0131997345 0.37208524 -0.20285726 0.15781343 0.3101049 0.40555182 0.20889616
-0.17634057 -0.22456467 0.41773716 0.06725089 -0.1959604 -0.20285028 -0.9098774 -0.7442666
-0.37401965 -0.23066294 -0.54762197 -0.6969915 -0.13050073 0.008308579 0.2945424 0.15103963
-0.18181895 -0.3035614 -0.44759887 -1.0685444 -0.36062697 -0.48734438 0.115122624 -0.43998447
-0.7457921 -0.094191246 -0.36124265 -0.4565025 -0.5126804 -0.5631429 0.12180085 -0.47239006
0.231666 -0.15861776 0.07099378 -0.18665741 0.037276033 0.19926603 -0.13144146 0.29510105
-0.48403013 -0.19492377 0.13840988 -0.19559425 -0.23879355 -0.013307274 -0.12892552 0.078146465
0.3068864 0.53316367 0.14553371 -0.32369086 -0.42079464 -0.0774813 -0.40619957 -0.42277744
-0.44071394 -0.8329534 -0.28470877 -0.28549886 -0.027066244 -0.35929832 -0.5275138 -0.32020324
-0.7895211 -0.025443165 -0.11182017 -0.38453323 -0.085185885 -0.5621677 0.031760335 -0.036503162
-0.46339864 -0.2741072 0.27275273 0.0036230036 0.5775056 -0.10688987 -0.43738678 -0.38876593
-0.5023848 -0.48072958 -0.124267265 0.08568737 0.04943834 0.55222 0.5627628 0.89338756
0.51317734 0.4133493 0.022230208 0.49447995 0.5686306 0.57619107 -0.44302967 -0.38657758
-0.6239817 -0.20224492 -0.29958826 -0.12946102 0.5632038 -0.08256186 0.12313285 -0.45356792
-0.058829848 -0.0064478093 -0.1646775 -0.009646946 0.4985241 -0.3911809 -0.51100886 0.11258834
-0.0045963633 -0.037688166 -0.3409654 0.37887678 0.21829568 -0.3352787 0.5669473 0.035097167
0.03531492 0.19272411 0.36409497 0.43298417 0.3193936 0.037618663 -0.3429051 -0.105148666
-0.3916531 -0.44621992 -0.19287999 0.03691352 0.18174236 0.14222161 0.0478512 0.30881408
-0.50743175 0.005697631 0.47210422 0.22906092 -0.35079205 0.20932588 0.31855804 -0.22100532
0.05764584 0.19805402 0.23741245 0.29635692 -0.21328421 -0.1084339 -0.2051793 -0.28456345
-0.21537095 -0.26870275 -0.7810323 -0.08758474 -0.26286742 -0.10425506 -0.3075422 0.08235602
-0.48852208 -0.45602217 -0.04527576 -0.5055197 -0.50091183 -0.07672796 -0.8953297 -0.5719231
-0.42909488 -0.31759286 0.117271855 -0.0060301414 -0.7929844 -0.24367008 0.055218916 -0.113130406
-0.1257934 0.020415846 -0.1774544 0.19740005 -0.41492698 0.29693228 -0.3740196 -0.4350927
0.23712146 0.1868244 0.28507614 0.21760868 0.075483344 0.45980394 -0.5803142 -0.3773179
-0.30798498 -0.104864694 0.22500387 -0.3860113 0.16782537 -0.14599392 -0.43020824 -0.053681023
-0.31000486 -0.35705182 -0.011717081 0.1644618 0.29648572 -0.22113617 0.40555397 -0.2939161
-0.0814528 -0.56736207 -0.22128995 -0.29633236 -0.17352888 0.41613343 -0.34727925 0.43368253
0.21871556 -0.0018588435 0.08773318 -0.109072424 -0.08736863 0.081407554 -0.5028591 -0.31486866
00000000: 3633 bcbe b5f6 943e 232e f1bc 07d1 11be
00000010: a3e2 dd3c e4dd 8abc 34d3 69bb e7c7 a83e
00000020: 6edc a5bd 2560 6abe a14a 21bf 8c31 05bf
00000030: bb8e 04bf 81be e6be d96c 4d3e ec67 bfbe
00000040: 35c0 243b 5680 2bbe ef1c e03e 1f8f 3cbc
00000050: a117 aa3e c7cc a3be 7c7f 72be 4d4d a33e
00000060: 53d8 f93c b343 58bc f581 be3e d0b9 4fbe
00000070: d899 213e 12c6 9e3e 7da4 cf3e e0e8 553e
00000080: 9f92 34be 48f4 65be a5e1 d53e d6ba 893d
00000090: d8a9 48be fcb7 4fbe baed 68bf 4288 3ebf
000000a0: 817f bfbe e832 6cbe f430 0cbf 096e 32bf
000000b0: fca1 05be b520 083c 43ce 963e 22aa 1a3e
000000c0: bf2e 3abe 666c 9bbe ae2b e5be 10c6 88bf
000000d0: 19a4 b8be 3485 f9be 69c5 eb3d a545 e1be
000000e0: 3bec 3ebf 57e7 c0bd ccf4 b8be b2ba e9be
000000f0: 063f 03bf 222a 10bf b972 f93d 1cdd f1be
00000100: da39 6d3e b26c 22be 3065 913d 1f23 3fbe
00000110: c1ae 183d 650c 4c3e 9798 06be 7c17 973e
00000120: ccd2 f7be 199a 47be 52bb 0d3e dc49 48be
00000130: 4c86 74be c106 5abc 0d05 04be 410b a03d
00000140: 3720 9d3e 6a7d 083f ca06 153e cfba a5be
00000150: 6572 d7be 84ae 9ebd 64f9 cfbe 4976 d8be
00000160: 42a5 e1be 6f3c 55bf 59c5 91be e82c 92be
00000170: 07ba ddbc f3f5 b7be 250b 07bf aef1 a3be
00000180: 0e1e 4abf 2f6e d0bc f901 e5bd 8ae1 c4be
00000190: f075 aebd 39ea 0fbf 2017 023d 5784 15bd
000001a0: 9642 edbe c757 8cbe 3fa6 8b3e ea6f 6d3b
000001b0: 68d7 133f 13e9 dabd 29f1 dfbe 540c c7be
000001c0: 4a9c 00bf 3022 f6be d67f febd dc7c af3d
000001d0: db7f 4a3d 4a5e 0d3f 3911 103f 0cb5 643f
000001e0: 975f 033f 85a2 d33e 201c b63c 7a2c fd3e
000001f0: c691 113f 4281 133f c9d4 e2be 7fed c5be
00000200: 44bd 1fbf 4b19 4fbe a263 99be 6e91 04be
00000210: 202e 103f 3116 a9bd 132d fc3d 0e3a e8be
00000220: 91f7 70bd 2548 d3bb 38a1 28be 390e 1ebc
00000230: 8d3e ff3e dd48 c8be 7ad1 02bf b794 e63d
00000240: 179d 96bb e85e 1abd 0493 aebe 23fc c13e
00000250: e788 5f3e a6a9 abbe 7523 113f 0cc2 0f3d
00000260: 61a6 103d 7859 453e a86a ba3e 1ab0 dd3e
00000270: 8f87 a33e 0716 1a3d 4291 afbe 2f58 d7bd
00000280: c186 c8be f076 e4be 5582 45be a232 173d
00000290: ab1a 3a3e 8ba2 113e 9fff 433d e11c 9e3e
000002a0: 0ce7 01bf 31b3 ba3b a5b7 f13e f28e 6a3e
000002b0: 049b b3be 8659 563e 0a1a a33e 384f 62be
000002c0: 0b1e 6c3d acce 4a3e 401c 733e 18bc 973e
000002d0: 2d67 5abe 9812 debd 861a 52be 4db2 91be
000002e0: 348a 5cbe 6893 89be bcf1 47bf a15f b3bd
000002f0: 8f96 86be ad83 d5bd 2c76 9dbe 46aa a83d
00000300: 911f fabe bd7b e9be 1373 39bd bd69 01bf
00000310: c23b 00bf 8c23 9dbd 5434 65bf 8d69 12bf
00000320: 53b2 dbbe 889b a2be 3a2c f03d 7e98 c5bb
00000330: 0701 4bbf a684 79be 3b2d 623d eab0 e7bd
00000340: fccf 00be 223f a73c 9bb6 35be 3d23 4a3e
00000350: 4f71 d4be 8207 983e 7f7f bfbe 78c4 debe
00000360: f8cf 723e e54e 3f3e 80f5 913e cfd4 5e3e
00000370: 0397 9a3d 6c6b eb3e 798f 14bf d02f c1be
00000380: 35b0 9dbe 4dc3 d6bd 6a67 663e 46a3 c5be
00000390: 6ada 2b3e 6e7f 15be 4144 dcbe a2e0 5bbd
000003a0: f5b8 9ebe 7fcf b6be 00f9 3fbc ad68 283e
000003b0: facc 973e 8571 62be c5a4 cf3e 2c7c 96be
000003c0: bad0 a6bd a43e 11bf d599 62be e0b8 97be
000003d0: 8eb1 31be 710f d53e 96ce b1be a30b de3e
000003e0: f9f6 5f3e 70a4 f3ba 74ad b33d 5d61 dfbd
000003f0: 53ee b2bd 01b9 a63d 60bb 00bf 7736 a1be

final_layer.combination_weights f4 [4, 3]
0.38055214 0.4938414 0.41282648 0.38085416 0.49382555 0.4126106 0.3807249 0.49405435
0.41253194 0.38054585 0.49345985 0.41326553
00000000: bbd7 c23e c8d8 fc3e fe5d d33e 51ff c23e
00000010: b4d6 fc3e b241 d33e 60ee c23e b1f4 fc3e
00000020: 6337 d33e e8d6 c23e c5a6 fc3e 8a97 d33e

final_layer.weight f4 [3, 6, 6, 4, 3, 3]
0.10384228 0.23736228 0.07739542 0.17207628 0.41968966 0.43454617 0.100004576 0.04246079
0.20507057 0.23023486 -0.17749316 0.47088298 -0.043820556 0.45162907 0.22159152 0.21440046
0.26181963 0.52872217 0.43837368 -0.058944937 0.3821883 0.14787778 -0.2216324 0.21651654
0.17677142 0.34480244 0.0044813263 0.5363529 -0.015546541 0.49481925 0.0434318 -0.03966334
0.06522291 -0.08940249 0.03774703 0.14319082 -0.05625995 -0.09248979 -0.21840517 -0.32017142
0.025384577 -0.32654318 -0.2543151 0.067007765 -0.2121732 -0.07302359 -0.23379423 -0.12740204
-0.4922308 0.13456254 -0.4660273 -0.47215804 -0.46163765 -0.20701458 -0.42500103 0.15343022
0.16747098 0.106627084 -0.36611724 -0.38996953 -0.5947187 -0.32922742 0.12769108 0.09443252
-0.44270164 -0.022988198 -0.32607192 -0.3074977 -0.44270816 0.0021702815 -0.29898366 0.13008289
-0.19049469 0.5788163 0.25132847 0.11263693 -0.039645508 -0.09314444 -0.032217238 0.33429253
0.5350175 0.14828499 0.30041048 0.06609096 0.43828464 -0.0951198 0.2925855 0.40677884
-0.01845319 0.51791036 -0.07601571 -0.19866443 0.11622952 -0.02265509 0.2718482 0.48297834
0.14057449 0.5667857 0.05038273 0.41257873 -0.047342964 0.5340492 0.47213462 -0.19693652
0.24220443 -0.1471276 0.14044945 0.44173476 0.18443942 0.42569223 0.17070562 0.28060573
-0.25720322 -0.20374443 -0.6309336 -0.0134343095 -0.4354061 -0.19124873 0.13260716 -0.37215742
-0.2692621 0.36886778 0.3092172 0.1743611 -0.024194216 0.030813748 -0.20990504 0.11290136
-0.6438914 0.20219845 0.047385577 -0.29474607 0.1705667 0.27914324 0.044570617 0.4711518
0.40557113 -0.485533 0.3261176 0.1471299 -0.023397863 0.22735764 0.23252048 -0.4544509
-0.03421616 -0.029408699 -0.30775806 0.22896373 -0.21060579 0.07080824 0.08639078 -0.48272157
-0.24993771 -0.44091535 0.074949 -0.06449599 -0.09677497 0.2207501 -0.01740798 -0.3576995
0.28983715 0.07927236 -0.10967101 -0.12079134 -0.3170609 -0.009991626 -0.012633007 -0.36074048
-0.14695767 -0.40724665 0.24360311 -0.44875628 -0.3477995 -0.006289341 0.0013906237 -0.2225462
-0.034911316 -0.011549424 -0.009180831 -0.21841589 0.019275352 0.02614843 0.51619524 0.48578283
0.19393994 -0.051083263 -0.25632867 -0.121786416 -0.02600859 -0.16234694 0.13805 0.41565013
-0.25291246 -0.045665905 0.100501105 0.32342222 0.36502448 0.18850827 0.41315782 -0.15635867
-0.066417985 0.19826493 0.48967245 -0.061764017 0.24847148 -0.14058246 -0.10906816 0.22989334
0.25521895 0.39207926 0.39592436 -0.006167252 -0.11384311 -0.067686334 -0.05051973 0.07134187
0.39781097 -0.044898722 -0.29139802 0.085181125 -0.17384265 0.24352425 -0.04563704 0.119548835
0.21567072 0.12898242 -0.3388168 0.17462379 0.14450449 -0.2862442 0.2594415 -0.28613818
-0.013027964 0.15347207 0.4431699 0.19163015 0.025047151 0.44770887 0.13983622 0.30850023
0.4586796 -0.20566992 0.21510985 0.17580669 -0.13130303 0.24340752 -0.15391836 -0.13444221
0.058682688 0.13600741 0.14867115 -0.026609924 -0.23719786 0.058560792 -0.06158482 0.09166466
00000000: 43ab d43d 190f 733e 7d81 9e3d c434 303e
00000010: 90e1 d63e d67c de3e 33cf cc3d 5eeb 2d3d
00000020: 05fe 513e b0c2 6b3e c4c0 35be 9317 f13e
00000030: 2f7d 33bd ed3b e73e e3e8 623e cb8b 5b3e
00000040: 390d 863e 565a 073f 8472 e03e 3f70 71bd
00000050: 2fae c33e 466d 173e 9bf3 62be 83b6 5d3e
00000060: 9103 353e f289 b03e 17d8 923b 6c4e 093f
00000070: ebb6 7ebc f358 fd3e 8be5 313d 0776 22bd
00000080: 9793 853d a718 b7bd a19c 1a3d 9da0 123e
00000090: d570 66bd 496b bdbd 9ba5 5fbe 82ed a3be
000000a0: 51f3 cf3c ab30 a7be 9735 82be 5e3b 893d
000000b0: ee43 59be 648d 95bd c167 6fbe ae75 02be
000000c0: ad05 fcbe c3ca 093e 219b eebe b3be f1be
000000d0: c55b ecbe a1fb 53be bc99 d9be d01c 1d3e
000000e0: 837d 2b3e 4d5f da3d b873 bbbe 16aa c7be
000000f0: 7c3f 18bf 7f90 a8be 73c1 023e d665 c13d
00000100: caa9 e2be bf51 bcbc e6f2 a6be 5770 9dbe
00000110: a5aa e2be 483b 0e3b 6314 99be 7334 053e
00000120: 0a11 43be 4e2d 143f 20ae 803e 31ae e63d
00000130: 5463 22bd 83c2 bebd 39f6 03bd 6428 ab3e
00000140: e8f6 083f 05d8 173e 67cf 993e b25a 873d
00000150: d866 e03e 2bce c2bd c4cd 953e 5145 d03e
00000160: 252b 97bc c695 043f 20ae 9bbd b06e 4bbe
00000170: be09 ee3d 2b97 b9bc b02f 8b3e f048 f73e
00000180: c2f2 0f3e de18 113f 1f5e 4e3d 853d d33e
00000190: b2ea 41bd 73b7 083f a1bb f13e baa9 49be
000001a0: 7004 783e 9ea8 16be fbd1 0f3e 0f2b e23e
000001b0: b0dd 3c3e 55f4 d93e 74cd 2e3e 8eab 8f3e
000001c0: 24b0 83be 61a2 50be dd84 21bf 941b 5cbc
000001d0: 8ced debe b5d6 43be 2cca 073e 6b8b bebe
000001e0: b9dc 89be 3ddc bc3e b851 9e3e b78b 323e
000001f0: f332 c6bc 1d6d fc3c 59f1 56be d438 e73d
00000200: 11d6 24bf 1c0d 4f3e 6117 423d f5e8 96be
00000210: 09a9 2e3e ddeb 8e3e ae8f 363d cf3a f13e
00000220: 05a7 cf3e c897 f8be e3f8 a63e 38a9 163e
00000230: e0ac bfbc 71d0 683e d919 6e3e caad e8be
00000240: 3f26 0cbd 83ea f0bc 7792 9dbe 7875 6a3e
00000250: 0ba9 57be e903 913d a6ed b03d 4827 f7be
00000260: acef 7fbe a8bf e1be dc7e 993d 7916 84bd
00000270: f531 c6bd 500c 623e 2e9b 8ebc 6424 b7be
00000280: 8965 943e 8c59 a23d 329b e0bd 7361 f7bd
00000290: ce55 a2be ebb3 23bc acfa 4ebc fab2 b8be
000002a0: 127c 16be a282 d0be 1873 793e 62c3 e5be
000002b0: c712 b2be d116 cebb 9745 b63a 27e3 63be
000002c0: 2bff 0ebd cc39 3dbc 326b 16bc 6aa8 5fbe
000002d0: 58e7 9d3c 3b35 d63c 5f25 043f 87b8 f83e
000002e0: 3198 463e af3c 51bd 833d 83be 286b f9bd
000002f0: f70f d5bc 473e 26be fb5c 0d3e 18d0 d43e
00000300: be7d 81be 2c0c 3bbd 86d3 cd3d 9997 a53e
00000310: 7de4 ba3e 5008 413e 6c89 d33e 7d1c 20be
00000320: 2706 88bd f605 4b3e 59b6 fa3e 44fc 7cbd
00000330: 4f6f 7e3e d9f4 0fbe 215f dfbd 2969 6b3e
00000340: 0fac 823e 9dbe c83e 99b6 ca3e a916 cabb
00000350: 9426 e9bd 229f 8abd c7ed 4ebd b01b 923d
00000360: e1ad cb3e b9e7 37bd 1f32 95be 7173 ae3d
00000370: cf03 32be 6c5e 793e e8ed 3abd 05d6 f43d
00000380: c9d8 5c3e f813 043e 6579 adbe 94d0 323e
00000390: fcf8 133e 9a8e 92be 84d5 843e b480 92be
000003a0: 3e73 55bc c827 1d3e 2ae7 e23e b23a 443e
000003b0: af2f cd3c 193a e53e 3a31 0f3e bef3 9d3e
000003c0: 0dd8 ea3e 239b 52be c245 5c3e ab06 343e
000003d0: 4d74 06be d23f 793e c69c 1dbe 38ab 09be
000003e0: 425d 703d 8745 0b3e 403d 183e 0efd d9bc
000003f0: ffe3 72be 71dd 6f3d 5d40 7cbd aeba bb3d
