runs/RelaxedP4CNN_iso_std0.3_gamma2_lr0.002/model.pt (torch, 116029 bytes, 18 tensors)

lifting_conv.combination_weights f4 [3, 4]
0	0xbd768c7e	-0.060192578
1	0xbd4dd4cf	-0.05025178
2	0xbd6bedfa	-0.0576
3	0xbd499fd4	-0.04922469
4	0xbdfbec51	-0.12300933
5	0xbdf6708b	-0.120331846
6	0xbdfa78f2	-0.122301
7	0xbdf8bfa2	-0.12145926
8	0x3dcdd6fd	0.100507714
9	0x3dce8d9b	0.10085603
10	0x3dd15f83	0.102232955
11	0x3dc7976f	0.097456805

lifting_conv.weight f4 [3, 6, 1, 3, 3]
0	0x3e7a6a43	0.24454598
1	0xbe0a90e1	-0.1353183
2	0x3c56f0b5	0.0131189125
3	0x3ec371be	0.38172716
4	0xbe924421	-0.28567603
5	0xbe48191d	-0.1954083
6	0xbd76cfa5	-0.06025662
7	0xbdd5146c	-0.10404286
8	0xbe698010	-0.22802758
9	0xbe805891	-0.2506757
10	0xbeebb7df	-0.4603872
11	0x3e9e0440	0.30862617
12	0xbdb1b5a8	-0.08677226
13	0x3eab6501	0.33475497
14	0xbd755786	-0.059897922
15	0xbc912f5a	-0.017722774
16	0x3e212ff2	0.15740946
17	0x3e959838	0.29217696
18	0x3e81ca15	0.2534949
19	0xbe284887	-0.16433917
20	0x3caf50e5	0.021400878
21	0x3ed3b488	0.41348672
22	0xbc27f427	-0.010251082
23	0xbd2bdbbf	-0.041957613
24	0x3e4d53bc	0.20051473
25	0x3e7cb958	0.24680078
26	0xbedbcb54	-0.42928565
27	0x3e315f1d	0.17321439
28	0xbdb5ef00	-0.08883476
29	0x3edc3621	0.43010047
30	0x3e92ddd3	0.28684863
31	0xbe5ac5ce	-0.21364519
32	0x3caa8f0c	0.020820163
33	0x3b3bef37	0.0028676519
34	0x3dd6d575	0.104899324
35	0xbe431cf2	-0.1905401
36	0xbf177324	-0.59160066
37	0xbedc91f7	-0.43080112
38	0xbe2fc38a	-0.17164436
39	0xbe54f812	-0.20797756
40	0x3e87694b	0.2644752
41	0x3e9a2b75	0.3011128
42	0x3eaf829f	0.34279343
43	0xbe76df64	-0.24108654
44	0x3c3d81c5	0.011566584
45	0x3e8401f2	0.25782734
46	0xbe2ce64c	-0.16884726
47	0xbe2b183a	-0.1670846
48	0x3e339c7d	0.17540164
49	0x3e1b4af9	0.15165319
50	0x3e413a42	0.1886988
51	0x3dc01db5	0.09380666
52	0xbda5e8c0	-0.08101034
53	0x3e1dc5f0	0.15407538
54	0x3de13982	0.10997297
55	0xbe4bc43a	-0.19899073
56	0xbead487c	-0.33844364
57	0xbde8acf0	-0.1136111
58	0x3d9ceaf8	0.07662004
59	0xbe8df40b	-0.27725253
60	0x3dc8b6a3	0.0980046
61	0x3d9df80e	0.07713328
62	0xbeb4a47c	-0.35281742
63	0x3de2b429	0.11069519
64	0xbe8ea3a5	-0.27859226
65	0x3de64eae	0.11245476
66	0xbe6f2ce8	-0.23356974
67	0x3ea21968	0.31660008
68	0x3e1c1b53	0.15244798
69	0xbe23d71c	-0.16000026
70	0xbde72ffc	-0.11288449
71	0x3c363aa3	0.0111223785
72	0x3e8623d0	0.26199198
73	0x3ecb545b	0.39712796
74	0xbf156d74	-0.5837014
75	0x3df6cf43	0.12051251
76	0x3e4812b8	0.1953839
77	0xbe34ba4f	-0.17649196
78	0x3e02105c	0.12701553
79	0x3e5afb38	0.21384895
80	0xbe2bd1c5	-0.1677924
81	0xbd88bb50	-0.06676352
82	0xbea87240	-0.32899666
83	0x3eb8838d	0.36037865
84	0x3ebfd532	0.37467343
85	0xbe2534e0	-0.16133451
86	0x3e5c1bba	0.21494952
87	0xbdcf7b5d	-0.101309516
88	0x3ecaac9e	0.3958482
89	0x3d8bf6b1	0.06834162
90	0xbf04eaab	-0.51920575
91	0xbc061c93	-0.008185524
92	0x3e81a57e	0.25321573
93	0xbe4b76b9	-0.19869508
94	0xbe4abb3e	-0.1979799
95	0xbe6291f5	-0.2212599
96	0x3d8f2d01	0.06991006
97	0x3de136a8	0.10996753
98	0x3e1a2246	0.15052137
99	0xbe86cc4c	-0.2632774
100	0x3d13af2f	0.03605574
101	0x3e63862a	0.22219148
102	0xbe88d36f	-0.2672381
103	0x3d9e1e0d	0.077205755
104	0x3df9e4d0	0.12201846
105	0xbe316a23	-0.17325644
106	0x3d1625e3	0.036657225
107	0xbd0bff8d	-0.03417926
108	0x3e0051db	0.12531225
109	0xbd9f0abf	-0.077657215
110	0x3bc8feec	0.0061339047
111	0xbcf49987	-0.029858364
112	0x3e2e7f40	0.1704073
113	0xbe4cf8c0	-0.20016766
114	0x3dd86121	0.10565401
115	0x3ebe622f	0.37184283
116	0xbe15090b	-0.14554231
117	0xbe5d8a12	-0.21634701
118	0x3d2b9246	0.041887544
119	0xbea397ce	-0.31951755
120	0xbe85e031	-0.26147607
121	0xbdd2646b	-0.102730595
122	0x3e464b8f	0.19364761
123	0xbc9704c5	-0.018434891
124	0x3e834ccc	0.2564453
125	0x3d97aff3	0.074066065
126	0xbec8654e	-0.3913979
127	0xbd8306c7	-0.06397777
128	0x3efa4629	0.48881653
129	0xbf106ef1	-0.56419283
130	0xbe88e12b	-0.2673429
131	0x3e9cf0a0	0.30652332
132	0xbe0dbd6d	-0.13841791
133	0xbd9b2929	-0.0757621
134	0x3ef67966	0.48139495
135	0x3e605f9f	0.21911477
136	0x3dd4ea3d	0.1039624
137	0xbf0781ec	-0.5293262
138	0x3c64978e	0.013952149
139	0x3ea339ac	0.31879938
140	0x3e63ec53	0.2225812
141	0xbecf20bf	-0.4045467
142	0x3d1fe4e5	0.03903665
143	0x3d3ea4d8	0.046543926
144	0x3f39d220	0.7258625
145	0x3e98e17d	0.29859534
146	0xbdae5e52	-0.08514084
147	0x3e3f4bc2	0.18681243
148	0x3e21f1f6	0.15814957
149	0xbe6b12db	-0.22956412
150	0x3de91ffb	0.11383053
151	0xbe668b3f	-0.22514056
152	0xbe03ae22	-0.12859395
153	0x3dd724bd	0.10505054
154	0x3c48171d	0.012212542
155	0x3e27d96c	0.16391534
156	0x3e83e4f7	0.25760624
157	0x3e821a6b	0.2541078
158	0xba51e268	-0.00080064544
159	0x3e51c395	0.20484765
160	0x3de1c003	0.110229515
161	0xbe493bd7	-0.19651733

gconvs.0.combination_weights f4 [4, 3]
0	0x3e9b478e	0.3032803
1	0x3eb5f70c	0.35540044
2	0x3e8c7d9f	0.2743959
3	0x3e9b737e	0.3036155
4	0x3eb54ea2	0.35411555
5	0x3e89cb96	0.26913136
6	0x3e9ba34b	0.3039802
7	0x3eb835d5	0.3597857
8	0x3e8c6e84	0.27428067
9	0x3e9b61cd	0.30348054
10	0x3eb67bad	0.35641232
11	0x3e8c15f3	0.27360496

gconvs.0.weight f4 [3, 6, 6, 4, 3, 3]
0	0x3e98c084	0.29834378
1	0xbe443f93	-0.19164877
2	0x3e363050	0.17791867
3	0x3e6c4f28	0.2307707
4	0x3e29d6e0	0.16585875
5	0xbe5cef0f	-0.21575569
6	0xbdcb131e	-0.09915756
7	0xbcffbbdf	-0.031217514
8	0xbea5c552	-0.32377106
9	0x3e82e0f3	0.25562248
10	0x3ec11fae	0.37719482
11	0xbef33387	-0.4750025
12	0xbe074485	-0.13209732
13	0x3e449ceb	0.19200484
14	0xbe517055	-0.20453008
15	0x3d40537e	0.046954624
16	0xbcbe3270	-0.02321741
17	0x3ae0a092	0.0017137697
18	0x3de2a45c	0.11066505
19	0x3e96e0e8	0.29468465
20	0xbdee8399	-0.11646194
21	0xbe4992c0	-0.19684887
22	0xbd64efe3	-0.055892836
23	0x3ea7e17d	0.3278922
24	0xbeb9c4b3	-0.36282882
25	0xbce2215d	-0.0276038
26	0xbdee9a6e	-0.11650549
27	0xbefd1cd6	-0.49436063
28	0x3e31cec6	0.17364034
29	0xbe9dd941	-0.30829814
30	0xbe77a48e	-0.24183866
31	0x3c995dad	0.018721426
32	0xbe8ed824	-0.27899277
33	0xbe5e3dc7	-0.21703254
34	0xbeb27092	-0.3485151
35	0xbeaa8654	-0.3330561
36	0x3ee61442	0.4493733
37	0x3e08150f	0.13289283
38	0x3e272a44	0.16324717
39	0xbdc54055	-0.09631411
40	0xbe918adb	-0.2842625
41	0x3eac4563	0.33646688
42	0x3e8c0fc6	0.27355784
43	0x3e5fa899	0.21841659
44	0xbeec67db	-0.46172985
45	0xbeb2ec6f	-0.3494601
46	0x3e19cad6	0.15018782
47	0x3eb4af8a	0.35290176
48	0xbd2f4679	-0.042791817
49	0x3e847a0b	0.2587436
50	0x3ecf8454	0.40530646
51	0x3d70dc4c	0.05880384
52	0x3e9070fb	0.28211197
53	0x3f06157d	0.5237654
54	0xbeb58c42	-0.3545857
55	0x3e1dc7f3	0.15408306
56	0xbea6fb0c	-0.3261341
57	0x3e408ec0	0.18804455
58	0x3e9b72f6	0.30361146
59	0x3ddd9041	0.1081853
60	0x3ed98523	0.42484388
61	0x3e0c0a13	0.13675718
62	0xbedaa9cd	-0.42707673
63	0xbd38e71c	-0.045142278
64	0x3ea83686	0.32854098
65	0x3ec027a4	0.37530243
66	0x3d83fc1c	0.064445704
67	0x3cbad2dd	0.022805626
68	0x3d575eaf	0.05258053
69	0x3e58a7cb	0.21157758
70	0x3ec01de3	0.37522802
71	0xbea9bc52	-0.3315149
72	0x3e22e407	0.15907298
73	0x3cd8bb61	0.026456537
74	0xbdb6750d	-0.089090444
75	0x3dffe38f	0.12494575
76	0x3d8bb407	0.06821447
77	0x3e6becaf	0.23039506
78	0xbe6f2384	-0.23353392
79	0xbbef9011	-0.007310875
80	0xbe3e086b	-0.18557899
81	0x3dba8e57	0.091091804
82	0xbece1655	-0.40251413
83	0x3eb746c3	0.35796174
84	0x3e348fac	0.17632931
85	0x3e14466b	0.14479987
86	0x3bde6a37	0.006787564
87	0x3ceeda7d	0.029156918
88	0xbe03bb68	-0.12864459
89	0xbefa0cfb	-0.48838028
90	0x3e13f088	0.14447224
91	0xbe64590f	-0.22299598
92	0xbea7a6ce	-0.3274445
93	0xbce89a0b	-0.028393766
94	0xbc223554	-0.00990041
95	0xbd4a7626	-0.04942908
96	0x3b812933	0.003941679
97	0xbed7b5a2	-0.42130762
98	0xbdf56171	-0.11981476
99	0xbe00d720	-0.12582064
100	0x3e69cfc4	0.22833163
101	0x3d320759	0.04346404
102	0x3eb96cf8	0.3621595
103	0x3ea2cdf5	0.31797758
104	0x3db129cc	0.0865055
105	0x3e0e5b1f	0.13901947
106	0xbedcfb97	-0.43160698
107	0x3d2cc067	0.042175677
108	0x3f22562a	0.63412726
109	0x3f0c40f3	0.54786605
110	0x3e3eb37b	0.18623154
111	0x3f070dea	0.52755606
112	0x3ed20ba9	0.4102452
113	0xbdc9ac68	-0.09847337
114	0xbdf2fd70	-0.118647456
115	0xbc83cc14	-0.016088523
116	0xbcce6126	-0.025192808
117	0x3f1abdcb	0.6044585
118	0x3eeb1208	0.45912194
119	0x3e2c43fb	0.16822807
120	0x3edd7c58	0.4325893
121	0xbcf3af26	-0.029746603
122	0x3e42e013	0.1903079
123	0x3eaaee15	0.33384767
124	0xbe0e99b6	-0.13925824
125	0x3ee8707e	0.45398325
126	0x3e4cf8e5	0.2001682
127	0x3e3002ac	0.17188519
128	0x3e209fd0	0.15685964
129	0x3dfe7f13	0.12426581
130	0xbc204aaa	-0.009783426
131	0x3d8000b8	0.06250137
132	0x3ef01d48	0.4689734
133	0xbc0c42fa	-0.00856089
134	0xbd96a555	-0.07355753
135	0x3eb061e8	0.34449697
136	0xbe53885b	-0.20657484
137	0x3ec84b89	0.3912013
138	0x3ea4e415	0.32205263
139	0x3f021395	0.5081113
140	0x3e99f85a	0.3007229
141	0x3f1ddcd6	0.61665094
142	0x3e84b7ac	0.2592138
143	0x3ebc9032	0.36828762
144	0xbed1fc3b	-0.4101275
145	0xbdd2dbe2	-0.102958456
146	0x3e4d06be	0.20022103
147	0xbe65f9a2	-0.22458509
148	0xbecaa896	-0.39581746
149	0x3eb46990	0.35236788
150	0xbdd0f57d	-0.10203073
151	0x3eafe0f7	0.34351322
152	0xbecad7af	-0.3961768
153	0x3ecae832	0.39630276
154	0xbd99d519	-0.07511348
155	0x3da32cb3	0.0796751
156	0x3eadd776	0.33953446
157	0xbe66cd36	-0.2253922
158	0xbe86aaa4	-0.26302063
159	0xbdf1f027	-0.118133835
160	0x3ec9135b	0.3927258
161	0x3de55dfd	0.111995675
162	0xbe51cf3d	-0.20489211
163	0xbcab92e1	-0.02094406
164	0xbe886cee	-0.26645607
165	0x3d32f4f5	0.04369064
166	0xbe0633da	-0.13105717
167	0xbe99bba3	-0.30025968
168	0x3ee97125	0.45594135
169	0x3d1ae15d	0.03781258
170	0xbefbb0a8	-0.49158216
171	0x3e8854ff	0.26627347
172	0x3e39a58b	0.18129556
173	0x3eb84a27	0.35994074
174	0xbb80b345	-0.0039276206
175	0x3e951234	0.2911545
176	0x3e4ed490	0.20198274
177	0x3e122661	0.14272453
178	0x3e390af0	0.18070579
179	0xbe9868bc	-0.29767406
180	0x3d839f99	0.06426925
181	0xbeb36bea	-0.3504327
182	0x3dc480f8	0.09594911
183	0xbebad28e	-0.36488765
184	0xbb0e8629	-0.0021747446
185	0x3e988cf3	0.29795036
186	0x3e52580c	0.205414
187	0x3e72b141	0.2370043
188	0x3d471792	0.048606463
189	0x3e9bcd41	0.30430034
190	0x3ed48d33	0.41513976
191	0xbed4cceb	-0.4156259
192	0x3ee0dcdd	0.43918505
193	0xbe14067e	-0.14455602
194	0xbeabdf99	-0.3356903
195	0x3e6786f3	0.22610073
196	0xbe76b257	-0.24091469
197	0x3dff0d47	0.12453704
198	0x3d5bf47d	0.05369996
199	0xbdaaa5b4	-0.083323866
200	0xbd00f3ac	-0.031482384
201	0xbe8381fb	-0.25685105
202	0x3deb84da	0.11499949
203	0x3e044c17	0.12919651
204	0x3cb22c21	0.021749558
205	0xbed8d081	-0.42346576
206	0x3b7af849	0.0038294962
207	0xbe0e89ee	-0.13919804
208	0x3eaeb3fb	0.3412169
209	0x3eae6e18	0.3406837
210	0x3e78250e	0.24232885
211	0xbe9d1f0a	-0.30687743
212	0xbdb9af18	-0.090665996
213	0x3ebeffe4	0.37304604
214	0xbead1c17	-0.33810493
215	0xbd20171e	-0.039084546
216	0x3ebe44bc	0.37161815
217	0xbe836908	-0.2566607
218	0xbe856a49	-0.26057652
219	0x3e828f1b	0.25499806
220	0x3e03b79a	0.12863007
221	0xbe576194	-0.21033317
222	0xbe2a4691	-0.16628481
223	0xbe65494d	-0.22391243
224	0xbeeb4f51	-0.4595895
225	0x3db267d9	0.087112136
226	0x3dabae90	0.083829045
227	0x3ecb2cba	0.3968256
228	0x3e946eca	0.28990775
229	0xbe1c9314	-0.15290481
230	0xbe9c9978	-0.30585837
231	0x3ecd1e36	0.40062112
232	0xbcb15727	-0.021648003
233	0x3e18e870	0.14932418
234	0x3dbd87d0	0.0925442
235	0x3e6489bc	0.22318166
236	0x3dd94a17	0.10609835
237	0x3e8f00e6	0.27930373
238	0x3eaa83f9	0.33303812
239	0xbeadb421	-0.3392649
240	0x3f0c0f43	0.5471079
241	0x3e500a6f	0.2031648
242	0xbe4ab010	-0.19793725
243	0x3cf68ef3	0.03009746
244	0x3cd7f796	0.026363175
245	0x3e89762c	0.2684797
246	0xbbd28bed	-0.006425372
247	0xbdf4d037	-0.11953776
248	0xbe5c46c3	-0.21511368
249	0x3ec2c54f	0.3804116
250	0x3e996294	0.29958022
251	0xbec34a47	-0.38142607
252	0x3e3d5512	0.18489483
253	0xbeaeb998	-0.34125972
254	0xbe31fa74	-0.17380697
255	0x3d52e680	0.051489353

gconvs.1.combination_weights f4 [4, 3]
0	0x3ed0195b	0.40644345
1	0x3e91a5c6	0.28446788
2	0x3e8f777a	0.2802084
3	0x3ed2e494	0.41190016
4	0x3e947754	0.2899729
5	0x3e90c672	0.28276402
6	0x3ed13aaa	0.4086507
7	0x3e921fca	0.28539878
8	0x3e8fb213	0.28065547
9	0x3ed20995	0.41022936
10	0x3e928562	0.28617388
11	0x3e900049	0.28125218

gconvs.1.weight f4 [3, 6, 6, 4, 3, 3]
0	0x3e2a55b6	0.16634259
1	0x3f11ca84	0.5694964
2	0xbeb54bba	-0.35409337
3	0x3ea74b79	0.3267477
4	0xbe82de35	-0.25560156
5	0xbf6709b0	-0.90249157
6	0x3ea3fef9	0.32030466
7	0xbe2aae1d	-0.16667981
8	0xbebe63df	-0.3718557
9	0xbebc8838	-0.36822677
10	0xbef4c600	-0.47807312
11	0x3e3a12ed	0.18171282
12	0xbd83ae4e	-0.0642973
13	0xbde70979	-0.11281104
14	0x3eae62eb	0.34059843
15	0xbe86cf18	-0.26329875
16	0xbe5d9a7b	-0.21640961
17	0x3d8c3290	0.068455815
18	0xbea67daa	-0.3251775
19	0x3e2fabd5	0.17155392
20	0x3e2ebbe4	0.17063862
21	0x3d91aa0f	0.07112514
22	0x3ec53ac7	0.38521406
23	0x3de49ade	0.11162351
24	0xbe33980a	-0.17538467
25	0x3d041679	0.032247994
26	0x3bf30c67	0.00741725
27	0x3f0f6783	0.5601732
28	0xbd44bcb3	-0.04803152
29	0x3efedbbe	0.49777025
30	0xbe0b65de	-0.13613078
31	0x3e64bd5b	0.22337858
32	0xbe49ee5a	-0.1971983
33	0xbd840537	-0.06446307
34	0xbe72cb22	-0.23710302
35	0xbd23ef9e	-0.04002344
36	0xbe2668d3	-0.16250925
37	0xbd24a219	-0.04019365
38	0x3e6d246d	0.23158427
39	0xbe0b7977	-0.13620554
40	0x3e57a2e6	0.21058235
41	0xbe4e0b3d	-0.20121475
42	0x3e647ca5	0.22313173
43	0xbea523e4	-0.32253945
44	0x3de371fc	0.11105725
45	0x3dc740e9	0.097291775
46	0x3e441129	0.19147171
47	0x3e7e5f4e	0.24841043
48	0xbe6ce357	-0.23133598
49	0x3e170048	0.14746201
50	0x3dd416fa	0.10355945
51	0xbd22a1c9	-0.03970507
52	0x3e10f8ec	0.14157456
53	0x3ee5b1f1	0.4486232
54	0x3dc91e27	0.09820204
55	0xbda73885	-0.08165077
56	0xbebfdf24	-0.3747493
57	0xbe1ba7ae	-0.15200683
58	0xbe271be8	-0.16319239
59	0x3de84e3a	0.113430455
60	0x3d2a62e4	0.041598216
61	0xbe948077	-0.2900426
62	0xbd7a05eb	-0.0610408
63	0x3e0d67e4	0.13809162
64	0x3e0558c5	0.13022144
65	0x3dc01c27	0.0938037
66	0x3e6d161a	0.23152962
67	0x3d3e80ed	0.046509672
68	0x3e2520bd	0.1612577
69	0x3edb5e70	0.42845488
70	0x3eb8ce71	0.36095002
71	0xbeb6ba26	-0.35688895
72	0xbf11a322	-0.56889546
73	0x3d2ec1e5	0.04266538
74	0xbdc473ba	-0.095923856
75	0x3e043577	0.1291102
76	0xbeaa53c7	-0.33267042
77	0xbe9df206	-0.30848712
78	0xbd763f02	-0.060118683
79	0x3ec5ea75	0.3865544
80	0x3ee80396	0.45315236
81	0x3df8f6af	0.12156426
82	0xbf0aedd4	-0.54269147
83	0xbe219367	-0.15778886
84	0xbec7fa37	-0.39058086
85	0xbf1869ce	-0.59536445
86	0x3bb54eb3	0.0055330633
87	0xbeb2226d	-0.3479189
88	0x3bb42f4f	0.0054988037
89	0xbe77e366	-0.2420784
90	0xbe5ae216	-0.21375307
91	0x3d19f884	0.03759052
92	0x3e5f2a4f	0.21793483
93	0xbe5809a3	-0.21097426
94	0x3e3c0cd8	0.18364275
95	0x3e925107	0.28577444
96	0x3f0e33df	0.555479
97	0x3f077eeb	0.52928036
98	0x3e48766e	0.19576427
99	0xbf48c913	-0.78431815
100	0xbf270974	-0.652488
101	0x3d4a65db	0.049413543
102	0xbf311e1d	-0.69186574
103	0xbf3c9e25	-0.7367881
104	0x3e49ee98	0.19719923
105	0x3dbe5164	0.09292868
106	0x3e2a47dd	0.16628976
107	0x3e9c1351	0.30483487
108	0x3f0f48e8	0.5597062
109	0x3f0d1e65	0.55124503
110	0x3e9997af	0.29998538
111	0x3ede3afa	0.4340437
112	0xbd856f14	-0.06515327
113	0xbefa1959	-0.48847464
114	0xbe995e9c	-0.29954994
115	0xbf243551	-0.64143854
116	0xbf043bc2	-0.51653683
117	0xbf30eb88	-0.6910939
118	0xbf18e4ef	-0.59724325
119	0xbde7d287	-0.11319452
120	0xbd83ac82	-0.06429388
121	0x3d8eda07	0.06975179
122	0x3dc7ca0b	0.097553335
123	0xbe8bebc5	-0.27328315
124	0xbe0de766	-0.13857803
125	0xbeaa9a6a	-0.33320934
126	0xbf5d93e6	-0.865538
127	0xbe9b23bc	-0.303007
128	0xbe7d0e1b	-0.24712412
129	0x3dc21478	0.0947656
130	0x3ed12289	0.4084666
131	0x3e2a065f	0.16603993
132	0x3e5e6824	0.21719414
133	0x3ef42d22	0.47690684
134	0xbddd6625	-0.10810498
135	0x3e2c427d	0.16822238
136	0xbd85b715	-0.06529061
137	0x3c50fcf6	0.012755623
138	0xbd0f2fda	-0.034957744
139	0xbef69bdd	-0.4816579
140	0xbe643d99	-0.22289123
141	0xbeeafd56	-0.45896405
142	0xbeceffeb	-0.40429625
143	0xbd876e28	-0.066128075
144	0xbee17748	-0.44036317
145	0x3d8ac8f3	0.06776609
146	0x3e53ce5e	0.20684192
147	0xbedbcd00	-0.4292984
148	0x3e8181e5	0.25294414
149	0xbe8b9b37	-0.27266857
150	0xbc951387	-0.018197788
151	0x3e6c7f61	0.23095466
152	0xbdd0a47b	-0.10187622
153	0xbe19d451	-0.15022399
154	0xbe98fc67	-0.29880068
155	0xbe6de8f4	-0.23233396
156	0x3e453750	0.19259381
157	0x3ea2834d	0.317408
158	0x3dbdfb99	0.09276504
159	0x3e8cc5ad	0.27494565
160	0xbd854efc	-0.06509206
161	0xbdde7d71	-0.1086377
162	0x3f09b151	0.5378619
163	0x3ee2b251	0.4427667
164	0x3ef4af98	0.47790217
165	0x3cffb5f1	0.031214686
166	0xbeb98c42	-0.3623982
167	0xbe7397c2	-0.2378836
168	0x3eab1482	0.33414084
169	0xbe973e75	-0.29539838
170	0x3d53d428	0.051716
171	0xbf0c18ff	-0.5472564
172	0xbd1c7ef0	-0.038206995
173	0xbd63d832	-0.0556261
174	0xbee66881	-0.45001605
175	0xbe571733	-0.21004944
176	0x3e1cdaea	0.15317884
177	0x3e4afbfa	0.19822684
178	0x3e2721b6	0.16321453
179	0x3ef46fd6	0.47741574
180	0x3d02cac8	0.03193167
181	0xbe7ca4d7	-0.24672256
182	0x3e712d1e	0.23552367
183	0x3dda39c1	0.10655547
184	0xbd937f2b	-0.0720199
185	0xbde09917	-0.109666996
186	0xbdb8f099	-0.09030265
187	0xbf217d11	-0.6308146
188	0x3eb21d16	0.34787816
189	0xbebf5d18	-0.37375712
190	0x3dd167e8	0.10224897
191	0x3e1d9cbe	0.15391824
192	0x3ed63800	0.418396
193	0x3e8a79bd	0.27046004
194	0xbee19c89	-0.4406474
195	0x3eed15eb	0.46305785
196	0x3d935b5c	0.0719516
197	0xbe745b84	-0.23863035
198	0x3e8a89d4	0.2705828
199	0x3dd5a202	0.10431291
200	0x3e9d3b3d	0.30709258
201	0xbdcf6785	-0.10127167
202	0xbe0d646d	-0.1380784
203	0xb6dbab56	-6.5466547e-06
204	0xbe55ebfc	-0.20890802
205	0xbecd9774	-0.40154612
206	0x3d58b900	0.052910805
207	0x3f029442	0.51007473
208	0x3f24cca2	0.64374745
209	0xbe557957	-0.20847069
210	0x3ea02946	0.3128149
211	0xbd149912	-0.03627879
212	0xbe85ee42	-0.2615834
213	0xbdb06a18	-0.08613986
214	0x3e102ff8	0.14080799
215	0xbd20cc0b	-0.03925709
216	0xbde41bf3	-0.111381434
217	0x3e9061c4	0.2819959
218	0xbead47a1	-0.3384371
219	0xbe687995	-0.2270263
220	0x3e4d5ea1	0.2005563
221	0x3e97a263	0.2961608
222	0xbd9a763b	-0.07542082
223	0x3f04b5b1	0.5183974
224	0x3edc2048	0.4299338
225	0x3d50ae56	0.05094751
226	0x3e8e5937	0.2780244
227	0xbe8724d1	-0.26395276
228	0xbe751e6a	-0.23937383
229	0x3d8ed29f	0.069737665
230	0xbeaab4a3	-0.3334094
231	0x3d85d883	0.06535437
232	0x3eaadfe3	0.33373937
233	0xbe58e10c	-0.21179599
234	0xbea06d2c	-0.31333292
235	0xbf1a6566	-0.6031097
236	0xbf078b58	-0.52946997
237	0xbd0385ae	-0.03210991
238	0x3ed6869e	0.4189958
239	0x3e921138	0.28528762
240	0xbe07bcc3	-0.132556
241	0x3e3c3e30	0.18383098
242	0xbccf33a6	-0.025293183
243	0xbf28844c	-0.6582687
244	0xbe3f6002	-0.18688968
245	0x3e30ab17	0.17252766
246	0x3e4371f3	0.19086437
247	0x3e9833d4	0.29727042
248	0xbcf15867	-0.029461099
249	0xbe6b75cb	-0.22994153
250	0xbd04448b	-0.03229193
251	0x3ed2e965	0.4119369
252	0x3efc4cba	0.49277288
253	0xbe989c02	-0.29806525
254	0x3e5a3da8	0.21312582
255	0x3edfa66b	0.43681654

gconvs.2.combination_weights f4 [4, 3]
0	0x3e883372	0.2660175
1	0x3eb4c436	0.35305947
2	0x3ec24bee	0.37948555
3	0x3e88db6e	0.26729912
4	0x3eb56aea	0.3543313
5	0x3ec36ea7	0.3817036
6	0x3e89e4a1	0.26932243
7	0x3eb5fa6f	0.35542628
8	0x3ec39beb	0.38204893
9	0x3e89139a	0.26772767
10	0x3eb42ea3	0.3519183
11	0x3ec2cd51	0.3804727

gconvs.2.weight f4 [3, 6, 6, 4, 3, 3]
0	0xbe8a01a9	-0.26954392
1	0xbedfe544	-0.43729603
2	0xbe7a212e	-0.2442672
3	0xbebf1da3	-0.373273
4	0x3e9b08ae	0.3028006
5	0x3eeecbf3	0.46639976
6	0x3c1ecdea	0.009692648
7	0x3e9952ef	0.29946086
8	0x3cd63ed9	0.026153015
9	0x3ef77296	0.4832961
10	0x3e8939d4	0.26801932
11	0xbaf006a2	-0.0018312524
12	0xbc2b080d	-0.010438931
13	0xbe0fc365	-0.14039381
14	0x3dd5434d	0.10413227
15	0x3f0abf29	0.5419794
16	0xbecd1f44	-0.40062916
17	0xbe109114	-0.14117843
18	0x3e61a673	0.22036152
19	0x3df7476d	0.1207417
20	0xbe21afc6	-0.15789708
21	0xbec7929d	-0.38979045
22	0x3ea3de69	0.32005623
23	0x3e89b2df	0.2689428
24	0x3d8221ed	0.06354127
25	0xbe173619	-0.1476673
26	0x3ea48202	0.32130438
27	0x3e8d179a	0.2755707
28	0x3dc371e6	0.09543209
29	0xbdf7e9ae	-0.12105118
30	0xbe96d8cd	-0.2946228
31	0x3e646540	0.22304249
32	0x3e8172c6	0.25282878
33	0x3e29cfad	0.16583128
34	0x3c8a3e4f	0.016875414
35	0xbd836eb9	-0.06417603
36	0xbce7ae57	-0.028281374
37	0x3de2aa73	0.11067667
38	0xbe6d0049	-0.2314464
39	0xbf7f5324	-0.9973624
40	0xbed417de	-0.4142446
41	0x3e99d8e2	0.3004828
42	0x3ec2ecc2	0.38071257
43	0x3d3d05af	0.046148
44	0x3e7fb36d	0.24970789
45	0xbf480931	-0.78139025
46	0xbf10e708	-0.56602526
47	0xbf261121	-0.64869887
48	0x3cecc57f	0.028902767
49	0xbe3ae670	-0.18251967
50	0xbe6f2fb8	-0.23358047
51	0x3e50165e	0.20321032
52	0xbd9c3094	-0.07626453
53	0x3ec76d80	0.3895073
54	0x3e3ee691	0.18642642
55	0xbf016536	-0.5054506
56	0xbf168e12	-0.5881053
57	0x3d836eda	0.06417628
58	0x3dec4bcf	0.11537897
59	0x3e1a5682	0.15072063
60	0xbc2b494a	-0.010454485
61	0xbd06ae96	-0.032881342
62	0xbc99a709	-0.018756406
63	0xbd8c6364	-0.06854895
64	0x3e278c72	0.1636217
65	0xbed9c08a	-0.42529708
66	0xbd215d93	-0.03939588
67	0x3e4e71cd	0.20160599
68	0xbeeb2f3c	-0.45934474
69	0x3e42caba	0.19022647
70	0x3d5c6278	0.053804845
71	0x3f00e439	0.5034824
72	0xbd05ec6f	-0.032696184
73	0x3e44de0a	0.19225326
74	0xbc91154d	-0.017710352
75	0x3ea53be3	0.32272252
76	0xbee2b7e7	-0.4428093
77	0x3e14b86f	0.14523481
78	0xbe941441	-0.28921703
79	0xbf09b166	-0.53786314
80	0xbdeac9c6	-0.114642665
81	0xbf8528cd	-1.0403076
82	0xbe16390e	-0.14670202
83	0xbf3e3694	-0.7430203
84	0xbe838c05	-0.25692764
85	0x3e5cf6d7	0.21578537
86	0x3dc4a0bf	0.096009724
87	0x3c8a3303	0.016870027
88	0xbcde0333	-0.027101135
89	0x3e68c1df	0.22730206
90	0x3f1f0cfe	0.621292
91	0x3e926a54	0.28596747
92	0x3ecc9b87	0.39962408
93	0x3dce5316	0.10074441
94	0xbd1feb4b	-0.039042752
95	0x3df8c5a0	0.12147069
96	0x3bdb7db4	0.0066983346
97	0xbe9c94d0	-0.30582285
98	0xbecf880a	-0.40533477
99	0x3e9cf132	0.30652767
100	0xbe73f509	-0.23823942
101	0x3da660c9	0.08123929
102	0xbe131026	-0.14361629
103	0xbe7173a6	-0.23579273
104	0x3de94ed9	0.11391992
105	0xbec3a294	-0.38209975
106	0x3e28ca48	0.16483414
107	0x3e030be4	0.12797505
108	0x3f026daa	0.50948584
109	0x3eca8915	0.3955771
110	0x3da64145	0.08117918
111	0x3e35ffea	0.17773405
112	0xbb1703c3	-0.0023043014
113	0x3e950c00	0.29110718
114	0xbe034ab4	-0.12821466
115	0x3dc7aa96	0.097493336
116	0x3d78c5a2	0.060735352
117	0x3ef546b9	0.4790552
118	0xbe36ec2c	-0.1786353
119	0xbf52c8f7	-0.823379
120	0xbc86db3a	-0.016461957
121	0xbe14488e	-0.14480802
122	0xbec6f83c	-0.38861263
123	0xbe1abc84	-0.15110976
124	0xbde73c29	-0.112907715
125	0xbd26ed54	-0.040753677
126	0xbf0674f3	-0.525222
127	0xbf3c502d	-0.7355984
128	0x3f14f570	0.5818701
129	0x3e157913	0.14596967
130	0x3e403975	0.18771918
131	0xbe1a9e1c	-0.15099376
132	0xbed26f73	-0.41100654
133	0x3dc6530f	0.09683811
134	0x3f2229ad	0.6334484
135	0x3ee0c779	0.43902186
136	0xbdd6fcfa	-0.1049747
137	0x3ebd33de	0.36953634
138	0x3de8ffa8	0.113768876
139	0xbeedaf88	-0.46422982
140	0x3eb1a03a	0.34692556
141	0xbf523dfd	-0.82125837
142	0xbea3354e	-0.31876606
143	0x3d96ecc9	0.07369382
144	0x3d53aa3e	0.051676027
145	0x3d4c9bc9	0.049953256
146	0xbdd2d408	-0.10294348
147	0xbf088eda	-0.53342974
148	0x3e3f47bb	0.18679707
149	0xbee3ec50	-0.4451623
150	0x3e975bb6	0.29562157
151	0xbd97f6d5	-0.07420126
152	0xbe0e0dca	-0.13872448
153	0xbf0e3f47	-0.55565304
154	0xbeb5af59	-0.35485342
155	0xbe900d7c	-0.28135288
156	0xbe1ca510	-0.15297341
157	0x3e5f4e66	0.2180725
158	0xbe3ed826	-0.18637142
159	0x3ebd4f1a	0.36974412
160	0x3ebfc751	0.37456754
161	0xbdc574f1	-0.096414454
162	0xbe9048e2	-0.28180605
163	0x3d8c6bc4	0.06856492
164	0x3e073394	0.13203269
165	0x3cea7b78	0.028623328
166	0x3d0ca091	0.034332816
167	0x3e86c150	0.2631936
168	0x3e55342b	0.20820682
169	0xbda3edc5	-0.08004335
170	0x3e0f44f3	0.13991146
171	0xbf05ffda	-0.52343524
172	0x3e1b0cbd	0.15141578
173	0xbe5b592a	-0.21420732
174	0xbea35f2b	-0.31908545
175	0xbf2cd8c9	-0.6751829
176	0xbf2d6b56	-0.67741907
177	0x3f09ca34	0.5382416
178	0xbe975afc	-0.29561603
179	0xbf5a9000	-0.85375977
180	0x3f13a9fc	0.5768125
181	0x3f3088bb	0.68958634
182	0x3f813e15	1.0097071
183	0xbd183e30	-0.03716868
184	0xbd1151b7	-0.03547832
185	0x3da27aec	0.07933602
186	0x3e275336	0.16340336
187	0xbd70f5bb	-0.058828097
188	0x3efd73e1	0.4950247
189	0x3f1e4c0a	0.61834776
190	0xbe4a1f88	-0.1973859
191	0xbed14186	-0.40870303
192	0x3e128bd6	0.14311156
193	0x3ed92d20	0.4241724
194	0x3eb7ac1f	0.35873505
195	0x3edff92b	0.43744788
196	0xbe9f7340	-0.31142616
197	0xbdd40dd4	-0.103542
198	0x3e80e7fb	0.25176987
199	0x3d7ab8bb	0.06121133
200	0xbe939ef4	-0.2883221
201	0xbc61004c	-0.013732981
202	0x3e36e33f	0.17860125
203	0x3eb5e9b5	0.35529867
204	0x3d820242	0.06348087
205	0xbe75e501	-0.2401314
206	0xbe178bdb	-0.14799444
207	0x3e2666dd	0.16250177
208	0xbe8a3a13	-0.26997432
209	0xbd368915	-0.044564325
210	0x3e004501	0.12526323
211	0xbefda502	-0.49539953
212	0xbd5cc604	-0.05389978
213	0x3eb63c20	0.35592747
214	0xbe9568a3	-0.29181394
215	0xbed53a2e	-0.4164595
216	0xbd274385	-0.040835876
217	0x3e9f9ff0	0.3117671
218	0x3e017197	0.12640987
219	0xbe94d705	-0.29070297
220	0x3d5bd692	0.053671427
221	0x3e8b33ee	0.27188057
222	0xbdbc682f	-0.09199559
223	0xbe84f59b	-0.25968632
224	0xbeb7c844	-0.35894978
225	0xbe13cbf9	-0.14433278
226	0xbe2beac3	-0.16788773
227	0x3eb9f44f	0.36319205
228	0xbd079fc5	-0.033111352
229	0x3e2320e7	0.1593052
230	0x3e9fab62	0.31185442
231	0xbd392249	-0.045198712
232	0xbe8a9507	-0.27066824
233	0x3eaf0afe	0.34188074
234	0x3e92b8fd	0.2865676
235	0xbeec1c38	-0.4611528
236	0x3c850f98	0.016242787
237	0xbe5b6ce3	-0.21428256
238	0xbe9494fd	-0.2901992
239	0xbe851d01	-0.2599869
240	0xbe34bca5	-0.17650087
241	0x3cca68a6	0.024708103
242	0x3f037153	0.51344794
243	0x3e3aec8e	0.18254301
244	0xbe7181f2	-0.23584726
245	0x3e125966	0.14291915
246	0xbdf359d7	-0.1188237
247	0xbd04de69	-0.03243867
248	0x3e22f3fa	0.15913382
249	0x3c22e9ba	0.00994342
250	0xbe625016	-0.22100863
251	0x3e347356	0.17622122
252	0x3e6a5519	0.22884025
253	0xbed33ffb	-0.4125975
254	0x3d86c8b6	0.06581251
255	0x3da69035	0.08132974

gconvs.3.combination_weights f4 [4, 3]
0	0x3ec44006	0.38330096
1	0x3e8b02da	0.27150613
2	0x3eb9163e	0.36149782
3	0x3ec38f88	0.38195443
4	0x3e8ac2ef	0.27101848
5	0x3eb96451	0.36209348
6	0x3ec38f7a	0.381954
7	0x3e8a9c84	0.27072537
8	0x3eb8f534	0.36124575
9	0x3ec3e0ee	0.38257545
10	0x3e8bd1e7	0.2730858
11	0x3ebb3d1a	0.36570054

gconvs.3.weight f4 [3, 6, 6, 4, 3, 3]
0	0xbe0a8d96	-0.13530573
1	0x3ec3183b	0.38104424
2	0xbe273dc2	-0.16332152
3	0xbe810514	-0.25199187
4	0xbcb2c8b0	-0.02182421
5	0xbd6ee053	-0.0583194
6	0xbe9eae61	-0.30992416
7	0xbe97636e	-0.29568046
8	0x3dabcd5f	0.08388781
9	0x3c9ba7de	0.019000944
10	0xbe37531f	-0.17902802
11	0x3e5cd979	0.21567334
12	0xbe97d4bd	-0.29654494
13	0x3d85cc2b	0.065330826
14	0x3ef467a3	0.4773532
15	0x3cd0400c	0.025421165
16	0xbd3ed4c9	-0.046589646
17	0xbd99cb3f	-0.07509469
18	0x3e3a36c5	0.18184955
19	0xbe1d701e	-0.153748
20	0x3d702476	0.05862852
21	0x3eef58f1	0.46747544
22	0xbe058e99	-0.13042678
23	0x3d9c39c8	0.076282084
24	0x3e3c61e4	0.18396717
25	0xbe3b0c3e	-0.18266389
26	0x3dd666dd	0.10468838
27	0x3eade928	0.33966947
28	0x3e5b7edf	0.21435116
29	0x3ea59c20	0.32345676
30	0x3d7894d1	0.060688797
31	0x3e1f9729	0.15585007
32	0x3e494c34	0.19657975
33	0xbf000521	-0.50007826
34	0xbea638ad	-0.32465115
35	0xbd27ac36	-0.040935718
36	0xbc2f7bdb	-0.010710682
37	0xbe6b4b2d	-0.22977896
38	0x3e642e8f	0.22283386
39	0x3d0c0119	0.034180734
40	0xb98d64c1	-0.00026968683
41	0xbf04b2f5	-0.51835567
42	0x3dbe351d	0.09287474
43	0xbd92a3ce	-0.071601495
44	0x3df3f363	0.11911657
45	0x3f111376	0.5667032
46	0x3e82a7b9	0.25518587
47	0x3f2a6ae7	0.6656937
48	0x3ee82bbe	0.45345873
49	0xbe9870fe	-0.29773706
50	0x3ec45555	0.38346353
51	0xbd200c30	-0.039074123
52	0x3e4b3244	0.19843394
53	0x3ef57f92	0.4794889
54	0x3e7dfb11	0.24802805
55	0xbf0c1e4e	-0.5473374
56	0xbe870ca5	-0.26376835
57	0xbe18993c	-0.14902204
58	0xbdc52e3d	-0.0962796
59	0xbed3c4ba	-0.41361028
60	0xbf08ad92	-0.5338985
61	0xbd658223	-0.05603231
62	0xbe8b4d01	-0.27207187
63	0xbe7bb643	-0.24581246
64	0xbe016513	-0.12636213
65	0xbd9a061f	-0.07520699
66	0xbdf802d6	-0.12109916
67	0xbea532ee	-0.3226542
68	0xbe7b8755	-0.24563344
69	0xbdbe0c91	-0.092797406
70	0x3df9cf21	0.1219771
71	0xbc271c2a	-0.010199586
72	0xbe763af3	-0.24045925
73	0x3ebcf9d4	0.36909354
74	0xbc62be9b	-0.013839389
75	0x3ec4e74e	0.3845772
76	0x3e95d2fa	0.29262525
77	0x3e55aa04	0.20865637
78	0x3ec05f26	0.37572592
79	0x3e9db930	0.3080535
80	0xbda0d7b0	-0.07853639
81	0x3e1f445e	0.15553424
82	0xbe158525	-0.14601572
83	0xbe2a775b	-0.16647093
84	0xbe82e8f5	-0.25568357
85	0xbeb52cb3	-0.35385665
86	0x3e46e0d3	0.19421701
87	0x3ec51069	0.38489082
88	0x3ec0ed3e	0.37681
89	0xb9cc7394	-0.00038996025
90	0x3f0f8b38	0.56071806
91	0xbe453389	-0.1925794
92	0x3e85d240	0.2613697
93	0xbdf3fe28	-0.11913711
94	0x3e9bd431	0.30435327
95	0xbe5ccfa9	-0.21563591
96	0x3e84dc69	0.2594941
97	0xbd5df0ae	-0.05418461
98	0xbf5d839b	-0.8652894
99	0x3e711a8b	0.23545282
100	0xbe4b350d	-0.19844456
101	0xbe82d6f8	-0.25554633
102	0x3e7fb46e	0.24971172
103	0xbea48aca	-0.32137138
104	0xbf1e31eb	-0.6179492
105	0x3e8c0b59	0.27352408
106	0xbcdc2559	-0.026873278
107	0x3e3e3b3f	0.18577288
108	0xbf3f178b	-0.746453
109	0xbe8286ed	-0.25493565
110	0x3eaf36fd	0.3422164
111	0xbf150587	-0.5821156
112	0x3ec18711	0.3779836
113	0x3e48e41a	0.19618264
114	0xbee32796	-0.4436614
115	0xbdbd9a7c	-0.09257981
116	0xbe8f8982	-0.28034598
117	0xbd8183e0	-0.06323981
118	0xbebbf2ad	-0.36708584
119	0xbd3e5cd1	-0.046475235
120	0xbe1a3f52	-0.15063217
121	0x3e3e5046	0.1858531
122	0x3ec401b7	0.38282558
123	0x3f088a0e	0.53335655
124	0xbe59e2f2	-0.21277979
125	0xbdc0c4a1	-0.09412504
126	0xbd8ac517	-0.06775873
127	0x3e8c3236	0.27382058
128	0x3eae33ff	0.34024045
129	0x3c366e41	0.011134685
130	0xbd6068e7	-0.054787543
131	0x3da2063c	0.07911345
132	0x3e909ba7	0.28243753
133	0xbd86cec1	-0.06582404
134	0xbee12c6f	-0.43979213
135	0x3dde36d6	0.10850303
136	0xbed6ecd7	-0.4197757
137	0xbcb6b8fe	-0.022305008
138	0x3e4d770e	0.20064947
139	0xbcb0f7aa	-0.02160247
140	0x3dcf51bc	0.101230115
141	0xbe8c4a3b	-0.27400383
142	0xbe9bde79	-0.3044317
143	0xbe7e6e58	-0.2484678
144	0xbe565cb3	-0.209338
145	0xbe28d207	-0.16486369
146	0x3e696bcc	0.22795027
147	0xbcd89e8b	-0.026442787
148	0x3ebd1c16	0.3693549
149	0xbdfa19a2	-0.1221192
150	0x3e72475b	0.23660032
151	0x3e9426a7	0.2893574
152	0xbd3aa7d7	-0.04557022
153	0xbe9ce9f5	-0.30647245
154	0x3e56b8d0	0.20968938
155	0x3e5be627	0.21474515
156	0xbe81ee1a	-0.2537697
157	0xbe4e9300	-0.20173264
158	0xbde3fa93	-0.111317776
159	0xbe80c08b	-0.251469
160	0xbe8bbc59	-0.27292135
161	0xbd711177	-0.058854546
162	0xbeabe270	-0.33571196
163	0xbec83dd8	-0.39109683
164	0xbef0856a	-0.46976787
165	0x3c24c8ba	0.010057623
166	0x3e13aaba	0.14420596
167	0x3e06afdd	0.13153024
168	0xbda0eed4	-0.07858053
169	0x3d338b69	0.043834124
170	0xbd50a56c	-0.05093901
171	0x3da4739a	0.08029862
172	0x3e25205f	0.1612563
173	0x3e23b985	0.15988739
174	0xbe2009fd	-0.1562881
175	0xbed9924f	-0.42494437
176	0x3e5ff561	0.21870948
177	0xbf2ce8bd	-0.6754263
178	0xbed13668	-0.4086182
179	0x3e48fd10	0.19627786
180	0xbe4bf80b	-0.1991884
181	0x3c365f48	0.011131115
182	0x3e88ffc9	0.2675765
183	0x3ebe67ee	0.37188667
184	0x3e4480fd	0.1918983
185	0x3e82945c	0.25503814
186	0xbeae9f16	-0.34105748
187	0xbe31b2c4	-0.1735335
188	0x3e22783b	0.15866177
189	0xbe90633b	-0.28200707
190	0xbed1445e	-0.40872473
191	0xbef51d1d	-0.47873774
192	0x3f041f83	0.51610583
193	0xbdabd8d1	-0.08390964
194	0xbeb24ebc	-0.34825695
195	0x3eb72aac	0.35774744
196	0xbe589f62	-0.2115455
197	0xbe843638	-0.25822616
198	0xbe0456c2	-0.1292372
199	0xbd1c3152	-0.038132973
200	0x3e818a36	0.2530076
201	0x3e9408e1	0.28913024
202	0xbe9eeba0	-0.31039143
203	0xbd35c8e1	-0.044381026
204	0xbeeb4c99	-0.45956877
205	0xbef55237	-0.47914287
206	0xbefdbf75	-0.49560133
207	0xbc0fc8cb	-0.0087759
208	0xbe2b2c8a	-0.16716209
209	0x3e873ee2	0.26415163
210	0xbeec3abe	-0.46138567
211	0x3e15b286	0.14618883
212	0x3e77079d	0.24123998
213	0xbf59b427	-0.85040516
214	0xbdedce36	-0.11611597
215	0xbeb60eee	-0.35558265
216	0xbe4a3be7	-0.19749413
217	0xbea37678	-0.31926322
218	0xbf4c00b4	-0.7968857
219	0xbdf17a4a	-0.11790903
220	0x3f161546	0.5862621
221	0x3d862966	0.06550865
222	0xbe901fa2	-0.28149134
223	0xbe0e5c01	-0.13902284
224	0x3e98c5fe	0.29838556
225	0xbe3fe4ee	-0.18739673
226	0x3d90fe2e	0.07079731
227	0x3d3a5897	0.045494642
228	0x3e6317e9	0.2217709
229	0xbdd96ad8	-0.10616082
230	0x3dd4831d	0.103765704
231	0xbe8a525e	-0.27015966
232	0x3e5adf7d	0.21374317
233	0xbe8620ad	-0.26196805
234	0xbec8ce47	-0.39219877
235	0x3dc6cc0b	0.09706887
236	0x3e92f0c3	0.28699312
237	0x3d3aca48	0.045603067
238	0x3d2f680d	0.04282384
239	0x3e990c4f	0.29892203
240	0xbde106ed	-0.10987649
241	0xbe5e2edc	-0.21697563
242	0xbf104a00	-0.56362915
243	0xbea69f25	-0.32543293
244	0xbea2e3e4	-0.31814492
245	0xbe41b944	-0.1891833
246	0xbaa24a6d	-0.00123818
247	0xbe30918c	-0.17243022
248	0xbedf5755	-0.43621317
249	0x3e689f6a	0.22717062
250	0xbe2736c2	-0.16329482
251	0xbd397bdf	-0.04528415
252	0xbed2cb92	-0.41170937
253	0x3ca68869	0.020328717
254	0x3dc73e15	0.09728638
255	0xbf6b8c75	-0.92011195

gconvs.4.combination_weights f4 [4, 3]
0	0x3ec231b9	0.3792856
1	0x3e82991c	0.25507438
2	0x3eca1595	0.3946959
3	0x3ec2a478	0.38016105
4	0x3e82b7b0	0.25530767
5	0x3eca71ff	0.39540097
6	0x3ec3b2e4	0.3822242
7	0x3e82798f	0.25483367
8	0x3eca8b53	0.3955942
9	0x3ec314e2	0.3810187
10	0x3e829e41	0.25511363
11	0x3ecafe24	0.3964702

gconvs.4.weight f4 [3, 6, 6, 4, 3, 3]
0	0xbe1bcfb4	-0.15215951
1	0xbef5f6d0	-0.48039865
2	0xbf781bde	-0.9691752
3	0xbf0fa3b5	-0.5610917
4	0x3e453d51	0.19261672
5	0xbf20a405	-0.62750274
6	0xbdda62a3	-0.10663345
7	0x3e74bd1f	0.23900269
8	0xbc8ffec8	-0.017577544
9	0x3ee8a086	0.4543497
10	0xbe84e503	-0.25955972
11	0x3ea1d3f8	0.31607032
12	0xbeacc82a	-0.33746463
13	0xbe3eadcd	-0.18620987
14	0x3eb189a5	0.34675327
15	0x3e6e0df5	0.23247512
16	0xbd4c49a2	-0.04987491
17	0x3ee0f13d	0.4393405
18	0x3e0b2edb	0.13592093
19	0x3e8acffd	0.27111807
20	0xbe7b2b40	-0.24528217
21	0x3d74fa49	0.059809003
22	0x3e812eac	0.2523092
23	0x3edf8aed	0.4366068
24	0xbef887d2	-0.48541123
25	0xbd9f97d3	-0.0779263
26	0x3da03b9c	0.078238696
27	0xbe9919ee	-0.29902595
28	0xbea98b97	-0.3311431
29	0xbee11bae	-0.4396643
30	0x3d8332fa	0.064062074
31	0xbd780814	-0.06055458
32	0xbe2e50a8	-0.17022955
33	0xbdde12b9	-0.10843415
34	0x3e9155c9	0.2838576
35	0x3deaceb1	0.114652045
36	0xbe664a00	-0.22489166
37	0x3ee17732	0.4403625
38	0x3ed8bc48	0.42331147
39	0xbd6847ed	-0.05670922
40	0x3e2b9cbf	0.16759013
41	0x3ec93a0b	0.39302096
42	0xbeeb130f	-0.45912978
43	0xbdea5919	-0.11442775
44	0x3e294893	0.16531591
45	0xbe6b5cf9	-0.22984685
46	0x3d40879f	0.04700434
47	0xbe04936c	-0.12946862
48	0xbeff1c2d	-0.49826184
49	0x3ed90903	0.42389688
50	0x3e81f862	0.25384814
51	0xbf840a24	-1.0315595
52	0xbe0ffa83	-0.14060406
53	0x3db342f5	0.087530054
54	0xbec16024	-0.37768662
55	0x3f0e208f	0.5551843
56	0x3e83a2f8	0.25710273
57	0xbf1799c0	-0.5921898
58	0x3d0abbe6	0.0338706
59	0x3d7554d9	0.05989537
60	0x3db1cf3f	0.08682107
61	0xbcee3b9c	-0.029081158
62	0xbe0568f4	-0.13028318
63	0x3dc14325	0.09436635
64	0xbefd3825	-0.49456897
65	0xbf1f0bbd	-0.62127286
66	0x3e666af9	0.22501744
67	0xbe85885d	-0.260806
68	0xbee6f36e	-0.45107597
69	0xbda0faff	-0.07860374
70	0xbe9088be	-0.28229326
71	0x3d4feafc	0.050761208
72	0xbdb48cd4	-0.08815923
73	0xbe0dd37a	-0.13850203
74	0x3eca7d6d	0.39548817
75	0xbd665a1d	-0.056238282
76	0xbf086b5c	-0.5328882
77	0x3def2367	0.11676674
78	0x3ee872d1	0.45400098
79	0x3e0a4b04	0.13505179
80	0x3ec78936	0.3897187
81	0xbe0c6274	-0.13709432
82	0xbcc15fc8	-0.023605242
83	0x3e215048	0.15753281
84	0x3e1aee11	0.15129878
85	0x3e888b45	0.26668754
86	0xbeb6f419	-0.35733107
87	0xbd819b2f	-0.06328427
88	0x3ea47c86	0.32126254
89	0xbe5b77a4	-0.21432358
90	0xbeed9ed9	-0.46410254
91	0x3eb1afbb	0.34704384
92	0xbd01699b	-0.031594854
93	0x3e8198f5	0.2531201
94	0xbdc7d081	-0.09756566
95	0xbe81ea8c	-0.25374258
96	0x3eda2df8	0.42613196
97	0x3e9375b9	0.28800753
98	0xbdbcb73f	-0.09214639
99	0xbeaaa96f	-0.33332393
100	0xbe7fc825	-0.24978693
101	0xbc1250c3	-0.008930388
102	0x3d32b971	0.043633882
103	0xbe097274	-0.13422567
104	0xbe894b9b	-0.26815495
105	0xbe2cdd6c	-0.1688134
106	0xbe226e29	-0.15862335
107	0xbe81ac8d	-0.25326958
108	0x3e0a9e0e	0.13536856
109	0xbe59e72e	-0.21279594
110	0xbdd5350b	-0.10410508
111	0x3ef91183	0.48646173
112	0xbdc78507	-0.0974217
113	0x3df18048	0.11792046
114	0xbd34af0c	-0.04411225
115	0x3e0d8fdd	0.1382441
116	0x3ebec178	0.3725698
117	0xbf005f14	-0.5014508
118	0xbe4eab58	-0.2018255
119	0xbe8effec	-0.27929628
120	0xbe5d6ce2	-0.21623567
121	0xbe1a754b	-0.15083806
122	0x3df02647	0.11726051
123	0x3e3434bb	0.1759824
124	0xbec6c092	-0.38818794
125	0xbf104ee8	-0.563704
126	0x3f071dbb	0.5277974
127	0xbcb26fb0	-0.021781772
128	0xbef86e91	-0.48521855
129	0x3d548f3d	0.051894415
130	0x3e79ef44	0.24407679
131	0x3ead3c0c	0.33834875
132	0xbe8a3999	-0.2699707
133	0xbd100f14	-0.03517063
134	0x3eb878b1	0.3602958
135	0xbe3af751	-0.18258406
136	0x3e9c82b7	0.30568478
137	0xbf3964f6	-0.7241968
138	0xbd43078c	-0.04761462
139	0xbcb2f5e9	-0.021845775
140	0xbe52c53c	-0.20583051
141	0x3b1b0e73	0.0023659735
142	0x3e82aaab	0.25520834
143	0xbf032dee	-0.5124196
144	0xbd082fda	-0.03324876
145	0x3ee19268	0.44057012
146	0x3c01d3a8	0.007923998
147	0x3ebf3922	0.37348276
148	0x3ebb934e	0.36635822
149	0xbcbef4aa	-0.023310024
150	0x3ea2b87f	0.31781384
151	0x3d8192ff	0.063268654
152	0x3dfb4b79	0.12270255
153	0xbf0868ac	-0.53284717
154	0xbd72c82e	-0.059272937
155	0xbed68f78	-0.41906333
156	0xbeea3e92	-0.45750862
157	0x3e9ad6b3	0.30241928
158	0x3d077540	0.033070803
159	0xbeaf6d75	-0.34263197
160	0x3e965831	0.2936416
161	0x3e372085	0.17883499
162	0xbebc8fb0	-0.36828375
163	0xbe8ad34f	-0.2711434
164	0xbf0b1dee	-0.54342544
165	0xbece357e	-0.40275186
166	0x3cb79fe0	0.022415102
167	0xbf11e038	-0.56982756
168	0x3eae65b7	0.34061977
169	0x3ea3719b	0.31922612
170	0xbdb1b5bd	-0.08677242
171	0x3e374e15	0.1790088
172	0x3e5b4f6f	0.2141702
173	0xbec14429	-0.37747315
174	0x3f1118eb	0.56678647
175	0xbe29c3fc	-0.16578668
176	0xbf59411b	-0.8486497
177	0x3d3e37e9	0.04644004
178	0xbda0d925	-0.07853917
179	0xbf5149df	-0.81753343
180	0x3ec92347	0.39284727
181	0x3dbb924d	0.09158764
182	0x3e9bee64	0.30455315
183	0xbebc6189	-0.36793163
184	0x3da5b617	0.080913715
185	0x3d80a6c2	0.062818065
186	0x3db9c16e	0.09070097
187	0x3ea281b6	0.31739587
188	0xbe882223	-0.26588544
189	0x3f131599	0.5745483
190	0xbd4193e6	-0.047260188
191	0xbd925abe	-0.07146214
192	0x3e9c2249	0.30494907
193	0xbe85d794	-0.26141036
194	0x3e011043	0.1260386
195	0x3f1a6414	0.6030896
196	0x3e809702	0.2511521
197	0x3e93762a	0.2880109
198	0x3eca23a9	0.39480332
199	0x3e2366ec	0.1595723
200	0xbcbb9f7b	-0.022903195
201	0xbe81cd53	-0.25351962
202	0xbcc24c08	-0.023717895
203	0xbf3997f6	-0.724975
204	0x3e94217b	0.28931794
205	0xbf50bf56	-0.81541955
206	0xbf2f9117	-0.68580765
207	0x3eb24b73	0.34823188
208	0x3e25d489	0.16194357
209	0xbd43eead	-0.04783504
210	0x3eaccd85	0.3375055
211	0x3de1d06f	0.11026084
212	0x3d61ad7b	0.055097084
213	0xbf1fb691	-0.6238795
214	0xbd60f83d	-0.05492424
215	0xbf164ff0	-0.58715725
216	0x3dc925d3	0.098216675
217	0x3e554ac2	0.20829299
218	0x3b7905d8	0.0037997868
219	0x3f00ce66	0.5031494
220	0x3e8a0e7c	0.26964176
221	0x3ec534ef	0.38516948
222	0x3f5e2ad3	0.86784095
223	0x3ed1910c	0.40930974
224	0x3e0247c6	0.12722692
225	0x3e9a3b2e	0.30123276
226	0x3e46a7a7	0.19399892
227	0x3d86d154	0.06582895
228	0x3cc14ff3	0.023597693
229	0x3eb7e814	0.3591925
230	0x3ec20361	0.37893203
231	0x3d0a9391	0.033832137
232	0xbe7eeb02	-0.24894336
233	0x3da386f6	0.07984726
234	0x3f1d9ae0	0.61564445
235	0x3c7cd008	0.015430458
236	0x3f34787f	0.7049636
237	0xbdbd643b	-0.09247633
238	0xbde1ca1c	-0.110248774
239	0x3df228cc	0.11824188
240	0xbef1e414	-0.47244322
241	0x3dfd2100	0.1235981
242	0xbdb5cafc	-0.08876607
243	0xbec17b0e	-0.37789196
244	0xbd38cb55	-0.045115788
245	0x3dfd58b1	0.12370432
246	0xbcc23690	-0.023707658
247	0xbbb1f791	-0.0054311235
248	0x3ee5a9fa	0.44856244
249	0x3ecd336c	0.40078294
250	0x3d66ec34	0.056377605
251	0x3f2f2544	0.6841624
252	0x3e1d34f3	0.1535223
253	0x3e6c9f27	0.23107587
254	0x3ef720a6	0.48267096
255	0x3da8122c	0.08206591

gconvs.5.combination_weights f4 [4, 3]
0	0x3e6826b6	0.22671017
1	0x3ec78e4b	0.38975748
2	0x3ebf59d3	0.37373218
3	0x3e6843b4	0.22682077
4	0x3ec6fa33	0.38862762
5	0x3ebf33d1	0.3734422
6	0x3e69212d	0.22766562
7	0x3ec78c76	0.3897435
8	0x3ebff7c4	0.37493718
9	0x3e67dc9e	0.22642753
10	0x3ec6cf4f	0.3883004
11	0x3ebf4f23	0.37365064

gconvs.5.weight f4 [3, 6, 6, 4, 3, 3]
0	0xbf976ab0	-1.1829433
1	0xbf5c69a2	-0.8609868
2	0xbfecdf35	-1.8505617
3	0xbf83ed15	-1.0306727
4	0xbea1b0cd	-0.315802
5	0xbf24858f	-0.64266294
6	0xbf558f17	-0.8342146
7	0xbf27656c	-0.6538913
8	0xbf6e7332	-0.93144524
9	0x3f25b3e3	0.6472761
10	0x3e1ba229	0.15198578
11	0x3d1d61a3	0.03842319
12	0x3efd3bd3	0.49459705
13	0x3dcf0127	0.10107642
14	0xbd97293e	-0.07380913
15	0x3f12cdf0	0.57345486
16	0xbeb57563	-0.3544112
17	0xbdf25915	-0.11833397
18	0xbeb03523	-0.3441554
19	0xbe87d751	-0.2653146
20	0x3dff0697	0.12452429
21	0xbe22564e	-0.15853235
22	0x3e20f441	0.15718175
23	0xbdd29602	-0.10282518
24	0xbf3ced83	-0.73799914
25	0xbe2b4b23	-0.16727881
26	0xbe4f510f	-0.20245765
27	0x3f64e3aa	0.8940989
28	0x3edb9db8	0.42893767
29	0x3ef992f3	0.48744926
30	0x3e8353c0	0.25649834
31	0x3ec466c1	0.38359645
32	0x3f1d50ab	0.61451215
33	0x3f0db12d	0.55348474
34	0x3e1d142b	0.15339725
35	0x3e8d5c2f	0.27609393
36	0x3da00c93	0.07814898
37	0x3f1d245d	0.6138361
38	0xbeb51ab3	-0.35371932
39	0x3ea97da6	0.33103675
40	0xbe31634c	-0.17323035
41	0xbe032b85	-0.1280957
42	0x3dc0b13a	0.09408803
43	0xbe3c3d13	-0.18382673
44	0xbeff5ec6	-0.49876994
45	0x3ec5b59a	0.38615113
46	0x3de96544	0.11396268
47	0xbeabd6a0	-0.33562183
48	0xbf037130	-0.51344585
49	0x3e0e862f	0.13918374
50	0xbe0a13cb	-0.13484113
51	0xbf2a76fb	-0.665878
52	0xbf4faab3	-0.8111984
53	0xbef4de2b	-0.4782575
54	0x3e285a28	0.16440642
55	0xbf09d167	-0.5383515
56	0xbf1ff510	-0.6248331
57	0xbe2efe74	-0.17089254
58	0xbf4d825c	-0.8027704
59	0xbf8549e1	-1.0413171
60	0xbfa4accd	-1.2865235
61	0xbfab1f57	-1.3368939
62	0xbf6748f4	-0.9034569
63	0x3e1be9cb	0.15225904
64	0x3f1344b1	0.5752669
65	0x3e8b4007	0.27197286
66	0xbdf7d062	-0.12100293
67	0x3ee0432b	0.43801245
68	0xbe6016e3	-0.2188373
69	0xbf0a5530	-0.54036236
70	0x3bf61dd2	0.007510879
71	0xbf3671f4	-0.7126763
72	0xbf03548b	-0.5130088
73	0x3ed728a9	0.4202321
74	0xbea6c3a2	-0.3257113
75	0xbea6056e	-0.32426018
76	0x3d0020a4	0.03128113
77	0xbd8e7e2a	-0.06957658
78	0xbdd13a8a	-0.102162436
79	0x3edfe019	0.4372566
80	0x3e3ade17	0.18248783
81	0xbdee54c5	-0.11637262
82	0xbec4e811	-0.38458303
83	0xbe401f2a	-0.18761888
84	0x3dd9216e	0.10602079
85	0xbee88593	-0.4541441
86	0xbe96c040	-0.2944355
87	0x3eaf2335	0.34206548
88	0x3e703e1a	0.2346119
89	0x3cc87322	0.024468962
90	0x3b1738bd	0.002307459
91	0xbe8df209	-0.2772372
92	0x3d0ca42c	0.034336254
93	0xbe1912dd	-0.14948602
94	0x3e6c4cc6	0.23076162
95	0x3f0dd05c	0.55396056
96	0x3d88ad4f	0.06673681
97	0x3edd2041	0.4318867
98	0x3ec24626	0.37944144
99	0x3e73bf52	0.23803452
100	0xbdad37c9	-0.08457906
101	0x3dd789d1	0.10524333
102	0xbecf58f4	-0.40497553
103	0xbe9a835a	-0.30178338
104	0x3eab45ab	0.3345159
105	0xbd2fb731	-0.042899314
106	0x3e80c0c4	0.25147069
107	0x3f175dc6	0.5912746
108	0xbed675d9	-0.41886786
109	0xbeadbc81	-0.3393288
110	0xbe4fcd1b	-0.20293085
111	0x3e9f11fc	0.31068408
112	0x3e4bf92e	0.19919273
113	0x3ee7392f	0.45160815
114	0xbe13b0bf	-0.14422892
115	0xbd70871c	-0.0587226
116	0xbeeb078c	-0.45904195
117	0xbe728825	-0.23684748
118	0xbea487e0	-0.32134914
119	0x3eaf004f	0.34179923
120	0xbdcb5e82	-0.09930135
121	0xbec4d7f5	-0.38446012
122	0xbe0d0597	-0.13771664
123	0x3cec0994	0.028813161
124	0xbd8b8ba0	-0.06813741
125	0x3f1c5759	0.6107078
126	0x3f07bebe	0.53025424
127	0x3f1a84db	0.6035897
128	0x3f77b1b4	0.9675553
129	0x3edf1936	0.43573922
130	0x3d452dd5	0.048139412
131	0x3eeb6ba9	0.45980576
132	0x3ea93dbf	0.3305492
133	0x3eb196c0	0.34685326
134	0xbd47bfa7	-0.04876676
135	0xbf97adf3	-1.184996
136	0xbf687a1f	-0.9081134
137	0xbf584cec	-0.84492373
138	0xbdaf2529	-0.085520096
139	0xbeb19f27	-0.34691736
140	0xbe99ff37	-0.30077526
141	0x3e033189	0.12811865
142	0x3f1bc579	0.60848194
143	0xbeb79bf4	-0.3586117
144	0xbf1a3361	-0.6023465
145	0xbe38f663	-0.18062739
146	0xbe7489c5	-0.2388068
147	0xbf6ec6d8	-0.9327216
148	0xbf94b986	-1.1619117
149	0xbf3f141a	-0.7464005
150	0xbfa52ce9	-1.290433
151	0xbff87aed	-1.9412514
152	0xbf920f56	-1.141093
153	0x3f187f13	0.595689
154	0x3f333592	0.70003617
155	0x3ebcb79a	0.36858827
156	0x3f478751	0.7794085
157	0x3f2a6e22	0.665743
158	0x3deae4f3	0.1146945
159	0x3e895f83	0.26830682
160	0x3d2947b4	0.041328147
161	0x3f004945	0.501118
162	0x3e388f9a	0.1802353
163	0x3f21f0c6	0.63258016
164	0xbe4a7dc6	-0.19774541
165	0x3e8db111	0.27674153
166	0x3ef051f2	0.4693752
167	0xbe2b9149	-0.1675464
168	0x3f179cf4	0.59223866
169	0x3eecb286	0.46229953
170	0x3ec79ba5	0.38985935
171	0x3ea3ae32	0.31968838
172	0xbea482e2	-0.32131106
173	0xbf29420b	-0.661164
174	0xbe4c488a	-0.19949546
175	0x3dee07eb	0.11622604
176	0x3e6300de	0.221683
177	0x3eb7129d	0.35756388
178	0x3e949291	0.2901807
179	0x3e8339a3	0.2562991
180	0x3e257fc7	0.16162024
181	0x3ed2f2c9	0.41200855
182	0x3f223ebb	0.6337697
183	0x3ea74773	0.326717
184	0xbb8a1812	-0.004214295
185	0x3e51fd77	0.20506845
186	0xbdead7bb	-0.114669286
187	0xbf185d5e	-0.5951747
188	0xbf102e70	-0.5632086
189	0xbe88960e	-0.26676983
190	0xbe7fc62e	-0.24977943
191	0xbed54fdf	-0.416625
192	0xbf06bd53	-0.52632636
193	0xbe6fdbff	-0.23423766
194	0xbe9e6a21	-0.30940345
195	0xbe2fc04b	-0.17163198
196	0xbcf43f43	-0.029815322
197	0x3e58cf8a	0.2117292
198	0x3db81c25	0.08989743
199	0x3db56368	0.08856851
200	0xbf1fa812	-0.6236583
201	0xbe91ade5	-0.28452983
202	0x3e5a055b	0.21291105
203	0xbe2a0135	-0.16602023
204	0x3c25c2ad	0.010117215
205	0xbf20b83d	-0.62781125
206	0xbeb315be	-0.34977525
207	0xbe10bf72	-0.1413553
208	0x3eeaa492	0.45828682
209	0xbecddd69	-0.40207985
210	0xbeaa24b1	-0.33231118
211	0x3d650371	0.055911485
212	0xbebfcb02	-0.3745957
213	0xbef39572	-0.47574955
214	0xbe254d5f	-0.16142796
215	0x3dd0db91	0.10198129
216	0xbd24b93a	-0.04021571
217	0xbf0603b8	-0.52349424
218	0xbe8d1a97	-0.2755935
219	0xbf1c848c	-0.6113975
220	0x3a0acb8d	0.00052946137
221	0xbe4ccc53	-0.19999819
222	0xbf124a3f	-0.5714454
223	0x3e64b6b0	0.22335315
224	0x3ee7c9bc	0.452711
225	0xbee42f5a	-0.44567376
226	0xbedde710	-0.4334035
227	0xbe5bd24a	-0.21466938
228	0x3ef4e1de	0.47828573
229	0x3ea07bb5	0.3134438
230	0xbe8d99e8	-0.27656484
231	0xbdc4afab	-0.096038185
232	0xbe81d766	-0.25359648
233	0xbe6cdb51	-0.23130538
234	0x3e477719	0.19479026
235	0xbe37943c	-0.1792764
236	0x3d95d8fc	0.07316777
237	0xbe0aa2d8	-0.13538682
238	0xbe5645d9	-0.20925082
239	0x3d504775	0.050849397
240	0xbf71f591	-0.9451533
241	0xbe8ce1d1	-0.27516034
242	0xbc46ca10	-0.012133136
243	0xbefd7ef5	-0.49510923
244	0xbe3fc54e	-0.1872761
245	0x3e416198	0.18884885
246	0xbea6d105	-0.32581344
247	0xbc0c4b7b	-0.008562918
248	0xbe6903e8	-0.22755396
249	0x3e2b4a99	0.16727675
250	0x3e8a4912	0.27008873
251	0xbe9840f5	-0.29737058
252	0xbe32dd2c	-0.17467183
253	0x3e44d43a	0.19221583
254	0xbefeb359	-0.49746206
255	0xbe51e303	-0.20496754

final_layer.combination_weights f4 [4, 3]
0	0x3eb04581	0.34428027
1	0x3eb621ac	0.35572565
2	0x3e97c8a2	0.29645258
3	0x3eaffdfc	0.34373462
4	0x3eb61f90	0.35570955
5	0x3e979e91	0.29613164
6	0x3eb03526	0.3441555
7	0x3eb613c4	0.35561955
8	0x3e981ca4	0.2970935
9	0x3eb01ee7	0.34398577
10	0x3eb5e064	0.3552276
11	0x3e97e8e4	0.2966987
