runs/P4CNN_aniso_std0.2_gamma2_lr0.002/model.pt (torch, 105509 bytes, 10 tensors)

lifting_conv.weight f4 [10, 1, 3, 3]
0	0xbe8f23a9	-0.27956894
1	0xbe3bfa70	-0.18357253
2	0x3eac88f4	0.33698237
3	0xbe71df5c	-0.23620361
4	0xbe26d77b	-0.16293137
5	0x3d854fb1	0.065093406
6	0xbe924bde	-0.28573507
7	0xbea818f6	-0.32831544
8	0x3e8ad0c3	0.27112398
9	0x3d910bcd	0.07082329
10	0x3de75f30	0.112974524
11	0xbe07f8da	-0.13278523
12	0x3d9839aa	0.074328735
13	0x3c8aa06e	0.016922202
14	0xbe9bb4a3	-0.30411252
15	0x3e9ad13d	0.3023776
16	0x3ca1c70c	0.019748233
17	0xbe8f2a80	-0.27962112
18	0xbdcadad6	-0.09905021
19	0xbe9add77	-0.3024709
20	0xbf16d4e3	-0.5891859
21	0xbf191b51	-0.59807307
22	0x3e34325d	0.17597337
23	0xbd71bb06	-0.05901625
24	0xbd25dbbb	-0.040492754
25	0x3d46e526	0.048558377
26	0xbe823b9f	-0.25436112
27	0x3d6253be	0.055255644
28	0x3df62cee	0.120202884
29	0xbe02ba0d	-0.12766285
30	0xbe801c96	-0.2502181
31	0xbe651db4	-0.22374612
32	0xbe8af220	-0.27137852
33	0x3ebeb928	0.37250638
34	0xbd6f7957	-0.058465328
35	0xbc8290e2	-0.015938226
36	0x3e05ca6f	0.13065504
37	0x3e62a6ea	0.22133985
38	0x3df076d7	0.11741417
39	0xbe870e83	-0.2637826
40	0xbd184dc9	-0.037183557
41	0x3deb8104	0.11499217
42	0xbecbbf67	-0.39794466
43	0xbe871a72	-0.26387364
44	0x3e9308e2	0.28717715
45	0xbe9b8518	-0.3037498
46	0xbe212e19	-0.15740241
47	0xbd8a507b	-0.06753632
48	0x3d906ee3	0.070524
49	0xbef2000f	-0.4726567
50	0xbea1f5fe	-0.3163299
51	0x3eeee955	0.46662393
52	0x3d5784f4	0.05261703
53	0xbe934640	-0.28764534
54	0xbe5c53f6	-0.21516404
55	0xbea16778	-0.31524253
56	0x3e4ab9bb	0.19797413
57	0x3d69ef1a	0.05711279
58	0x3e2439d0	0.16037679
59	0x3d9b92bd	0.075963475
60	0xbdaf51e2	-0.0856054
61	0xbe2d6e67	-0.16936646
62	0xbe2e1a63	-0.17002253
63	0xbeaf576d	-0.34246388
64	0x3c673e3c	0.014113959
65	0xbd9eee2c	-0.077602714
66	0xbe8e6ded	-0.27818242
67	0x3dd27084	0.10275367
68	0x3e1674fd	0.14693065
69	0xbecd9f47	-0.4016058
70	0x3e12b333	0.14326172
71	0x3e039db5	0.12853129
72	0xbe954884	-0.29156888
73	0xbdf34170	-0.118777156
74	0xbcec25a2	-0.028826538
75	0x3d99e7d2	0.07514919
76	0x3db3be93	0.087765835
77	0xbd3310a9	-0.04371706
78	0x3e70ddaf	0.23522066
79	0x3e38c041	0.18042089
80	0x3e6b0f2f	0.22955011
81	0x3e154297	0.14576183
82	0xbe6883a1	-0.22706462
83	0xbe958ccd	-0.29208985
84	0xbd961841	-0.07328845
85	0x3dab10df	0.08352827
86	0x3ec5f2e3	0.3866187
87	0xbe49d46a	-0.19709936
88	0xbde15460	-0.110024214
89	0x3d536358	0.051608413

gconvs.0.weight f4 [10, 10, 4, 3, 3]
0	0x3dc4f041	0.09616137
1	0xbc849b8a	-0.016187448
2	0xbd065f45	-0.0328057
3	0x3dfdb217	0.123874836
4	0xbf0995c4	-0.5374415
5	0xbdfa186b	-0.122116886
6	0x3d512212	0.051057883
7	0xbea0628b	-0.31325182
8	0xbeeb8f4f	-0.46007773
9	0x3c98c328	0.018647745
10	0xbe032572	-0.12807253
11	0xbc8ee2ed	-0.017442191
12	0xbcb35d37	-0.021895034
13	0xbd557a70	-0.05211872
14	0x3cf691db	0.030098846
15	0xbeff8b90	-0.49911165
16	0xbe97e6bf	-0.29668233
17	0x3e653570	0.22383666
18	0xbc9d74e7	-0.019220782
19	0x3d648233	0.05578823
20	0xbdbf2316	-0.09332864
21	0xbdf6166b	-0.12015995
22	0x3b9cc38e	0.004784054
23	0xbce70fe0	-0.028205812
24	0xbeb0ae07	-0.34507772
25	0xbe52f2d9	-0.20600452
26	0xbe464d2c	-0.19365376
27	0xbe86e658	-0.26347613
28	0xbdea7f14	-0.114500195
29	0x3d0663ed	0.03281014
30	0xbe94e6bd	-0.2908229
31	0xbe5b6f3e	-0.21429154
32	0x397ac1b4	0.00023914018
33	0xbb5ae586	-0.0033400967
34	0xbe80b53f	-0.2513828
35	0xbe92966d	-0.2863039
36	0xbcc68982	-0.02423549
37	0x3df5a86b	0.11995014
38	0xbbb38c1e	-0.0054793498
39	0xbe4c3d79	-0.19945325
40	0xbcabc0bb	-0.020965924
41	0xbd352c83	-0.044231903
42	0xbf0ee584	-0.55818963
43	0xbe86de86	-0.26341647
44	0xbe56dbbc	-0.2098226
45	0x3de86634	0.11347619
46	0x3d986c76	0.07442562
47	0x3db79d19	0.08965511
48	0xbde02934	-0.10945359
49	0xbe863211	-0.26210073
50	0x3d7000e7	0.05859461
51	0xbbb653eb	-0.005564203
52	0x3d4cf550	0.050038636
53	0x3e08a20e	0.13343069
54	0x3d80bc3d	0.062859036
55	0x3e96bd52	0.29441315
56	0x3e5687dd	0.20950265
57	0x3d698554	0.057011917
58	0xbca0d00b	-0.019630453
59	0x3dcab45a	0.098976806
60	0xbd6943c0	-0.056949377
61	0xbe9da8ce	-0.3079285
62	0xbd9c3fa3	-0.07629325
63	0x3dd1d7c5	0.10246233
64	0xbe2d142f	-0.1690223
65	0x3d5ae963	0.05344523
66	0x3cdebc86	0.027189504
67	0x3d08a8ee	0.03336423
68	0x3e0e81ff	0.13916777
69	0xbe5b7afe	-0.21433637
70	0x3d9d6909	0.076860495
71	0x3e589ecc	0.21154326
72	0xbe8a793e	-0.27045625
73	0x3cdd3921	0.02700478
74	0xbdbace15	-0.09121338
75	0xbea8116f	-0.328258
76	0x3e030a9b	0.12797014
77	0x3e3039c4	0.17209536
78	0xbf1f5af6	-0.6224817
79	0xbf48aa5f	-0.78384966
80	0xbec5c93c	-0.38630092
81	0xbdf0ecc3	-0.11763909
82	0xbdd37135	-0.10324327
83	0x3e3b1af6	0.18272004
84	0xbe011220	-0.1260457
85	0xbe373591	-0.17891528
86	0x3e0ae8b0	0.13565326
87	0xbe3eff2d	-0.1865203
88	0xbea2dd98	-0.31809688
89	0xbeda3673	-0.42619666
90	0xbe73d0fc	-0.2381019
91	0xbe2a0647	-0.16603957
92	0xbe84e021	-0.25952247
93	0xbec0c38f	-0.376492
94	0xbf0c4999	-0.547998
95	0x3d5df4da	0.054188587
96	0xbf1046d6	-0.5635809
97	0xbf2faf3e	-0.68626773
98	0xbf1391fe	-0.5764464
99	0xbe6d0677	-0.23146997
100	0xbe2692a0	-0.1626687
101	0xbdf6113d	-0.12015007
102	0xbc1471cc	-0.009060334
103	0xbe1bfa91	-0.15232302
104	0x3d830bd5	0.06398741
105	0x3d9713d0	0.07376826
106	0xbe076bd7	-0.13224731
107	0xbedf6d8e	-0.4363827
108	0xbc9af9af	-0.018917887
109	0x3d08c82a	0.033394016
110	0x3d556567	0.052098658
111	0xbe6c9df0	-0.23107123
112	0x3dab1e28	0.08355361
113	0x3d1d288b	0.038368743
114	0xbe49e3cf	-0.19715808
115	0xbe5596c6	-0.20858297
116	0x3e556a7c	0.20841402
117	0x3c335ec1	0.010947884
118	0x3c6d4a47	0.014483041
119	0x3d7e2438	0.06204626
120	0xbe381c14	-0.17979461
121	0xbdc3863b	-0.09547087
122	0x3d42820c	0.047487304
123	0x3dda8e92	0.106717244
124	0x3d9d5839	0.07682843
125	0xbe6b4c77	-0.22978388
126	0x3e146271	0.14490677
127	0xbd47958a	-0.048726596
128	0x3b32b97b	0.00272712
129	0x3de759bc	0.11296412
130	0xbc4d57f1	-0.012533174
131	0x3de91be6	0.11382274
132	0xbe10812a	-0.14111772
133	0xbea64cc2	-0.32480437
134	0x3e1db01b	0.1539921
135	0x3ea4a0e5	0.32154003
136	0xbe04ba6e	-0.12961742
137	0x3e15fa62	0.14646295
138	0x3d905ad4	0.07048574
139	0xbdf6f399	-0.12058181
140	0x3d95faa5	0.07323197
141	0x3d9878ab	0.074448906
142	0x3ce891a4	0.02838976
143	0x3e8ce1ba	0.27515966
144	0xbdbc109c	-0.091828555
145	0xbddb0988	-0.10695177
146	0x3e9e384e	0.30902332
147	0x3db0e14b	0.08636721
148	0xbed60467	-0.41800234
149	0x3d4df855	0.050285656
150	0x3dc1d9f4	0.094653994
151	0x3d0fa3b1	0.035068218
152	0xbe8d2e67	-0.27574465
153	0x3e0b2166	0.13586959
154	0x3dbb69b6	0.09151022
155	0x3dc9399c	0.09825441
156	0xbe109086	-0.14117631
157	0x3c1e7cce	0.00967331
158	0x3e1ad24c	0.15119284
159	0xbe10a57a	-0.14125624
160	0xbe997f70	-0.2998004
161	0x3e0ae456	0.13563666
162	0x3d5077f3	0.050895642
163	0xbe201c74	-0.15635854
164	0x3c7f7592	0.015591996
165	0x3dfd5a46	0.12370734
166	0x3dd643c5	0.10462145
167	0xbb47dee9	-0.0030497855
168	0xbe480046	-0.19531354
169	0x3d415fcd	0.047210503
170	0x3da75a41	0.081715114
171	0xbd28db18	-0.04122457
172	0x3e276575	0.16347297
173	0x3d85bea0	0.065304995
174	0xbdf7fd86	-0.12108903
175	0x3e3a61c8	0.18201363
176	0x3cdcf568	0.026972488
177	0xbeaa31bb	-0.33241066
178	0xbe629c58	-0.22129953
179	0xbdf6aa41	-0.12044192
180	0x3e351d81	0.17687036
181	0xbe6b777a	-0.22994795
182	0xbd5395e1	-0.051656608
183	0x3dc41318	0.09573954
184	0xbe4c021b	-0.19922678
185	0xbd97fc84	-0.074212104
186	0xbea643d8	-0.32473636
187	0x3cb8df11	0.022567304
188	0xbe36c602	-0.17848971
189	0xbe4984f9	-0.19679631
190	0xbdbd4f76	-0.092436716
191	0xbda20ace	-0.07912217
192	0xbe6fa160	-0.23401403
193	0xbe967e15	-0.29393068
194	0xbe14adc7	-0.14519416
195	0xbeb3a617	-0.35087654
196	0xbeea973f	-0.45818517
197	0xbf0e71f2	-0.55642617
198	0xbeb8d698	-0.36101222
199	0xbe34458e	-0.17604658
200	0xbdbf4215	-0.09338776
201	0xbcc8bdde	-0.024504598
202	0xbe2cd5c3	-0.16878419
203	0xbe0fd71c	-0.14046901
204	0x3e8ce020	0.27514744
205	0xbdc2df7e	-0.09515284
206	0xbcc2516e	-0.02372047
207	0xbdbbffc4	-0.09179643
208	0xbe196d00	-0.14982986
209	0xbd021460	-0.031757712
210	0xbe25e108	-0.16199124
211	0xbeb9eade	-0.36312002
212	0xbe9a9a94	-0.3019606
213	0xbf232107	-0.6372227
214	0xbf06cfa5	-0.5266059
215	0xbe973441	-0.29532054
216	0x3cf5fd25	0.030027935
217	0x3d857123	0.0651572
218	0x3d174a1c	0.03693591
219	0xbd572e21	-0.052534226
220	0x3e0bdf22	0.13659337
221	0x3ca3f8ae	0.02001604
222	0x3e5100f7	0.20410524
223	0x3da4f41c	0.08054373
224	0x3d8169f9	0.06319041
225	0xbcd19d77	-0.02558778
226	0x3d852789	0.06501681
227	0x3d57188b	0.05251364
228	0x3d539618	0.051656812
229	0x3b555473	0.0032551556
230	0x3d3365c2	0.043798216
231	0xbb25eecf	-0.0025319343
232	0x3e0d8e20	0.13823748
233	0x3db6bebb	0.08923098
234	0x3e111053	0.14166383
235	0x3cf7aae4	0.030232854
236	0x3dbaa2fc	0.09113118
237	0xbdb907a4	-0.090346605
238	0xbe01a3f0	-0.12660193
239	0xbd798530	-0.060918033
240	0xbd9ff869	-0.07811052
241	0xbd977991	-0.07396234
242	0xbd6ac79e	-0.057319276
243	0x3dcea66b	0.100903355
244	0xbd5008e6	-0.050789736
245	0x3c4b7761	0.012418599
246	0x3e2c13ff	0.16804503
247	0x3dafe080	0.08587742
248	0xbd7b5d5c	-0.06136833
249	0x3e21a314	0.15784866
250	0x3e371163	0.17877726
251	0xbe0632ce	-0.13105318
252	0x3daa8d34	0.083277136
253	0x3da344ea	0.07972129
254	0x3d320dc0	0.043470144
255	0x3d6e25e8	0.05814162

gconvs.1.weight f4 [10, 10, 4, 3, 3]
0	0x3c9356e1	0.017985763
1	0x3e022506	0.12709436
2	0x3ddfbf47	0.10925155
3	0x3bf03176	0.007330115
4	0xbd5fc657	-0.05463251
5	0x3e52e2c1	0.20594312
6	0x3e80c9c8	0.25153947
7	0x3e6b6340	0.2298708
8	0x3e388f76	0.18023476
9	0x3e83ac28	0.25717282
10	0x3df98626	0.1218379
11	0x3da30f90	0.07961953
12	0x3e358e7f	0.17730139
13	0xbdf733ae	-0.12070404
14	0xbd77c7ca	-0.060493268
15	0x3df99b48	0.12187821
16	0xbd79b419	-0.06096277
17	0xbe2c40d6	-0.16821608
18	0x3e13950c	0.14412326
19	0x3e35322c	0.1769492
20	0x3e4b6b41	0.19865133
21	0x3db9c026	0.090698525
22	0x3d43e6e7	0.047827628
23	0x3da51937	0.0806145
24	0xbd5c5971	-0.053796235
25	0xbd515ae9	-0.05111209
26	0x3c9a04be	0.01880109
27	0xbc905575	-0.017618874
28	0xbcb8a72d	-0.022540653
29	0x3e3a1dce	0.18175432
30	0xbe5764de	-0.21034572
31	0xbd9641ba	-0.07336755
32	0x3d903859	0.070419975
33	0xbca485a0	-0.020083249
34	0xbd958091	-0.07299913
35	0x3b3d3ef9	0.0028876646
36	0xbdcd417c	-0.10022256
37	0xba0b09b1	-0.00053038733
38	0xbdd3b430	-0.103371024
39	0x3cab9b25	0.020948002
40	0xbd83c38c	-0.06433782
41	0xbcf9609d	-0.030441577
42	0xbe008eef	-0.12554525
43	0xbb5b2b85	-0.0033442688
44	0xbdd43570	-0.10361755
45	0xbdbafcbb	-0.09130236
46	0xbd5d3ab0	-0.054011047
47	0xbdd3897d	-0.10328958
48	0x3d205f8e	0.039153628
49	0xbd97b75c	-0.0740802
50	0xbc5cf07f	-0.013485073
51	0xbd7ff07d	-0.062485207
52	0xbdb4bce5	-0.08825091
53	0xbde7de6e	-0.11321722
54	0x3dc6f74a	0.097151354
55	0x3ca5f177	0.020256741
56	0xbdc4e66e	-0.096142635
57	0x3dadfc09	0.084953375
58	0xbb9d47cd	-0.004799819
59	0x3d39d48e	0.045368724
60	0xbc6a6193	-0.01430549
61	0xbda31f5a	-0.07964964
62	0xbd8e55aa	-0.06949933
63	0xbd94c711	-0.072645314
64	0x3b4b78c0	0.0031047314
65	0x3cc05bdd	0.023481304
66	0xbdba2514	-0.09089103
67	0x3d409640	0.04701829
68	0xbd978688	-0.07398707
69	0x3dbb5d0b	0.09148606
70	0x3bf2fb06	0.007415178
71	0xbdf71bbb	-0.12065836
72	0x3dc3ebda	0.095664695
73	0x3c9bc367	0.019014074
74	0x3d5edc74	0.05440946
75	0x3dad13f2	0.0845107
76	0x3c724af9	0.014788383
77	0x3d65fefa	0.056151368
78	0xbd13957d	-0.036031235
79	0x3b41e678	0.0029586833
80	0x3dbf6e5f	0.093472235
81	0xbe6f89fd	-0.23392482
82	0xbeb53783	-0.35393915
83	0xbe319b89	-0.17344488
84	0x3d3e48d6	0.04645618
85	0xbd18f3f6	-0.037342034
86	0xbdef3e18	-0.11681765
87	0x3e8e62e8	0.27809834
88	0x3e2fab5c	0.17155212
89	0x3e60b6b3	0.21944694
90	0x3d8d1436	0.068886206
91	0xbe08b060	-0.13348532
92	0x3dba03e4	0.09082773
93	0x3d89cde7	0.06728726
94	0xbcb54614	-0.022128142
95	0xbcad2dfb	-0.02114009
96	0xbdc1e033	-0.09466591
97	0xbd020e41	-0.031751875
98	0xbdc85877	-0.09782498
99	0xbe0a1b7e	-0.1348705
100	0x3d00dd61	0.031461123
101	0x3d80fed3	0.06298604
102	0xbea44f6b	-0.3209184
103	0xbe178e2a	-0.14800325
104	0x3d199727	0.037497666
105	0xbee805aa	-0.4531682
106	0xbea04c7b	-0.3130835
107	0xbe122871	-0.1427324
108	0xbd8ae744	-0.06782392
109	0xbd8aada9	-0.06771404
110	0xba3284f0	-0.00068099704
111	0xbc4981c2	-0.012299003
112	0xbd24fd67	-0.040280726
113	0x3d111bd7	0.03542694
114	0xbd07f5ea	-0.033193506
115	0x39c831d9	0.00038184112
116	0xbd8f3ef5	-0.0699443
117	0xbcba5aec	-0.022748433
118	0xbe115902	-0.1419411
119	0xbe2255ad	-0.15852995
120	0xbd0147fc	-0.03156279
121	0xba12f1f9	-0.0005605515
122	0x3c46036d	0.012085778
123	0xbd0d4bfa	-0.034496285
124	0xbdb1823b	-0.086674176
125	0xbcfd3b3d	-0.030912036
126	0xbd93f7ac	-0.07224974
127	0xbbf3d77e	-0.00744146
128	0xbd45d4eb	-0.048298758
129	0xbdf334bb	-0.11875292
130	0xbd259a23	-0.0404302
131	0xbdf086ce	-0.11744462
132	0xbd7d2059	-0.061798427
133	0xbd19299d	-0.0373932
134	0xbe06d402	-0.13166812
135	0xbd9012f4	-0.07034865
136	0xba253eaf	-0.0006303591
137	0x3c26c3ec	0.010178547
138	0xbd56f169	-0.05247632
139	0xbd0cc8b2	-0.034371085
140	0xbde4a7e4	-0.11164835
141	0xbcadbcf2	-0.02120826
142	0xbd924c46	-0.07143454
143	0xbe121688	-0.14266407
144	0xbd1db065	-0.0384983
145	0x3dca874c	0.09889087
146	0x3e64f708	0.2235986
147	0xbd6b72f9	-0.057482693
148	0x3e021084	0.12701613
149	0x3cbe40d2	0.023224268
150	0x3bf997c1	0.0076169674
151	0x3e46ec53	0.19426088
152	0x3e726e80	0.23674965
153	0x3e3a0282	0.18165019
154	0x3d4b09c9	0.04956988
155	0x3dad3e6f	0.08459174
156	0xbda5deea	-0.08099158
157	0x3c05b83e	0.008161603
158	0x3e3f33aa	0.18672052
159	0x3e0e7fb4	0.13915902
160	0xbd748e50	-0.059706032
161	0x3e4bf560	0.19917822
162	0x3df49edd	0.11944363
163	0x3d605d35	0.05477639
164	0x3d770b9c	0.060313806
165	0xbc287093	-0.010280746
166	0x3c944c7c	0.018102877
167	0xbdc728a6	-0.0972455
168	0xbd6884cb	-0.056767266
169	0x3ca641bf	0.020295022
170	0xbe14e8cc	-0.1454193
171	0x3ed5714f	0.4168801
172	0x3d8ebf8a	0.06970127
173	0x3d35f56f	0.044423517
174	0xbbcb38c4	-0.0062018353
175	0xbe3f9b41	-0.18711568
176	0xbd5890b5	-0.05287238
177	0x3e38c9d8	0.18045747
178	0xbd30f8d1	-0.04320604
179	0xbc4551e6	-0.012043452
180	0xbd07a55d	-0.033116687
181	0xbd40e428	-0.047092587
182	0x3d1495f2	0.03627581
183	0xbe1f28d6	-0.15542921
184	0x3a6b94a5	0.00089866883
185	0xbda4aa82	-0.08040334
186	0xbe715f64	-0.23571545
187	0xbe40b833	-0.18820266
188	0xbdbdf78a	-0.0927573
189	0xbded8659	-0.115978904
190	0x3d6d3a23	0.05791677
191	0x3db548c7	0.08851772
192	0xbe76d039	-0.24102868
193	0xbcb6525e	-0.022256073
194	0x3d0ac822	0.033882268
195	0xbe95d522	-0.2926417
196	0xbda41cbb	-0.080132924
197	0x39b031fc	0.00033606577
198	0xbdb3c957	-0.08778637
199	0xbd854245	-0.065067805
200	0xbda6f07c	-0.081513375
201	0xbd25388f	-0.04033714
202	0x3d6182d9	0.055056427
203	0x3c9809e9	0.018559413
204	0xbec7a9c7	-0.38996717
205	0xbe3041e0	-0.1721263
206	0xbdcce755	-0.100050606
207	0xbd9f98d6	-0.07792823
208	0xbcc43692	-0.023951802
209	0xbde8155d	-0.113322
210	0xbe1fc8f7	-0.15604006
211	0xbdd08bb5	-0.10182897
212	0xbe58491f	-0.21121643
213	0xbe86c1b1	-0.2631965
214	0xbe8b663a	-0.2722643
215	0xbe8b4458	-0.2720058
216	0xbe7adfb0	-0.24499393
217	0x3cf41d77	0.029799206
218	0x3dab0056	0.083496734
219	0xbe09cd82	-0.13457301
220	0xbd31e8d5	-0.043434937
221	0x3e5b0abc	0.21390814
222	0x3d04a038	0.03237936
223	0x3d6f332f	0.05839842
224	0x3e1689ba	0.14700976
225	0x3e001b3e	0.12510392
226	0x3d90d48d	0.07071791
227	0x3e4e1f03	0.20129018
228	0x3c7fb330	0.0156066865
229	0x3ddccb2e	0.10780941
230	0x3d6e6b82	0.058207996
231	0x3ee3dfcf	0.4450669
232	0x3e3cdbd5	0.18443234
233	0x3d32454d	0.04352312
234	0xbe8dcc06	-0.2769472
235	0x3d93b3bd	0.07212017
236	0x3e844dc6	0.25840586
237	0xbea21b55	-0.31661478
238	0x3d935295	0.07193486
239	0xbd140118	-0.036133856
240	0xbe6e2350	-0.23255658
241	0xbeac6661	-0.3367186
242	0xbe55860a	-0.20851913
243	0x3dcf1855	0.10112063
244	0x3ce2b874	0.027675845
245	0xbd188395	-0.03723486
246	0xbb0d08d5	-0.0021520157
247	0xbe364217	-0.17798649
248	0xbd87e960	-0.066363096
249	0x3e06605b	0.13122694
250	0xbbd79a9b	-0.0065797097
251	0xbd1d803a	-0.038452365
252	0x3e8f99d5	0.28047052
253	0x3e17900b	0.14801042
254	0x3e6d5fbf	0.23181055
255	0x3c258aa2	0.010103853

gconvs.2.weight f4 [10, 10, 4, 3, 3]
0	0xbded379a	-0.11582871
1	0xbe309961	-0.1724601
2	0xbdd20e23	-0.102566026
3	0x3d6c4308	0.057681113
4	0x3d84ec74	0.06490412
5	0x3d0b8b5d	0.034068454
6	0xbd1c5cdb	-0.03817449
7	0xbddc9685	-0.10770897
8	0x3d71de07	0.059049632
9	0xbd915797	-0.070967846
10	0xbe82121b	-0.25404438
11	0xbe096588	-0.13417637
12	0xbe245bd1	-0.1605065
13	0xbe403cf3	-0.1877325
14	0xbdded78a	-0.108809546
15	0xbe0d744f	-0.138139
16	0x3c4218df	0.01184675
17	0x3d798222	0.06091512
18	0xbd97a023	-0.074035905
19	0xbdceea4a	-0.10103281
20	0x3da41133	0.08011093
21	0x3d9e7072	0.07736291
22	0x3d446134	0.047944263
23	0x3d94e4f0	0.07270229
24	0x3cb5daa6	0.022198986
25	0xbcc3995b	-0.023876837
26	0xbca12374	-0.019670226
27	0xbe4ae526	-0.19813976
28	0xbe50bba1	-0.20384075
29	0xbe5b4014	-0.21411163
30	0xbdf28fef	-0.118438594
31	0x3cc5e16c	0.024155341
32	0xbc33530f	-0.010945096
33	0xbe42beaa	-0.19018045
34	0x3bac6ea6	0.0052622138
35	0x3dcf45ce	0.10120736
36	0xbe346a55	-0.17618687
37	0xbdd156bb	-0.10221621
38	0xbe0f120c	-0.13971728
39	0xbdc777da	-0.09739657
40	0x3daa574b	0.08317431
41	0xbe623a2e	-0.22092506
42	0x3da37629	0.07981522
43	0xbde36da7	-0.11104899
44	0xbdfde5cc	-0.12397346
45	0xbc5f5059	-0.013629996
46	0xbdcebc67	-0.10094529
47	0x3d9a8638	0.075451314
48	0xbe7a55b2	-0.24446753
49	0xbe82b38e	-0.25527614
50	0xbc05c8b9	-0.008165532
51	0xbdfd64d6	-0.123727486
52	0xbe622b84	-0.22086912
53	0xbda4f3f4	-0.08054343
54	0xbda852d1	-0.08218921
55	0xbd5628c3	-0.052284967
56	0xbe3b7123	-0.18304877
57	0xbdd8332f	-0.105566375
58	0xbdf474c2	-0.11936332
59	0xbe02f3db	-0.12788336
60	0xbdf614f3	-0.120157145
61	0xbd0a591e	-0.033776395
62	0xbc8a3ad3	-0.016873753
63	0xbe297c72	-0.16551378
64	0xbdbed168	-0.09317285
65	0xbe58f051	-0.21185423
66	0xbde983bc	-0.114020795
67	0xbddfb9df	-0.10924124
68	0xbdd58708	-0.10426146
69	0xbd318bca	-0.043346204
70	0xbc7800cb	-0.015136908
71	0xbdaf699f	-0.085650675
72	0xbd8d6659	-0.06904287
73	0xbe030ab6	-0.12797055
74	0xbd1edda4	-0.03878559
75	0xbe5bd0b2	-0.2146633
76	0xbe09f15d	-0.13470979
77	0xbd9f7c01	-0.07787324
78	0x3d6e882c	0.058235332
79	0xbd96e986	-0.0736876
80	0xbd936785	-0.07197479
81	0xbe76509c	-0.24054188
82	0xbe678ff5	-0.22613509
83	0xbe6e8582	-0.23293117
84	0xbe8cd5e9	-0.2750695
85	0xbcfbb107	-0.030724062
86	0xbdb898be	-0.09013508
87	0xbe14a035	-0.14514239
88	0xbe4da3fb	-0.20082085
89	0xbdfc571a	-0.12321301
90	0xba508382	-0.00079541665
91	0xbda6d5ba	-0.08146234
92	0xbd8c2d00	-0.068445206
93	0xbe020473	-0.1269701
94	0xbe10c748	-0.1413852
95	0xbc0f312a	-0.008739749
96	0xbdd1343e	-0.102150425
97	0xbd99c042	-0.075073734
98	0xbe06fa01	-0.13181306
99	0xbe16c505	-0.14723594
100	0xbcc3cb3d	-0.023900623
101	0xbe4d3552	-0.20039871
102	0x3b24143d	0.0025036477
103	0xbc1b38bc	-0.009473976
104	0xbd962bdf	-0.073325865
105	0xbd6603b7	-0.056155887
106	0xbdd45e28	-0.103695214
107	0xbde052b8	-0.10953277
108	0xbe1d17f9	-0.15341176
109	0xbe216d84	-0.15764433
110	0xbdeba26c	-0.11505589
111	0xbde95e8d	-0.11394987
112	0xbdfe10fb	-0.124055825
113	0xbd560e20	-0.052259564
114	0xbd95e65d	-0.07319329
115	0x3d51712b	0.051133316
116	0xbc6b2e71	-0.014354334
117	0x3e08a5f4	0.13344556
118	0x3d284079	0.04107711
119	0xbcdb7e64	-0.026793666
120	0x3d52c85e	0.051460616
121	0x3c8bcda9	0.01706584
122	0xbe021fa1	-0.12707378
123	0xbde907af	-0.11378419
124	0xbdeab3e2	-0.11460091
125	0xbe149ed5	-0.14513715
126	0x3d15e862	0.03659857
127	0xbdb211ca	-0.08694799
128	0x3c2514ca	0.010075757
129	0xbd00c23e	-0.031435244
130	0xbc0c5fc7	-0.008567757
131	0xbda26372	-0.07929124
132	0x3ccb22b6	0.024796825
133	0x3d81ec9d	0.063439585
134	0xbc6c108b	-0.014408241
135	0xbce8f81e	-0.028438624
136	0x3d94b0c1	0.07260276
137	0xbe47cd19	-0.19511832
138	0xbd798b21	-0.0609237
139	0xbdb3803c	-0.08764693
140	0xbe2f37e7	-0.17111169
141	0x3bedfb42	0.0072626183
142	0x3cfe208b	0.031021377
143	0xbe09e22f	-0.13465188
144	0xbe236e65	-0.15960081
145	0xbe9ca256	-0.30592602
146	0xbd93a88d	-0.07209883
147	0xbdc871c3	-0.09787323
148	0xbe348052	-0.17627075
149	0xbd6c4778	-0.057685345
150	0xbbd001b5	-0.0063478597
151	0x3ca81ee0	0.020522535
152	0x3ceca4b4	0.02888713
153	0xbe216265	-0.15760191
154	0xbd38e632	-0.045141406
155	0xbe072098	-0.13196027
156	0xbb6f4af8	-0.003651319
157	0x3d468878	0.04846999
158	0xbd8bbb2c	-0.068228096
159	0xbdcc70be	-0.09982441
160	0xbda32257	-0.07965534
161	0x3d1ae027	0.037811425
162	0xbdffad18	-0.12484187
163	0x3b0befd2	0.002135266
164	0xbe44310a	-0.19159332
165	0xbe89c4df	-0.26908013
166	0xbd27da22	-0.040979512
167	0xbe528cd7	-0.20561539
168	0x3d664ded	0.05622666
169	0xbdb08412	-0.086189404
170	0xbdd30565	-0.10303763
171	0xbc2ffe97	-0.010741851
172	0xbe14f5d2	-0.14546898
173	0xbd87fdaa	-0.066401795
174	0xbdae4dca	-0.08510931
175	0xbe3016d6	-0.17196211
176	0xbe20c094	-0.15698463
177	0x3da2235b	0.079169
178	0x3d237449	0.03990582
179	0xbcd07a62	-0.025448982
180	0xbd3d9e08	-0.04629329
181	0x3d44266f	0.047888216
182	0xbd3bde9f	-0.045866605
183	0x3c0dd26d	0.008656126
184	0xbd86dc61	-0.06585003
185	0xbe405fdb	-0.18786566
186	0xbd980f5c	-0.074248046
187	0x3c4b18f6	0.012396088
188	0xbd6e000f	-0.058105525
189	0xbdd6665f	-0.104687445
190	0x3b8fdb10	0.004390128
191	0x3dd038e9	0.10167105
192	0x3c52d768	0.01286874
193	0x3dbd360b	0.092388235
194	0xbca27cdb	-0.019834926
195	0x3ddd27e3	0.107986234
196	0x3d8311d0	0.06399882
197	0x3c11b3ad	0.008892936
198	0xbd376068	-0.044769675
199	0x3ca2a74b	0.019855162
200	0x3d14efdf	0.03636157
201	0x3d9645af	0.0733751
202	0xbcacbced	-0.02108618
203	0x3c55f7a2	0.013059529
204	0x3d35cf82	0.044387348
205	0xbdefe56f	-0.11713683
206	0xbe250f1d	-0.16119047
207	0xbd0d3c45	-0.034481306
208	0x3ca2b71f	0.01986271
209	0xbe1ba9d8	-0.15201509
210	0xbe43fee8	-0.19140208
211	0xbe0cf43b	-0.13765042
212	0xbe4dce5f	-0.20098256
213	0x3b3b08c9	0.0028539172
214	0xbe004abc	-0.12528509
215	0xbdbbc76e	-0.091688976
216	0xbe816f60	-0.25280285
217	0xbd0852dd	-0.03328215
218	0xbcfd65ce	-0.030932333
219	0xbe2c4350	-0.16822553
220	0xbe52966f	-0.20565198
221	0xbdc20c13	-0.09474959
222	0xbdd69e43	-0.10479405
223	0xbe0f1765	-0.13973768
224	0x3cd4f3dd	0.02599519
225	0xbd54bd24	-0.05193819
226	0xbbf94c32	-0.00760796
227	0xbe3269ca	-0.17423168
228	0xbe283337	-0.16425787
229	0xbd19e283	-0.037569534
230	0xbe8062ad	-0.25075284
231	0xbe2ff992	-0.17185047
232	0xbe2773e9	-0.1635281
233	0xbe50519c	-0.20343632
234	0xbe9dd749	-0.30828312
235	0xbd55d708	-0.052207023
236	0xbe452903	-0.19253926
237	0xbe1f6e2d	-0.15569372
238	0xbdde47ae	-0.108535156
239	0xbe321a1f	-0.17392777
240	0xbe27ea84	-0.16398054
241	0xbe4ce62b	-0.20009677
242	0xbd309873	-0.043114137
243	0x3e06976c	0.131437
244	0x3ac24e38	0.0014824336
245	0xbe00d091	-0.12579562
246	0xbcc17a01	-0.023617746
247	0xbd289725	-0.041159768
248	0xbcd6eb3f	-0.026235221
249	0xbe64d0d6	-0.2234529
250	0xbcfe9cc4	-0.031080611
251	0xbd7fa15b	-0.06240974
252	0xbce68287	-0.028138412
253	0xbde4408a	-0.11145122
254	0x3d3f3a6f	0.046686586
255	0xbe427c07	-0.18992625

gconvs.3.weight f4 [10, 10, 4, 3, 3]
0	0xbe03f522	-0.1288648
1	0x3c7191d4	0.014744241
2	0xbc523494	-0.012829918
3	0xbda15a99	-0.07878608
4	0xbe3feb5f	-0.1874213
5	0x3a34a973	0.0006891705
6	0xbde591f6	-0.112094805
7	0xbd893754	-0.06700006
8	0x3c74e8a7	0.014948047
9	0x3da304d0	0.07959902
10	0x3e01d94b	0.12680547
11	0x3d88341d	0.06650565
12	0xbdb682a1	-0.08911634
13	0x3d0aeccb	0.03391723
14	0x3cc0aa51	0.023518713
15	0xbcaa36d0	-0.02077809
16	0x3c9cbc33	0.01913271
17	0xbddd0461	-0.10791851
18	0xbe0f5960	-0.13998938
19	0xbdd6eac5	-0.104939975
20	0x3d5c29c7	0.05375078
21	0xbd5c16c9	-0.053732667
22	0x3c667f81	0.014068485
23	0xbdc8f27d	-0.09811876
24	0xbe4f36fb	-0.20235817
25	0xbe126ec6	-0.14300069
26	0xbde38f17	-0.111112766
27	0xbcd7bda0	-0.026335537
28	0x3b8458e6	0.004038918
29	0xbbd28e49	-0.006425653
30	0x3dfb3dad	0.12267623
31	0x3d500c8e	0.050793223
32	0x3cc8edb6	0.024527412
33	0x3cbbf820	0.022945464
34	0x3b7292cc	0.0037013767
35	0x3d142769	0.036170397
36	0x3db14fa6	0.0865777
37	0x3dc9afe4	0.098480016
38	0x3d744ac0	0.0596416
39	0x3e4e4683	0.20144086
40	0x3e2ecaa3	0.17069487
41	0x3d7aacaa	0.06119982
42	0x3ea168bf	0.31525227
43	0x3ece2733	0.40264282
44	0x3eecd312	0.46254784
45	0x3e28bedc	0.16479057
46	0x3e7072f8	0.23481357
47	0xbe801754	-0.25017798
48	0x3df46155	0.11932627
49	0x3de4722c	0.11154589
50	0xbd5262f5	-0.051363904
51	0x3d89df87	0.067320876
52	0x3dbbcde6	0.091701314
53	0x3d451f47	0.04812553
54	0x3e7cf146	0.24701414
55	0x3d8da645	0.06916479
56	0xb99736e2	-0.00028841855
57	0x3e86d138	0.26331496
58	0xbc80976f	-0.01569721
59	0x3ca709b9	0.020390378
60	0x3df095d3	0.11747327
61	0xbd29f7e9	-0.04149619
62	0x3c5b428f	0.013382568
63	0xbea61ad1	-0.32442334
64	0xbe9a9263	-0.3018981
65	0xbe168629	-0.14699616
66	0xbd7139b0	-0.058892906
67	0xbcc6807b	-0.024231186
68	0x3e000bf8	0.12504566
69	0x3f091c8c	0.53559184
70	0x3f0cb172	0.5495826
71	0x3f272bdd	0.65301305
72	0xbe25546f	-0.1614549
73	0xbca719df	-0.020398078
74	0x3d164e8e	0.03669601
75	0x3dc2ee27	0.0951808
76	0x3df6c5ad	0.120494224
77	0xbd85841c	-0.065193385
78	0xbe8b4674	-0.2720219
79	0xbe5669b8	-0.20938766
80	0xbe21a37b	-0.15785019
81	0x3e25d6eb	0.16195266
82	0x3d6271c4	0.055284277
83	0xbd0678c8	-0.03283003
84	0x3d062df3	0.032758664
85	0xbd97db46	-0.0741487
86	0x3db743fb	0.08948513
87	0xbe28248e	-0.16420195
88	0xbddb7f1e	-0.10717605
89	0x3c4c2755	0.012460549
90	0xbde17534	-0.11008683
91	0xbdb859cd	-0.09001503
92	0xbd802355	-0.06256739
93	0xbd5de8f8	-0.054177254
94	0xbe2cc941	-0.16873647
95	0xbde74208	-0.11291891
96	0x3c05ad60	0.008159012
97	0x3dde0d12	0.10842337
98	0xbe33d314	-0.17560989
99	0x3e7de845	0.24795635
100	0x3d9913fb	0.07474514
101	0x3cff6cc0	0.031179786
102	0x3e18f471	0.14936997
103	0xbc528ae9	-0.012850502
104	0xbd84318e	-0.06454764
105	0x3db591b7	0.088656835
106	0xbdc92d25	-0.09823064
107	0xbe5d3454	-0.21601993
108	0x3cf15e19	0.029463815
109	0xbdd4ee27	-0.103969865
110	0xbd43b52b	-0.047780197
111	0xbe2d9171	-0.16950013
112	0xbe48ea1d	-0.19620557
113	0xbe2f6e27	-0.17131864
114	0xbd760d57	-0.060071316
115	0xbe581d4a	-0.21104923
116	0xbdc11d44	-0.0942941
117	0x3d06a541	0.032872442
118	0x3e2753eb	0.16340606
119	0x3e897199	0.2684448
120	0x3da4cfbe	0.08047436
121	0x3c10ed9c	0.008845713
122	0xbd0fb6ba	-0.03508637
123	0xbd341059	-0.043960903
124	0x3ba3ac77	0.0049949246
125	0x3d32ecc0	0.043682814
126	0x3db40d7c	0.087916344
127	0x3e397048	0.18109238
128	0x3e53b4bd	0.20674415
129	0xbe037397	-0.12837063
130	0x3e3d0620	0.18459368
131	0x3e57934e	0.21052286
132	0xbeb3598d	-0.3502926
133	0xbd81edff	-0.06344222
134	0x3dfe2baf	0.12410676
135	0xbe741bd4	-0.2383874
136	0xbeb8a95b	-0.36066708
137	0xbec0648e	-0.37576717
138	0xbe4b57d6	-0.19857726
139	0xbd93cbc5	-0.072166
140	0xbeb5f810	-0.3554082
141	0xbeaea0a3	-0.3410693
142	0xbe207d1a	-0.15672722
143	0xbe97a5e3	-0.2961875
144	0x3ce41fa2	0.027847115
145	0x3cfc3264	0.030785747
146	0x3cb8172d	0.022471989
147	0x3d6ffe0f	0.0585919
148	0x3c7dbe3e	0.015487252
149	0xbd876e82	-0.066128746
150	0x3e384e88	0.17998707
151	0x3dd96404	0.106147796
152	0x3d79492c	0.060860798
153	0x3cb51cb8	0.02210842
154	0x3e4b8339	0.19874276
155	0x3dc5c8cc	0.096574396
156	0x3d08caa8	0.033396393
157	0x3d7c278a	0.061561145
158	0x3db042e4	0.086065084
159	0x3b992619	0.004673731
160	0x3dd7973c	0.105268925
161	0xbd661b48	-0.05617836
162	0x3da51922	0.08061434
163	0x3e172aa3	0.14762358
164	0x3cefd10e	0.02927449
165	0x3dc90811	0.09815992
166	0x3d313ff5	0.043273885
167	0x3dcb226a	0.09918673
168	0x3e3218f4	0.17392331
169	0x3da3f835	0.08006326
170	0x3e67b717	0.22628437
171	0x3d1c2d2e	0.038129024
172	0xbe115fd0	-0.14196706
173	0xbc8646af	-0.016391126
174	0xbd4d2e45	-0.050092954
175	0xbc8a85ca	-0.016909499
176	0xbc185d11	-0.0092995325
177	0x3d13f0a0	0.03611815
178	0x3d7b5927	0.06136432
179	0xbd06725a	-0.032823898
180	0x3c5bbdd5	0.013411959
181	0xbe638773	-0.22219639
182	0xbe65cd63	-0.2244163
183	0x3d8fd778	0.07023519
184	0xbd131430	-0.035907924
185	0xbe14da80	-0.14536476
186	0x3ca6dc9d	0.020368868
187	0xbd86027e	-0.06543444
188	0xbd9c0ba2	-0.07619406
189	0x3d06a6f4	0.032874063
190	0xbdc60401	-0.096687324
191	0xbdc5b11c	-0.096529216
192	0xbe478799	-0.1948532
193	0xbebd5f8a	-0.36986953
194	0xbec943c0	-0.39309502
195	0x3baa5315	0.0051978924
196	0xbe7e4eab	-0.24834697
197	0xbf0925bc	-0.53573203
198	0x3ea09d4b	0.31370005
199	0x3db0beea	0.08630164
200	0x3d924a2e	0.07143055
201	0x3e0d4e81	0.13799478
202	0xbbf2c215	-0.0074083903
203	0xbe1cd964	-0.15317303
204	0x3e1ea827	0.15493833
205	0xbde2eabc	-0.11079928
206	0xbe111749	-0.14169039
207	0x3eb142af	0.34621188
208	0x3e744728	0.23855269
209	0x3ea6a701	0.3254929
210	0x3d800d5e	0.062525496
211	0x3e3a70f1	0.18207146
212	0x3deed91c	0.11662504
213	0xbeffde83	-0.4997445
214	0xbeba8017	-0.3642585
215	0xbe3c73a3	-0.18403487
216	0x3b2d5cbb	0.0026452977
217	0xbe7d44ff	-0.24733351
218	0xbea5438d	-0.322781
219	0xbd66aad4	-0.05631526
220	0xbd6de60a	-0.05808071
221	0xbe75d31f	-0.24006318
222	0x3e02fa9e	0.12790915
223	0xbd6b586d	-0.057457376
224	0xbe384111	-0.17993571
225	0x3ddd57c4	0.108077556
226	0x3c860cf1	0.016363593
227	0x3aa43f82	0.0012531134
228	0xbda32209	-0.07965476
229	0x3c80ff3b	0.015746703
230	0xbd989752	-0.07450737
231	0x3dd9416b	0.106081806
232	0xbc60ad35	-0.013713171
233	0x3e02d48e	0.12776396
234	0xbd49faa9	-0.049311314
235	0xbbbb7156	-0.005720298
236	0x3c41a416	0.011818906
237	0xbd8c6dd0	-0.068568826
238	0xbd866a24	-0.065632135
239	0xbe45391e	-0.1926007
240	0xbdc6b517	-0.09702509
241	0xbe6c4a67	-0.23075257
242	0xbf65f13b	-0.89821213
243	0xbc07b7b6	-0.008283546
244	0xbe059606	-0.1304551
245	0xbeae1f18	-0.34008098
246	0xbb9cdf65	-0.004787373
247	0xbdf597e4	-0.119918615
248	0xbea605a3	-0.32426175
249	0x3d9812d4	0.07425466
250	0xbda73589	-0.08164508
251	0xbe11d886	-0.14242753
252	0x3e890951	0.2676492
253	0x3d929641	0.07157565
254	0xbeb1c2b1	-0.3471885
255	0x3ecc5be7	0.39913866

gconvs.4.weight f4 [10, 10, 4, 3, 3]
0	0xbc9c0de4	-0.019049592
1	0xbe59690a	-0.21231475
2	0xbe45725c	-0.19281906
3	0xbc7c1eaf	-0.015388175
4	0xbea3c7cb	-0.31988367
5	0xbe7fcfc8	-0.24981606
6	0xbe21b066	-0.15789947
7	0xbd855997	-0.065112285
8	0xbe36dc92	-0.17857578
9	0xbee89eb4	-0.4543358
10	0xbe5309b0	-0.20609164
11	0xbd502413	-0.050815653
12	0xbeff87b4	-0.4990822
13	0xbd58f235	-0.05296536
14	0xbd2bf0e2	-0.04197777
15	0xbf304a56	-0.6886343
16	0xbe43bf5a	-0.19115964
17	0xbe1c3544	-0.15254694
18	0xbf36c758	-0.71397924
19	0xbf28a2d3	-0.6587345
20	0xbf10cc52	-0.5656177
21	0xbed56f71	-0.41686586
22	0xbe96df76	-0.29467362
23	0xbe80ef1e	-0.25182432
24	0xbec57671	-0.38566926
25	0xbea1df55	-0.316157
26	0xbed8d3c3	-0.4234906
27	0xbe985072	-0.29748875
28	0xbdf442c9	-0.11926801
29	0xbc4e0309	-0.012573966
30	0xbdea8ccf	-0.11452638
31	0xbce11688	-0.027476564
32	0xbde29b33	-0.11064758
33	0x3b5bdad0	0.003354717
34	0xbe17c219	-0.14820136
35	0xbe9404b7	-0.28909847
36	0xbe862f9c	-0.26208198
37	0xbe3d85f7	-0.18508135
38	0xbdac1d8a	-0.08404072
39	0xbdea02eb	-0.11426338
40	0xbe61cc24	-0.2205053
41	0xbe1b1c42	-0.15147498
42	0x3cf1ae11	0.029501947
43	0xbc9e2d69	-0.019308763
44	0xbdda1a8d	-0.106495954
45	0xbdf6403d	-0.12023971
46	0xbd626c81	-0.05527926
47	0xbe559c7b	-0.20860474
48	0xbe73a986	-0.23795137
49	0xbd7f0906	-0.062264465
50	0xbe10fcc1	-0.14158918
51	0xbe33173e	-0.17489335
52	0xbc3c6421	-0.011498482
53	0x3b86c964	0.004113363
54	0xbea41adf	-0.3205175
55	0xbcdcd629	-0.026957588
56	0x3d82ebf4	0.06392661
57	0xbe81341a	-0.25235063
58	0xbcb0bdde	-0.02157491
59	0x3e46794b	0.19382207
60	0x3d198060	0.037475944
61	0x3e126051	0.14294554
62	0x3e7c2ea4	0.24627167
63	0xbf1b2356	-0.60600793
64	0xbea17a94	-0.31538832
65	0xbe26e8b2	-0.16299704
66	0xbebe6b9f	-0.37191483
67	0xbdc9a649	-0.098461695
68	0xbb3742a6	-0.002796331
69	0x3d59049c	0.05298291
70	0x3e695dd7	0.22789703
71	0x3e63a446	0.22230634
72	0xbe710efe	-0.23540875
73	0xbe5e6518	-0.21718252
74	0xbe9040f4	-0.28174555
75	0x3dd17e27	0.1022914
76	0x3db3dc57	0.08782261
77	0xbdc9c961	-0.09852863
78	0x3d13bf74	0.036071256
79	0x3d9aaae9	0.0755213
80	0xbdc08c4b	-0.09401759
81	0xbe885f3c	-0.26635158
82	0xbe756f2f	-0.23968194
83	0xbec6fcd5	-0.3886477
84	0xbe4de6d1	-0.2010758
85	0xbe24ca97	-0.16092907
86	0xbe86bfe7	-0.26318285
87	0xbe2a2f5e	-0.16619632
88	0xbdc0e48a	-0.0941859
89	0xbebbad05	-0.3665544
90	0xbf00b28c	-0.5027244
91	0xbdc53d08	-0.096307814
92	0xbde1d36d	-0.110266544
93	0xbeeecfac	-0.46642816
94	0xbd8e81bc	-0.069583386
95	0x3e914544	0.28373158
96	0xbe8300f8	-0.25586677
97	0x3d99094f	0.074724786
98	0xbbf152b4	-0.0073645953
99	0xbeb8c419	-0.3608711
100	0xbf00495c	-0.5011194
101	0xbef9b8c4	-0.48773777
102	0xbe0cc28b	-0.13746087
103	0xbdc8a6d7	-0.09797447
104	0xbe2ea421	-0.17054798
105	0xbd100ae0	-0.03516662
106	0x3de689cf	0.11256754
107	0xbe1943ba	-0.14967242
108	0x3cc4b4d9	0.024012016
109	0x3e241eab	0.16027324
110	0x3d97ba25	0.07408551
111	0x3cc20289	0.02368285
112	0xbe18c48c	-0.14918727
113	0x3d62e028	0.055389553
114	0xbcad4258	-0.0211498
115	0xbd268e8c	-0.040663287
116	0x3c117d97	0.008880041
117	0x3e19698a	0.14981666
118	0x3dc1f5a5	0.09470681
119	0xbd3a3ef6	-0.0454702
120	0x3d7824b3	0.060581874
121	0x3ce2363e	0.027613755
122	0x3daaa25f	0.08331751
123	0xbe22d040	-0.15899754
124	0x3cf9c393	0.030488765
125	0x3cbed4fd	0.02329492
126	0x3d37ce77	0.044874635
127	0xbd3840ed	-0.044983793
128	0x3da81dd6	0.08208816
129	0x3d107f26	0.03527751
130	0xbd8d4db9	-0.0689959
131	0xbcbc99cc	-0.023022555
132	0xbd8e6988	-0.06953722
133	0xbce4ec61	-0.027944745
134	0xbcaee760	-0.021350563
135	0x3be34991	0.00693626
136	0xbda02610	-0.0781976
137	0xbe1f9baa	-0.15586725
138	0xbd76eb07	-0.060282733
139	0xbc7dea63	-0.015497777
140	0xbd0a3786	-0.033744358
141	0x3e068ac1	0.13138868
142	0xbdfd81c2	-0.12378265
143	0xbdece392	-0.11566843
144	0xbda60d45	-0.08108
145	0xbcbc50ea	-0.022987802
146	0x3df76242	0.12079288
147	0xbdd5930f	-0.1042844
148	0x3d57aeaa	0.052656807
149	0x3da90786	0.08253388
150	0xbdceb2cb	-0.10092696
151	0x3c17a8ab	0.009256522
152	0x3e81eac3	0.2537442
153	0x3d4836f2	0.048880525
154	0x3daac437	0.08338206
155	0x3d5e396f	0.05425399
156	0x3dc1f7ae	0.09471069
157	0x3d29dc92	0.041470118
158	0xbde343a0	-0.11096883
159	0x3df5f734	0.12010041
160	0x3b71479d	0.0036816366
161	0xbdd2a299	-0.10284919
162	0x3e08bf3b	0.13354199
163	0xbc0b671f	-0.008508473
164	0x3d122023	0.03567518
165	0x3dbde05b	0.09271308
166	0x3da495b5	0.08036367
167	0x3d9fedd2	0.078090325
168	0x3dbcbcb0	0.09215677
169	0x3c129083	0.008945587
170	0xbd90c42a	-0.07068665
171	0x3e1fc17a	0.15601149
172	0x3e44e278	0.19227016
173	0x3e827025	0.25476184
174	0x3e1e4558	0.1545614
175	0x3d5d203b	0.053985815
176	0x3e686729	0.22695602
177	0x3e019584	0.12654692
178	0x3d85a0d2	0.06524815
179	0x3e5a7cd4	0.2133668
180	0xbba33f08	-0.004981879
181	0xbd0e6343	-0.034762632
182	0xbdc49ec9	-0.09600598
183	0x3d212ebc	0.03935121
184	0xbdc3f3d6	-0.095679924
185	0xbe24b30a	-0.16083923
186	0x3d56f1ed	0.052476812
187	0x3d0977c3	0.03356148
188	0xbe18f194	-0.14935905
189	0xbe12b226	-0.1432577
190	0x3e2be483	0.16786389
191	0x3e71183c	0.23544401
192	0xbe4d0e81	-0.20025064
193	0xbd5b18d1	-0.053490464
194	0x3d6e0faa	0.058120407
195	0xbe800cee	-0.25009865
196	0x3d9c7a0e	0.076404676
197	0x3d83a25c	0.06427452
198	0xbe5e3e36	-0.21703419
199	0xbd8f7d67	-0.070063405
200	0x3dfaf4f0	0.12253749
201	0xbe01a7e4	-0.12661701
202	0xbdd71d51	-0.105036385
203	0x3dfd4b5e	0.12367891
204	0xbe415fbd	-0.18884178
205	0xbd6e3d60	-0.058164
206	0x3e8e3373	0.27773628
207	0x3dec00ed	0.11523614
208	0x3e403729	0.18771042
209	0x3e0f876e	0.14016506
210	0x3d0eb288	0.03483823
211	0x3d7a1724	0.061057225
212	0xbd5ad961	-0.053429965
213	0x3e28165e	0.16414782
214	0x3e69ffd0	0.22851491
215	0xbde96405	-0.1139603
216	0xbd64bc55	-0.05584367
217	0x3d3eb591	0.046559874
218	0x3dea5625	0.11442212
219	0x3c0905c4	0.008363191
220	0xbd966a1b	-0.07344457
221	0x3dccf18f	0.10007011
222	0x3da16f5c	0.07882568
223	0x3c0e4dab	0.00868551
224	0x3d80cb95	0.0628883
225	0xbd9ae717	-0.07563608
226	0xbe3b51ad	-0.18292876
227	0xbe7259b9	-0.23667039
228	0x3cbfb30f	0.023400811
229	0xbe1c5bed	-0.15269442
230	0xbe6af7b5	-0.22946055
231	0x3d3d0763	0.046149623
232	0xbe579614	-0.21053344
233	0xbcdb70b0	-0.026787132
234	0xbd0d17cd	-0.034446526
235	0x3e079a4b	0.13242452
236	0x3c4f00d4	0.012634475
237	0x3cf15c6c	0.029463015
238	0xbc3d3d46	-0.011550253
239	0x3e078d83	0.13237576
240	0x3d9cacb5	0.07650129
241	0x3db99332	0.090612784
242	0x3e0a5ca4	0.13511902
243	0xbcbbe531	-0.022936435
244	0xbac237e7	-0.0014817686
245	0xbd49e182	-0.049287327
246	0xbd2cad32	-0.04215736
247	0xbd93d8af	-0.072190635
248	0xbdfe8004	-0.12426761
249	0x3e175d5f	0.14781712
250	0x3ce9ea97	0.028554244
251	0x3dbf13b2	0.093299285
252	0x3dc7ab85	0.09749512
253	0x3e29e9d1	0.165931
254	0x3e243acd	0.16038056
255	0xbd985eec	-0.0743998

gconvs.5.weight f4 [10, 10, 4, 3, 3]
0	0xbea0b22a	-0.31385928
1	0xbe430eb0	-0.19048572
2	0xbeb7da06	-0.35908526
3	0xbeb2efe2	-0.3494864
4	0xbe530e93	-0.20611028
5	0xbdbe2e5a	-0.092861846
6	0xbe900d69	-0.2813523
7	0xbe86b981	-0.26313403
8	0xbdf03802	-0.11729433
9	0xbe8ace24	-0.27110398
10	0xbe9fa78c	-0.31182516
11	0xbe823825	-0.2543346
12	0xbe5a479f	-0.21316384
13	0xbd076d8e	-0.033063464
14	0xbd4e46cc	-0.050360486
15	0xbdf76f1d	-0.1208174
16	0xbc424185	-0.011856441
17	0xbe3eeec0	-0.18645763
18	0xbe1745e0	-0.14772749
19	0xbe183ccb	-0.1486694
20	0xbdecb301	-0.1155758
21	0xbe34d50e	-0.17659399
22	0xbe85ad61	-0.2610884
23	0xbe8fa42f	-0.2805495
24	0xbeb8c382	-0.3608666
25	0xbeae20f2	-0.3400951
26	0xbec21a7f	-0.3791084
27	0xbe9ab6a4	-0.3021747
28	0xbe92c0b2	-0.2866264
29	0xbe5b60ab	-0.21423595
30	0xbee09873	-0.4386631
31	0xbdc40394	-0.09570995
32	0xbe175dcb	-0.14781873
33	0xbf156581	-0.5835801
34	0xbe8627fd	-0.26202384
35	0xbe7e0fc4	-0.24810702
36	0xbe074164	-0.13208538
37	0xba07660a	-0.00051650463
38	0xbe5adcf5	-0.21373351
39	0xbe060767	-0.13088761
40	0xbcd958b9	-0.026531564
41	0xbe64bee7	-0.22338448
42	0xbecc46fd	-0.3989791
43	0xbeddb179	-0.43299463
44	0xbeb29661	-0.34880355
45	0xbe8e4110	-0.27784014
46	0xbe0ab592	-0.13545826
47	0xbd65788a	-0.056023158
48	0xbec83469	-0.39102486
49	0xbd8ab1b8	-0.067721784
50	0xbc3a2893	-0.011362213
51	0xbee92d83	-0.45542535
52	0xbe6264bb	-0.22108738
53	0xbe6eb268	-0.23310244
54	0xbeb3c4c8	-0.3511107
55	0xbeaf7670	-0.34270048
56	0xbe65a6e6	-0.22426948
57	0xbe8e20ca	-0.2775939
58	0x3c0a8aad	0.008455914
59	0xbe6e578c	-0.23275584
60	0xbe4c7410	-0.1996615
61	0x3d132c49	0.035930905
62	0xbe03e7c6	-0.12881383
63	0xbe8783ea	-0.2646783
64	0xbd569bda	-0.052394725
65	0xbe5f21bb	-0.21790211
66	0xbd338dcc	-0.0438364
67	0xbcb9d9e2	-0.022686902
68	0xbe195144	-0.14972407
69	0xbd7c7367	-0.061633494
70	0xbd9dcea0	-0.07705426
71	0xbdada797	-0.08479231
72	0xbe32ec9d	-0.17473073
73	0x3d182ad6	0.037150227
74	0x3e527c4a	0.20555225
75	0xbe4196a3	-0.1890512
76	0x3da1f400	0.079078674
77	0x3ea80758	0.32818103
78	0xbebc6f9f	-0.3680391
79	0xbd902d1b	-0.07039853
80	0x3e7b76c1	0.2455702
81	0xbe5847fa	-0.21121207
82	0xbe533c0e	-0.20628378
83	0xbe486c18	-0.19572484
84	0xbd95ed2b	-0.07320627
85	0x3e514dac	0.20439786
86	0x3d5e175f	0.054221507
87	0x3dc8d601	0.09806443
88	0x3ea79f79	0.32738855
89	0x3e1f0b20	0.15531588
90	0x3ce9b04c	0.028526448
91	0x3d608462	0.05481375
92	0xbea1b5ce	-0.31584018
93	0x3ea93d2f	0.33054492
94	0x3e306ba6	0.17228565
95	0xbe467c06	-0.19383249
96	0x3e1d7362	0.15376046
97	0x3d9a893f	0.07545709
98	0xbeb3dde0	-0.35130215
99	0x3dfb30a3	0.12265136
100	0x3eb37d0d	0.35056344
101	0x3df759dd	0.12077687
102	0x3df55f6b	0.1198109
103	0x3e75cc96	0.24003825
104	0x3dcb27a9	0.09919674
105	0xbea6b9f3	-0.32563743
106	0xbe90374c	-0.28167188
107	0xbeacb21b	-0.33729634
108	0x3e155852	0.14584473
109	0x3dba8410	0.0910722
110	0x3d6491b5	0.05580302
111	0x3c0160b4	0.007896591
112	0xbdff163b	-0.12455412
113	0xbd329062	-0.043594725
114	0xbc33ab62	-0.010966154
115	0xbdfb66f6	-0.122754976
116	0xbe93f146	-0.28895015
117	0x3da0c824	0.07850674
118	0x3d8680fc	0.065675706
119	0x3e6478a7	0.2231165
120	0xbe60c284	-0.21949202
121	0x3bcb2ef9	0.006200668
122	0x3d9de868	0.077103436
123	0xbe4abe0f	-0.19799064
124	0xbe120dbf	-0.14263056
125	0xbc6e3329	-0.014538565
126	0xbe5cc1ab	-0.21558253
127	0xbe17cb1c	-0.14823574
128	0x3c82882f	0.015934078
129	0xbddc2374	-0.1074895
130	0x3ab06007	0.0013456353
131	0xbd3e8aef	-0.046519216
132	0x3dd55092	0.10415758
133	0x3de6cd83	0.11269667
134	0x3e4d2b24	0.20035988
135	0xbbc44886	-0.005990091
136	0xbe80dddf	-0.25169274
137	0xbe5abd22	-0.21361211
138	0x3e085543	0.13313775
139	0xbd26dab4	-0.040735915
140	0xbe3724ee	-0.17885181
141	0x3e2d03d3	0.1689599
142	0xbd3d257b	-0.046178322
143	0xbd95f84f	-0.07322752
144	0x3da66429	0.08124573
145	0xbd0fab73	-0.035075616
146	0xbe62aed3	-0.22137003
147	0xbde18410	-0.11011517
148	0xbe133e7e	-0.14379308
149	0xbdbbee81	-0.091763504
150	0xbe4a4b6e	-0.19755337
151	0xbe5122a4	-0.2042337
152	0xbeb6165a	-0.35563928
153	0xbe738e4a	-0.23784748
154	0xbd20200d	-0.039093066
155	0x3e544fa9	0.20733513
156	0xbe974c79	-0.29550532
157	0xbe2e17d7	-0.17001282
158	0x3ce1e25e	0.02757376
159	0xbecf8cc1	-0.40537074
160	0xbe1fc923	-0.15604071
161	0xbd0a79e7	-0.03380766
162	0xbe95028d	-0.2910351
163	0xbe427157	-0.18988548
164	0xbe457b4f	-0.1928532
165	0xbe3e26ec	-0.18569535
166	0xbe713ad4	-0.23557597
167	0xbe330601	-0.17482759
168	0xbe28c896	-0.16482767
169	0x3d0a911e	0.0338298
170	0x3d57fbfd	0.05273055
171	0xbe33152d	-0.17488547
172	0xbe65e395	-0.22450097
173	0xbe6f4c16	-0.23368868
174	0x3ccee0e8	0.025253728
175	0xbe5c5620	-0.21517229
176	0xbe602ef5	-0.21892913
177	0x3ddcf870	0.10789573
178	0xbd90bb01	-0.07066918
179	0xbd2702d7	-0.040774193
180	0xbcbfc8bc	-0.023411147
181	0x3e26a8d7	0.16275345
182	0xbb2252bb	-0.002476855
183	0xbd816a0d	-0.06319056
184	0x3df14c65	0.11782149
185	0x3d01b607	0.031667735
186	0xbd0168e3	-0.03159417
187	0x3d1101c5	0.03540208
188	0xbcabbe3b	-0.020964732
189	0xbd9b106e	-0.07571493
190	0x3c4b8d54	0.012423832
191	0x3d71de66	0.059049986
192	0xbcc583a4	-0.024110623
193	0xbb6dd563	-0.0036290518
194	0x3e0b79cb	0.13620679
195	0x3d7e870e	0.062140517
196	0x3e0318aa	0.12802377
197	0x3e376524	0.17909676
198	0x3df6f81e	0.12059043
199	0x3c69b2af	0.014263793
200	0x3d44c4b1	0.048039142
201	0x3d9d2e9f	0.07674908
202	0x3b60e909	0.0034318587
203	0xbbfbc532	-0.0076834196
204	0x3dd05925	0.10173253
205	0x3de4584c	0.11149654
206	0xbcf90034	-0.030395605
207	0x3d0731b0	0.03300637
208	0x3da14eca	0.07876356
209	0x3cc9bf67	0.0246274
210	0xbca5102b	-0.020149311
211	0x3dcac452	0.099007264
212	0x3d521859	0.05129275
213	0x3e19e649	0.15029253
214	0xbd0ed78a	-0.034873523
215	0x3d34b788	0.04412034
216	0xbdf71a67	-0.12065583
217	0xbdc0419b	-0.09387513
218	0xbe1a9155	-0.15094502
219	0x3de4a748	0.11164719
220	0x3debe718	0.11518687
221	0x3ddd9e77	0.108212404
222	0x3e029620	0.1275258
223	0x3e1016f3	0.14071254
224	0x3d7c5ade	0.061610095
225	0x3e845011	0.25842336
226	0x3d8434f0	0.064554095
227	0xbd099856	-0.033592544
228	0x3dde0bb4	0.10842076
229	0x3df05ecd	0.11736832
230	0xbe6a9931	-0.2291
231	0x3d0bd2e5	0.03413667
232	0x3ba74df0	0.0051057264
233	0x3c85acaf	0.016317694
234	0x3ea4d50e	0.32193798
235	0x3e5d0e14	0.21587402
236	0x3ebfb061	0.37439254
237	0x3dd3591f	0.10319733
238	0x3e07576a	0.1321694
239	0x3e60d79c	0.21957248
240	0x3d8ec8ee	0.06971918
241	0xbd84784c	-0.06468257
242	0x3c298ead	0.010348958
243	0x3dd2a47a	0.10285278
244	0x3e40d3e2	0.18830827
245	0x3e715d8b	0.2357084
246	0x3b39af5f	0.002833329
247	0x3e2594e4	0.16170079
248	0x3e312892	0.17300633
249	0xbe1d0c52	-0.15336731
250	0x3e90ca30	0.28279257
251	0x3e176045	0.14782818
252	0x3d3c34e2	0.04594887
253	0xbde21358	-0.11038846
254	0xbe02c14e	-0.12769052
255	0x3d3c2361	0.045932177

final_layer.weight f4 [10, 10, 4, 3, 3]
0	0xbcae131d	-0.021249348
1	0x3e29fd2b	0.16600482
2	0x3be004e7	0.006836522
3	0x3dfee887	0.12446695
4	0x3d19bb54	0.037532166
5	0xbcfc6fc8	-0.03081502
6	0x3dd760b9	0.10516495
7	0x3ca26dba	0.019827712
8	0xbd4b136f	-0.04957908
9	0x3e257e88	0.16161549
10	0x3e259a80	0.16172218
11	0x3e2354a5	0.15950258
12	0x3e25ad54	0.161794
13	0x3ca0b74e	0.019618656
14	0x3de0d2d3	0.109777115
15	0x3d7a3eec	0.061095163
16	0x3d52ada9	0.051435146
17	0x3dc23fea	0.09484847
18	0xbcf3413e	-0.029694196
19	0x3dc8333f	0.097753994
20	0x3de9481b	0.11390706
21	0x3cd40b0b	0.025884172
22	0x3e24aa89	0.16080679
23	0x3abefa30	0.0014570411
24	0x3e1d3d47	0.15355407
25	0x3e2712fe	0.16315839
26	0x3de7dd8b	0.11321553
27	0xbcc559f4	-0.024090745
28	0x3d14f173	0.036363076
29	0x3cce2764	0.025165267
30	0x3ce9948f	0.028513221
31	0x3cf9bec9	0.030486481
32	0x3ab8c6d6	0.0014097344
33	0x3d5a5fa5	0.05331387
34	0x3e001ecb	0.12511747
35	0x3c8e7780	0.017390966
36	0xbf0e2b5f	-0.5553493
37	0xbf0ad60c	-0.5423286
38	0xbf15410f	-0.58302397
39	0x3d1104fe	0.03540515
40	0x3df523d8	0.11969727
41	0x3e3e9684	0.18612105
42	0x3d3a5e0c	0.045499846
43	0x3e097567	0.13423692
44	0x3e0b02dc	0.1357531
45	0x3e188632	0.14894941
46	0x3de3a22f	0.111149184
47	0xbefe9060	-0.49719524
48	0x3e59bb36	0.21262822
49	0x3e452d86	0.19255647
50	0xbf18b326	-0.5964836
51	0x3e3aedcb	0.18254773
52	0x3e3d2d68	0.18474352
53	0xbf018130	-0.5058775
54	0x3e0c21c6	0.13684759
55	0x3d18ecb5	0.037335116
56	0x3e56e022	0.20983937
57	0x3e3d8e3a	0.18511286
58	0x3bba7fa3	0.005691485
59	0x3da53b96	0.08068006
60	0xbf175744	-0.5911753
61	0xbf0ac1f9	-0.5420223
62	0xbefb9f45	-0.4914495
63	0xbf12a260	-0.57279015
64	0x3dd243da	0.10266848
65	0x3e36c7aa	0.17849603
66	0xbf0e23e4	-0.55523515
67	0x3cfbc7c7	0.03073491
68	0x3d01c967	0.031686213
69	0xbf089283	-0.5334856
70	0x3e373396	0.17890772
71	0x3dbece32	0.093166724
72	0x3e05f5a2	0.13081983
73	0xbd7491c4	-0.059709325
74	0x3e0f54bf	0.13997172
75	0xbd18cd5c	-0.03730522
76	0x3df2632e	0.11835323
77	0xbcffddbc	-0.03123366
78	0x3d921de3	0.07134607
79	0xbcfe22b5	-0.031022409
80	0x3d93eaf5	0.07222549
81	0x3ca5c460	0.02023524
82	0xbc1bb652	-0.009503918
83	0xbc529d8d	-0.012854946
84	0x3dfde457	0.12397068
85	0xbd4cae17	-0.049970713
86	0x3e1142f5	0.14185698
87	0xbd0036d3	-0.031302284
88	0xbd7dbe2e	-0.061948948
89	0x3d01d77f	0.031699654
90	0x3dd08712	0.101820126
91	0x3d8b657a	0.068064645
92	0xbbef1526	-0.0072962223
93	0x3dc5e178	0.096621454
94	0x3da00155	0.07812754
95	0x3d3d1f1c	0.046172246
96	0x3d80ab97	0.06282728
97	0x3d1b7275	0.03795095
98	0x3b9ee65d	0.004849239
99	0xbc5929fb	-0.013254638
100	0x3c4cb3d8	0.01249405
101	0xba61f4a8	-0.00086195255
102	0xbd49f57c	-0.049306378
103	0x3da3ecf7	0.08004182
104	0xbd3d123a	-0.04615996
105	0xbd4ef952	-0.05053074
106	0xbc649d14	-0.013953466
107	0x3d9fdb8b	0.078055464
108	0x3e61fb94	0.22068626
109	0x3e9393d7	0.2882373
110	0x3e30d94b	0.1727039
111	0x3e8ef3b3	0.27920303
112	0x3e99443c	0.2993487
113	0x3e95f462	0.29288012
114	0x3e928287	0.2861521
115	0x3e09a624	0.13442284
116	0x3e92ecc4	0.28696263
117	0x3e67e903	0.2264748
118	0x3e4c3129	0.19940628
119	0x3e64c10c	0.22339267
120	0x3e946f7e	0.28991312
121	0x3e198921	0.14993717
122	0x3eac02f5	0.33596006
123	0x3e1845e3	0.1487041
124	0x3e21625c	0.15760177
125	0x3eadb6b0	0.33928442
126	0x3ea9c1da	0.3315571
127	0x3e05b1fa	0.13056174
128	0x3e974332	0.29543453
129	0x3e5b9b0e	0.21445867
130	0x3e51de36	0.20494923
131	0x3ea901ba	0.3300913
132	0x3e2c1242	0.1680384
133	0x3e945691	0.28972295
134	0x3e330251	0.17481352
135	0x3e92bba7	0.28658792
136	0x3e371786	0.17880067
137	0x3e552183	0.20813565
138	0x3e8b0749	0.27153996
139	0x3e0e317b	0.13886063
140	0x3e4c560d	0.19954701
141	0x3e829a78	0.25508475
142	0x3e5fd9ff	0.21860503
143	0x3e7986b2	0.24367788
144	0x3ea5567e	0.3229255
145	0x3eaadcb9	0.33371523
146	0x3ea9395c	0.33051574
147	0x3e4181b4	0.18897134
148	0x3e74e8b2	0.23916891
149	0x3e93308e	0.28747982
150	0x3e1fa8a8	0.15591681
151	0x3e46e0e0	0.1942172
152	0x3dd46c1e	0.10372184
153	0x3d957184	0.07297042
154	0x3e77c517	0.24196278
155	0x3e58671b	0.21133082
156	0x3d6e41df	0.05816829
157	0x3ebdfa3c	0.37104976
158	0x3eba5a6a	0.36397105
159	0x3d6c720d	0.057725955
160	0x3eb98390	0.36233187
161	0x3eb77fe6	0.35839766
162	0x3e4a3b34	0.19749147
163	0x3e5a69bc	0.21329397
164	0x3e2a6573	0.16640262
165	0x3e70f00e	0.23529074
166	0x3e802221	0.25026038
167	0x3e88bc7e	0.26706308
168	0x3eba8233	0.3642746
169	0x3e3a0a87	0.18168078
170	0x3e53af33	0.20672302
171	0x3e43802f	0.19091867
172	0x3eb3ef8b	0.35143694
173	0x3da399af	0.07988297
174	0x3ec0bd7a	0.3764456
175	0x3e86c6cf	0.26323554
176	0x3db43c1c	0.088005275
177	0x3ebc91da	0.36830026
178	0x3e833596	0.2562682
179	0x3e3790c5	0.17926319
180	0xbe8f85ad	-0.28031674
181	0xbe3566ac	-0.17714947
182	0xbea3e2c1	-0.32008937
183	0xbead0a08	-0.33796716
184	0xbea7042a	-0.32620364
185	0xbea484dd	-0.32132617
186	0xbea2128a	-0.3165477
187	0xbe157561	-0.14595558
188	0xbea9bca7	-0.33151743
189	0xbe6559c0	-0.22397518
190	0xbe80f682	-0.2518807
191	0xbeb5b002	-0.35485846
192	0xbea233c7	-0.31680128
193	0xbe87107a	-0.26379758
194	0xbe40d859	-0.1883253
195	0xbeaccdd1	-0.33750775
196	0xbe8dc2ca	-0.27687675
197	0xbe9b1745	-0.3029119
198	0xbe38a8a6	-0.18033084
199	0xbe653727	-0.2238432
200	0xbe331cb7	-0.17491423
201	0xbe86e67d	-0.26347724
202	0xbe72458f	-0.23659347
203	0xbe7e2ca0	-0.2482171
204	0xbe5da903	-0.21646504
205	0xbea85cd3	-0.3288332
206	0xbe509cba	-0.20372286
207	0xbe15de3a	-0.14635554
208	0xbea4d8f6	-0.32196778
209	0xbe986087	-0.29761145
210	0xbe7c1be3	-0.24620013
211	0xbe098f6a	-0.13433614
212	0xbe5435f2	-0.20723704
213	0xbe998ebf	-0.2999172
214	0xbe13caae	-0.14432785
215	0xbe94ef35	-0.2908875
216	0x3ddfa977	0.10920995
217	0x3e176ec3	0.14788346
218	0x3c8de658	0.01732175
219	0x3d634b64	0.05549182
220	0x3d93815b	0.07202407
221	0x3d559b2d	0.05214994
222	0x3d0595d1	0.03261358
223	0x3d2037da	0.039115764
224	0x3e10e063	0.14148097
225	0xbd83d5c8	-0.0643726
226	0x3c926cee	0.017874207
227	0x3dbcaf01	0.09213067
228	0x3c724c3f	0.014788686
229	0x3e4f15c0	0.2022314
230	0x3df7a7c8	0.120925486
231	0x3d90afe6	0.070648
232	0x3e3e461a	0.18581429
233	0x3e21ffac	0.15820187
234	0x3d842bf2	0.064536944
235	0x3df56b4e	0.11983357
236	0xbcd0e60c	-0.02550032
237	0x3e0b56c4	0.13607317
238	0x3dee6a8a	0.116414145
239	0xbd1e41c5	-0.03863694
240	0x3da9e176	0.082949564
241	0x3c9abaa1	0.01888782
242	0xbc921604	-0.017832763
243	0x3e380c4e	0.17973444
244	0x3dccc332	0.09998168
245	0x3d8c0908	0.0683766
246	0x3db76f5a	0.089567855
247	0x3c5bfdd9	0.013427221
248	0x3d9c4e77	0.076321535
249	0x3dcf32d0	0.101171136
250	0xbccf4514	-0.025301494
251	0x3c1a3eec	0.009414416
252	0xbdcc2f6a	-0.09969981
253	0xbd327f67	-0.04357853
254	0xbd6cd1dd	-0.05781733
255	0x3d5f1a89	0.054468665
