runs/PlainCNN_aniso_std0.3_gamma2_lr0.002/model.pt (torch, 109053 bytes, 18 tensors)

first.weight f4 [20, 1, 3, 3]
0	0xbe403737	-0.18771063
1	0xbb05ecf3	-0.0020435422
2	0x3eb4ee89	0.35338238
3	0xbe084681	-0.13308145
4	0xbc96ad71	-0.01839325
5	0x3eabad3c	0.33530605
6	0x3ea89c71	0.32931855
7	0x3ec5dbe8	0.38644338
8	0x3dd79fea	0.10528548
9	0xbe76174f	-0.24032329
10	0xbca92e21	-0.020651879
11	0x3db974d0	0.09055483
12	0xbdc3be49	-0.095577784
13	0xbe1802e7	-0.14844857
14	0x3e6c2cca	0.2306396
15	0xbed2598d	-0.41083947
16	0x3d81e228	0.06341964
17	0xbe0c2a7a	-0.13688079
18	0xbd78d707	-0.06075194
19	0x3d42470e	0.047431044
20	0x3e61bbf9	0.22044362
21	0xbe6a9976	-0.22910103
22	0x3e22b6e4	0.1589008
23	0x3e62152b	0.22078387
24	0x3c2b0738	0.010438733
25	0xbdf5a2e6	-0.11993961
26	0x3e3d9867	0.18515168
27	0x3d76b0d3	0.060227226
28	0xbc60d67e	-0.013723014
29	0x3da52f5c	0.08065674
30	0xbcdc955f	-0.026926694
31	0x3d1555ab	0.036458652
32	0x3c420473	0.011841881
33	0x3e17c377	0.14820658
34	0x3e6234fb	0.22090523
35	0xbcbc0d62	-0.0229556
36	0xbe9d2f0c	-0.30699956
37	0xbe433984	-0.19064909
38	0x3ce04960	0.027378738
39	0xbf16c7a4	-0.5889838
40	0xbf212614	-0.6294873
41	0xbe408515	-0.18800767
42	0x3ef14f03	0.47130594
43	0xbef8f644	-0.48625386
44	0x3e719985	0.2359372
45	0xbf0f4f6a	-0.5598055
46	0x3d549b72	0.051906057
47	0xbf1588fe	-0.5841216
48	0xbe7bb716	-0.2458156
49	0xbe1c50ac	-0.15265149
50	0x3e1dcd41	0.1541033
51	0xbea976b2	-0.3309837
52	0xba61ac5f	-0.0008608754
53	0xbe701abd	-0.234477
54	0xbe85765f	-0.26066872
55	0xbe0c6091	-0.13708712
56	0xbe0cfd7e	-0.13768575
57	0xbe9b7180	-0.3036003
58	0x3e625a8e	0.22104856
59	0xbe980831	-0.2969375
60	0xbdb5f86e	-0.08885275
61	0xbeabe82d	-0.33575574
62	0xbe802172	-0.25025517
63	0x3ef9ce7b	0.48790345
64	0xbe0d6786	-0.13809022
65	0x3d63bdb0	0.055600822
66	0x3eb3dec7	0.35130903
67	0x3dcf113f	0.10110711
68	0xbd1e208f	-0.03860527
69	0xbd9dce46	-0.07705359
70	0xbe065d6d	-0.13121577
71	0xbdd44966	-0.10365562
72	0x3ea4e1b1	0.3220344
73	0x3e31d205	0.17365272
74	0xbcc3f19a	-0.023918916
75	0x3dd4058a	0.10352619
76	0x3dd11822	0.10209681
77	0x3eaf6ba9	0.34261826
78	0xbf20eddc	-0.62862945
79	0xbf05e442	-0.5230142
80	0x3df343a4	0.11878136
81	0x3f160b22	0.5861074
82	0x3eb831f8	0.35975623
83	0xbdf2d28a	-0.118565634
84	0x3ea130ca	0.31482536
85	0x3ebe1ad4	0.37129843
86	0xbe1ffe80	-0.15624428
87	0xbe537128	-0.20648634
88	0xbda197ce	-0.078902826
89	0xbe67606e	-0.22595379
90	0x3dd18313	0.102300785
91	0xbd56554e	-0.052327447
92	0x3d97a094	0.07403675
93	0x3e98130f	0.2970204
94	0x3e0345d1	0.12819602
95	0xbc789477	-0.0151721155
96	0x3e8aea76	0.27132004
97	0x3d9cfd1b	0.076654635
98	0xbe12c0bb	-0.14331333
99	0x3c64e53c	0.013970669
100	0x3e2c870f	0.16848396
101	0xbd95782e	-0.07298313
102	0xbe8c3122	-0.27381235
103	0xbcfab7af	-0.030605165
104	0xbc5b5647	-0.013387269
105	0x3d69e732	0.05710525
106	0xbe001447	-0.12507735
107	0xbe263107	-0.1622964
108	0xbe515459	-0.20442332
109	0x3e15c119	0.14624442
110	0xbe95d47b	-0.29263672
111	0x3c59b30a	0.013287315
112	0xbe4c5a4d	-0.19956322
113	0x3dc4f7d0	0.09617579
114	0x3dc797e2	0.09745766
115	0x3e58e394	0.21180564
116	0x3d70bcb8	0.058773726
117	0x3d95ebde	0.07320379
118	0x3ea8669c	0.32890785
119	0xbe8d1aa3	-0.27559385
120	0xbdeb0e90	-0.11477387
121	0x3d60331d	0.054736245
122	0xbeb1d669	-0.34733894
123	0x3f266766	0.65001523
124	0xbe9dc9cf	-0.3081803
125	0xbe33ab0b	-0.17545716
126	0x3cad2c6e	0.02113935
127	0x3ec88220	0.39161777
128	0x3f26d6bb	0.651714
129	0xbda0724a	-0.07834299
130	0x3e0d43c3	0.1379538
131	0x3eb6f756	0.35735577
132	0xbd89577d	-0.0670614
133	0x3d76a30d	0.06021409
134	0x3d890189	0.06689746
135	0x3f112309	0.56694084
136	0x3ea6d9a0	0.3258791
137	0xbe680ea2	-0.22661832
138	0x3e358a1a	0.17728463
139	0x3c9a9d78	0.018873915
140	0xbe193702	-0.1496239
141	0xbdeccc70	-0.11562431
142	0xbbd25f97	-0.0064200866
143	0x3dc7d6e0	0.09757781
144	0x3ea4eff4	0.3221432
145	0xbd53794c	-0.05162935
146	0xbdfc029a	-0.12305184
147	0x3e9d27d8	0.3069446
148	0x3d6af37b	0.057361107
149	0xbd968154	-0.07348886
150	0x3ea76194	0.32691634
151	0x3e9f2ac4	0.31087315
152	0x3e5d0479	0.21583737
153	0x3ce2ca86	0.027684461
154	0xbca7ac46	-0.020467889
155	0xbd253b1b	-0.04033957
156	0xbb95b31f	-0.004568472
157	0x3d5cdef8	0.053923577
158	0x3c8ee583	0.017443424
159	0x3e2418d0	0.1602509
160	0x3e6a6972	0.22891787
161	0xbdb1606b	-0.086609684
162	0x3ec3e76a	0.38262492
163	0x3e50fdf8	0.20409381
164	0x3d932198	0.07184142
165	0x3ee74ead	0.45177212
166	0x3ea833ae	0.32851928
167	0x3d62ddac	0.055387184
168	0x3e1f0854	0.1553052
169	0x3cf36779	0.029712426
170	0xbccde21b	-0.02513223
171	0xbe8f32d2	-0.2796846
172	0x3e5e3392	0.2169936
173	0x3d8d12b3	0.06888332
174	0xbe84a853	-0.2590967
175	0x3ebc05f2	0.36723286
176	0x3d81c634	0.06336632
177	0x3ed62a9c	0.41829383
178	0xbe3e4822	-0.18582204
179	0xbee213b5	-0.4415566

first.bias f4 [20]
0	0xbec2ebf7	-0.38070652
1	0x3e4acb61	0.19804145
2	0x3e8385c9	0.25688007
3	0xbe103981	-0.14084436
4	0xbbd376e4	-0.006453382
5	0xbd4b45bd	-0.049627054
6	0x3ecf80c5	0.4052793
7	0x3d50712e	0.050889187
8	0xbd231d6e	-0.03982299
9	0xbf2d73ac	-0.67754626
10	0xbe4a8f12	-0.1978114
11	0x3e3be10a	0.18347564
12	0x3e64c330	0.22340083
13	0xbda00049	-0.078125544
14	0xbed15cb0	-0.40891027
15	0xbd1173f7	-0.035510983
16	0xbf065e4c	-0.52487636
17	0xbd594598	-0.053044885
18	0xbede2a0d	-0.43391457
19	0xbd4cd565	-0.050008196

hiddens.0.weight f4 [20, 20, 3, 3]
0	0x3c97cd9d	0.018530661
1	0x3cdc93e3	0.026925987
2	0x3d4c6926	0.049904965
3	0xbd0bd099	-0.03413448
4	0xbd970da2	-0.07375647
5	0xbd0ed595	-0.034871656
6	0xbcf628e8	-0.030048802
7	0xbd56cb3e	-0.05243992
8	0xbd942094	-0.07232776
9	0x3c38619b	0.01125374
10	0xbcb7b83e	-0.02242672
11	0xbda9cf8c	-0.082915395
12	0x3d788fe2	0.060684092
13	0xbdd3f42c	-0.103493065
14	0xbc1fdace	-0.009756757
15	0xbc4d7103	-0.012539151
16	0x3cae1396	0.021249574
17	0xbd1c0e2d	-0.038099457
18	0x3d26a2b4	0.04068251
19	0xbc8fa6af	-0.017535536
20	0x3c2608f2	0.010133969
21	0x3b9e4e58	0.0048311166
22	0xbdbd7c93	-0.09252276
23	0x3bd6f939	0.0065604714
24	0xbddf96c6	-0.109174296
25	0xbd0d62dd	-0.03451811
26	0x3c946ec6	0.018119227
27	0xbcf948c3	-0.030430203
28	0xbd4db5ba	-0.050222136
29	0xbd8598de	-0.06523298
30	0xbb6b7566	-0.003592813
31	0xbcdd9aa1	-0.027051272
32	0xbd90b9a2	-0.07066657
33	0xbb4dd123	-0.0031405173
34	0xbd5856ce	-0.05281716
35	0xbd7b7325	-0.061389107
36	0xbd7eebda	-0.062236644
37	0xbd7ed146	-0.062211297
38	0xbb1da35c	-0.0024053669
39	0xbd0c2862	-0.0342182
40	0xbdc449f1	-0.09584416
41	0xbcd0dfcf	-0.025497345
42	0xbd2288b2	-0.039681144
43	0xbcc8833f	-0.024476646
44	0xbd0eb8d8	-0.03484425
45	0xbd802c78	-0.06258482
46	0x3d5d2896	0.053993784
47	0xbdafa210	-0.08575833
48	0xbd97b940	-0.074083805
49	0xbbd11f14	-0.0063818786
50	0x3d1d8bb4	0.03846331
51	0xbd24f37b	-0.040271264
52	0xbded32a4	-0.115819246
53	0xbd21e6d3	-0.03952677
54	0x3cc9fe2a	0.024657328
55	0x3d49f011	0.04930121
56	0xbda82100	-0.08209419
57	0xbd8fb332	-0.07016601
58	0xbd85d6cb	-0.06535109
59	0xbd29b992	-0.04143674
60	0x3c61b5e1	0.0137762735
61	0xbdc18452	-0.09449066
62	0xbd6a6009	-0.057220493
63	0xbd783c52	-0.0606044
64	0x3ce478a4	0.027889557
65	0xbbc5bfad	-0.0060348124
66	0xbda5302e	-0.0806583
67	0xbc7e4791	-0.015519992
68	0xbbe0d6f4	-0.006861562
69	0xbdd63367	-0.10459023
70	0xbdd31d57	-0.103083305
71	0xbd813207	-0.0630837
72	0x3d2b58e4	0.04183282
73	0x3d6b4a19	0.057443712
74	0xbd69c8c9	-0.05707625
75	0xbd0365f4	-0.032079652
76	0x3d324b83	0.043529045
77	0xbd9f5bf2	-0.07781209
78	0xbd3df464	-0.046375647
79	0x3c10ed83	0.00884569
80	0x3d4bd635	0.04976483
81	0xbb984f2c	-0.00464811
82	0xbd89ab66	-0.06722145
83	0xbc2c3901	-0.010511638
84	0xbbd70e99	-0.0065630195
85	0x3b183db1	0.002323013
86	0xbe0ac5b8	-0.13551986
87	0xbdf449ff	-0.11928176
88	0x3c4276f1	0.011869178
89	0x3d0247a3	0.0318066
90	0x3d08c532	0.033391185
91	0xbdb3bf88	-0.08776766
92	0xbb978e91	-0.0046251495
93	0xbd93c2c6	-0.072148845
94	0x3cfde686	0.030993711
95	0xbd18f9f0	-0.037347734
96	0xbdbdc969	-0.092669316
97	0x3c20558f	0.009786024
98	0xbcbe264c	-0.02321162
99	0xbd887b06	-0.0666409
100	0xbd971fb9	-0.073790975
101	0xbd8cd5b0	-0.06876695
102	0xbcb8f451	-0.022577437
103	0x3d13f7fa	0.03612516
104	0xbddd330c	-0.10800752
105	0xbd128229	-0.03576866
106	0xbc7446ea	-0.014909485
107	0x3cf1e70c	0.029529117
108	0xbda79c80	-0.08184147
109	0xbdd0e077	-0.10199063
110	0xbd8c2a83	-0.06844046
111	0x3cf40475	0.029787282
112	0xbdaa6f00	-0.08321953
113	0xbd277451	-0.040882412
114	0x3c958d65	0.018255899
115	0xbdd6b365	-0.104834355
116	0xbd171832	-0.03688831
117	0xbd2e4890	-0.04254967
118	0x3c247822	0.0100384075
119	0x3c464eed	0.012103778
120	0x3c87372e	0.016505804
121	0x3d3fa870	0.046791494
122	0xbe002a2c	-0.12516087
123	0xbd73550e	-0.059407286
124	0xbd656d96	-0.056012712
125	0xbca9c1aa	-0.020722229
126	0x3d67f1e9	0.056627188
127	0x3ca017e6	0.019542646
128	0xbca194bc	-0.019724242
129	0xbdb01df3	-0.08599462
130	0xbd7f8581	-0.06238318
131	0x3d465ffa	0.048431374
132	0x3d202a8f	0.039103087
133	0xbc73d243	-0.014881673
134	0xbb741254	-0.003724237
135	0x3c9d7490	0.01922062
136	0xbd9091b2	-0.07059039
137	0xbd5b55be	-0.053548567
138	0xbd48924e	-0.048967652
139	0x3a6c1d4f	0.0009007053
140	0xbd040350	-0.03222972
141	0xbda1a973	-0.07893648
142	0xbd033156	-0.032029472
143	0x3c0f8a4e	0.008761002
144	0xbd7279b7	-0.059198108
145	0xbc8dd6b5	-0.017314294
146	0x3d538497	0.05164012
147	0xbd38cd18	-0.045117468
148	0xbd5489fc	-0.051889405
149	0xbcbc6967	-0.022999479
150	0xbb7a18c0	-0.0038161725
151	0x3cd34499	0.025789546
152	0xbdb362bb	-0.08759066
153	0x3c4189e0	0.011812657
154	0xbdb51cf7	-0.08843415
155	0xbd00e91a	-0.031472303
156	0x3c919e25	0.017775605
157	0xbd493c3e	-0.049129717
158	0xbdd41fa9	-0.10357601
159	0xbd9ee402	-0.07758333
160	0xbd900794	-0.070326954
161	0xbd880a40	-0.0664258
162	0x3cc44388	0.023957983
163	0xbcaf5119	-0.021400975
164	0x3cc409f5	0.02393053
165	0x3c80abb6	0.015706878
166	0xbda0dd4c	-0.07854709
167	0x3d3c19ec	0.04592316
168	0x3cb54c03	0.022130972
169	0xbdbab9a0	-0.091174364
170	0xbc091e9d	-0.008369115
171	0xbd92a7c6	-0.071609065
172	0x3a6e0b69	0.000908068
173	0xbdcbd505	-0.099527396
174	0xbd982f5f	-0.0743091
175	0x3b99b8b4	0.004691208
176	0x3bffafd1	0.0078029414
177	0xbdef7550	-0.116922975
178	0xbdb56b67	-0.08858376
179	0xbc3044fa	-0.010758633
180	0xbd0d7d28	-0.034543186
181	0x3c3c9a02	0.011511328
182	0xbeb64ecd	-0.35606995
183	0x3c389f7f	0.011268496
184	0x3cc9bf17	0.024627252
185	0xbedf7f22	-0.43651682
186	0xbe09ed12	-0.13469341
187	0xbe58d2b9	-0.21174134
188	0xbece807d	-0.40332404
189	0xbe088ae7	-0.13334237
190	0xbd80c40f	-0.06287395
191	0x3c63cde1	0.013904066
192	0xbdca38de	-0.09874128
193	0xbd710c0c	-0.05884938
194	0xbdf54c64	-0.11977461
195	0x3d89aae1	0.06722046
196	0x3c337523	0.010953221
197	0xbb71e6c0	-0.003691122
198	0x3e7e8985	0.24857147
199	0x3dc975a3	0.098368905
200	0xbe4f3420	-0.20234728
201	0x3ddec6a7	0.10877734
202	0x3bebe01d	0.0071983472
203	0xbda31d65	-0.07964591
204	0x3e72f49b	0.23726122
205	0xbcc2e149	-0.023789065
206	0x3dd4d7d6	0.1039273
207	0x3e073d50	0.13206983
208	0x3de4c795	0.1117088
209	0xbd364737	-0.04450151
210	0x3d3f61fd	0.04672431
211	0x3de9c73a	0.114149526
212	0xbda1b9b6	-0.0789675
213	0xbdcf06da	-0.10108729
214	0xbdbc8afa	-0.09206195
215	0xbd868fc3	-0.06570389
216	0x3edda068	0.43286443
217	0x3ec16503	0.37772378
218	0x3d45e28b	0.04831175
219	0x3e638c10	0.22221398
220	0x3df11115	0.11770836
221	0x3db4f82a	0.08836396
222	0xbe0df92e	-0.13864586
223	0xbe11b269	-0.14228214
224	0xbc894737	-0.01675759
225	0x3e773508	0.24141324
226	0x3e49c75f	0.1970496
227	0x3e243794	0.16036826
228	0x3dfdcc1d	0.12392447
229	0x3e505745	0.2034579
230	0x3e203133	0.15643768
231	0x3e2fa293	0.17151861
232	0x3e4d9e0b	0.2007982
233	0x3e06082f	0.1308906
234	0xbe975cc7	-0.2956297
235	0xbe24352b	-0.16035907
236	0x3bb754fc	0.0055948477
237	0xbe982c5e	-0.2972135
238	0xbe66ca50	-0.22538114
239	0xbe0fb190	-0.14032578
240	0xbe095d60	-0.13414526
241	0xbe00c114	-0.12573653
242	0x3d3874e9	0.04503337
243	0x3e20d379	0.1570567
244	0x3dd50d4c	0.10402927
245	0x3b2518ec	0.0025191857
246	0x3d49ca5d	0.049265254
247	0x3ddf7ba0	0.109122515
248	0x3dbe3ee9	0.09289343
249	0x3c5c9755	0.013463815
250	0x3e139d3a	0.14415446
251	0x3d52cb8f	0.05146366
252	0x3edc700b	0.43054232
253	0xbca49906	-0.020092499
254	0x3d472657	0.048620548
255	0x3eaceb13	0.33773097

hiddens.0.bias f4 [20]
0	0xbdabddea	-0.08391936
1	0x3d7ffd79	0.06249759
2	0xbd962a05	-0.07332233
3	0xbdd687bd	-0.10475109
4	0x3c840e84	0.016120203
5	0xbd9a13e9	-0.07523329
6	0x3e7c8dec	0.24663514
7	0x393c27d5	0.00017943916
8	0xbcb93a60	-0.022610843
9	0xbe183803	-0.14865117
10	0xbd895983	-0.06706526
11	0xbb9f6bb4	-0.004865134
12	0xbd856ad3	-0.06514516
13	0xbcf20be1	-0.02954668
14	0xbd4767bf	-0.048682924
15	0xbddf94b6	-0.10917036
16	0xbdf231d0	-0.11825907
17	0x3e86ebc0	0.26351738
18	0xbd0c1557	-0.03420004
19	0xbdc55d48	-0.096369326

hiddens.2.weight f4 [20, 20, 3, 3]
0	0xbd3bc0a2	-0.045838006
1	0xbd8bf9f4	-0.06834784
2	0xbce97898	-0.028499886
3	0xbc8685df	-0.016421257
4	0xbb2c818b	-0.002632233
5	0x3d58c3f4	0.05292125
6	0x3d89f09e	0.06735347
7	0xbce0e01d	-0.027450616
8	0x3d6dfa50	0.058100045
9	0x3e3ea6ff	0.18618391
10	0x3e7fd000	0.2498169
11	0x3e8502a1	0.25978568
12	0x3e243299	0.16034926
13	0x3e2a6cff	0.16643141
14	0x3da0185b	0.078171454
15	0x3e848328	0.25881314
16	0x3e3a2d71	0.18181397
17	0x3e1c1ea9	0.15246071
18	0x3d1946d5	0.037421066
19	0x3d72a2ec	0.059237406
20	0xbca79e43	-0.020461207
21	0xbcc7858b	-0.02435567
22	0xbce1a6d8	-0.027545378
23	0x3c858e00	0.016303062
24	0x3d0e18bc	0.034691557
25	0xbb8eefef	-0.0043620984
26	0xbd77ee99	-0.06053028
27	0xbd3dd61b	-0.046346765
28	0xbd4e73d4	-0.05040343
29	0xbd6d4358	-0.057925552
30	0x3c91fd10	0.017820865
31	0xbd736643	-0.059423696
32	0xbd39f948	-0.04540375
33	0xbd6bba96	-0.05755099
34	0x3d33cd37	0.04389688
35	0x3d284d13	0.04108913
36	0x3ea9350f	0.33048293
37	0x3db98246	0.09058051
38	0xbd87b912	-0.06627096
39	0x3e6ec67b	0.23317902
40	0x3e235175	0.15949042
41	0xbaf3b0a4	-0.0018592072
42	0x3e1161b5	0.14197429
43	0xbd17f38d	-0.037097502
44	0x3d015f18	0.03158483
45	0x3c55e6f4	0.013055552
46	0x3caec8a7	0.021335913
47	0x3d8420e9	0.064515896
48	0x3d4756a9	0.04866663
49	0xbe003c17	-0.12522922
50	0xbcea415b	-0.028595617
51	0xbd77f52a	-0.06053654
52	0xbe22853f	-0.15871142
53	0xbd03b1c2	-0.032151945
54	0xbeef10cd	-0.46692505
55	0xbe0908d0	-0.13382268
56	0xbde30cc7	-0.110864215
57	0xbeaeb9a6	-0.34126014
58	0x3d8b3272	0.06796731
59	0x3e20d530	0.15706325
60	0xbeccfc30	-0.40036154
61	0x3d62df45	0.055388708
62	0xbc8accfb	-0.016943445
63	0x3d109e2b	0.03530709
64	0xbcd338be	-0.025783893
65	0xbcbec5a5	-0.023287604
66	0x3c95769e	0.018245038
67	0x3c9100ed	0.017700637
68	0x3cf5e5ad	0.030016745
69	0xbd3c764c	-0.046011254
70	0x3d14c565	0.036321063
71	0xbdb589e3	-0.088641904
72	0x3d29145a	0.041279174
73	0xbd307902	-0.043084152
74	0x3cef6ad1	0.029225739
75	0xbcad102e	-0.02112588
76	0x3c9911f6	0.018685322
77	0x3c506001	0.012718202
78	0x3d8b921a	0.06814976
79	0xb9f0255d	-0.00045804205
80	0x3d37e495	0.044895727
81	0x3e27b911	0.16379191
82	0x3d0ce540	0.034398317
83	0xbe84aa6a	-0.25911266
84	0x3d6a1cb6	0.057156287
85	0x3d34fa67	0.044184115
86	0xbe1f044c	-0.15528983
87	0x3dcf4a9f	0.10121655
88	0x3ca628d7	0.020283146
89	0xbe19a8c3	-0.15005784
90	0xbd14babb	-0.036310893
91	0x3d08015a	0.033204414
92	0xbddfef8f	-0.10934364
93	0xbd078aae	-0.03309124
94	0x3d1e1cef	0.038601812
95	0x3c0997cd	0.0083980085
96	0xbcfdb2b0	-0.030968994
97	0xbcb9edb9	-0.022696363
98	0x3d5559dc	0.05208765
99	0x3ea9a525	0.33133808
100	0x3dd30a1d	0.10304663
101	0xbcf51f38	-0.029922113
102	0x3e842cc1	0.25815395
103	0x3d91782f	0.07103001
104	0x3c1147e2	0.008867236
105	0x3e811579	0.25211695
106	0x3e2a6c59	0.16642894
107	0x3da4db92	0.08049692
108	0x3dbf5f83	0.09344389
109	0x3d945abd	0.072438695
110	0xbd042a41	-0.03226686
111	0xbc4a0e7c	-0.012332555
112	0x3da65260	0.081211805
113	0xbcbceef8	-0.023063168
114	0x3ba57fc0	0.0050506294
115	0xbd264fd2	-0.040603466
116	0xbd0fff92	-0.03515584
117	0xbd315e7a	-0.04330299
118	0x3d0c789e	0.034294717
119	0x3caebbdc	0.021329813
120	0x3d8be1cd	0.068301775
121	0xba3722d1	-0.0006986084
122	0x3d110c8f	0.035412367
123	0xbd7e264e	-0.06204825
124	0xbd511623	-0.0510465
125	0xbd77806a	-0.0604252
126	0xbd951a7f	-0.07280444
127	0xbcd1188f	-0.025524406
128	0x3d5f4f74	0.05451913
129	0xbcf0ba6a	-0.029385764
130	0xbd2d8f16	-0.042372786
131	0xbd69a362	-0.05704058
132	0xbdbe50ed	-0.09292779
133	0xbcf52982	-0.029927019
134	0xbc029ac4	-0.007971469
135	0xbbb9ea05	-0.0056736493
136	0xbd6b0857	-0.057381
137	0xbd6d3e80	-0.057920933
138	0x3afa3ebc	0.0019092183
139	0xbd517eb2	-0.051146217
140	0xbc2494a7	-0.010045207
141	0x3c603e81	0.013686777
142	0xbd565066	-0.052322768
143	0xbcbd224e	-0.023087647
144	0x3cd835be	0.026392814
145	0xbd97fa14	-0.074207455
146	0xbd456ee2	-0.04820145
147	0x3d166535	0.036717612
148	0x3de2d813	0.11076369
149	0xbce65c23	-0.028120106
150	0x3d512ee7	0.05107012
151	0x3c16a619	0.009194874
152	0x3d016ed9	0.031599853
153	0xbf221089	-0.6330648
154	0xbe8d8688	-0.27641702
155	0xbe172f17	-0.14764057
156	0xbee706d3	-0.45122394
157	0xbd8eae19	-0.069668
158	0xbda6af57	-0.08138912
159	0xbeaa8caf	-0.33310458
160	0xbe293279	-0.1652316
161	0xbe14ea9a	-0.14542618
162	0xbd859999	-0.06523437
163	0xbc9d4ae0	-0.019200742
164	0xbd62ecd1	-0.055401627
165	0x3cdff85b	0.027340105
166	0xbc5d42e7	-0.01350472
167	0xbd1ef5dc	-0.03880869
168	0x3d65b008	0.05607608
169	0xbd1a1132	-0.037614055
170	0xbce26e1d	-0.027640397
171	0xbe02f82b	-0.12789981
172	0x3df30622	0.11866404
173	0x3dc6264d	0.09675274
174	0x3e369b75	0.1783274
175	0x3d18b5e0	0.037282825
176	0x3de734f2	0.112893954
177	0x3dce9c79	0.100884385
178	0x3af68c9e	0.0018810218
179	0x3d6cc2aa	0.057802834
180	0xbd00a85b	-0.031410556
181	0xbd2b96c6	-0.041891836
182	0xbd8b2fad	-0.06796203
183	0xba071350	-0.0005152719
184	0xbd6cbea3	-0.057798993
185	0x3c7d8b6e	0.015475137
186	0x3c466045	0.012107913
187	0xbce1d93f	-0.027569411
188	0xbcbf139a	-0.023324776
189	0xbe34a349	-0.17640413
190	0xbc4b331b	-0.012402321
191	0x3e64be3c	0.22338194
192	0xbdedfb4f	-0.11620199
193	0x3d08e46c	0.033420965
194	0x3d23e318	0.040011495
195	0x3e4a0ca7	0.19731389
196	0xbcaae508	-0.020861164
197	0xbdd3d67f	-0.10343646
198	0xbd5f0dc0	-0.054456472
199	0xbd630b08	-0.055430442
200	0x3b330ead	0.002732198
201	0x3c957673	0.018244958
202	0x3d547e47	0.05187824
203	0xbd9f850f	-0.07789051
204	0x3d24afff	0.040206905
205	0xbd294c62	-0.04133261
206	0xbd2dfb14	-0.042475775
207	0xbc67f3fb	-0.014157291
208	0xbd26e049	-0.04074124
209	0x3c87251c	0.016497187
210	0xbcd1af13	-0.025596177
211	0x3d6fa43d	0.05850624
212	0x3c48c12c	0.012253087
213	0xbcb03680	-0.021510363
214	0xbd41f0c5	-0.047348756
215	0x3d3c9166	0.0460371
216	0x3e3e6c44	0.18595988
217	0xbdec59bb	-0.11540552
218	0xbe4ff271	-0.20307328
219	0x3f05a590	0.52205753
220	0x3e0d01c1	0.137702
221	0xbd09eb76	-0.03367182
222	0x3ef3be7c	0.47606266
223	0x3cf201e0	0.02954191
224	0xbe3b1d9c	-0.18273014
225	0xbe1265c4	-0.14296633
226	0xbdaf5dae	-0.0856279
227	0xbd9a9f5d	-0.075499274
228	0xbcc319c2	-0.023815993
229	0x3d48ba55	0.049005825
230	0xbdfc9125	-0.123323716
231	0x3cdd24b4	0.02699504
232	0xbe29a82a	-0.16568056
233	0x3df874c4	0.12131646
234	0x3d65ccd0	0.056103528
235	0x3e24cecc	0.16094512
236	0x3e13fe05	0.1445237
237	0xbde2a7da	-0.110671714
238	0x3d7b9700	0.0614233
239	0x3e44af19	0.1920742
240	0xbf2ee222	-0.683138
241	0xbe757606	-0.23970804
242	0x3d913fc2	0.07092239
243	0xbd0e4f43	-0.03474356
244	0xbd2935c9	-0.04131106
245	0x3d5ccb00	0.053904533
246	0x3d9abb5c	0.07555267
247	0xbd464392	-0.048404284
248	0x3ca07999	0.019589232
249	0xbca4ed60	-0.02013272
250	0x3cd8214e	0.026383068
251	0xbc14e4d0	-0.009087756
252	0xbdb0ef03	-0.08639338
253	0xbdc167f8	-0.094436586
254	0xbd1649c2	-0.036691435
255	0xbd0608a7	-0.032723095

hiddens.2.bias f4 [20]
0	0xbd9f276b	-0.0777119
1	0xbd807dfb	-0.06274029
2	0xbdb1ba54	-0.086781174
3	0xbd1617ef	-0.03664392
4	0x3e6524f5	0.22377379
5	0x3e62ca5e	0.2214751
6	0x3d804d99	0.062648006
7	0x3e30d9f2	0.1727064
8	0x3e2bbdac	0.16771573
9	0xbea0fd1c	-0.31443107
10	0xbdc4a600	-0.096019745
11	0x3e7d58c8	0.24740899
12	0xbd054daa	-0.03254477
13	0xbdf4f932	-0.11961593
14	0xbdbf57cd	-0.093429185
15	0xbddd1db5	-0.10796682
16	0xbc4aa228	-0.012367763
17	0x3e5def1d	0.21673246
18	0x3cd7640f	0.026292829
19	0xbe0606c1	-0.13088514

hiddens.4.weight f4 [20, 20, 3, 3]
0	0xbf007a67	-0.5018677
1	0xbd55c96a	-0.052194037
2	0x3dab5cee	0.08367334
3	0xbeb65ade	-0.356162
4	0x3d3ba437	0.045810904
5	0x3def0536	0.11670916
6	0xbefc7b1f	-0.49312684
7	0xbe8c27eb	-0.27374205
8	0xbec655e6	-0.3873741
9	0xbec0906b	-0.37610182
10	0x3e44af24	0.19207436
11	0x3f0e0c6f	0.5548772
12	0xbee266ea	-0.44219142
13	0x3d8ec86e	0.06971823
14	0x3ebc9401	0.36831668
15	0xbe7fadcf	-0.24968646
16	0xbec40e12	-0.38291985
17	0xbf8c5b21	-1.096531
18	0x3d2cf160	0.04222238
19	0xbcf229b8	-0.029560909
20	0xbc7c83c3	-0.015412274
21	0x3da71c9a	0.08159752
22	0x3ccad595	0.024760047
23	0x3b16be15	0.0023001481
24	0x3bf4869f	0.007462337
25	0xbd27b177	-0.040940728
26	0x3c199bd3	0.00937553
27	0xbd59c1f0	-0.05316347
28	0xbd259c24	-0.04043211
29	0x3c6aa091	0.014320509
30	0xbda72302	-0.08160974
31	0x3d7b0637	0.061285224
32	0x3cadb437	0.021204097
33	0x3ce2446e	0.02762052
34	0x3bd5933d	0.0065177963
35	0xbd2e0116	-0.042481504
36	0x3d8eb5aa	0.069682434
37	0x3bcf1ea5	0.006320792
38	0x3decaa10	0.11555874
39	0x3e409c18	0.18809545
40	0xbd94a85b	-0.07258674
41	0x3d79d161	0.060990695
42	0x3e0c408d	0.13696499
43	0xbe30b2fd	-0.17255779
44	0xbda4aaf9	-0.08040423
45	0x3e383820	0.1799016
46	0x3eaa4f79	0.33263758
47	0x3e7f74b9	0.2494687
48	0xbc00faaf	-0.007872268
49	0x3dd57f65	0.10424689
50	0xbd6bb951	-0.05754978
51	0x3d25166c	0.040304586
52	0x3d3d6f76	0.046248876
53	0xbe7406ca	-0.23830715
54	0xbecc19d7	-0.39863464
55	0x3d850682	0.06495382
56	0xbd0381b4	-0.032106116
57	0x3d149a9b	0.036280256
58	0x3e31a156	0.17346701
59	0x3e712b97	0.23551784
60	0x3d00a916	0.031411253
61	0x3e123433	0.14277725
62	0x3cce1208	0.025155082
63	0xbe8a186b	-0.26971754
64	0xbd06540b	-0.032794993
65	0x3d03a10b	0.032136004
66	0xbd586de8	-0.05283919
67	0x3e136375	0.14393409
68	0x3e9c8f34	0.30578005
69	0xbe211b46	-0.1573306
70	0x3e4fddca	0.2029945
71	0x3d84d548	0.06485993
72	0x3d32a37a	0.043612935
73	0x3e310521	0.17287113
74	0x3e0d11f7	0.13776384
75	0x3c2e8cb1	0.010653661
76	0x3e61cca2	0.22050717
77	0x3e3a6152	0.18201187
78	0xbe5230de	-0.20526454
79	0xbe3fcd2d	-0.18730612
80	0xbe3d04fd	-0.18458934
81	0xbf3c0d8d	-0.73458177
82	0x3d9f0ac7	0.077657275
83	0xbcc8b54a	-0.024500508
84	0xbee6f969	-0.4511216
85	0x3e5f6cfb	0.21818916
86	0x3ddc6d91	0.10763086
87	0xbe33e437	-0.17567526
88	0x3e60714d	0.21918221
89	0xbdcaabaa	-0.098960236
90	0xbefb6885	-0.4910318
91	0xbb8e0a5b	-0.0043347306
92	0xbaee39be	-0.0018175167
93	0xbe3a4296	-0.18189463
94	0x3e315148	0.17316163
95	0x3d3fa1c5	0.046785135
96	0xbea4a6a7	-0.32158396
97	0xbdef5c8b	-0.11687573
98	0xbebf409a	-0.37353975
99	0x3e289e74	0.16466695
100	0x3cdb1b6b	0.026746472
101	0xbd526cf8	-0.051373452
102	0xbda2d670	-0.07951057
103	0xbdad1e12	-0.08453001
104	0xbc081d19	-0.008307719
105	0x3e1630dc	0.14667076
106	0x3dd27167	0.10275536
107	0x3dded5a4	0.108805925
108	0xbd1ec547	-0.038762357
109	0xbe069490	-0.1314261
110	0xbdfb8180	-0.122805595
111	0xbde59e13	-0.11211791
112	0xbce3ff16	-0.027831595
113	0xbe02aa2b	-0.12760226
114	0x3d793324	0.060839787
115	0xbb9f0291	-0.004852601
116	0xbd22ade4	-0.039716616
117	0xbd88a220	-0.06671548
118	0x3d8d8ed1	0.06912006
119	0xbd7f570c	-0.062338874
120	0x3ccbbcdb	0.024870327
121	0xba811a2a	-0.0009849716
122	0x3d010acd	0.03150444
123	0xbd4483ef	-0.047977384
124	0x3c8476ac	0.016169868
125	0x3d2219f6	0.03957554
126	0xbf1d0b53	-0.61345404
127	0x3dd6e4ef	0.10492884
128	0x3ddda7ab	0.10822996
129	0xbf130cca	-0.5744139
130	0x3d8dce5d	0.06924126
131	0x3b24303b	0.0025053162
132	0xbf19a2b7	-0.6001391
133	0xbf013212	-0.50467026
134	0xbeec4833	-0.46148834
135	0x3bfe60e9	0.0077630174
136	0x3c4572af	0.0120512685
137	0xbd41223d	-0.047151793
138	0x3d52e7c5	0.051490564
139	0xbcf6867c	-0.030093424
140	0xbe148dc2	-0.14507201
141	0x3da2e7ca	0.079543665
142	0xbda42e51	-0.08016647
143	0xbcbbf3d4	-0.022943415
144	0xbd3b2f48	-0.045699388
145	0xbd598721	-0.053107385
146	0xbbd958a9	-0.0066328836
147	0x3b0f3a82	0.0021854942
148	0xbd677fb4	-0.05651827
149	0xbcd47695	-0.02593545
150	0xbc9c4057	-0.019073648
151	0x3cac465a	0.02102964
152	0xbd658393	-0.056033682
153	0x3e2f6191	0.17127062
154	0x3c90084a	0.017582078
155	0x3e2376c1	0.1596327
156	0x3e028697	0.12746654
157	0x3cbaf60d	0.022822404
158	0x3dad8c5e	0.084740385
159	0x3e8f0635	0.27934423
160	0x3e426623	0.18984275
161	0x3e6c7500	0.23091507
162	0xbc9084bc	-0.017641418
163	0xbe006bfc	-0.12541193
164	0xbe3e7082	-0.18597606
165	0x3e144fd7	0.14483581
166	0xbd52a725	-0.051428933
167	0xbe169a0f	-0.14707206
168	0x3e9c6674	0.30546916
169	0x3e468ba7	0.1938921
170	0x3da22f8f	0.07919227
171	0xbcc69b74	-0.024244048
172	0xbd39b3e3	-0.04533757
173	0xbe28dec9	-0.16491236
174	0x3d69c71c	0.05707465
175	0xbe006eed	-0.12542315
176	0xbdd31ce3	-0.10308244
177	0x3d415d33	0.047208022
178	0xbdea8ddc	-0.11452839
179	0xbd5702ce	-0.05249291
180	0xbddff832	-0.109360114
181	0xbd7c0a73	-0.061533403
182	0xbda96b72	-0.08272447
183	0xbd9680fa	-0.07348819
184	0xbd1c84a3	-0.03821243
185	0xbd9ced7f	-0.07662486
186	0xbca3e118	-0.020004794
187	0xbd62c8c7	-0.055367257
188	0xbda98767	-0.08277779
189	0xbd84411b	-0.064577304
190	0x3bb167a9	0.0054139686
191	0x3cf11ddb	0.029433182
192	0xbd9d8dea	-0.076930836
193	0xbd9fdcaf	-0.07805764
194	0x38576978	5.135822e-05
195	0x3c40a984	0.011759166
196	0x3cc7882e	0.024356928
197	0x3d261781	0.04054976
198	0x3d0504a0	0.032475114
199	0x3cd06799	0.025440024
200	0xbcb41b47	-0.021985663
201	0x3d75c535	0.060002524
202	0xbd8a4496	-0.06751363
203	0xbd1cab2e	-0.038249187
204	0x3d953f1f	0.0728743
205	0x3ac870fe	0.0015292463
206	0xbce73c96	-0.028227132
207	0xbd67596b	-0.05648176
208	0x3d1874d9	0.03722081
209	0xbd87483f	-0.06605577
210	0x3d07e10a	0.0331736
211	0x3cf8898c	0.030339025
212	0xbd7fa35a	-0.062411644
213	0xbd98928a	-0.07449825
214	0x3c67905e	0.014133541
215	0x3d7d7222	0.061876424
216	0xbcd1a88b	-0.025593063
217	0xbd231c1e	-0.039821737
218	0x3c8980e8	0.0167851
219	0xbda46de5	-0.08028773
220	0xbdddff2f	-0.10839688
221	0x3c01bb2c	0.00791816
222	0xbcd5d3b4	-0.026101924
223	0xbbf3e078	-0.0074425302
224	0xbe0199f6	-0.12656388
225	0xbd1903c2	-0.0373571
226	0xbdb6ff08	-0.08935362
227	0xbd8bcf4f	-0.0682665
228	0x3cbccc82	0.023046736
229	0xbd970010	-0.07373059
230	0xbddc1471	-0.107460864
231	0xbc3566c4	-0.0110718645
232	0xbd8079a1	-0.06273199
233	0xbd95c1fa	-0.07312389
234	0xbd8dafe0	-0.06918311
235	0xbe00c978	-0.12576854
236	0xbd3a3166	-0.045457266
237	0xbd685986	-0.056726
238	0xbdfe1788	-0.12406832
239	0xbdbd2547	-0.09235626
240	0xbd932759	-0.07185239
241	0xbba2d08c	-0.0049687084
242	0xbd66670e	-0.056250624
243	0xbdd35463	-0.1031883
244	0xbd7b1c07	-0.061306026
245	0xbc2ca9ef	-0.010538562
246	0xbcab3785	-0.020900497
247	0xbd4ba232	-0.04971523
248	0xbe0e370c	-0.13888186
249	0xbdc5203b	-0.09625288
250	0x3b5e4ac1	0.0033919069
251	0xbdfa6f59	-0.12228269
252	0xbddfbfb6	-0.10925238
253	0xbc08e58c	-0.0083555095
254	0xbca85ce4	-0.020552106
255	0xbcfbdb03	-0.030744081

hiddens.4.bias f4 [20]
0	0x3e4c6f44	0.1996432
1	0xbdbdf861	-0.0927589
2	0xbde3276b	-0.11091503
3	0x3d158850	0.03650695
4	0xbde0611c	-0.10956022
5	0x3e5254a1	0.20540096
6	0xbc6d90b9	-0.014499837
7	0x3d37dc97	0.044888105
8	0xbd4e85f6	-0.050420724
9	0x3e37f64c	0.17965049
10	0x3cae7d6d	0.021300042
11	0x3ed2e197	0.41187736
12	0x3c262e7e	0.010142921
13	0x3e334226	0.17505702
14	0xbd59229a	-0.053011514
15	0x3c7f4fee	0.015583022
16	0x3e4c4490	0.1994803
17	0x3e3ea3d5	0.18617184
18	0x3b70fdd4	0.0036772387
19	0xbe05a12b	-0.13049762

hiddens.6.weight f4 [20, 20, 3, 3]
0	0xbc583191	-0.013195411
1	0xbda0a984	-0.078448325
2	0xbdb0995c	-0.08623001
3	0xbe0a4f1b	-0.13506739
4	0xbdb2ec12	-0.08736433
5	0xbdd9731c	-0.106176585
6	0xbe201327	-0.15632306
7	0xbdcce36b	-0.10004314
8	0xbe080e42	-0.13286689
9	0x3c84b922	0.01620156
10	0x3d988408	0.07447058
11	0xbcf92ae9	-0.030415969
12	0xbd386a15	-0.045023043
13	0xbc75bbae	-0.01499836
14	0xbc9b5010	-0.018959075
15	0xbcdc3c0f	-0.026884107
16	0x3d47554b	0.048665326
17	0xbd1e3bd6	-0.038631283
18	0xbd712354	-0.058871582
19	0x3c722c6a	0.014781097
20	0x3d80e3e1	0.062934645
21	0xbce15691	-0.027507098
22	0xbd847d83	-0.06469252
23	0x3d3160a4	0.043305054
24	0xbaca705f	-0.0015444866
25	0xbd84c050	-0.06481993
26	0xbd484ad7	-0.048899498
27	0xbce8374d	-0.028346682
28	0xbc376df7	-0.011195651
29	0x3cdc293c	0.02687513
30	0xbd2fa96c	-0.042886183
31	0xbc4f0793	-0.012636083
32	0xbbf0a800	-0.007344246
33	0xbda08f41	-0.078398235
34	0xbd928f5f	-0.07156252
35	0xbc99b110	-0.018761188
36	0xbd129f92	-0.03579671
37	0x3c46098c	0.012087237
38	0xbcb2f076	-0.021843176
39	0xbcbdc28f	-0.023164062
40	0xbd8d394b	-0.068956934
41	0xbd58b447	-0.0529063
42	0x3d21f401	0.03953934
43	0xbd3c5cd5	-0.04598697
44	0x3d74c919	0.059762094
45	0xbdcd5232	-0.10025443
46	0xbcd1775e	-0.025569614
47	0xbcfd02f2	-0.030885193
48	0x3cf68685	0.03009344
49	0x3db362dc	0.0875909
50	0xbe163eb9	-0.14672364
51	0xbc7dde9a	-0.015494967
52	0xbcfa8a6d	-0.030583585
53	0x3d4ffcec	0.050778314
54	0x3d14b288	0.036303073
55	0xbd462d1e	-0.04838287
56	0x3d446fdc	0.04795824
57	0xbdb4cb3e	-0.08827828
58	0x3bfeca40	0.007775575
59	0xbda9b54b	-0.08286532
60	0x3cde8761	0.027164163
61	0x3d0b5511	0.034016673
62	0x3d5743bb	0.052554827
63	0xbd095a81	-0.033533577
64	0xbd73360f	-0.059377726
65	0xbc620ddb	-0.013797249
66	0xbdc1a558	-0.09455365
67	0xbd120f0c	-0.03565888
68	0xbdff418a	-0.124636725
69	0x3d084b8d	0.033275176
70	0xbc9f4c80	-0.019445658
71	0xbdd54a3b	-0.10414549
72	0xbdbd405f	-0.092407934
73	0xbd55784d	-0.05211668
74	0xbdab692c	-0.08369669
75	0xbd4f39b7	-0.05059215
76	0x3d3fa6da	0.04678998
77	0xbda623e2	-0.08112313
78	0x3d1be389	0.03805879
79	0xbdabaab2	-0.08382167
80	0x3cc42da5	0.023947546
81	0x3dbd0fd8	0.092315376
82	0x3da8ea0d	0.08247767
83	0xbd47d0f7	-0.04878327
84	0xbc1a2c51	-0.00940998
85	0x3d6d80bc	0.0579841
86	0xbdb4076d	-0.08790479
87	0xbd28b52e	-0.04118841
88	0xbd1feeed	-0.039046217
89	0xbd8eab71	-0.069662936
90	0x3d62d2a1	0.055376653
91	0xbd0ec70b	-0.03485779
92	0x3d1376a4	0.036001816
93	0x3c825336	0.015908819
94	0x3d5a08cf	0.053231057
95	0xbcac1278	-0.0210049
96	0x3d06841f	0.032840844
97	0xbd46ab1a	-0.04850302
98	0x3c016acd	0.007898998
99	0xbdeed45f	-0.116616
100	0xbc95acef	-0.018270938
101	0xbdbcb644	-0.09214452
102	0xbcf5ae02	-0.0299902
103	0xbd0ae661	-0.033911113
104	0xbb5800ab	-0.0032959383
105	0xbc1f599c	-0.009725954
106	0xbddd4de0	-0.10805869
107	0xbcdef77f	-0.027217625
108	0xbc068276	-0.008209815
109	0x3c013562	0.007886263
110	0xbd3dd8e0	-0.046349406
111	0xb9ad7d02	-0.0003309027
112	0x3c9b48e2	0.018955652
113	0xbd757f58	-0.059935898
114	0x3affaa1b	0.0019505651
115	0x3cfa7a76	0.030575972
116	0xbd920e63	-0.0713165
117	0xbe42371a	-0.18966332
118	0xbe0c8e21	-0.13726093
119	0xbdfd7342	-0.12375499
120	0xbd0e12b1	-0.034685794
121	0xbdc5995c	-0.096483916
122	0xbdba3ebb	-0.09093996
123	0xbd50ad0c	-0.05094628
124	0xbe04112d	-0.12897177
125	0x3c4ffecb	0.012695025
126	0xbd9ee763	-0.07758977
127	0x3cb9b244	0.022668011
128	0xbcc40955	-0.023930231
129	0xbd959171	-0.07303131
130	0x3ca8107a	0.02051567
131	0xbd642ad1	-0.055704895
132	0x3d75f16e	0.0600447
133	0x3d09290a	0.033486404
134	0xbd929d9e	-0.07158969
135	0xbd99c58a	-0.07508381
136	0x3cbbaa9e	0.022908505
137	0xbd1e3081	-0.038620476
138	0xbd407a41	-0.04699159
139	0xbc09f7b2	-0.008420872
140	0x3d1c5705	0.038168926
141	0xbd2ead78	-0.0426459
142	0x3d0c07b2	0.034187026
143	0xbc4218c4	-0.011846725
144	0xbc526a01	-0.012842656
145	0x3cb2314e	0.021752026
146	0xbdb2a687	-0.08723169
147	0xbda2e080	-0.07952976
148	0xbded92ac	-0.11600241
149	0xbcb8eedf	-0.02257484
150	0xbdd357a2	-0.10319449
151	0xbc957997	-0.018246455
152	0xbdd2d035	-0.102936186
153	0xbe0a655e	-0.13515231
154	0x3c8bfc54	0.017088093
155	0xbd81f2c0	-0.06345129
156	0xbb6e99ee	-0.0036407667
157	0xbd3cf5ab	-0.046132725
158	0xbcfee0a1	-0.03111297
159	0xbd52fef8	-0.05151269
160	0x39ab0df0	0.00032626046
161	0xbd62ff1e	-0.05541908
162	0xbd84ba27	-0.06480818
163	0xbd274ae9	-0.040842924
164	0xbcdcf15b	-0.026970556
165	0x3bf72ddb	0.007543308
166	0xbd09d385	-0.033648986
167	0xbd411ebe	-0.04714846
168	0xbd8a38d5	-0.06749121
169	0xbbc77357	-0.0060867476
170	0xbccb6b13	-0.02483133
171	0x3d88a29e	0.06671642
172	0x3c2756b4	0.010213543
173	0xbd877d04	-0.06615642
174	0xbd972f58	-0.07382077
175	0xbd6c662f	-0.057714637
176	0xbd0527a8	-0.032508522
177	0x3d75daa5	0.06002297
178	0xbba341e6	-0.004982221
179	0xbc3fc83a	-0.011705453
180	0xbdeac0b9	-0.1146254
181	0xbd7052e6	-0.058672808
182	0x3dbe44a7	0.09290438
183	0xbf0bbbf0	-0.54583645
184	0xbdb15e9d	-0.08660624
185	0x3e816fa4	0.25280488
186	0xbf517e4c	-0.8183334
187	0xbec5527f	-0.38539502
188	0xbcc2d677	-0.023783905
189	0xbd6f4866	-0.058418654
190	0xbd79f8a4	-0.061028138
191	0xbd464686	-0.0484071
192	0xbda709ec	-0.08156189
193	0xbd197ba9	-0.037471447
194	0xbdb8264e	-0.08991681
195	0xbcb1ced8	-0.021705076
196	0xbbb15272	-0.0054114396
197	0xbdaa9fd4	-0.08331266
198	0x3a8c6cb6	0.0010713551
199	0xbb8fcad9	-0.004388195
200	0xbd4d8c92	-0.050182886
201	0x3ccf43ac	0.025300823
202	0xbdaf80a3	-0.085694574
203	0xbcaa3684	-0.020777948
204	0xbd98e2df	-0.07465147
205	0xbdc5d0fc	-0.09659001
206	0x3a8df321	0.0010829904
207	0x3dc20891	0.0947429
208	0x3c938b1a	0.018010665
209	0x3d101ed9	0.03518567
210	0xbd1cfc8f	-0.038326796
211	0xbd03c87b	-0.032173615
212	0xbd24d9bf	-0.04024672
213	0xbc146ba8	-0.00905887
214	0xbcd96d8e	-0.026541498
215	0xbd9348fa	-0.071916535
216	0xbd14eea7	-0.03636041
217	0xbcd34188	-0.025788084
218	0xbc7684a6	-0.015046274
219	0xbd51b4c7	-0.051197793
220	0x3d3b0341	0.0456574
221	0x3c278d1a	0.010226512
222	0xbd55e970	-0.052224576
223	0xbd81b99f	-0.063342325
224	0x3d228628	0.039678723
225	0xbedddbc6	-0.43331736
226	0xbdd2292f	-0.102617614
227	0x3e0e9bf1	0.13926674
228	0xbefd1681	-0.49431232
229	0xbd4ceeba	-0.050032355
230	0xbd43f8da	-0.047844745
231	0xbd8d2f39	-0.06893773
232	0xbeafe715	-0.3435599
233	0xbeee5f20	-0.4655695
234	0x3d4f7404	0.05064775
235	0xbbd30aae	-0.006440482
236	0xbdad2c2c	-0.08455691
237	0x3a999856	0.0011718373
238	0x3a7a3995	0.00095453236
239	0xbc6a11be	-0.014286457
240	0xbd469f0b	-0.04849152
241	0x3cf7a4ab	0.030229887
242	0x3c91d8e2	0.017803613
243	0x3e1d0f96	0.15337977
244	0x3c95c3ea	0.018281896
245	0xbc87acec	-0.016561948
246	0x3dda975c	0.10673401
247	0x3da975c9	0.08274419
248	0x3db8a38e	0.090155706
249	0x3d64306c	0.05571024
250	0xbc60cd48	-0.013720818
251	0x3e17fe40	0.14843082
252	0xbd0f90a5	-0.035050053
253	0x3c71543c	0.014729556
254	0xbce0ebf7	-0.027456267
255	0x3d41ffed	0.04736321

hiddens.6.bias f4 [20]
0	0xbda1d6d2	-0.07902302
1	0x3de017c4	0.10942033
2	0x3e03f793	0.12887411
3	0x3e23b2fe	0.15986249
4	0x3dc070c1	0.09396506
5	0x3e561895	0.20907815
6	0xbd849867	-0.06474381
7	0x3d8a595f	0.067553274
8	0x3e82d72e	0.25554794
9	0x3e200453	0.1562665
10	0x3e36f5f3	0.1786726
11	0xbbe3ed48	-0.0069557764
12	0x3c8cd917	0.01719336
13	0x3dafa1ac	0.08575758
14	0x3990e72f	0.00027638066
15	0xbd4ec460	-0.050480247
16	0x3e093e30	0.13402629
17	0x3d589e0f	0.05288511
18	0xbd1d0f35	-0.03834458
19	0xbe20b032	-0.15692213

hiddens.8.weight f4 [20, 20, 3, 3]
0	0x3d88cd95	0.06679837
1	0x3d808a3b	0.06276365
2	0x3d2c6c5b	0.042095523
3	0xbcb91dc1	-0.022597196
4	0xbcaedf55	-0.021346727
5	0xbd50e55d	-0.050999988
6	0xbcf2b151	-0.029625567
7	0xbc021111	-0.007938639
8	0xbd4f09a9	-0.050546322
9	0xbd954ee9	-0.072904415
10	0xbda6f096	-0.08151357
11	0x3ba7b613	0.0051181405
12	0xbcf515b0	-0.029917568
13	0xbc9028bb	-0.017597547
14	0xbdd66003	-0.104675315
15	0xbcd08426	-0.025453638
16	0xbd8b0983	-0.067889236
17	0xbce98f2a	-0.028510649
18	0xbcf0a607	-0.029376043
19	0xbd8a1da5	-0.067439355
20	0xbe011e17	-0.12609135
21	0xbdeac77e	-0.11463831
22	0xbe0a9676	-0.13533959
23	0xbd84c050	-0.06481993
24	0xbb850cbd	-0.0040603564
25	0xbd6c3539	-0.057667945
26	0xbd512c1d	-0.05106746
27	0xbd83c82a	-0.06434663
28	0xbb9bf709	-0.0047596735
29	0x3cc27884	0.023739107
30	0xbcda6f5e	-0.026664432
31	0xbd0945f5	-0.03351398
32	0xbcfcf1bd	-0.030876989
33	0xbd149bf4	-0.03628154
34	0xbd8c0a25	-0.068378724
35	0xbc35bb0f	-0.0110919615
36	0xbd4373aa	-0.047717728
37	0xbdb31c2d	-0.087456085
38	0xbca8f560	-0.020624816
39	0x3cdf294f	0.027241377
40	0xbd2bbf0e	-0.04193025
41	0xbc9b8ed9	-0.018989014
42	0xbde32186	-0.110903785
43	0xbdddccec	-0.10830101
44	0xbd2fef7a	-0.042952992
45	0xbd95bb46	-0.0731111
46	0xbda1fc6d	-0.079094745
47	0xbd1ae97b	-0.03782032
48	0xbced6d97	-0.02898292
49	0xbe2dc52e	-0.1696975
50	0xbb9e83c2	-0.004837484
51	0xbc33be8c	-0.010970723
52	0xbd82dc46	-0.0638967
53	0xbd5a140e	-0.053241782
54	0xbd91955c	-0.07108566
55	0xbc60718f	-0.0136989495
56	0x3d2c2c92	0.042034693
57	0xbcf5bb1e	-0.029996451
58	0xbcec820d	-0.028870607
59	0xbb1298d3	-0.0022368922
60	0xbd6ffa48	-0.058588296
61	0x3d101582	0.03517676
62	0xbce87c23	-0.028379506
63	0xbddb8463	-0.1071861
64	0xbd8b00a2	-0.0678723
65	0xbd81fcd5	-0.06347052
66	0xbce208a8	-0.027592018
67	0xbda3a130	-0.079897285
68	0xbd5420c5	-0.051789064
69	0x3d85d092	0.06533922
70	0xbd82f318	-0.06394023
71	0x3c32b82c	0.010908168
72	0xbdf3edd4	-0.119105965
73	0xbd759b0f	-0.05996233
74	0xbd0a9871	-0.033836786
75	0xbbea5ca6	-0.007152158
76	0xbdd633b9	-0.10459084
77	0xbd6337e5	-0.055473227
78	0xbdcc5b5e	-0.099783644
79	0xbcff5b31	-0.031171413
80	0xbd21a4fe	-0.03946399
81	0x3cc4a2ac	0.02400335
82	0xbdaea320	-0.085272074
83	0xbd5add07	-0.053433444
84	0xbc9bcf49	-0.01901974
85	0xbd8821e8	-0.06647092
86	0xbcaf6814	-0.021411933
87	0xbdc2c92c	-0.09511027
88	0xbb052e89	-0.0020321927
89	0xbe04010c	-0.12891024
90	0xbddf78b3	-0.109116934
91	0xbe055c0e	-0.13023397
92	0xbdb14cbe	-0.086572155
93	0xbd76ccfb	-0.06025408
94	0xbca85aba	-0.020551074
95	0xbcf66efe	-0.030082222
96	0xbc2500fb	-0.010071035
97	0xbdf55fae	-0.1198114
98	0xbe0c53dc	-0.13703865
99	0x3c9775b0	0.018488735
100	0x3bb1a6cc	0.005421495
101	0x385f0e15	5.3180458e-05
102	0xbd693af4	-0.056940988
103	0xbcdf2447	-0.027238978
104	0xbdea8f78	-0.11453146
105	0xbd04d4b9	-0.03242943
106	0xbcbe22a8	-0.023209885
107	0x3ce7181d	0.02820974
108	0xbd35a26b	-0.044344347
109	0xbb9a15fa	-0.004702327
110	0xbc40e58b	-0.011773477
111	0xbe43bef7	-0.19115816
112	0xbe0ff46c	-0.14058083
113	0xbdba22e1	-0.09088684
114	0x3dc4b23b	0.09604307
115	0xbd6f79a8	-0.05846563
116	0x3c6bad0e	0.014384521
117	0xbd2580b6	-0.04040595
118	0xbe09a2bf	-0.13440989
119	0xbd5a8b2d	-0.053355385
120	0xbd2a5f81	-0.041594986
121	0xbcdc6329	-0.026902752
122	0xbd117e3c	-0.035520777
123	0xbe11517d	-0.14191242
124	0xbc95547a	-0.018228758
125	0xbdeab482	-0.114602104
126	0x3c98f349	0.018670695
127	0xbd54e0f7	-0.051972356
128	0x3d95d72f	0.07316434
129	0xbd5d16e3	-0.053976905
130	0x3d7b979a	0.061423875
131	0x3bca076f	0.006165437
132	0x3cdfca43	0.027318126
133	0x3c28c6b9	0.010301285
134	0xbd48489f	-0.048897382
135	0xbd550def	-0.05201524
136	0xbd89ed7a	-0.06734748
137	0xbd41d27c	-0.047319874
138	0xbc43bceb	-0.011946897
139	0xbda3cfeb	-0.079986416
140	0xbd1c43ae	-0.038150482
141	0x3d115a2f	0.035486396
142	0x3b4d730d	0.0031349093
143	0xbc4775f6	-0.01217412
144	0xbd27232c	-0.040805027
145	0x3b942694	0.0045212004
146	0x38415634	4.609507e-05
147	0xbcc54fac	-0.024085842
148	0xbc622c3d	-0.013804493
149	0xbd721f26	-0.059111737
150	0x3c8d3af7	0.01724003
151	0xbe0b6ae7	-0.13614999
152	0xbde98bcc	-0.11403617
153	0xbccb838c	-0.024843
154	0x3c249d8f	0.0100473305
155	0x3db5a5fc	0.0886955
156	0xbd2dcdce	-0.0424326
157	0xbd038967	-0.03211346
158	0x3da87f6b	0.08227428
159	0x3bee3822	0.007269875
160	0xbdc0f52a	-0.09421761
161	0xbd77d194	-0.060502604
162	0x3c5a0002	0.013305666
163	0x3cb7403e	0.0223695
164	0xbd91db56	-0.07121913
165	0x3c0d5b8e	0.008627785
166	0xbc1a7831	-0.00942807
167	0xbce219a5	-0.027600119
168	0xbc0be8ed	-0.008539421
169	0x3d819e82	0.06329061
170	0xbb96ddd0	-0.004604079
171	0x3d3292d6	0.043597065
172	0xbd97b6c7	-0.07407909
173	0x3d92c460	0.07166362
174	0x3cdfcda7	0.027319742
175	0xbc3e1f99	-0.011604213
176	0xbcaf2c58	-0.02138345
177	0x3d10a5b7	0.035314288
178	0xbd6dd1ab	-0.058061283
179	0x3d4f322e	0.050584964
180	0xbd2ed17e	-0.042680256
181	0x3bff5718	0.007792365
182	0x3d784e2b	0.06062142
183	0x3d62b7da	0.055351116
184	0x3c754b3e	0.014971552
185	0xbd6a85c6	-0.057256483
186	0x3d2fa356	0.04288038
187	0xbd1141e7	-0.03546324
188	0x3b90f403	0.0044236197
189	0xbead164e	-0.3380608
190	0x3d6ab438	0.057300776
191	0x3db22d15	0.08700005
192	0xbef15f18	-0.47142863
193	0xbe00a311	-0.12562205
194	0x3d5923de	0.05301272
195	0xbf0816f6	-0.53160036
196	0xbeb13176	-0.34608048
197	0xbe3323ef	-0.17494176
198	0xbe63468a	-0.22194877
199	0x3b822f1c	0.003972901
200	0x3d8d013e	0.068850026
201	0xbe9c65fd	-0.3054656
202	0xbd75d1dc	-0.06001459
203	0xbdfacacc	-0.12245712
204	0xbd4f2cf1	-0.05057997
205	0xbcf9a3cc	-0.030473612
206	0xbc0fdf05	-0.008781199
207	0x3e9b16bb	0.3029078
208	0x3eba3e58	0.3637569
209	0x3e4670ce	0.19378969
210	0x3eabee0e	0.3358006
211	0x3e33d932	0.17563322
212	0x3d66d1a0	0.056352258
213	0xbc8dae5b	-0.017295053
214	0x3c3b00e8	0.01141379
215	0x3e4aa241	0.19788457
216	0xbea71b9b	-0.3263825
217	0xbe8c3919	-0.27387312
218	0xbeb86956	-0.36017865
219	0x3ce421f9	0.02784823
220	0xbcfb9625	-0.030711243
221	0x3e387afe	0.18015668
222	0x3e96447c	0.29349124
223	0x3f1470e6	0.5798477
224	0x3f2047ba	0.62609446
225	0x3e037bd3	0.12840204
226	0x3e6a5075	0.22882254
227	0x3e25c037	0.16186605
228	0x3df3bde8	0.11901456
229	0x3e2b1d0c	0.16710299
230	0x3cd3e2db	0.025865009
231	0xbc140850	-0.009035185
232	0x3d4b0d87	0.049573448
233	0xbe1d6af8	-0.15372837
234	0xbcf98c1c	-0.030462317
235	0xbd7562b5	-0.059908587
236	0x3c8fc023	0.017547673
237	0x3d81b442	0.063332096
238	0xbd85a2b8	-0.06525177
239	0x3c7a60d3	0.015281874
240	0x3d1f1f3e	0.038848154
241	0x3d97b2a9	0.074071236
242	0xbd449df0	-0.048002183
243	0xbdc6c202	-0.09704973
244	0xbe6ceaa1	-0.23136379
245	0xbd9c7580	-0.07639599
246	0x3d635810	0.055503905
247	0xbe005636	-0.12532887
248	0xbdbc2f3b	-0.09188696
249	0xbca76662	-0.020434562
250	0xbddb6b61	-0.1071384
251	0x3dde50fd	0.10855291
252	0x3e569807	0.20956431
253	0x3e41bd9b	0.18919985
254	0x3d71f850	0.0590747
255	0x3db0e043	0.086365245

hiddens.8.bias f4 [20]
0	0xbe1d83a6	-0.15382251
1	0xbd96a765	-0.07356147
2	0x3e0be052	0.1365979
3	0xbdefb671	-0.1170472
4	0xbe4c060c	-0.19924182
5	0x3e260bbb	0.16215412
6	0xbe115156	-0.14191183
7	0xbdfa0df3	-0.12209692
8	0xbcea09f2	-0.028569195
9	0xbddf54b7	-0.1090483
10	0xbdb6ee8a	-0.089322165
11	0xbe0e4c8d	-0.1389639
12	0xbc5aa074	-0.013343919
13	0x3dc909aa	0.098162964
14	0x3d3302ea	0.04370395
15	0xbda830be	-0.08212422
16	0x3e3729d1	0.17887045
17	0xbd1b3ab2	-0.037897773
18	0xbde6c16a	-0.112673596
19	0x3bea93fc	0.0071587544

hiddens.10.weight f4 [20, 20, 3, 3]
0	0xbc9be2be	-0.019029018
1	0x3dab9f20	0.0837996
2	0xbc274ccc	-0.010211181
3	0x3d991909	0.07475478
4	0x3d89fdf5	0.067378916
5	0xbde01d9e	-0.10943149
6	0x3d39bc42	0.045345552
7	0x3d134883	0.035957824
8	0x3d815ef1	0.06316937
9	0xbf10688d	-0.5640953
10	0xbe993ade	-0.29927725
11	0xbe73f244	-0.23822886
12	0xbe385365	-0.18000562
13	0xbc922268	-0.017838672
14	0xbc3f7cb6	-0.011687448
15	0xbe97e04e	-0.29663318
16	0xbc6f0f61	-0.014591069
17	0xbdce95aa	-0.1008714
18	0xbef4976b	-0.47771773
19	0x3e6b546c	0.22981423
20	0x3ceea131	0.029129596
21	0xbee1cfa5	-0.44103733
22	0x3e9bfa9b	0.30464634
23	0x3e714936	0.23563084
24	0xbe97faea	-0.2968362
25	0x3f112a46	0.5670513
26	0x3ec22d6e	0.37925285
27	0xbe063012	-0.13104275
28	0x3cb4d23f	0.02207291
29	0x3e37110c	0.17877597
30	0xbe91218a	-0.283459
31	0xbb412ac0	-0.0029474944
32	0xbcaeb86e	-0.021328177
33	0xbef9a959	-0.48762015
34	0xbe7841f4	-0.24243909
35	0xbe7f84e2	-0.24953035
36	0xbd89a44c	-0.0672079
37	0xbd8f4d2f	-0.069971435
38	0xbce9756d	-0.028498376
39	0xbd10c35e	-0.035342567
40	0x3c25b5e3	0.010114166
41	0x3dbc0094	0.09179798
42	0xbccedc04	-0.025251396
43	0x3d989082	0.07449438
44	0x3ddd771f	0.10813736
45	0xbd451469	-0.048115168
46	0xbbdf5065	-0.0068150037
47	0x3d3f380b	0.046684306
48	0xbcca1d47	-0.024672164
49	0xbd029618	-0.03188142
50	0x3dcda7b8	0.100417554
51	0xbcb2ec23	-0.021841114
52	0xbcc1e311	-0.023667844
53	0x3c42fc31	0.011900947
54	0xbd4bc9fb	-0.04975317
55	0xbd64a96b	-0.055825632
56	0x3db28278	0.08716291
57	0xbcfacd2c	-0.030615412
58	0x3b955911	0.0045577367
59	0x3d355d92	0.04427869
60	0x3d0658f3	0.032799672
61	0x3c6a3282	0.014294269
62	0x3d6ab55f	0.057301875
63	0xbbf8fcad	-0.0075984807
64	0x3e279e9d	0.163691
65	0x3e1ba6ba	0.1520032
66	0x3c8462a2	0.016160313
67	0x3d0969e4	0.03354825
68	0xbd19cfd3	-0.037551712
69	0x3ecb03b5	0.39651266
70	0x3d11b683	0.035574447
71	0x3e5c4369	0.2151009
72	0x3e9eef6d	0.31042042
73	0x3ddaa51b	0.106760226
74	0x3b1c19fc	0.0023819199
75	0x3e2aed8c	0.1669218
76	0x3a213e70	0.00061509665
77	0xbd543887	-0.05181172
78	0x3d1046a1	0.035223607
79	0xbdea632a	-0.11444695
80	0xbe6af1c0	-0.22943783
81	0xbd0d19a4	-0.03444828
82	0xbdf15b4f	-0.11784994
83	0xbe166599	-0.14687194
84	0x3ba8c416	0.0051503284
85	0xbcf464e2	-0.02983326
86	0xbcf72435	-0.030168632
87	0xbddb4950	-0.107073426
88	0xbe10d32f	-0.1414306
89	0xbde3b0fb	-0.11117741
90	0x3cce971c	0.025218539
91	0xbc6d983f	-0.01450163
92	0xbd10c98a	-0.035348453
93	0xbca8dbc2	-0.020612601
94	0x3c7a363c	0.01527172
95	0x3bfb39af	0.0076667885
96	0x3bbb95ac	0.0057246294
97	0x3d388988	0.045053035
98	0x3d329ba3	0.043605458
99	0x3cbafba9	0.022825079
100	0x3c8f365e	0.017481979
101	0x3cbf108b	0.023323318
102	0xbccf19e0	-0.025280893
103	0xbd2179a9	-0.039422665
104	0xbdd51d22	-0.10405947
105	0xbdb9f32c	-0.090795845
106	0xbd7e0d26	-0.062024258
107	0xbd82702b	-0.063690506
108	0xbf054a51	-0.5206652
109	0xbe360c5c	-0.17778152
110	0xbe64c924	-0.22342354
111	0xbef5da8b	-0.48018298
112	0xbde0867b	-0.1096315
113	0xbc96e1b7	-0.018418176
114	0xbf209f99	-0.62743527
115	0xbeb0f660	-0.3456297
116	0xbc71b252	-0.0147519875
117	0xbef716eb	-0.48259673
118	0xbe9d0688	-0.30669045
119	0xbf3ccd1a	-0.7375046
120	0x3e218d8f	0.15776657
121	0xbe006b8a	-0.12541023
122	0xbe5dd955	-0.21664937
123	0xbe55811e	-0.20850036
124	0xbf05e3d5	-0.5230077
125	0xbe03ed54	-0.12883502
126	0xbf46fd57	-0.77730316
127	0xbdf78fdc	-0.12087986
128	0xbdef02b9	-0.11670441
129	0xbe136b98	-0.14396513
130	0x3da4c29a	0.0804493
131	0x3e3c1137	0.18365942
132	0x3c4836fc	0.012220141
133	0x3e5f3580	0.21797752
134	0x3f0833f5	0.5320428
135	0xbe8ea773	-0.2786213
136	0xbeccf087	-0.40027258
137	0xbf5ebcc5	-0.8700679
138	0xbe3f2eae	-0.1867015
139	0xbe140560	-0.14455175
140	0xbe6e3381	-0.23261835
141	0x3e4f61a7	0.20252095
142	0xbe36101a	-0.1777958
143	0xbd241f47	-0.04006889
144	0x3c8a9a73	0.01691935
145	0xbc52b728	-0.012861051
146	0xbe2f2bcb	-0.1710655
147	0xbe362def	-0.1779096
148	0xbe7e7ced	-0.24852343
149	0xbeac1d32	-0.33616024
150	0x3d90473d	0.070448376
151	0xbe49880f	-0.19680808
152	0xbedfc81d	-0.43707362
153	0x3f16ec08	0.58953905
154	0x3e54ea89	0.20792593
155	0xbf0a26f6	-0.539657
156	0x3effc84e	0.49957508
157	0xbe018a3e	-0.12650391
158	0xbee736aa	-0.45158893
159	0x3ea9ca78	0.33162284
160	0xbe8edf2d	-0.27904645
161	0xbf0c783d	-0.5487097
162	0xbdcc5323	-0.099767946
163	0xbe6b1c41	-0.22959997
164	0xbecfa660	-0.40556622
165	0xbc841c70	-0.016126841
166	0xbd7fc093	-0.062439512
167	0xbd73bcaa	-0.059506096
168	0x3da2a7de	0.079421744
169	0xbd858159	-0.06518812
170	0x3e14b303	0.14521413
171	0xbeab9deb	-0.3351892
172	0xbdef0fc0	-0.11672926
173	0xbe4849b8	-0.19559371
174	0xbf1197f4	-0.5687249
175	0xbd8a2448	-0.06745201
176	0xbe0f31c5	-0.1398383
177	0xbec546b3	-0.38530502
178	0xbb9af295	-0.004728625
179	0xbdab7f2d	-0.08373866
180	0xbc9fe0c8	-0.019516364
181	0x3da4ecef	0.08053004
182	0xbd2eb5f7	-0.042654004
183	0x3da508cd	0.08058319
184	0x3c6f9a5e	0.014624206
185	0xbdc18252	-0.09448685
186	0xbc6a74f8	-0.014310114
187	0xbc577df0	-0.013152584
188	0xbd1b9a30	-0.03798884
189	0xbf22d827	-0.6361107
190	0xbd88ebd6	-0.06685607
191	0x3df94c82	0.12172796
192	0xbf178d33	-0.5919983
193	0xbcf8647b	-0.03032135
194	0x3e7231d3	0.23651819
195	0xbeb7e721	-0.35918525
196	0x3ce4703a	0.027885545
197	0x3de39a51	0.11113418
198	0xbe4a1cfa	-0.19737616
199	0xbe62abd4	-0.2213586
200	0xbe4908f7	-0.19632326
201	0xbd9977bb	-0.0749354
202	0xbde501be	-0.11181973
203	0xbe82ceb6	-0.25548333
204	0x3da0639e	0.078315005
205	0xbe12f9d8	-0.1435312
206	0xbf5e9078	-0.8693919
207	0xbd1bfaa5	-0.03808083
208	0xbe16c4c1	-0.14723493
209	0x3e71424d	0.23560448
210	0xbe955bf2	-0.2917171
211	0xbeb919e1	-0.36152557
212	0x3e17fe34	0.14843065
213	0x3d089643	0.033346426
214	0x3d38bae6	0.045100115
215	0xbdb080ef	-0.08618342
216	0xbc2be75c	-0.010492172
217	0x3c226f9c	0.009914305
218	0x3d95dc14	0.07317367
219	0x3e0e85d3	0.13918237
220	0xbd21851a	-0.039433576
221	0x3cb77ef5	0.022399405
222	0x3da1c8e8	0.07899648
223	0x3e45923f	0.1929407
224	0x3dfd332d	0.12363277
225	0xbe9c444d	-0.3052086
226	0xbe0ba286	-0.13636217
227	0x3c3dd6fe	0.011586903
228	0xbdbc6942	-0.09199764
229	0xbc77a0ff	-0.015114068
230	0x3c9c89e1	0.019108715
231	0xbd96735b	-0.07346221
232	0xbd24faed	-0.040278364
233	0x3e0e1f28	0.13879073
234	0x3dbddeab	0.09270986
235	0x3d4975b9	0.049184535
236	0x3e11e160	0.1424613
237	0x3d2110f8	0.039322823
238	0x3dd68081	0.10473729
239	0x3b7b65de	0.0038360278
240	0x3e06dad6	0.13169417
241	0x3c35e3e2	0.011101695
242	0x3e02bc8c	0.12767237
243	0xbf129db6	-0.572719
244	0xbddb5f4c	-0.10711536
245	0x3ed8a13c	0.42310512
246	0xbf2904c8	-0.6602292
247	0xbf09e3da	-0.538633
248	0xbdb82359	-0.08991117
249	0xbf0ead20	-0.5573292
250	0xbf3e1fa6	-0.7426704
251	0xbe656060	-0.22400045
252	0x3e0edf3c	0.13952345
253	0xbe08b848	-0.13351548
254	0xbea3243e	-0.31863588
255	0x3b80d5b6	0.0039317263

hiddens.10.bias f4 [20]
0	0x3e8c3a41	0.27388194
1	0x3e2d7dd1	0.16942526
2	0x3d0a0e17	0.033704843
3	0x3ee31d8f	0.4435849
4	0x3d61519d	0.055009473
5	0x3d6621d4	0.056184605
6	0x3e5c601c	0.21521038
7	0xbd92304e	-0.0713812
8	0x3e9ddbf9	0.30831888
9	0xbde58311	-0.112066396
10	0x3d1a48dc	0.03766714
11	0xbe59a659	-0.21254863
12	0xbe0a9f73	-0.13537388
13	0xbdd3d242	-0.10342838
14	0x3e297119	0.1654705
15	0x3e7297b5	0.23690684
16	0x3cbc15fb	0.0229597
17	0xbe2228b7	-0.15835844
18	0xbd3dc713	-0.04633243
19	0x3e4a98f6	0.19784912
