runs/RelaxedP4CNN_aniso_std0.2_gamma2_lr0.002/model.pt (torch, 116029 bytes, 18 tensors)

lifting_conv.combination_weights f4 [3, 4]
00000000: 8d6e d03d 5b38 d33d 6785 cf3d d499 cf3d
00000010: 4d19 903e 0347 903e d868 8e3e 0200 903e
00000020: a313 aa3d 492f ac3d 172b a03d eaf5 a73d
0.10177336 0.10313483 0.10132866 0.10136762 0.28144303 0.28179178 0.27814364 0.28125006
0.08304527 0.084074564 0.07820719 0.08201201

lifting_conv.weight f4 [3, 6, 1, 3, 3]
00000000: c34e 2dbe 1943 9e3e 254c 7a3d 654a 0bbf
00000010: 4b14 3a3e a331 8bbd bf82 74bd 8ca5 aa3e
00000020: 70bf 77be 157c d63e d0b3 013f 018b bdbe
00000030: f827 e53e 80dd 93be 0d8e 3f3d 0207 d73c
00000040: d8e8 5bbe 21cd e3be 45e8 5cbe f557 e13b
00000050: 65e2 c63e 50b4 a6bd 4197 623e fd21 413e
00000060: 199f 91be 0c03 643d ddc8 d53d 9a2e 6ebd
00000070: 574e 733e f398 24bd 9e25 81be bddc 7c3e
00000080: b0a8 f43e 0d6e 4b3e a8e2 50be b7cd c8be
00000090: a59d 533d 734f 88be 4eb8 16be 0dae 5b3e
000000a0: c378 58bd 8512 23bd 36de 563e b523 903d
000000b0: c88a 0c3e 2382 8cbe eb19 76bd e195 bebe
000000c0: 089c 5a3e b9e0 1f3e 8c01 953e f2e9 42bd
000000d0: 7dad 0fbd 8670 833d 2006 06be 4019 acbe
000000e0: 7959 f9bd 010a a8be e1dd 9abe 1807 cebe
000000f0: 6c85 38be 94fc 8f3e c8c5 c7bc 57fd 043e
00000100: 35c2 2abe ebb2 463a 5544 76bd ca70 7cbe
00000110: e6b6 37bb 2511 1cbf 23f5 fe3d 1775 c0bd
00000120: 8ba6 2ebe fc7e 373e 5cdb fb3e d2ef 05be
00000130: 1232 653e 318b ce3e c5e1 1cbe 9195 28be
00000140: b717 413e b313 a4be a0fb ff3d 6d64 aebe
00000150: 5276 7abe fbdb e0b8 5e39 4f3e a94a 1d3e
00000160: 7bef 34be 8bc6 a9be d261 fe3e 4f7f 51be
00000170: 9da8 49bd fb7a 973e f38a aabe da61 97be
00000180: c066 643e fdc7 88be 7478 aabd 94ef b9be
00000190: 9bc3 823e c51d 643e 11f9 39be 4f52 7a3e
000001a0: f51e 5a3d 48b0 b8be ecda 943d 051c a3bd
000001b0: 1c03 173d 7ecf 993e e4cb 2c3d 3e56 d3be
000001c0: b5d7 aebe b720 93bd f9f5 853e 8d16 4e3e
000001d0: 09b3 1b3d caba a33e 474e 2d3d 0c59 6cbe
000001e0: a759 c73d d3e5 3dbe 52a5 53be 3625 dabd
000001f0: c037 fb3b 1fff cd3c 3c50 bfbd d61b 2cbe
00000200: 045c b03e 5aa9 9b3d 8a3e 653d 9619 143f
00000210: 28c7 c93d 5a49 133e dc53 653d b325 19be
00000220: 1e54 6e3e fe52 503e 20c2 5a3d acec 6ebe
00000230: 68d0 443e 7043 4b3e 7cef cdbc ac03 01be
00000240: d879 9a3e bae5 3ebd 24e7 bfbe d1f0 dc3b
00000250: 4a2f edba d4cb b6bb c05c 57be 5325 be3e
00000260: d790 09be cd1c d839 82a4 bd3e b05a 803d
00000270: f758 343e 9148 9dbd 79b4 1f3e 551a 05be
00000280: bd09 8dbe e972 b43d
-0.16924576 0.30910566 0.061107773 -0.5441039 0.18171804 -0.06796577 -0.059695 0.33329427
-0.24194121 0.41891542 0.50665 -0.37020114 0.44757056 -0.2887993 0.04676633 0.026248459
-0.21475542 -0.44492438 -0.21572979 0.0068769404 0.388446 -0.08139861 0.22128011 0.18860622
-0.28441694 0.05566697 0.10438702 -0.05814991 0.23760353 -0.040184926 -0.25224012 0.2469358
0.47784948 0.198662 -0.20398962 -0.39219448 0.051664013 -0.26623115 -0.14718744 0.21453114
-0.052849542 -0.039812583 0.20983204 0.070380606 0.13724816 -0.27443036 -0.06008331 -0.37223724
0.21348584 0.15613069 0.29102743 -0.04758639 -0.03507756 0.064179465 -0.13088274 -0.33613014
-0.12175269 -0.32820132 -0.30247405 -0.40239787 -0.18019646 0.2812239 -0.024386302 0.12987266
-0.16675647 0.00075797614 -0.06012376 -0.246524 -0.00280326 -0.6096366 0.124491 -0.09397333
-0.17055719 0.17919534 0.49190795 -0.13079765 0.22382382 0.4034057 -0.15320499 -0.16463305
0.18856703 -0.3204628 0.124991655 -0.34060994 -0.24459198 -0.00010722127 0.20236728 0.15360512
-0.1766948 -0.3315929 0.49684006 -0.2045872 -0.049233068 0.29586014 -0.33309135 -0.29566842
0.22304821 -0.2671508 -0.08323756 -0.36315596 0.2553986 0.22276981 -0.18161418 0.2444546
0.05325218 -0.36071992 0.072683185 -0.07964329 0.0368682 0.30041116 0.042186633 -0.41276735
-0.34148946 -0.07183974 0.26164225 0.2012579 0.038012538 0.31978446 0.04231098 -0.23080844
0.09733897 -0.18544702 -0.20668533 -0.10651629 0.007666558 0.025146065 -0.09341475 -0.16807494
0.34445202 0.076006606 0.055967845 0.5785154 0.09852439 0.1438345 0.055988178 -0.14955787
0.23274276 0.20344159 0.05340779 -0.2333247 0.19220126 0.19849944 -0.02513861 -0.12599057
0.30171084 -0.046605803 -0.37481034 0.0067425747 -0.0018095758 -0.0055784974 -0.21031475 0.3713785
-0.13434158 0.0004122019 0.37039572 0.06267297 0.17612062 -0.076798566 0.15596189 -0.12998326
-0.27546492 0.0881098

gconvs.0.combination_weights f4 [4, 3]
00000000: bcf5 b33e 19fb ae3e 3900 f03e 01ee b03e
00000010: 8b09 ad3e 6cc8 ee3e 3e40 b13e 397c ac3e
00000020: f9b3 ef3e 09d3 b03e 4b0d ad3e ee5c ee3e
0.35148418 0.34175947 0.4687517 0.34556583 0.33796343 0.46637285 0.34619325 0.33688524
0.46816996 0.34536007 0.33799204 0.46555275

gconvs.0.weight f4 [3, 6, 6, 4, 3, 3]
00000000: 78da 1c3e 256f bebd c5c0 12bf c16d 093e
00000010: db0e 12bf cd14 50be dca0 983b d85b 40be
00000020: c63e bbbd 3e4c 4e3d 0399 cabd 55f8 f13c
00000030: 7116 06be 9fe8 55be 4ab4 87bd c00f a3bd
00000040: 5399 55bd 6860 853e 2cbb 36be 129a b73e
00000050: 79c8 55bd c52e 16be 762a 9fbe 58b7 563e
00000060: 8853 7b3e a7a4 883e 2df0 723e 574d 2ebf
00000070: b227 053f 0fce b2bd f230 14bf e1d3 9ebe
00000080: 7e60 b6ba ab3c eabd 8821 5abe 11f7 5dbe
00000090: 1f63 a53e eeff 12bf 3ade ecbe 1a28 2abe
000000a0: c0f2 0bbf 0ffc 29be 44ae 1a3e 41de d83d
000000b0: 2b85 613e a2e9 1c3f eb6f d93e c04e 033e
000000c0: 1b79 983e 8395 66be 1677 9f3e 66a3 1ebc
000000d0: cbac bf3e c9eb 873d 156e b1be cb22 ebbd
000000e0: c955 953e 21f4 f8bd 0b6d d8bc 911d 00be
000000f0: e314 17be 295b 7cbe ff84 1e3f ae16 133e
00000100: aa02 19be 6e13 b1bd ad42 b5be 5a35 a63e
00000110: d0d7 2b3d c5dc 103e b8cd 95be 54ae 2dbd
00000120: 4fcc ad3e 814f 0fbe aa2a 5ebe ecc6 9b3e
00000130: 6989 c9bd c2fe f33e 7223 8dbe 742c f43e
00000140: ecef 853e 07a4 b1be 50a5 aa3e ded9 9f3e
00000150: c31e 46bf 22ec 20be 3d62 473e 7528 36be
00000160: 5681 cd3e 03c9 793d 5078 acbe d04d d63e
00000170: 06f3 c6bb 8597 5abe 15ce f0bd 18c2 f63d
00000180: b6f0 dabb ce6a 0dbf a984 86be 4521 2f3f
00000190: eadd 683e 1875 2dbe cc46 46be 3c44 fdbd
000001a0: ced5 933d 4435 d0be be0f 0dbf 7cbc 12be
000001b0: fc8c 6dbe bd36 c2bd 8054 78bd 19c9 0f3d
000001c0: a829 c43e d384 0c3f 0cde cfbd e99f 60bd
000001d0: 08a8 c3be 4dbe 9ebe 7711 763e 95a6 29be
000001e0: d22b f33e e7f4 50be 9ed9 593e 0095 8e3e
000001f0: 2b91 84be 2c44 93be 33f7 1e3f aa13 e73e
00000200: 09db d83e c95c 813e 8685 abbd 3670 bc3a
00000210: c19a 4a3e d58e d3bd 33ae 5a3d c9c0 8ebe
00000220: 5426 d2be 96aa b23e 1e59 0e3e 86bf 58be
00000230: 29f5 88bc cadf 71bd 58b2 fabc efc0 d23e
00000240: 3b74 0a3f ed4c 043f 74c7 fe3e cc85 3f3d
00000250: c541 bebe 35d8 ecbe 721f 963e 99cc 103c
00000260: 1905 ac3d dec4 683f eb16 e93c 8926 3c3f
00000270: c0b6 0b3f 5d89 cb3d cbf0 6c3d ac77 3fbe
00000280: 4e3c 21be 84da 493e b83a 2e3e 7017 f2be
00000290: c165 7d3e 0e45 113f f68d f23d 828a 03be
000002a0: bf57 c53e 8c3f 643e c204 913e 197a bcbd
000002b0: bf97 aabe 9cc5 f43e 7846 c63d 454f a9be
000002c0: 2f90 133e b763 8bbd 13b8 a73e 9b6c 7a3e
000002d0: 1fe9 24bc 7f71 0abc ba39 a5be 3f14 003e
000002e0: 8b3f 643c 86c5 403e 5973 68be 11c2 a23d
000002f0: e22d fc3d 4560 0b3e 06b6 df3d 7382 17be
00000300: 71e7 9b3e dc70 c53e bc09 643e 7ea2 4dbe
00000310: 7c7c 2bbe 0a2e 013f e709 143f 174d dc3d
00000320: 1bdb f1bd b498 ccbd 8457 b6bd b6b3 4b3e
00000330: 9485 00bf 6f4b 0e3e 275a 1a3e c074 293e
00000340: 3256 00be c97c 1dbe 5199 923e e0a6 d9bd
00000350: 00ae 9d3e b874 c7be 102a b1be cb0c 0e3e
00000360: 339b 963e 5e16 2c3d ff38 df3d 3979 0ebe
00000370: 213d 41be 3e1d 723e 89ec 6e3d d933 f5bd
00000380: 1ffa 58bd e9b8 dfbd e17a 84be daac 803e
00000390: 58c6 8dbe 3bb0 a5be 313f ac3e afe5 05bc
000003a0: fa76 053d e2a4 fa3e c983 703e a56b 933e
000003b0: ebf4 6f3d 07b1 abbe 42e8 463d a378 e03e
000003c0: c873 22bf 3486 d0be 5fd9 973e b277 c43e
000003d0: 5da1 233f 11b0 e6bd a3ab 46be b925 c63e
000003e0: 2799 173e 2d18 463c 6f87 8bbe 0c0c afbe
000003f0: 0d81 30be 256a b9be 7b19 ffba e04f d0bd
0.15317714 -0.09298543 -0.5732539 0.13420774 -0.5705392 -0.20320435 0.004657848 -0.18785036
-0.091428325 0.05036568 -0.09892466 0.02953736 -0.13094498 -0.20889519 -0.06626184 -0.079619884
-0.052148174 0.26050115 -0.17844838 0.35859734 -0.05219314 -0.14666279 -0.31087083 0.20968378
0.24543583 0.2668812 0.23724432 -0.6808676 0.52013695 -0.08730709 -0.57887185 -0.31021026
-0.0013914255 -0.11437353 -0.21301854 -0.2167628 0.32302186 -0.5742177 -0.46263295 -0.1661686
-0.5466728 -0.16600059 0.1510554 0.105892666 0.22023456 0.61293995 0.424682 0.1282301
0.29779896 -0.22517972 0.31145543 -0.009682512 0.37436518 0.06636769 -0.34654298 -0.114812456
0.2916701 -0.12155939 -0.026419183 -0.12511279 -0.14754061 -0.2464415 0.61921686 0.1436412
-0.14942423 -0.08646284 -0.35402432 0.3246258 0.04195386 0.14146717 -0.29258513 -0.04240258
0.33944938 -0.13995172 -0.21695963 0.30425203 -0.09840662 0.47655302 -0.27566105 0.47690165
0.26159608 -0.34695455 0.33329248 0.31220907 -0.7739069 -0.15715078 0.19471069 -0.1778887
0.40137738 0.060982715 -0.3368554 0.4185624 -0.006071451 -0.21346863 -0.11758057 0.12048739
-0.006681527 -0.55241096 -0.26273087 0.6841014 0.22740903 -0.16939199 -0.19362944 -0.1236653
0.072185144 -0.40665638 -0.55102146 -0.14329714 -0.23198313 -0.09483097 -0.06062746 0.03510389
0.3831303 0.54890174 -0.10149774 -0.054840002 -0.38214135 -0.31004563 0.240301 -0.16567452
0.4749437 -0.20405923 0.2127442 0.27848053 -0.25892004 -0.2876295 0.62095946 0.4513219
0.4235461 0.25266102 -0.08375077 0.0014376703 0.19785596 -0.103299774 0.053388786 -0.27881458
-0.41044867 0.34895772 0.13901183 -0.2116681 -0.016718464 -0.059051313 -0.030602619 0.41162822
0.54083604 0.5167988 0.49761546 0.046758458 -0.37159553 -0.46258703 0.29320866 0.008837842
0.0839941 0.90925395 0.028453311 0.734963 0.5457573 0.09938309 0.057846826 -0.18697995
-0.1574566 0.19712263 0.17014587 -0.47283506 0.24745847 0.56745994 0.11843483 -0.12845805
0.38543507 0.22289866 0.28323942 -0.09202976 -0.33318898 0.47807014 0.096814096 -0.3306829
0.1441047 -0.068061285 0.32757625 0.24455492 -0.010065346 -0.008449911 -0.32270604 0.12507723
0.013931165 0.18825349 -0.22700252 0.079471715 0.12313439 0.13610943 0.1092339 -0.14795856
0.30450013 0.38562667 0.22269338 -0.20081517 -0.16746706 0.50460875 0.5782761 0.10756891
-0.11809369 -0.09990063 -0.08903411 0.19892773 -0.50203824 0.13895963 0.15073453 0.16548443
-0.12532881 -0.15379633 0.28632596 -0.10627532 0.30796814 -0.38956237 -0.34602404 0.13872068
0.29415283 0.04201352 0.10899543 -0.1391343 -0.18870975 0.23643968 0.058331046 -0.1197278
-0.05297291 -0.10923941 -0.25875 0.25131875 -0.27690387 -0.32361016 0.3364196 -0.008172437
0.032584168 0.4895392 0.23487772 0.28793064 0.05858318 -0.335335 0.048561342 0.4384204
-0.6345792 -0.4072739 0.29658028 0.3837257 0.63918096 -0.11264051 -0.19401412 0.38700655
0.14804517 0.012090725 -0.27251765 -0.3418888 -0.17236729 -0.36213794 -0.001946255 -0.10171485

gconvs.1.combination_weights f4 [4, 3]
00000000: d418 ef3e 6455 bb3e 3304 b03e 9530 ee3e
00000010: abcf ba3e a3ea af3e 23b7 ef3e ccf2 bb3e
00000020: f633 b03e fbed ed3e 93fe bb3e e6f5 af3e
0.4669863 0.36588585 0.34378204 0.4652144 0.36486563 0.343587 0.4681941 0.36708677
0.34414643 0.46470627 0.36717662 0.34367293

gconvs.1.weight f4 [3, 6, 6, 4, 3, 3]
00000000: 089c cebe c594 c13d 710f 3c3e 2139 2e3e
00000010: 0b6e fbbb b942 dabd f6e4 65be 0dae f7be
00000020: 025e 9dbe de0f 0ebe 95e8 4a3e 40f8 c33d
00000030: fefa 843e d48d 2dbe f9c6 963e e325 183f
00000040: f230 3a3e 6281 f23e 456b 8bbe 3663 2ebf
00000050: f23d 92be f4f9 b0be e638 19bd 3204 463e
00000060: 2d44 26be 5e26 e23e bf7c c03e fd88 94bf
00000070: 859f 3dbf f63c 49bf 3406 18bd 2921 de3d
00000080: 70f5 3fbd d420 54be 0f57 0ebf 9854 5dbf
00000090: f220 213f a420 ba3e 5335 47bd 402a 6d3f
000000a0: 0744 45be 3c5e 59bf 42d9 21bf 10fe 07bf
000000b0: 6f78 74bf 187e 9f3d 5a86 a5be 0c6d 303e
000000c0: a69f 04bf a38b 183e 44ba 433e 59cb 413d
000000d0: d7ec b1bd 78c8 703d 9f0c 6cbe 3133 8d3d
000000e0: bc25 a23e 4270 0ebe 1727 42be 851b c8bc
000000f0: 9f87 78be 9db7 c83e fffe d23e e6e7 09bf
00000100: 15e1 ec3e c23d 073f 542a 8f3e 7416 6f3e
00000110: a116 c5be aa0c 3d3e 363f 20be fe17 9d3e
00000120: 5f33 babe e8f3 2dbe 571f 8b3e b0ab d43c
00000130: 23be 813e eaaf 913e 3d4b 733e 9248 703d
00000140: 0f6f c93e 4937 cbbc 9b2b 843d 43e1 82be
00000150: b16e 93be f1b5 eb3e c957 193e da68 80be
00000160: f300 c43e 55c2 5a3e c0d7 c5be 8a3f 2f3c
00000170: e267 ecbe 65a2 38bd 113b a43c c889 07be
00000180: a5c4 9b3e 9edd 2ebe 7726 493e a3c6 e7be
00000190: b8ef 05bf 77b6 0ebf f52c e3be 945d 8ebe
000001a0: e997 393d ca76 35bf 44bd 0b3e d6d7 763e
000001b0: 8a19 d4bc aa2c 963e 66d8 88be 6c50 ac3e
000001c0: 195f 383b a8b3 4ebe 6202 60be e2fc 81be
000001d0: b564 bc3d 7a0e 44be 5d45 2f3e fc25 b03e
000001e0: 51c8 163e 5f10 92be b7b6 f43d f21a d7bd
000001f0: a82d 7a3c a0bc d73e 5e8c 84bd 7ac0 a2be
00000200: 14d2 da3e 8a76 86be 8490 18bd 266b a93d
00000210: 89fb b63e 7e00 493e 7a73 c73e 4939 5e3d
00000220: ae76 65be 92c2 c13d 1fc2 18bf f677 913e
00000230: 5e77 4cbc e77a 4bbf 08cc 3dbf 1c7a 9fbe
00000240: 5623 013f c8ea cb3d f5b9 cc3e b053 a13d
00000250: b563 b53e f31b 01bf e81e ea3d 7ae7 d8be
00000260: c196 aabe 0bce 4abe daec 8bbe 7ca8 02be
00000270: e5eb 463f 076f 4bbe 439a a23e 1283 fa3d
00000280: fbd4 f4bc 8706 3dbd e55f 93be 91d0 983e
00000290: 2e02 07bf e116 06bf ca9b 90be feca 763a
000002a0: e392 253f d38a 75bd 123a 1f3e f90e 76be
000002b0: a1d2 fcbe ac46 31bf 368c 35be cf1e d4bd
000002c0: 6ebf 50be 6f0d abbe 97fe 823e 38bc 85be
000002d0: f672 ae3d ae15 61be 4471 9abe 9f3a b5bd
000002e0: 75bd ad3e 797c 95bd 35ca eb3e a3d4 513c
000002f0: e994 d8be 07b8 ac3d 4f8a b5bc 3d28 e6be
00000300: cea8 7bbe 78aa b5be 4d52 963e e569 fc3c
00000310: e1cd cb3e ee2b cbbe 7009 bdbe 9fde 3b3e
00000320: c3b1 4cbe e76d c53e 5fe4 1c3e 35bb 87be
00000330: 9498 09bd c6d4 1f3e 49b4 1c3f de02 b8be
00000340: 5320 0bbe c205 0abf 551c 2cbf d1a1 573e
00000350: 41b7 af3a 6ab0 3abd e760 363c 79d5 acbe
00000360: 3898 a0be 5bdb c0be 567b c7be 2fe1 983c
00000370: f057 173e 97ec f13d 96a7 7d3e b3e5 44be
00000380: 5aa8 1f3e 422a fc3e ec26 4e3e a63a cb3e
00000390: 304c 683c 9af9 5c3e 2276 6c3e 268d 693e
000003a0: 1fb5 c5be 6b35 ffbe 0e7f 403e fa09 9dbd
000003b0: 751a 123f cead 2ebe 5606 82be 50c6 d93c
000003c0: 797a b7bc be59 e0be db26 4fbe 2893 bd3b
000003d0: b79d 23bf ed22 553b fe79 27be 5d16 083e
000003e0: 4c52 893e 425e 903d 915b 003e f44b 1d3e
000003f0: 302e c0bc b955 b53d 63b8 5dbe 2932 cf3d
-0.40353417 0.09452204 0.18365265 0.1701398 -0.0076730303 -0.106572576 -0.22450623 -0.48374978
-0.30735785 -0.1387324 0.19815286 0.09568834 0.25972742 -0.16948634 0.2944868 0.5943281
0.18182734 0.47364336 -0.27230278 -0.68120134 -0.28562886 -0.345657 -0.03740778 0.19337538
-0.16236944 0.44169897 0.37595174 -1.1604306 -0.7407153 -0.78608644 -0.03711529 0.108461685
-0.046864927 -0.20715648 -0.5560159 -0.86457205 0.62940896 0.36353028 -0.04863484 0.92642593
-0.19264232 -0.84909415 -0.63222134 -0.53122044 -0.9549627 0.07787722 -0.32329065 0.17229098
-0.51806104 0.14897017 0.19114023 0.047313068 -0.08687752 0.058784932 -0.2305169 0.068945296
0.31669414 -0.1391001 -0.18960224 -0.024427185 -0.24270485 0.39202586 0.41210172 -0.53869474
0.46265474 0.5282861 0.2796198 0.23348409 -0.38493827 0.18461862 -0.15649113 0.30682367
-0.36367318 -0.16987574 0.27172348 0.025960773 0.25340375 0.28454524 0.2375917 0.05866296
0.39342543 -0.024806635 0.064536296 -0.25562486 -0.28795388 0.46037248 0.14974894 -0.25079995
0.38281974 0.21363194 -0.38641167 0.010696301 -0.46173006 -0.045076746 0.020047696 -0.13236153
0.30423465 -0.17076728 0.1964358 -0.45268735 -0.52318907 -0.5574717 -0.44370237 -0.2780577
0.04531089 -0.7088438 0.13646418 0.24105772 -0.025891084 0.2933095 -0.267276 0.33655107
0.0028132854 -0.20185721 -0.21875909 -0.25388247 0.09198896 -0.19146147 0.17116304 0.3440398
0.14724852 -0.28528115 0.119489126 -0.10503186 0.015269674 0.42136097 -0.064720854 -0.31787473
0.42738402 -0.26262313 -0.037247196 0.0827239 0.3573878 0.19629094 0.3895529 0.05425385
-0.22408554 0.094609395 -0.59671205 0.28411835 -0.012479631 -0.7948441 -0.7413945 -0.3114785
0.50444543 0.0995689 0.39985624 0.0787729 0.35427633 -0.5043327 0.11431676 -0.42364103
-0.3331814 -0.19805162 -0.2732914 -0.12759584 0.77703696 -0.19866572 0.31758317 0.12232031
-0.029886713 -0.046148803 -0.287841 0.29846624 -0.527377 -0.5237866 -0.28243858 0.00094144035
0.64677256 -0.059946846 0.15549496 -0.24029149 -0.49379447 -0.6924846 -0.17729267 -0.10357439
-0.20385525 -0.33408687 0.25584862 -0.26120162 0.08518021 -0.21980926 -0.3016454 -0.08849072
0.33933607 -0.07299132 0.4605271 0.012807044 -0.4230111 0.08433538 -0.022160677 -0.44952574
-0.24576113 -0.3548162 0.29359666 0.030812213 0.3980551 -0.39681953 -0.36921263 0.18346642
-0.19989686 0.3856041 0.15321492 -0.26510015 -0.033592775 0.1560851 0.61212593 -0.35939687
-0.1358655 -0.53915036 -0.6723073 0.21057822 0.0013406054 -0.045578398 0.011131502 -0.33756617
-0.31366134 -0.37667355 -0.38961285 0.018662063 0.14779639 0.11812704 0.2477096 -0.19228248
0.15591565 0.4925099 0.20132035 0.39693183 0.014178321 0.2157959 0.23091939 0.2280775
-0.38614747 -0.49845442 0.18798468 -0.076679185 0.5707162 -0.17058489 -0.2539546 0.02658382
-0.022397267 -0.43818468 -0.20229666 0.0057853647 -0.6391253 0.0032522038 -0.1635513 0.13289781
0.268206 0.07049228 0.1253493 0.15361005 -0.023459524 0.08854241 -0.21652369 0.10116989

gconvs.2.combination_weights f4 [4, 3]
00000000: e7a3 b83e d300 d53e 8c9b d33e a691 b83e
00000010: 2681 d63e 4013 d43e 76e1 b83e f628 d43e
00000020: ed1a d23e 1e0d b93e 1cb8 d53e f191 d33e
0.36062548 0.4160219 0.4132961 0.3604862 0.41895407 0.41420937 0.36109513 0.414375
0.41036168 0.3614282 0.41742027 0.41322282

gconvs.2.weight f4 [3, 6, 6, 4, 3, 3]
00000000: 93d9 b5bd cee1 71be 9f9c 22bf c7fd 553e
00000010: a278 86b8 0560 fc3e 3d5e 363e 197c 82bc
00000020: 5026 1abe a30c 1cbf d91b df3d 6dfa 853e
00000030: 67de ebbe eac4 e73e e702 76bd cb4a 3a3f
00000040: 59fc 893e 53e9 35be cd37 01bf 3e00 dcbe
00000050: e10c f03e 051b 03bf c889 093e 1614 b1be
00000060: 010a 4dbe 3930 c3bd 9338 36be 3c86 3abf
00000070: 8c0c 18bf 5755 8cbe 2201 e93e 15fb 89be
00000080: 9829 0cbe 1153 a33e f0e9 303e f944 60bc
00000090: 8e8a ad3d f19b acbe 4fa8 bbbe dc1f 8d3d
000000a0: ace0 8dbe 1865 313e d0c0 d73e da0d f7bc
000000b0: ee6d 30be a9c6 dfbe e00f 913d 8c67 d3bd
000000c0: 3221 39be 7868 c7bd 072a 30be 176e eabd
000000d0: 4bc3 0bbd 5a36 ec3e 4d0c ddbe cd7c 3bbe
000000e0: b5bb 03bf a3a9 343e ab92 df3e f2f6 f4bd
000000f0: c136 d03d 19bd 9bbd 54a4 e53d bbac bbbe
00000100: a363 b8be 76fb ebbe fdec 5f3e d33b b93d
00000110: e5d4 55be b77b 793d 852a 743e 6fac a5bd
00000120: f84d c3be b051 14bf 867b 0ebf fe37 3f3e
00000130: 9c98 a83d de72 c83e 418a 19be e4f0 28be
00000140: ac20 1dbe d629 4ebf 9f4a 59bf 052f 22bf
00000150: 17d2 693e 6b54 72be 72cf 143d 6eff ad3e
00000160: ccc2 d03e 387e c03e 715e 61bf 736c 04bf
00000170: 1fd4 6ebf 3e17 70be 9d46 13bd 6060 913d
00000180: 8dd3 ab3e d6c9 ec3d 30bf 923d e9c9 cbbe
00000190: b9b2 8cbe df93 52be eafe 3f3e db55 293e
000001a0: e171 fcbd 10e8 d33e eb73 7b3e 0f95 133e
000001b0: a4cd 6ebf 3581 14bf e426 473e e2d2 8f3e
000001c0: 1b1f 123f e477 d03e f61a b43e 0828 a5be
000001d0: 8557 1dbf 3ca8 713e b3f6 8bbe 7f63 f3bd
000001e0: 8523 a93e 5eb8 fa3e dd02 3f3f 5ebc fdbe
000001f0: fb6f fdbe 4117 06be a596 a93c 86d6 4ebf
00000200: 101c 24bf b109 993e 5fbd f73c 07bb 88be
00000210: cd57 81bd ad35 aabe 8d6d a0bd ea9a 15be
00000220: a54e 49bd 6405 4d3e ac20 8d3e 1280 51bd
00000230: 839f e53d 14aa fdbd 0e68 203e f11b b03e
00000240: b708 d53e febe 53bd 6ea1 363e 47dd 2d3e
00000250: dd8f f5bd f61a b73b b43d 4bbe 8775 233e
00000260: bd67 7bbb 231f 28bf 53a8 30bf a1be 4ebf
00000270: 3ea8 0fbe 43e8 1b3d 7eab a1be f621 333e
00000280: c6bb 80be 8fe1 353c 1524 463d 15f0 f7be
00000290: e10a af3e c3b4 983d 7dcb bf3d fd61 f3bd
000002a0: d6f3 c4bd 89ed 98bd 5734 023e 5522 6b3e
000002b0: a1b0 ce3e 4500 c23e b847 38bc cdb1 c63e
000002c0: 646b 443e 7deb 7dbe d3a4 5f3e cfac 92be
000002d0: a32f 3abe bd33 83be 70dc 473e fef3 5f3e
000002e0: 630c 853e 819c 96bc f4e1 1fbe 0b01 0e3f
000002f0: 8acd 16be 12ac 20bf 94d0 16be a948 62be
00000300: abd5 cfbe e8e1 c03e 6b13 83bd dce8 2abd
00000310: 3879 8d3c b96d b0be e31f b93e 86e3 fd3d
00000320: af97 c63e 1bbd b6bd 3336 52be c64b 60be
00000330: e169 353d 0ee5 1abd 5ba9 febe 4749 9c3e
00000340: d346 e73c b391 f2be f505 2b3e ea26 023f
00000350: 5bf2 813e 88bb 74be e167 6ebe efcc debe
00000360: f41b 9c3e 6334 223d 6b8c 83be cf3c 0dbe
00000370: 8388 223e b318 7ebe 2f24 a13e 3684 c4be
00000380: d68f febe afe5 8dbe 2c8f 293e 2aaa 6bbe
00000390: a0a0 c0be 4122 43be 0daa 08bf a342 a4be
000003a0: 67ba f7bd a9db 09be 3615 ed3e f42b 0e3d
000003b0: 9b10 4dbe d00c 533e 570e 673e 7941 cfbe
000003c0: 9712 c03e 03dc 263f f1f6 d0be bc24 2d3f
000003d0: f6bb d2bd e203 a23d f3a0 1abe b54a aabe
000003e0: e994 973e 9d2b 6dbe 3b3d c0be e49d b43e
000003f0: 96ff a3be da4b 4cbe 9eaf cd3e a4a1 4e3e
-0.088793896 -0.23621294 -0.63520235 0.2089759 -6.4120875e-05 0.49292007 0.17809387 -0.015928315
-0.15053678 -0.6095678 0.108939834 0.26167622 -0.46068117 0.4526742 -0.06006136 0.72770375
0.26950338 -0.17764787 -0.5047577 -0.42968935 0.46884826 -0.51213104 0.13431466 -0.34585637
-0.20023347 -0.09530682 -0.17795019 -0.72861075 -0.59394145 -0.2740886 0.45508677 -0.26949373
-0.13687742 0.31899312 0.1727674 -0.013688319 0.08473693 -0.33712724 -0.36651847 0.06890842
-0.27710474 0.1732372 0.42139292 -0.030157972 -0.17229435 -0.43706253 0.07083106 -0.103224844
-0.1807907 -0.09736723 -0.17203532 -0.11446779 -0.034121793 0.46135217 -0.43173447 -0.18309326
-0.51458293 0.17642836 0.43666586 -0.119611636 0.101666935 -0.07604427 0.11212984 -0.3665522
-0.36013517 -0.46090287 0.21867748 0.09044614 -0.20881994 0.060909 0.23844345 -0.0808953
-0.38145423 -0.57937145 -0.5565723 0.18673703 0.08232233 0.39150137 -0.14994146 -0.16498142
-0.15344495 -0.80532587 -0.8487949 -0.63352996 0.22834049 -0.23665015 0.036330648 0.3398394
0.40773618 0.37596297 -0.8803473 -0.5172798 -0.9329242 -0.23446366 -0.035956014 0.0709846
0.33559838 0.11561935 0.07165372 -0.39802483 -0.27480105 -0.20564221 0.18749586 0.16536658
-0.12326408 0.41387987 0.24555938 0.1441233 -0.9328253 -0.58009654 0.1944843 0.28090578
0.57078713 0.4071647 0.3517682 -0.32257104 -0.6146167 0.23599333 -0.27336654 -0.11884212
0.33034912 0.48968786 0.74613744 -0.49557775 -0.49499497 -0.13094808 0.020701716 -0.80796087
-0.6410532 0.29890206 0.030241666 -0.2670519 -0.06315575 -0.33244076 -0.07833395 -0.14609876
-0.049147267 0.20021588 0.2756399 -0.051147528 0.11212065 -0.123859555 0.15664694 0.34396318
0.4160821 -0.051695816 0.17835018 0.16978942 -0.1199033 0.005587931 -0.19847757 0.15962802
-0.0038361393 -0.6567251 -0.6900684 -0.80759627 -0.14029023 0.0380633 -0.3157615 0.17493424
-0.2514326 0.011101141 0.048374254 -0.48425356 0.34187987 0.074563526 0.09364984 -0.11883924
-0.096168205 -0.07467181 0.12715279 0.22962315 0.40369132 0.3789083 -0.011247568 0.38807526
0.19181591 -0.24796863 0.21840219 -0.28647467 -0.18182234 -0.2562541 0.19517684 0.2187042
0.25986013 -0.018385174 -0.15613538 0.5547034 -0.14726844 -0.6276256 -0.14728004 -0.2209803
-0.40592703 0.37672353 -0.06400188 -0.04172598 0.017269716 -0.34458712 0.3615714 0.12396912
0.387876 -0.08922788 -0.20528488 -0.21903905 0.044290427 -0.0378161 -0.49738583 0.30524656
0.028232014 -0.47376785 0.16701491 0.5084063 0.25380215 -0.23899662 -0.23281814 -0.43515727
0.30490077 0.03960074 -0.25693068 -0.13792728 0.15872388 -0.2481411 0.31472918 -0.3838212
-0.49719113 -0.27714297 0.16558522 -0.23014131 -0.37622547 -0.19056036 -0.53384477 -0.3208209
-0.120961 -0.134627 0.46305245 0.034709886 -0.20025866 0.20610356 0.22564064 -0.4047964
0.37514183 0.6517946 -0.408134 0.6763418 -0.10289757 0.07910897 -0.1510046 -0.33260122
0.29605797 -0.23161168 -0.37546715 0.3527671 -0.32030934 -0.1995081 0.40173048 0.20178849

gconvs.3.combination_weights f4 [4, 3]
00000000: 58ae d13e f818 b63e ca83 da3e 1379 d23e
00000010: ddfc b53e 67b5 d93e 8fa4 d23e d439 b53e
00000020: d6a4 d93e b57d d23e 0ab5 b73e ca3d da3e
0.40953326 0.35565925 0.42678672 0.41107997 0.35544482 0.42521212 0.41141173 0.35395682
0.42508572 0.41111532 0.3588031 0.42625266

gconvs.3.weight f4 [3, 6, 6, 4, 3, 3]
00000000: 67d9 26bf aa10 50bf bcbd 05be 9915 e2bd
00000010: 4a1d ab3d 2fcb d5be 66c7 10be 9854 aa3e
00000020: 8dc4 3bbe d966 7a3d f7da 18be 4ff6 89be
00000030: 3eb9 bb3e 80b6 26bf f822 27bf 6bf5 a3bd
00000040: afa9 1abe 3f8e e4be cd72 81be a2a3 ab3e
00000050: 8cd4 b23e c263 09bf 7f45 f9be 37ea 7f3d
00000060: fe98 96be 83bb 12bf c1f4 01bf c263 05bf
00000070: 410e 4b3e 197a 843e 1b2a 72bf f4ab 413e
00000080: 090e c2be 63fb e43c 3cbd 02bf 2c2f 54be
00000090: 5ac1 13bf d5cb 0abf 151c 12bf 1653 843c
000000a0: 5524 03be 0a0e 43be b984 473e 065f b43e
000000b0: e75b 043e d5b9 6c3e 2feb be3d 33cd d53e
000000c0: 2a0c 8c3e 12c5 393d a48f afbe 8534 94bd
000000d0: 610e e8bd dcd3 53be 81ac 64be 13d1 ae3e
000000e0: 3b7e f73d 5e8b dd3e 378c c93d 48dd 18bd
000000f0: 09f1 c33d a009 2bbe f983 c1be 1145 bbbd
00000100: 9c4c 343e 66da 92bb 26a5 babe 9fd9 02be
00000110: 7c0c f2bc 6816 e7bd f9ca 883e 8359 323e
00000120: ac76 5dbe 0b38 1bbe fc59 07be 6053 5d3b
00000130: 01c6 39be 3068 9e3e 8a1f 3f3d 3c8a 5b3e
00000140: 3398 ba3d 91e6 e33e 9b8c b1be 8592 933d
00000150: 582f 323e a429 6abe 3509 96be 21f1 fa3e
00000160: c407 653e 4c93 8bbe 5405 0fbe 1df0 2fbe
00000170: 0e35 cdbc 7338 193d 6db8 0bbe 45b2 083e
00000180: a84b a2be f890 db3e e02c 80be eb05 d13e
00000190: b92c ba3e 3e16 38be 8a92 1d3d d31d 93be
000001a0: a3b1 f83e 9bb0 d5bd d2aa 6e3e 9cc1 073f
000001b0: 5562 53be 18f3 6c3e c0bd a4bc 0b6a 3abe
000001c0: c82a 20be d9cb 0bbe e821 cabe 3bef d1be
000001d0: 1fb8 f4be 4de6 9dbe fb55 8cbe 6118 ce3e
000001e0: 3947 ba3d adfd c13e 19e6 0f3c 334f e63c
000001f0: e8d5 17be 79e4 293e 7c0a c23e 1016 313e
00000200: 9722 0bbe 9fd6 b0bd f33e 4fbd 60c5 44be
00000210: a70e 48be 54ea 7abe 5731 bc3d 5ca7 87bd
00000220: 624b 57be 6589 88bd 79d6 c2be 3944 a53e
00000230: 3cae 733e b600 053f 07ec 62be a454 ecbd
00000240: 66f3 683e df1c d03e 6130 8fbe 8186 8d3e
00000250: 73fa 32be db1c eabd 2b5d 3ebc 5092 a23c
00000260: d28d 01be 06af aa3e d467 07be 7af7 95bd
00000270: 89fd 673d 87d6 f53d 509d 3dbe 5775 7ebe
00000280: 1731 92bd 6d38 853e ddb6 fcbe 3de0 23bf
00000290: 28fc 833e fb7c 343e 61e3 2b3e 38e3 0bbe
000002a0: 8853 143e a7e8 913d a9c1 a53d 1a68 ebbc
000002b0: 6eed 00bf 4377 503c 418c aebe 9e42 7cbe
000002c0: ec86 d2be b44b 7c3b 9235 15bf ee02 a1be
000002d0: 5b2f 43be 2c84 90be 82a1 243e 5caa b23e
000002e0: f511 0239 8aaf f83e 6161 023e 8029 273e
000002f0: cdcd 333d 471b 803e cdaf 62bd f2ee 5c3e
00000300: 316d 9fbe 02a1 7bbd 2256 5a3e 8c77 773e
00000310: a91d 1dbe 4234 03bf 162f 8b3d c645 223e
00000320: 92f7 f43d 1b12 7b3e 3dbb 8cbd 63ef 1d3e
00000330: 999b 443c 26ed 71bd 945b 2bbe 15ac 273e
00000340: acb3 7f3e dc46 093f baab a6be 392c 583e
00000350: d5ef ddbd de69 c83c fc6d 653e 5d7c 58be
00000360: fb5a 213b 98d1 2f3f e2e0 a03e 093a 53be
00000370: 1709 30be 7135 873c f18d f5be 1ae0 1ebf
00000380: d6bc 333c d893 79be 74a9 be3e 4b6a f6be
00000390: 6420 483e 4db4 0f3e 59e1 25bf 305e d13e
000003a0: d012 0b3f f25f 5abf 5774 633e 0d5e 163f
000003b0: 165e ea3e 1893 a0bd e178 d9be afd6 ecbe
000003c0: 1821 98be 0752 f1be 87b3 1cbf 443a b9be
000003d0: bf06 733e 80d4 3a3e ff22 91be 9e3a aa3e
000003e0: db7a 8fbe adaf 36bf e0e3 023e 991d 4fbf
000003f0: ba96 8e3d 330e efbe 6c18 3abf 0cfd 7c3e
-0.6517548 -0.8127543 -0.13060659 -0.11039276 0.08355196 -0.4175658 -0.14138564 0.33267665
-0.18336697 0.06113324 -0.14927278 -0.2694573 0.36664766 -0.6512222 -0.65287733 -0.08005794
-0.15103792 -0.44639775 -0.252829 0.3352328 0.34927785 -0.53667843 -0.48685834 0.062479224
-0.294136 -0.5731737 -0.5076409 -0.52105343 0.19829656 0.25874403 -0.945955 0.18913251
-0.37901333 0.027951902 -0.5107 -0.2072112 -0.57716906 -0.54217273 -0.570741 0.0161529
-0.12806828 -0.19048324 0.19484223 0.35228747 0.12925683 0.23117764 0.093222015 0.41758117
0.2735303 0.045353957 -0.34289277 -0.0723658 -0.113308676 -0.20686287 -0.2233143 0.34143886
0.120846234 0.4327039 0.09841197 -0.037320405 0.09567458 -0.1670289 -0.37796 -0.09144033
0.17607349 -0.0044816015 -0.36454123 -0.12778328 -0.029546969 -0.112835705 0.26717356 0.17416959
-0.21627301 -0.15158097 -0.1321792 0.003377162 -0.18141939 0.30938864 0.046660937 0.21439451
0.09111061 0.44511846 -0.34677586 0.07205681 0.17400873 -0.22867447 -0.293039 0.49012092
0.22366244 -0.27260816 -0.13966876 -0.1718144 -0.025049713 0.03740735 -0.13644572 0.13349254
-0.31698346 0.4288404 -0.25034237 0.40824828 0.36362246 -0.17977235 0.03846983 -0.28733692
0.48573026 -0.104340754 0.2330735 0.530298 -0.2064298 0.23139608 -0.020110011 -0.18204515
-0.1564132 -0.1365198 -0.39478993 -0.4100283 -0.47796723 -0.30839768 -0.27409348 0.40252975
0.09095616 0.37888852 0.008782887 0.028113937 -0.14827693 0.16591062 0.37898624 0.17293572
-0.13587414 -0.08634686 -0.050597142 -0.19215918 -0.1953684 -0.24503452 0.09189098 -0.06623718
-0.2102485 -0.06666831 -0.38054255 0.32278612 0.23796934 0.5195421 -0.2216035 -0.115395814
0.22749099 0.40647027 -0.27966598 0.2764168 -0.17478351 -0.11431285 -0.011618893 0.019845158
-0.12651756 0.33336657 -0.13223201 -0.07322593 0.056638274 0.120038085 -0.18517041 -0.24849449
-0.071382694 0.26019612 -0.49358264 -0.64014035 0.25778317 0.17625801 0.16785957 -0.13660896
0.1448499 0.07124453 0.08093578 -0.028736163 -0.5036229 0.012723747 -0.3409138 -0.24634787
-0.41118562 0.003849727 -0.58284867 -0.31447548 -0.19061033 -0.2822584 0.16077235 0.348956
0.00012404456 0.48571426 0.1273246 0.16324425 0.04389744 0.2502081 -0.055343438 0.21575525
-0.31137994 -0.061432846 0.2132192 0.24166697 -0.15343346 -0.51251614 0.0679609 0.15846929
0.11961283 0.24518625 -0.0687165 0.1542335 0.011999988 -0.059064053 -0.16734153 0.16374238
0.24970883 0.5362375 -0.32552892 0.2111062 -0.1083676 0.024464544 0.22405237 -0.21141191
0.002462088 0.6867919 0.31421572 -0.20627607 -0.17190968 0.016504975 -0.47959855 -0.620607
0.010970315 -0.24372804 0.37238657 -0.4812797 0.19543606 0.14033623 -0.6479698 0.40892172
0.5432558 -0.8530265 0.22212349 0.5873726 0.45774907 -0.07840556 -0.42475036 -0.4625754
-0.2971275 -0.47132894 -0.61211437 -0.36177266 0.23733042 0.18245125 -0.28347012 0.33247846
-0.2802342 -0.7136181 0.1278224 -0.8090454 0.069623426 -0.4669052 -0.72693515 0.24705905

gconvs.4.combination_weights f4 [4, 3]
00000000: ac48 c63e 7ab0 b33e 6223 b03e 6b60 c83e
00000010: 28ec b23e 01f0 af3e 7343 c83e 032a b33e
00000020: c5c1 af3e dae2 c73e 3ff1 b23e 10c1 b03e
0.3872732 0.35095578 0.34401995 0.3913606 0.34945798 0.34362796 0.3911396 0.3499299
0.34327522 0.39040262 0.3494968 0.34522295

gconvs.4.weight f4 [3, 6, 6, 4, 3, 3]
00000000: 018e 86be 2564 4d3c 5ccc b8be 35b4 babd
00000010: ce8a 363d c1d2 ebbd 3027 cf3d 470e eabd
00000020: 0e3e 01bf 258e 363d 9091 e5be 3f46 eabe
00000030: 792d 4f3d 64e2 f23c 5bfc d4be 65b9 433e
00000040: 6772 543e 316a 23bd 8715 8c3e 57d5 85be
00000050: db63 c7be b6c4 89bd d5db 80be 2937 5abd
00000060: 94cd d3bd 7c3d 13bd 51d5 30be 1a86 7d3e
00000070: 8e86 e0be 9939 023e 3177 673e 8633 86be
00000080: 13d7 bebe 5e9b 723b 49a1 4fbd b850 fc3d
00000090: fd17 943e 80dc 51bd 8092 28bf 2f8a 873c
000000a0: 245c aebc 0986 8abf c23f cb3e d913 d6be
000000b0: 1e48 d0be d510 59be 19b4 45ba 007a 953b
000000c0: e7a5 293d 2ffe 25be dbe1 453d cf5d 2dbe
000000d0: e185 e73c 9dc3 cfbe be30 2d3d 8c95 a1bb
000000e0: e33f d43b d9d4 1c3e 6f28 91be ffc2 013e
000000f0: 920a 233d 145c 82be c484 d73e d81d bf3e
00000100: 4510 d13d fb93 e63e 066d 653c 9637 01be
00000110: 5965 aabe 134d 883d 8b5b 203e eeed 973e
00000120: 3c56 013e 51ae bcbe d43e 343d 018f f83e
00000130: 7895 82be 06ba 84be 73d1 463e f31f afbd
00000140: 6000 b1be d104 1d3e 78eb 8dbe 40fe c1bd
00000150: 524b b43e d160 463d b5b0 433d 22c7 953f
00000160: 4296 50be 36a8 dd3d 13e0 b7bd a707 003e
00000170: 8c55 053f fd50 18bd 0b82 6cbd 08bc 913e
00000180: a340 72be 57e9 ddbe 5d4f 023f 8356 323d
00000190: 14ca 69be 74b2 42be 3826 82bc 1b38 203e
000001a0: df27 1b3d 5fbe 79bd e832 2eb9 41f5 a0bd
000001b0: 001e adbe 6b2a f23d e7cd 41bd a9e0 c7be
000001c0: e54f 5abb 94e9 12be 7c32 53bf 53b2 33be
000001d0: 6de4 8a3e a806 a83e cb81 e33d d9fa 9b3e
000001e0: 0240 06be f25e 023e 17f9 aebe 161e 003e
000001f0: 5360 153e 3a52 6c3d 48c6 893b 0696 38be
00000200: 3c43 8dbe cfbd 883e 868b 193f e2aa 3fbd
00000210: cb14 953e c44d c63e 4da8 6f3e 8bcf 1d3c
00000220: 8f39 8b3e b6ab 8d3e 486d 0bbf 03c5 193e
00000230: 9040 6a3d 5873 d2be 9fe2 843e 7dcc 153f
00000240: b8c4 21be 8b64 e63d 248c 013f 2f1b 9bbc
00000250: 1b6f 87be 279f f93e c7cb 253e 24ed 853e
00000260: 115d 6c3d 859e 853e 707f 0abe c516 49be
00000270: d770 05be 57df e03d cd05 923d 8f4d 91bd
00000280: 11c6 84be 655e a8bc fbfc 8f3e 652b 6fbe
00000290: aaeb 2bbe 2957 9bbe 9665 e2bd 8b27 8bbe
000002a0: 4d34 c3be 8f70 78be 1cf3 7a3d e945 2dbc
000002b0: 00ef 3dbe 17c4 673e 47cb acbe 41c0 b53e
000002c0: 892d 183e 3de5 fdbe d6bb 8ebd 3414 c6be
000002d0: f131 fdbe 3c46 82be 83de 82be 3073 9dbe
000002e0: 0977 953e 5f0d 803e c50b e1be 8bbb be3c
000002f0: 9ea5 733e c5ad 40be c894 b7be 28a1 c3bf
00000300: 4788 aa3e b63e ba3c 5a91 0bbf 7bc8 88be
00000310: 079a 11bf 47f2 47bf 46d3 26be 5a67 bebd
00000320: f6c4 9f3e 6a7b 0ebe 118e 53be 582d 9dbe
00000330: 9c80 f0be 7ad2 893e fb14 9cbe d818 293e
00000340: 0951 373e 8d43 cb3e ee85 f9be a3f5 233e
00000350: 5e1d 0f3d 2e55 a2be b322 723d b6fc bcbe
00000360: 976d 0ebe 6f57 6fbe d08d 22bd 2d67 b0be
00000370: 57ba a7be 397a bb3e 2092 4c3e 828a acbe
00000380: a134 283e 97d5 07bc ccd7 a33e 7581 ee3d
00000390: 4654 81be c103 833d 9fb3 c53c e864 f7bd
000003a0: 9788 ab3e f601 d03c 5b43 6d3e 2eda a53e
000003b0: 6d82 aabe a09f a73e b087 d73e 75cc b63c
000003c0: 62c7 26be a557 5fbe 9be4 af3e 76d6 d53e
000003d0: afb1 383e 8bb0 efbd a5ef ed3e 6e73 39bd
000003e0: 9b0c 1d3e 3e80 e7bd ba9b 673e ab9b 5a3e
000003f0: 63f7 a4be 5d61 8c3d 52e9 e3be ded0 eebe
-0.26280215 0.012536083 -0.36093414 -0.09116403 0.04456597 -0.115148075 0.10114896 -0.114285044
-0.5048531 0.044569153 -0.44837618 -0.4575672 0.050580475 0.029648967 -0.41598782 0.19113691
0.20746766 -0.039896194 0.27360174 -0.26139328 -0.3894337 -0.06726973 -0.2516772 -0.05327526
-0.10341945 -0.035947308 -0.17268874 0.24758187 -0.43852657 0.12717284 0.22604062 -0.26211184
-0.37273464 0.0037018876 -0.050690923 0.123200834 0.28924552 -0.051235676 -0.6584854 0.016545383
-0.02128417 -1.0822154 0.3969708 -0.41812018 -0.4068002 -0.21197827 -0.000754179 0.0045616627
0.041417982 -0.16210245 0.048311096 -0.16930316 0.02826208 -0.4057893 0.042282812 -0.0049311575
0.0064773425 0.1531557 -0.2835116 0.12672041 0.039805003 -0.25460875 0.4209348 0.37327456
0.10208181 0.45034775 0.014003044 -0.1261886 -0.33280447 0.06655326 0.15659921 0.29673713
0.12630552 -0.36851743 0.04400523 0.48546603 -0.2550466 -0.25923175 0.19415836 -0.08551016
-0.345706 0.15333869 -0.2771871 -0.094723225 0.35213715 0.048432175 0.047775943 1.1701396
-0.20369819 0.10823099 -0.08978286 0.12502919 0.5208366 -0.03718661 -0.057741206 0.2846377
-0.2365747 -0.43342087 0.5090235 0.043539535 -0.22830993 -0.19013387 -0.015887365 0.15646403
0.03787982 -0.060972568 -0.00016612897 -0.078592785 -0.3381195 0.11824497 -0.047315504 -0.3903859
-0.003331178 -0.14346915 -0.8249891 -0.17548494 0.271274 0.32817578 0.111087404 0.3046482
-0.13110355 0.12731531 -0.34174415 0.12511477 0.14587526 0.057695605 0.004204545 -0.1802598
-0.27590358 0.26707312 0.5997852 -0.046793826 0.29117426 0.38731205 0.23404045 0.009632002
0.2719235 0.27670068 -0.54463625 0.1501656 0.057190478 -0.41103625 0.25954148 0.5851515
-0.15797698 0.11249646 0.5060446 -0.01893386 -0.26451954 0.48754236 0.16191016 0.26157486
0.057705943 0.26097503 -0.13525176 -0.19637592 -0.13031326 0.10980099 0.07130013 -0.07094871
-0.25932363 -0.020552823 0.28122696 -0.23356397 -0.16789117 -0.30339935 -0.11054532 -0.27178606
-0.3812584 -0.24261688 0.061267003 -0.01057575 -0.18548203 0.22633396 -0.33748838 0.3549824
0.1486112 -0.49588957 -0.069694206 -0.3868729 -0.49452165 -0.2544421 -0.25560388 -0.30751944
0.2919238 0.250102 -0.43954292 0.023282787 0.23793647 -0.18816288 -0.358557 -1.5283556
0.33307096 0.022734981 -0.54518664 -0.26715454 -0.5687565 -0.7810406 -0.16291532 -0.092970565
0.31204957 -0.13914266 -0.20659663 -0.30698657 -0.4697312 0.26918393 -0.30484757 0.16513383
0.17902006 0.39699975 -0.48734993 0.16011672 0.034940116 -0.31705612 0.059115123 -0.36911553
-0.13908993 -0.23373197 -0.039686024 -0.34453717 -0.32759354 0.36616686 0.19977617 -0.33699423
0.16426326 -0.00829067 0.32000577 0.11645786 -0.25259608 0.063972004 0.024133502 -0.12079793
0.33502647 0.02539156 0.23170225 0.3239302 -0.33302632 0.32738972 0.4209571 0.02231429
-0.16286996 -0.21810777 0.343541 0.41765183 0.18036531 -0.11703595 0.46471897 -0.045276098
0.1533684 -0.11303757 0.22617999 0.21348445 -0.3221999 0.06854508 -0.44513947 -0.46643728

gconvs.5.combination_weights f4 [4, 3]
00000000: 9f98 a23e a3a3 ec3e 612f 003f abf5 a23e
00000010: 0408 eb3e 520c ff3e 7067 a23e ab7f ed3e
00000020: 7c03 003f f66b a23e feee eb3e ccc2 fe3e
0.31757066 0.46218595 0.50072294 0.31828055 0.45904553 0.49814087 0.31719542 0.46386465
0.50005317 0.31722993 0.46080774 0.49757993

gconvs.5.weight f4 [3, 6, 6, 4, 3, 3]
00000000: 7976 f1bd 4528 19be db79 913e 5d49 4fbf
00000010: 4a74 c13c 70fb 49be 5c8d 30bf ac30 c7be
00000020: 3641 19bf 6a2e 51bf a674 3abf 8aa5 10bf
00000030: cb8f a4be b5f3 8ebd f775 82be ae2e 24be
00000040: b27c 16bf 0668 4b3e 4815 abbc 764d 26bf
00000050: 58c6 653d e44f 893e a3bd 563e 68b7 85bd
00000060: c457 bbbd 039f 4d3d 216b 20bf 042c aa3d
00000070: 6536 cebd 8753 a2be 853c 143e 6816 21bc
00000080: 2bcd b2bd 62bf cabd 37b7 b1be 74f6 a8be
00000090: 3a08 003f 708c 8d3e f757 1e3d e058 2abe
000000a0: 6b39 813c e3f8 25be fc6d 253e 9efd d53e
000000b0: 401d 893d 9e4e b5be 9e31 b3bd f118 ddbe
000000c0: ed47 883e 445a d73e 6234 fbbd 03be 6e3d
000000d0: a73b 23be 3cc2 193d b507 83be a83f ad3e
000000e0: 11dd babc d684 a7be 8c34 c2be 5380 c8bd
000000f0: 19a7 a53d a9de 75bd dc3e 4e3e ef04 a53e
00000100: e195 173e 461c 31bf 9539 c3bd 93a2 033d
00000110: a75b ecbd 160e 4e3e cafd cb3d 3ced 7b3e
00000120: cfc8 30bf 3c1d 3a3d ebad b4be 734a 1dbf
00000130: b8ae 13bf 0c90 38bb 4de3 a1be d8a5 69bf
00000140: 423a 1dbf 2287 83bf 8822 95bf 1c25 8abf
00000150: 78da e93c 4969 6fbe 6868 b0bc c776 c1bd
00000160: 8867 a2be 9627 453e ac46 c53e b43a 343e
00000170: 3b26 1ebf 171f d83e 629b 5d3e d5c5 60bf
00000180: b602 86be 148b 18be 4c6b 0fbf 8ce4 603e
00000190: cbd8 043f 70f0 943e 9aa6 d2bc 1846 08be
000001a0: 1a71 cbbe 9db4 21bf 1d4b 10bf d993 28bf
000001b0: 3f23 3f3e 096a b3bd b3f1 7fbc d1a7 b63e
000001c0: 4486 7f3e 088f 183f 99ab 20bf 07f4 47be
000001d0: fa5a 413f 0146 903e 9f5d 7b3c 5061 b33d
000001e0: 91c5 90be 28d2 5dbe a49e c0be 630f b13e
000001f0: e4e7 1e3e 9bff 473e b136 9f3e 4d11 613d
00000200: 1144 50be 2c30 c0bd 8b80 6dbd 4f2e 1f3e
00000210: 2d12 fc3d 6ec5 76be a065 c83c 74a7 da3c
00000220: cda5 8e3e 08dd 0fbd 8dff c7be de0f e4be
00000230: 3476 e9bd b0fb aabe 2d2e 22be ec94 463d
00000240: e095 87bc 8519 8ebe 6c78 0b3d f418 13bf
00000250: 7797 7b3e 689b 023f bc9a d6be 2bd9 a33e
00000260: 5a43 d83d e4b7 bf3e 9820 adbd 2a17 233e
00000270: 8fe1 83bd 3cc6 96be d39c 14be e6bf 04bd
00000280: 3a3e 3ebe ff73 efbd 3d28 7d3e 4567 a8bd
00000290: b882 683e f039 b9be 6625 e9bd 39f9 c83d
000002a0: 6e8b 5fbe 8476 113d ef16 52be 2b94 fcbe
000002b0: 9664 e9bd e104 ecbd cbba c4be eb02 b7bd
000002c0: bea6 49bd e407 f9be 06e2 ed3d 43ba a8be
000002d0: 858c 99be 01b3 183e 02d0 8f3e 0013 d03e
000002e0: dde9 e7be f923 f53d bf3c 043f 2302 95be
000002f0: c3b4 e93d 3531 c43d 95dc 79be 4644 173e
00000300: 2139 043f 3eb7 e8be f97b 5f3e c459 c33e
00000310: 8df8 a3bd 721c 99be a2d4 db3e bc47 283e
00000320: 07bc b0bd 4529 323e 94e5 64be 990c 733e
00000330: 9654 aabe aa2c 7f3e a55d 533d 67ab 8a3d
00000340: b29e 813e 2fc3 953d d8f9 2bbe ecf5 b9be
00000350: 6cbb 6fbe d7d4 98be e7c1 ca3e e400 083f
00000360: 753f d5be 0b42 ac3e 8788 79be bfbc 623e
00000370: d63a 06be d93c d63e 6672 473e a5ba d5be
00000380: 743d b73e b2c0 e93d 4b39 9ebe ef3e 97bc
00000390: 7200 07bf 75ba 623d 38a3 a83d d37d cdbe
000003a0: 1e9e 6c3e a238 893e 12da 233d 99bd a5be
000003b0: 997a a8be 6436 9c3e 0618 933d c197 323e
000003c0: 7650 473e 4602 0a3d 3a03 bebe 011e 21bf
000003d0: 2488 6bbe 7d10 0dbf e9ff d33b 09a3 0c3e
000003e0: 0b9b 09bf 1365 9d3e 0f3c d53d 73dd 903e
000003f0: eea0 ebbe 12db ed3d d40e 10be c0a5 503e
-0.11790175 -0.14956768 0.2841328 -0.8097132 0.023615021 -0.19724822 -0.689657 -0.3890432
-0.5986513 -0.8171145 -0.7283424 -0.5650259 -0.32140955 -0.06980077 -0.25480625 -0.16033432
-0.5878402 0.198639 -0.020884171 -0.64961946 0.05609736 0.26818764 0.20970778 -0.065291226
-0.09147599 0.050200474 -0.62663466 0.083091766 -0.10068969 -0.3170435 0.14476211 -0.009832002
-0.08730539 -0.098997846 -0.34710094 -0.3300053 0.5001255 0.27646208 0.03865811 -0.16635466
0.01577445 -0.16208224 0.16155237 0.41795057 0.06695032 -0.35411543 -0.08749698 -0.4318309
0.26617375 0.42061055 -0.122658506 0.058286678 -0.15940724 0.037538752 -0.25591817 0.33837628
-0.02281049 -0.32718533 -0.37930715 -0.09790101 0.08088512 -0.0600268 0.20141166 0.32230327
0.14803268 -0.69183767 -0.09532467 0.032137465 -0.11540919 0.20122561 0.09960516 0.24602216
-0.6905641 0.045438036 -0.3528894 -0.61441725 -0.57688475 -0.002816203 -0.3161873 -0.9126868
-0.6141702 -1.0275614 -1.1651163 -1.0792575 0.028546557 -0.23380007 -0.02153416 -0.09446483
-0.31719613 0.19253382 0.3853048 0.17600518 -0.61777085 0.4221122 0.21641305 -0.8780187
-0.26173943 -0.14896804 -0.560231 0.21962184 0.518933 0.2908969 -0.025714207 -0.13307989
-0.39734727 -0.6316622 -0.56364614 -0.658506 0.18665789 -0.08760459 -0.01562159 0.3567491
0.24953562 0.5959325 -0.6276184 -0.19526683 0.75529444 0.2817841 0.015342145 0.08758795
-0.2827573 -0.216622 -0.37621033 0.34582052 0.15518147 0.195311 0.31096414 0.05494814
-0.20338465 -0.09384188 -0.057983916 0.15545009 0.12308154 -0.24098751 0.024462521 0.026691176
0.2786087 -0.0351229 -0.39062157 -0.44543356 -0.113994986 -0.33395147 -0.15837927 0.048481867
-0.016550958 -0.27753845 0.03405039 -0.5745995 0.24569498 0.5101838 -0.41914928 0.32001624
0.10559721 0.37444985 -0.084534824 0.15926805 -0.06439506 -0.29448116 -0.14512949 -0.03240957
-0.18578425 -0.116920464 0.24722381 -0.08222822 0.22706115 -0.36177015 -0.11384086 0.098131604
-0.21830532 0.035513416 -0.20516561 -0.49331793 -0.11396138 -0.11524368 -0.38423762 -0.089361034
-0.049231283 -0.48638833 0.11615376 -0.32954606 -0.2999002 0.14912035 0.28088385 0.40639496
-0.4529561 0.11969752 0.5165519 -0.29103193 0.11411431 0.09579698 -0.24400552 0.14772138
0.5164967 -0.45452303 0.21824636 0.38154423 -0.08006392 -0.29904515 0.42935663 0.16433614
-0.08629613 0.17398556 -0.22353202 0.23735274 -0.3326766 0.24919382 0.05160298 0.06770974
0.25316387 0.07312619 -0.16794527 -0.36320436 -0.2341134 -0.29849884 0.3960106 0.5312636
-0.41649976 0.33644137 -0.24368487 0.22142313 -0.13108382 0.41843298 0.19477233 -0.4174396
0.35789073 0.11413707 -0.30903086 -0.018462626 -0.52735054 0.0553536 0.082342565 -0.4013506
0.23107192 0.2680102 0.04000289 -0.32371214 -0.32906035 0.30510247 0.071823165 0.17440702
0.19464287 0.033693574 -0.37111837 -0.6293641 -0.23001152 -0.55103284 0.006469716 0.13734068
-0.537522 0.30741176 0.10411846 0.28293952 -0.46021217 0.1161405 -0.14068156 0.20375729

final_layer.combination_weights f4 [4, 3]
00000000: 5655 ab3e fc44 e63e d533 ed3e 8d7a ab3e
00000010: 4827 e63e d928 ed3e 415c ab3e 272a e63e
00000020: 100d ed3e bf87 ab3e 013d e63e ad51 ed3e
0.33463544 0.44974506 0.46328607 0.33491936 0.44951844 0.46320227 0.33468822 0.44954035
0.46299028 0.33502004 0.44968417 0.46351376

final_layer.weight f4 [3, 6, 6, 4, 3, 3]
00000000: 220b bebd 2eeb 87be 227b eabd e002 16be
00000010: a753 843e 58f4 8dbe c6f0 a73c 2fbd a2bc
00000020: 19cf bf3e bfe0 0abe edb4 743e a600 a53e
00000030: ecf1 ac3e 2509 9fbe a502 b03e 007f 62bd
00000040: c8ac af3d 02b9 8dbe 50a9 bf3e 2fce 7a3e
00000050: b017 ca3d 4b5f 833c c1f5 4f3e 4bae 183c
00000060: e248 923d 9ef4 9d3d 3e7c 843c 2f95 a9be
00000070: 6b53 6c3e 4859 7e3e 08f8 cd3e 3692 0dbe
00000080: 6b37 7a3e 9c44 ba3e 07e5 5e3e 8f05 ce3d
00000090: 7b71 713e 01fc fd3e fe57 fd3e e245 fcbd
000000a0: dbb9 993d 5c4e 473d 7e68 ec3e 22be ff3e
000000b0: 7a9b 333e 7a5d 8d3e a70e b93d a58f 9f3e
000000c0: 892d ab3d 1a65 133f d2fc 1b3e 5781 ce3e
000000d0: 55b8 6a3e ff83 0f3f a5df b73e 9b38 0e3f
000000e0: 61a2 113f 9e69 ba3d 4883 393e e50c 92bd
000000f0: 67c5 d8bc f3d6 8b3e fc6d 043e f122 ecbc
00000100: 83ae 103e dd49 133f 5b0f b5bd 1a83 983d
00000110: d726 393e 6a53 113e 91fc bc3c e484 823e
00000120: 9b5c d23e 1ae1 e3bd 48aa c63e 669f 753e
00000130: 7a61 9abe fc3a e73d b88d 08bd b549 853d
00000140: f397 64be 4381 4a3e f6ca 75be 95b2 28be
00000150: 5365 0bbe 9cf7 97be 4bde 1a3e 0253 cabd
00000160: c8ae d7bc e68e 1dbe dfe8 443e 6110 6ebd
00000170: f5f6 db3e c780 ad3e a67a d73e c968 cb3d
00000180: fe31 dc3d 7fd1 bb3e 3374 8a3e f2d1 a53e
00000190: c296 703e 78ab 113e 98cc 93be 8594 93bd
000001a0: a7aa 9dbe 2f8c be3e e3c1 333e 5df7 6a3d
000001b0: d35e c23e 34a7 a3be 1e18 16be 27f1 293c
000001c0: c9a4 9e3e afd4 9b3d d766 7d3e 4b7c 6e3e
000001d0: 10e5 5c3e 5e55 943e 8b53 a8be 67ba 913e
000001e0: 4565 c73e f024 a03e 291c 393d ac01 c53e
000001f0: 7eb1 aa3e 7765 683e 4378 4e3e 72ee b03e
00000200: 76f9 f03d bf6d b33e 4a13 d43e c842 efbc
00000210: 48cc 643e 7131 4abe c9b7 e03c e3c2 5a3e
00000220: 601c 483d 57d8 2cbe eade a6bd 4716 973e
00000230: accd 803e 2d4a a73e 8d51 6ebe f0b9 fcbd
00000240: 8324 bbbe 1860 85bc aca4 703d ed59 7fbd
00000250: 9922 3fbe 7e79 bfbe b566 67be 701c 94bd
00000260: f25e 70be 1223 d4be 71ac b4bd 7cf7 ac3d
00000270: 8fc1 e8be a7ce 98be d3d1 18be 2fe3 e93d
00000280: ba1b fc3c 4e15 c6be a732 7f3d ad16 c13d
00000290: da37 f6be 477a 0d3e b1d7 1f3d 86ce e4be
000002a0: a493 85be ab06 9cbc 9dc3 3ebe 5cd0 863b
000002b0: ca69 8e3c 7dfd 363e a4cb 0bbe 1ab7 443e
000002c0: 5b39 f6bd d5ba 67be 72f4 c9be 14d5 ee3d
000002d0: b202 85bd 87b5 91be ab47 a73d a865 e7be
000002e0: d58d 02bf c671 fbbd 26cd 1abf 193e 82be
000002f0: 2e29 29be 2b7a 1dbe da42 25bf 8f61 e6be
00000300: 24e2 1cbf 6003 8cbe 8438 08bf 079b 1dbf
00000310: 6482 d7be 5b36 213e 4265 d2be c08a c7be
00000320: ded6 0dbf 70cd f7be 1706 c4be a1b0 cd3c
00000330: 9970 30be b835 a7be 5268 97be 953a d4bc
00000340: fa52 04bf 1928 92bd 9cc1 2cbe 2a7a b6bd
00000350: ae6a bebe 3f84 f2bd 1f09 06bf 8518 2cbf
00000360: db71 eabe 0b28 f9bd 6ceb d7be 36ae 523e
00000370: 109e a9bd a865 633d 10d5 6c3e a6c8 b9bd
00000380: bf58 d73c eaa7 b1be ef04 3bbe e05d 883d
00000390: 3a59 e8bd f11f 383c b8f3 5b3e 35d2 cabd
000003a0: 79de 98be a48a dcbe 75c4 58bd d490 eb3d
000003b0: d6f9 8ebe f1c9 303e f33e 64be 7f32 cb3d
000003c0: 3b5d a4be f552 0bbf 11fb a3be 3915 9fbe
000003d0: bf78 683d caf0 e1be 6b7c cfbb 1799 9ebe
000003e0: 175c c2be 6de2 12be 6e6f d3be df85 6c3e
000003f0: 8585 cbbd 289e 403e e592 13be 2610 c83e
-0.09279467 -0.26546615 -0.11449267 -0.14649534 0.25845072 -0.27725482 0.020500552 -0.0198656
0.3746269 -0.13562296 0.23897143 0.32227057 0.33778322 -0.31061664 0.34377018 -0.055296898
0.08577877 -0.27680212 0.37433863 0.24492715 0.09867799 0.01603665 0.20308591 0.009318898
0.071428075 0.07712673 0.016172525 -0.3312163 0.23078696 0.24838746 0.40228295 -0.13825306
0.24435203 0.3638047 0.21767054 0.10059654 0.23578446 0.49606326 0.49481195 -0.123180166
0.07506152 0.048658714 0.4617347 0.49949747 0.17539778 0.2761038 0.09035998 0.3116428
0.083582945 0.57576144 0.15233162 0.40333053 0.2292188 0.56060785 0.35912815 0.55555123
0.56888396 0.09102176 0.18116486 -0.07131366 -0.026461316 0.2731243 0.1293258 -0.028825255
0.14129071 0.5753458 -0.088408194 0.07446881 0.18081222 0.14191976 0.023069652 0.25492013
0.41086277 -0.11126919 0.3880179 0.23986587 -0.30152494 0.11290547 -0.03333828 0.06508199
-0.22323589 0.19775872 -0.24003205 -0.16474374 -0.13612871 -0.29681098 0.1512386 -0.09879114
-0.02632846 -0.15386543 0.19229458 -0.05812109 0.4296185 0.33887312 0.4208576 0.099320956
0.10751723 0.3668327 0.27041778 0.32386738 0.2349501 0.14225566 -0.2886703 -0.07206062
-0.3079426 0.37216327 0.1755443 0.05736481 0.3796297 -0.31963503 -0.14657637 0.010372437
0.30985096 0.076089256 0.24746262 0.23289602 0.21571755 0.2897138 -0.32876238 0.28462526
0.3894445 0.3127818 0.04519287 0.38477838 0.3333854 0.22694956 0.20163064 0.3455692
0.11766331 0.35044667 0.41420966 -0.029206648 0.22343552 -0.19745423 0.027431386 0.21363406
0.048855186 -0.16879402 -0.08147986 0.29509184 0.25156915 0.3267378 -0.23273297 -0.12340152
-0.36551294 -0.016281173 0.058750793 -0.06234162 -0.18665542 -0.3739738 -0.22597773 -0.072319865
-0.23473719 -0.41433007 -0.08821953 0.084456414 -0.45460173 -0.29845163 -0.14923792 0.11420285
0.03077494 -0.3868813 0.062304165 0.09428153 -0.48089486 0.13816176 0.03902406 -0.44688815
-0.26089203 -0.019046148 -0.18629308 0.004114194 0.017384429 0.17870136 -0.13651901 0.19210473
-0.120226584 -0.22629865 -0.3944431 0.11661735 -0.06494655 -0.28458807 0.081679665 -0.45194745
-0.5099767 -0.1227756 -0.6046928 -0.25438002 -0.16519615 -0.15378635 -0.6455513 -0.44996306
-0.61282563 -0.27346325 -0.53211236 -0.6156468 -0.42091668 0.15743391 -0.4109288 -0.38973045
-0.55405986 -0.48398924 -0.38285896 0.025108637 -0.17230453 -0.32658172 -0.29571778 -0.02590684
-0.5168911 -0.07136554 -0.16870731 -0.0891002 -0.37190765 -0.1184163 -0.5235767 -0.67224914
-0.4578999 -0.12165841 -0.421718 0.20574269 -0.08282101 0.05551687 0.23128152 -0.09071474
0.026287435 -0.3469842 -0.18263601 0.0665853 -0.113451436 0.011238084 0.2147969 -0.09903375
-0.29857233 -0.43074524 -0.05292173 0.11502233 -0.27924985 0.17264535 -0.22289638 0.09921741
-0.3210238 -0.5442346 -0.32027486 -0.3107088 0.056755777 -0.4412902 -0.0063319704 -0.30976173
-0.37960884 -0.14344187 -0.41295952 0.23097943 -0.09937576 0.18810332 -0.14411505 0.3907482
