runs/RelaxedP4CNN_iso_std0.2_gamma2_lr0.002/model.pt (torch, 116029 bytes, 18 tensors)

lifting_conv.combination_weights f4 [3, 4]
-0.0705626 0.052409746 -0.075680025 -0.07599143 0.011273864 0.013401668 0.007954709 0.010938281
-0.035768293 -0.03340504 -0.03549436 -0.029352868
00000000: 2083 90bd 9aab 563d 21fe 9abd 65a1 9bbd
00000010: 03b6 383c ab92 5b3c 7854 023c 7a36 333c
00000020: c681 12bd b9d3 08bd 8962 11bd 6d75 f0bc

lifting_conv.weight f4 [3, 6, 1, 3, 3]
0.40209112 0.35463333 0.14679481 0.52024657 0.2769878 0.29246274 0.41566423 -0.022033226
0.14557101 -0.049588565 -0.3291391 -0.35576716 0.4784972 -0.1640221 -0.30001718 0.73120546
0.44687185 -0.2620559 -0.37888592 -0.15423673 0.43606508 0.1282974 -0.32097858 0.22306299
0.28794524 0.05447781 -0.22352344 0.1372478 -0.41607854 -0.53449875 0.049074844 0.20617948
0.13036032 0.18841532 0.2224422 0.3366702 0.1319652 -0.038332652 0.15575908 -0.34460503
-0.11076872 0.18430814 -0.4011284 0.011433798 0.2153429 0.23271519 0.037212983 0.506075
-0.06624758 0.22866367 -0.051743656 0.23269956 -0.05433386 0.10266406 -0.102096945 0.4224169
-0.050304707 -0.09681658 0.0015608049 0.031110724 -0.051978555 -0.18330431 0.05079284 -0.11562133
0.26000127 0.06489965 -0.040260464 0.05819883 -0.26618552 0.12827381 -0.092497475 0.14568186
0.15344346 -0.17429273 0.16115546 -0.2054999 0.17344089 -0.042794507 -0.028148673 0.18236509
-0.2125983 0.027509976 0.007206244 0.106109425 -0.024755698 -0.097475156 -0.07207398 -0.016158488
0.21046513 -0.09267206 -0.055946562 0.27817774 0.10126891 -0.15251794 -0.27619988 -0.07713859
0.199247 0.045115385 0.007367152 -0.13821067 0.124428466 -0.1303979 0.03180861 -0.32685074
0.1684595 0.10751359 0.050090402 0.00031279415 -0.347521 -0.45951784 -0.16838205 0.20311591
-0.17398769 0.00228436 -0.3238863 -0.35384887 -0.0031732898 -0.08454132 -0.06657099 -0.24808988
-0.0096517 0.58030593 -0.034341928 -0.17002578 -0.13187526 -0.30185044 -0.26143858 0.2908469
0.06125861 0.050165802 0.120465934 0.079030454 -0.20636998 -0.041356634 -0.12715583 -0.13000432
0.203523 -0.053353038 0.06820983 0.30156472 -0.24962004 0.08708166 0.2713589 0.16753344
0.28333578 0.08990959 0.0092383735 -0.07688185 -0.13819405 -0.05381154 -0.31621242 -0.007343557
0.0184959 -0.06977218 -0.17628874 -0.1683811 -0.1256144 0.30157292 -0.47399893 0.25030285
-0.21072133 0.016177718
00000000: e3de cd3e 8092 b53e 6151 163e e12e 053f
00000010: 58d1 8d3e adbd 953e f1d1 d43e 067f b4bc
00000020: 9110 153e 611d 4bbd ec84 a8be 1d27 b6be
00000030: 96fd f43e 69f5 27be da9b 99be 4830 3b3f
00000040: 63cc e43e 312c 86be 56fd c1be 3cf0 1dbe
00000050: ec43 df3e 6560 033e 4e57 a4be a06a 643e
00000060: 8f6d 933e 2024 5f3d 54e3 64be b08a 0c3e
00000070: 3f08 d5be e9d4 08bf b402 493d b720 533e
00000080: 2d7d 053e f2ef 403e e3c7 633e 0960 ac3e
00000090: e321 073e b302 1dbd 4f7f 1f3e 1270 b0be
000000a0: b6da e2bd 46bb 3c3e b460 cdbe d354 3b3c
000000b0: d982 5c3e e44c 6e3e a46c 183d 228e 013f
000000c0: d0ac 87bd cf26 6a3e 28f1 53bd cb48 6e3e
000000d0: 2e8d 5ebd 8941 d23d 3418 d1bd 0747 d83e
000000e0: 4f0c 4ebd c547 c6bd ec93 cc3a ebdb fe3c
000000f0: 77e7 54bd 20b4 3bbe 270c 503d e0ca ecbd
00000100: e31e 853e 1cea 843d 28e8 24bd e561 6e3d
00000110: 7849 88be 365a 033e 516f bdbd a02d 153e
00000120: 4820 1d3e cb79 32be f005 253e 916e 52be
00000130: 7d9a 313e 4b49 2fbd 0c98 e6bc eabd 3a3e
00000140: 5eb3 59be 9a5c e13c 5b22 ec3b e64f d93d
00000150: 76cc cabc 0ea1 c7bd 869b 93bd ce5e 84bc
00000160: 2c84 573e d9ca bdbd 3928 65bd 506d 8e3e
00000170: 1366 cf3d aa2d 1cbe 126a 8dbe d6fa 9dbd
00000180: 6807 4c3e e9ca 383d 2668 f13b 1987 0dbe
00000190: 5ad4 fe3d 0787 05be bf49 023d fb58 a7be
000001a0: a680 2c3e 1630 dc3d 982b 4d3d 85fe a339
000001b0: 46ee b1be ec45 ebbe 586c 2cbe 9efd 4f3e
000001c0: d429 32be 33b5 153b 6dd4 a5be ae2b b5be
000001d0: f8f6 4fbb 0024 adbd 5f56 88bd 460b 7ebe
000001e0: 2a22 1ebc ee8e 143f 1faa 0cbd 3d1b 2ebe
000001f0: 4f0a 07be 248c 9abe 47db 85be e3e9 943e
00000200: 4fea 7a3d a87a 4d3d d8b6 f63d b8da a13d
00000210: a752 53be 9365 29bd 2335 02be da1f 05be
00000220: 5568 503e b788 5abd 98b1 8b3d b166 9a3e
00000230: 659c 7fbe df57 b23d 8eef 8a3e e38d 2b3e
00000240: 6311 913e 8522 b83d 8c5c 173c 3b74 9dbd
00000250: be82 0dbe 7d69 5cbd 98e6 a1be 39a2 f0bb
00000260: b784 973c b7e4 8ebd 0985 34be 186c 2cbe
00000270: 10a1 00be c467 9a3e fdaf f2be b227 803e
00000280: 55c7 57be 2287 843c

gconvs.0.combination_weights f4 [4, 3]
0.39433342 0.45460948 0.41942903 0.3934071 0.45341602 0.4196569 0.39211386 0.45777395
0.42473125 0.39388022 0.45620593 0.41872177
00000000: 12e6 c93e 93c2 e83e 67bf d63e a86c c93e
00000010: 2526 e83e 45dd d63e 26c3 c83e 5961 ea3e
00000020: 6076 d93e abaa c93e d393 e93e b362 d63e

gconvs.0.weight f4 [3, 6, 6, 4, 3, 3]
0.094677456 0.16445012 0.38361534 0.14957319 -0.21363676 0.30910143 0.047423754 0.25434464
-0.2580739 -0.50265193 -0.089356326 -0.25885394 -0.1905103 0.10999052 0.20542838 -0.7678204
-0.15401144 0.14816764 -0.08988909 -0.30231306 0.045893427 0.2616485 0.19918732 -0.44060588
0.16336195 -0.16002439 -0.040106412 0.25714016 0.26719368 -0.31094456 -0.31779683 -0.32381904
0.15448536 -0.40023983 -0.36170378 0.010093271 -0.2122782 0.029654868 0.02237498 -0.12730345
0.26367408 -0.46008265 0.09970818 0.18786153 0.09147293 -0.17008004 0.089670785 -0.10447811
-0.33763295 0.45545048 0.18568182 -0.03816558 -0.0072597796 -0.07139817 -0.07256419 -0.42241636
-0.62437683 0.23433533 -0.27960598 0.21490897 0.19342309 0.2671101 -0.55642146 0.5124056
0.16926031 -0.13428167 0.07667097 0.24656662 0.17519167 0.22969641 0.01694793 -0.18183783
-0.37770116 0.28340796 0.510271 -0.077641934 -0.049292807 0.0627115 0.2748931 0.1631664
0.12407202 0.37024158 0.047537725 -0.13426526 -0.42424607 0.2483828 -0.19616893 -0.025717191
0.06370517 0.17563254 0.28972927 -0.015839452 0.00043462298 0.31502965 0.053511832 0.3353855
0.22108516 -0.19605128 -0.5044366 0.3338045 0.39232188 0.30368656 0.16751747 -0.13940892
0.25857738 0.013811983 -0.01791213 -0.3578598 -0.32057855 -0.20258908 -0.66508514 -0.18223451
0.076869205 -0.56195813 0.1260309 -0.14566265 0.03298705 0.16015728 -0.33986026 -0.16102284
0.10391811 0.19726346 0.16516721 -0.3642711 -0.041308347 0.32247466 -0.5390042 0.1952163
-0.1770911 -0.34645167 -0.08741936 -0.15397528 -0.32381105 -0.70582336 -0.23495354 0.14724235
0.15600099 -0.48090598 -0.015847212 -0.09059586 0.14710516 0.11951509 0.27107012 0.008795906
0.21032763 0.38204387 -0.061374974 -0.011959104 -0.05036152 -0.07878571 -0.48155254 0.051627852
0.17076781 -0.27203473 -0.036178295 0.17481636 -0.07654554 0.2622337 0.11019697 -0.15776542
-0.17971337 -0.34847787 0.045610618 0.016354602 0.057493147 0.09983985 0.3631092 -0.038116008
0.6105192 0.31090993 -0.015336402 0.16388988 -0.12582715 -0.5094866 -0.07210677 -0.13859828
-0.5289251 -0.19662865 0.36219025 -0.3806268 -0.17788337 0.12214756 0.5885674 0.007164121
0.1585415 -0.06884089 -0.118800566 0.3447136 0.3295944 -0.21757038 -0.07867867 0.16984169
0.17016841 0.14559002 0.24883844 -0.40963918 -0.52309656 -0.4237919 0.6226262 -0.1674294
-0.016851788 0.16821754 0.2874261 -0.44547644 -0.015627502 0.23075147 -0.23153809 0.2153489
-0.4296125 0.06758847 -0.047461405 -0.27805972 0.13786568 -0.45475194 0.037191015 -0.321922
0.109410144 -0.32375255 -0.5895231 0.19699131 0.36275074 -0.27113962 0.20450895 0.30106875
-0.26017666 -0.64939696 -0.23898827 0.14318293 0.18751529 0.36959893 0.43322116 0.0707923
0.3519481 0.13896361 -0.31518972 0.14428233 -0.34403607 -0.08982491 0.2247052 -0.048573036
0.038052455 0.056121796 -0.070794694 0.35553533 -0.2946567 -0.3825104 0.27908224 -0.15470707
-0.19642372 0.27695456 0.3965721 -0.026221601 -0.122036085 -0.14813238 -0.25072065 0.5544467
00000000: 41e6 c13d 9d65 283e 3b69 c43e b729 193e
00000010: 98c3 5abe 8b42 9e3e 693f 423d 7639 823e
00000020: 4322 84be ccad 00bf 7300 b7bd 8188 84be
00000030: 2215 43be b642 e13d d15b 523e e18f 44bf
00000040: 2db5 1dbe 42b9 173e c517 b8bd c7c8 9abe
00000050: bffa 3b3d cbf6 853e c3f7 4b3e 1897 e1be
00000060: 5b48 273e 6fdd 23be 9f46 24bd e0a7 833e
00000070: 9ccd 883e 2034 9fbe 44b6 a2be 9ccb a5be
00000080: 6931 1e3e 3cec ccbe 3d31 b9be 3f5e 253c
00000090: 755f 59be c4ee f23c bc4b b73c d65b 02be
000000a0: 4a00 873e f48f ebbe cd33 cc3d c65e 403e
000000b0: 2956 bb3d 7629 2ebe 51a5 b73d 9ff8 d5bd
000000c0: 3ade acbe ce30 e93e 6023 3e3e 8353 1cbd
000000d0: 72e3 edbb 3439 92bd 899c 94bd f546 d8be
000000e0: 29d7 1fbf 9af5 6f3e 8428 8fbe 1911 5c3e
000000f0: b410 463e a8c2 883e a371 0ebf 032d 033f
00000100: 9352 2d3e 2281 09be ab05 9d3d f67b 7c3e
00000110: 7265 333e 8935 6b3e 63d6 8a3c b233 3abe
00000120: 0c62 c1be d91a 913e 1fa1 023f bc02 9fbd
00000130: 41e7 49bd e36e 803d cabe 8c3e 1815 273e
00000140: 7919 fe3d 4e90 bd3e ebb6 423d d57c 09be
00000150: c836 d9be 1058 7e3e 82e0 48be dcac d2bc
00000160: db77 823d 04d9 333e 6557 943e bdc1 81bc
00000170: 1cde e339 914b a13e 392f 5b3d a6b7 ab3e
00000180: 2664 623e abc1 48be c222 01bf 6ce8 aa3e
00000190: 6ade c83e ce7c 9b3e b389 2b3e 36c1 0ebe
000001a0: 4164 843e a84b 623c 76bc 92bc 6639 b7be
000001b0: df22 a4be 8373 4fbe 0543 2abf af9b 3abe
000001c0: 9a6d 9d3d 7ddc 0fbf 3f0e 013e 9728 15be
000001d0: 6e1d 073d 4500 243e 2a02 aebe 2ce3 24be
000001e0: 05d3 d43d 6fff 493e 9821 293e be81 babe
000001f0: f132 29bd 661b a53e 2efc 09bf c8e6 473e
00000200: 5f57 35be 1d62 b1be ec08 b3bd b2ab 1dbe
00000210: 90ca a5be d7b0 34bf a997 70be b3c6 163e
00000220: b9be 1f3e 4f39 f6be 03d2 81bc 528a b9bd
00000230: bca2 163e 54c4 f43d b4c9 8a3e b41c 103c
00000240: 2060 573e 419b c33e 5364 7bbd 1ef0 43bc
00000250: e247 4ebd 675a a1bd 0e8e f6be ba77 533d
00000260: c2dd 2e3e 2348 8bbe b12f 14bd 0f03 333e
00000270: e8c3 9cbd 7f43 863e f3ae e13d 428d 21be
00000280: c806 38be b16b b2be 33d2 3a3d 16fa 853c
00000290: ef7d 6b3d d678 cc3d 73e9 b93e 881f 1cbd
000002a0: fc4a 1c3f 962f 9f3e 8845 7bbc c0d2 273e
000002b0: d5d8 00be b76d 02bf b7ac 93bd b5ec 0dbe
000002c0: a367 07bf 0559 49be 0071 b93e 84e1 c2be
000002d0: 0f27 36be 8028 fa3d 5aac 163f 01c1 ea3b
000002e0: b458 223e 74fc 8cbd b64d f3bd 4d7e b03e
000002f0: 99c0 a83e c5ca 5ebe 4822 a1bd fbea 2d3e
00000300: a140 2e3e 8d15 153e 81cf 7e3e 3abc d1be
00000310: a8e9 05bf 40fb d8be 6e64 1f3f 9d72 2bbe
00000320: c30c 8abc 3841 2c3e 8429 933e 7d15 e4be
00000330: 3f05 80bc 1d4a 6c3e 5218 6dbe 6c84 5c3e
00000340: 2bf6 dbbe d36b 8a3d e466 42bd d85d 8ebe
00000350: a92c 0d3e 3fd5 e8be 9b55 183d f6d2 a4be
00000360: 6d12 e03d e5c2 a5be fcea 16bf 17b8 493e
00000370: 77ba b93e d0d2 8abe cb6a 513e af25 9a3e
00000380: e035 85be e13e 26bf 57b9 74be 8c9e 123e
00000390: 0204 403e 123c bd3e 2acf dd3e 8efb 903d
000003a0: 8b32 b43e 7a4c 0e3e 8c60 a1be bfbe 133e
000003b0: 7f25 b0be 1ff6 b7bd 1f19 663e 85f4 46bd
000003c0: e4dc 1b3d f8df 653d cffc 90bd ba08 b63e
000003d0: 3edd 96be 67d8 c3be dee3 8e3e 886b 1ebe
000003e0: 4d23 49be fdcc 8d3e 800b cb3e afce d6bc
000003f0: 0eee f9bd 04b0 17be 755e 80be 38f0 0d3f

gconvs.1.combination_weights f4 [4, 3]
0.385053 0.3873579 0.43802956 0.3857305 0.38718125 0.44183892 0.38915852 0.38979828
0.44220537 0.38675272 0.38733962 0.43875805
00000000: ab25 c53e c653 c63e 6945 e03e 787e c53e
00000010: 9f3c c63e b638 e23e c93f c73e a493 c73e
00000020: be68 e23e 7404 c63e 6151 c63e e5a4 e03e

gconvs.1.weight f4 [3, 6, 6, 4, 3, 3]
0.32670084 -0.13754751 0.27776462 -0.17257969 0.13442488 0.31030986 -0.06566771 -0.17015827
0.10376041 0.07134998 -0.03603653 -0.047637258 -0.08963864 -0.16530785 0.42506015 0.18538961
0.037046466 0.024146212 -0.26768005 -0.0072511607 0.2356295 0.16151229 0.021738898 -0.17961423
0.37656033 -0.14734466 0.1288126 0.14174685 0.5245955 0.18552604 0.3990623 -0.19737561
0.26031244 0.2925695 0.40267244 0.3564146 -0.058965016 -0.24672315 -0.35938993 -0.31884393
0.0543531 0.28898248 0.30645862 0.21742666 -0.13759497 -0.023775848 0.30363247 -0.8769627
0.2985904 0.21230114 -0.58169997 -0.0787628 -0.055571266 -0.32022804 0.2075986 0.21557224
0.06157655 -0.14041883 0.1472061 -0.2546395 0.03251617 -0.24714789 0.2183114 0.52208567
0.3832822 -0.7855687 0.37158248 0.13497804 -0.8780204 0.044478107 -0.038971435 -0.9975779
-0.03031558 0.2915535 -0.26186082 0.030781116 -0.18320353 0.16881253 0.23858888 0.2865149
-0.02611933 0.4906165 0.16057415 0.08361901 0.5843715 -0.042602353 -0.40298885 0.1407999
-0.072022356 -0.37812385 0.06527269 0.067060925 -0.12860022 -0.32701012 -0.19524865 0.15843649
-0.29654303 -0.34337607 -0.09473793 0.081282936 -0.034737073 -0.029488565 0.16026948 0.034483295
-0.21524891 -0.3150582 -0.28908056 -0.0035007822 -0.06333671 0.3189398 -0.015179334 0.0148037365
-0.111088246 0.41693968 -0.30005115 -0.11046309 0.15194786 -0.5316091 -0.13590455 -0.46200126
-0.3040129 -0.2888634 0.24796073 -0.34362805 0.10686594 -0.3528271 0.02789975 0.4283871
-0.0024532422 -0.19315158 -0.20116606 0.208676 -0.013341124 -0.48996812 -0.3122859 0.15791823
0.18919206 -0.11408275 -0.012310947 -0.1264393 0.31295305 0.20318915 0.27999407 0.18277943
-0.46491987 -0.52985495 -0.8309918 -0.46197134 -0.14403962 0.0738245 -0.19731964 0.048891127
-0.35284323 0.0060949903 -0.14557143 0.27017516 0.12336482 -0.0906222 -0.6546428 0.13322829
-0.10155256 -0.17712526 -0.20999743 0.17636693 0.09557407 0.2909757 0.3129149 0.017996004
0.32050067 0.40690312 0.4492664 0.106085785 0.1526522 0.016826162 0.053065583 -0.16557999
-0.2713087 0.2455191 0.2970268 -0.32983097 -0.66598237 -0.30548486 -0.16969435 -0.4134449
0.078852415 -0.116673455 -0.103898175 -0.093098395 -0.09155936 -0.15707874 -0.09940639 0.39868292
-0.076144904 0.14688319 0.29463682 0.34757063 0.1334248 0.055160437 0.30257046 0.3330024
0.23476088 0.34038782 0.31513146 -0.093136854 0.23136304 -0.047877833 0.27160585 -0.11576574
-0.077528514 -0.31404862 -0.33255404 -0.07187825 0.09277027 -0.06032311 -0.06629982 -0.10992666
-0.1597022 0.06815343 -0.24345976 -0.067957 0.39601886 0.08228558 -0.07000005 -0.36326152
-0.5378198 0.42384714 -0.22373648 -0.052977547 0.25897393 0.14805101 -0.10615717 0.35572904
-0.15359809 -0.32570338 -0.05909333 -0.18933843 -0.24266283 -0.25967708 0.018960524 0.25122973
-0.43339193 -0.52920353 0.28211248 -0.4229029 -0.37280193 -0.18191126 -0.31237224 -0.25780243
-0.3075576 -0.13309397 -0.11056012 -0.0477394 -0.25871965 0.16538756 0.025024021 -0.24965122
00000000: 5545 a73e 41d9 0cbe 2a37 8e3e bbb8 30be
00000010: ada6 093e efe0 9e3e cb7c 86bd f83d 2ebe
00000020: 5680 d43d f01f 923d 0a9b 13bd 491f 43bd
00000030: 7794 b7bd 7646 29be 7ca1 d93e c6d6 3d3e
00000040: 09be 173d 47ce c53c 5c0d 89be 259b edbb
00000050: dc48 713e 7a63 253e c615 b23c cbec 37be
00000060: 84cc c03e 85e1 16be 73e7 033e 1626 113e
00000070: e44b 063f 8afa 3d3e e551 cc3e d51c 4abe
00000080: ac47 853e abcb 953e 152b ce3e f97b b63e
00000090: 4d85 71bd fea4 7cbe f501 b8be 833f a3be
000000a0: 5ba1 5e3d 83f5 933e 25e8 9c3e 18a5 5e3e
000000b0: b2e5 0cbe 91c5 c2bc b775 9b3e a180 60bf
000000c0: d7e0 983e 7865 593e 4aea 14bf 644e a1bd
000000d0: b29e 63bd eef4 a3be ba94 543e f8be 5c3e
000000e0: b137 7c3d f4c9 0fbe 32bd 163e 1c60 82be
000000f0: ad2f 053d 5614 7dbe 068d 5f3e 68a7 053f
00000100: 913d c43e 081b 49bf 0f40 be3e af37 0a3e
00000110: f2c5 60bf ad2e 363d 83a0 1fbd 4461 7fbf
00000120: 6158 f8bc 8046 953e 9f12 86be ae28 fc3c
00000130: b599 3bbe 31dd 2c3e a550 743e 15b2 923e
00000140: 35f8 d5bc 1632 fb3e 8d6d 243e 7240 ab3d
00000150: 5f99 153f ce7f 2ebd 8e54 cebe d92d 103e
00000160: 7580 93bd 7399 c1be b0ad 853d 3d57 893d
00000170: c7af 03be df6d a7be 43ef 47be 2d3d 223e
00000180: 7dd4 97be fdce afbe f605 c2bd ab77 a63d
00000190: 7648 0ebd 0192 f1bc af1d 243e 5b3e 0d3d
000001a0: 366a 5cbe 4f4f a1be 5e02 94be 616d 65bb
000001b0: adb6 81bd 144c a33e beb2 78bc 5f8b 723c
000001c0: 3c82 e3bd 1e79 d53e 4ea0 99be 793a e2bd
000001d0: 3898 1b3e 8917 08bf 902a 0bbe 6e8b ecbe
000001e0: 94a7 9bbe e7e5 93be 6be9 7d3e 04f0 afbe
000001f0: 88dc da3d c1a5 b4be 048e e43c 8e55 db3e
00000200: 93c6 20bb 87c9 45be 7afe 4dbe 29af 553e
00000210: bb94 5abc 1add fabe f0e3 9fbe 51b5 213e
00000220: 90bb 413e 38a4 e9bd dbb3 49bc 4e79 01be
00000230: 623b a03e d110 503e 625b 8f3e 882a 3b3e
00000240: fa09 eebe 93a4 07bf e1bb 54bf 8287 ecbe
00000250: 1f7f 13be 4d31 973d 290e 4abe 1042 483d
00000260: dea7 b4be 7cb8 c73b ad10 15be 6654 8a3e
00000270: b2a6 fc3d 2298 b9bd ac96 27bf ff6c 083e
00000280: cafa cfbd 5360 35be 9109 57be 8899 343e
00000290: 57bc c33d c4fa 943e 6236 a03e 5b6c 933c
000002a0: aa18 a43e 9b55 d03e 3f06 e63e 8143 d93d
000002b0: dc50 1c3e 05d7 893c 4c5b 593d cd8d 29be
000002c0: f9e8 8abe 5c69 7b3e e613 983e 9bdf a8be
000002d0: d27d 2abf 8368 9cbe 5bc4 2dbe 0daf d3be
000002e0: 607d a13d 7ef2 eebd 91c8 d4bd 5faa bebd
000002f0: 7983 bbbd 40d9 20be 9495 cbbd 2b20 cc3e
00000300: dcf1 9bbd 8c68 163e a3da 963e c7f4 b13e
00000310: 83a0 083e e9ef 613d 84ea 9a3e 4a7f aa3e
00000320: 2865 703e 5047 ae3e e958 a13e 89be bebd
00000330: 6fea 6c3e 8c1b 44bd ec0f 8b3e 9716 edbd
00000340: 45c7 9ebd fbca a0be 8644 aabe e734 93bd
00000350: 57fe bd3d 5e15 77bd 33c8 87bd 3b21 e1bd
00000360: f988 23be 0794 8b3d 844d 79be 0a2d 8bbd
00000370: fcc2 ca3e 5885 a83d 305c 8fbd 6afd b9be
00000380: 8fae 09bf 7e02 d93e 2d1b 65be fcfe 58bd
00000390: 3b98 843e af9a 173e ee68 d9bd 1e22 b63e
000003a0: d148 1dbe 98c2 a6be d90b 72bd efe1 41be
000003b0: 9b7c 78be 65f4 84be 1a53 9b3c 2fa1 803e
000003c0: 8ce5 ddbe e279 07bf 0c71 903e bb86 d8be
000003d0: e5df bebe f246 3abe 41ef 9fbe aefe 83be
000003e0: 3178 9dbe c949 08be 586d e2bd 648a 43bd
000003f0: e776 84be 5b5b 293e 2dff cc3c 92a4 7fbe

gconvs.2.combination_weights f4 [4, 3]
0.47641003 0.41615084 0.40058765 0.47219145 0.41598478 0.39620906 0.47502908 0.41466677
0.39955854 0.47288007 0.4125506 0.39792675
00000000: 04ec f33e b911 d53e d319 cd3e 14c3 f13e
00000010: f5fb d43e eadb ca3e 0337 f33e 344f d43e
00000020: f092 cc3e 561d f23e d539 d33e 0ebd cb3e

gconvs.2.weight f4 [3, 6, 6, 4, 3, 3]
-0.29819965 -0.041289087 -0.31702852 0.088828824 -0.22130206 0.21339083 -0.45535088 0.067110404
0.45764533 -0.13962981 -0.27839866 -0.3227454 -0.04427528 0.2889452 -0.35137358 -0.3772113
0.35829845 -0.20766655 -0.22101316 -0.2156547 -0.37910292 -0.07793387 -0.48672053 -0.399219
-0.23954076 0.12628856 -0.3613869 0.08221104 0.13066688 -0.14288191 -0.5554973 -0.46725273
0.059631407 -0.1997612 -0.371935 -0.44320083 -0.4440996 -0.122208565 -0.013720156 -0.5210131
-0.1993608 -0.55943406 -0.6083448 -0.31000352 -0.5773094 0.36417583 0.3350596 0.13388106
0.37061659 0.23213902 -0.25690806 0.28277513 0.14443825 -0.021705855 -0.44795004 -0.17363046
-0.41475067 0.15702388 -0.14931297 -0.16685942 0.08152742 0.31011865 0.30649042 -0.25697955
-0.34546414 0.11278125 -0.32492796 -0.35438907 -0.29927313 -0.31492674 -0.66272265 -0.10328126
-0.18763426 -0.016303042 -0.21788837 0.52327293 0.42263234 0.48807845 0.42131186 0.21738322
0.2860555 0.23611283 0.35209233 -0.30816117 0.4503042 0.09119344 -0.27120787 -0.12348674
0.23402129 0.34282336 -0.3184485 -0.17252421 -0.09915523 0.089384474 -0.17571224 -0.68213606
0.11332215 0.2712336 -0.05238118 -0.5711702 -0.07507994 0.23607872 0.025289508 0.16897538
0.19815175 -0.3292188 -0.2658927 0.22631824 -0.24304356 -0.07914841 0.20455448 0.0923458
0.10537779 0.38447306 -0.005626039 0.077388115 0.450268 0.090009026 0.13883953 0.075420275
0.32757828 -0.23318778 -0.36503032 0.21998054 -0.34285071 0.1720621 -0.22884442 -0.16231024
-0.43679252 -0.07515196 0.34873328 0.039820533 -0.53143305 -0.19042318 0.35090786 0.13904262
-0.11383226 0.16303682 -0.2711504 -0.1667483 0.21380332 -0.053919576 0.14813733 -0.103142716
0.3194651 0.33385593 0.048277203 0.40316835 0.17122576 0.16338703 0.48863527 0.045612168
0.20972753 0.15657923 0.24249516 0.32309815 -0.08189559 -0.15978967 0.18139519 0.28073055
-0.06016232 0.1151884 -0.36103672 -0.52217567 0.011177174 -0.5867624 -0.5068789 0.24643119
-0.019303929 -0.38382867 -0.16237813 -0.11839128 -0.16785522 0.59446496 0.30068615 -0.03679017
0.22933175 -0.06435393 0.70524424 0.46014118 -0.2634417 0.36019078 -0.13384213 0.44447076
0.0047187647 0.03881768 0.15910478 0.4662368 0.26021466 -0.23287767 0.1557207 -0.110872895
-0.11535608 0.3412096 0.4622344 0.23126984 -0.21674888 -0.20381594 0.32473877 0.07578048
-0.34419447 -0.5259474 -0.53607535 -0.31340578 0.4946147 0.033886872 -0.43216732 -0.37080136
-0.25793973 -0.26704288 -0.13580911 0.089740075 0.27744257 -0.047023956 -0.006896423 0.28181738
0.28571758 0.14610341 -0.011427117 0.3059851 0.00072655524 -0.19702278 0.22591133 -0.3162227
0.3788874 0.07052594 0.34083194 0.16152914 -0.104197025 0.039358206 -0.058722824 -0.1706689
0.21112818 -0.8143594 -0.15803388 -0.42870966 0.2770517 0.19095753 0.03381171 -0.270724
-0.10451537 -0.14870507 0.20069493 0.012714106 0.13855872 -0.42422596 0.15363884 0.24279957
-0.51197094 0.1599247 -0.35386822 0.055100385 -0.024273852 -0.3225554 -0.32350624 0.05657503
00000000: a0ad 98be bf1e 29bd 9051 a2be e3eb b53d
00000010: 029d 62be 2083 5a3e c023 e9be 2e71 893d
00000020: 7d50 ea3e 1efb 0ebe 458a 8ebe e33e a5be
00000030: ff59 35bd a0f0 933e 3de7 b3be d721 c1be
00000040: e572 b73e 8aa6 54be 4651 62be 96d4 5cbe
00000050: c719 c2be cb9b 9fbd 6f33 f9be 6f66 ccbe
00000060: 2c4a 75be ca51 013e b407 b9be 435e a83d
00000070: 8acd 053e a34f 12be 1235 0ebf c03b efbe
00000080: 1040 743d 338e 4cbe 446e bebe 38eb e2be
00000090: 0661 e3be 7c48 fabd 81ca 60bc 1d61 05bf
000000a0: 3d25 4cbe 1237 0fbf 7cbc 1bbf c8b8 9ebe
000000b0: 8dca 13bf 4175 ba3e ef8c ab3e 1e18 093e
000000c0: 75c1 bd3e dab5 6d3e 7489 83be e7c7 903e
000000d0: 9fe7 133e 7ad0 b1bc b559 e5be 2fcc 31be
000000e0: 335a d4be deca 203e 80e5 18be 32dd 2abe
000000f0: d9f7 a63d dfc7 9e3e 50ec 9c3e d392 83be
00000100: ade0 b0be dbf9 e63d f55c a6be 7c72 b5be
00000110: 543a 99be 143e a1be 31a8 29bf 2085 d3bd
00000120: 3223 40be f58d 85bc 211e 5fbe 37f5 053f
00000130: 4463 d83e 6be5 f93e 30b6 d73e b599 5e3e
00000140: de75 923e 90c7 713e 7245 b43e 4dc7 9dbe
00000150: 468e e63e a0c3 ba3d c2db 8abe 9ee6 fcbd
00000160: 47a3 6f3e 8b86 af3e af0b a3be 30aa 30be
00000170: e611 cbbd 350f b73d e9ed 33be 78a0 2ebf
00000180: 7215 e83d 21df 8a3e a68d 56bd 3638 12bf
00000190: 83c3 99bd 9fbe 713e f12b cf3c e207 2d3e
000001a0: 4be8 4a3e 5e8f a8be 1723 88be f8bf 673e
000001b0: 69e0 78be 9018 a2bd bb76 513e cb1f bd3d
000001c0: 50d0 d73d a7d9 c43e a35a b8bb a97d 9e3d
000001d0: 8789 e63e a756 b83d f32b 0e3e f275 9a3d
000001e0: 57b8 a73e c7c8 6ebe 41e5 babe 9442 613e
000001f0: 218a afbe 0c31 303e 3156 6abe a834 26be
00000200: 45a3 dfbe 45e9 99bd 2b8d b23e db1a 233d
00000210: ff0b 08bf 4bfe 42be 32aa b33e 3061 0e3e
00000220: e320 e9bd 20f3 263e 3ad4 8abe 11c0 2abe
00000230: 42ef 5a3e c6da 5cbd 50b1 173e 7d3c d3bd
00000240: ee90 a33e 2aef aa3e 51be 453d 156c ce3e
00000250: ce55 2f3e ee4e 273e 672e fa3e d3d3 3a3d
00000260: d0c2 563e 4e56 203e a750 783e 1f6d a53e
00000270: e0b8 a7bd e79f 23be a9bf 393e eabb 8f3e
00000280: c46c 76bd e5e7 eb3d ced9 b8be 4ead 05bf
00000290: 7720 373c 1036 16bf d1c2 01bf 7558 7c3e
000002a0: 4623 9ebc 3185 c4be 7446 26be 2177 f2bd
000002b0: 3de2 2bbe db2e 183f 89f3 993e 4ab1 16bd
000002c0: f1d5 6a3e fecb 83bd e38a 343f a097 eb3e
000002d0: d5e1 86be ed6a b83e e90d 09be ac91 e33e
000002e0: de9f 9a3b 4aff 1e3d 5dec 223e 97b6 ee3e
000002f0: db3a 853e 7c77 6ebe 3f75 1f3e 5411 e3bd
00000300: cf3f ecbd 06b3 ae3e fda9 ec3e 00d2 6c3e
00000310: 6bf3 5dbe 20b5 50be 2944 a63e cc32 9b3d
00000320: 423a b0be 7da4 06bf 3c3c 09bf b976 a0be
00000330: 233e fd3e f6cc 0a3d 0945 ddbe add9 bdbe
00000340: ad10 84be d8b9 88be 8b11 0bbe a5c9 b73d
00000350: f40c 8e3e 319c 40bd 64fb e1bb 5e4a 903e
00000360: 9349 923e 229c 153e cd38 3bbc 14aa 9c3e
00000370: 4c76 3e3a 57c0 49be 4d55 673e f1e7 a1be
00000380: 87fd c13e e76f 903d 8681 ae3e e567 253e
00000390: 4065 d5bd 1236 213d 5887 70bd d4c3 2ebe
000003a0: fc31 583e dc79 50bf a2d3 21be d57f dbbe
000003b0: b8d9 8d3e 5f8a 433e 267e 0a3d 569c 8abe
000003c0: 280c d6bd 2446 18be f982 4d3e d34e 503c
000003d0: 56e2 0d3e 2534 d9be 8053 1d3e 73a0 783e
000003e0: 8710 03bf 4dc3 233e 372e b5be f1b0 613d
000003f0: f5d9 c6bc fb25 a5be 9ca2 a5be 38bb 673d

gconvs.3.combination_weights f4 [4, 3]
0.42017943 0.49516106 0.44892955 0.41904193 0.49308825 0.4490148 0.42267373 0.4968933
0.44939747 0.42051238 0.4945753 0.4488406
00000000: c221 d73e c085 fd3e 18da e53e aa8c d63e
00000010: 1076 fc3e 45e5 e53e b168 d83e cc68 fe3e
00000020: 6d17 e63e 664d d73e f938 fd3e 6fce e53e

gconvs.3.weight f4 [3, 6, 6, 4, 3, 3]
0.34268367 0.096252866 0.40846416 -0.019409684 -0.060118333 0.06447611 0.53262055 0.16166586
0.058181807 0.009529233 0.14481711 -0.10779772 0.19378552 -0.42743477 0.022906464 -0.26482043
0.27506894 -0.343399 -0.3021133 0.16705365 0.29166463 -0.05392601 0.059521172 0.31838715
-0.0016803764 -0.15046331 -0.27087846 -0.036356974 0.41321096 0.12133283 -0.015386311 -0.16140534
0.2740228 0.55459523 0.41748828 0.31970465 -0.03334378 0.23719288 0.07738648 -0.26562986
0.34045437 0.08328926 -0.43047598 -0.8648653 0.041268453 -0.08869499 -0.45302433 -0.29201838
-0.14791968 -0.72269917 -0.09496775 -0.19310977 0.033306453 -0.417166 0.08301038 0.33835134
0.25974908 -0.21300747 0.20944093 0.08397321 -0.6459397 0.06354046 -0.10325532 -0.51699513
0.014284385 -0.48281273 -0.4472144 0.17305665 0.12974401 -0.21104823 -0.27920336 0.35476127
0.2710542 -0.08453426 0.06329462 -0.35304725 -0.1363899 -0.03854076 -0.10058094 -0.14176063
0.0014129742 -0.1988028 0.24622455 0.36242324 -0.16800855 0.3718489 -0.0070600584 -0.29993185
0.16525252 0.34264588 0.45454007 0.21533655 -0.34137297 -0.3786684 -0.42363873 -0.27057573
-0.06300296 -0.22917213 -0.30644974 -0.18411162 -0.43446845 -0.16841033 -0.34509122 -0.092651546
0.246121 0.34273413 0.25560844 0.25499877 -0.05659264 -0.12867008 0.06499158 0.39269638
0.3470934 -0.16810927 -0.36495534 -0.29297805 0.07932959 -0.065355204 -0.063915506 -0.20120908
0.07618211 0.0032210501 -0.14584838 -0.42212713 0.11921727 0.85734904 -0.5137075 0.456165
-0.09991399 -0.3646455 0.18859397 0.15505736 0.36408585 0.2920755 0.11102822 -0.04270869
-0.4952099 0.27949417 -0.011930937 -0.13228793 0.20263013 0.26381326 -0.2616272 0.36127177
-0.00950729 -0.04596308 -0.4278294 0.47312206 0.5288015 0.016914228 0.12924735 -0.82540727
-1.1447082 0.21817923 -0.3279028 -0.17429441 0.3069203 -0.25546032 -0.25745293 -0.32126096
-0.53227204 -0.5242644 0.18976888 0.6269559 0.08821714 -0.24768393 0.34886697 -0.17661765
-0.77189237 -0.5257408 -0.50825244 0.029524965 0.19021371 -0.118444555 -0.11075391 -0.21998389
-0.2830315 -0.7194629 -0.46013445 -0.1789229 -0.56751037 0.08796056 -0.32601818 -0.5169191
-0.5936419 -0.3768594 -0.4987669 0.20733058 -0.045516457 0.22560266 0.03979343 -0.22987957
-0.021163182 0.45372173 0.08981989 -0.48220366 -0.06910863 -0.007023996 -0.08882842 0.10408574
0.37768868 -0.37935293 0.22997132 -0.14791302 -0.5970285 -0.17138794 0.37972376 -0.41293678
0.15381949 -0.08888026 0.21095808 0.105399214 -0.26896793 0.24345727 0.3476242 -0.041635305
0.040914364 0.36743057 0.36535552 0.40667185 0.14142671 0.027090453 0.46101224 -0.10422525
0.22522171 0.021806866 -0.20953338 0.2064167 -0.12217624 -0.13045456 0.4692624 0.17948951
-0.25453654 -0.09992234 0.19650735 0.3006771 0.22228082 0.27379137 -0.2499578 -0.44577897
0.03317937 -0.30267522 -1.0775044 -0.021403627 -0.2586836 0.044964407 -0.02280182 -0.6262035
-0.82018703 0.025956372 0.06373672 -0.43014747 -0.2450448 0.27626884 -0.3571094 -0.09880906
00000000: 3c74 af3e 3920 c53d 3722 d13e 0f01 9fbc
00000010: a43e 76bd 0d0c 843d d259 083f bc8b 253e
00000020: 0c50 6e3d 8020 1c3c f04a 143e 0dc5 dcbd
00000030: b66f 463e bbd8 dabe 56a6 bb3c 8b96 87be
00000040: d6d5 8c3e fed1 afbe 98ae 9abe 1d10 2b3e
00000050: 1155 953e 85e1 5cbd 79cc 733d a403 a33e
00000060: 1340 dcba 0e13 1abe 95b0 8abe 0deb 14bd
00000070: 6390 d33e 597d f83d de16 7cbc 7147 25be
00000080: b74c 8c3e f4f9 0d3f 06c1 d53e 54b0 a33e
00000090: 7d93 08bd b1e2 723e ce7c 9e3d a300 88be
000000a0: 0950 ae3e 8f93 aa3d 5967 dcbe d067 5dbf
000000b0: 1c09 293d b8a5 b5bd cef2 e7be 6f83 95be
000000c0: 4278 17be d002 39bf 747e c2bd 91be 45be
000000d0: 596c 083d c896 d5be 5901 aa3d 633c ad3e
000000e0: d5fd 843e a11e 5abe af77 563e 25fa ab3d
000000f0: 4e5c 25bf 8021 823d 8677 d3bd cb59 04bf
00000100: 0e09 6a3c 3b33 f7be 49f9 e4be c335 313e
00000110: 9ddb 043e 071d 58be bef3 8ebe 45a3 b53e
00000120: 9ec7 8a3e 4c20 adbd 9ca0 813d 9cc2 b4be
00000130: cba9 0bbe eadc 1dbd 61fd cdbd b329 11be
00000140: 8c33 b93a f692 4bbe 4a22 7c3e 8a8f b93e
00000150: 6f0a 2cbe fb62 be3e 1058 e7bb ab90 99be
00000160: f537 293e 486f af3e 7ab9 e83e 2f81 5c3e
00000170: 70c8 aebe d3e0 c1be 2de7 d8be e788 8abe
00000180: b207 81bd 19ac 6abe fbe6 9cbe c287 3cbe
00000190: a672 debe c273 2cbe ccaf b0be 18c0 bdbd
000001a0: 2507 7c3e d97a af3e 1cdf 823e 338f 823e
000001b0: afcd 67bd 17c2 03be 4e1a 853d 800f c93e
000001c0: 3ab6 b13e d624 2cbe 6ddb babe 3801 96be
000001d0: 8d77 a23d f3d8 85bd 22e6 82bd c109 4ebe
000001e0: 5e05 9c3d 4118 533b 4759 15be 0c21 d8be
000001f0: 2f28 f43d 3a7b 5b3f 5682 03bf 758e e93e
00000200: b59f ccbd d1b2 babe c71e 413e 5bc7 1e3e
00000210: 7669 ba3e ec8a 953e c362 e33d 4fef 2ebd
00000220: 278c fdbe dc19 8f3e fa79 43bc 7d76 07be
00000230: 467e 4f3e 8812 873e 00f4 85be 9df8 b83e
00000240: 77c4 1bbc c843 3cbd 750c dbbe 0e3d f23e
00000250: 895f 073f b58f 8a3c 6b59 043e e44d 53bf
00000260: cc85 92bf 606a 5f3e e0e2 a7be 3c7a 32be
00000270: a824 9d3e b2cb 82be dfd0 83be 517c a4be
00000280: fb42 08bf 3136 06bf c652 423e 2f80 203f
00000290: 30ab b43d dba0 7dbe b19e b23e 42db 34be
000002a0: bd9a 45bf f396 06bf d51c 02bf 57de f13c
000002b0: 62c7 423e 0f93 f2bd f2d2 e2bd 7543 61be
000002c0: 81e9 90be b82e 38bf be96 ebbe 9137 37be
000002d0: 5c48 11bf ab24 b43d dbeb a6be cf54 04bf
000002e0: eaf8 17bf b7f3 c0be 605e ffbe 784e 543e
000002f0: 776f 3abd 6204 673e 70fe 223d 8d65 6bbe
00000300: 695e adbc 374e e83e 7ef3 b73d 66e3 f6be
00000310: d388 8dbd 8d29 e6bb adeb b5bd e82a d53d
00000320: 6960 c13e 8c3a c2be 9a7d 6b3e 8376 17be
00000330: dcd6 18bf 5280 2fbe 276b c23e 736c d3be
00000340: db82 1d3e db06 b6bd 6505 583e 8bdb d73d
00000350: 2ab6 89be dd4c 793e cdfb b13e c889 2abd
00000360: d295 273d dc1f bc3e e10f bb3e 4b37 d03e
00000370: 2ad2 103e ccec dd3c cc09 ec3e 0c74 d5bd
00000380: 85a0 663e 50a4 b23c eb8f 56be e65e 533e
00000390: 8937 fabd e195 05be 2943 f03e 19cc 373e
000003a0: 9d52 82be 15a4 ccbd 3939 493e 59f2 993e
000003b0: 959d 633e 622e 8c3e f0f4 7fbe 243d e4be
000003c0: 17e7 073d 3ff8 9abe aaeb 89bf a956 afbc
000003d0: 2d72 84be 992c 383d e2ca babc df4e 20bf
000003e0: c7f7 51bf 75a2 d43c 6688 823d 4a3c dcbe
000003f0: 06ed 7abe 1c73 8d3e 0bd7 b6be 685c cabd

gconvs.4.combination_weights f4 [4, 3]
0.40558982 0.43672666 0.49968117 0.40357044 0.43363094 0.49927774 0.40333655 0.43376678
0.49902457 0.40658647 0.43338862 0.50096005
00000000: 78a9 cf3e a39a df3e 36d6 ff3e c9a0 ce3e
00000010: e004 de3e 55a1 ff3e 2182 ce3e ae16 de3e
00000020: 2680 ff3e 1a2c d03e 1de5 dd3e eb3e 003f

gconvs.4.weight f4 [3, 6, 6, 4, 3, 3]
-0.539091 0.087861605 0.036984693 -0.34416902 0.11820479 0.06443037 -0.19806781 0.049747687
0.13983327 0.5099232 0.2999504 -0.2505986 0.13039155 0.020028928 -0.027881633 -0.11974933
-0.10106 0.36829394 -0.52686405 0.09350286 -0.34013867 -0.46465304 -0.035455294 -0.49933624
-0.44641533 -0.10799165 -0.33524087 0.10921044 -0.0846612 0.2745237 0.092443004 -0.32965913
-0.050468255 -0.25907898 -0.23024419 -0.31897554 -0.05797115 0.34307688 0.971733 -0.3945494
-0.76235765 -0.5670295 0.7180888 -0.14590238 -0.6859688 0.5689376 -0.03572384 -0.20579202
0.14711374 0.051362276 0.4589587 0.08941829 -0.024621839 0.33445984 -1.0406065 -0.12387231
0.50601983 -0.8891518 -0.5217184 0.12275 0.17745857 -0.27000397 -0.5864472 0.03770438
-0.10959239 0.25046343 -0.19685256 -0.11388747 0.33788878 0.33259326 -0.30231747 0.17820178
-0.332239 0.4236265 -0.20658687 -0.34608218 0.21443912 0.37492996 -0.09641058 -0.21104124
-0.28081712 0.038361944 -0.23151581 -0.5518435 -0.2756876 -0.12329298 -0.33209187 -0.27515012
-0.18072656 -0.54379874 0.1624567 0.35897565 0.1069877 0.0074820984 0.32897964 -0.17550358
0.43733418 -0.30926543 0.33367518 -0.083688565 0.24952042 -0.11118993 -0.33663294 -0.2135224
0.12781303 -0.30917218 -0.079705745 0.0149241015 -0.19027793 -0.017412493 -0.01005184 0.18220355
0.008026111 -0.3452986 -0.16285627 0.26391393 0.30088133 0.015687454 0.020579813 -0.0524236
0.13781936 0.112541325 -0.09387663 -0.37165356 0.02844581 -0.46069694 0.35489127 0.046162236
0.3445394 0.027400909 -0.19907965 -0.14701965 0.14271651 -0.1007173 -0.21681303 0.25556764
0.18030968 -0.45161155 0.27001113 -0.27047327 -0.32595623 -0.028449656 -0.03827131 0.22881918
-0.42419407 0.06617685 0.6871988 -0.9738348 -0.10969349 0.0925084 -0.10595466 -0.30228776
-0.6917364 0.43831542 0.39733174 0.34447244 0.25698227 0.16479623 0.25146258 0.26095766
-0.31589872 -0.412963 -0.76096314 0.12906091 0.09273389 -0.6119256 0.061301887 -0.59763426
-0.030218238 -0.01647074 -0.8952665 -0.31274885 -0.13973261 0.4230747 -0.32466117 0.17050518
-0.0052631404 0.18281311 0.13262735 0.10149379 0.0911183 0.0121213375 0.028720776 0.17904198
0.26911864 -0.050601 -0.325714 -0.243336 -0.23414281 0.085837066 -0.27822977 0.0033807568
-0.55918974 -0.41888493 -0.22900213 -0.23659761 -0.03751904 -0.18273132 0.13771215 -0.3488003
-0.32100904 0.16062349 0.21974714 0.3694092 -0.053356934 0.08197654 0.337353 -0.2797256
-0.16505893 -0.112041846 -0.3194396 -0.54407346 -0.075538896 -0.39896855 0.017579474 -0.19492893
-0.08184398 -0.28523207 -0.28097004 -0.2360308 0.049771912 -0.06974357 0.13469793 -0.31890795
0.0818878 -0.011485848 -0.19191082 -0.14877377 -0.37971243 0.3653305 0.38943362 -0.30036762
0.12232808 -0.11921968 -0.07747221 -0.103264265 0.44739652 0.28133455 0.21702918 0.42083028
-0.12627225 -0.27909976 0.1410969 -0.13569407 0.31550038 0.43016282 -0.2641457 -0.079907835
-0.6740807 0.043068256 -0.17712809 -0.31329045 -0.16915081 -0.24718763 0.053835195 -0.20962252
00000000: de01 0abf c9f0 b33d 437d 173d ec36 b0be
00000010: 5a15 f23d 12f4 833d 4ad2 4abe 3bc4 4b3d
00000020: 7430 0f3e 548a 023f 1993 993e 764e 80be
00000030: 5d85 053e b513 a43c 0668 e4bc 233f f5bd
00000040: 8cf8 cebd 0691 bc3e 90e0 06bf 6d7e bf3d
00000050: a826 aebe 01e7 edbe 9239 11bd 00a9 ffbe
00000060: 8d90 e4be ba2a ddbd b1a4 abbe b9a9 df3d
00000070: da62 adbd 5f8e 8c3e c252 bd3d 15c9 a8be
00000080: cdb7 4ebd 00a6 84be 22c5 6bbe c350 a3be
00000090: 2873 6dbd c6a7 af3e 7ec3 783f 6102 cabe
000000a0: df29 43bf d828 11bf abd4 373f 6f67 15be
000000b0: a79b 2fbf e5a5 113f 2953 12bd 25bb 52be
000000c0: fca4 163e 4061 523d a2fc ea3e f020 b73d
000000d0: bdb3 c9bc 523e ab3e 9832 85bf c4b0 fdbd
000000e0: 848a 013f 749f 63bf 568f 05bf 5a64 fb3d
000000f0: b3b7 353e f63d 8abe 6721 16bf e86f 1a3d
00000100: fa71 e0bd be3c 803e b893 49be d53d e9bd
00000110: c2ff ac3e aa49 aa3e 5bc9 9abe 877a 363e
00000120: 3b1b aabe 93e5 d83e 828b 53be af31 b1be
00000130: ee95 5b3e d2f6 bf3e e972 c5bd 321b 58be
00000140: 43c7 8fbe 6a21 1d3d 7b12 6dbe 9e45 0dbf
00000150: ed26 8dbe 0881 fcbd f207 aabe 7ae0 8cbe
00000160: 6210 39be 6536 0bbf 0d5b 263e a8cb b73e
00000170: 5e1c db3d 642c f53b 0570 a83e 36b7 33be
00000180: 44ea df3e 0a58 9ebe 79d7 aa3e e964 abbd
00000190: 4882 7f3e 8cb7 e3bd 275b acbe 9ea5 5abe
000001a0: 6be1 023e d14b 9ebe c43c a3bd 3884 743c
000001b0: 38d8 42be a5a4 8ebc 79b0 24bc 9193 3a3e
000001c0: f37f 033c faca b0be cbc3 26be ba1f 873e
000001d0: 1e0d 9a3e fa82 803c ff96 a83c 21ba 56bd
000001e0: 8520 0d3e 117c e63d 6442 c0bd 6049 bebe
000001f0: 3007 e93c 78e0 ebbe 4fb4 b53e 9d14 3d3d
00000200: 7867 b03e df77 e03c 89db 4bbe 528c 16be
00000210: 4724 123e df44 cebd 3c04 5ebe c3d9 823e
00000220: 1aa3 383e a139 e7be e63e 8a3e 797b 8abe
00000230: bce3 a6be 410f e9bc 61c2 1cbd 934f 6a3e
00000240: f72f d9be ba87 873d 43ec 2f3f 3d4d 79bf
00000250: fba6 e0bd 0b75 bd3d c2fe d8bd 76c5 9abe
00000260: a315 31bf e16a e03e 116f cb3e b15e b03e
00000270: 2e93 833e 58c0 283e b4bf 803e 3e9c 853e
00000280: 7abd a1be e36f d3be 7bce 42bf 8b28 043e
00000290: 44eb bd3d 28a7 1cbf b017 7b3d 8ffe 18bf
000002a0: 3d8c f7bc a5ed 86bc 2f30 65bf 9e20 a0be
000002b0: 1116 0fbe 3f9d d83e fd39 a6be e998 2e3e
000002c0: 6c76 acbb 5c33 3b3e 77cf 073e fadb cf3d
000002d0: 3b9c ba3d 9398 463c d547 eb3c c856 373e
000002e0: ebc9 893e ff42 4fbd fcc3 a6be 132d 79be
000002f0: 22c3 6fbe 58cb af3d 2274 8ebe b08f 5d3b
00000300: 0f27 0fbf 1678 d6be 897f 6abe a546 72be
00000310: 91ad 19bd eb1d 3bbe 6a04 0d3e f495 b2be
00000320: 4c5b a4be 7c7a 243e 6505 613e 3423 bd3e
00000330: cd8c 5abd 51e3 a73d 88b9 ac3e 3238 8fbe
00000340: 3505 29be 3276 e5bd 968d a3be 6648 0bbf
00000350: 23b4 9abd 9b45 ccbe d402 903c 739b 47be
00000360: d19d a7bd f009 92be 4edb 8fbe 0fb2 71be
00000370: a2dd 4b3d b8d5 8ebd 41ee 093e e747 a3be
00000380: cab4 a73d 232f 3cbc 4584 44be 2758 18be
00000390: ab69 c2be 990c bb3e d863 c73e c9c9 99be
000003a0: 2587 fa3d 7329 f4bd c0a9 9ebd 377c d3bd
000003b0: 2811 e53e 150b 903e e63c 5e3e 1177 d73e
000003c0: 834d 01be 2ae6 8ebe b57b 103e 63f3 0abe
000003d0: 4489 a13e 4d3e dc3e 1b3e 87be b8a6 a3bd
000003e0: 8e90 2cbf 5768 303d 1161 35be 9b67 a0be
000003f0: df35 2dbe c11e 7dbe 4b82 5c3d 49a7 56be

gconvs.5.combination_weights f4 [4, 3]
0.5277486 0.37959516 0.57931715 0.5235732 0.3775072 0.5805468 0.5249858 0.37872285
0.58065844 0.5251824 0.3775465 0.58059925
00000000: 881a 073f 4c5a c23e 214e 143f e508 063f
00000010: a048 c13e b79e 143f 7865 063f f6e7 c13e
00000020: 08a6 143f 5b72 063f c64d c13e 27a2 143f

gconvs.5.weight f4 [3, 6, 6, 4, 3, 3]
-0.02917504 0.13400035 0.24525416 0.4578804 0.18226746 -0.05007414 0.11142956 -0.068486944
-0.0029588505 0.30089477 0.470254 0.09445476 -0.22625136 0.09921213 0.35609582 -0.12799348
-0.19341357 0.1923212 0.14760667 0.21800001 -0.058062434 0.026213674 0.27335596 0.43729982
-0.17478141 -0.098526485 0.40366355 -0.022074545 -0.20713934 -0.40916637 -0.30398837 0.3133239
-0.40780282 -0.1958324 -0.19727844 0.24218976 0.13937557 -0.50308007 -0.35065004 -0.141011
-0.058300275 -0.1905004 -0.1571378 -0.4890921 -0.32320884 -0.45164564 0.23553242 -0.43196517
-0.55820197 0.12628396 -0.5133653 -0.47055772 -0.5124535 -0.37150988 0.101803005 -0.21388547
-0.68459046 -0.030645486 -0.6352012 -0.3890447 -0.6227299 -0.2611411 0.0341459 -0.56828415
-0.16228835 -0.66412944 0.16726658 -0.42084312 -0.36591482 0.21637169 0.011455906 0.096922144
0.1548566 0.23183328 0.045883834 0.20534092 0.102388546 -0.0025788948 0.07235118 -0.34815007
0.14884996 0.25442383 0.26311404 -0.3697858 -0.08948357 0.023572572 0.0851843 0.32142815
0.32252413 -0.21493553 0.2281054 -0.12587425 -0.05699146 -0.107792825 -0.17313822 0.06118602
0.36275822 -0.32009456 -0.1485706 -0.55677503 -0.46075934 -0.43886617 0.1552379 -0.5901355
-0.49658015 -0.6322112 -0.33171883 -0.04486609 0.15315057 0.28394988 0.4078644 -0.026666204
0.024298932 0.009134196 0.15752158 -0.37119183 -0.11949939 -0.3408624 0.1428649 -0.29575962
-0.42266795 -0.020840013 0.25220716 -0.2927675 -0.14187938 0.22713017 -0.5173293 -0.45529175
-0.4055972 0.08849167 0.15474635 -0.08460363 -0.2129969 -0.3873015 0.36440036 -0.16253535
0.16375688 -0.3128581 -0.43679145 -0.17265503 0.31435677 -0.34121287 -0.1728263 -0.22640364
-0.33312494 -0.00965204 -0.49964774 -0.102949545 0.039725203 0.0034986797 -0.07547953 -0.12914069
-0.31434035 0.10275289 -0.14218044 -0.051104236 0.012456056 -0.47358447 0.023072254 -0.095879115
-0.45768306 -0.7210219 -0.06317016 -0.22411406 -0.41235256 -0.14264265 0.30470875 -0.32972842
-0.3988285 0.022509115 0.1761235 -0.03169406 -0.408902 -0.42562217 -0.039228044 0.34458196
-0.3366818 -0.4855499 -0.12395706 -0.14590131 0.0134566715 -0.24190752 -0.26139134 -0.03495525
-0.20647429 0.46513 -0.34656847 0.24000424 0.18224542 -0.13628574 -0.26374912 0.2287607
0.21644074 -0.348628 -0.1578414 0.28579745 0.13960283 0.17732425 0.014995173 0.3931958
0.017065262 -0.3114716 -0.2749024 -0.36664295 -0.28780952 0.04242387 -0.25496772 -0.15126617
-0.17805116 -0.07612695 -0.29611203 0.24304585 -0.38427532 -0.20968388 0.15917647 -0.32791212
-0.39984658 -0.013807629 -0.048743237 0.0314531 0.23850457 -0.013964729 -0.45998612 -0.48659065
-0.6123477 -0.5345033 -0.0965294 -0.11961606 0.024410853 0.07661502 -0.15273596 0.03391681
-0.4344897 -0.28574383 -0.30069327 -0.22359772 -0.24129327 0.107699424 -0.16733986 0.07777789
-0.35044235 0.20932436 0.011444952 -0.109986596 -0.027496338 0.05839089 0.26531366 0.34387392
0.0037073973 0.09070981 0.05266833 -0.5037464 0.016100308 0.3189321 -0.124045916 -0.2094101
00000000: 7e00 efbc 6337 093e e823 7b3e 4d6f ea3e
00000010: 52a4 3a3e 8b1a 4dbd 2e35 e43d e242 8cbd
00000020: 46e9 41bb e10e 9a3e 22c5 f03e 7f71 c13d
00000030: 70ae 67be bb2f cb3d 3152 b63e b910 03be
00000040: 350e 46be d9ef 443e 3426 173e 653b 5f3e
00000050: e0d2 6dbd 0fbe d63c 50f5 8b3e c3e5 df3e
00000060: e6f9 32be 41c8 c9bd fdac ce3e add5 b4bc
00000070: 561c 54be 417e d1be 5da4 9bbe fd6b a03e
00000080: 88cb d0be 4a88 48be 5c03 4abe 9800 783e
00000090: 78b8 0e3e dbc9 00bf 6788 b3be 3065 10be
000000a0: 45cc 6ebd 8912 43be bbe8 20be 486a fabe
000000b0: a17b a5be 193e e7be 692f 713e 8a2a ddbe
000000c0: 53e6 0ebf 9550 013e e96b 03bf f1ec f0be
000000d0: 2730 03bf 8b36 bebe 187e d03d cb04 5bbe
000000e0: 5241 2fbf 3e0c fbbc 8c9c 22bf de30 c7be
000000f0: 3a6b 1fbf 49b4 85be 92dc 0b3d 127b 11bf
00000100: eb2e 26be 6304 2abf ee47 2b3e c078 d7be
00000110: 3059 bbbe 8a90 5d3e 8db1 3b3c 1e7f c63d
00000120: bb92 1e3e b465 6d3e b0f0 3b3d e444 523e
00000130: 16b1 d13d ad02 29bb db2c 943d ba40 b2be
00000140: 206c 183e d743 823e e2b6 863e 9054 bdbe
00000150: 2943 b7bd 441b c13c 1b75 ae3d 3b92 a43e
00000160: e221 a53e 0f18 5cbe 7694 693e 2ee5 00be
00000170: e16f 69bd 7cc2 dcbd 254b 31be 319e 7a3d
00000180: 72bb b93e 6fe3 a3be e422 18be cf88 0ebf
00000190: a6e8 ebbe 11b3 e0be aff6 1e3e 1f13 17bf
000001a0: c13f febe 98d8 21bf 0dd7 a9be 81c5 37bd
000001b0: 81d3 1c3e e161 913e 9ad3 d03e 1573 dabc
000001c0: 8e0e c73c 98a7 153c 564d 213e db0c bebe
000001d0: 19bc f4bd 8485 aebe 2d4b 123e ce6d 97be
000001e0: ef67 d8be adb8 aabc 4c21 813e 9fe5 95be
000001f0: d448 11be d094 683e b16f 04bf 001c e9be
00000200: 70aa cfbe 1f3b b53d d475 1e3e ab44 adbd
00000210: dc1b 5abe 624c c6be af92 ba3e ab6f 26be
00000220: e2af 273e f02e a0be 21a3 dfbe 7bcc 30be
00000230: 5ff3 a03e 74b3 aebe 61f9 30be 5bd6 67be
00000240: 5a8f aabe 9723 1ebc d4d1 ffbe 36d7 d2bd
00000250: e5b6 223d 1b4a 653b 0395 9abd 753d 04be
00000260: 38f1 a0be 1b70 d23d c097 11be ad52 51bd
00000270: 7c14 4c3c aa79 f2be 0602 bd3c 455c c4bd
00000280: 6f55 eabe e494 38bf 5b5f 81bd 287e 65be
00000290: e01f d3be ea10 12be c902 9c3e 2ad2 a8be
000002a0: 4033 ccbe 0965 b83c b859 343e a1d1 01bd
000002b0: 9a5b d1be 26eb d9be 96ad 20bd 0c6d b03e
000002c0: 8f61 acbe ff99 f8be 33dd fdbd 2767 15be
000002d0: 5f79 5c3c 9bb6 77be 16d5 85be 3c2d 0fbd
000002e0: ff6d 53be 8525 ee3e 6c71 b1be acc3 753e
000002f0: 8b9e 3a3e 7d8e 0bbe 200a 87be 3f40 6a3e
00000300: a4a2 5d3e 5f7f b2be 2da1 21be 0b54 923e
00000310: 0bf4 0e3e 7d94 353e 50ae 753c f650 c93e
00000320: 73cc 8b3c 3579 9fbe 02c0 8cbe a0b8 bbbe
00000330: c55b 93be a7c4 2d3d 218b 82be 85e5 1abe
00000340: 0b53 36be 72e8 9bbd ff9b 97be 03e1 783e
00000350: bcbf c4be 5fb7 56be 28ff 223e 19e4 a7be
00000360: b1b8 ccbe 6539 62bc fda6 47bd f7d4 003d
00000370: 8b3a 743e 52cc 64bc 4d83 ebbe 6922 f9be
00000380: d2c2 1cbf 35d5 08bf 35b1 c5bd 44f9 f4bd
00000390: 45f9 c73c 56e8 9c3d d166 1cbe 5aec 0a3d
000003a0: 6f75 debe 044d 92be 78f4 99be cdf6 64be
000003b0: 9515 77be 8491 dc3d 245b 2bbe 044a 9f3d
000003c0: 2e6d b3be 2059 563e 9c83 3b3c a740 e1bd
000003d0: 0040 e1bc 492b 6f3d 31d7 873e 3e10 b03e
000003e0: cef7 723b 11c6 b93d bfba 573d 86f5 00bf
000003f0: cbe4 833c 114b a33e c90b febd 9a6f 56be

final_layer.combination_weights f4 [4, 3]
0.4782621 0.5418407 0.5410878 0.47952637 0.5419442 0.5412251 0.4791454 0.5424154
0.54131943 0.47973645 0.54274964 0.54190105
00000000: c5de f43e 12b6 0a3f bb84 0a3f 7b84 f53e
00000010: dbbc 0a3f ba8d 0a3f 8c52 f53e bcdb 0a3f
00000020: e993 0a3f 04a0 f53e a4f1 0a3f 07ba 0a3f

final_layer.weight f4 [3, 6, 6, 4, 3, 3]
0.21624278 -0.27556476 -0.12337935 -0.37173787 -0.31291518 -0.11821684 -0.06004043 -0.16430415
0.005123444 -0.20354375 -0.12398532 -0.45317453 -0.41864178 -0.018319143 -0.50775385 -0.32686976
-0.08841734 0.21069674 -0.47641644 0.19685034 -0.20552713 0.009613151 -0.23433436 0.21970552
-0.44495744 0.14209248 0.23890337 -0.49684644 -0.1595676 -0.22087118 -0.21864195 -0.15363546
-0.33157226 -0.26150215 0.06268313 -0.4220463 0.40546823 -0.11429939 -0.31375554 0.038740423
0.07365652 0.31487548 0.2037724 -0.06629375 0.37255794 0.21028288 -0.0057874504 -0.2877423
0.09434169 0.21625346 0.3943866 -0.29049686 -0.10444028 -0.32248914 0.44013938 0.3357296
0.3270994 -0.0034583844 0.13428976 0.40346038 0.4113647 0.14519958 0.34488636 0.23816459
-0.27605134 0.25449747 0.15049009 0.014196543 0.24713407 -0.12899557 0.40328997 0.18145722
-0.23791456 -0.13454036 -0.284838 0.06420361 -0.14852661 -0.16824819 -0.15832698 -0.5655837
-0.081213795 -0.41497365 -0.30363747 0.019971438 -0.65703976 0.03535747 -0.078765824 -0.29137677
-0.3602341 -0.48927152 -0.13786149 -0.4686765 -0.08314409 0.038362302 0.075614445 -0.28750843
-0.15055875 -0.077106506 -0.60000604 -0.4668174 -0.5052113 -0.4313938 -0.38936648 -0.09531298
-0.05882886 0.022507403 -0.3471242 -0.5760258 0.5495531 0.25969103 -0.08697991 0.34500897
0.39369065 0.5171569 0.41867483 -0.19663814 0.40965348 0.24734583 0.060027216 0.022317968
0.27741536 -0.18414694 -0.21390879 0.3935151 0.15390113 0.2123078 -0.017351756 0.13777135
-0.03435781 0.023072463 0.43392766 0.22171828 -0.15537648 5.5670353e-05 0.46500626 0.18420132
0.068398565 0.37829077 0.1902552 0.313399 0.4366365 0.33402 0.14202857 -0.16270536
0.02107458 0.034749296 -0.44110072 -0.5134527 -0.22215691 -0.45870322 -0.03967349 -0.17637073
-0.02111246 -0.2663993 0.10512763 -0.13563369 -0.5155216 -0.079507016 -0.32360837 0.121485025
-0.26462707 0.10571189 -0.29590943 -0.56863695 -0.48013458 -0.5457265 0.0124442 -0.26094532
-0.4707412 -0.3597045 -0.46655583 -0.54608405 -0.52052397 -0.18963899 -0.015518892 -0.38791677
-0.032597896 -0.26567155 -0.52782077 -0.15644608 0.45416293 -0.06322608 0.17088975 -0.1848354
0.2868742 0.0026169638 0.039254367 0.3772045 0.5323817 0.36187878 0.042883355 0.35778764
0.4976214 0.18146715 0.40204117 -0.17544946 0.25168172 0.42982832 -0.0418124 0.1899177
0.28382164 0.3518254 -0.24947807 0.16584988 0.31955057 0.05479599 0.005102288 0.10601306
0.507009 0.46756324 -0.09532434 -0.15706559 0.469315 -0.06794747 0.35878664 0.085815705
0.1786021 -0.18695593 0.119848326 -0.281377 0.24022792 -0.005508485 -0.369198 0.218808
-0.008815394 -0.45371446 -0.2695696 -0.118432775 -0.111956865 -0.041646373 -0.09855474 -0.5493513
-0.34870124 0.123327926 -0.20973213 -0.10363816 -0.31986183 0.1450957 -0.45949998 -0.32634005
-0.15314583 -0.13583499 -0.32263282 -0.402922 -0.18398419 0.17694364 -0.24309 -0.3770424
0.13136289 -0.062749855 -0.0064014206 -0.13977359 -0.02800939 -0.019049698 -0.12645417 0.32211033
00000000: bf6e 5d3e d316 8dbe 50ae fcbd 6d54 bebe
00000010: 6b36 a0be ac1b f2bd f4ec 75bd 593f 28be
00000020: 90e2 a73b c66d 50be 04ec fdbd 7e06 e8be
00000030: 3758 d6be 0712 96bc 28fc 01bf 795b a7be
00000040: 2614 b5bd e3c0 573e dbec f3be 2393 493e
00000050: b475 52be 7a80 1d3c 59f5 6fbe 7cfa 603e
00000060: 76d1 e3be b180 113e 16a3 743e a862 febe
00000070: b065 23be 0e2c 62be ade3 5fbe 9d52 1dbe
00000080: d7c3 a9be 9ce3 85be 0360 803d 7416 d8be
00000090: 8899 cf3e cc15 eabd 91a4 a0be 47ae 1e3d
000000a0: 3bd9 963d 5c37 a13e b6a9 503e 05c5 87bd
000000b0: eabf be3e 6554 573e a7a4 bdbb f552 93be
000000c0: 3736 c13d 8c71 5d3e 0aed c93e 01bc 94be
000000d0: c9e4 d5bd 4c1d a5be f359 e13e c0e4 ab3e
000000e0: 9379 a73e 10a6 62bb 4183 093e 5c92 ce3e
000000f0: 659e d23e 33af 143e f294 b03e 6be1 733e
00000100: 9a56 8dbe 7e4d 823e 131a 1a3e 9e98 683c
00000110: b710 7d3e 6a17 04be 067c ce3e eccf 393e
00000120: e09f 73be f3c4 09be 49d6 91be 2f7d 833d
00000130: 5c17 18be 4149 2cbe 7820 22be 18ca 10bf
00000140: 6b53 a6bd 6d77 d4be 5f76 9bbe 249b a33c
00000150: c233 28bf ffd2 103d fa4f a1bd 562f 95be
00000160: 9b70 b8be cc81 fabe 902b 0dbe 5ef6 efbe
00000170: 7347 aabd ca21 1d3d bfdb 9a3d 4e34 93be
00000180: 132c 1abe 04ea 9dbd ff99 19bf b102 efbe
00000190: 8755 01bf a6df dcbe 0b5b c7be 7433 c3bd
000001a0: 88f6 70bd 7261 b83c 43ba b1be 6d76 13bf
000001b0: 83af 0c3f 39f6 843e 8622 b2bd 04a5 b03e
000001c0: d291 c93e 6564 043f 8c5c d63e 825b 49be
000001d0: 1abe d13e 3a48 7d3e 19df 753d 2cd4 b63c
000001e0: 6309 8e3e 0491 3cbe e80a 5bbe d07a c93e
000001f0: 4298 1d3e 3767 593e 4525 8ebc ef13 0d3e
00000200: c6ba 0cbd 7602 bd3c c42b de3e 1e0a 633e
00000210: 031b 1fbe 967f 6938 4d15 ee3e 459f 3c3e
00000220: 8c14 8c3d 54af c13e 42d2 423e d575 a03e
00000230: d28e df3e ab04 ab3e f06f 113e 3c9c 26be
00000240: 99a4 ac3c 4755 0e3d f4d7 e1be a371 03bf
00000250: 1a7d 63be 26db eabe ab80 22bd 879a 34be
00000260: 0af4 acbc 7d65 88be 284d d73d 8fe3 0abe
00000270: 39f9 03bf 93d4 a2bd ffaf a5be 24cd f83d
00000280: 337d 87be 7a7f d83d 7181 97be 3192 11bf
00000290: 33d4 f5be bbb4 0bbf c2e2 4b3c a09a 85be
000002a0: fe04 f1be 302b b8be 68e0 eebe 2acc 0bbf
000002b0: 0f41 05bf b930 42be f342 7ebc 079d c6be
000002c0: 5f85 05bd 1a06 88be 431f 07bf 6733 20be
000002d0: 0b88 e83e ad7c 81bd b9fd 2e3e 7e45 3dbe
000002e0: 2de1 923e 5e81 2b3b 30c9 203d f320 c13e
000002f0: 2b4a 083f 2d48 b93e 75a6 2f3d f12f b73e
00000300: 3bc8 fe3e 86d2 393e 57d8 cd3e 06a9 33be
00000310: 6ddc 803e 7512 dc3e 7b43 2bbd c979 423e
00000320: 1251 913e 7522 b43e 2e77 7fbe 8dd4 293e
00000330: 229c a33e c371 603d 1831 a73b 601d d93d
00000340: 58cb 013f 7364 ef3e 6839 c3bd cdd5 20be
00000350: 0e4a f03e 0b28 8bbd e2b2 b73e 25c0 af3d
00000360: 78e3 363e 6071 3fbe 0a73 f53d a510 90be
00000370: 4ffe 753e 8580 b4bb 8507 bdbe 340f 603e
00000380: 716e 10bc 434d e8be 0705 8abe e28c f2bd
00000390: a449 e5bd 6395 2abd 11d7 c9bd 49a2 0cbf
000003a0: f888 b2be 5a93 fc3d 05c4 56be 3e40 d4bd
000003b0: eec4 a3be f893 143e 9543 ebbe 0b16 a7be
000003c0: 43d2 1cbe 5418 0bbe 2130 a5be cb4b cebe
000003d0: 5a66 3cbe b730 353e 96ec 78be b40b c1be
000003e0: fe83 063e ff82 80bd 02c3 d1bb cf20 0fbe
000003f0: f373 e5bc 1d0e 9cbc 347d 01be a5eb a43e
