experiments/oldruns12_14/PlainCNN_aniso_std0.1_gamma2_lr0.002/model.pt (torch, 109053 bytes, 18 tensors)

first.weight f4 [20, 1, 3, 3]
0	0xbf5fadef	-0.87374777
1	0x3d34a499	0.044102285
2	0x3ea09c1d	0.31369105
3	0xbe9201a9	-0.28516892
4	0x3d8d10c8	0.068879664
5	0x3db1530a	0.086584166
6	0x3e575498	0.21028364
7	0x3eb61ac3	0.35567293
8	0x3e2b3295	0.16718514
9	0xbecada81	-0.3961983
10	0xbdbd8820	-0.092544794
11	0x3de8a727	0.11360007
12	0xbe1d7ffe	-0.15380856
13	0xbe1d97f1	-0.15389992
14	0xbdeb0b07	-0.11476713
15	0xbdc4ab4c	-0.09602985
16	0xbe27cae5	-0.16385992
17	0xbedb2c97	-0.42807457
18	0x3e46edfe	0.19426724
19	0xbdf5a203	-0.11993792
20	0xbe3b24e3	-0.1827579
21	0x3dde9968	0.10869104
22	0xbd14577e	-0.03621625
23	0x3eac105e	0.33606237
24	0xbea8dfae	-0.32983154
25	0xbe954c3f	-0.29159734
26	0x3ea17549	0.31534794
27	0xbf0cf20a	-0.5505682
28	0xbee7ce7b	-0.4527472
29	0xbecc10c3	-0.39856538
30	0xbdc36ede	-0.095426306
31	0xbe0a6d8c	-0.13518351
32	0x3dc3c7d3	0.09559598
33	0x3e93da0c	0.28877294
34	0x3df76008	0.120788634
35	0x3e7e5160	0.2483573
36	0xbeb0327e	-0.34413522
37	0x3e54911c	0.2075848
38	0xb61d01bc	-2.3395833e-06
39	0x3e03b5ea	0.12862363
40	0x3cc3606a	0.023849685
41	0x3da0f3b8	0.07858986
42	0x3e731852	0.23739746
43	0xbeb3cbeb	-0.35116515
44	0xbe914505	-0.2837297
45	0x3e4b23f1	0.1983793
46	0xbec93e10	-0.39305162
47	0xbe4c56b5	-0.19954951
48	0x3e7cf24c	0.24701804
49	0x3e8ce52e	0.275186
50	0xbef38729	-0.47564057
51	0x3f0c6016	0.54834116
52	0x3e98d778	0.2985189
53	0xbf015c3b	-0.5053136
54	0xbea64178	-0.32471824
55	0xbd72e2e9	-0.05929843
56	0x3c3f2438	0.01166635
57	0xbe369368	-0.17829669
58	0x3d518999	0.051156614
59	0xbf329d31	-0.69771105
60	0xbf1d8507	-0.6153111
61	0xbe94a0ab	-0.2902883
62	0x3e9f44e2	0.3110724
63	0x3e372f1e	0.17889068
64	0x3eafb97b	0.34321198
65	0xbe8ec14e	-0.27881855
66	0x3e8317f5	0.25604215
67	0xbdc56a62	-0.096394315
68	0xbeb745ed	-0.35795537
69	0x3e22dd33	0.15904693
70	0xbeb1c158	-0.34717822
71	0xbe35c167	-0.17749558
72	0x3e1e1b2d	0.15440054
73	0xbb253f66	-0.002521479
74	0x3eb36602	0.35038763
75	0xbe1906fd	-0.14944072
76	0xbcedb982	-0.029019121
77	0x3eb9532d	0.3619627
78	0xbe330850	-0.1748364
79	0xbedb5c33	-0.4284378
80	0xbe07af80	-0.13250542
81	0x3e95111a	0.2911461
82	0x3dfddd1f	0.12395691
83	0xbef3af6c	-0.47594774
84	0x3e385f05	0.18004997
85	0xbd87d192	-0.06631769
86	0xbc72e4a2	-0.014825018
87	0x3e37f3d1	0.17964102
88	0xbe34b080	-0.17645454
89	0xbde27046	-0.11056571
90	0x3e2bb4d5	0.167682
91	0xbe83acaa	-0.2571767
92	0xbebc7292	-0.3680616
93	0x3e269818	0.16268957
94	0xbd0e41b9	-0.034730647
95	0xbe9ce062	-0.3063994
96	0xbe6eec50	-0.23332334
97	0xbe0a1c46	-0.13487348
98	0xbea47a5b	-0.321246
99	0x3e650909	0.22366728
100	0x3e0c68f3	0.1371191
101	0x3e8d9066	0.2764923
102	0x3ea695f7	0.3253629
103	0x3e9108fe	0.28327173
104	0xbde0d1e8	-0.109775364
105	0xbe81ef6d	-0.2537798
106	0x3e0c4403	0.1369782
107	0xbe8cf29f	-0.27528855
108	0x3bf6a4bd	0.0075269626
109	0x3cd20727	0.025638176
110	0xbf12f0db	-0.57398766
111	0x3d5be60e	0.053686194
112	0x3d5f74cb	0.05455474
113	0xbed5cbaa	-0.41756946
114	0x3e489e2c	0.19591588
115	0x3ed56c3c	0.4168414
116	0x3e378644	0.17922312
117	0x3e445b37	0.1917542
118	0x3e346a3e	0.17618653
119	0xbe721345	-0.23640163
120	0xbe40518e	-0.1878111
121	0x3eb4de65	0.35325924
122	0xbe857597	-0.26066276
123	0xbeffa109	-0.49927548
124	0x3d08b88e	0.03337913
125	0x3f00c573	0.50301284
126	0xbe1dd27b	-0.15412323
127	0x3e2c9d22	0.16856816
128	0xbe0bba7b	-0.13645355
129	0x3d08a501	0.033360485
130	0x3e30ec69	0.17277683
131	0x3e6e6151	0.23279311
132	0x3bade035	0.0053062686
133	0x3e357658	0.17720926
134	0xbf21daf8	-0.63224745
135	0x3de63fb0	0.11242616
136	0x3e2e18ad	0.170016
137	0x3ecabf38	0.39599013
138	0x3e47408d	0.19458218
139	0xbdbd351a	-0.09238644
140	0xbddb597c	-0.10710427
141	0x3e6a4806	0.22879037
142	0xbeb80fed	-0.3594965
143	0xbee903a0	-0.45510578
144	0x3c11ba1b	0.008894469
145	0x3e83e299	0.25758818
146	0x3ea205a3	0.31644925
147	0xbc6e0930	-0.014528558
148	0x3caf60e0	0.021408498
149	0x3e1a5613	0.15071897
150	0xbce11458	-0.027475521
151	0x3db57b19	0.0886137
152	0x3e149c3d	0.14512725
153	0xbe69c14c	-0.22827643
154	0x3e32ef61	0.17474128
155	0x3eef175b	0.46697506
156	0xbe9262ee	-0.28591102
157	0xbf3b4699	-0.731546
158	0xbeb17bfc	-0.34664905
159	0x3ed16e92	0.4090467
160	0x3da65849	0.08122308
161	0xbeccdb1d	-0.4001092
162	0x3f0b297d	0.5436018
163	0x3ee268c0	0.44220543
164	0xbe755ec9	-0.23961939
165	0xbe71e323	-0.23621802
166	0xbe24c865	-0.1609207
167	0x3d833e82	0.06408407
168	0xbec18ecc	-0.37804258
169	0xbdf940a7	-0.121705346
170	0x3d9bc8fc	0.07606694
171	0xbf063b5c	-0.52434325
172	0x3c49ef87	0.012325174
173	0x3d7d555b	0.06184898
174	0xbec40a9f	-0.38289353
175	0x3dda855a	0.10669966
176	0xbb6e1e61	-0.0036334025
177	0xbec3ba9d	-0.38228312
178	0xbec9b126	-0.39392966
179	0xbedf98ab	-0.43671164

first.bias f4 [20]
0	0xbd8800df	-0.06640791
1	0x3e89dc49	0.26925877
2	0xbc7c7201	-0.01540804
3	0x3e4b8c0e	0.19877645
4	0xbb5c3c13	-0.0033605143
5	0xbe0d3233	-0.1378868
6	0x3dcd733f	0.10031747
7	0x3debff68	0.11523324
8	0xbc221f0e	-0.009895099
9	0xbe08abc8	-0.1334678
10	0x3e233a2a	0.15940157
11	0xbeb28b06	-0.3487169
12	0xbd6f3c2e	-0.058407
13	0xbd817f4b	-0.06323107
14	0xbcb489e6	-0.022038411
15	0xbdb13942	-0.08653499
16	0xbe839962	-0.2570296
17	0xbbd5cdc4	-0.0065247733
18	0xbd304b78	-0.043040723
19	0x3ea5b365	0.3236343

hiddens.0.weight f4 [20, 20, 3, 3]
0	0xbd4110ec	-0.04713528
1	0x3d5fc515	0.05463131
2	0x3c90cd34	0.017675973
3	0x3c799d21	0.015235216
4	0x3e7428c4	0.23843676
5	0xbd27d185	-0.040971298
6	0x3da55714	0.080732495
7	0x3e4500fd	0.19238658
8	0x3de2ff30	0.110838294
9	0xbf6249c9	-0.8839384
10	0xbea74b1e	-0.32674497
11	0xbdc48e34	-0.095974356
12	0xbd801046	-0.06253104
13	0x3c9f80e3	0.019470638
14	0x3d92864e	0.07154523
15	0x3d4b9af6	0.04970833
16	0x3e1a31d0	0.15058064
17	0x3d3f6a9e	0.046732537
18	0x3d9078d9	0.070543
19	0xbe59faab	-0.21287028
20	0x3cfc8051	0.030822905
21	0x3eab65f1	0.33476213
22	0x3e29b4a5	0.16572817
23	0x3e6914ac	0.22761792
24	0x3e88c28a	0.26710922
25	0xbe2f7848	-0.17135727
26	0xbdf999b0	-0.12187517
27	0xbefab7cc	-0.4896835
28	0xbe4d2be4	-0.20036274
29	0xbdf6f904	-0.12059215
30	0xbd97e3de	-0.07416509
31	0x3dc1db81	0.09465695
32	0x3dc29906	0.09501843
33	0x3e325dc0	0.17418575
34	0x3d55d573	0.052205514
35	0x3c0e90bb	0.008701499
36	0xbdc9e68b	-0.09858426
37	0x3cce7428	0.025201872
38	0x3ead2606	0.33818072
39	0xbe55e79e	-0.20889136
40	0x3ea0b96c	0.31391466
41	0xbe16e266	-0.14734802
42	0xbec87640	-0.39152718
43	0xbea9fbf8	-0.3320005
44	0xbe437af2	-0.19089869
45	0x3ed34472	0.41263157
46	0x3e514427	0.20436154
47	0xbeb562b2	-0.3542686
48	0x3dae0214	0.0849649
49	0xbeae21be	-0.34010118
50	0xbf24937b	-0.6428754
51	0xbf8a273e	-1.0793226
52	0xbf844ee7	-1.0336579
53	0xbf1c8bc2	-0.61150753
54	0xbf5da3f5	-0.86578304
55	0xbe33f76d	-0.17574854
56	0xbe850803	-0.25982675
57	0xbea9a964	-0.33137047
58	0xbd8d83cb	-0.06909903
59	0xbdc62d11	-0.096765645
60	0xbd930c34	-0.07180062
61	0xbe17804b	-0.14795034
62	0xbbc1c9ce	-0.0059139496
63	0x3ed19238	0.4093187
64	0x3d4d9dec	0.050199434
65	0x3d3c39b0	0.045953453
66	0x3e7d6757	0.24746452
67	0x3d24fb92	0.04027898
68	0x3e24c877	0.16092096
69	0x3e068d0b	0.13139741
70	0x3dba986e	0.09111105
71	0xbd00f0c9	-0.03147963
72	0x3e0b140f	0.1358187
73	0x3d028ac3	0.031870615
74	0xbb08419f	-0.0020791066
75	0xbc1e6010	-0.009666458
76	0xbecde3af	-0.4021277
77	0xbe977fe9	-0.29589775
78	0xbdbb4cd0	-0.0914551
79	0xbe075321	-0.13215305
80	0x3d8be6d4	0.06831136
81	0x3eafae34	0.34312594
82	0xbc129055	-0.008945544
83	0x3cda4493	0.026644027
84	0x3e7a70a0	0.24457026
85	0x3d591979	0.05300281
86	0xbe04f197	-0.12982784
87	0xbd672f68	-0.056441694
88	0xbdc0aa89	-0.09407527
89	0xbe2dfc39	-0.16990747
90	0x3e1abd99	0.15111388
91	0xbcfb7e33	-0.030699825
92	0x3d6a809c	0.057251558
93	0x3e79d7ff	0.24398802
94	0x3d6f775b	0.058463436
95	0x3e85ab8d	0.26107445
96	0x3ea175e6	0.31535262
97	0x3dcafce9	0.0991152
98	0x3e38e1a2	0.18054822
99	0x3e8003b2	0.2500282
100	0x3da14238	0.07873958
101	0xbe16cac4	-0.14725786
102	0x3dad2728	0.08454734
103	0xbe355cb0	-0.17711139
104	0xbeb80fea	-0.3594964
105	0x3db90dfa	0.09035869
106	0xbee2c59e	-0.44291395
107	0xbeb2486c	-0.34820879
108	0x3dbebbf1	0.09313191
109	0x3d019d46	0.03164413
110	0xbefc5bfc	-0.49288929
111	0xbeb81c93	-0.359593
112	0xbec6e2fd	-0.38845053
113	0xbd8125ab	-0.06306013
114	0xbf2a438f	-0.66509336
115	0xbe1add6b	-0.15123527
116	0x3dbef1da	0.09323473
117	0xbbc3c487	-0.0059743556
118	0x3d93199e	0.071826205
119	0x3c7ac943	0.015306774
120	0x3d06938b	0.03285555
121	0x3e12beb1	0.14330555
122	0xbda98dbf	-0.08278989
123	0xbc0f6b1b	-0.008753563
124	0xbe52912d	-0.20563193
125	0xbbedba36	-0.007254864
126	0x3e0b8de6	0.13628349
127	0xbd26d9d3	-0.040735077
128	0xbce442b1	-0.027863832
129	0x3d3c62bc	0.045992598
130	0xbe8362ae	-0.25661224
131	0xbee217cf	-0.4415879
132	0xbe6aa491	-0.2291434
133	0xbe957b76	-0.29195756
134	0xbe3139f4	-0.17307264
135	0x3ebd223b	0.36940178
136	0x3d9e25a5	0.07722024
137	0x3d35f54b	0.044423383
138	0x3c7bd1d7	0.015369854
139	0xbdd36881	-0.10322667
140	0xbd02e679	-0.031958077
141	0xbdbe1954	-0.09282175
142	0xbea3b43f	-0.31973454
143	0xbe22820a	-0.15869918
144	0xbb33109c	-0.0027323132
145	0xbe051bdf	-0.12998913
146	0xbe42500d	-0.1897585
147	0xbdd14daa	-0.10219891
148	0xbf0482b6	-0.5176195
149	0xbea78307	-0.32717153
150	0xbe6be5d2	-0.23036888
151	0xbec71ff7	-0.38891575
152	0xbe2b0abc	-0.16703314
153	0xbe82480e	-0.25445598
154	0xbe9ff808	-0.3124392
155	0xbed293d5	-0.41128412
156	0xbde3e16d	-0.11126981
157	0x3d425b39	0.047450278
158	0xbdbc34ba	-0.09189744
159	0xbf0e469a	-0.5557648
160	0xbf0f7bd0	-0.560483
161	0xbe88144c	-0.26577985
162	0x3edc51dc	0.43031204
163	0x3e8f4b12	0.27986962
164	0x3da077e8	0.0783537
165	0x3f039cb1	0.5141097
166	0x3e06adb8	0.13152206
167	0xbea1bd5a	-0.31589776
168	0x3eae756a	0.34073955
169	0x3de966db	0.11396571
170	0xbeb24f94	-0.34826338
171	0xbf4300e2	-0.7617322
172	0xbe63d226	-0.22248134
173	0xbe175133	-0.14777069
174	0xbe4d1921	-0.20029117
175	0x3d81b7e2	0.06333901
176	0xbc56450c	-0.0130779855
177	0x3d94b40b	0.07260903
178	0x3dd826d8	0.10554284
179	0x3e15fa3e	0.14646241
180	0xbdd01b67	-0.101614766
181	0xbd44477b	-0.04791973
182	0xbd4c286e	-0.049843244
183	0x3cbffb79	0.023435341
184	0xbcd42d37	-0.025900466
185	0xbc48d811	-0.0122585455
186	0x3d91d3d7	0.07120483
187	0x3a07ee35	0.0005185337
188	0xbcd9567a	-0.026530493
189	0xbd922f4a	-0.07137926
190	0xbd6bc237	-0.057558265
191	0xbd81f260	-0.063450575
192	0xbd70c27f	-0.058779236
193	0xbda8a396	-0.082343265
194	0x3bae8382	0.0053257355
195	0xbd257b7f	-0.04040098
196	0x3d3dde18	0.046354383
197	0xbcc68f8a	-0.024238367
198	0xbd318f68	-0.043349653
199	0xbd8fbb61	-0.070181616
200	0x3cf328c3	0.029682523
201	0xbdb5cea3	-0.088773035
202	0xbd0a5744	-0.03377463
203	0xbbbfe7df	-0.0058564986
204	0x3bfa6e6c	0.007642558
205	0x3d3bb496	0.045826517
206	0x3d595e8d	0.053068686
207	0xbdc492e7	-0.09598332
208	0xbdd80391	-0.10547555
209	0xbcb5d6ce	-0.022197153
210	0xbd922533	-0.071360014
211	0xbcaaf530	-0.020868868
212	0xbd655e4a	-0.055998124
213	0xbd8bfd58	-0.06835431
214	0xbd9cc9d7	-0.076556854
215	0xbd04f820	-0.032463193
216	0xbc9b75a2	-0.01897699
217	0xbd9b72b7	-0.075902395
218	0xbdd3fa68	-0.103504956
219	0xbd7c1941	-0.06154752
220	0x3d950c58	0.07277745
221	0xbbdb3222	-0.006689326
222	0x3ccc9133	0.02497158
223	0x3d8bbb04	0.0682278
224	0x3bf74317	0.0075458395
225	0xbde6163c	-0.112347096
226	0xba1cd2e3	-0.00059823523
227	0x3d87c6e7	0.066297345
228	0xbd535168	-0.051591307
229	0xbd9e6fa7	-0.0773614
230	0xbc9d1ad9	-0.019177841
231	0x3d90e2e0	0.07074523
232	0xbc04a252	-0.008095341
233	0x3b6ebf70	0.0036430024
234	0x3ba1a76a	0.0049332874
235	0x3d3297d3	0.043601822
236	0x3c454874	0.0120412
237	0x3c72a32d	0.014809412
238	0x3cb2a14f	0.021805434
239	0x3c19286a	0.009348014
240	0x3d63a28d	0.055574942
241	0x3cf1a6bd	0.029498452
242	0xbcf0d5f2	-0.029398892
243	0xbcf72e1d	-0.030173356
244	0x3c28f859	0.010313117
245	0xbd3515cb	-0.044210237
246	0xbd7185ef	-0.05896562
247	0xbda36f3b	-0.079802
248	0x3c0596fd	0.008153674
249	0x3cfade57	0.030623598
250	0xbde4a79e	-0.11164783
251	0xbdbd512a	-0.092439964
252	0x3d05c446	0.032657884
253	0xbce842f2	-0.028352235
254	0xbd49c3ef	-0.049259122
255	0xbd83af0a	-0.064298704

hiddens.0.bias f4 [20]
0	0x3df7b3c8	0.120948374
1	0xbdbbf00b	-0.09176644
2	0xbc68da6c	-0.014212232
3	0x3dbeb5f2	0.09312047
4	0x3e1ac7ed	0.15115328
5	0x3d9bcacc	0.0760704
6	0x3d439ed0	0.047758877
7	0xbb4d7618	-0.0031350907
8	0x3dd1baa4	0.10240677
9	0x3c52497c	0.012834903
10	0xbcda4453	-0.026643908
11	0xbd3448a6	-0.044014595
12	0x3cea83ac	0.02862724
13	0x3e0ad93d	0.13559432
14	0x3d0e693e	0.034768336
15	0x3e8215a0	0.25407124
16	0x3b6f4ece	0.0036515477
17	0x3d02db49	0.031947408
18	0x3e1925e7	0.14955865
19	0xbdef1aba	-0.116750196

hiddens.2.weight f4 [20, 20, 3, 3]
0	0x3d4e1912	0.050316878
1	0x3d9aa9dc	0.07551929
2	0xbe144e9d	-0.14483114
3	0x3e902ae5	0.28157726
4	0xbd7ef143	-0.062241804
5	0x3dc642f4	0.09680739
6	0x3ed6f0dd	0.4198064
7	0xbe1d2af6	-0.1534842
8	0xbdc94355	-0.09827296
9	0x3ca09102	0.019600395
10	0xbd604fcd	-0.054763604
11	0x3d8f5706	0.0699902
12	0x3d39ffa4	0.045409814
13	0x3d359b93	0.04433782
14	0x3ccdd722	0.025126997
15	0x3d65f892	0.05614526
16	0xbcbd13d2	-0.02308074
17	0xbd15b3d8	-0.036548465
18	0x3d5bb3cf	0.053638276
19	0xbd280e18	-0.041029066
20	0xbc87a87d	-0.016559834
21	0x3d7c1f90	0.061553538
22	0x3cc1d7a0	0.023662388
23	0x3d524450	0.05133468
24	0x3cff39f0	0.031155556
25	0x3c56d2ea	0.013111809
26	0xbbcec094	-0.006309578
27	0x3ddef3e7	0.108863644
28	0xbdb096e8	-0.08622533
29	0xbeb88dbd	-0.36045638
30	0x3e165502	0.14680865
31	0x3d85fc0a	0.06542213
32	0x3e39b4f8	0.1813544
33	0xbe4e1aee	-0.2012746
34	0xbde29503	-0.11063578
35	0xbe6757cf	-0.2259209
36	0xbd9b0ab0	-0.07570398
37	0xbd7f2290	-0.06228882
38	0xbe0570a2	-0.13031247
39	0xbcac8c3f	-0.021062968
40	0x3dc3df69	0.095640965
41	0xbde3520a	-0.11099632
42	0x3db9807b	0.09057709
43	0x3dc7ff16	0.09765451
44	0xbddef37b	-0.10886284
45	0xbec0b433	-0.3763748
46	0xbe4f594f	-0.20248912
47	0xbe839f86	-0.25707644
48	0xbf10d790	-0.5657892
49	0xbe60a86d	-0.2193925
50	0x3e07f562	0.132772
51	0xbf27cc8a	-0.65546477
52	0xbe2b4085	-0.16723831
53	0xbe5c8271	-0.21534134
54	0xbe69836a	-0.22804037
55	0xbe0bec85	-0.13664444
56	0x3c8cdbd3	0.017194664
57	0xbe5e8746	-0.2173129
58	0x3d259d3d	0.040433157
59	0x3e244f30	0.16045833
60	0xbf24bf61	-0.6435452
61	0xbe09a4cf	-0.13441776
62	0xbccadf13	-0.024764573
63	0x3cf0a6a0	0.029376328
64	0xbce3ad17	-0.027792497
65	0xbe0786b5	-0.1323498
66	0xbc3bfb55	-0.011473496
67	0x3b3e1349	0.0029003194
68	0x3e1acf7c	0.15118212
69	0xbea4625b	-0.3210629
70	0x3dad9907	0.08476453
71	0xbdfb7527	-0.122782044
72	0x3d830042	0.063965335
73	0xbe59778c	-0.2123701
74	0xbecab723	-0.39592847
75	0x3c859eff	0.016311167
76	0xbc5ab8fe	-0.01334977
77	0x3c9e6f94	0.019340314
78	0xbe490ca6	-0.19633731
79	0x3d932eee	0.071866855
80	0x3d45f170	0.048325956
81	0x3e8bdd72	0.27317387
82	0x3e5d739e	0.21626136
83	0x3e5156eb	0.20443313
84	0x3e9103d1	0.28323224
85	0x3e50f528	0.2040602
86	0x3e54c920	0.20779848
87	0x3e1022a3	0.14075713
88	0x3dd6c722	0.104872
89	0x3db08d37	0.086206846
90	0xbd794754	-0.06085904
91	0xbd3f4a18	-0.04670152
92	0xbd7ea5c3	-0.0621698
93	0xbd06b095	-0.032883245
94	0x3b9b9437	0.004747893
95	0xbdb3ba92	-0.0877582
96	0xbd8b1716	-0.06791513
97	0xbc1f85a8	-0.009736456
98	0xbdaba225	-0.08380536
99	0xbd729571	-0.05922455
100	0xbc29ecd7	-0.010371408
101	0x3ca42a04	0.020039566
102	0x3d62b345	0.055346746
103	0xbc99ed0b	-0.018789789
104	0xbc853e89	-0.01626517
105	0xbcde4a9e	-0.02713519
106	0x3da2eeda	0.079557136
107	0xbb832013	-0.0040016263
108	0xbc9f2cff	-0.019430635
109	0x3bba2f24	0.005681889
110	0x3d6c9c28	0.05776611
111	0xbc02ccb8	-0.007983379
112	0xbd07131c	-0.03297721
113	0xbcfc8db0	-0.03082928
114	0x3ca08838	0.019596204
115	0x3cca7aeb	0.024716815
116	0xbbe74aab	-0.0070584617
117	0x3d9b629e	0.07587169
118	0x3d1a4510	0.03766352
119	0xbdb0a2c0	-0.08624792
120	0xbb9f96a6	-0.0048702536
121	0xbd149b6a	-0.036281027
122	0xbb9e51fc	-0.0048315506
123	0x3b8e84f7	0.0043493467
124	0xbcd77f77	-0.026305897
125	0xbe2ecea0	-0.17071009
126	0xbe2a43d6	-0.1662744
127	0xbd2359dd	-0.039880622
128	0xbd8512d8	-0.06497735
129	0xbd404e7e	-0.046949856
130	0x3c6087ed	0.013704282
131	0xbd930e09	-0.07180411
132	0xbe30f170	-0.17279601
133	0xbe282179	-0.16419019
134	0x3d079279	0.03309867
135	0xbee27d04	-0.44236004
136	0xbd83416b	-0.06408962
137	0x3de059d2	0.10954632
138	0xbee3089a	-0.443425
139	0x3e525c11	0.20542933
140	0x3e73f931	0.23825528
141	0x3d420376	0.04736658
142	0x3e4f6d1b	0.20256464
143	0x3dcf8f3e	0.10134743
144	0x3e06183e	0.13095185
145	0x3dcba758	0.09944028
146	0x3e0160c6	0.12634572
147	0x3d84fd01	0.06493569
148	0xbdd6f01f	-0.10495018
149	0x3e0a4a20	0.13504839
150	0xbc95f012	-0.018302951
151	0xbd4be09b	-0.049774747
152	0x3e2dfb4d	0.16990395
153	0xbe08272b	-0.13296191
154	0xbd6547a0	-0.05597651
155	0xbdd3b8f9	-0.10338015
156	0x3d142682	0.036169536
157	0xbd313d31	-0.043271247
158	0xbde8e60d	-0.11372004
159	0x3d873e70	0.06603706
160	0xbddbd9c9	-0.107348986
161	0xbe7be7a3	-0.24600081
162	0x3e732969	0.23746265
163	0x3e86f53e	0.2635898
164	0xbea22d42	-0.31675154
165	0x3e98f920	0.29877567
166	0x3e1f98a0	0.15585566
167	0xbe170703	-0.14748769
168	0x3dfb59e0	0.12273002
169	0x3e11be35	0.14232714
170	0xbe8199cb	-0.25312647
171	0x3d37ae1a	0.04484377
172	0x3be98056	0.0071258945
173	0xbb409a2c	-0.0029388769
174	0xbd89d3d4	-0.06729856
175	0x3d13af2b	0.036055725
176	0xbd5448fe	-0.051827423
177	0xbd265e0a	-0.040617026
178	0xbb5fb545	-0.0034135145
179	0x3d0487b8	0.032355994
180	0xbd8f1793	-0.06986918
181	0xbc2760a2	-0.01021591
182	0xbc9595b2	-0.018259857
183	0xbd9bf774	-0.07615557
184	0xbc92fda3	-0.017943209
185	0x3c2673b7	0.0101594245
186	0xbd3a114a	-0.045426644
187	0xbd6f74e5	-0.05846109
188	0x3d96f664	0.07371214
189	0xbd501a76	-0.050806485
190	0x3d4134cb	0.047169488
191	0xbd5039a5	-0.050836224
192	0x3d8241d6	0.063602135
193	0x3d4b9928	0.049706608
194	0xbd37d63c	-0.044882044
195	0xbd8784ee	-0.06617151
196	0xbd6ea9f7	-0.05826756
197	0x3c38bfb9	0.011276179
198	0xbc7396b5	-0.014867474
199	0xbc36188b	-0.01111425
200	0x3d4c6e8e	0.04991012
201	0xbd20a8ee	-0.039223604
202	0xbc1828f2	-0.009287106
203	0x3c811201	0.015755655
204	0x3d76d390	0.060260355
205	0x3d29714e	0.04136782
206	0xbc22eac8	-0.0099436715
207	0xbd11ff0e	-0.03564363
208	0xbd775658	-0.06038508
209	0xbd88e39f	-0.0668404
210	0xbdbc127c	-0.09183213
211	0xbddac376	-0.106818125
212	0xbd19d057	-0.037552204
213	0xbc551419	-0.01300528
214	0xbda46617	-0.080272846
215	0xbd35d30b	-0.04439072
216	0xbcfc38d7	-0.030788822
217	0xbb7d87e1	-0.0038685726
218	0xbe025a6a	-0.12729803
219	0xbdce23c0	-0.100654125
220	0xbc56104c	-0.013065409
221	0xbd417a6e	-0.0472359
222	0x3c9c47b0	0.019077152
223	0xbd1f9b85	-0.038966674
224	0xbdc7c057	-0.09753483
225	0xbd986a16	-0.07442109
226	0xbc3cff36	-0.011535456
227	0xbccaf1ce	-0.024773505
228	0xbbca5232	-0.006174349
229	0x3ca62809	0.020282762
230	0xbcd0592f	-0.025433151
231	0xbcbf998f	-0.023388652
232	0x3cdef03d	0.027214164
233	0xbe04018a	-0.12891212
234	0xbe0e4c71	-0.13896348
235	0xbd3205eb	-0.043462675
236	0x3d585529	0.05281559
237	0xbd8075b0	-0.06272447
238	0xbdbe8247	-0.09302192
239	0xba8b866a	-0.0010644917
240	0xbc94e8eb	-0.01817747
241	0xbd65e9ed	-0.056131292
242	0xbcc1d639	-0.02366172
243	0xbd66c86c	-0.05634348
244	0xbd9827e0	-0.074294806
245	0xbda803b7	-0.082038336
246	0xbceb63c2	-0.028734092
247	0xbd90810b	-0.07055863
248	0xbd090953	-0.033456158
249	0xbd850a5a	-0.06496115
250	0xbcf6275b	-0.030048063
251	0xbc6192a9	-0.013767877
252	0xbdc3563e	-0.09537934
253	0xbd135cc2	-0.035977133
254	0xbd81d3ee	-0.063392505
255	0xbd9cb8c0	-0.07652426

hiddens.2.bias f4 [20]
0	0x3d56a78b	0.052405875
1	0xbda63fa2	-0.08117606
2	0x3e69cea7	0.22832738
3	0x3da8467d	0.082165696
4	0xbdf22477	-0.11823361
5	0x3e1c1a09	0.15244307
6	0xbd0b0915	-0.03394421
7	0x3dae4079	0.08508391
8	0x3e24e515	0.16103013
9	0x3c191a6f	0.009344681
10	0x3e205abe	0.15659615
11	0x3c4efa1e	0.012632875
12	0x3c85f772	0.016353343
13	0xbd97e14e	-0.0741602
14	0xbdbce8d1	-0.09224094
15	0x3e0a14b7	0.13484465
16	0xbc8c45c8	-0.017123118
17	0x3e2c70fe	0.16839978
18	0x3e104b1e	0.14091155
19	0x3cdd6450	0.027025372

hiddens.4.weight f4 [20, 20, 3, 3]
0	0xbcf3ee8e	-0.029776838
1	0xbd174a97	-0.03693637
2	0xbe6bb691	-0.23018862
3	0x3de0bcbf	0.109735005
4	0xbded6e96	-0.11593358
5	0xbdd70f7a	-0.10500999
6	0xbe05a037	-0.13049398
7	0xbddbfb29	-0.107412644
8	0xbdd8653a	-0.105661824
9	0x3c87e6cf	0.01658955
10	0xbdb44063	-0.08801343
11	0xbd38edb9	-0.045148585
12	0xbc5b7996	-0.013395688
13	0xbd87e53d	-0.066355206
14	0x3d662106	0.056183837
15	0x3d162c17	0.03666314
16	0xbd8e3220	-0.06943154
17	0x3c6c957b	0.014439936
18	0x3d6fab05	0.058512706
19	0xbd64e64c	-0.05588369
20	0xbc2cbce8	-0.010543086
21	0xbd4e3c2b	-0.05035035
22	0xbd0fac3e	-0.035076372
23	0x3cfe1c1a	0.03101926
24	0x3d7baf3a	0.061446406
25	0x3cc2ebb5	0.023794034
26	0xbc3c180c	-0.011480343
27	0xbd23178d	-0.03981738
28	0x3cb1b396	0.021692079
29	0xbd660218	-0.05615434
30	0xbd3ad3b9	-0.04561207
31	0xbc87f28e	-0.016595151
32	0xbdff7fad	-0.12475524
33	0xbdb9f068	-0.09079057
34	0xbd87b40e	-0.066261396
35	0xbd19ee1a	-0.037580587
36	0x3d1e0276	0.038576566
37	0x3d7596c0	0.05995822
38	0x3c472ce9	0.0121567035
39	0x3aa02d04	0.0012220447
40	0xbb1be2cf	-0.0023786312
41	0x3d330322	0.04370416
42	0x3d817a3e	0.06322144
43	0x3b864024	0.0040970016
44	0xbd55cd3e	-0.052197687
45	0xbc4e7971	-0.012602196
46	0xbdbeff84	-0.093260795
47	0xbcf3375e	-0.029689487
48	0xbd6859b8	-0.056726187
49	0xbe06da20	-0.13169146
50	0xbd049e92	-0.032377787
51	0x3d87da4e	0.06633435
52	0xbd7a38e8	-0.061089426
53	0xbad28ffd	-0.001606464
54	0xbd2d2294	-0.042269304
55	0xbc3dbf9a	-0.011581326
56	0xbc1dd201	-0.009632588
57	0xbd960281	-0.07324696
58	0xbcec4553	-0.02884165
59	0xbc346f4a	-0.0110128615
60	0x3cb014f5	0.021494368
61	0x3d7e5c1f	0.062099572
62	0xbd496fec	-0.049179003
63	0x3ca1aa82	0.019734625
64	0xbd189226	-0.037248753
65	0xbe317ab4	-0.17331964
66	0xbdaaf04b	-0.083466135
67	0xbca9eb2e	-0.020742025
68	0xbb99ec50	-0.00469736
69	0xbd71d654	-0.05904229
70	0xbd3f73bd	-0.046741236
71	0xbda672b6	-0.08127348
72	0xbce36693	-0.027758872
73	0xbd7cfafa	-0.061762787
74	0xbd013a81	-0.031549934
75	0xbe1030cd	-0.14081116
76	0xbd8edfe5	-0.06976298
77	0xbda75f66	-0.08172493
78	0xbdc6229c	-0.0967457
79	0xbe057f8e	-0.1303694
80	0xbe102931	-0.14078213
81	0xbcfe4001	-0.031036379
82	0xbca8f422	-0.020624224
83	0x3d0bd2c7	0.03413656
84	0xbd558b8f	-0.052135047
85	0xbd9ec496	-0.077523395
86	0xbd04994d	-0.03237276
87	0xbe763e40	-0.24047184
88	0xbe2b206e	-0.1671159
89	0xbc0c8236	-0.008575967
90	0x3cad4ffa	0.0211563
91	0x3a937a73	0.0011251703
92	0xbdc6fd4c	-0.09716281
93	0xbd1c7c60	-0.03820455
94	0xbcd4ba0a	-0.025967617
95	0x3cd7dd6e	0.026350703
96	0xbd982fc4	-0.074309856
97	0xbe2d917f	-0.16950034
98	0xbe164a3c	-0.14676756
99	0xbe14ef1a	-0.14544335
100	0xbd690849	-0.056892667
101	0x3d0311a5	0.03199925
102	0xbd89fb2e	-0.06737362
103	0xbd841c13	-0.06450667
104	0xbe08be77	-0.13353907
105	0x3ce0681f	0.027393399
106	0xbe2809cc	-0.16409987
107	0xbdd2b622	-0.10288645
108	0xbc13cd22	-0.009021075
109	0x3d96ce40	0.07363558
110	0xbd90db7d	-0.07073114
111	0xba3c11d4	-0.00071742875
112	0x3d9b7886	0.075913474
113	0xbd9a658b	-0.07538899
114	0xbd122ba4	-0.03568615
115	0xbd57359e	-0.052541368
116	0xbd4f36c4	-0.050589338
117	0xbcc962aa	-0.02458318
118	0x3d40676a	0.046973623
119	0x3c948f28	0.018134668
120	0x3d738777	0.05945536
121	0xbd078819	-0.033088777
122	0xbd9070b1	-0.07052744
123	0x3d3bc56c	0.045842573
124	0xbd621e3b	-0.05520461
125	0xbd988074	-0.074463755
126	0xbc0be5bf	-0.008538662
127	0xbd1f5430	-0.038898647
128	0x3c31296f	0.010813101
129	0xbd0ae2cc	-0.033907697
130	0xbc8dd531	-0.017313572
131	0xbd473564	-0.0486349
132	0xbc7d0fd3	-0.015445667
133	0xbcc0f3e0	-0.023553789
134	0xbd50277a	-0.050818898
135	0x3b143903	0.002261699
136	0xbd3f167d	-0.046652306
137	0xbe043e7b	-0.1291446
138	0xbb9f346d	-0.0048585446
139	0xbd0a4314	-0.033755377
140	0xbccc90e6	-0.024971437
141	0xbd183fd5	-0.03717025
142	0x3c4e126f	0.012577637
143	0xbe13bee7	-0.14428292
144	0xbd1a58dd	-0.037682403
145	0x3c973ef1	0.01846263
146	0xbe0eb9f7	-0.13938127
147	0x3c61cbae	0.013781471
148	0x3d3889f5	0.04505344
149	0xbdfc178a	-0.12309177
150	0x3d891c0e	0.06694804
151	0xbd2609ee	-0.040536813
152	0xbd717a14	-0.058954313
153	0xbd9b5715	-0.07584969
154	0xbd905894	-0.07048145
155	0xbdfd1fc9	-0.12359578
156	0xbdc9aec5	-0.09847788
157	0xbe06dbe9	-0.13169827
158	0xbda2a900	-0.079423904
159	0xbda957dd	-0.08268712
160	0xbd00c837	-0.03144094
161	0xbe1dd6c0	-0.15413952
162	0xbcc0ab65	-0.023519227
163	0xb775d50c	-1.4652742e-05
164	0xbe02ea5d	-0.12784715
165	0xbde5816f	-0.11206328
166	0xbd5f5787	-0.054526832
167	0xbdabb8c5	-0.08384851
168	0xbda09f9a	-0.078429416
169	0xbd20a2b7	-0.039217677
170	0xbe2c19c7	-0.16806708
171	0x3b6f9212	0.003655557
172	0xbd7c9982	-0.061669834
173	0xbd131be4	-0.03591527
174	0xbdbfc9f0	-0.093646884
175	0x3ce2b247	0.0276729
176	0xbdcd0704	-0.10011104
177	0xbd488a4e	-0.048960023
178	0xbd97d5b2	-0.07413806
179	0xbd72dc05	-0.05929186
180	0xbdab5613	-0.08366027
181	0xbd91a3e5	-0.071113385
182	0x3cbe7178	0.023247465
183	0xbd76796b	-0.060174387
184	0x3c829042	0.015937928
185	0xbc20d852	-0.0098172
186	0xbd56a62e	-0.052404575
187	0x3cfef69d	0.031123454
188	0xbd4aa48b	-0.049473327
189	0xbd88ef94	-0.06686321
190	0xbda9dfdf	-0.08294653
191	0x3d4e71ed	0.050401617
192	0xbcf1c778	-0.02951406
193	0xbcb05c74	-0.02152846
194	0xbd4b173f	-0.049582716
195	0xbd4db769	-0.05022374
196	0x3d263209	0.04057506
197	0xbda7f729	-0.08201439
198	0xbd43822f	-0.047731575
199	0xbc403c9a	-0.011733199
200	0x3b88c4fa	0.004173872
201	0x3b5db9ed	0.0033832744
202	0xbc82e3ec	-0.015977822
203	0xbc25f239	-0.010128551
204	0xbd32ca8e	-0.043650202
205	0xbd6faa56	-0.058512054
206	0x3d3a2165	0.045442004
207	0x3d59974c	0.053122804
208	0x3c8b8538	0.017031297
209	0xbc9f3e85	-0.019438991
210	0xbd0b9eda	-0.03408704
211	0xbb9cb190	-0.0047819093
212	0x3da21e47	0.07915931
213	0x3b7ea327	0.003885457
214	0x3af13636	0.0018402997
215	0x3d076474	0.033054784
216	0xbd878f3f	-0.06619119
217	0x3d80a69f	0.062817805
218	0xbd3dc10d	-0.046326686
219	0xbd503236	-0.050829135
220	0xbd1a8088	-0.037720233
221	0xbd6c40d8	-0.057679027
222	0xbbe56f8b	-0.0070018223
223	0x3cee54f1	0.029093238
224	0xbd85cbe3	-0.06533029
225	0xbcf6e71c	-0.030139498
226	0x3d158be9	0.03651038
227	0xbd2f87aa	-0.04285399
228	0xbb68b725	-0.0035509553
229	0xbdc4a786	-0.09602265
230	0x3ba21016	0.0049457652
231	0x3d52852f	0.051396545
232	0xbda06e3a	-0.07833524
233	0x3c973d24	0.018461771
234	0x3bb3c9f1	0.00548672
235	0xbd261319	-0.040545557
236	0x3d26a8ef	0.04068845
237	0xbd068ce3	-0.032849204
238	0x3cba70bc	0.022758834
239	0xbdad2156	-0.08453624
240	0x3c79226a	0.015205959
241	0xbd12ff42	-0.035887964
242	0xbd4d5c5d	-0.050136913
243	0xbd885b48	-0.066580355
244	0xbdc8cc9b	-0.098046504
245	0xbd2ece15	-0.042677004
246	0xbd0ff638	-0.035146922
247	0x3d3b5ffd	0.04574584
248	0xbd6279f7	-0.055292096
249	0x3d29b27b	0.041429978
250	0xbbd8c4c5	-0.0066152536
251	0xbc024f19	-0.007953429
252	0x3c2c7ab4	0.010527302
253	0xbd3b13ad	-0.04567306
254	0xbd8eff0a	-0.069822386
255	0x3cf95bbd	0.030439252

hiddens.4.bias f4 [20]
0	0xbdd0e66d	-0.102002
1	0x3c070763	0.008241507
2	0x3eaf75fa	0.34269696
3	0xbe171cc6	-0.1475707
4	0xbdf905a7	-0.12159281
5	0x3c767ca3	0.015044364
6	0xbe513dfb	-0.204338
7	0x3df7fb18	0.12108439
8	0x3c80abc9	0.015706914
9	0xbc748471	-0.014924155
10	0xbda2529e	-0.07925914
11	0xbde54be1	-0.111961134
12	0xbd3195bc	-0.04335569
13	0x3cf573bb	0.029962411
14	0x3dc4c155	0.09607188
15	0x3e2bc834	0.1677559
16	0x3e1bd3e8	0.15217555
17	0x3e71fc2c	0.23631352
18	0x3d9de0ae	0.0770887
19	0xbde7252a	-0.11286385

hiddens.6.weight f4 [20, 20, 3, 3]
0	0xbcf902aa	-0.030396778
1	0xbd942fd6	-0.072356865
2	0x3cbd4cf1	0.023107978
3	0xbd37dc46	-0.044887803
4	0x3d82dd14	0.063898236
5	0x3d2f78d6	0.042839848
6	0x3d153e61	0.036436442
7	0xbc7c1256	-0.015385231
8	0xbd91829f	-0.07104992
9	0x3d90ed4d	0.070765115
10	0xbd464d7b	-0.048413735
11	0x3cb9d657	0.022685213
12	0xbaac3e12	-0.0013141057
13	0x3d54e666	0.051977538
14	0x3ac45905	0.0014980143
15	0x3d941878	0.072312295
16	0xbd08dcec	-0.033413813
17	0xbd2f0729	-0.042731438
18	0x3e3ad1ab	0.18244044
19	0x3e81d194	0.25355208
20	0x3c41ac27	0.0118208295
21	0x3cc48755	0.023990313
22	0xbeef77d9	-0.46771124
23	0xbefba78d	-0.4915127
24	0x3e6affda	0.22949162
25	0xbbff78f7	-0.0077964026
26	0xbdc10a28	-0.09425765
27	0x3dd7fa97	0.10545843
28	0x3d940486	0.07227425
29	0xbd76a671	-0.060217325
30	0xbc166491	-0.00917925
31	0x3d446793	0.04795034
32	0x3d58bc76	0.052914105
33	0xbcf75c21	-0.030195298
34	0xbcb7f8d4	-0.022457518
35	0x3d93e9ca	0.07222326
36	0xbd2320df	-0.03982627
37	0x3d7eb13f	0.062180754
38	0xbd9621fb	-0.073307
39	0x3d6b2c2d	0.057415176
40	0xbd50d45a	-0.050983764
41	0xbd05d591	-0.032674376
42	0xbd63b6af	-0.055594143
43	0xb99e58a2	-0.00030202145
44	0x3d06e30f	0.032931384
45	0xbe3456ba	-0.17611209
46	0x3d0f9d27	0.03506198
47	0x3e9a0402	0.30081183
48	0xbe83f6d7	-0.2577426
49	0x3d93685c	0.07197639
50	0x3e7a7435	0.24458392
51	0x3eac0741	0.33599284
52	0x3d912ebe	0.070889935
53	0x3efec977	0.4976308
54	0xbefb9698	-0.4913833
55	0x3e9c18e4	0.3048774
56	0x3ecf9b60	0.4054823
57	0xbea8b0ee	-0.32947487
58	0x3d0ac905	0.033883113
59	0x3ee16242	0.44020277
60	0x3e9f7f29	0.31151703
61	0x3dc85b13	0.09782996
62	0x3dca621a	0.09881993
63	0xbd725ac9	-0.05916861
64	0xbe7cf44a	-0.24702564
65	0xbd178ecf	-0.037001427
66	0xbe16b77b	-0.1471843
67	0xbeee96a0	-0.46599293
68	0xbe0726ad	-0.13198347
69	0xbc4038c6	-0.011732286
70	0xbdf6b8d6	-0.120469734
71	0xbe4f0ee2	-0.20220521
72	0xbd5f557a	-0.054524876
73	0xbd993f4f	-0.07482778
74	0xbbf10b2e	-0.007356069
75	0xbdbbac41	-0.09163714
76	0xbe94abe8	-0.29037404
77	0xbf039f79	-0.5141521
78	0xbe75b052	-0.23993042
79	0xbe7dd52f	-0.24788354
80	0xbe0ce49b	-0.13759081
81	0x3e9ab144	0.30213368
82	0x3ecb8842	0.39752394
83	0x3d3fac7a	0.046795346
84	0x3d2d6144	0.042329088
85	0xbda2aae3	-0.0794275
86	0xbcb8514b	-0.022499701
87	0x3d8d1f6a	0.068907574
88	0x3e43b524	0.19112068
89	0xbd036eb4	-0.032087997
90	0xbaaa569b	-0.0012995781
91	0x3d85e4ce	0.06537782
92	0x3d405e02	0.046964653
93	0x3d804576	0.062632486
94	0xbd006f2c	-0.03135602
95	0x3bfc1f36	0.0076941503
96	0x3d83e636	0.064403936
97	0x3d6d87ef	0.057990965
98	0x3caf5a5a	0.021405388
99	0xbd584f08	-0.052809745
100	0xbd1123a2	-0.035434373
101	0xbc27f620	-0.010251552
102	0x3c4de7f6	0.012567511
103	0x3d1eaf26	0.038741253
104	0x3d86443c	0.065559834
105	0xbd1d3456	-0.03837999
106	0x3d60aab6	0.054850303
107	0x3c67d578	0.014150016
108	0xbd94a773	-0.07258501
109	0xbcee0fec	-0.029060327
110	0x3d51b5e8	0.05119887
111	0xbcbc5b09	-0.022992628
112	0x3cc4ff37	0.024047477
113	0x3c9d0ece	0.019172098
114	0xbd3bbd41	-0.045834783
115	0xbd971b04	-0.073782
116	0x3c161188	0.009159453
117	0x3ea3dd9d	0.32005015
118	0x3d49c116	0.049256407
119	0x3d0d3534	0.034474567
120	0x3eb18a1a	0.34675676
121	0xbd52580c	-0.0513535
122	0x3df2e230	0.11859548
123	0x3f03e2ce	0.5151795
124	0xbdb0cb00	-0.08632469
125	0x3e06bd8b	0.13158242
126	0xbea2d7df	-0.31805322
127	0xbe50a6a6	-0.20376071
128	0x3c6e999c	0.0145629905
129	0xbe941b75	-0.28927198
130	0xbead9b9d	-0.33907786
131	0xbca93998	-0.020657346
132	0xbe3c77ac	-0.18405026
133	0xbea50629	-0.32231262
134	0xbdda0e9d	-0.106473185
135	0xbe8eb7c1	-0.27874568
136	0xbe83c637	-0.25737163
137	0xbe681389	-0.22663702
138	0xbf46fd7b	-0.7773053
139	0xbf42b440	-0.7605629
140	0xbea91170	-0.33021116
141	0xbf34d84d	-0.7064255
142	0xbf493346	-0.7859386
143	0xbebd875e	-0.3701734
144	0x3f154cf6	0.5832056
145	0x3e1a78fe	0.15085217
146	0xbe2492ae	-0.16071579
147	0xbecf1017	-0.40441963
148	0xbf0f4b52	-0.55974305
149	0xbeb6cf64	-0.357051
150	0x3e6a2f11	0.22869517
151	0xbe590259	-0.21192302
152	0x3bfc0c87	0.007691923
153	0xbed33504	-0.41251385
154	0xbe61f4b5	-0.22066005
155	0x3d9d1a43	0.07671025
156	0xbf583f0a	-0.8447119
157	0xbe77bfec	-0.24194306
158	0x3db39c16	0.087700054
159	0xbecf3dbb	-0.40476784
160	0xbd3152de	-0.04329192
161	0x3e080c65	0.13285978
162	0xbdede382	-0.11615659
163	0xbd12609a	-0.035736658
164	0xbcebf517	-0.028803391
165	0xbd0e6609	-0.034765277
166	0xbdb1f89d	-0.08689997
167	0xbda98d34	-0.082788855
168	0x3dd79276	0.10525982
169	0xbd3d7fc8	-0.04626444
170	0xbe6a2d4e	-0.22868845
171	0xbef15c0f	-0.47140548
172	0xbebfca01	-0.37458804
173	0xbe637be8	-0.22215235
174	0xbe452498	-0.1925224
175	0xbe6e5d1b	-0.23277704
176	0x3e299eab	0.16564433
177	0xbd80ff5a	-0.062987044
178	0xbe85ebc7	-0.26156446
179	0x3e450244	0.19239146
180	0xbd45c09c	-0.04827939
181	0x3daa78bb	0.08323809
182	0xbd3e2af8	-0.046427697
183	0x3d72df8c	0.059295222
184	0x3d6ad227	0.057329323
185	0x3d140fb5	0.036147792
186	0xbd00e574	-0.031468824
187	0x3c7ac57c	0.015305873
188	0xbd247247	-0.040148046
189	0x3d853760	0.065047026
190	0xbd89fa35	-0.06737176
191	0xbd2094cc	-0.039204404
192	0x3d55a4fa	0.052159287
193	0x3cbd31a5	0.023094961
194	0xbd29be45	-0.04144122
195	0x3cf91c3c	0.030408971
196	0xbcd99ad4	-0.026563086
197	0xbcc267a1	-0.023731055
198	0x3ec8b16f	0.3919787
199	0x3c3725f5	0.011178483
200	0xbe67b422	-0.22627309
201	0x3e52c53d	0.20583053
202	0x3e10ecc4	0.14152819
203	0x3e779fe2	0.24182084
204	0x3f256afa	0.6461636
205	0x3f0bda54	0.5463002
206	0x3ee72c0b	0.4515079
207	0x3c982ecd	0.018577004
208	0x3cc038a8	0.023464516
209	0xbdc5b776	-0.09654133
210	0xbd536de4	-0.05161847
211	0xbc6ab23d	-0.014324722
212	0x3bad837c	0.005295215
213	0xbdbf019b	-0.09326478
214	0xbd9ed99b	-0.07756349
215	0xbd6717de	-0.056419246
216	0xbd2e78e8	-0.042595774
217	0x3ceee2bb	0.029160848
218	0xbce13dde	-0.02749532
219	0xbd64c92c	-0.055855915
220	0x3cd0fa3e	0.02550995
221	0xbd7197f1	-0.058982793
222	0x3d3e69be	0.046487562
223	0xbd313c90	-0.043270648
224	0xbca5f7a6	-0.02025969
225	0x3e9c812c	0.305673
226	0xbdfe97fd	-0.12431333
227	0xbd9273ca	-0.07150991
228	0x3e27c1b0	0.1638248
229	0xbe7f8e5c	-0.2495665
230	0xbe96c71d	-0.29448786
231	0xbdfc722a	-0.123264626
232	0xbe9bdec3	-0.3044339
233	0xbf1e2140	-0.61769485
234	0xbd95a672	-0.073071375
235	0x3db2ca0f	0.08729946
236	0x3e3f3d29	0.18675674
237	0xbde751ab	-0.11294874
238	0x3e4c7f7d	0.19970508
239	0x3dfb333c	0.122656316
240	0xbe4685d3	-0.19386987
241	0xbd3ba1b5	-0.045808513
242	0xbe1683e5	-0.14698751
243	0xbf00bb1a	-0.50285494
244	0xbeb18493	-0.3467146
245	0xbef377c8	-0.47552323
246	0x3d5863b6	0.052829467
247	0x3db4b289	0.088231154
248	0xbdc2c798	-0.09510726
249	0xbe3ec491	-0.18629672
250	0xbef90bf0	-0.4864192
251	0xbf3c4868	-0.73547983
252	0xbe1386a0	-0.14406824
253	0xbdc5da30	-0.096607566
254	0xbe634cf3	-0.22197323
255	0xbdd91483	-0.105996154

hiddens.6.bias f4 [20]
0	0xbdc120e8	-0.094301045
1	0x3e5f2e19	0.21794929
2	0xbe152f0e	-0.14568731
3	0x3e7cddb7	0.24693953
4	0x3e5825d5	0.21108182
5	0xbe3258b4	-0.1741665
6	0xbd5edf3f	-0.054412123
7	0x3daf305f	0.08554148
8	0x3d984c74	0.07436457
9	0x3d93ede3	0.07223108
10	0x3cb1b8e3	0.021694606
11	0xbe4102d1	-0.1884873
12	0xbe0c1eb1	-0.13683583
13	0xbe052511	-0.13002421
14	0xbdd4b7c7	-0.10386615
15	0x3cb58059	0.022155927
16	0xbe18cc5d	-0.14921708
17	0x3efde02e	0.49585098
18	0xbbb262a3	-0.0054438873
19	0x3e0ccb1f	0.1374936

hiddens.8.weight f4 [20, 20, 3, 3]
0	0xbed95708	-0.42449212
1	0x3e1b48ce	0.15164492
2	0x3e222ece	0.15838167
3	0xbcafb026	-0.021446299
4	0x3dc4f3a2	0.09616782
5	0x3e844db1	0.25840524
6	0x3d69aa75	0.057047326
7	0xbe7dca79	-0.24784268
8	0x3df10643	0.117687725
9	0x3ebfff7c	0.37499607
10	0x3eed1d3e	0.46311373
11	0x3cdb7b63	0.026792234
12	0xbe45f53d	-0.19331832
13	0xbce6ed10	-0.028189212
14	0xbe88e8f8	-0.2674024
15	0xbecf3fbe	-0.4047832
16	0xbf332760	-0.69981956
17	0xbf0cbb75	-0.54973537
18	0xbd5a2fe5	-0.053268332
19	0x3c3a9bab	0.011389653
20	0xbd24b8eb	-0.040215414
21	0xbc64fd81	-0.013976456
22	0x3b0e5ce9	0.002172286
23	0x3d7e8d20	0.062146306
24	0x3d8caf0a	0.068693236
25	0x3d332b51	0.04374248
26	0xbd746f9a	-0.059676744
27	0x3eb661ef	0.35621592
28	0x3ecdb9d7	0.40180847
29	0x3dfd62a0	0.12372327
30	0xbe843d75	-0.25828138
31	0xbc635da7	-0.013877309
32	0xbd653808	-0.05596164
33	0xbe4bcec3	-0.19903092
34	0xbeb62943	-0.35578355
35	0x3c01e2aa	0.007927576
36	0x3f00909a	0.50220644
37	0x3e61b097	0.2204002
38	0x3e28f9a9	0.16501488
39	0x3e1b3d66	0.1516014
40	0xbea3e71a	-0.32012254
41	0xbd85b53b	-0.065287076
42	0x3d0bcbeb	0.03413002
43	0xbf264faf	-0.6496534
44	0xbe81baec	-0.25337923
45	0xbafdba52	-0.0019357896
46	0x3cdcb00c	0.026939414
47	0x3e6613df	0.22468518
48	0x3ceef96b	0.029171666
49	0xbdc76100	-0.09735298
50	0x3dc7a211	0.097477086
51	0xbb852783	-0.004063548
52	0xbe19180a	-0.14950576
53	0x3e6572e9	0.22407116
54	0x3cc5a0aa	0.024124462
55	0xbd0bce96	-0.034132563
56	0x3d47469e	0.04865133
57	0xbcd99957	-0.026562376
58	0xbdd6fa9c	-0.10497019
59	0xbab6046a	-0.0013886814
60	0x3d55bf0d	0.052184153
61	0xbdeb1d51	-0.11480201
62	0x3de293f2	0.110633746
63	0x3e9bafe8	0.30407643
64	0x3eaa5b23	0.33272657
65	0x3e3491cf	0.17633747
66	0xbe4f067f	-0.20217322
67	0xbf02135c	-0.5081079
68	0xbe7471cd	-0.23871537
69	0xbe0b9fe3	-0.1363521
70	0xbec091ab	-0.37611136
71	0xbe8da0bc	-0.27661693
72	0x3cb4f985	0.022091636
73	0x3d89b58f	0.06724083
74	0xbf1432b2	-0.57889855
75	0x3df29b3e	0.11846016
76	0x3e0977a6	0.13424549
77	0xbf09ead0	-0.5387392
78	0x3e191408	0.14949048
79	0x3e27fa30	0.16404033
80	0xbf26e2b8	-0.65189695
81	0x3dac91f0	0.08426273
82	0x3e0df21c	0.13861889
83	0xbe9c8209	-0.3056796
84	0x3e9577d1	0.29192975
85	0x3e805084	0.2506143
86	0xbef17cd5	-0.47165552
87	0x3e8d27cf	0.27569434
88	0x3e52a6eb	0.20571487
89	0xbed2474d	-0.41070023
90	0x3da34eef	0.0797404
91	0x3da5f057	0.08102482
92	0xbe4d88aa	-0.20071664
93	0xbe0d8ec3	-0.1382399
94	0xbed9545e	-0.4244718
95	0xbe1425b7	-0.14467512
96	0xbdb06f20	-0.086149454
97	0xbf3cf458	-0.7381034
98	0xbe8fe1fc	-0.281021
99	0xbe123c62	-0.14280847
100	0x3c710cd7	0.014712534
101	0xbdb8d885	-0.09025673
102	0xbd0f2195	-0.034944136
103	0x3c685ae6	0.014181828
104	0xbe09aa37	-0.13443838
105	0xbd4027fe	-0.04691314
106	0xbdeb95b9	-0.11503167
107	0xbd81e6cf	-0.06342851
108	0x3cff1aec	0.031140767
109	0xbd6b6271	-0.057466928
110	0x3d8355f6	0.0641288
111	0x3da59b61	0.08086277
112	0xbd059f0f	-0.032622393
113	0xbc030a95	-0.007998128
114	0x3d04d5bd	0.0324304
115	0xbd0f8ca8	-0.03504625
116	0x3daa2dba	0.08309503
117	0x3cd923c2	0.026506308
118	0xbd859832	-0.065231696
119	0xbd376662	-0.044775374
120	0xbb3f9317	-0.002923196
121	0x3dbd3a5b	0.09239646
122	0xbd7bddaa	-0.061490692
123	0xbc9c5325	-0.019082615
124	0x3dc70e19	0.09719486
125	0xbce15791	-0.027507575
126	0x3db0ed91	0.08639062
127	0x3db3288b	0.08747967
128	0x3d4b3052	0.04960663
129	0xbc3c46f1	-0.011491523
130	0x3d5cb992	0.05388791
131	0xbcd1dbdd	-0.025617534
132	0x3dba7ba9	0.091056176
133	0x3d9e97a7	0.07743769
134	0x3cb51de2	0.022108976
135	0x3e883918	0.2660606
136	0x3eb4f585	0.35343567
137	0xbe266b22	-0.16251805
138	0x3ee2595a	0.44208795
139	0x3e7edd08	0.24889004
140	0xbea6dd08	-0.32590508
141	0x3ec58084	0.38574612
142	0x3e5e39cc	0.21701735
143	0xbf15d31b	-0.58525246
144	0xbe44da4e	-0.19223902
145	0x3d4051f7	0.046953168
146	0x3d351c2b	0.044216316
147	0xbde8bb3c	-0.11363837
148	0x3cc83521	0.024439396
149	0x3cec824c	0.028870724
150	0xbe0c478f	-0.13699172
151	0xbe014936	-0.12625584
152	0x3dbc21c8	0.09186131
153	0x3e228602	0.15871432
154	0x3ebc0d6b	0.36728987
155	0x3d93da1a	0.07219334
156	0x3ea52669	0.32255867
157	0xbed2b2c8	-0.41152024
158	0xbc86a4a8	-0.016435936
159	0x3eabdd06	0.33567065
160	0xbf0d10fe	-0.55104053
161	0xbd88f806	-0.06687932
162	0xbc94607f	-0.01811242
163	0x3ed64c09	0.41854885
164	0xbe1a78f5	-0.15085204
165	0x3d889eec	0.06670937
166	0x3ebbd76f	0.366878
167	0xbdb3dbf4	-0.08782187
168	0x3e081aff	0.13291548
169	0x3eda0785	0.42583862
170	0xbdd01ee2	-0.101621404
171	0x3ef4731d	0.47744074
172	0x3d6e0282	0.05810786
173	0xbdf52bf1	-0.11971272
174	0x3eb58d20	0.35459232
175	0xbe1e5bf2	-0.15464762
176	0xbe6dd6c0	-0.23226452
177	0x3f3e92b6	0.74442613
178	0x3cd3fdcb	0.025877854
179	0xbde83589	-0.11338336
180	0xbd836a12	-0.06416716
181	0x3d64063c	0.055670008
182	0xbd29ffb3	-0.04150362
183	0x3d0dd1df	0.034623977
184	0xbd080080	-0.0332036
185	0xbd8cb836	-0.06871073
186	0xbc16ff35	-0.00921612
187	0xbcd68fa2	-0.026191536
188	0x3d91ac73	0.0711297
189	0xbd7ec4ca	-0.06219939
190	0xbd16e896	-0.036842905
191	0x3d7b24d3	0.061314415
192	0xbd12185b	-0.03566776
193	0xbde90343	-0.11377575
194	0xb9e48653	-0.00043587628
195	0x3c4cb2d7	0.012493811
196	0xbdc090d7	-0.09402626
197	0x3c3c85fa	0.011506552
198	0xbd8f90f2	-0.07010068
199	0xbcfa2607	-0.030535711
200	0xbd8e3f5c	-0.069456786
201	0x3cb8306f	0.022484032
202	0xbc93d354	-0.018045105
203	0xbd187752	-0.037223168
204	0xbd44c436	-0.048038684
205	0x3b6f0bab	0.003647546
206	0x3d59aaf0	0.053141534
207	0xbd9a1652	-0.075237885
208	0xbdbb2796	-0.0913841
209	0x3c1e8ce1	0.009677143
210	0x3c8cd1a6	0.017189812
211	0xbe07747a	-0.13228026
212	0x3c38c13c	0.011276539
213	0xbd990911	-0.074724324
214	0xbd5cad62	-0.05387629
215	0xbc66f5a4	-0.014096651
216	0x3a110161	0.00055315165
217	0xbda0a88e	-0.07844649
218	0xbb6ebdb8	-0.0036429
219	0xbcd11fb8	-0.02552782
220	0xbdc2ff9a	-0.095214084
221	0xbd11bdce	-0.035581402
222	0x3cff0b65	0.031133363
223	0x3c582176	0.013191571
224	0x3bb30b5e	0.0054640016
225	0x3d884772	0.06654252
226	0xbd218086	-0.03942921
227	0xbd688a58	-0.05677256
228	0x3d527fed	0.05139153
229	0xb9f9c995	-0.0004764317
230	0x3ca6aaa3	0.020345038
231	0xbd876216	-0.06610505
232	0x3ca02cff	0.019552706
233	0x3b936e25	0.0044992142
234	0xbd8ab603	-0.06772997
235	0xbc41b974	-0.011824001
236	0x3d79c7ea	0.06098167
237	0xbc2ed025	-0.010669743
238	0x3d2b9358	0.041888565
239	0xbc3193d2	-0.010838466
240	0xbbcd5c45	-0.006267103
241	0x3d622552	0.055211373
242	0xbd840bf5	-0.06447593
243	0xbd88863c	-0.06666228
244	0xbd9fc99f	-0.07802128
245	0x3d4bf581	0.049794678
246	0xbd3bf46b	-0.045887392
247	0xbdb1abbf	-0.08675336
248	0xbd144fc2	-0.036208875
249	0x3cf02a04	0.02931691
250	0xbd5fc939	-0.05463526
251	0xbd8bd73d	-0.06828163
252	0xbdac907f	-0.08425998
253	0xbd55e11a	-0.052216627
254	0xbe23b120	-0.15985537
255	0xbdbd3027	-0.092377

hiddens.8.bias f4 [20]
0	0x3ecf519d	0.40491953
1	0xbe3021f8	-0.17200458
2	0x3e1846b2	0.14870718
3	0x3e62ed16	0.22160754
4	0x3dbedb7c	0.09319207
5	0xbe45d80a	-0.19320694
6	0x3e4fcf52	0.2029393
7	0x3d74eb99	0.059794996
8	0x3c09fcc2	0.008422079
9	0xbc1ecba0	-0.009692103
10	0x3e0346d2	0.12819985
11	0x3e6eaefe	0.23308942
12	0x3e8e7392	0.27822548
13	0x3e15a70a	0.14614502
14	0x3e844474	0.25833476
15	0x3e08bb6b	0.13352744
16	0x3da9b48e	0.08286391
17	0x3d5cd160	0.053910613
18	0xbd934536	-0.07190935
19	0xbe011fc7	-0.12609778

hiddens.10.weight f4 [20, 20, 3, 3]
0	0x3d90f9b6	0.070788786
1	0x3e1b15cc	0.15145034
2	0x3e74cf30	0.23907161
3	0xbe223826	-0.15841731
4	0xbe6e927f	-0.23298071
5	0x3e46d0a3	0.19415526
6	0xbf223c76	-0.63373506
7	0xbf7ad84e	-0.97986305
8	0xbe27e9a6	-0.16397724
9	0x3b1aace4	0.0023601586
10	0xbd052c28	-0.032512814
11	0xbd4e3eac	-0.050352737
12	0xbd252a5a	-0.040323593
13	0xbd5299be	-0.05141615
14	0x3d14c5c8	0.03632143
15	0xbcaff1cf	-0.021477608
16	0xbcae0057	-0.021240396
17	0x3d00a5e2	0.0314082
18	0xbf98f115	-1.1948572
19	0x3efc9a73	0.49336585
20	0xbc854582	-0.016268495
21	0xbf5fabca	-0.87371504
22	0x3eb86149	0.36011723
23	0xbdca91e4	-0.09891108
24	0x3d47cc5c	0.048778877
25	0x3f3764db	0.7163827
26	0x3e010453	0.12599306
27	0x3d9b83e6	0.07593517
28	0x3ec97f45	0.3935491
29	0xbe9b577e	-0.3034019
30	0x3e1fa23c	0.15589231
31	0xbea431b7	-0.3206918
32	0xbe7cbe66	-0.24682006
33	0x3d9bdc33	0.07610359
34	0xbf0e6016	-0.55615366
35	0xbe9fac5a	-0.3118618
36	0xbf32c4c3	-0.69831485
37	0xbf0a55ae	-0.54036987
38	0xbe2aa8fc	-0.16666025
39	0xbee44ec1	-0.44591334
40	0xbf531364	-0.8245146
41	0xbe6ca403	-0.2310944
42	0xbf9c0042	-1.2187579
43	0xbf3be375	-0.73393947
44	0x3e438635	0.19094165
45	0xbd9be26b	-0.07611545
46	0xbe3ff0b6	-0.18744168
47	0xbf03168f	-0.51206297
48	0x3ce14d38	0.027502641
49	0xbee22782	-0.44170767
50	0xbf633036	-0.8874544
51	0x3ed73a88	0.42036843
52	0x3e829f3a	0.25512105
53	0xbf0026e3	-0.50059336
54	0xbed212de	-0.4103002
55	0xbe828ccd	-0.25498047
56	0x3e36883c	0.17825407
57	0xbd7930f1	-0.06083769
58	0x3d6f2316	0.05838307
59	0xbd9ce3d8	-0.07660645
60	0x3de138de	0.10997175
61	0x3eae10d4	0.33997214
62	0x3cf4a7bd	0.02986514
63	0xbdfcb2c6	-0.12338786
64	0x3e5d7abe	0.21628854
65	0x3ecbcc57	0.39804336
66	0xbec94770	-0.39312315
67	0x3d2c8063	0.042114627
68	0x3ea17de0	0.31541348
69	0xbf21a3f3	-0.6314079
70	0xbd8be4a9	-0.06830723
71	0x3df0cc20	0.11757684
72	0x3e7fc12a	0.2497603
73	0x3e201b6b	0.15635459
74	0xbd99375d	-0.07481263
75	0x3e238350	0.1596806
76	0xbe85640c	-0.26052892
77	0xbea97bfc	-0.33102405
78	0xbe08b45b	-0.1335005
79	0xbecbc78d	-0.39800683
80	0xbe1a1837	-0.150483
81	0xbea96698	-0.33086085
82	0x3dbb3708	0.09141356
83	0xbe9322ad	-0.28737393
84	0xbdcba62b	-0.099438034
85	0xbe08a89e	-0.13345572
86	0xbe199bc2	-0.15000823
87	0xbeda6428	-0.42654538
88	0xbeda86b9	-0.4268091
89	0x3ddf0d16	0.10891168
90	0xbf970650	-1.1798801
91	0xbf978701	-1.1838075
92	0xbf53baeb	-0.8270709
93	0xbedd638d	-0.43240014
94	0xbf3291cf	-0.69753736
95	0xbeefb032	-0.46814114
96	0xbf8cf2cf	-1.1011599
97	0xbf9b471f	-1.213108
98	0xbeb5053f	-0.35355565
99	0xbf3dea18	-0.74185324
100	0xbf1dd637	-0.6165499
101	0xbe5dafa8	-0.21649039
102	0xbe8f6f99	-0.2801483
103	0xbe6b3216	-0.22968325
104	0xbe41154c	-0.1885578
105	0xbd33f52d	-0.04393499
106	0x3e14eea4	0.14544159
107	0xbd21ebe7	-0.039531615
108	0xbf289f75	-0.6586831
109	0xbe0f836d	-0.14014979
110	0xbe8d05b7	-0.27543423
111	0xbe4132ef	-0.18867086
112	0x3d325046	0.043533586
113	0xbe0708b7	-0.13186918
114	0x3f1038a5	0.5633643
115	0xbe83611d	-0.2566003
116	0xbf1bdbe2	-0.6088239
117	0xbfa018f5	-1.2507616
118	0xbe164f9f	-0.1467881
119	0x3d5e6f1b	0.054305177
120	0xbf9efe87	-1.2421426
121	0xbf202fb8	-0.62572813
122	0xbef18cf7	-0.4717786
123	0xbeb8f01d	-0.36120692
124	0x3d9ef1c7	0.07760959
125	0xbd841287	-0.06448846
126	0xbe25782a	-0.1615912
127	0xbde7b7d7	-0.113143615
128	0xbd0d5ecd	-0.034514237
129	0xbdce63d3	-0.10077634
130	0xbd97897a	-0.073992684
131	0x3cb3f64f	0.021968035
132	0xbc94df66	-0.01817293
133	0x3e1e8919	0.15481986
134	0x3e02e14a	0.12781253
135	0xbefbc98e	-0.49177212
136	0x3bfcb802	0.007712365
137	0x3e77abba	0.24186602
138	0xbf098b70	-0.5372839
139	0xbf0a7749	-0.54088265
140	0x3de5dc09	0.11223609
141	0x3e41e2a6	0.18934116
142	0xbe1b6625	-0.15175684
143	0xbf241cf6	-0.6410669
144	0xbf3c0032	-0.734378
145	0xbe9c606c	-0.30542314
146	0xbd45c4ac	-0.048283264
147	0xbf364256	-0.7119497
148	0xbdd4a62b	-0.103832565
149	0xbdf9fab4	-0.12206021
150	0xba411757	-0.00073658436
151	0x3f097a4f	0.53702253
152	0x3f133d6f	0.57515615
153	0x3f238883	0.63880175
154	0x3edc0cc6	0.42978495
155	0xbef508a8	-0.47858167
156	0x3f19487c	0.5987623
157	0x3ed5f566	0.41788787
158	0xbf5ed5d5	-0.8704503
159	0x3e9bf327	0.30458948
160	0x3c27d0ef	0.010242685
161	0xbeaf8b97	-0.34286186
162	0x3c63ac4e	0.013896061
163	0xbcde08a5	-0.027103731
164	0xbca70fcd	-0.020393277
165	0xbd702dfa	-0.058637597
166	0x3d2f8154	0.042847946
167	0x3ba2278f	0.0049485634
168	0x3d7fa6cd	0.062414933
169	0xbc8028a9	-0.015644388
170	0x3d97af66	0.074065015
171	0x3d0b92d1	0.034075562
172	0xbc9149ed	-0.017735446
173	0x3de1cde8	0.110256016
174	0xbd0f2f4e	-0.034957223
175	0xbd492529	-0.049107704
176	0xbe2060a5	-0.15661867
177	0xbd93a7d4	-0.07209745
178	0x3d926d24	0.07149723
179	0xbc746974	-0.01491772
180	0xbce1474a	-0.027499814
181	0xbd21728a	-0.039415874
182	0xbe3b9860	-0.18319845
183	0xbd9d2d70	-0.07674682
184	0x39c954ed	0.00038400982
185	0xbda10e73	-0.07864084
186	0xbdbfdca7	-0.09368258
187	0xbe1bf272	-0.15229204
188	0xbe158a9d	-0.14603658
189	0xbc93d865	-0.01804752
190	0xbd050c75	-0.032482583
191	0xbd87a294	-0.06622806
192	0xbd7505e2	-0.059820063
193	0x3bfb5a6f	0.0076706926
194	0xbcdfb163	-0.027306264
195	0xbc40e8e7	-0.011774278
196	0x3d7c0991	0.06153256
197	0xbd433f9f	-0.047668096
198	0xbd8dc9f9	-0.06923289
199	0xbd85321a	-0.06503697
200	0xbd718fe8	-0.05897513
201	0xbd40a160	-0.0470289
202	0xbb2096a2	-0.0024503847
203	0x3ceb68b7	0.028736455
204	0xbd840bfe	-0.064476
205	0xbcfce233	-0.030869579
206	0xbdc91209	-0.09817893
207	0xbd882eae	-0.066495284
208	0xbbc3560a	-0.0059611844
209	0xbda3af25	-0.079923905
210	0x3c8cbe7e	0.017180678
211	0xbd0aa789	-0.03385118
212	0xbdb3541c	-0.08756277
213	0xbce0c099	-0.027435588
214	0xbd805145	-0.06265501
215	0x3a86ea67	0.0010293246
216	0x3c8a7e7b	0.016906014
217	0x3ccc2af0	0.024922818
218	0xbd826872	-0.063675776
219	0x3d66c58e	0.056340747
220	0x3c77e8b2	0.0151311625
221	0x3cb593c6	0.02216519
222	0xbd512d6d	-0.051068712
223	0x3d5d29b5	0.053994853
224	0x3ba1b2f9	0.0049346653
225	0xbd0c2439	-0.034214232
226	0xbd6d8845	-0.057991285
227	0xbcf12bcd	-0.029439831
228	0xbd6efb1f	-0.058344956
229	0xbc4b1dcd	-0.012397242
230	0xbe08017b	-0.13281815
231	0xbda64484	-0.08118537
232	0xbd49e568	-0.049291044
233	0x3cb242bf	0.021760343
234	0xbd0eb10d	-0.034836818
235	0xbd7b02e4	-0.061282054
236	0xbcc6520e	-0.024209049
237	0xbd24f9dd	-0.04027735
238	0xbd4e4c5a	-0.050365783
239	0x3d47215f	0.04861581
240	0xbdb75927	-0.08952551
241	0xbdb03d9a	-0.086054996
242	0xbdaf1f78	-0.08550924
243	0x39688404	0.00022174424
244	0xbded764c	-0.11594829
245	0xbde3c1d8	-0.11120957
246	0xbd6ec8ac	-0.058296844
247	0xbdac653c	-0.084177464
248	0xbb55b3d4	-0.0032608407
249	0xbdeb88bf	-0.115006916
250	0xbe5e1fcc	-0.21691817
251	0xbe3dc4db	-0.18532126
252	0xbc24512c	-0.0100291185
253	0xbd32bdc1	-0.043637995
254	0xbda14393	-0.07874217
255	0xbd506b11	-0.050883356

hiddens.10.bias f4 [20]
0	0x3e16585d	0.14682145
1	0x3d0e23fa	0.03470228
2	0xbd82955d	-0.06376145
3	0x3d83eb33	0.06441345
4	0x3e3b7107	0.18304835
5	0xbda3ccfa	-0.079980806
6	0x3dba85f5	0.091075815
7	0x3e7259ff	0.23667143
8	0x3e24cf55	0.16094716
9	0x3e0d611d	0.13806577
10	0xbddcacba	-0.107751325
11	0x3e5e8665	0.21730955
12	0x3d2df071	0.04246563
13	0x3d298ae7	0.041392233
14	0x3deed67a	0.11662002
15	0xbde62a30	-0.112385154
16	0x3e01b273	0.12665729
17	0x3e31bf28	0.17358077
18	0xbdd9303b	-0.10604902
19	0xbd27c064	-0.040954962
