oldruns/RelaxedP4CNN_iso_std0.2_gamma2_lr0.002/model.pt (torch, 116029 bytes, 18 tensors)

lifting_conv.combination_weights f4 [3, 4]
000000 92 ac 58 3e 3d 34 62 3e cf 91 5f 3e 08 10 6a 3e
       0.2115958 0.2209024 0.21832965 0.22857678
000010 e4 33 83 3e cb fd 82 3e 41 01 82 3e cc 18 84 3e
       0.25625527 0.25584254 0.25391582 0.2580017
000020 d3 18 1f 3d 99 f4 20 3d 0a a6 1f 3d ce 0a 24 3d
       0.038842034 0.039295767 0.038976707 0.040049367

lifting_conv.weight f4 [3, 6, 1, 3, 3]
000000 bc 06 3b be 47 be 1a 3c 76 9b 93 bd 8a da 60 be
       -0.18264288 0.00944478 -0.07207386 -0.21958366
000010 3d 91 5f be 65 86 ff 3d 7d e5 96 3e ce 45 ee bd
       -0.21832748 0.124768056 0.2947196 -0.11634408
000020 ee 6d e3 3e c3 05 e3 be d4 fc e9 be e9 5a 61 be
       0.44419807 -0.44340333 -0.45700705 -0.22007336
000030 68 77 f8 3d 52 72 b0 3e 7c d7 d1 be 85 21 d1 3e
       0.1213215 0.3446222 -0.40984714 0.40845886
000040 ee ad 6f 3d 42 d0 0a 3e d6 cc 91 bd 3d 75 ef be
       0.05851548 0.13556007 -0.071191475 -0.46769133
000050 f2 12 10 bf 93 81 89 3e dd d4 14 bd 53 39 d1 3e
       -0.5627891 0.2685667 -0.036335815 0.40864047
000060 fb d1 dc bb 3a 2b 41 be b7 f4 dd bd 6e b8 b0 3d
       -0.006738899 -0.18864146 -0.10837691 0.08628927
000070 cc 10 ae 3e 25 2c 2d 3f 03 95 10 bd a4 89 36 3e
       0.3399719 0.67645484 -0.03529836 0.17825943
000080 c2 9a 4b 3e 4a a3 48 be 8d a0 76 3d f6 6d 0a bd
       0.19883254 -0.1959354 0.060211707 -0.033796273
000090 4d f5 8b be eb a2 9f 3e 40 1d d4 3e fb 7e 0a 3d
       -0.27335587 0.31178984 0.41428566 0.033812504
0000a0 9f 03 2d 3d 0d 62 a4 3e 47 e0 78 be e6 d1 e4 bd
       0.04223978 0.32106057 -0.24304305 -0.111728474
0000b0 7a c8 36 bd b8 78 53 bd bc 86 0d bb 67 2d 87 3e
       -0.044624783 -0.0516288 -0.00215952 0.26401827
0000c0 2f f0 03 3e f7 93 98 bd f1 1e ef 3c c5 1e 63 3d
       0.12884592 -0.07450097 0.029189559 0.055449266
0000d0 58 a9 9d be b1 ee b9 bd 1b 36 8a 3e 10 78 14 3c
       -0.30793262 -0.0907873 0.26994404 0.009061828
0000e0 95 0b c2 bd ad 49 67 be 22 ff ae 3d 54 db ea bd
       -0.09474865 -0.22586699 0.085447565 -0.11467615
0000f0 cb 4a b8 bb a6 1e 9a 3e cc 42 78 3d 9b a0 0c bf
       -0.0056241504 0.30101508 0.060610577 -0.54932564
000100 25 41 21 bf cc 0b 3f be 65 f2 8d bb 47 69 ee 3e
       -0.6299003 -0.18656844 -0.004331874 0.46564695
000110 22 08 0e bf 75 95 b8 3e 79 73 50 3d 53 29 d6 bd
       -0.5548116 0.36051527 0.050891373 -0.10457101
000120 ef 6b c4 3c 0b d5 ab be e9 5f 0c bf e4 86 f6 bc
       0.023977248 -0.33560976 -0.5483385 -0.030093618
000130 ca 3e a9 3e 3b cd a2 3e fc 1b 9f 3c 44 95 7b 3e
       0.33055717 0.31797203 0.019422524 0.24568659
000140 37 6c c4 3e 2a b8 b8 be 19 4e 79 3e 5c 74 03 3f
       0.3836381 -0.36078006 0.24346198 0.51349425
000150 96 12 db bb e9 25 68 3c 4c 49 3f 3e 17 35 3a be
       -0.006685565 0.014169195 0.18680304 -0.18184315
000160 f8 fc 83 be 32 07 35 be a6 29 84 3e a1 a6 79 3e
       -0.25778937 -0.17678526 0.25813025 0.2437997
000170 0a ae 25 3e 5d 66 c4 bd f2 8c 5c 3e 3b d7 27 be
       0.16179672 -0.09589837 0.21538141 -0.16390698
000180 4b a7 a6 3c da 2e 81 3d b0 99 85 be 95 c9 25 be
       0.020343443 0.06307764 -0.26093817 -0.16190179
000190 7b 2e 10 3e 85 71 ea 3e 14 12 6c be 14 95 cd bd
       0.14080231 0.45789734 -0.23053771 -0.100382
0001a0 ea 80 d6 bb a6 18 49 3e 5e f3 f7 3d 8f f4 07 3e
       -0.0065461295 0.19638309 0.121069655 0.13276885
0001b0 a2 40 8b be 6f 92 8f 3e c7 03 27 3e ed 66 36 be
       -0.27197748 0.28041407 0.16310035 -0.178127
0001c0 1c 4e 7d be 5b c2 1c 3d f1 df 89 3e d6 25 3f 3d
       -0.24736828 0.03827129 0.26928666 0.046666943
0001d0 de e5 84 3e 30 86 c0 be 42 4f 30 bd 3d d3 09 be
       0.25956625 -0.37602377 -0.043044336 -0.13459487
0001e0 df f9 e9 bc 3e 1d c5 3e 63 ff 74 be a6 4c c2 3e
       -0.02856153 0.38498873 -0.23925547 0.37949103
0001f0 e3 51 55 be 50 dc c1 bd 4b 9c f7 3d 53 45 f3 be
       -0.20832019 -0.094658494 0.120903574 -0.47513828
000200 c2 94 44 bf c2 d4 03 3e 67 d9 16 3e de e3 ab bd
       -0.76789486 0.1287413 0.1473137 -0.083930716
000210 9a 44 0c 3e b5 05 b8 be 96 5b 39 3e 2f c6 90 be
       0.13698044 -0.35941854 0.18101344 -0.28276202
000220 7e e1 69 be 5d 5f 97 3e 73 77 cd be 83 31 25 3e
       -0.22839925 0.29564944 -0.40130195 0.16132168
000230 cf 88 29 3e 3d e0 ac bd aa ad 51 3e bf 2d 93 bd
       0.16556095 -0.084412076 0.20476404 -0.0718646
000240 b1 5a 87 3e 5c bd ce 3d b0 53 c7 3d 0e b0 10 be
       0.2643638 0.10094711 0.09732759 -0.1412966
000250 5f ad fe 3d 2c 9e 82 be c7 cd 09 be 8f ea 51 3d
       0.12435412 -0.255113 -0.13457404 0.051249083
000260 f1 2d a7 3b 64 c2 ec 3c 35 95 6a 3d bd 44 ef 3e
       0.005101912 0.028901286 0.0572712 0.4673213
000270 94 74 83 bd c4 db 20 bd 41 cd d6 bc 4e d4 87 3e
       -0.0641872 -0.039272085 -0.02622092 0.26529163
000280 01 c4 44 be d7 d2 b3 be
       -0.19215395 -0.35121796

gconvs.0.combination_weights f4 [4, 3]
000000 42 e4 c9 3e b4 93 e2 3e ee 5b a3 3e 1c 5c c9 3e
       0.3943196 0.44253314 0.31906074 0.39328086
000010 c2 30 e3 3e f5 5e a3 3e 33 37 ca 3e e8 fb e1 3e
       0.44373137 0.31908384 0.3949524 0.44137502
000020 43 63 a3 3e bc 90 ca 3e b6 1b e3 3e 20 bc a3 3e
       0.31911668 0.3956355 0.4435708 0.31979465

gconvs.0.weight f4 [3, 6, 6, 4, 3, 3]
000000 c7 89 c6 3d 8d 9a d1 bd 80 9f 0b be a5 8d 1c bd
       0.09694248 -0.10234556 -0.13635063 -0.03822102
000010 ed 60 50 3d a6 9b bf be 28 fa 9d be 04 48 15 be
       0.050873686 -0.37423438 -0.30854917 -0.14578253
000020 91 78 a6 3e d6 83 87 3d 22 b0 8a be e4 a0 7c be
       0.3251386 0.066169426 -0.27087504 -0.2467075
000030 2f 7b 8d bd 28 f5 b2 be 22 59 d3 3e 18 be d2 3e
       -0.06908261 -0.34952664 0.4127894 0.41160655
000040 25 34 94 be 05 88 91 3d cc c7 1c bf e6 2d fe 3e
       -0.28946033 0.07106022 -0.61242366 0.49644393
000050 c5 05 9d be ce 73 cc 3e 4b 07 e3 bb 89 d7 ee bd
       -0.30668464 0.39932102 -0.0069283596 -0.11662204
000060 7f 15 65 be 29 9c d0 3c ed b0 8d 3e 4a 42 e9 3e
       -0.22371481 0.025465088 0.27674046 0.45558387
000070 f1 b5 9c 3e c8 66 91 3e 17 0e e3 bd ab 24 f3 3e
       0.3060756 0.28398728 -0.11086672 0.47488913
000080 3f 7a 89 bc 6d 7f 47 3e d6 bd de 3e 4f b7 38 3e
       -0.016781924 0.19482203 0.43504208 0.18038677
000090 9b 75 6c 3f 65 40 84 3e b2 df 30 be 47 58 f1 bd
       0.9236695 0.2583038 -0.17272833 -0.11784416
0000a0 de 36 1c 3e 8a 67 63 be bf ee c3 3e 64 f7 6b 3e
       0.15255305 -0.22207466 0.38268086 0.23043591
0000b0 7a 94 eb be e8 9d a0 be 5d d3 7b 3e ab ac c1 be
       -0.46011716 -0.31370473 0.24592347 -0.37827048
0000c0 32 12 a1 be da 09 0b bf dd c8 56 3e c3 f4 d7 3d
       -0.31459194 -0.5431191 0.20975061 0.105447315
0000d0 00 ab 0b be d3 2c 05 3f b0 a0 0e 3f 19 b6 15 bf
       -0.1363945 0.5202152 0.5571394 -0.58480984
0000e0 f3 fd c1 be c6 72 88 3e 0c ae fd bd 99 ff ae bd
       -0.3788906 0.26650065 -0.123867124 -0.08544845
0000f0 29 b6 6a 3c b5 79 92 3e 80 8a 4d 3f fc d6 b4 3b
       0.014325657 0.2860848 0.8028946 0.005518792
000100 aa 40 c3 be 60 81 d2 be 5f 3b 02 bf 84 4b 27 be
       -0.38135272 -0.4111433 -0.50871843 -0.163374
000110 e5 69 e5 3d 3b e0 c2 3d 9d 98 ce 3d b7 04 84 3e
       0.112018384 0.09515425 0.100877024 0.25784847
000120 84 0d 68 3e e1 89 14 be ab 5f cc bd 5a 80 04 bd
       0.22661406 -0.14505722 -0.09979185 -0.032348968
000130 fa 18 1c 3e 7e 97 fb 3e 14 7c 08 bd ab c3 d1 be
       0.15243903 0.49139017 -0.033321455 -0.40969595
000140 12 5c d5 bc f4 aa 1b bf 84 16 ba be bd 5b af 3e
       -0.02604488 -0.6080773 -0.36345303 0.34249678
000150 6b e1 c1 3e 4d 0d de 3d cd 92 cb 3e b4 87 b0 3e
       0.37867293 0.10842381 0.39760438 0.34478533
000160 9b 75 04 3e 1f 9d d8 3e 0b 38 0a 3f db 70 1a 3e
       0.12935488 0.42307374 0.53991765 0.15082113
000170 bc c3 72 3e 04 70 0e 3f 5f 28 85 be 1c 6b 61 3d
       0.23707479 0.5563967 -0.26007363 0.055033788
000180 fc a9 0c 3f 41 11 fb 3d 5b 75 d5 be 50 10 15 bf
       0.54946876 0.1225915 -0.41691098 -0.58228016
000190 fb 1d 59 be 0e 09 2f bf ec 17 77 be 61 0a 70 3e
       -0.21202843 -0.6837319 -0.24130219 0.23441459
0001a0 61 47 07 bf 3f 20 9c be 12 3e 19 3e bf a8 ba be
       -0.5284329 -0.30493352 0.14965084 -0.36456868
0001b0 2a 18 fc 3d 1b f3 4f 3d a1 ec e5 3d 52 fa 2a bf
       0.123092964 0.050768953 0.11226774 -0.6678821
0001c0 07 5b 18 bf 14 a6 bd bd 23 c4 da bd fd aa cf 3d
       -0.59513897 -0.092601925 -0.10681941 0.10140035
0001d0 38 90 aa be 7a ef 75 be 79 82 57 bd d4 d2 06 3d
       -0.33313155 -0.24017134 -0.052614663 0.032915905
0001e0 b4 39 3d be bd 42 fa be 6e a7 80 be f0 ea cd 3e
       -0.18479043 -0.48879042 -0.2512774 0.40218306
0001f0 db b5 b1 3e 08 c0 c3 39 5a 83 0f 3b dc a4 8e 3e
       0.34709057 0.00037336373 0.002189836 0.27860153
000200 53 11 00 bf 86 6f 9b 3e 55 f1 11 be d0 33 1e 3e
       -0.50026435 0.30358523 -0.14252217 0.15449452
000210 84 c4 21 3d a1 d6 78 be 65 1d 76 3e cc 63 3a bf
       0.039494053 -0.24300624 0.2403465 -0.7280853
000220 ac 66 14 3e d0 24 76 3e 39 91 64 3e ee 97 13 bf
       0.14492291 0.2403748 0.22321023 -0.576537
000230 e3 d6 4e 3e 76 2c cc 3e 43 18 63 bd 63 35 cb be
       0.2019916 0.3987767 -0.05544306 -0.39689168
000240 3e 67 00 bf 1a 34 95 be f8 e2 c5 3d 43 f5 cf be
       -0.50157535 -0.29141313 0.096624315 -0.40616807
000250 86 0e 86 be 91 52 1d 3e a7 b1 8a bb cb 9a 5d 3c
       -0.26182956 0.15363528 -0.0042326036 0.013525675
000260 bb cf aa be 22 fb fd be 59 b3 3f 3e 67 71 93 be
       -0.3336161 -0.49605662 0.1872076 -0.28797457
000270 43 09 f9 3c 36 b7 ca be b4 b0 cb be 36 e1 25 be
       0.030399924 -0.39592904 -0.3978325 -0.16199192
000280 75 1b 73 3e f1 b1 89 be e0 d3 e9 3e 94 bd a0 bd
       0.23740943 -0.2689357 0.4566946 -0.07848659
000290 f9 3d d0 bd d2 e2 82 bd 11 f1 92 be 60 1a 6c 3e
       -0.1016807 -0.06390919 -0.28699544 0.23056936
0002a0 02 7a 1e be ad 63 88 3e 94 dd 2f bc f7 12 86 3e
       -0.1547623 0.26638547 -0.010733981 0.26186344
0002b0 00 de 48 3d f1 6d e4 bd cb 0c 79 be cf 84 ab be
       0.04903984 -0.11153782 -0.24321286 -0.33499762
0002c0 4f f3 d7 be 64 1b 94 3e c0 52 cf 3d 7e a4 6e be
       -0.42177817 0.28927147 0.10123205 -0.23304936
0002d0 12 77 bd bd 2f 1b b1 3e 83 98 80 be 80 08 9d 3e
       -0.092512265 0.34591052 -0.25116357 0.30670547
0002e0 72 ce 34 3d 72 b3 af 3e 69 da 92 3e 77 38 1e be
       0.044142194 0.34316593 0.2868226 -0.15451227
0002f0 b2 b8 df 3e 43 f4 41 be 29 ad 6d be 6e f4 10 bd
       0.436956 -0.18940835 -0.23210587 -0.035389356
000300 d4 85 8c 3e 0a 13 2b 3d c6 9c 02 3e 08 43 c0 3e
       0.27445853 0.041766204 0.12755117 0.3755114
000310 2a e8 20 3e dd db 4e be 67 5c f5 3e 75 34 a0 be
       0.15713564 -0.20201059 0.4792206 -0.31290022
000320 05 a2 85 be 64 32 a9 3e 45 f1 36 3e 20 2c 44 3e
       -0.26100174 0.33046257 0.17865475 0.19157457
000330 32 38 ef 3e d6 99 e9 bd 42 6b bb 3e 03 85 b7 be
       0.4672256 -0.11406295 0.3660527 -0.35843667
000340 d7 6b 8b be 19 29 1b 3e 1a eb 40 be f6 81 fa be
       -0.27230713 0.15152396 -0.18839684 -0.48927277
000350 87 4e b4 3c 48 89 36 be cf 54 36 be 8c 80 fe be
       0.022010101 -0.17825806 -0.1780579 -0.49707448
000360 82 7f 8c 3c 15 d2 3a be 56 f6 df bd 07 9d 40 3e
       0.017150644 -0.18244202 -0.10935657 0.18809901
000370 07 81 32 be cc 5c 9f be 79 ae 83 3e 6b 18 c0 3e
       -0.17432033 -0.31125486 0.2571905 0.3751863
000380 b4 1b aa 3e 27 ed fe be fe 6f 73 3e fd 14 80 be
       0.3322426 -0.49790308 0.2377319 -0.25016013
000390 63 61 7c bd 54 33 70 bd 81 9a 52 3e 09 91 a0 be
       -0.061616313 -0.0586427 0.20566751 -0.31360653
0003a0 8f 7d 49 be 6d 52 ab 3e 45 66 36 be f5 d8 f3 bd
       -0.19676803 0.33461323 -0.1781245 -0.11906616
0003b0 a5 ac c2 be 2d 3b ab be 0c db f8 3c 47 81 eb be
       -0.38022342 -0.33443585 0.030377887 -0.45997068
0003c0 b6 e4 0f 3e 94 4e 63 3e a6 90 e4 bd b2 05 25 be
       0.1405209 0.22197944 -0.11160402 -0.16115454
0003d0 be 54 7d 3d 56 04 a7 3e c1 2d 32 3d a6 94 13 be
       0.061848395 0.32620496 0.043500666 -0.14412174
0003e0 82 84 8c 3e 76 da c3 3e 4b 25 71 be 63 c2 08 bf
       0.27444845 0.3825261 -0.23549382 -0.5342161
0003f0 a6 95 0f be d3 9c de be 41 13 1f 3e 8a 04 1b 3e
       -0.1402193 -0.43479022 0.15534689 0.1513845

gconvs.1.combination_weights f4 [4, 3]
000000 9c d9 dd 3e fd fd ae 3e 77 4b c0 3e 71 8c dd 3e
       0.43330085 0.34178153 0.37557575 0.4327121
000010 db 23 ad 3e 4c 07 be 3e c3 09 dd 3e 7f 19 ae 3e
       0.33816418 0.37114942 0.4317151 0.34003827
000020 c5 3b bf 3e de eb dd 3e 36 fc ab 3e df 71 bf 3e
       0.37350288 0.43344015 0.3359086 0.37391564

gconvs.1.weight f4 [3, 6, 6, 4, 3, 3]
000000 96 20 10 bf 70 a2 88 bd b5 db 92 3c 36 11 04 be
       -0.5629972 -0.066716075 0.01792703 -0.1289719
000010 0f cd c4 3d 2d fe 79 3e d9 ad e3 bd e5 91 b7 be
       0.09609424 0.24413367 -0.11117143 -0.35853496
000020 1e a5 e0 3d 6e 91 13 bd c2 5e fd 3e cf ee 26 bc
       0.109689936 -0.036027364 0.49486357 -0.010188772
000030 f3 37 22 3e 1d 43 83 be 2c 88 56 be 1c fc 51 3e
       0.15841655 -0.2563714 -0.20950383 0.20506328
000040 e3 24 1d bd 3f 01 10 be d0 17 b6 3e 5e 1c 80 be
       -0.038365256 -0.14062975 0.35565042 -0.25021642
000050 69 5d 88 be 60 51 9a bc 87 cb c8 3d f8 d5 4a be
       -0.26633766 -0.01883763 0.09804445 -0.19808185
000060 0c 6b 45 3e ff 95 71 3d d5 22 96 3e 67 ed df be
       0.19279116 0.058980938 0.2932345 -0.4373581
000070 0f 9e e5 3e d4 61 14 3e e2 d6 b5 3e dc 01 75 3e
       0.44847152 0.14490443 0.35515505 0.2392649
000080 ba e8 02 3f c4 7e 81 3e 3c c5 40 3e c8 f0 65 be
       0.5113636 0.25292027 0.18825239 -0.22455132
000090 81 bc 8b be fa 74 6c bd c9 99 a1 be bf 41 25 3f
       -0.27292255 -0.057728745 -0.3156264 0.64553446
0000a0 75 10 8a 3c b8 d3 66 3d 2d a0 3f 3f 08 47 72 3e
       0.01685355 0.056354254 0.74853784 0.23659909
0000b0 65 5b 99 be 14 a2 71 3d 1d 44 96 bd ac 45 57 be
       -0.2995254 0.05899246 -0.0733721 -0.21022671
0000c0 ab 03 45 3e fa cb f3 3d ff 4a ec 3e 2c c5 01 be
       0.1923968 0.1190414 0.46150967 -0.12672871
0000d0 bd 37 cd be 3f 1f 34 be 48 17 ba 3e a1 52 ea be
       -0.40081587 -0.17590044 0.36345887 -0.45766166
0000e0 50 ce cf bd a2 42 8c be 9b 64 75 be ba 6f 93 3e
       -0.10146773 -0.27394587 -0.23964159 0.28796178
0000f0 a9 6a 8a be 0b 55 bb be 4b e2 79 3d d5 a0 2a be
       -0.270345 -0.3658832 0.061006825 -0.16662915
000100 3b 1f 38 be aa c4 b1 bd bd 7c 02 be 4b c9 25 3d
       -0.17980663 -0.08680089 -0.12742896 0.04047517
000110 bd df 9a 3e 52 7e cf 3c d5 90 c8 3c de c4 93 be
       0.30248824 0.025328789 0.024483124 -0.28861135
000120 9d 06 ce 3e de 10 e6 be fe 59 bf be 40 04 af 3e
       0.4023942 -0.44934744 -0.37373346 0.3418293
000130 7b 81 3d 3d 31 87 01 be d2 c9 d4 bd 1a c1 8a be
       0.04626606 -0.12649228 -0.10390057 -0.2710045
000140 2b e5 01 3e cc 5a 2e 3e 5f b1 16 3f 56 27 58 be
       0.12685077 0.17026824 0.58864397 -0.21108755
000150 34 58 50 3d 4f cc bb 3e 3c ac 0d bf 9d 0c 0e 3e
       0.050865367 0.36679313 -0.55340934 0.13871999
000160 be 98 9a 3e b9 2c b1 be ad fc a6 be f0 be ff 3d
       0.30194658 -0.34604433 -0.3261465 0.1248759
000170 8f 51 92 be 8c 57 1a 3f 51 27 b7 bd e9 03 f7 3e
       -0.2857785 0.60289836 -0.08943046 0.4824517
000180 49 e5 02 3c 64 bf 02 3e 94 ed 82 3e 68 11 ac 3e
       0.007989236 0.12768322 0.25571883 0.3360703
000190 f7 3d ac be 97 66 6b be 5a 92 69 be c8 6d bb be
       -0.33641025 -0.22988354 -0.22809735 -0.36607194
0001a0 9d e4 d2 bd 56 a1 3d bf 17 6f 70 be 6a f2 31 be
       -0.10297511 -0.74074304 -0.23479877 -0.1737763
0001b0 d2 41 b6 be 66 54 58 be 3e 31 0c 3e 2b 0b ed 3d
       -0.35597092 -0.21125945 0.1369066 0.11574396
0001c0 ed dd 2d be 69 1f 93 3e 3d ec 36 3f 87 18 b8 3e
       -0.16979189 0.28734902 0.7145422 0.35956213
0001d0 43 02 a1 3c 56 79 12 bf 33 0f a1 be a5 fe db bb
       0.019654399 -0.57216394 -0.3145691 -0.0067137056
0001e0 53 5c e1 bd 70 bb 7c 3e d4 1a bd 3d ec ae ce be
       -0.110039376 0.24680877 0.09233633 -0.4036783
0001f0 61 e6 c1 3e 80 40 87 bd b4 ac ba be dd 34 a0 be
       0.37871078 -0.06604099 -0.36459887 -0.3129033
000200 dd d9 4d 3e 73 39 f3 bd de 71 35 3e 29 9c ee 3d
       0.2010264 -0.11876192 0.17719218 0.11650879
000210 a2 41 bf 3c b8 dd 00 be df b5 e0 3e 89 c9 bd be
       0.023346726 -0.12584579 0.43888757 -0.37067822
000220 36 b9 d0 3e 2e 0a 4d 3e 1d da 02 3e 75 18 9f 3d
       0.40766305 0.20023414 0.12778516 0.07768337
000230 dd 13 37 bd b7 d1 50 3f 00 09 86 3e d4 81 30 bd
       -0.044696677 0.8157 0.2617874 -0.043092564
000240 86 81 06 bf f2 03 06 be f7 6c 69 bd dc 85 c7 be
       -0.5254139 -0.13087443 -0.056988683 -0.38969314
000250 57 c9 1e 3c 2f 1e 85 be b4 fe 6f be 6c 92 50 be
       0.009691558 -0.2599959 -0.23437005 -0.20368356
000260 06 9b a4 be 16 b6 75 be c7 10 f8 bd 7e 6d 35 be
       -0.32149523 -0.23995242 -0.12112575 -0.17717549
000270 68 8d ef bd 7f 45 03 bf 4b b3 f7 be c6 a2 aa be
       -0.11696893 -0.5127792 -0.48378977 -0.3332731
000280 38 53 7b be e2 a8 a8 be 26 1b 59 bd 14 14 d5 3e
       -0.24543464 -0.32941347 -0.053004406 0.4161688
000290 e3 ef ad 3e 88 70 b7 3d 9e e6 4e 3e 94 d1 9f 3d
       0.33972082 0.089570105 0.20205161 0.07803646
0002a0 28 37 f4 be d6 dc 24 bf de 67 b3 bd 27 6b 4e 3d
       -0.4769833 -0.6439947 -0.087600455 0.050395157
0002b0 c9 64 a4 3e 03 8a 6f 3c 24 dd e6 3e 49 25 8e 3d
       0.32108143 0.014620307 0.45090592 0.06940705
0002c0 f1 07 84 be de 66 49 3d 1f a8 b5 3e c2 96 cd be
       -0.2578731 0.049170367 0.3547983 -0.40154082
0002d0 bc 95 e1 3e 52 7c ec 3b 94 1a de be c4 7c 86 3c
       0.4405955 0.0072169686 -0.43379653 0.016416915
0002e0 3e 59 ea be 50 f7 06 be c6 27 38 bf 89 4c f6 be
       -0.4577121 -0.1318028 -0.7193569 -0.48105267
0002f0 df 30 cd be 6b f5 0b 3d dc 9a 8d be ff 8e 5f 3e
       -0.40076348 0.034169596 -0.2765721 0.21831892
000300 4f 31 cc 3e 69 28 85 be d1 2d d3 be da fd 42 be
       0.3988137 -0.26007393 -0.41245893 -0.19042149
000310 85 ef 33 be 6d b1 c3 be 32 c9 c4 3d 29 28 bf 3e
       -0.17571838 -0.38221303 0.096086875 0.37335327
000320 78 0a 2a bd f9 9b a1 be c1 80 67 3e e8 d4 2f 3e
       -0.04151389 -0.3156431 0.2260771 0.17171061
000330 d3 b9 16 3e fe c7 7c 3e 99 e4 a7 be 4e d0 35 be
       0.14719324 0.24685666 -0.32791594 -0.17755243
000340 fa 4f ba be e8 f7 b2 bd 69 68 1c be 59 2d 8e ba
       -0.36389142 -0.087386906 -0.15274204 -0.0010847255
000350 9c 7a 57 be 3e d5 5f be 2b 7f e8 bb d3 ee 05 bf
       -0.21042866 -0.21858689 -0.0070952377 -0.5231754
000360 1c fa 5a be af f8 a1 3d fa ec 9b be 41 b3 6b 3b
       -0.21384472 0.07908761 -0.30454236 0.0035964998
000370 ab f9 9a 3d 26 16 05 3e 47 1e 0e 3d 04 49 84 3e
       0.07567152 0.1299673 0.034696843 0.25836957
000380 34 0f 8e 3e 2c 85 78 be 8b 4e 0e bf 57 bd 5d bd
       0.27745974 -0.24269551 -0.555886 -0.054135647
000390 c8 9f 0c 3e 44 10 eb 3e d4 48 34 be 6a a7 95 3d
       0.13732827 0.45910847 -0.17605907 0.07307322
0003a0 2f d5 8b 3c cd c0 13 3e d6 d2 bc bd 40 0b 67 be
       0.017069427 0.14429016 -0.09219901 -0.22562885
0003b0 9c e8 84 be cc 76 88 be 9c e3 74 3e 2e 53 84 3e
       -0.25958717 -0.26653135 0.23914951 0.2584471
0003c0 da e4 b6 3e f2 c5 47 bc bc 8c be bd ce ce 54 be
       0.35721475 -0.01219319 -0.09304187 -0.20782015
0003d0 62 53 d6 bd 8c 76 08 bd 31 6a a8 3d 02 24 1c 3c
       -0.10465123 -0.03331618 0.082233794 0.009530069
0003e0 0f 2e 83 3d ce e0 f5 bb 46 37 84 3e b7 88 c1 3e
       0.06405269 -0.0075036054 0.2582342 0.37799618
0003f0 11 1f 30 3f 5c b1 ce 3d 24 67 42 bd c4 38 61 3e
       0.68797404 0.10092422 -0.047461644 0.2199431

gconvs.2.combination_weights f4 [4, 3]
000000 5b 44 bf 3e 16 3c d3 3e 5d 8c ab 3e 6a ed be 3e
       0.3735684 0.4125678 0.33505526 0.37290508
000010 a9 3e d3 3e ad 4c ab 3e eb d6 bf 3e 2f 35 d5 3e
       0.41258743 0.33456936 0.37468657 0.41642138
000020 74 a7 ac 3e 9a 25 c0 3e bb 25 d4 3e f8 b0 ac 3e
       0.33721507 0.37528688 0.41435036 0.33728766

gconvs.2.weight f4 [3, 6, 6, 4, 3, 3]
000000 c7 25 ed 3d ab 8a da be de 58 25 be 8f 81 d2 3e
       0.11579471 -0.4268392 -0.16147181 0.4111447
000010 48 8c d1 3e cb 18 5b 3d f6 27 95 3e 78 3c a6 bd
       0.4092734 0.05349044 0.2913205 -0.08117002
000020 f4 c5 b1 be 99 02 a8 be ed 22 4b 3e c8 59 f1 3d
       -0.3472134 -0.32814482 0.19837542 0.117847025
000030 1e dd d5 3e c2 ac cc 3e 44 e6 05 3e 38 cb 82 3e
       0.41770262 0.39975554 0.1307612 0.2554567
000040 12 9b be 3c 4a 67 a0 3e f8 02 12 bf a3 d9 ec be
       0.023267303 0.31328803 -0.5703578 -0.46259794
000050 24 6c bc 3d 34 f1 68 3d 62 02 fb bd 76 31 47 3e
       0.09200314 0.056870654 -0.12256314 0.19452462
000060 da b4 c2 bb 35 47 47 3e 7d d7 d0 3e 90 57 f9 3b
       -0.0059419693 0.19460757 0.40789405 0.007609315
000070 77 f8 06 3d 44 d1 c1 3e 32 a5 04 be 4a e7 62 3e
       0.0329518 0.3785497 -0.12953642 0.22158542
000080 be 29 07 be ef 0b 0f bf 87 4b 6a bd 0c 7f 8b be
       -0.13199517 -0.55877584 -0.057200935 -0.27245367
000090 fd 8a 35 bf 58 e4 81 be 3a d2 77 be 33 f7 46 bd
       -0.70915204 -0.25369525 -0.24201289 -0.04857559
0000a0 1d 49 a4 be ab 36 55 be 22 a0 b2 3e 33 c1 69 be
       -0.3208703 -0.20821635 0.34887797 -0.22827606
0000b0 57 bd 0b 3e 7f a7 a5 3e 51 c2 85 3e 64 6b a8 be
       0.13646446 0.32354352 0.26124814 -0.32894433
0000c0 ee cb 14 be 06 f0 29 be 0f b5 ff be cb e8 73 be
       -0.14530918 -0.16595468 -0.49942824 -0.23819272
0000d0 a2 86 2d bf 8f d9 f3 be 0a ec e2 3d b9 60 e9 3c
       -0.6778356 -0.47626922 0.11080177 0.028488504
0000e0 84 b6 6b 3e d2 b6 ec 3d 82 ab 8c bc 6d 07 06 bf
       0.23018843 0.11558308 -0.017171625 -0.5235508
0000f0 1a e5 b8 bd 8c d6 ad be 13 e4 1b bf 04 a3 9b bd
       -0.09028073 -0.3395275 -0.6089489 -0.07599452
000100 f9 4b 88 be 22 8b 90 bc 35 f9 30 be 22 8e da be
       -0.26620463 -0.017644469 -0.17282565 -0.42686564
000110 02 24 04 bb fd 8d a7 bd 36 07 bb be 31 de 0b be
       -0.0020163064 -0.08181379 -0.3652894 -0.13658978
000120 8e ec bf be a4 40 56 bf 11 3c 83 3e 3e e8 44 be
       -0.37485164 -0.83692384 0.25631765 -0.19229218
000130 ac 1c 12 bf 2a 49 7b be 71 7d be 3e 6f 96 4d 3e
       -0.57075 -0.24539629 0.3720508 0.20076917
000140 30 1e b7 be eb f8 43 bf c3 24 93 bd 1e d2 5e 3e
       -0.3576522 -0.76551694 -0.07184746 0.21759841
000150 fb db f9 bc d6 ad bd bc b9 e2 fe 3d b6 0f dd 3d
       -0.030500403 -0.02315418 0.12445588 0.10794012
000160 67 a6 52 3e 97 0a d2 be c0 b5 d8 be 19 b1 86 3e
       0.2057129 -0.41023704 -0.42326164 0.2630699
000170 66 1a a8 3e ea 77 3d bf a0 2f 86 bd fd 6e 7d 3e
       0.3283264 -0.740111 -0.065520525 0.2474937
000180 b5 73 b2 3d ea af f3 be 68 5b ed 3e 3c d7 ad bb
       0.087134756 -0.4759515 0.463588 -0.005305199
000190 ac 3a c8 3d 52 b1 66 bc f1 b3 79 be 6e 86 b5 3e
       0.09776816 -0.014080362 -0.24385048 0.35454124
0001a0 d1 23 8e be a0 8a 76 3d 97 3a 94 be 6d c7 b4 3e
       -0.277617 0.060190797 -0.2895095 0.353084
0001b0 80 da bd 3e 1d 53 1a be 0b fd 53 3d 56 a4 26 3e
       0.37080765 -0.15070768 0.051754992 0.16273627
0001c0 a0 53 cd 3d 47 5d 4a 3e 66 28 88 bb 0a 09 9a 3e
       0.10025716 0.19762145 -0.0041552065 0.3008502
0001d0 e0 93 7e 3e 77 db 16 bf 5d f6 ef be 24 9e 97 bd
       0.24861097 -0.58928627 -0.46867648 -0.0740321
0001e0 cb 11 d4 3d 6c 5e 99 be 12 27 7a 3e 70 59 84 3e
       0.10354956 -0.2995485 0.24428967 0.25849485
0001f0 dc 6f c4 be 31 b1 01 3e ff 1b 8d 3e ed db 69 3e
       -0.38366592 0.1266525 0.27560422 0.22837801
000200 54 f7 4f be c6 35 db be 63 7e 99 be aa c3 56 3e
       -0.20309192 -0.42814463 -0.29979238 0.20973077
000210 e7 a9 de be a0 5b 20 bf 75 6c cb 3b b5 31 68 be
       -0.43489 -0.6263981 0.0062079974 -0.22675212
000220 1d d9 9b be 2c d1 b2 be 7f cb b5 3c 13 be 63 be
       -0.30439082 -0.3492521 0.022191761 -0.22240476
000230 e7 1a 91 3c c5 e6 ae be e2 54 8f 3e 29 80 9e be
       0.017713023 -0.34160438 0.27994448 -0.30957153
000240 60 29 ef 3e 9e d8 70 bc 4e 53 ac be c2 67 2c 3e
       0.46711254 -0.014700083 -0.33657306 0.16836455
000250 8c ea 4f 3e 36 d0 61 be 11 e3 a5 3d 5d 8e 8a 3e
       0.20304316 -0.22052082 0.0809995 0.2706174
000260 63 05 51 3d df 64 22 bf 94 76 10 bf bc 75 fd be
       0.051030528 -0.6343517 -0.56430936 -0.49503887
000270 4a 9e a5 be 74 fd fd 3e 8f 89 bf 3e 92 02 b3 3e
       -0.32347327 0.49607432 0.37409636 0.34962898
000280 22 78 72 3d 48 de a6 3d 63 cd 61 3e c2 70 04 3f
       0.0591966 0.081478655 0.22051005 0.51734555
000290 20 da 94 3d ef da 6e be 84 bc 9e 3a 8f 8f f2 3e
       0.072681665 -0.23325704 0.0012110625 0.47375152
0002a0 c3 53 b7 be 5b cb a1 3e 30 e2 81 3e 02 12 2b 3d
       -0.35806093 0.3160046 0.2536788 0.04176522
0002b0 6c 65 47 3e e5 17 f9 3e 24 c7 53 3d 2f 2a cc 3e
       0.19472283 0.48651043 0.051703587 0.39875934
0002c0 d4 c9 07 bf 6c c3 2e 3e 1c c7 0b 3e 05 93 1b bf
       -0.5304234 0.17066735 0.13650173 -0.6077121
0002d0 0c 82 af bd 1a ae 19 3e 9c f4 0a bf ec 68 91 bd
       -0.08569726 0.1500782 -0.54279494 -0.071000904
0002e0 92 73 53 bd fc 75 5b bc 19 12 ed be 70 66 92 be
       -0.05162389 -0.013394829 -0.4630287 -0.2859378
0002f0 a8 24 8a 3e 11 af a1 3e 11 4b af be a8 7b b6 be
       0.26981091 0.31578878 -0.3423696 -0.35641217
000300 db 21 ad 3e 82 25 ad bb 31 95 13 3e 17 be 8b 3e
       0.33814892 -0.0052840123 0.14412381 0.27293465
000310 5f bb d7 3d d1 f1 56 be dc 4e bf 3e eb 54 83 bc
       0.10533785 -0.20990683 0.37364852 -0.016031703
000320 4d c4 d5 bd dc a4 e7 3c eb 61 8c be 14 2d f3 be
       -0.10437832 0.028276853 -0.27418455 -0.4749533
000330 2b b1 df 3e b3 80 d7 3e 8b d1 45 be 6a 4b f8 3c
       0.43689856 0.42090377 -0.19318216 0.030309398
000340 09 42 8b be 57 25 04 bf 5d 7c cb 3e f8 5a bd 3d
       -0.27198818 -0.51619476 0.3974332 0.092458665
000350 95 a3 7a be 74 89 a4 3e 89 bd 76 3e 35 28 0f be
       -0.24476464 0.32136118 0.2409574 -0.13980182
000360 85 9d 1c 3e 55 d9 92 3d 84 92 ce be 31 2e 2a bd
       0.15294464 0.07170359 -0.40346158 -0.041547958
000370 44 76 c9 be 6d a4 01 bf 07 f5 d4 bd 9e 56 db be
       -0.39348042 -0.5064152 -0.10398298 -0.4283952
000380 ab 07 81 bc c5 f7 f9 3d 22 79 3c 3e 3f 06 00 bc
       -0.015750727 0.122054614 0.18405584 -0.007813989
000390 13 b4 c0 3e 96 c7 99 3e d8 69 a5 be 21 86 e9 3e
       0.37637386 0.30035084 -0.32307315 0.45610145
0003a0 d6 ef b4 be 3b e2 03 bd ee 9e 0a bf d5 b8 b0 bd
       -0.3533923 -0.032198172 -0.5414876 -0.08629004
0003b0 fe bc c0 be 23 d9 56 3e 84 54 df 3e a5 51 c2 bc
       -0.3764419 0.20981269 0.43619168 -0.023720572
0003c0 54 45 cb be f3 33 13 3f f9 fd 9a 3e e2 d0 ea 3d
       -0.3970133 0.57501143 0.3027189 0.114656225
0003d0 53 be 7f be a6 64 cd be ec 13 88 3c 87 b6 a9 bd
       -0.24974947 -0.4011585 0.016611062 -0.082867675
0003e0 86 3d 06 3e b2 22 ba 3d 76 97 e7 3a 76 7a 07 3f
       0.13109407 0.09088649 0.001766904 0.52921236
0003f0 0a 68 25 bf 91 47 c1 be 7a b9 80 3d 34 a5 48 bf
       -0.64611876 -0.37749913 0.06285377 -0.7837708

gconvs.3.combination_weights f4 [4, 3]
000000 82 c3 f7 3e fb 73 a1 3e 09 84 a4 3e f9 ff f8 3e
       0.48391348 0.315338 0.32131985 0.48632792
000010 81 6e a2 3e fd 8d a4 3e 71 2d f8 3e fc 2f a2 3e
       0.31724933 0.32139578 0.4847217 0.31677234
000020 6b 61 a4 3e 94 f8 f7 3e fa fc a1 3e 53 4f a4 3e
       0.32105574 0.48431838 0.31638318 0.3209177

gconvs.3.weight f4 [3, 6, 6, 4, 3, 3]
000000 89 e4 80 3e 99 c9 73 3e 57 c0 0f 3e d8 c5 e1 bd
       0.25174358 0.23807372 0.14038216 -0.11024064
000010 d5 26 e2 3e 41 7e 39 3e 0e 18 c3 3e a2 c1 8c bd
       0.4417025 0.18114568 0.3810429 -0.0687287
000020 33 83 72 3e ec ca 8a 3e bb 32 01 3f 32 ec 0b 3f
       0.23682861 0.27107942 0.50468034 0.5465728
000030 22 86 83 bd 92 58 9e 3e 25 ff a7 bd 7b e2 a7 bd
       -0.06422068 0.3092695 -0.08202962 -0.081974946
000040 64 18 5b be 6d 93 80 ba e8 e7 aa be 5d 91 90 be
       -0.21396023 -0.0009809561 -0.33380055 -0.28235903
000050 cb af a6 3e 78 06 01 be 82 1c f9 3d 20 e7 d3 bc
       0.32555994 -0.12600124 0.121636406 -0.025867045
000060 40 e6 4f be 5e 1d f0 be d9 5b b3 3e ad 6c f3 bd
       -0.20302677 -0.46897405 0.35031012 -0.11885963
000070 40 08 ed 3d 74 3f a7 3e 85 ae 19 3d a5 71 8a 3e
       0.11573839 0.32665598 0.03751995 0.2703983
000080 96 73 87 bd c1 9f 9c be 28 b2 4a be ee 24 e0 3e
       -0.06613843 -0.30590633 -0.19794524 0.43778175
000090 ad 87 c0 3e 2b ae 2a 3e 92 ec 88 3d f5 32 07 3e
       0.37603512 0.16668002 0.06685747 0.13203032
0000a0 bb 31 93 3e 45 56 88 bd 6c 46 21 3d 6b 60 1a be
       0.2874888 -0.066570796 0.0393738 -0.15075843
0000b0 e6 32 fa 3b 6d 13 0b 3f 1f 9c f6 3e d2 6d a9 3d
       0.007635462 0.54326516 0.48165986 0.082729
0000c0 c9 50 9e 3e 4f 5a b6 3d 43 1d 1b be 4d e3 03 3f
       0.3092101 0.08903944 -0.15147881 0.5151871
0000d0 b5 18 b0 be b1 c5 04 bf e5 fa 4e 3e 40 00 5f be
       -0.3439385 -0.51864153 0.20212896 -0.21777439
0000e0 61 1f f0 be 9d b9 8b be 28 3d 64 3e ef 37 ca 3d
       -0.4689894 -0.2729005 0.22288954 0.0987395
0000f0 eb fc 96 3e 78 e9 64 be d1 f0 b2 be 54 52 07 bf
       0.29489836 -0.22354686 -0.34949353 -0.5286
000100 e4 55 7f bd 31 7f 97 be 92 96 6c be 1d 1e b0 3d
       -0.06233777 -0.29589227 -0.23104313 0.08599494
000110 fb 7a 56 3e f3 b3 46 be 0b 40 00 3f 25 9a c5 3e
       0.20945351 -0.19404583 0.5009772 0.38594165
000120 76 3c 92 3e ab 7b b2 3e 95 a3 74 bd b9 a9 8b 3d
       0.28561753 0.34859976 -0.059726316 0.068194814
000130 d7 18 7c 3e cf 12 94 be 5c dd 43 3e fe 9b 36 3e
       0.2461885 -0.289206 0.1912741 0.17832944
000140 6c 4e c6 bc f6 00 b6 be 8b a8 8d 3e 07 8c 02 3f
       -0.024207316 -0.35547608 0.2766765 0.50994915
000150 53 56 b1 bd 06 46 88 3c cf 1c 2a 3d d3 7a a3 3e
       -0.08659043 0.016634952 0.04153138 0.31929645
000160 7c 0f 6a be 8a 2d a7 3e 8c 66 91 be 75 23 b0 be
       -0.2285747 0.3265193 -0.2839855 -0.34402052
000170 96 29 15 be 16 e1 69 bd f5 73 8c be 79 f7 1a 3c
       -0.14566645 -0.057099424 -0.27432218 0.009458416
000180 e8 80 3d 3e 61 5a c7 bd 65 f9 73 be 4f 6d b7 bb
       0.18506205 -0.09734035 -0.23825605 -0.0055977474
000190 ee 08 4b 3e 10 53 06 be 12 19 8b be 69 25 7c 3e
       0.19827625 -0.13117623 -0.27167565 0.24623646
0001a0 e8 9a 3a be fe 9b df be 09 c0 fe be 9d 4e 19 3e
       -0.18223155 -0.436737 -0.49755886 0.14971395
0001b0 50 53 8d be 42 52 da be 27 8b 1b be b1 d7 a4 be
       -0.27602625 -0.42640883 -0.15189801 -0.3219581
0001c0 ff d1 16 3e d7 6c 45 be 1b 14 5b be 10 22 48 3e
       0.14728545 -0.192798 -0.21394388 0.19544244
0001d0 e7 c3 36 3e 90 51 51 3e 2d 73 b4 3e 11 e4 39 be
       0.17848168 0.2044127 0.35244122 -0.18153407
0001e0 11 35 b1 be 9c 00 62 3d e3 b5 a2 be 4c 97 f5 3d
       -0.346108 0.055176362 -0.31779394 0.11991748
0001f0 53 4f b2 bd ed e0 c2 3e 99 b4 95 3e 13 7e 81 3c
       -0.08706536 0.3806223 0.29239348 0.015807187
000200 a4 b9 fb 3e 56 01 60 3e 00 9d 25 bd c4 82 cd bd
       0.4916507 0.2187551 -0.04043293 -0.10034707
000210 c2 cf 2a 3e 17 ce a9 be b1 b7 91 be 66 16 b3 be
       0.16680816 -0.33165047 -0.28460458 -0.34978026
000220 7f c4 a4 3e 43 26 3c 3e 7d d0 28 be 5b d2 1c be
       0.32181165 0.1837397 -0.16485782 -0.15314619
000230 7f 2d 7a bd 9c 59 79 3d 40 4e 2f be db 6b b9 be
       -0.061078545 0.060876474 -0.17119694 -0.362151
000240 6e 1e 29 3e 14 a3 01 3f c8 59 1d 3e 23 48 fe be
       0.16515514 0.5063946 0.1536628 -0.4966441
000250 a9 83 f5 be 6c 0c cd bd 7c 64 11 bd ba 0e dd 3e
       -0.4795201 -0.10012135 -0.03549622 0.43175298
000260 ae e8 b9 3e c3 27 e5 3e c4 c6 95 bd bd e8 04 3f
       0.36310333 0.44756898 -0.07313302 0.5191763
000270 b9 89 88 3e 72 ed 11 bb df 15 a2 3d cc 68 fa bd
       0.26667574 -0.0022266773 0.07914328 -0.1222702
000280 7d 2a 8f 3e 30 50 ca 3d dd 76 95 be 58 6b 02 bf
       0.27962103 0.09878576 -0.29192248 -0.50945044
000290 14 3e 67 bd 5c 92 0d be 9c ca 83 be fb 4a 9c 3d
       -0.056455687 -0.13825363 -0.25740516 0.07631489
0002a0 87 e1 e2 3d 2c 07 24 be cb 9a 05 bf 17 ee b6 bd
       0.11078172 -0.16018361 -0.5218932 -0.08932131
0002b0 ed c1 96 be 98 03 24 bf ad d5 31 3e 59 99 e4 3c
       -0.2944483 -0.64067984 0.17366667 0.027905153
0002c0 96 d4 b9 bc 2c cd f5 be ff a6 93 bd ed 3f c3 3e
       -0.022684377 -0.48008096 -0.07209586 0.3813471
0002d0 d4 67 b2 bb c3 1a 36 3e fe a4 63 3d 76 b9 46 be
       -0.005444506 0.17783646 0.05557727 -0.19406685
0002e0 8a 37 68 3e 84 b5 83 3e a8 93 1b 3f 46 e7 f4 bd
       0.22677436 0.25724423 0.6077218 -0.119581744
0002f0 ad ff c0 3e fd b9 f5 bd 48 90 db 3e 72 4a ec 3e
       0.37695065 -0.11998365 0.42883515 0.46150547
000300 25 6b 1d 3f 83 5c 9c be 4a 2f a0 be 9a 8f 08 bf
       0.61491615 -0.3053933 -0.3128608 -0.5334412
000310 71 62 56 bf f7 8c f3 be da 88 75 3e f0 d2 58 3e
       -0.8374396 -0.47568485 0.23977986 0.21174216
000320 53 c3 15 be 54 50 50 be e7 ee 11 3e 43 c2 dc 3d
       -0.14625292 -0.20343143 0.1425129 0.1077924
000330 c7 56 29 bf 06 01 2a bf ed 9e 34 bd 19 e4 2f bf
       -0.66148037 -0.6640781 -0.044096876 -0.68707424
000340 c1 42 36 bf a9 df f1 be 5c 51 39 be b5 bd 25 bd
       -0.7119561 -0.47240952 -0.18097442 -0.04046412
000350 71 ac 0d be 42 0a ca 3e 07 ed 83 bd c2 34 9c 3e
       -0.13835312 0.3946095 -0.06441694 0.30509
000360 b7 66 8d be 6b 28 dd 3e 2b bc 01 be 6c d3 0d 3d
       -0.27617428 0.431949 -0.12669437 0.034625456
000370 66 e4 af bd 9a dc e2 bd 4c 43 21 bf eb 25 62 be
       -0.085884854 -0.11077233 -0.6299331 -0.22084777
000380 4d fd 12 bf 2a 82 bf 3e f2 46 13 3f 4f 2e 60 be
       -0.57417756 0.37403995 0.5753013 -0.21892665
000390 ad 02 15 bc 01 de 0c 3e 84 22 b1 3c 37 7a 0b 3f
       -0.009094876 0.13756563 0.021622904 0.5448336
0003a0 60 e8 7a bd 1d b8 8e bc 39 6c 9a be 82 58 8e be
       -0.061256766 -0.017421776 -0.30160692 -0.278019
0003b0 82 1e b8 be 86 c1 05 bf 85 eb 86 3e ea 32 ac 3e
       -0.35960776 -0.5224842 0.26351562 0.33632594
0003c0 74 d5 38 bf 16 ab db ba 0c d1 d3 3e 19 f6 81 be
       -0.72200704 -0.0016759362 0.41370428 -0.2538307
0003d0 21 8c 2f 3e 08 bb d7 3d 5e 16 cc be 17 90 48 3b
       0.17143299 0.1053372 -0.39860815 0.0030603462
0003e0 2b b7 34 be bc 50 37 bf 9a 7d 3a bf 6d 4a 30 be
       -0.17647998 -0.71607566 -0.728479 -0.17215891
0003f0 36 01 c6 be 4b 41 9b 3e 67 4f b5 be 6e a5 bb be
       -0.386728 0.30323252 -0.35412142 -0.3664965

gconvs.4.combination_weights f4 [4, 3]
000000 e7 82 93 3e 55 63 a6 3e f5 80 e1 3e c3 98 93 3e
       0.28810808 0.3249766 0.440437 0.28827485
000010 1e 75 a6 3e 32 7a e2 3e b9 dc 93 3e 80 f5 a5 3e
       0.32511228 0.44233853 0.28879336 0.32413864
000020 c2 e2 e2 3e 8f 0c 94 3e ae fe a5 3e b6 f3 e2 3e
       0.44313627 0.2891583 0.32420868 0.44326562

gconvs.4.weight f4 [3, 6, 6, 4, 3, 3]
000000 2a 49 c1 3e bb ef 1e 3d 85 f4 5a bd d5 58 2d be
       0.37751132 0.038802844 -0.05345585 -0.16928418
000010 24 2c 35 be b2 68 71 3d 7e 83 02 bf 20 83 06 3e
       -0.1769262 0.058937736 -0.5098189 0.13135958
000020 09 c7 5a 3e 41 b9 0d be 3d ca cd be 3b 9e d7 be
       0.21364988 -0.138402 -0.40193358 -0.42112908
000030 df a0 3f be 36 ba 31 3e a5 6f 63 bf b3 9a 0d bf
       -0.18713711 0.1735619 -0.8884223 -0.5531418
000040 c9 57 a7 be a5 51 1e bf 74 82 50 3d 4a af d7 3e
       -0.32684162 -0.6184333 0.05090566 0.42125922
000050 20 e5 a5 3e 52 58 b3 3e 3b 90 a5 3e b8 4a 9a 3d
       0.3240137 0.3502832 0.32336602 0.07533783
000060 0b 1e f6 3d e9 d7 34 be 8e 21 2b bd 39 9d 82 3e
       0.12017449 -0.17660488 -0.041780047 0.25510576
000070 59 85 f8 3e 88 a3 1a 3e 93 5e d1 3e b7 ce 76 3e
       0.48539236 0.15101445 0.40892467 0.24102293
000080 65 3f 49 3d d4 81 f9 3e 3c 43 e5 3d 63 d1 59 be
       0.049132723 0.48731863 0.111944646 -0.21271281
000090 fb fe ad be b3 fc 9c 3d a6 8a 09 bd d6 48 86 3e
       -0.33983597 0.07665386 -0.03357949 0.26227444
0000a0 80 82 10 be 13 a8 1a be 6a 77 90 3e 21 47 a8 3b
       -0.14112282 -0.15103178 0.28216106 0.0051354324
0000b0 c6 6b af 3e be 3f a4 be bd 08 a4 be 0a 98 05 bd
       0.34261912 -0.3207988 -0.32037917 -0.0326157
0000c0 96 f4 ce bc 2b 8a 30 3e 08 af 49 3e 41 28 be 3e
       -0.025263112 0.17240207 0.19695675 0.37140086
0000d0 24 2e 51 be 84 cb eb be bb 3a ab bd a6 07 d0 be
       -0.20427758 -0.46053708 -0.08360811 -0.40630835
0000e0 6d 48 1d bf 4b 66 4e 3e be d6 ea be bc 87 2a bf
       -0.6143864 0.20156209 -0.4586696 -0.66613364
0000f0 09 ec 82 be c8 a0 81 3c 7e a6 63 be 52 06 ab be
       -0.25570706 0.015823737 -0.2223148 -0.3340326
000100 ec 02 bc 3e 28 1a 2e 3c ec e7 f9 be be 37 f1 be
       0.3672098 0.010626353 -0.48809755 -0.4711284
000110 15 31 92 3c cc d4 23 bd e7 89 e1 3d 4f 18 ce bc
       0.01784567 -0.03999786 0.11012631 -0.025158076
000120 cc 81 b4 bc 2b 2f 01 3e 10 a6 5e 3e d4 b2 11 3e
       -0.022034548 0.1261565 0.21743035 0.14228374
000130 d0 32 65 be ed 37 42 3e 5a 7b cb 3e e1 5f 46 3e
       -0.22382665 0.18966646 0.39742547 0.19372512
000140 f0 91 db 3d 40 c6 91 3d e4 47 0a 3f 05 da 6c 3e
       0.10721195 0.07117891 0.54015946 0.23130043
000150 16 7e 29 3d 26 aa e2 be dc d0 4a be e2 29 e9 be
       0.04138001 -0.44270438 -0.19806236 -0.45539767
000160 b5 1f 2e be 26 7e be be 43 0d 53 bd 22 9f 90 3c
       -0.17004283 -0.3720562 -0.05152632 0.017654005
000170 87 a8 38 bd 26 92 3e 3e 85 be 86 3e db 73 75 bd
       -0.045082595 0.18610439 0.2631723 -0.05992494
000180 41 27 dc 3e 6b 98 8c bd f3 de 3f 3e 95 51 a9 3d
       0.42998698 -0.06865009 0.18737392 0.08267514
000190 56 f7 9f bd b6 92 0d be e8 5a e7 bd bc 02 78 be
       -0.078108475 -0.13825497 -0.11296636 -0.24219793
0001a0 60 b9 5e be b9 01 c9 be 38 87 c1 3b 94 ae 0a bd
       -0.21750402 -0.39259127 0.005906012 -0.033857897
0001b0 ca 41 31 bd 9d da df 3e 22 46 e5 bb 99 75 c1 be
       -0.043275632 0.43721476 -0.006996886 -0.37785032
0001c0 2f 67 b0 bd 4b a9 9e 3e 94 26 01 3e 2a c0 cb 3c
       -0.08613431 0.30988535 0.12612373 0.024871904
0001d0 d7 aa de 3e 9e 5c 88 be 99 63 96 be 7d 90 bb 3c
       0.43489715 -0.2663316 -0.29372862 0.022896046
0001e0 57 53 1c bf 84 ef 3a be f0 91 14 3e a2 f7 ec be
       -0.61064667 -0.1825543 0.14508796 -0.4628268
0001f0 77 04 ed be 18 7f 76 be 0f f4 72 be c2 e4 cf bd
       -0.4629247 -0.2407192 -0.23725913 -0.10151054
000200 17 b0 a4 3d 74 95 5b be bc 80 ca 3e 9a 2b 93 3e
       0.08041399 -0.2144373 0.39551342 0.28744203
000210 82 92 02 3e 28 96 d3 3e 69 5b 64 be 2d 50 3e be
       0.12751201 0.41325498 -0.22300495 -0.18585272
000220 db 94 cb be 01 91 8c bd 27 8b 0b 3f ac b8 98 3d
       -0.39762005 -0.06863595 0.54509205 0.07457098
000230 fd c7 6c be 2a cc c7 3e 4c 8e fa 3e de 19 c5 3d
       -0.23123164 0.39022952 0.4893669 0.096240744
000240 7e 9e 0e bf a3 84 2d be a8 f7 20 bf c0 a6 32 bf
       -0.5571059 -0.16945128 -0.62877893 -0.6978569
000250 fb 0c e9 be 6b 14 23 3e 1e 27 d3 be 01 29 e5 3d
       -0.45517716 0.15925758 -0.41240782 0.111894615
000260 13 94 cd 3d d0 2a 7e 3d ab d2 d6 3d 4b 49 16 be
       0.100380085 0.062052548 0.104894005 -0.14676397
000270 29 c1 f4 bb e8 8d fe bc fa f8 4a 3e 4a 97 7e bd
       -0.0074693155 -0.031073526 0.1982154 -0.062156
000280 22 42 a2 be 26 e3 55 3e 44 cf 17 3e ca 9f f4 be
       -0.3169108 0.20887432 0.1482516 -0.4777816
000290 1e 49 58 3e c2 61 bf 3e d4 9d 70 3d ab ab 87 be
       0.21121642 0.3737927 0.058744267 -0.2649816
0002a0 39 d1 35 be b5 23 51 3e 4b a4 79 be 4e e6 ab be
       -0.17755593 0.20423777 -0.24379079 -0.33574146
0002b0 7f cb f7 bd d0 90 f5 3d d7 5f 92 3e e0 cf 69 3a
       -0.12099361 0.119905114 0.28588745 0.00089192204
0002c0 4a 74 11 3e 73 9d 59 3e e3 5d 27 bf 4a fa 08 be
       0.14204517 0.21251468 -0.65377635 -0.13376728
0002d0 04 9f 9a be a4 d7 29 bf 55 fe 9c 3d 52 dd 68 3c
       -0.30199444 -0.66344666 0.076656975 0.014212923
0002e0 1b cf f7 3d c0 35 d9 3d ba 51 3f 3f ad 3c 8f 3f
       0.12100049 0.10605955 0.7473408 1.1190392
0002f0 1a 98 d9 bc 36 1f 15 bd e0 b8 c1 3e 99 86 36 be
       -0.026561785 -0.03640672 0.3783636 -0.17824782
000300 07 c0 08 3e ca b4 2a be 71 4a d2 be 5c 74 f9 3d
       0.13354503 -0.16670528 -0.4107242 0.12180397
000310 bb c1 c8 bd b2 cf 36 bf 41 9c 6d 3e 1c 11 cf 3e
       -0.09802576 -0.7141067 0.23204137 0.4044274
000320 71 dd 0c 3f 29 54 a6 be d6 83 21 3e 29 57 85 3e
       0.5502539 -0.32486084 0.15772948 0.2604306
000330 36 e6 0e 3f 98 a7 d5 bb 84 85 31 bd ea 55 23 3f
       0.55820024 -0.006520223 -0.04334022 0.6380297
000340 ee 31 21 3f 4d db 15 3f 44 e9 92 bd c7 a7 52 bd
       0.6296681 0.5853775 -0.07173398 -0.051429536
000350 d8 58 8c be 6a ea 15 3e eb 69 a1 bd 35 66 c7 be
       -0.27411532 0.14640203 -0.078815304 -0.38945165
000360 c7 a2 95 bd 86 d3 a3 3e 09 64 e7 bd e7 18 85 bd
       -0.07306438 0.31997317 -0.11298377 -0.0649889
000370 19 84 93 be 8d 85 63 3e b9 e1 85 be 1a a3 86 3e
       -0.2881172 0.22218914 -0.26148775 0.26296312
000380 dd 77 7c 3d d7 9a 87 be 83 d4 ba bd c7 6d 8c 3d
       0.061637748 -0.2648532 -0.09122565 0.06856876
000390 2c 18 16 bf 8e 70 95 be 9a 55 a9 3e 4b 5f c5 be
       -0.58630633 -0.29187435 0.3307312 -0.38549265
0003a0 cc e5 04 be 33 f1 a3 3e 5c 2d 08 be f7 87 fc 3d
       -0.12978286 0.32019958 -0.13298553 0.12330621
0003b0 88 ed b1 be 37 53 a2 3e af 5d f0 3e a2 e6 8f 3e
       -0.34751534 0.31704113 0.46946475 0.28105646
0003c0 cd 09 fc 3e b5 f8 90 3e 3e ee a6 be 27 e2 e9 3e
       0.49226227 0.28314748 -0.3260364 0.45680353
0003d0 b5 41 83 be 1a 89 cd bd 5f fe 82 3e 1a 4b 09 bf
       -0.25636068 -0.10035916 0.25584695 -0.5363022
0003e0 a1 c2 18 bf 4d 2d 25 be 0d a3 cd be 40 79 91 be
       -0.5967198 -0.16130562 -0.4016346 -0.2841282
0003f0 2c a4 88 3b f7 d4 c6 3d 3a 73 c8 3c 66 0e 23 3e
       0.0041699614 0.097085886 0.024469007 0.15923461

gconvs.5.combination_weights f4 [4, 3]
000000 f4 b0 e9 3e 2e 2e a3 3e 83 c6 c3 3e 7d 75 e9 3e
       0.45642817 0.3187117 0.3823739 0.4559745
000010 9a 33 a4 3e 12 7a c3 3e e9 5a e8 3e 2d 37 a3 3e
       0.3207062 0.3817907 0.4538186 0.31878033
000020 31 79 c4 3e d5 a5 e8 3e de 24 a3 3e 1a 33 c3 3e
       0.38373712 0.4543902 0.31864065 0.38124925

gconvs.5.weight f4 [3, 6, 6, 4, 3, 3]
000000 21 cf b6 3e 99 ab d7 be dc 12 8c be 15 3f ba 3d
       0.35704902 -0.42123106 -0.2735814 0.09094063
000010 c6 ff 72 3e 88 21 94 bd 7e d0 b2 3e 30 76 6f be
       0.23730382 -0.07232958 0.34924692 -0.23384929
000020 55 5a 89 3e 63 02 ba 3e df d4 98 3d 60 b1 8e 3e
       0.2682673 0.36329946 0.07462477 0.278697
000030 06 aa 81 be bc da a2 3e f6 3c 94 be b5 46 2e bc
       -0.2532503 0.31807506 -0.2895276 -0.010636975
000040 62 49 b0 be 6c 52 49 3e 9a 55 88 3e 11 d7 32 be
       -0.34430987 0.19660348 0.2662781 -0.17464854
000050 24 f5 12 be a0 17 0d 3e 61 24 ec 3d de 16 9f be
       -0.14351326 0.13778543 0.11530376 -0.31072134
000060 23 6a 24 be 36 6d 26 bc c6 b0 04 3e 41 83 c0 be
       -0.16056113 -0.010157874 0.12958059 -0.3760014
000070 e7 43 11 be 16 67 f0 3e 7b ab 5e be 88 54 4f be
       -0.14186059 0.46953648 -0.21745102 -0.2024709
000080 fa 2f 2b 3e 92 a3 6e 3e 9e 84 db 3a 19 4c 04 3f
       0.1671752 0.23304585 0.0016747897 0.51678616
000090 0f 1e 7b 3e f8 69 35 3d a1 62 27 3e 24 cc c6 3d
       0.24523185 0.044290513 0.16346218 0.097069055
0000a0 55 3a 81 3e c5 8c 80 3d d6 13 d8 be 87 b1 c2 3e
       0.25239816 0.0627685 -0.42202634 0.38026068
0000b0 7c 90 e1 3d 8c a8 9f 3e 82 ee 8b 3e 74 ce 01 3e
       0.11013886 0.3118328 0.27330405 0.12676412
0000c0 32 5e 93 be 79 95 be 3d 9d 37 ee bc b2 cc e1 3e
       -0.28782803 0.093058534 -0.029079253 0.44101483
0000d0 78 a4 aa be 67 61 09 be 1a 24 2e 3d ad 43 78 bd
       -0.33328605 -0.13416062 0.042514898 -0.060611416
0000e0 3d 33 ad 3e 40 92 17 3c d8 ab cb 3d 65 82 83 3e
       0.33828154 0.009251177 0.09944886 0.2568542
0000f0 08 76 11 3c fc 82 70 bd 32 aa bf bc 94 f8 aa bb
       0.0088782385 -0.058718666 -0.023396585 -0.005217621
000100 43 ae 9d 3e bd 5e 94 be 3f bf f4 3e cd 86 b4 bd
       0.30797014 -0.2897853 0.4780216 -0.08814774
000110 e7 21 5b 3d d7 48 09 3e e9 11 0a 3e 73 df be 3d
       0.05349913 0.13406692 0.13483395 0.09319963
000120 ff 3e 80 be 28 c3 9a bd db c6 8a bd 6e 86 99 be
       -0.25048062 -0.07556754 -0.0677621 -0.29985374
000130 56 a2 67 be c9 0d b2 bd c6 32 96 3e 1d dc d5 3e
       -0.2262052 -0.086940356 0.29335612 0.41769496
000140 77 e0 af 3e 9d 0a c1 be 5c 6f e2 be 26 b2 01 be
       0.3435094 -0.3770341 -0.44225585 -0.12665614
000150 2f 79 7e 3d a4 56 b4 3e 6a 9f b0 3e 0c bb b4 3e
       0.06212729 0.35222352 0.34496623 0.35298955
000160 10 0a 80 be 38 d0 ad bd 7a db dd 3d d1 2a b4 be
       -0.25007677 -0.0848698 0.108328775 -0.35188916
000170 86 23 47 3e 7c d6 54 be 51 04 ae 3e a1 8a 0a bd
       0.19447145 -0.20784944 0.33987668 -0.033823613
000180 03 e5 fa 3c 81 3a a2 3e d3 a9 b0 3c a2 45 4d be
       0.03062678 0.3168526 0.021565353 -0.20046094
000190 d8 83 47 be 8f e6 c4 3e 89 fd 0e 3e 70 2c 64 be
       -0.19483888 0.38457152 0.13963903 -0.22282577
0001a0 96 90 a0 3e 5e 4e b0 3e 0b ce 86 3d 7e 60 0d bc
       0.3136031 0.3443479 0.06582268 -0.008628963
0001b0 38 8d 02 bd 9d ed 86 be 22 42 bd be 31 d8 69 3e
       -0.031872958 -0.2635316 -0.36964518 0.22836377
0001c0 7d 6f f5 3d 74 ae ef be 51 bf 62 3e 35 c2 94 3e
       0.11984155 -0.46812785 0.22143294 0.29054418
0001d0 39 13 c0 3e 06 56 04 3f 77 d4 64 3e 18 e6 b6 3e
       0.37514666 0.5169376 0.22346674 0.35722423
0001e0 38 73 61 be 6f dd cb be e7 1e 17 bf ac 02 6b 3d
       -0.22016609 -0.39817378 -0.5903153 0.057375595
0001f0 9e 2f a5 be c2 89 a8 be 3b 6e 43 3e 23 8a 0c 3e
       -0.32262892 -0.329176 0.19085018 0.1372457
000200 cc da 87 3e dd 32 f7 bd f4 a1 8c be eb 70 eb bd
       0.26534116 -0.12070248 -0.2746731 -0.11496147
000210 dc 5b 50 3c 3b 14 1e bf 2b 19 8d 3d 1b 55 36 bf
       0.0127172135 -0.6174962 0.06889566 -0.7122361
000220 71 8b b8 be 3f 92 17 bf 36 70 98 be 3d 03 81 bd
       -0.36043885 -0.5920753 -0.2977311 -0.06299446
000230 9c 5b 0f bf 36 51 60 be 42 a0 6d 3e b1 b0 6d 3d
       -0.5599916 -0.2190598 0.23205665 0.058029834
000240 cc a5 c0 be 7a eb cf 3d 17 c1 26 be e1 e4 a4 be
       -0.37626493 0.101523355 -0.16284595 -0.3220587
000250 6a 23 2b be 7b db 4b be 4c 17 dd be b3 0d 33 be
       -0.16712728 -0.19907944 -0.43181837 -0.17485695
000260 d3 4e bd be 02 f2 92 be 58 4a 48 3e 3a 08 2b 3d
       -0.369742 -0.28700262 0.1955961 0.041755892
000270 2f 17 20 3e 6b 26 e5 be 4a 66 93 be e7 3d 38 bd
       0.15633844 -0.44755873 -0.28788978 -0.04498091
000280 5b 5f 03 bf 14 67 af be 7e fc 11 3e d3 b7 1a bf
       -0.51317376 -0.3425833 0.14256474 -0.60436743
000290 42 2f 7f be f9 da 18 bd ca 94 d5 be bb 88 82 be
       -0.24920371 -0.037318204 -0.4171508 -0.25494942
0002a0 e9 bd 1a be 48 3f 11 3e d3 a3 d5 bd be 0d 08 be
       -0.15111507 0.14184296 -0.104316376 -0.13286492
0002b0 a5 dd f4 be dd 2e 9c 3e 1e b9 eb be df 58 d1 3d
       -0.4782535 0.30504504 -0.4603967 0.10222029
0002c0 20 48 cb be 7e fa fc be 8e 71 ba bd 7e 51 0e be
       -0.39703465 -0.4940986 -0.0910369 -0.13898274
0002d0 4a 6a 21 bc 96 a9 80 be 3b b1 ab be d4 d5 36 3c
       -0.009852001 -0.25129384 -0.33533654 0.011159379
0002e0 41 ea 87 3d 42 f5 7b 3e bb da b4 bd 73 41 89 3e
       0.06636477 0.24605277 -0.08830782 0.26807746
0002f0 2e 92 a7 be c0 28 b9 3e 2d b5 84 3e 96 95 96 3c
       -0.32728714 0.36163902 0.25919476 0.018381875
000300 8b 5a 60 be 2d 4f 98 3e 1c 78 9f 3e e6 3e 2a 3e
       -0.2190954 0.29747906 0.31146324 0.16625556
000310 89 97 8b be db 28 87 3e 0d 4e 79 3c e2 62 a6 3e
       -0.2726405 0.26398358 0.015216363 0.32497317
000320 7f 62 1c 3e b4 59 b6 3e a9 46 8e 3e 48 67 7b 3e
       0.15271948 0.35615313 0.27788284 0.24551117
000330 55 e0 57 3e fb 95 ba bc ef 2b da 3e 30 ee 16 be
       0.2108167 -0.022776594 0.42611644 -0.14739299
000340 29 8f d2 bc cd 0d 00 3e 60 3e 25 be e4 a9 5b be
       -0.02570303 0.12505265 -0.16137075 -0.21451527
000350 3c 65 b2 3d 1f b7 93 3e 70 d7 a0 3d 21 93 de 3e
       0.08710715 0.28850648 0.078535914 0.43471625
000360 d7 82 c4 bd 5d 06 b7 be 82 13 69 be 4b 28 08 bf
       -0.09595268 -0.35747042 -0.22761348 -0.5318648
000370 a2 68 e3 be 2e fa 49 bf 08 43 10 bf b5 43 db be
       -0.44415766 -0.7889737 -0.5635228 -0.42825094
000380 d1 de e5 bc 8f b9 86 be 88 09 94 be 93 ea 77 3e
       -0.028060349 -0.26313445 -0.28913522 0.24210577
000390 53 29 81 3e 1e 0b a3 be 80 dd b4 be b3 bf 6e bd
       0.2522684 -0.3184442 -0.3532524 -0.058288287
0003a0 9f 53 56 3e 97 66 20 bf 5f b5 28 3e 48 34 02 3e
       0.20930336 -0.6265654 0.16475438 0.12715256
0003b0 6c 92 0d 3e 62 ee 01 bf a0 dd 86 3e 0e 13 a2 3d
       0.13825387 -0.5075437 0.2634096 0.07913791
0003c0 5c 4b 4a be 00 e9 40 be a1 ce 00 3f a1 49 7d 3c
       -0.1975531 -0.18838882 0.5031529 0.015459449
0003d0 bc 16 2f be 16 64 e4 bd a4 e5 a0 3e d3 64 64 3e
       -0.17098516 -0.111519024 0.31425202 0.22304086
0003e0 d8 36 5a be e7 75 8b 3e e6 52 6f 3e 9d 6c d2 be
       -0.21309984 0.2723839 0.23371467 -0.4109849
0003f0 d4 fa 84 be 03 c6 9f be 89 df 06 3c 1f 3f ef 3d
       -0.25972617 -0.31205758 0.008232006 0.11681961

final_layer.combination_weights f4 [4, 3]
000000 99 fc e7 3e aa 0a a0 3e 3e 07 d9 3e c1 ff e7 3e
       0.45309904 0.31258136 0.42388338 0.45312312
000010 a8 34 a0 3e e1 f8 d8 3e 41 23 e8 3e 09 b9 9f 3e
       0.31290174 0.4237738 0.45339397 0.31195858
000020 ca eb d8 3e d5 1c e8 3e e2 02 a0 3e 75 26 d9 3e
       0.42367393 0.45334497 0.312522 0.42412153
