runs/P4CNN_iso_std0.2_gamma2_lr0.002/model.pt (torch, 105509 bytes, 10 tensors)

lifting_conv.weight f4 [10, 1, 3, 3]
0.24441598 -0.150608 -0.12082185 0.40007254 0.073480144 0.108182475 0.2532965 -0.022228533
-0.17617418 0.5765742 0.23816656 -0.07399931 0.06579883 0.029234659 -0.124184795 -0.09846908
0.0077500213 0.0060606464 0.28318614 0.29832008 -0.21572046 0.2951342 0.21884604 0.015333904
-0.2629495 -0.12536557 -0.058003984 -0.18125527 -0.20201091 -0.056007113 -0.09518862 0.3303733
0.1850751 -0.1133598 0.31136355 0.6512447 -0.78550154 0.36931014 0.08900831 -0.42451668
0.026285112 0.07862434 -0.24970233 -0.6797295 0.4645505 -0.16746873 0.32672182 0.5517672
-0.32355756 -0.49153703 -0.57604295 -0.07174603 0.018978227 -0.070098884 0.063315004 0.22825117
-0.23273103 -0.27444762 0.5035332 -0.19586636 -0.14414851 -0.3147945 0.31609216 0.0041521857
0.16936596 0.10476667 -0.22165796 -0.02943892 0.30258003 -0.19837308 0.14659508 0.11394488
0.051278334 -0.22520134 0.15301277 -0.002773115 -0.010031022 -0.15415671 -0.13212687 0.17360625
0.3367789 -0.031524334 -0.012880529 -0.13852179 -0.13161655 0.2546538 0.19006227 -0.3212434
0.030634826 0.32401615
00000000: 2f48 7a3e fc38 1abe 7271 f7bd 4fd6 cc3e
00000010: c27c 963d c68e dd3d 14b0 813e 9d18 b6bc
00000020: 0167 34be 5e9a 133f efe1 733e f38c 97bd
00000030: 89c1 863d 867d ef3c 9954 febd 28aa c9bd
00000040: e4f3 fd3b 6398 c63b c6fd 903e 69bd 983e
00000050: d3e5 5cbe d41b 973e 2d19 603e 0e3b 7b3c
00000060: 51a1 86be d55f 00be 9695 6dbd fb9a 39be
00000070: f3db 4ebe b767 65bd 40f2 c2bd b026 a93e
00000080: 5484 3d3e 2f29 e8bd 0b6b 9f3e f9b7 263f
00000090: a116 49bf 3816 bd3e fd49 b63d 405a d9be
000000a0: e053 d73c cc05 a13d f8b1 7fbe c102 2ebf
000000b0: 90d9 ed3e ec7c 2bbe 1548 a73e 9d40 0d3f
000000c0: 56a9 a5be beaa fbbe 8d77 13bf 95ef 92bd
000000d0: 3a78 9b3c 0190 8fbd 4cab 813d adba 693e
000000e0: 0b51 6ebe 6684 8cbe 8de7 003f 3191 48be
000000f0: ab9b 13be bf2c a1be d5d6 a13e 0f0f 883b
00000100: 456e 2d3e e88f d63d 4efa 62be e429 f1bc
00000110: c5eb 9a3e 5022 4bbe 051d 163e ef5b e93d
00000120: 3b09 523d 2e9b 66be 61af 1c3e 26bd 35bb
00000130: 2859 24bc 42db 1dbe 444c 07be d6c5 313e
00000140: 496e ac3e a91f 01bd db08 53bc a8d8 0dbe
00000150: 7dc6 06be fc61 823e af9f 423e 047a a4be
00000160: e3f5 fa3c 72e5 a53e

gconvs.0.weight f4 [10, 10, 4, 3, 3]
-0.011325419 -0.019607242 0.07446868 0.0054894257 0.0054322444 0.012317167 0.0523367 0.03517822
-0.01647376 -0.030262092 0.028249105 -0.06919822 -0.09769201 0.010486476 -0.05534932 -0.028740805
-0.11498253 -0.12188761 -0.09190736 -0.044334933 -0.09119427 0.021435048 0.042191748 -0.045609202
0.02264075 -0.047107194 -0.14173737 0.032423135 -0.041492846 0.06708871 -0.01663705 -0.14978687
0.0054466235 0.036860522 -0.014607379 0.045988094 0.05584242 -0.04981754 -0.0023272259 -0.009581399
-0.050255984 -0.031587057 -0.06976629 -0.059290275 -0.107838124 0.04549615 -0.10780803 0.08288296
-0.117573276 0.058595095 -0.114005476 -0.09980542 -0.017976344 -0.11147029 0.011345316 0.060369283
0.030835694 0.051370688 -0.108073436 -0.07312591 -0.0402866 -0.08852189 -0.09700209 -0.044309996
-0.12981868 -0.048573963 -0.03867248 -0.13255326 -0.105064906 -0.10211561 -0.020167576 -0.09568651
0.046448976 0.00064769917 -0.08668344 0.037463374 -0.053135667 -0.031908095 -0.019865626 -0.12268969
0.025153374 -0.08035364 0.026777033 -0.1391952 0.047801435 -0.14073066 0.042145595 -0.09482217
-0.07910839 -0.09063744 -0.121057026 0.0013503747 -0.11418848 0.0061647836 -0.06484707 -0.034992468
-0.10355784 -0.023785418 0.021134593 0.0012957267 -0.15765081 0.042029332 0.027577627 -0.09205461
-0.058699355 -0.017776862 -0.021016559 0.048321716 -0.039394334 -0.10362724 -0.06800036 -0.05672669
-0.08550444 -0.012492993 0.078985095 -0.10816803 -0.06409926 0.074390136 -0.08803228 0.06535337
0.021276053 -0.13458183 -0.08194448 0.0031890771 -0.13219939 -0.034474846 0.008166471 -0.045255635
-0.12766036 -0.017086586 -0.04727479 -0.054860614 -0.11103867 -0.103935935 -0.15762645 -0.0357327
-0.03357587 -0.07978176 -0.09949044 -0.0170195 -0.09803331 -0.0108013665 -0.03041691 -0.110042244
0.03126882 0.0039607813 -0.15882117 0.0050578476 -0.09708865 -0.14730933 -0.09402048 -0.06272749
-0.11323041 -0.07705063 0.009279087 -0.084845245 0.06144685 -0.07054399 -0.1707871 -0.20340195
0.0055294908 -0.083983086 -0.12179216 -0.0557419 0.00077462086 0.088629946 -0.0872873 -0.015793167
-0.0033486728 -0.024142466 -0.132739 0.085587166 0.055545844 0.092503116 -0.10428043 -0.04820402
-0.0059390995 -0.051717196 -0.081425354 -0.12987193 -0.035401646 0.06193549 -0.024115967 -0.151653
-0.028191952 -0.06526976 0.067789495 -0.09444398 -0.119011715 -0.10366057 -0.0756011 -0.106515795
-0.06013731 0.06325132 -0.13687012 -0.19528645 -0.0017842725 -0.056913324 -0.18017872 -0.006841924
0.04134621 0.043981414 -0.017178847 -0.040330544 -0.008205499 0.020080773 -0.16519414 0.01658364
-0.06537451 -0.078868434 -0.067889884 -0.091775574 -0.15612277 -0.0481501 -0.04139568 -0.07380918
-0.007780217 -0.0069134436 -0.10916659 0.020255195 -0.081424914 0.017507315 -0.02151066 -0.15054128
0.064953044 -0.13160764 -0.064239874 -0.05469495 -0.073705316 -0.0982555 -0.1238961 -0.120500855
0.025898173 0.06597325 0.02905485 -0.06925968 0.011263596 -0.10352017 -0.08687845 -0.124451794
0.033605378 -0.16382863 0.08789448 -0.030737277 0.012924402 -0.08092717 -0.02014732 -0.10531715
-0.08026158 -0.091510445 -0.099950425 -0.08645332 0.024935506 -0.07147373 0.056738235 0.014369578
00000000: 408e 39bc 5e9f a0bc 0983 983d a4e0 b33b
00000010: f800 b23b f1cd 493c 025f 563d 0a17 103d
00000020: fbf3 86bc 35e8 f7bc ab6a e73c ccb7 8dbd
00000030: c012 c8bd 78cf 2b3c f8b5 62bd d671 ebbc
00000040: f67b ebbd 36a0 f9bd ed39 bcbd 8c98 35bd
00000050: 10c4 babd 8e98 af3c 41d1 2c3d b7d0 3abd
00000060: 1879 b93c 79f3 40bd 9a23 11be 1fce 043d
00000070: 67f4 29bd ce65 893d 6c4a 88bc bb61 19be
00000080: 9779 b23b 0ffb 163d ca53 6fbc 035e 3c3d
00000090: 05bb 643d 7a0d 4cbd 5f84 18bb 4dfb 1cbc
000000a0: 38d9 4dbd 6e61 01bd a1e1 8ebd 5cda 72bd
000000b0: 3cda dcbd 2c5a 3a3d 75ca dcbd 8bbe a93d
000000c0: 42ca f0bd 6901 703d b47b e9bd c966 ccbd
000000d0: 2043 93bc 894a e4bd b4e1 393c c845 773d
000000e0: 239b fc3c 126a 523d 9b55 ddbd 09c3 95bd
000000f0: 9003 25bd f74a b5bd 08a9 c6bd 667e 35bd
00000100: 30ef 04be 7ef5 46bd 0967 1ebd 0bbc 07be
00000110: 452c d7bd fd21 d1bd 7936 a5bc 4af7 c3bd
00000120: 4841 3e3d 5bca 293a 1687 b1bd 3273 193d
00000130: c9a4 59bd 10b2 02bd 3dbd a2bc bb44 fbbd
00000140: 730e ce3c 7390 a4bd 825b db3c 3089 0ebe
00000150: 70cb 433d b31b 10be dca0 2c3d 2032 c2bd
00000160: 9403 a2bd 1fa0 b9bd bfec f7bd 0eff b03a
00000170: a6db e9bd f401 ca3b 8ace 84bd 4354 0fbd
00000180: 2216 d4bd a3d9 c2bc 7422 ad3c 60d5 a93a
00000190: 376f 21be f326 2c3d 7aea e13c 2187 bcbd
000001a0: bc6e 70bd c8a0 91bc eb2a acbc feec 453d
000001b0: f45b 21bd 853a d4bd c643 8bbd 3f5a 68bd
000001c0: f41c afbd 69af 4cbc f0c2 a13d 3387 ddbd
000001d0: 7946 83bd db59 983d 454a b4bd fdd7 853d
000001e0: 1e4b ae3c d2cf 09be 82d2 a7bd d6ff 503b
000001f0: 475f 07be 7f35 0dbd a9cc 053c f95d 39bd
00000200: 66b9 02be 2bf9 8bbc 36a3 41bd 86b5 60bd
00000210: 3e68 e3bd 5ddc d4bd d468 21be 745c 12bd
00000220: da86 09bd 9f64 a3bd a5c1 cbbd 7a6c 8bbc
00000230: b0c5 c8bd 37f8 30bc e22c f9bc d45d e1bd
00000240: bc13 003d 71c9 813b 04a2 22be 4dbc a53b
00000250: 6ad6 c6bd 42d8 16be cf8d c0bd 4577 80bd
00000260: 58e5 e7bd b8cc 9dbd 5007 183c 58c3 adbd
00000270: b1af 7b3d 5e79 90bd d0e2 2ebe 9a48 50be
00000280: bb30 b53b 53ff abbd 2b6e f9bd 9e51 64bd
00000290: ed0f 4b3a 9e83 b53d afc3 b2bd ac60 81bc
000002a0: 6875 5bbb 6cc6 c5bc bbec 07be 5348 af3d
000002b0: 0a84 633d 4672 bd3d fa90 d5bd 9471 45bd
000002c0: c79c c2bb 69d5 53bd 56c2 a6bd 26fd 04be
000002d0: 5101 11bd 12b0 7d3d d98e c5bc ed4a 1bbe
000002e0: cff2 e6bc 27ac 85bd 38d5 8a3d d86b c1bd
000002f0: 6abc f3bd fe4b d4bd c0d4 9abd f424 dabd
00000300: 8a52 76bd e889 813d ae27 0cbe 2cf9 47be
00000310: 40de e9ba f21d 69bd c580 38be 3832 e0bb
00000320: a55a 293d db25 343d a7ba 8cbc a431 25bd
00000330: 5b70 06bc 6f80 a43c a728 29be 6ada 873c
00000340: 12e3 85bd c685 a1bd da09 8bbd d5f4 bbbd
00000350: a6de 1fbe 0a39 45bd 848e 29bd 4429 97bd
00000360: 31f1 febb 2b8a e2bb bc92 dfbd 39ee a53c
00000370: 1bc2 a6bd 806b 8f3c 2037 b0bc 7e27 1abe
00000380: 1a06 853d 27c4 06be 3290 83bd d007 60bd
00000390: d0f2 96bd 2e3a c9bd 3dbd fdbd 27c9 f6bd
000003a0: 6828 d43c fc1c 873d 7004 ee3c 05d8 8dbd
000003b0: f28a 383c 6202 d4bd 54ed b1bd 95e0 febd
000003c0: cba5 093d b1c2 27be 0502 b43d becc fbbc
000003d0: dfc0 533c 25bd a5bd fe0b a5bc 85b0 d7bd
000003e0: 2f60 a4bd d469 bbbd cfb2 ccbd 700e b1bd
000003f0: 8c45 cc3c d260 92bd 5a66 683d 616e 6b3c

gconvs.1.weight f4 [10, 10, 4, 3, 3]
-0.09941863 0.08429863 0.052765757 -0.05919461 0.035157558 -0.06209939 0.04557688 0.07945888
-0.016174661 -0.09542071 -0.017726494 0.066354394 -0.030355219 -0.090783305 0.063403524 0.024253067
-0.08657904 0.0851754 -0.08712173 0.01439143 -0.055120785 0.032444715 -0.015058457 -0.04933889
0.01857767 0.07536286 -0.010480767 0.0153294625 0.008441133 0.066653565 -0.009508309 -0.104534954
0.034450866 -0.07146818 -0.09297012 -0.061012078 0.030760407 0.023433626 -0.020525856 -0.055026285
0.02849067 -0.01974138 0.07691457 -0.052420706 -0.062058933 -0.050227143 -0.044491474 -0.03826249
0.02864449 -0.011945663 0.03692373 0.0644397 0.07935263 -0.04821436 -0.107364915 -0.11538077
-0.07695371 -0.03851989 -0.038038272 -0.10361898 -0.08291416 -0.09558276 -0.00035419673 0.0061931773
0.062853806 0.07984046 0.0701947 0.023183629 -0.08662625 -0.079944395 -0.07139278 -0.03029539
0.06389135 -0.06431208 0.008194621 0.015598765 -0.14620839 -0.28260317 -0.16768076 0.044541072
-0.103087224 -0.21319129 -0.23061712 -0.08634891 -0.26028723 0.039322447 -0.050895978 -0.045033555
-0.05544474 0.043953266 -0.09346563 -0.13469283 -0.13604684 -0.114339925 -0.14727993 -0.28199854
-0.24469097 0.03994827 -0.13545865 -0.13289285 0.08860444 -0.056641113 -0.11262205 0.020991225
-0.07007039 -0.1924038 -0.023000201 -0.11451799 -0.18362315 -0.12500958 -0.26396492 -0.3012206
-0.053897068 -0.13095117 0.021323275 0.014839328 -0.057784423 -0.056852464 -0.09721448 -0.17612067
0.15296756 0.03732068 -0.050796136 -0.112951174 0.023857338 -0.22606492 -0.1253967 -0.14625277
-0.14678818 -0.0001815306 -0.08722645 -0.21232536 -0.22008446 0.010589101 -0.11278077 0.0055331923
-0.12973058 -0.25445986 -0.0813109 -0.13767241 -0.15171449 -0.0733722 -0.24937387 -0.034443457
-0.21541598 -0.038706243 -0.038404446 -0.18229552 -0.15642911 -0.11396487 -0.097968236 -0.09645467
-0.040220875 -0.13264664 -0.0962359 -0.2275174 -0.11720965 0.02200487 -0.03052618 -0.1550099
-0.10057069 -0.19146352 0.014615304 -0.09859458 -0.18570775 -0.008331371 0.041155215 -0.07006383
0.039896883 -0.06959987 -0.15985301 -0.09134534 -0.1498895 -0.19623053 -0.15523624 -0.064097755
-0.06573846 -0.05443269 -0.05698041 -0.098110095 0.026228279 -0.017158777 0.03530063 0.032019816
-0.035031874 0.0104633365 0.08057212 -0.021441473 -0.01261835 -0.08154806 -0.11205229 0.015154577
-0.061495576 -0.07469711 -0.10146954 -0.08118117 -0.058069758 -0.02485717 0.046239227 -0.019633723
0.050421942 -0.04186452 0.08069968 -0.028662933 -0.10531295 0.07950993 0.052390423 -0.06541081
0.03462596 -0.05473654 0.053973068 -0.10686997 -0.077802986 -0.024018977 -0.003213152 -0.023395801
-0.192292 -0.17880964 -0.12361411 -0.055759825 0.22393642 -0.17163874 0.05374832 0.0529586
-0.3029884 -0.11701873 -0.26636654 0.086527295 -0.043297227 -0.19318539 -0.22170329 -0.096802466
-0.06661316 -0.05890721 0.019626947 -0.34173086 -0.17793438 -0.06338702 -0.1127365 -0.34223253
0.020841412 -0.24171662 -0.17728041 0.0219972 0.18084861 -0.06108781 -0.2445648 -0.03809786
-0.28310296 -0.10228434 -0.24823444 -0.2029437 -0.055969417 -0.07291236 -0.09956389 -0.029015455
00000000: ff9b cbbd c3a4 ac3d e820 583d 0c76 72bd
00000010: 5f01 103d ee5b 7ebd d3ae 3a3d 56bb a23d
00000020: b980 84bc ef6b c3bd 2737 91bc d0e4 873d
00000030: 82ab f8bc 99ec b9bd b5d9 813d 5eae c63c
00000040: 5a50 b1bd 7170 ae3d e16c b2bd 08ca 6b3c
00000050: 55c6 61bd c0e4 043d bfb7 76bc 9317 4abd
00000060: 3330 983c d857 9a3d 86b7 2bbc 6d28 7b3c
00000070: ae4c 0a3c aa81 883d bdc8 1bbc 6c16 d6bd
00000080: 5a1c 0d3d e95d 92bd 1e67 bebd cde7 79bd
00000090: 40fd fb3c e0f7 bf3c d725 a8bc 3e63 61bd
000000a0: 4465 e93c adb8 a1bc 6385 9d3d 18b7 56bd
000000b0: 8231 7ebd faba 4dbd b13c 36bd 21b9 1cbd
000000c0: d9a7 ea3c beb7 43bc 563d 173d f6f8 833d
000000d0: a283 a23d 6c7c 45bd 23e2 dbbd c14c ecbd
000000e0: e899 9dbd 08c7 1dbd 05ce 1bbd 3036 d4bd
000000f0: e6ce a9bd e5c0 c3bd 7bb3 b9b9 23f0 ca3b
00000100: 7fb9 803d 6583 a33d 3dc2 8f3d 98eb bd3c
00000110: 1a69 b1bd e3b9 a3bd 6136 92bd 0a2e f8bc
00000120: 78d9 823d 0db6 83bd bb42 063c f691 7f3c
00000130: a7b7 15be 5db1 90be 81b4 2bbe b370 363d
00000140: 651f d3bd d14e 5abe e526 6cbe b3d7 b0bd
00000150: 5e44 85be 9310 213d 4d78 50bd 1b75 38bd
00000160: 061a 63bd 5708 343d e96a bfbd ebec 09be
00000170: dd4f 0bbe 0d2b eabd 8dd0 16be 1d62 90be
00000180: 4590 7abe cca0 233d acb5 0abe 1015 08be
00000190: 3f76 b53d 8300 68bd 64a6 e6bd caf5 ab3c
000001a0: 1181 8fbd 8005 45be eb6a bcbc 6888 eabd
000001b0: b507 3cbe 8302 00be 6926 87be 9639 9abe
000001c0: 2cc3 5cbd 1018 06be 26ae ae3c a720 733c
000001d0: 5caf 6cbd 21de 68bd 6318 c7bd fa58 34be
000001e0: 87a3 1c3e 92dd 183d 9c0f 50bd f252 e7bd
000001f0: 7770 c33c 907d 67be fe67 00be 49c3 15be
00000200: a44f 16be 4059 3eb9 c8a3 b2bd d26b 59be
00000210: d25d 61be e97d 2d3c 9bf9 e6bd c84f b53b
00000220: 18d8 04be 9048 82be 5486 a6bd fff9 0cbe
00000230: 0b5b 1bbe 2a44 96bd dd5b 7fbe 9514 0dbd
00000240: 0296 5cbe 708a 1ebd fb4d 1dbd adab 3abe
00000250: f42e 20be 6a66 e9bd 92a3 c8bd 078a c5bd
00000260: a5be 24bd 85d4 07be 5417 c5bd 52fa 68be
00000270: 9d0b f0bd 8f43 b43c 0a12 fabc eaba 1ebe
00000280: 02f8 cdbd 030f 44be 0775 6f3c f5eb c9bd
00000290: 2c2a 3ebe 4d80 08bc 5f92 283d a07d 8fbd
000002a0: ea6a 233d 608a 8ebd 82b0 23be 4413 bbbd
000002b0: a27c 19be a8f0 48be 40f6 1ebe af45 83bd
000002c0: e3a1 86bd d0f4 5ebd 4a64 69bd f2ed c8bd
000002d0: b0dc d63c 9090 8cbc 6597 103d 3627 033d
000002e0: 957d 0fbd 6a6e 2b3c ff02 a53d 07a6 afbc
000002f0: 32bd 4ebc ab02 a7bd ac7b e5bd e74a 783c
00000300: c9e2 7bbd ccfa 98bd 43cf cfbd 5042 a6bd
00000310: 8eda 6dbd 44a1 cbbc 5865 3d3d e7d6 a0bc
00000320: 3d87 4e3d 227a 2bbd e045 a53d 87ce eabc
00000330: 51ae d7bd 1ad6 a23d 5797 563d 1af6 85bd
00000340: f3d3 0d3d 6c33 60bd dd12 5d3d a5de dabd
00000350: 2c57 9fbd 72c3 c4bc bf93 52bb 8da8 bfbc
00000360: 32e8 44be e019 37be 6529 fdbd 6a64 64bd
00000370: 974f 653e 11c2 2fbe 3327 5c3d 1eeb 583d
00000380: 4c21 9bbe 84a7 efbd 3261 88be 3935 b13d
00000390: 6f58 31bd 64d2 45be 3006 63be 5f40 c6bd
000003a0: 7b6c 88bd b048 71bd b1c8 a03c 59f7 aebe
000003b0: 6e34 36be 0ed1 81bd 65e2 e6bd 1a39 afbe
000003c0: 9cbb aa3c 9084 77be ff88 35be 7933 b43c
000003d0: 6130 393e 3637 7abd 326f 7abe 800c 1cbd
000003e0: dff2 90be 747a d1bd 2b31 7ebe 79d0 4fbe
000003f0: 3040 65bd 1353 95bd 27e8 cbbd d2b1 edbc

gconvs.2.weight f4 [10, 10, 4, 3, 3]
-0.22356942 -0.12519494 -0.068738185 -0.073263094 -0.080624305 -0.028835198 -0.18345875 -0.03182288
-0.15747987 0.08292477 -0.015084373 0.04057101 -0.06347941 -0.089400165 -0.21765076 -0.24541622
-0.2726496 -0.037833337 -0.23786604 -0.17295331 -0.139508 -0.22519954 -0.15769397 -0.10367635
-0.03974933 0.04271728 0.015380948 -0.19244498 0.012293101 -0.1425732 -0.008095243 -0.06335059
0.056773752 -0.008020439 -0.07490903 -0.05074302 -0.28839502 0.24071051 0.38995543 -0.3278003
0.12738729 0.23635316 -0.12934184 0.1733026 0.15531184 -0.0005913655 -0.30346817 -0.07971072
-0.21120495 0.010044384 0.07297434 -0.26778635 -0.05456877 0.115700684 -0.074941285 0.052344967
-0.21150276 0.0681849 -0.21301137 -0.30729896 0.048052993 -0.13835661 0.013755324 -0.60996807
-0.06219659 -0.24172655 -0.3675837 0.08249397 -0.10924268 -0.6299675 0.20317611 0.28120482
-0.26614895 0.08052856 -0.101687774 0.10165931 0.17665406 -0.05523299 0.16649805 0.017409861
0.0054786247 0.43899155 -0.047152862 -0.28968552 0.16803227 -0.113492824 0.008231929 0.1670553
0.15396257 -0.09695056 0.09711702 -0.24049458 -0.27983707 0.08347207 -0.13380823 -0.19285646
0.26049858 0.14721622 0.22047684 0.009612069 -0.16435947 -0.1549127 -0.037810393 -0.09466155
-0.2724344 -0.48955238 0.21904396 -0.0002499754 -0.3188004 -0.43758956 -0.6223755 -0.20156732
-0.21521188 -0.07655279 0.018317586 0.15899025 0.23182651 -0.62785316 0.3228746 0.20960097
-0.54937077 0.19768551 0.07486616 -0.5434713 0.117152296 -0.03269113 0.23906304 0.030873861
-0.074629396 0.13031116 -0.021470236 0.28325534 -0.049447726 -0.1335306 0.38868424 -0.061568413
-0.15647258 -0.6477789 0.11863578 -0.24890447 -0.3876801 0.26502448 -0.37121126 -0.43941697
0.1605218 0.23311822 0.07209494 0.26178315 0.06608719 0.098954424 0.2493052 0.044863474
0.12097276 -0.3770091 -0.42704037 -0.22814257 -0.2772933 0.17001684 0.31160706 -0.45322394
0.05734993 0.30817834 -0.28404108 -0.09184839 0.004568691 -0.104536556 -0.11754992 -0.025114914
-0.17854914 -0.06648641 -0.23419696 -0.5086956 0.02327971 0.08072235 -0.12272523 0.19329943
0.43256813 -0.6340591 0.113049306 0.48770845 -0.038874924 -0.12615724 -0.1645372 -0.21946923
-0.3479351 0.077253856 -0.36958134 -0.28628254 0.24843648 0.3490325 -0.01341938 -0.413966
0.15114765 -0.24301587 -0.64002544 -0.33269224 -0.35824022 -0.3873018 -0.10834052 -0.01920656
-0.08121259 -0.15728156 -0.17173219 -0.02571029 -0.23378184 -0.103419304 0.10508393 -0.32926664
0.20545407 0.22103196 -0.38649243 0.124378204 0.19709568 -0.27691227 0.08971836 0.13267586
0.2993392 0.13068387 -0.25359997 0.17928268 -0.07047384 -0.3708505 -0.019409152 -0.1700734
-0.46041134 -0.38885635 -0.66862035 -0.14942864 -0.69024736 -0.3864339 0.34360433 -0.71937776
0.015504848 0.36235812 -0.2519223 -0.14385977 -0.13949166 -0.0011054309 -0.16043118 0.027614843
-0.21433046 -0.11472211 0.021297002 0.12573883 -0.078249864 -0.13003093 0.07446516 -0.22222707
-0.13612407 -0.5325157 -0.46995193 -0.31080213 -0.21721572 -0.36495253 -0.42780042 -0.2606162
00000000: 62ef 64be 1a33 00be 9bc6 8cbd f60a 96bd
00000010: 5b1e a5bd cb37 ecbc 9cdc 3bbe b558 02bd
00000020: 6742 21be 76d4 a93d 7224 77bc ca2d 263d
00000030: 7e01 82bd 6f17 b7bd d7df 5ebe 644e 7bbe
00000040: ba98 8bbe 21f7 1abd 2893 73be ac1a 31be
00000050: 2fdb 0ebe b59a 66be 877a 21be 4454 d4bd
00000060: 32d0 22bd 51f8 2e3d 5f00 7c3c 4c10 45be
00000070: 0169 493c b5fe 11be e9a1 04bc f4bd 81bd
00000080: 988b 683d 2968 03bc e869 99bd ead7 4fbd
00000090: 83a8 93be d17c 763e 3da8 c73e 71d5 a7be
000000a0: d071 023e 9006 723e 3072 04be 3d76 313e
000000b0: 110a 1f3e de05 1bba 2e60 9bbe 603f a3bd
000000c0: 1c46 58be 3391 243c 9273 953d 4b1b 89be
000000d0: 8183 5fbd 7bf4 ec3d d17a 99bd ad67 563d
000000e0: 2e94 58be 86a4 8b3d a71f 5abe 4a56 9dbe
000000f0: 37d3 443d 5bad 0dbe 035e 613c de26 1cbf
00000100: dac1 7ebd 2a87 77be ee33 bcbe 99f2 a83d
00000110: a0ba dfbd 8d45 21bf 660d 503e 14fa 8f3e
00000120: ad44 88be 28ec a43d ae41 d0bd c232 d03d
00000130: cde4 343e fd3b 62bd 777e 2a3e 209f 8e3c
00000140: 0986 b33b 80c3 e03e 5c23 41bd a951 94be
00000150: a710 2c3e ed6e e8bd 36df 063c 8b10 2b3e
00000160: 5da8 1d3e 048e c6bd 4ae5 c63d 3644 76be
00000170: ce46 8fbe 68f3 aa3d 0605 09be 2a7c 45be
00000180: 1260 853e d9bf 163e aec4 613e f17b 1d3c
00000190: d94d 28be 6fa1 1ebe 12df 1abd eadd c1bd
000001a0: 867c 8bbe 9ca6 fabe 0f4d 603e 210f 83b9
000001b0: ce39 a3be bd0b e0be 0054 1fbf aa67 4ebe
000001c0: 8160 5cbe b6c7 9cbd c30e 963c 57ce 223e
000001d0: ee63 6d3e fcba 20bf d24f a53e a3a1 563e
000001e0: 90a3 0cbf 126e 4a3e 6e53 993d ef20 0bbf
000001f0: 8bed ef3d 22e7 05bd f1cc 743e 2eeb fc3c
00000200: 4cd7 98bd 4a70 053e 59e2 afbc d806 913e
00000210: b389 4abd 3fbc 08be 9f01 c73e 292f 7cbd
00000220: 593a 20be d7d4 25bf 51f7 f23d d0e0 7ebe
00000230: 027e c6be 4ab1 873e 670f bebe 43fb e0be
00000240: d45f 243e 8bb6 6e3e 83a6 933d 7108 863e
00000250: b858 873d 9ea8 ca3d dd49 7f3e c3c2 373d
00000260: 91c0 f73d 5607 c1be 09a5 dabe 359e 69be
00000270: 63f9 8dbe e518 2e3e f68a 9f3e f80c e8be
00000280: c3e7 6a3d 8dc9 9d3e d56d 91be 021b bcbd
00000290: f5b4 953b 4317 d6bd 03be f0bd cbbd cdbc
000002a0: 96d5 36be 072a 88bd 54d1 6fbe e039 02bf
000002b0: 17b5 be3c c251 a53d 5e57 fbbd 49f0 453e
000002c0: 9279 dd3e b251 22bf 6586 e73d ecb4 f93e
000002d0: 503b 1fbd 5d2f 01be 717c 28be 8bbc 60be
000002e0: 8d24 b2be 4537 9e3d c439 bdbe a093 92be
000002f0: 2266 7e3e 63b4 b23e f6dc 5bbc 5af3 d3be
00000300: 73c6 1a3e 27d9 78be b5d8 23bf a356 aabe
00000310: 436b b7be 6c4c c6be a2e1 ddbd 1357 9dbc
00000320: c952 a6bd 6b0e 21be 90da 2fbe 639e d2bc
00000330: 8264 6fbe 80cd d3bd 3e36 d73d a395 a8be
00000340: 8d62 523e 3456 623e 56e2 c5be 00ba fe3d
00000350: 73d3 493e 72c7 8dbe 42be b73d 2edc 073e
00000360: fd42 993e fed1 053e dbd7 81be e195 373e
00000370: 9754 90bd 1ee0 bdbe f1ff 9ebc b927 2ebe
00000380: 09bb ebbe 2e18 c7be b42a 2bbf d203 19be
00000390: 0db4 30bf aada c5be e8ec af3e 2429 38bf
000003a0: 0c08 7e3c 0187 b93e f6fb 80be fa4f 13be
000003b0: e7d6 0ebe 1be4 90ba 1248 24be 8638 e23c
000003c0: 7279 5bbe 6df3 eabd 0d77 ae3c aec1 003e
000003d0: 7741 a0bd d426 05be 3181 983d 7e8f 63be
000003e0: 1c64 0bbe f352 08bf 8a9d f0be 7521 9fbe
000003f0: cc6d 5ebe 0fdb babe a808 dbbe 7d6f 85be

gconvs.3.weight f4 [10, 10, 4, 3, 3]
-0.07322796 -0.08909184 0.055020187 0.14310186 0.08026818 -0.08678347 -0.09869463 -0.1028189
0.09994674 -0.089732416 0.02103562 0.027732989 -0.10391797 -0.020904565 -0.029945021 -0.078303106
-0.102965534 -0.0923217 0.05237571 -0.0042661224 -0.040368352 -0.022448422 0.07039957 -0.040403135
-0.040520683 0.045666546 -0.106988624 0.0034682497 0.05469963 -0.13759497 0.00016891031 0.004192857
-0.00044362317 -0.09777891 -0.033250626 -0.052089684 -0.08423437 -0.004734554 -0.028486833 0.01872532
-0.22009175 -0.027368339 -0.024844442 -0.1531891 -0.033968844 0.051396765 0.06845979 0.03533349
-0.109124996 -0.075869516 -0.0032893296 -0.1406401 -0.12964635 -0.04276001 -0.10744052 0.043475304
-0.03137198 0.032475825 -0.10935411 -0.031817507 -0.00062661915 -0.16040613 -0.010890099 0.109346636
0.07467175 -0.009298335 -0.048050534 0.054389544 -0.043904662 -0.10594575 -0.119561106 -0.10317824
0.07791126 -0.058708772 0.057197165 -0.029937018 0.06295387 -0.031822342 -0.0082115475 0.008979938
-0.07464479 -0.0645143 0.03488531 0.028618915 0.0376878 0.08077154 0.022186587 0.010222812
0.032386642 -0.0035342937 0.095227696 0.02750927 0.07924568 -0.029512564 0.014138323 0.0149909975
-0.11074531 0.09315147 -0.09752178 0.021501055 0.03196006 -0.092044316 -0.036126953 -0.04356018
0.060465492 0.043798983 -0.113401055 -0.047738247 0.0096566975 -0.096919656 -0.03384682 -0.009723814
-0.025746126 0.029134585 -0.045982115 -0.0045469785 -0.071772635 0.047541924 0.0069058673 -0.059763454
0.07990802 0.05896184 0.059375424 0.008148276 -0.06845025 -0.1031012 -0.039609656 0.05398795
-0.038348563 -0.09149119 0.06911944 -0.08300815 -0.045608196 -0.060986735 0.035894286 0.08596334
-0.01868621 -0.08220949 -0.068437085 0.020035848 -0.08468607 0.027405914 -0.013957119 -8.4794374e-05
-0.13974734 -0.05156007 -0.10824396 -0.03516885 -0.07934098 -0.022444367 -0.11589173 -0.06770508
-0.1868465 -0.11577933 -0.13424625 -0.01047101 -0.02007459 -0.15187348 0.0026124194 -0.07099599
0.037976008 -0.11425634 0.034186326 -0.12324666 0.0065321676 0.008096362 -0.13929167 -0.10047555
0.016454585 -0.12567267 -0.04698279 -0.17269759 -0.16865571 -0.1698033 -0.14108004 -0.047747016
-0.016150033 -0.072329074 -0.042403966 -0.099454254 0.055843618 -0.15356158 0.038173538 -0.110912606
-0.03592237 -0.17995757 0.067082055 0.035229396 -0.15193117 0.03122651 -0.04456 -0.051698457
0.004331274 0.058057964 -0.054944757 -0.020461153 0.0684033 -0.14164776 0.07169473 -0.11001851
-0.099426515 -0.11852129 0.03265042 -0.019056149 -0.10640481 -0.10273754 -0.018107798 -0.08566349
-0.106651984 0.012646589 0.048644666 -0.08149509 0.021927664 -0.093559936 -0.04647197 -0.035383414
0.010453678 -0.04628735 -0.14764516 0.0070477133 0.023042776 0.0158177 0.059475563 -0.17664078
-0.014146399 -0.025455678 -0.051469777 -0.0060539017 0.027633969 0.0113709895 -0.0031155979 -0.04417999
0.043808654 0.0026285804 0.071580514 -0.12850964 0.07300902 0.00353015 -0.16460253 0.033738572
-0.05283259 -0.18397503 -0.119427435 0.057996303 -0.0245475 0.085363865 -0.123373486 -0.07887092
-0.16464433 0.022563426 0.031190893 -0.11761974 -0.054425452 0.059100695 -0.09000055 -0.011639025
00000000: 8af8 95bd c875 b6bd d95c 613d 4b89 123e
00000010: a563 a43d 88bb b1bd 6920 cabd b792 d2bd
00000020: e0b0 cc3d a1c5 b7bd e452 ac3c 4b30 e33c
00000030: f2d2 d4bd 0d40 abbc 434f f5bc 615d a0bd
00000040: 98df d2bd 2913 bdbd ea87 563d d4ca 8bbb
00000050: 4959 25bd c1e5 b7bc a62d 903d c27d 25bd
00000060: 04f9 25bd d80c 3b3d da1c dbbd 934b 633b
00000070: b80c 603d b2e5 0cbe 841d 3139 3c64 893b
00000080: 1896 e8b9 4f40 c8bd cf31 08bd fe5b 55bd
00000090: 1283 acbd 5124 9bbb 385d e9bc d865 993c
000000a0: bb5f 61be 9133 e0bc 9286 cbbc 9add 1cbe
000000b0: ea22 0bbd 6a85 523d a534 8c3d dab9 103d
000000c0: ed7c dfbd 7a61 9bbd cb91 57bb f503 10be
000000d0: 03c2 04be 1f25 2fbd c609 dcbd 2913 323d
000000e0: e87f 00bd 5f05 053d 0cf5 dfbd 1353 02bd
000000f0: b343 24ba 8141 24be 636c 32bc 21f1 df3d
00000100: 81ed 983d 0b58 18bc a3d0 44bd 92c7 5e3d
00000110: 60d5 33bd 16fa d8bd 74dc f4bd 1d4f d3bd
00000120: f08f 9f3d 9c78 70bd 9347 6a3d 7a3e f5bc
00000130: f5ed 803d 2558 02bd ba89 06bc 9720 133c
00000140: 5edf 98bd 1320 84bd e6e3 0e3d 3772 ea3c
00000150: 865e 1a3d 8d6b a53d a5c0 b53c 957d 273c
00000160: dba7 043d 9c9f 67bb bd06 c33d 1f5b e13c
00000170: 8f4b a23d 55c4 f1bc 6da4 673c cd9c 753c
00000180: 70ce e2bd 33c6 be3d 80b9 c7bd fb22 b03c
00000190: 8de8 023d bb81 bcbd dbf9 13bd 296c 32bd
000001a0: aaaa 773d 9066 333d d03e e8bd 2e89 43bd
000001b0: 2037 1e3c d07d c6bd f7a2 0abd a250 1fbc
000001c0: 8ae9 d2bc a7ab ee3c be57 3cbd d2fe 94bb
000001d0: 88fd 92bd 52bb 423d 9d4a e23b 86ca 74bd
000001e0: d1a6 a33d f881 713d a533 733d 5980 053c
000001f0: a52f 8cbd b926 d3bd bc3d 22bd 7822 5d3d
00000200: 6213 1dbd bc5f bbbd 7e8e 8d3d 2d00 aabd
00000210: a9cf 3abd 3acd 79bd e305 133d 8c0d b03d
00000220: d313 99bc 735d a8bd be28 8cbd 3822 a43c
00000230: e46f adbd 5e82 e03c 66ac 64bc a2d3 b1b8
00000240: ed19 0fbe a730 53bd 02af ddbd 360d 10bd
00000250: 867d a2bd 40dd b7bc a558 edbd f6a8 8abd
00000260: b054 3fbe b71d edbd d977 09be 998e 2bbc
00000270: 7773 a4bc b984 1bbe 2035 2b3b 5866 91bd
00000280: bb8c 1b3d 3aff e9bd f606 0c3d bf68 fcbd
00000290: cb0b d63b 9ba6 043c 7aa2 0ebe 20c6 cdbd
000002a0: c4cb 863c 56b0 00be 0771 40bd a3d7 30be
000002b0: 15b4 2cbe ebe0 2dbe 4977 10be 6092 43bd
000002c0: 134d 84bc 4421 94bd c8af 2dbd acae cbbd
000002d0: 47bc 643d 3f3f 1dbe db5b 1c3d 2626 e3bd
000002e0: 5623 13bd cc46 38be 5162 893d b34c 103d
000002f0: d893 1bbe bdce ff3c 8c84 36bd c3c1 53bd
00000300: 5ced 8d3b 30ce 6d3d c10d 61bd 269e a7bc
00000310: 0817 8c3d 1c0c 11be b0d4 923d 6251 e1bd
00000320: 21a0 cbbd 4abb f2bd 72bc 053d a41b 9cbc
00000330: c4ea d9bd 0f68 d2bd ce56 94bc 5770 afbd
00000340: 5b6c dabd a433 4f3c a13f 473d e6e6 a6bd
00000350: a5a1 b33c 5a9c bfbd 6459 3ebd 33ee 10bd
00000360: e745 2b3c ce97 3dbd 4b30 17be 81f0 e63b
00000370: 34c4 bc3c 1f94 813c a69c 733d 52e1 34be
00000380: 4cc6 67bc 6d88 d0bc f9d1 52bd cf5f c6bb
00000390: a260 e23c 634d 3a3c 0f2f 4cbb 14f6 34bd
000003a0: b470 333d 4344 2c3b ce98 923d 0898 03be
000003b0: c185 953d 175a 673b 918d 28be 7531 0a3d
000003c0: fc66 58bd f363 3cbe 5f96 f4bd 888d 6d3d
000003d0: d717 c9bc 40d3 ae3d 3dab fcbd 1487 a1bd
000003e0: 8698 28be efd6 b83c 0b84 ff3c 9ee2 f0bd
000003f0: 39ed 5ebd 9213 723d 3552 b8bd 9cb1 3ebc

gconvs.4.weight f4 [10, 10, 4, 3, 3]
0.035261624 -0.03675579 0.043910146 0.0030347812 0.07714139 0.12405474 0.010636911 -0.017711716
0.06634379 -0.005851205 0.04425958 -0.04363142 0.12226134 -0.13188744 -0.055503663 -0.08281294
-0.033643 -0.035441454 -0.029569047 0.020022577 0.11464207 0.052628607 -0.008710216 -0.13385533
0.13348547 0.10070504 -0.036082722 0.04460911 -0.023264056 0.08760533 0.049722712 -0.06371031
0.03943177 0.027877811 0.04244691 -0.06082271 -0.24010818 -0.20443569 0.07842807 -0.22255768
-0.13131577 0.10260023 -0.01087359 -0.101133116 0.24685423 -0.31797963 0.090507165 0.15452638
-0.19128971 0.07159396 0.13063368 0.047568113 0.007699606 0.02273475 0.22213884 0.043795418
-0.32314175 0.19501466 -0.040412724 -0.22344667 0.1055007 -0.104978606 -0.08019981 -0.330225
-0.32022414 -0.3375318 -0.16037439 0.14486976 0.00313687 0.01109333 0.10421392 0.20219156
0.013355722 0.038172655 -0.1186112 0.044885296 -0.042955566 -0.06174699 -0.058419336 0.045378055
-0.08822492 0.018509507 -0.084624305 0.012299009 -0.038876615 0.042882934 0.0885007 -0.026963582
-0.09746402 0.04272 0.04701771 -0.031821653 0.014716301 0.067327246 -0.015421554 -0.015567946
0.060175825 -0.056060053 -0.13387388 -0.011693699 0.06591945 0.07577208 -0.0068871076 0.0027193048
0.027214654 -0.058881525 -0.09942473 0.05384514 0.0025622696 -0.06673709 -0.05582793 0.03964418
-0.038742878 -0.08346945 -0.040767696 0.08521213 0.027361888 0.0025272642 0.012967787 -0.087354116
0.04156276 -0.02304297 -0.10039438 0.06323631 -0.060205095 0.04493287 -0.0059004882 0.0048096366
-0.1326926 -0.0568399 -0.06892754 -0.11159745 -0.0040577003 -0.019573102 0.04963757 -0.1090338
-0.030343425 -0.014977325 -0.060756046 0.029526915 -0.122713424 0.026727837 -0.0680649 -0.0932507
-0.72760135 -0.35707986 -0.08147978 -0.54767865 -0.072748326 0.18312249 -0.32589918 -0.19064263
0.0065343915 -0.24123144 -0.017285716 0.015143304 -0.048709523 -0.0047263154 -0.014876495 0.09502324
0.0049083964 0.09510854 -0.14198686 -0.034139533 0.013149736 -0.02817545 0.1518184 0.021119466
-0.09909009 0.017277155 0.008333427 -0.14423238 -0.121534444 0.05273953 -0.1263159 0.008430337
0.15377863 0.3082294 0.071756944 0.14127477 -0.09183872 -0.09362152 -0.22113416 -0.2879668
-0.06396049 -0.264463 -0.4669285 0.042442355 0.1411535 -0.31619722 -0.25958613 0.06520625
-0.37629142 -0.09595729 0.10523905 -0.1694656 0.22337918 0.17971434 0.18701893 0.18137172
0.18977511 -0.23278855 -0.27842763 -0.35679734 -0.5058726 -0.18161823 -0.17200208 -0.118780896
-0.0746436 -0.44602868 -0.003807001 0.21177906 -0.003842728 0.08111297 0.26982784 0.009855764
0.00038219706 0.042466864 -0.08781702 0.09636456 -0.07932998 -0.05277226 0.028119247 0.03410099
-0.05022056 -0.08787021 0.094044425 0.1222351 -0.106928825 0.15459292 0.20128146 0.052231185
0.07902121 0.19516097 -0.0041576694 -0.045676455 0.08206054 -0.103099465 -0.13730654 0.00990768
-0.036950715 0.12830034 0.00088121707 -0.027369317 0.13525781 0.099539265 0.16437986 0.14423744
0.09247247 -0.008350773 0.18580258 0.048329405 -0.1073899 -0.0054083196 -0.013146873 0.0656743
00000000: 7e6e 103d 3d8d 16bd 20db 333d 2ee3 463b
00000010: 4efc 9d3d 6910 fe3d 7046 2e3c 2918 91bc
00000020: 41df 873d 77bb bfbb 8949 353d dcb6 32bd
00000030: 2764 fa3d 800d 07be cf57 63bd d599 a9bd
00000040: 3ecd 09bd 0f2b 11bd c93a f2bc 6306 a43c
00000050: 76c9 ea3d 1891 573d 4bb5 0ebc 5f11 09be
00000060: 6ab0 083e 723e ce3d 7acb 13bd 0bb8 363d
00000070: 4394 bebc 6c6a b33d 0baa 4b3d 8d7a 82bd
00000080: 3583 213d 0260 e43c d0dc 2d3d 3c21 79bd
00000090: ebde 75be 9757 51be e59e a03d 29e6 63be
000000a0: a477 06be 1220 d23d 2427 32bc e11e cfbd
000000b0: 5bc7 7c3e 3ace a2be d25b b93d 2a3c 1e3e
000000c0: 73e1 43be db9f 923d d6c4 053e c8d6 423d
000000d0: fa4c fc3b 3a3e ba3c 5d78 633e d362 333d
000000e0: d672 a5be ecb1 473e d087 25bd 34cf 64be
000000f0: c010 d83d 06ff d6bd cc3f a4bd 4013 a9be
00000100: 6bf4 a3be f8d0 acbe 2f39 24be bd58 143e
00000110: f293 4d3b ccc0 353c 1c6e d53d 4e0b 4f3e
00000120: f5d1 5a3c ee5a 1c3d 6eea f2bd a5d9 373d
00000130: 2df2 2fbd 69ea 7cbd 1d49 6fbd 57de 393d
00000140: 44af b4bd 40a1 973c 824f adbd c881 493c
00000150: 163d 1fbd 04a6 2f3d db3f b53d bbe2 dcbc
00000160: 379b c7bd 2bfb 2e3d a495 403d 6c57 02bd
00000170: a41c 713c dee2 893d b0aa 7cbc b310 7fbc
00000180: ed7a 763d 3a9f 65bd 3c16 09be ee96 3fbc
00000190: c700 873d 642e 9b3d 3fad e1bb 5d36 323b
000001a0: 44f1 de3c c12d 71bd 319f cbbd b98c 5c3d
000001b0: c0eb 273b 75ad 88bd d4ab 64bd f061 223d
000001c0: dab0 1ebd 08f2 aabd 07fc 26bd b283 ae3d
000001d0: 0a26 e03c 75a0 253b d776 543c b7e6 b2bd
000001e0: b63d 2a3d 9cc4 bcbc 929b cdbd 0a82 813d
000001f0: 9e99 76bd 870b 383d e258 c1bb 289a 9d3b
00000200: 92e0 07be f4d0 68bd e229 8dbd 348d e4bd
00000210: 75f6 84bb c557 a0bc c450 4b3d 1d4d dfbd
00000220: c692 f8bc 7463 75bc 55db 78bd 6ee2 f13c
00000230: 2d51 fbbd 56f4 da3c 9c65 8bbd 39fa bebd
00000240: 1544 3abf 2cd3 b6be dfde a6bd ab34 0cbf
00000250: 13fd 94bd 7684 3b3e 42dc a6be d237 43be
00000260: 731e d63b 6005 77be c69a 8dbc 9f1b 783c
00000270: a383 47bd 35df 9abb 8bbc 73bc 8b9b c23d
00000280: 9dd6 a03b 44c8 c23d 0165 11be e5d5 0bbd
00000290: fe71 573c 34d0 e6bc 4876 1b3e bb02 ad3c
000002a0: bfef cabd d288 8d3c ed88 083c a7b1 13be
000002b0: 0de7 f8bd 6805 583d f558 01be 651f 0a3c
000002c0: 2578 1d3e 3ed0 9d3e 4ef5 923d 55aa 103e
000002d0: f015 bcbd a4bc bfbd fe70 62be 6270 93be
000002e0: b8fd 82bd b267 87be 4111 efbe 09d8 2d3d
000002f0: 8b8a 103e 9ae4 a1be 79e8 84be db8a 853d
00000300: 45a9 c0be 4185 c4bd 9287 d73d 6488 2dbe
00000310: 83bd 643e 0907 383e e481 3f3e 82b9 393e
00000320: 6854 423e 1f60 6ebe 118e 8ebe 24ae b6be
00000330: de80 01bf 21fa 39be 5021 30be 6643 f3bd
00000340: bede 98bd df5d e4be e17e 79bb 9cdc 583e
00000350: 47d6 7bbb 8f1e a63d e026 8a3e 127a 213c
00000360: 9f61 c839 bcf1 2d3d 69d9 b3bd c85a c53d
00000370: c277 a2bd ba27 58bd 565a e63c 7bad 0b3d
00000380: 13b4 4dbd 4cf5 b3bd 5d9a c03d 6556 fa3d
00000390: 80fd dabd 9b4d 1e3e ba1c 4e3e 5ef0 553d
000003a0: dfd5 a13d 47d8 473e 0f3d 88bb 3c17 3bbd
000003b0: 5b0f a83d d025 d3bd 169a 0cbe d253 223c
000003c0: a259 17bd 2a61 033e 7a01 673a 9e35 e0bc
000003d0: 0681 0a3e 3edb cb3d 3253 283e fbb2 133e
000003e0: 3562 bd3d aed1 08bc 0843 3e3e 0ef5 453d
000003f0: 3cef dbbd 4638 b1bb fb65 57bc 3f80 863d

gconvs.5.weight f4 [10, 10, 4, 3, 3]
0.392411 0.23626961 -0.25860092 0.31390545 0.19087608 0.009381073 -0.022376843 0.027960494
0.018528063 -0.2540241 -0.12832594 -0.1287957 -0.37322173 -0.08059122 0.08616196 -0.22252938
0.06805239 0.6252151 -0.123019725 0.38306624 0.19808778 0.09428863 0.29210445 0.00693375
0.0021740492 0.024446128 0.013778982 -0.33875903 -0.5000209 -0.3132304 -0.054902602 -0.29333624
-0.41032335 -0.30416396 -0.26687104 -0.9130025 -0.29814613 -0.091236606 -0.0005172134 -0.120333456
0.085241064 -0.085413404 -0.1965245 0.08394788 0.011605551 -0.07296018 -0.26666442 -0.24856676
-0.43045875 -0.19375955 -0.12992634 -0.55744493 0.11806805 0.3617643 -0.17144555 0.019414382
0.13480295 -0.3027996 -0.0052544484 0.113889694 -0.32474583 -0.08447937 0.039782207 -0.043747343
0.09728707 0.31834525 -0.037619043 0.02518938 0.22408205 -0.016115755 -0.026256707 -0.115352124
-0.19690321 0.04297084 0.161702 -0.101243764 -0.03662705 -0.12632081 0.007838171 -0.09747055
-0.21591766 0.027981272 0.093849696 -0.04218671 0.07940032 0.08603678 0.13708459 0.21134901
0.20514725 0.21717502 0.25237963 -0.016699284 -0.3715451 -0.035841666 -0.2862657 -0.44856438
-0.61360085 -0.38818857 -0.41246074 0.29151773 0.26160583 0.19172023 0.24241145 0.14664522
0.13565166 0.3053982 0.2930636 0.049750328 0.36361632 0.13876933 -0.22221448 0.007283468
-0.19284016 -0.42777836 -0.40235123 -0.35991937 -0.28495523 0.0030777098 0.026598219 0.06104664
0.16319117 0.09615679 0.12076211 0.08902202 0.06909299 0.18774554 0.22230515 0.17842025
0.07550972 0.121592104 -0.14241156 -0.22817859 -0.17595524 -0.35161674 -0.5085632 -0.12586637
0.027949417 0.24647646 0.020666005 -0.010169618 0.08942676 -0.17548956 0.04596676 0.22594088
-0.24422927 -0.3209211 -0.5042057 -0.22287168 -0.10933714 -0.07816633 -0.35355923 -0.2742528
-0.4236695 -0.3607117 -0.16857992 -0.0340104 -0.3124653 -0.12166287 -0.006699828 -0.32202196
-0.082062066 -0.043959092 -0.4886225 -0.14665751 -0.1910211 -0.37109062 -0.2574073 -0.4498303
-0.33246973 -0.30068257 -0.6667496 -0.3685787 -0.32724276 -0.024397206 -0.3453867 -0.16481327
0.23304974 -0.58435935 -0.22397672 0.11477643 0.034538165 0.0005167881 0.08072705 -0.022719104
-0.05310891 -0.26036364 0.014474432 -0.18979546 -0.17625035 0.074814446 -0.08866049 -0.098916024
-0.016840607 -0.09216777 -0.20558207 -0.0075436365 0.07097304 0.08658207 0.122362144 0.1333822
0.1866515 0.2029906 0.113572076 0.052939765 0.12491547 -0.03351972 -0.12838456 0.1477532
0.19033547 0.12613864 0.18452607 0.19730514 -0.04139174 0.08742239 0.11831943 0.038303595
-0.5324008 -0.1341505 0.12240817 -0.5425071 -0.21654856 -0.018122943 -0.10934815 -0.09552929
0.05654318 -0.2299734 -0.18004152 0.09142902 -0.3540134 -0.18827617 0.103197485 0.04015127
0.09724266 0.19358286 -0.49613503 -0.021111032 0.08926221 -0.5582644 -0.07721802 0.017243613
-0.20067957 0.102153435 0.12863515 -0.35580844 0.087912165 0.16277684 -0.12952983 -0.09469531
0.1525101 0.0985599 0.08252748 1.0174371e-05 0.011785609 -0.24359725 -0.306539 -0.48292935
00000000: 18ea c83e a9f0 713e 5767 84be 37b8 a03e
00000010: 0575 433e 12b3 193c a44f b7bc 680d e53c
00000020: 2ac8 973c 720f 82be e067 03be 05e3 03be
00000030: eb16 bfbe 020d a5bd af75 b03d bede 63be
00000040: 0d5f 8b3d 190e 203f c4f1 fbbd 4221 c43e
00000050: 86d7 4a3e 661a c13d b78e 953e 8334 e33b
00000060: 7e7a 0e3b 3f43 c83c 3dc1 613c d371 adbe
00000070: 5f01 00bf bc5f a0be 8de1 60bd 2b30 96be
00000080: e715 d2be 61bb 9bbe 52a3 88be 88ba 69bf
00000090: 9ca6 98be 42da babd 9b95 07ba 6371 f6bd
000000a0: de92 ae3d 39ed aebd b83d 49be deec ab3d
000000b0: 3525 3e3c 266c 95bd 3d88 88be 4988 7ebe
000000c0: 1765 dcbe e768 46be 690b 05be b6b4 0ebf
000000d0: a9cd f13d 2c39 b93e 6c8f 2fbe e90a 9f3c
000000e0: c909 0a3e 8d08 9bbe 822d acbb 003f e93d
000000f0: 1645 a6be 8503 adbd abf2 223d 6a30 33bd
00000100: 713e c73d 26fe a23e 6d16 1abd f559 ce3c
00000110: c475 653e 3005 84bc 4e18 d7bc bc3d ecbd
00000120: ffa0 49be 3102 303d 3695 253e e458 cfbd
00000130: 3f06 16bd 3e5a 01be ac6b 003c a49e c7bd
00000140: 8519 5dbe fb38 e53c 4534 c03d f9cb 2cbd
00000150: a39c a23d 0d34 b03d e75f 0c3e e06b 583e
00000160: 1f12 523e 2163 5e3e e737 813e f0cc 88bc
00000170: 293b bebe b6ce 12bd 6b91 92be 3baa e5be
00000180: f214 1dbf a7c0 c6be 0e2e d3be d041 953e
00000190: 33f1 853e 4f52 443e b53a 783e 2a2a 163e
000001a0: 45e8 0a3e 275d 9c3e 6f0c 963e 00c7 4b3d
000001b0: eb2b ba3e 8c19 0e3e 318c 63be 28aa ee3b
000001c0: e477 45be c405 dbbe fb00 cebe 5a47 b8be
000001d0: a7e5 91be 67b3 493b 82e4 d93c 0b0c 7a3d
000001e0: 961b 273e daed c43d 2052 f73d 2d51 b63d
000001f0: a080 8d3d 5e40 403e f6a3 633e ccb3 363e
00000200: d7a4 9a3d 4805 f93d 56d4 11be a6a7 69be
00000210: 9c2d 34be 1c07 b4be 3331 02bf 1de3 00be
00000220: 2df6 e43c 5364 7c3e c14b a93c 789e 26bc
00000230: 6125 b73d 89b3 33be a447 3c3d 0c5d 673e
00000240: 3d17 7abe c54f a4be a013 01bf 7938 64be
00000250: 27ec dfbd ab15 a0bd b705 b5be dd6a 8cbe
00000260: 35eb d8be 34af b8be 37a0 2cbe 7d4e 0bbd
00000270: 74fb 9fbe 622a f9bd 3b8a dbbb 10e0 a4be
00000280: 2810 a8bd 730e 34bd ba2c fabe 632d 16be
00000290: 099b 43be 97ff bdbe e4ca 83be 2850 e6be
000002a0: 7939 aabe 11f3 99be 1ab0 2abf 59b6 bcbe
000002b0: 5d8c a7be a6dc c7bc 87d6 b0be cfc4 28be
000002c0: 97a4 6e3e 9398 15bf 275a 65be e80f eb3d
000002d0: e477 0d3d 1079 073a 3954 a53d 6a1d babc
000002e0: ba88 59bd 624e 85be 2b26 6d3c be59 42be
000002f0: f97a 34be 5138 993d a293 b5bd 7c94 cabd
00000300: 50f5 89bc 75c2 bcbd 1b84 52be 9c30 f7bb
00000310: 505a 913d f151 b13d 0199 fa3d 5895 083e
00000320: 9221 3f3e c5dc 4f3e 7a98 e83d 5ed7 583d
00000330: afd3 ff3d f94b 09bd 3e77 03be 9d4c 173e
00000340: 4de7 423e 7d2a 013e 67f4 3c3e 5c0a 4a3e
00000350: 638a 29bd 830a b33d 7551 f23d 3be4 1c3d
00000360: 6b4b 08bf c05e 09be 22b1 fa3d bfe1 0abf
00000370: e8be 5dbe 9176 94bc ecf1 dfbd dca4 c3bd
00000380: d299 673d 267e 6bbe ce5c 38be 233f bb3d
00000390: 3f41 b5be 78cb 40be 3459 d33d a875 243d
000003a0: 2927 c73d 963a 463e 6905 febe 0bf1 acbc
000003b0: 1bcf b63d 6aea 0ebf 7b24 9ebd 7a42 8d3c
000003c0: f27e 4dbe d235 d13d efb8 033e 862c b6be
000003d0: 4b0b b43d f9ae 263e 78a3 04be 9def c1bd
000003e0: 9c2b 1c3e c6d9 c93d 2b04 a93d 97b2 2a37
000003f0: 6d18 413c 8f71 79be aef2 9cbe 8442 f7be

final_layer.weight f4 [10, 10, 4, 3, 3]
-0.03211749 0.019739076 0.023373052 0.040876076 -0.039406266 0.0036571778 -0.03596564 0.047407422
0.11387835 -0.035194933 0.043563224 0.016109852 0.037106972 -0.02592089 -0.09665244 -0.029160436
0.046503026 -0.045544565 -0.0378557 0.06317832 -0.033814777 0.1001301 0.01805709 -0.13666485
-0.05935105 0.013762296 -0.054982215 0.12113693 0.086713694 -0.018009823 -0.09441827 -0.06831031
0.04939008 -0.0047469144 -0.020585347 -0.08026077 0.11852071 0.31308985 0.25645015 0.09574852
0.17501137 0.14465924 0.13712262 0.29785398 0.22495914 0.07014514 0.085507505 0.01807242
0.10686447 0.11607993 0.23686661 0.21084222 0.3021919 0.107963026 0.2603431 0.18089958
0.18679646 0.27077207 0.31137118 0.08730557 0.1691256 0.13435511 0.119019665 0.17190251
0.25373822 0.11681772 0.21283093 0.19842856 0.17874871 0.09067541 0.11888016 0.09244194
-0.1677098 -0.11345192 -0.07277214 -0.08822681 -0.045874275 -0.12313629 -0.17999493 -0.10053524
-0.17885481 -0.120507896 -0.14712383 -0.098310925 -0.15200664 -0.10605143 -0.071258806 -0.03920312
-0.03601964 -0.073705 -0.09098924 -0.16517103 -0.19012472 0.024157338 -0.14955918 -0.060986493
-0.11940682 0.02594825 -0.16945274 0.0011664621 -0.088904634 -0.18411142 -0.06730665 0.028430112
-0.037072178 -0.1039828 -0.0005727875 -0.12332175 0.010011889 -0.07662094 0.020882167 -0.00737436
-0.082513735 -0.062473487 -0.05680268 -0.02658792 -0.12684776 0.023022778 0.020809313 -0.06972576
-0.088341855 -0.12702921 -0.11292101 0.009339353 -0.14961016 0.0076607163 -0.15253963 -0.11239924
-0.03899419 -0.029178753 -0.07099576 -0.1302747 -0.13165271 -0.01857287 -0.024677984 -0.023938047
-0.04728555 -0.07460935 -0.05611005 -0.05794565 -0.038286004 -0.04483422 -0.07379122 -0.012056711
0.18018363 0.15652914 0.1671056 0.3138668 0.14497738 0.16521397 0.27565977 0.24499363
0.31610408 0.21001059 0.15436035 0.24172363 0.21129222 0.15766735 0.2726388 0.33213708
0.30126822 0.26377428 0.32717064 0.14376418 0.22548416 0.32639813 0.14159206 0.254601
0.26929137 0.25813606 0.22182624 0.14771289 0.12394068 0.2982692 0.26124462 0.13764963
0.19622731 0.26775554 0.19106711 0.28008026 -0.075279236 -0.11064578 -0.046790224 0.042519856
-0.09200606 0.050763685 0.000572824 -0.064847946 -0.09982641 -0.019545408 0.012896297 -0.10112764
-0.033598136 -0.07396694 0.034760945 -0.10381126 0.062115908 -0.049557105 -0.107181534 -0.08145093
-0.0005983912 0.02182703 -0.0676633 0.030816628 -5.3626416e-05 0.017528975 0.012445614 -0.027950402
0.045620453 -0.12807815 -0.06959291 -0.08928979 -0.06521487 0.030371005 -0.036115423 -0.010422286
0.007867707 -0.11737688 0.06844118 -0.10318767 -0.0016875594 -0.10565376 0.07393761 -0.121076055
0.050835095 -0.10755819 0.027684603 0.07645046 -0.1294329 -0.076579556 -0.08499609 -0.13174532
0.039158132 -0.12870182 -0.052632283 -0.107053764 0.027415195 -0.07054326 0.0077973856 -0.0066409577
-0.026871195 0.07812351 -0.058333416 0.016863916 0.024425363 -0.018966146 -0.028417805 0.03120331
0.0775201 0.07522594 -0.121338956 -0.027305605 0.075832136 0.128809 0.046671197 -0.037916444
00000000: a18d 03bd d8b3 a13c d878 bf3c ac6d 273d
00000010: 7768 21bd 43ad 6f3b b550 13bd 492e 423d
00000020: 0d39 e93d 9028 10bd 5a6f 323d cff8 833c
00000030: 7bfd 173d 0c58 d4bc b7f1 c5bd dee1 eebc
00000040: f579 3e3d f08c 3abd 940e 1bbd a363 813d
00000050: 5d81 0abd 0311 cd3d 76ec 933c dff1 0bbe
00000060: 161a 73bd 417b 613c 0835 61bd a416 f83d
00000070: f396 b13d 5689 93bc 5e5e c1bd 47e6 8bbd
00000080: 414d 4a3d 018c 9bbb 9aa2 a8bc c25f a4bd
00000090: fcba f23d 504d a03e 6f4d 833e cd17 c43d
000000a0: 2e36 333e 8d21 143e df69 0c3e 5180 983e
000000b0: b05b 663e 41a8 8f3d 8f1e af3d 9d0c 943c
000000c0: c2db da3d 50bb ed3d 298d 723e 06e7 573e
000000d0: e6b8 9a3e b81b dd3d b14b 853e bd3d 393e
000000e0: 9247 3f3e a3a2 8a3e 0b6c 9f3e 43cd b23d
000000f0: 432f 2d3e 6394 093e 95c0 f33d 3607 303e
00000100: fae9 813e 213e ef3d 5af0 593e db30 4b3e
00000110: e709 373e 08b4 b93d 7177 f33d 3352 bd3d
00000120: 1ebc 2bbe 7b59 e8bd 8f09 95bd 42b0 b4bd
00000130: aae6 3bbd e12e fcbd 9750 38be 6be5 cdbd
00000140: b725 37be d8cc f6bd a1a7 16be 3d57 c9bd
00000150: a1a7 1bbe 7e31 d9bd 23f0 91bd 7393 20bd
00000160: 5489 13bd a6f2 96bd 9158 babd 9822 29be
00000170: 0eb0 42be 9ce5 c53c 0b26 19be f9cc 79bd
00000180: 908b f4bd 6d91 d43c 0585 2dbe f9e3 983a
00000190: a213 b6bd b487 3cbe 12d8 89bd 44e6 e83c
000001a0: ffd8 17bd eff4 d4bd 1e27 16ba 1d90 fcbd
000001b0: e808 243c 70eb 9cbd 1411 ab3c 9ea4 f1bb
000001c0: f6fc a8bd 33e4 7fbd eda9 68bd e9ce d9bc
000001d0: 61e4 01be 449a bc3c 4b78 aa3c 61cc 8ebd
000001e0: 93ec b4bd f213 02be 2143 e7bd 1604 193c
000001f0: 6833 19be bf06 fb3b 5933 1cbe 9331 e6bd
00000200: 5fb8 1fbd 4808 efbc 3a66 91bd bb66 05be
00000210: f8cf 06be 2226 98bc 7c29 cabc b919 c4bc
00000220: 7eae 41bd c9cc 98bd a7d3 65bd 6b58 6dbd
00000230: c9d1 1cbd 16a4 37bd da1f 97bd 8389 45bc
00000240: 0f82 383e 2d49 203e bb1d 2b3e 26b3 a03e
00000250: f374 143e da2d 293e 4723 8d3e 9cdf 7a3e
00000260: 65d8 a13e 040d 573e a410 1e3e 6686 773e
00000270: fd5c 583e 8d73 213e 5097 8b3e df0d aa3e
00000280: d43f 9a3e 6c0d 873e e982 a73e eb36 133e
00000290: 52e5 663e a81d a73e 82fd 103e 105b 823e
000002a0: 8fe0 893e 692a 843e 6b26 633e 0c42 173e
000002b0: 9cd4 fd3d beb6 983e dbc1 853e 06f4 0c3e
000002c0: d0ef 483e 4117 893e 19a7 433e ae66 8f3e
000002d0: 002c 9abd 419a e2bd 1ba7 3fbd 4d29 2e3d
000002e0: ac6d bcbd 95ed 4f3d 9129 163a 00cf 84bd
000002f0: ca71 ccbd b11d a0bc fd4a 533c 021c cfbd
00000300: 339e 09bd fb7b 97bd 7e61 0e3d ff9a d4bd
00000310: 406d 7e3d 64fc 4abd fe81 dbbd bfcf a6bd
00000320: 5bdd 1cba 9ace b23c 0e93 8abd 2773 fc3c
00000330: edec 60b8 ed98 8f3c b0e8 4b3c 3ef8 e4bc
00000340: 83dc 3a3d eb26 03be ba86 8ebd 91dd b6bd
00000350: 608f 85bd 9dcc f83c c4ed 13bd 3cc2 2abc
00000360: 8ee7 003c 4a63 f0bd e42a 8c3d 0f54 d3bd
00000370: 1931 ddba 0061 d8bd 9a6c 973d b9f6 f7bd
00000380: 7638 503d 7847 dcbd d2ca e23c 0f92 9c3d
00000390: 0f8a 04be bed5 9cbd 6e12 aebd 3fe8 06be
000003a0: 4764 203d 69ca 03be f394 57bd 013f dbbd
000003b0: d595 e03c fc78 90bd 3681 ff3b 649c d9bb
000003c0: fb20 dcbc 38ff 9f3d 05ef 6ebd 3226 8a3c
000003d0: b317 c83c e45e 9bbc 75cc e8bc 159e ff3c
000003e0: dcc2 9e3d 0f10 9a3d 8f80 f8bd 01b0 dfbc
000003f0: e14d 9b3d 82e6 033e 4c2a 3f3d 464e 1bbd

linear.weight f4 [10, 10]
-0.056953795 -0.10681612 0.21271151 0.015982468 0.36748952 -0.037409853 -0.46194786 0.36248514
0.53125185 0.11446143 0.32827207 0.9025603 -0.57080644 -0.41171113 0.485101 0.5318382
0.57740873 -0.39616394 0.1618748 0.41087067 -0.21979646 0.010246927 0.058357105 -0.042786356
-0.27969086 0.05963935 -0.10581563 0.48133126 -0.25196677 0.32843572 0.04820807 -0.3045426
0.042126853 -0.32684147 -0.22374399 0.24526374 -0.26810536 0.12616983 -0.15176672 0.2234846
0.020890338 -0.08676791 0.073235385 0.27277976 0.42038506 -0.016488858 0.38178867 -0.29305348
-0.5841623 0.08145032 0.047481295 -0.43862852 -0.058032572 -0.12982984 0.057547014 -0.13335705
-0.18745631 -0.38051596 -0.06262839 0.10417564 0.112235226 -0.31829637 -0.20525402 0.26942074
0.025070671 -0.06693471 0.09858429 0.20401269 0.22495353 -0.20457003 -0.37225527 0.0042761206
-0.011182326 -0.32014582 0.31358793 0.26815364 0.11605771 0.12393169 -0.25380084 -0.32118785
0.2508006 -0.045118548 0.33559072 0.24579816 -0.26807612 0.2118329 -0.23187564 0.0015890208
-0.22824612 0.19397298 0.09181299 -0.14586629 0.084750235 -0.03661896 -0.15927246 -0.22369696
-0.05771741 -0.14328107 -0.13719667 -0.4682841
00000000: 6248 69bd 69c2 dabd 0cd1 593e aaed 823c
00000010: 9627 bc3e 133b 19bd 6e84 ecbe a797 b93e
00000020: 1f00 083f c16a ea3d 4713 a83e 310e 673f
00000030: 5f20 12bf cdcb d2be 295f f83e 8c26 083f
00000040: 0fd1 133f 00d6 cabe 82c2 253e a45d d23e
00000050: 5312 61be bae2 273c dc07 6f3d bf40 2fbd
00000060: a433 8fbe 6448 743d ddb5 d8bd 0d71 f63e
00000070: ca01 81be ba28 a83e d375 453d 02ed 9bbe
00000080: 358d 2c3d c457 a7be 251d 65be 6b26 7b3e
00000090: 1b45 89be aa32 013e bc68 1bbe 26d9 643e
000000a0: 3722 ab3c 60b3 b1bd 6ffc 953d caa9 8b3e
000000b0: b63c d73e a413 87bc ce79 c33e 1b0b 96be
000000c0: a98b 15bf 6dcf a63d bf7b 423d eb93 e0be
000000d0: 90b3 6dbd 1df2 04be 6bb6 6b3d c08e 08be
000000e0: 8cf4 3fbe fdd2 c2be 5043 80bd 0a5a d53d
000000f0: 95db e53d bef7 a2be 1c2e 52be 84f1 893e
00000100: 0261 cd3c 1115 89bd 8fe6 c93d b4e8 503e
00000110: 385a 663e ce7a 51be 3e98 bebe b31e 8c3b
00000120: 1336 37bc 27ea a3be 998e a03e 6f4b 893e
00000130: aaaf ed3d e6cf fd3d 2ff2 81be bc72 a4be
00000140: f068 803e 3ace 38bd 8cd2 ab3e 83b2 7b3e
00000150: 4641 89be b9ea 583e cf70 6dbe b146 d03a
00000160: 5ab9 69be daa0 463e 7308 bc3d f95d 15be
00000170: 8891 ad3d c3fd 15bd 5218 23be d110 65be
00000180: 1769 6cbd 46b8 12be 497d 0cbe efc2 efbe

linear.bias f4 [10]
-0.9459299 1.0674741 -0.026931671 -0.5192676 0.9586818 -0.090435155 -0.13462326 0.4523886
-0.36350593 -0.03480669
00000000: 7628 72bf fea2 883f cf9f dcbc b9ee 04bf
00000010: 2c6c 753f 1136 b9bd aeda 09be 7b9f e73e
00000020: 731d babe 7691 0ebd
