runs/RelaxedP4CNN_none_std0_gamma0_lr0.002/model.pt (torch, 116029 bytes, 18 tensors)

lifting_conv.combination_weights f4 [3, 4]
0	0xbbb60de1	-0.0055558537
1	0xbc160ae1	-0.009157867
2	0xbc29e0b5	-0.010368516
3	0xbbb34863	-0.0054712757
4	0xbe011b34	-0.12608033
5	0xbe0552f0	-0.1301992
6	0xbe070770	-0.13186431
7	0xbdfe1ae9	-0.124074765
8	0x3e190f77	0.14947306
9	0x3e1a6f2b	0.1508147
10	0x3e1c1fdc	0.15246528
11	0x3e193104	0.14960104

lifting_conv.weight f4 [3, 6, 1, 3, 3]
0	0x3d0fcf47	0.035109784
1	0x3c93be22	0.018034998
2	0x3c04c4f8	0.008103602
3	0x3e6b9780	0.23007011
4	0xbe2f2f40	-0.17107868
5	0x3e81a5bf	0.25321767
6	0x3e4f87c9	0.20266642
7	0xbecf8262	-0.40529162
8	0x3e1f27a6	0.15542468
9	0xbe59ba38	-0.21262443
10	0x3ea487cb	0.32134852
11	0x3e2d949d	0.16951223
12	0xbe295045	-0.16534527
13	0xbc7c762c	-0.015409034
14	0xbe2d314b	-0.16913335
15	0x3baf114d	0.0053426386
16	0x3e6bb38c	0.2301771
17	0xbe1319e4	-0.14365345
18	0x3d8ccf8d	0.06875525
19	0xbdbcf4c8	-0.09226376
20	0x3e855628	0.26042295
21	0x3e97f4e7	0.29679033
22	0x3d3169a7	0.04331365
23	0xbc145a8b	-0.00905479
24	0xbd80e231	-0.062931426
25	0xbec5c68a	-0.38628036
26	0xbc436c1c	-0.011927631
27	0xbdc949ea	-0.09828551
28	0x3e59d4a3	0.2127252
29	0xbd9ba7ae	-0.07600342
30	0x3ea8b875	0.3295323
31	0xbe2cec8f	-0.16887115
32	0x3c4530ce	0.012035562
33	0xbe4d6fe1	-0.2006221
34	0xbddd8594	-0.10816494
35	0xbc766405	-0.015038495
36	0xbe25d9a0	-0.16196299
37	0x3e6f5865	0.23373564
38	0xbe4fc811	-0.20291163
39	0xbcb77f12	-0.022399459
40	0x3ea91e73	0.33031043
41	0xbde35d2c	-0.111017555
42	0x3e7450b3	0.2385891
43	0x3e34c366	0.17652664
44	0x3dab1a44	0.08354619
45	0x3eaf8496	0.34280843
46	0xbd0930db	-0.033493858
47	0xbea6a3ec	-0.32546937
48	0x3e11c1b4	0.14234048
49	0xbe1a9a25	-0.15097864
50	0x3de315be	0.11088131
51	0xbd38dd5f	-0.04513299
52	0xbdab1cf5	-0.083551325
53	0x3d6502b9	0.0559108
54	0x3f2a012d	0.66408044
55	0x3e74b172	0.23895815
56	0x3e001e88	0.12511647
57	0x3f6a6d0f	0.9157266
58	0x3d561bc0	0.05227256
59	0xbed713f3	-0.42007408
60	0xbe2cbca9	-0.16868843
61	0x3d9e6d08	0.0773564
62	0xbe9cf19e	-0.3065309
63	0xbe49a21f	-0.1969075
64	0xbe99f698	-0.3007095
65	0x3f32831c	0.6973131
66	0x3e14e2e4	0.14539677
67	0xbedb3f0d	-0.4282154
68	0x3db1a9d8	0.08674973
69	0xbe44d44d	-0.19221611
70	0xbeadfe04	-0.3398286
71	0xbd111326	-0.035418652
72	0xbd0f1871	-0.03493542
73	0xbdd19ce1	-0.102350004
74	0x3eeaa70a	0.45830566
75	0x3dac32cb	0.084081255
76	0xbed447a9	-0.41460922
77	0xbe8de3ff	-0.2771301
78	0x3e004ecd	0.1253006
79	0xbe4ede92	-0.20202091
80	0xbe5045c3	-0.20339112
81	0x3ea3ed6b	0.32017073
82	0xbea4f60f	-0.32218978
83	0xbe828d5e	-0.2549848
84	0xbe13f8aa	-0.14450327
85	0x3ddae01f	0.10687279
86	0xbe734658	-0.23757303
87	0xbede4698	-0.43413234
88	0x3e8caa84	0.27473843
89	0x3e96e613	0.29472408
90	0xbe12ef3c	-0.14349073
91	0xbe90f6a7	-0.2831318
92	0xbe4b803f	-0.19873141
93	0xbdd52c6b	-0.10408863
94	0xbd9d5d56	-0.07683818
95	0xbe90810a	-0.2822345
96	0xbdaf6b88	-0.08565432
97	0x3ef8239e	0.48464674
98	0x3e54bd1b	0.20775263
99	0x3e967ff3	0.29394493
100	0x3eb81267	0.3595154
101	0xbdc7a1df	-0.09747671
102	0x3dfb7228	0.12277633
103	0xbed52678	-0.41630912
104	0xbe9cfc52	-0.30661255
105	0xbe9677dd	-0.29388323
106	0xbe02b127	-0.12762891
107	0xbe8e2af9	-0.2776716
108	0xbe1fac70	-0.15593123
109	0xbf1190ca	-0.56861556
110	0x3d31d34c	0.0434144
111	0xbeb8fda7	-0.3613102
112	0x3d5c018d	0.053712416
113	0x3e4e438c	0.20142955
114	0x3e6102db	0.21973746
115	0x3c856d30	0.016287416
116	0x3e9ea840	0.3098774
117	0x3e76fc19	0.24119605
118	0xbc937b83	-0.01800323
119	0xbedb0883	-0.4277993
120	0xbc590362	-0.013245435
121	0xbe3db352	-0.18525437
122	0x3e20d4c0	0.15706158
123	0xbe5cd94b	-0.21567266
124	0x3db99c2e	0.09062992
125	0x3d270cea	0.0407838
126	0xbeaf7f20	-0.34276676
127	0x3e135291	0.14386965
128	0xbb83bd86	-0.0040203957
129	0x3db3a515	0.08771721
130	0x3e3ef65d	0.18648668
131	0xbea185b9	-0.31547335
132	0xbea35cc0	-0.319067
133	0xbda5fa59	-0.08104391
134	0x3dde9a36	0.10869257
135	0xbd2f9844	-0.04286982
136	0xbcd848ce	-0.026401903
137	0x3eb7f244	0.35927022
138	0x3e19969e	0.14998862
139	0xbd878659	-0.06617422
140	0xbe929a71	-0.28633454
141	0x3e8e83f8	0.2783506
142	0xbe4f1b5c	-0.2022528
143	0xbea5536a	-0.32290202
144	0xbe643de9	-0.22289242
145	0x3da0540a	0.07828529
146	0x3ead89fc	0.33894336
147	0xbe1ef119	-0.15521659
148	0xbdc69405	-0.09696201
149	0xbdef46d9	-0.11683435
150	0xbda5adbf	-0.0808978
151	0xbe18c64b	-0.14919393
152	0xbe55a760	-0.2086463
153	0xbecff9c9	-0.40620258
154	0xbed9860b	-0.4248508
155	0xbe0457b2	-0.12924078
156	0xbd7490c3	-0.059708368
157	0x3d1d0138	0.03833124
158	0x3e8187fa	0.25299054
159	0x3da33f1c	0.079710215
160	0x3e467155	0.1937917
161	0xbe386619	-0.18007697

gconvs.0.combination_weights f4 [4, 3]
0	0x3ec5601a	0.38549882
1	0x3ebe4ac7	0.37166426
2	0x3ed24624	0.41069138
3	0x3ec555b9	0.38541964
4	0x3ebf318a	0.37342483
5	0x3ed2bf42	0.41161543
6	0x3ec4d419	0.38443068
7	0x3ebdcc4a	0.37069923
8	0x3ed40721	0.4141169
9	0x3ec5ce94	0.3863417
10	0x3ebd84d7	0.3701541
11	0x3ed33a1c	0.4125527

gconvs.0.weight f4 [3, 6, 6, 4, 3, 3]
0	0x3ec0964f	0.37614676
1	0xbee3932f	-0.4444823
2	0x3e7a46de	0.24441096
3	0xbbf4f616	-0.007475625
4	0xbd68c6f6	-0.05683037
5	0xbecc4dce	-0.3990311
6	0xbdb09995	-0.086230434
7	0x3e3a21af	0.18176912
8	0x3f003efb	0.500961
9	0xbcabf27f	-0.020989655
10	0x3d9273ae	0.071509704
11	0x3e4e4806	0.20144662
12	0xbecdfcbf	-0.40231892
13	0xbeeff035	-0.4686295
14	0xbce0be2a	-0.027434427
15	0xbf019b4c	-0.5062759
16	0x3cc9fcf7	0.024656756
17	0x3e0fd2bd	0.14045234
18	0x3e8eba65	0.27876583
19	0x3e947606	0.28996295
20	0xbe22f659	-0.15914287
21	0xbddbdb26	-0.107351586
22	0xbd9bf158	-0.07614392
23	0xbf010913	-0.5040447
24	0xbe30b302	-0.17255786
25	0x3e190d8d	0.14946575
26	0x3ec8622b	0.39137396
27	0xbe600afa	-0.21879187
28	0x3e2d2d44	0.16911799
29	0xbd5ad6ef	-0.053427633
30	0xbe9182ab	-0.28420004
31	0xbefd659c	-0.49491584
32	0x3d93108a	0.07180889
33	0xbecf516c	-0.40491807
34	0xbead6c0e	-0.33871502
35	0x3e5c402f	0.21508859
36	0xbe67c762	-0.22634652
37	0xbe228367	-0.15870439
38	0xbec1c0b4	-0.37842333
39	0x3dfdaa62	0.123860136
40	0x3eb10efb	0.34581742
41	0xbd0ffba0	-0.035152078
42	0x3ecf8260	0.40529156
43	0x3d6a6853	0.057228398
44	0x3e5c012e	0.21484825
45	0x3d029749	0.031882558
46	0xbebe9f2f	-0.37230822
47	0x3e8d02bb	0.27541146
48	0x3e2e2e44	0.17009836
49	0xbe01cd17	-0.12675892
50	0x3e91480d	0.28375283
51	0x3e89c45c	0.26907623
52	0xbda596c6	-0.080853984
53	0xbedbc851	-0.42926267
54	0x3e9c4dab	0.30528006
55	0xbead8aaa	-0.33894855
56	0xbe934e85	-0.28770843
57	0x3e84a053	0.25903568
58	0x3e6e594e	0.23276255
59	0x3e918fc6	0.28430003
60	0x3d1e08b7	0.03858253
61	0x3d29a880	0.04142046
62	0x3edf5f13	0.43627223
63	0xbe964074	-0.2934605
64	0xbf06942f	-0.5256986
65	0xbdaf9e68	-0.085751355
66	0x3eca66cb	0.3953155
67	0xbbd6aeac	-0.006551584
68	0x3e8eb8d8	0.278754
69	0x3edaa006	0.42700213
70	0xbeb3f8dc	-0.35150802
71	0xbd064f98	-0.03279075
72	0x3ec93635	0.3929917
73	0x3ea001c7	0.31251356
74	0x3e944d51	0.28965238
75	0xbe07e6b3	-0.13271599
76	0xbe909206	-0.28236407
77	0xbda75a77	-0.08171552
78	0x3d111464	0.035419837
79	0xbe05fb0b	-0.13084047
80	0xbeadcfa8	-0.33947492
81	0xbde365ca	-0.11103399
82	0x3ecbcb39	0.39803484
83	0xbe1cee89	-0.15325369
84	0x3ea4e95b	0.32209286
85	0xbe843b4d	-0.25826493
86	0xbee0cc9f	-0.43906114
87	0xbb85d5b0	-0.0040843114
88	0xbecd6df8	-0.40122962
89	0x3e95de6b	0.29271254
90	0xbdab51a0	-0.08365178
91	0x3d959e4b	0.073055826
92	0x3eb2f406	0.349518
93	0x3c2144d1	0.009843067
94	0x3db6fb94	0.089347035
95	0x3e82308d	0.25427666
96	0xbea18339	-0.31545427
97	0xbedf257f	-0.43583295
98	0x3d8bc742	0.06825115
99	0xbed2c496	-0.41165608
100	0xbf0a79c4	-0.5409205
101	0xbe4bf3ff	-0.19917296
102	0xbf0b0a2e	-0.5431241
103	0x3e382374	0.17982274
104	0x3e965b7f	0.2936668
105	0x3eba03c8	0.3633101
106	0x3ee422df	0.44557855
107	0xbd7afbe1	-0.061275367
108	0x3d9df2e4	0.07712343
109	0xbd97d814	-0.074142605
110	0xbeae9686	-0.34099215
111	0x3dc0e538	0.0941872
112	0xbe417e16	-0.18895754
113	0xbe872e6d	-0.26402608
114	0x3e73ff3c	0.23827833
115	0xbe9a0426	-0.3008129
116	0xbddae8d4	-0.1068894
117	0x3c1b065a	0.009461964
118	0x3d5592e8	0.052142054
119	0xbeab8446	-0.33499354
120	0xbf0dc4a7	-0.5537819
121	0xbe303bc1	-0.17210294
122	0x3f0eda72	0.5580207
123	0x3de0a0c8	0.109681666
124	0xbe521c95	-0.20518716
125	0xbe9c4529	-0.30521515
126	0x3de5c88b	0.11219891
127	0x3e9af1c3	0.30262575
128	0x3e92578c	0.28582418
129	0x3dd2fcb0	0.103021026
130	0xbed23fcb	-0.41064295
131	0x3d9fbbf7	0.07799523
132	0xbe189e56	-0.1490415
133	0xbe116a74	-0.14200765
134	0x3ea2a3af	0.31765506
135	0xbe7c68a4	-0.24649292
136	0xbebb312e	-0.3656096
137	0x3c5ff883	0.01367009
138	0xbe6fbe57	-0.23412453
139	0x3ecda7de	0.40167135
140	0x3d4570d4	0.048203304
141	0xb914dd7d	-0.0001419689
142	0xbeb771dd	-0.35829058
143	0x3dc69aad	0.09697471
144	0xbe78b852	-0.24289063
145	0x3e178e49	0.14800371
146	0xbbd348c9	-0.0064478857
147	0x3eb52b75	0.35384718
148	0xbd878e55	-0.066189446
149	0xbe92e483	-0.28689966
150	0x3dba43f8	0.09094995
151	0xbd2b09f7	-0.04175755
152	0xbedef567	-0.43546602
153	0xbd050e18	-0.032484144
154	0xbe722d18	-0.23650014
155	0x3de7ce69	0.113186665
156	0xbeefb64f	-0.46818778
157	0x3e41cba7	0.18925343
158	0x3d6e6a96	0.058207117
159	0x3e1a4599	0.15065612
160	0x3e8da8e6	0.27667922
161	0x3e99ebc5	0.3006269
162	0xbeb77a1c	-0.3583535
163	0xbeb84333	-0.3598877
164	0xbf01db23	-0.50725
165	0xbed6d29a	-0.4195755
166	0xbd4bd55d	-0.049764026
167	0x3ea5c523	0.32376966
168	0xbd524407	-0.051334407
169	0xbe87dab4	-0.26534045
170	0x3eaaf422	0.33389384
171	0x3e64e748	0.22353852
172	0xbab9bab2	-0.001417002
173	0xbe9da6bd	-0.30791274
174	0x3cbb4177	0.022858365
175	0xbee8cc75	-0.45468488
176	0xbec92b65	-0.3929092
177	0xbeb9370e	-0.36174816
178	0xbe849153	-0.25892124
179	0x3ef86fc7	0.4852278
180	0x3ead12b7	0.3380334
181	0xbe7884ea	-0.24269453
182	0x3ed16cc4	0.40903294
183	0x3d99d0de	0.075105414
184	0xbec009b3	-0.375074
185	0xbdb7d586	-0.08976273
186	0xbeb94aad	-0.36189786
187	0xbec1d815	-0.3786017
188	0xbeaaba5b	-0.33345303
189	0x3be08b29	0.0068525267
190	0xbe974cc2	-0.2955075
191	0xbe837087	-0.2567179
192	0x3e6549ac	0.22391385
193	0x3e9580ae	0.29199737
194	0xbd9a9f27	-0.07549887
195	0x3eba1655	0.36345163
196	0x3f0ffc16	0.5624403
197	0x3eb83c57	0.35983536
198	0x3e8105b7	0.25199673
199	0x3cd0eafb	0.025502672
200	0xbebac55a	-0.36478692
201	0x3ee57c46	0.44821376
202	0x3efd5b84	0.49483883
203	0xbe94f50e	-0.29093212
204	0xbe8a1f0c	-0.26976812
205	0x3e309a4e	0.17246363
206	0x3c1beca7	0.0095168715
207	0xbd20d585	-0.039266128
208	0xbefc05f4	-0.49223292
209	0xbe14b886	-0.14523515
210	0x3cf67e17	0.030089421
211	0xbdf8548c	-0.12125501
212	0x3e601097	0.21881329
213	0xbde758b7	-0.11296218
214	0x3d7d4c24	0.06184019
215	0x3e976b60	0.29574108
216	0x3e198328	0.14991438
217	0xbe2faa90	-0.17154908
218	0x3b826ca9	0.0039802385
219	0xbe527191	-0.20551135
220	0xbeb6d8ea	-0.35712367
221	0x3e580247	0.21094619
222	0xbd0abbde	-0.03387057
223	0xbe39bcdb	-0.18138449
224	0x3e349a20	0.17636919
225	0xbe9e778a	-0.30950576
226	0xbcbba627	-0.022906376
227	0x3ce179d6	0.027523916
228	0x3e8356c9	0.2565215
229	0xbdc23969	-0.09483606
230	0x3e08fe1d	0.13378187
231	0xbe7cf307	-0.24702083
232	0x3f031c91	0.51215464
233	0x3ebd315a	0.36951715
234	0x3cfe9107	0.031075014
235	0x3e5de711	0.21670176
236	0xbd21c197	-0.039491262
237	0xbe8a0543	-0.2695714
238	0xbeacb2a0	-0.3373003
239	0xbd787472	-0.060657926
240	0x3d8fb50e	0.07016955
241	0xbcb6a25a	-0.022294212
242	0xbe44b6c4	-0.19210345
243	0x3d1dbb49	0.038508687
244	0xbf5308cb	-0.8243529
245	0xbf59007f	-0.8476638
246	0xbdea5c14	-0.11443344
247	0x3e42572f	0.1897857
248	0xbd3e1b13	-0.04641254
249	0xbde9bf72	-0.114134684
250	0x3eb3a6e8	0.35088277
251	0x3ef475c6	0.47746104
252	0xbd3fd0ae	-0.04682987
253	0xbe866a1f	-0.2625284
254	0xbe5411bc	-0.2070989
255	0x3df632f9	0.12021441

gconvs.1.combination_weights f4 [4, 3]
0	0x3eb6e6dc	0.35723007
1	0x3ecfef07	0.4061205
2	0x3ebb223c	0.36549556
3	0x3eb6f246	0.35731715
4	0x3ecfda28	0.40596128
5	0x3ebbad08	0.3665545
6	0x3eb79ea4	0.3586322
7	0x3ecffb4f	0.4062142
8	0x3ebc2aa0	0.3675127
9	0x3eb72f23	0.3577815
10	0x3ecf9683	0.4054452
11	0x3ebbb54e	0.36661762

gconvs.1.weight f4 [3, 6, 6, 4, 3, 3]
0	0x3e94bfb4	0.29052508
1	0xbe29c49b	-0.16578905
2	0xbb0bcaad	-0.002133052
3	0x3daf7122	0.085665
4	0xbeb2ff4a	-0.34960395
5	0xbedda031	-0.4328628
6	0xbeb26833	-0.34845123
7	0x3c9277d4	0.017879404
8	0xbf10b042	-0.5651895
9	0xbf21d2f6	-0.63212526
10	0x3d8c0483	0.06836798
11	0xbcb171fc	-0.021660797
12	0xbf0d3e4a	-0.5517317
13	0xbecf8923	-0.40534315
14	0x3e959c62	0.29220873
15	0xbea34d7c	-0.31895053
16	0x3edee86b	0.43536696
17	0xbe0a35d6	-0.134971
18	0xbe9f3803	-0.3109742
19	0x3ca7b98e	0.020474222
20	0xbe8ca81d	-0.2747201
21	0xbede0723	-0.4336482
22	0xbed8b674	-0.423267
23	0x3e8ef108	0.27918267
24	0x3e613bf6	0.2199553
25	0xbebc2ab0	-0.36751318
26	0x3e8f013a	0.27930623
27	0x3e4d3abe	0.2004194
28	0x3e9f8cda	0.3116215
29	0x3e1caf87	0.15301333
30	0x3ed9e195	0.42554918
31	0xbd8d34ec	-0.0689486
32	0x3eb6daab	0.35713705
33	0x3d9486a0	0.0725224
34	0xbdd70831	-0.10499609
35	0xbd36b016	-0.044601522
36	0xbe6af821	-0.22946216
37	0xbe6b5984	-0.22983366
38	0x3e4da47b	0.20082276
39	0xbeb5f037	-0.35534832
40	0x3eac65c9	0.33671406
41	0xbe3fab89	-0.18717779
42	0x3d8ba2b7	0.06818145
43	0x3e5d9227	0.21637784
44	0xbc39e2ea	-0.011345604
45	0xbe97e736	-0.29668587
46	0x3d2cacb1	0.04215688
47	0x3eb12288	0.34596658
48	0xbee895ae	-0.45426697
49	0x3dd3cecb	0.10342177
50	0x3ead63d4	0.33865225
51	0xbec96dca	-0.39341575
52	0xbf3efe82	-0.746071
53	0xbe3bb6be	-0.1833143
54	0xbe1337b6	-0.14376721
55	0x3d0af366	0.03392353
56	0xbda6f211	-0.08151639
57	0x3e6c47ea	0.23074308
58	0xbe6f67d4	-0.23379451
59	0x3e4049d5	0.18778165
60	0xbf1ac63e	-0.60458744
61	0xbefc1798	-0.4923675
62	0xbe470cd3	-0.19438486
63	0x3e0dd88e	0.1385214
64	0xbec50cd0	-0.38486338
65	0x3bf82fe3	0.007574068
66	0xbf220d4c	-0.6330154
67	0xbe8bca80	-0.27302933
68	0x3e5a257c	0.21303362
69	0x3d398083	0.045288574
70	0x3d8ef129	0.069795914
71	0xbe08319a	-0.13300171
72	0xbe034312	-0.12818554
73	0xbe26d31a	-0.16291466
74	0xbea48bb8	-0.32137847
75	0xbb3fd714	-0.0029272484
76	0xbef8132d	-0.4845213
77	0xbde454eb	-0.11149009
78	0xbdd3d644	-0.10343602
79	0x3e56701c	0.20941204
80	0xbdf24248	-0.118290484
81	0xbe91d72f	-0.28484485
82	0xbee10dfc	-0.43955982
83	0x3e8287a6	0.25494117
84	0xbe9a0e4c	-0.30089033
85	0x3d2664af	0.040623363
86	0x3e6eee32	0.23333052
87	0xbe2c8f35	-0.16851504
88	0xbe463b27	-0.19358502
89	0xbe693fa5	-0.22778185
90	0xbec00e01	-0.37510684
91	0x3e802a75	0.25032392
92	0xbe9dc4b2	-0.3081413
93	0xbeeb8dcd	-0.46006623
94	0x3ebd05c9	0.36918476
95	0xbe047e56	-0.12938818
96	0x3d876674	0.06611338
97	0x3d0319a5	0.03200688
98	0x3e620f59	0.22076167
99	0x3e7a671a	0.24453393
100	0x3e668e79	0.22515287
101	0x3da3c803	0.079971336
102	0x3e9a982f	0.30194232
103	0xbdeadeb4	-0.114682585
104	0x3ec362f2	0.38161427
105	0xbe72dd27	-0.23717175
106	0xbe769660	-0.24080801
107	0xbe590d67	-0.21196519
108	0x3eb39c21	0.35080054
109	0x3e124b68	0.14286578
110	0xbee813fe	-0.45327753
111	0xbd429c8e	-0.047512583
112	0xbd6049b7	-0.0547578
113	0xbf01b804	-0.5067141
114	0xbec7da3d	-0.3903369
115	0xbeebd1f5	-0.46058622
116	0xbe850205	-0.25978103
117	0xbead79d0	-0.33881998
118	0x3ef2344c	0.47305524
119	0xbe87393b	-0.2641085
120	0x3e49eb5d	0.1971869
121	0x3ed3dc2f	0.41378924
122	0xbc44ab19	-0.0120036835
123	0xbc5d8e88	-0.013522752
124	0x3e349779	0.17635907
125	0xbd58d062	-0.052933104
126	0x3dab2753	0.0835711
127	0xbd994cb4	-0.07485333
128	0xba99ae03	-0.0011724833
129	0xbe3ce937	-0.1844834
130	0x3eef8ef5	0.46788755
131	0xbe4d5503	-0.2005196
132	0x3e0c6e0f	0.13713859
133	0x3d9649e9	0.07338316
134	0x3e048347	0.12940703
135	0x3e263748	0.16232026
136	0xbea7015b	-0.32618222
137	0x3e0dfc94	0.13865882
138	0xbdd2ccc0	-0.10292959
139	0x3ed9e55c	0.425578
140	0x3d831e06	0.06402211
141	0xbe56b3a7	-0.2096697
142	0xbe7e7a6c	-0.24851388
143	0xbda53fc5	-0.08068804
144	0x3ee82187	0.4533808
145	0x3e7cdbfb	0.24693291
146	0xbe934c33	-0.28769073
147	0x3ec185bb	0.3779734
148	0x3f1179b5	0.56826335
149	0x3dee7624	0.11643627
150	0x3f052d01	0.52021796
151	0xbe77fe51	-0.24218108
152	0x3e355a95	0.17710336
153	0xbf1e91f8	-0.6194148
154	0xbe7549be	-0.23953912
155	0x3d1fa26a	0.03897325
156	0xbe94de47	-0.29075834
157	0x3db4f4e6	0.08835773
158	0x3c40c194	0.011764903
159	0xbecd3dc7	-0.40086195
160	0x3e8de07e	0.27710336
161	0x3f12aa71	0.5729132
162	0xbe3e2aed	-0.18571062
163	0x3df6848a	0.120369986
164	0xbbef6a92	-0.0073064053
165	0xbe6d71cc	-0.23187941
166	0xbea1a133	-0.31568298
167	0xbdb1385d	-0.086533286
168	0xbd01312d	-0.03154104
169	0xbe3053da	-0.17219487
170	0xbecc5987	-0.39912054
171	0x3e87defa	0.26537305
172	0x3ea1df22	0.3161555
173	0xbef3c851	-0.47613767
174	0xbe019070	-0.12652755
175	0xbde593bd	-0.112098195
176	0x3e8c5a7a	0.27412778
177	0xbcfa92b1	-0.030587526
178	0x3e5c193b	0.21494
179	0xbe07b842	-0.13253883
180	0xbf1fdbc1	-0.6244469
181	0xbe23e71d	-0.16006131
182	0x3d5e906c	0.05433695
183	0x3e6c179d	0.23055883
184	0x3e7a6749	0.24453463
185	0x3ea7d3b0	0.32778692
186	0x3ea8a90a	0.32941467
187	0x3ea5a2d0	0.3235078
188	0xbea42913	-0.32062587
189	0xbe98f8b9	-0.2987726
190	0xbe9a67cf	-0.30157325
191	0xbd18e87f	-0.0373311
192	0xbe4f008c	-0.20215052
193	0xbe9e0f08	-0.30870843
194	0xbe5adaec	-0.21372575
195	0xbea1b2ae	-0.31581634
196	0xbdf15e4f	-0.11785566
197	0x3e392397	0.18079983
198	0x3e7e89e4	0.24857289
199	0x3ea13b69	0.3149064
200	0x3e356182	0.17712978
201	0x3df9a6b3	0.121899985
202	0xbe934815	-0.28765932
203	0x3ceb66dc	0.02873557
204	0xbc5fcaf2	-0.013659226
205	0xbd5c3788	-0.053763896
206	0x3e07d71b	0.1326565
207	0x3ea0fd33	0.31443176
208	0x3e1bf54a	0.15230289
209	0x3e1add75	0.15123542
210	0xbe5a840b	-0.21339433
211	0x3e632c80	0.22184944
212	0x3e62c08d	0.22143765
213	0x3e9bf89a	0.30463105
214	0x3ecc753c	0.39933193
215	0x3df81545	0.12113432
216	0x3eb6c0be	0.35693926
217	0x3c1e81cd	0.009674502
218	0xbc014807	-0.007890708
219	0xbe21c97f	-0.15799521
220	0xbeaa9ce8	-0.33322835
221	0xbdecb757	-0.11558407
222	0xbf0590dc	-0.5217416
223	0xbf16e885	-0.58948547
224	0xbe342457	-0.17591988
225	0xbb8386d8	-0.0040138774
226	0x3ee038b5	0.43793264
227	0xbe3d20bf	-0.18469523
228	0x3e25f9f6	0.16208634
229	0x3eff33d9	0.49844244
230	0xbe2b6779	-0.1673869
231	0x3ea48a57	0.32136795
232	0xbecc9a37	-0.39961407
233	0xbeaab452	-0.33340698
234	0x3e957287	0.2918894
235	0x3e9495e2	0.29020602
236	0x3ec02aec	0.37532747
237	0x3e94cff1	0.29064897
238	0xbd9f7c3e	-0.07787369
239	0xbd47890c	-0.048714682
240	0xbe2337fb	-0.15939324
241	0xbdfdd1e2	-0.123935476
242	0xbe901281	-0.28139117
243	0xbd988b09	-0.07448394
244	0xbe7f6fb9	-0.24944963
245	0xbe1a0a1a	-0.15042916
246	0xbdf78b66	-0.12087135
247	0xbdb9cde2	-0.09072472
248	0x3e5b99c9	0.21445383
249	0xbd665d1c	-0.05624114
250	0x3e5483e6	0.2075344
251	0xbdfe792f	-0.12425458
252	0xbe438ba2	-0.19096234
253	0xbe8d95fb	-0.2765349
254	0xbf08d550	-0.5345049
255	0xbea9dcaa	-0.33176166

gconvs.2.combination_weights f4 [4, 3]
0	0x3eca4b4f	0.3951058
1	0x3ef167ef	0.47149608
2	0x3ed1bfdc	0.4096669
3	0x3ecbf656	0.39836377
4	0x3ef04a69	0.4693177
5	0x3ed31f6e	0.41234916
6	0x3eca30c0	0.39490318
7	0x3eefdeae	0.4684958
8	0x3ed19f59	0.40941885
9	0x3ecb9076	0.39758652
10	0x3eefdea2	0.46849543
11	0x3ed293a7	0.41128275

gconvs.2.weight f4 [3, 6, 6, 4, 3, 3]
0	0x3ce99be3	0.028516715
1	0xbebae539	-0.36503008
2	0xbbeb0286	-0.0071719317
3	0xbdc9279e	-0.098220095
4	0xbeb2abf5	-0.34896818
5	0x3ec30c77	0.38095447
6	0x3f074c15	0.52850467
7	0xbe8c7bba	-0.27438146
8	0xbe63aae6	-0.22233161
9	0xbf2f0440	-0.6836586
10	0xbe1bdc1c	-0.15220684
11	0xbe3bff51	-0.18359114
12	0xbe9d66ed	-0.3074259
13	0xbe526f63	-0.20550303
14	0xbf1f85b6	-0.623134
15	0x3e8bfeb8	0.27342772
16	0xbeb99f53	-0.36254367
17	0x3d6c4032	0.05767841
18	0xbd8d92e4	-0.06912783
19	0xbed396d6	-0.41326016
20	0xbca57c30	-0.020200819
21	0xbe8775b7	-0.26456997
22	0x3c536749	0.012903043
23	0x3ec13406	0.37735003
24	0xbe1c1a52	-0.15244415
25	0xbe81403c	-0.2524432
26	0x3d47bf24	0.04876627
27	0x3f1dbb2f	0.61613744
28	0x3ef81921	0.48456672
29	0xbe4563a0	-0.19276285
30	0x3e7bcca5	0.24589784
31	0x3e130793	0.14358358
32	0x3e006d75	0.12541755
33	0xbf67c8b6	-0.90540636
34	0xbda62806	-0.081131026
35	0xbbfa34c6	-0.0076356856
36	0xbef645b7	-0.48100063
37	0xbe0352ae	-0.12824509
38	0x3e57e08c	0.21081752
39	0x3e3145b7	0.1731175
40	0xbe3c1e78	-0.18370998
41	0x3f06188b	0.523812
42	0xbeb40e26	-0.35167044
43	0x3e56a080	0.20959663
44	0xbdea5e97	-0.11443823
45	0xbdb81972	-0.08989228
46	0xbef534a4	-0.47891724
47	0xbee43905	-0.44574752
48	0x3dd2a5de	0.10285543
49	0x3e03c363	0.12867503
50	0x3e375d7e	0.17906758
51	0xbe9cec56	-0.3064906
52	0x3f021ae1	0.50822264
53	0x3e83d610	0.25749254
54	0x3eb37340	0.35048866
55	0xbe833190	-0.2562375
56	0x3de4acc9	0.11165769
57	0x3e8d967c	0.27653873
58	0xbe5a1503	-0.21297078
59	0xbe9ff724	-0.3124324
60	0x3f034938	0.512836
61	0x3ea1050e	0.3144917
62	0x3ded5401	0.11588288
63	0xbee0ac0b	-0.43881258
64	0x3e67ca63	0.22635798
65	0x3d84a454	0.064766556
66	0xbe63c12e	-0.22241661
67	0xbe25186e	-0.161226
68	0xbdb80836	-0.08985941
69	0xbe1f757b	-0.15572159
70	0xbf0d4fd5	-0.5519994
71	0xbdafb1a3	-0.085788034
72	0x3df10cb2	0.117699996
73	0xbdba67e7	-0.09101849
74	0xbed49636	-0.41520852
75	0xbdf76c62	-0.12081219
76	0xbe645cb9	-0.22300996
77	0x3c7639f2	0.015028464
78	0x3e802121	0.25025275
79	0x3dbe058d	0.092784025
80	0x3e82b2f7	0.25527164
81	0x3c193fe5	0.009353613
82	0x3edf038d	0.43557397
83	0xbce13055	-0.027488867
84	0xbef305de	-0.47465414
85	0xbea37b12	-0.31929833
86	0x3c6d6ebf	0.014491736
87	0x3e061bcc	0.13096541
88	0xbd41b301	-0.047289852
89	0x3e3ac2e1	0.18238403
90	0x3d0a1261	0.033708934
91	0x3eed81b3	0.46388015
92	0x3b03dcc2	0.0020120596
93	0x3d111089	0.03541616
94	0x3e8cabbd	0.27474776
95	0x3e2490f1	0.16070916
96	0x3ed6f273	0.4198185
97	0x3f0d4237	0.5517916
98	0x3ed56033	0.41674957
99	0xbe366a52	-0.17813995
100	0xbe1d28d4	-0.15347606
101	0xbd997106	-0.07492261
102	0x3cfb7522	0.030695502
103	0x3cde56fe	0.02714109
104	0xbf1ab004	-0.6042483
105	0x3e1ec36c	0.15504235
106	0x3d442569	0.04788724
107	0xbd926417	-0.07147997
108	0x3e1fcd4a	0.15605655
109	0xbf3034c1	-0.68830496
110	0xbe975932	-0.29560238
111	0x3e325f4d	0.17419167
112	0x3cdace50	0.026709706
113	0xbeaa631a	-0.33278733
114	0xbc07a5e9	-0.008279302
115	0xbea59f46	-0.32348078
116	0xbd54ed5b	-0.051984172
117	0xbede1809	-0.43377712
118	0x3e04f4e4	0.12984043
119	0xbdd7ab10	-0.105306745
120	0xbee2d719	-0.4430473
121	0xbe947a50	-0.28999567
122	0x3e705143	0.23468499
123	0xbea44011	-0.3208013
124	0xbe62cab0	-0.22147632
125	0xbec4d913	-0.38446864
126	0xbeadf27f	-0.33974072
127	0xbbab8829	-0.0052347374
128	0x3f02c780	0.5108566
129	0xbec884f0	-0.39163923
130	0xbcc4d37a	-0.024026621
131	0x3e3b12cd	0.1826889
132	0xbd8d0a15	-0.068866886
133	0xbd92f58a	-0.07175739
134	0xbec485a0	-0.38383198
135	0xbea54f8c	-0.32287252
136	0xbe88c4f0	-0.2671275
137	0x3e62d13f	0.22150134
138	0x3e01ea04	0.12686926
139	0xbe3501c6	-0.17676458
140	0x3e86557e	0.262371
141	0x3e9b1013	0.302857
142	0xbafc0425	-0.0019227309
143	0xbe6fcc60	-0.23417807
144	0xbcc01839	-0.02344905
145	0x3e956f61	0.29186538
146	0xbe8adbe2	-0.27120882
147	0xbe448066	-0.19189605
148	0xbd9a28bf	-0.07527303
149	0x3ef5c585	0.48002258
150	0x3ec0ad46	0.37632197
151	0x3e806004	0.25073254
152	0xbec50bda	-0.38485605
153	0x3db897f4	0.09013358
154	0x3e160653	0.1465085
155	0x3ebc4ce1	0.36777404
156	0xbee75936	-0.4518525
157	0xbe3358b0	-0.175143
158	0x3e3495e0	0.17635298
159	0xbeb54166	-0.35401458
160	0x3e43b1bd	0.1911077
161	0xbe85c6d0	-0.26128244
162	0x3ead2da9	0.33823898
163	0xbe655e43	-0.22399239
164	0x3cc8f514	0.024530925
165	0xbe8438e5	-0.25824657
166	0xbcf37844	-0.029720433
167	0xbdf54a12	-0.119770184
168	0x3a2ae76f	0.00065194716
169	0x3ed147fb	0.4087523
170	0xbe8c1e6b	-0.27366957
171	0xbe9550c9	-0.29163197
172	0x3d498a5a	0.049204208
173	0x3e2603f9	0.16212453
174	0xbe0b8373	-0.13624363
175	0xbe08f6c8	-0.1337539
176	0x3f0e1e09	0.5551458
177	0x3d8332b7	0.064061575
178	0x3e3d5d07	0.18492518
179	0x3ed88b86	0.42293948
180	0x3e501673	0.20321064
181	0x3e7b09bb	0.2451543
182	0xbf09d788	-0.538445
183	0x3e3fcd2a	0.18730608
184	0x3eb1bef7	0.34716007
185	0xbe82bc66	-0.25534362
186	0xbe2b4dfa	-0.16728964
187	0x3e5c6f64	0.21526867
188	0x3e5cf86c	0.2157914
189	0xbe45af44	-0.1930514
190	0xbee58148	-0.44825196
191	0xbf216faa	-0.6306101
192	0x3dbda755	0.09260432
193	0xbe493007	-0.19647227
194	0xbe17a702	-0.14809802
195	0x3e5f4834	0.21804887
196	0x3f089892	0.53357804
197	0xbc1acfba	-0.00944894
198	0xbf02c5c7	-0.51083034
199	0x3d4dbbf5	0.050228078
200	0x3eca4be6	0.3951103
201	0xbf275dbf	-0.6537742
202	0xbe2b0305	-0.1670037
203	0xbe9fa201	-0.31178287
204	0xbef79803	-0.48358163
205	0x3dca761b	0.09885808
206	0x3d24e5dc	0.040258273
207	0xbf2d6e25	-0.6774619
208	0xbd1467bc	-0.03623174
209	0xbe8e465f	-0.27788064
210	0xbda4ae13	-0.080410145
211	0xbd29b85b	-0.04143558
212	0x3e92461c	0.28569114
213	0xbf28fc94	-0.66010404
214	0x3e6346fb	0.22195046
215	0x3c9fbffd	0.019500727
216	0x3e076747	0.13222991
217	0xbe6887f0	-0.22708106
218	0x3eab09d4	0.33405936
219	0xbdcc890a	-0.099870756
220	0xbad04b14	-0.0015891516
221	0x3e97bb29	0.2963498
222	0xbec8ddd0	-0.3923173
223	0x3e6ef4d2	0.23335579
224	0x3e768715	0.24074967
225	0xbee2bc00	-0.44284058
226	0xbf6ee2f4	-0.93315053
227	0x3e1871da	0.14887181
228	0xbef96cab	-0.4871572
229	0xbf0becad	-0.54658014
230	0x3d121c03	0.035671245
231	0xbea339b1	-0.31879953
232	0xbd1b34c5	-0.03789212
233	0xbe552ca4	-0.2081781
234	0x3f1175d0	0.5682039
235	0x3dbf174a	0.09330614
236	0xbe56d662	-0.20980218
237	0x3abb19dc	0.0014274674
238	0x3e973d44	0.2953893
239	0x3d963b51	0.073355325
240	0x3eaa7d5c	0.33298767
241	0x3de08111	0.109621175
242	0xbebf3464	-0.37344658
243	0xbdd277f5	-0.10276786
244	0xbf2a8c00	-0.66619873
245	0xbd5b66f9	-0.053565
246	0xbf34c88f	-0.7061853
247	0xbee0db9d	-0.43917552
248	0xbf471b18	-0.77775717
249	0xbdffc176	-0.124880716
250	0xbf0cb163	-0.5495817
251	0xbedd37d6	-0.43206662
252	0xbc0638c5	-0.008192246
253	0x3e23b5fc	0.1598739
254	0x3cd30879	0.025760876
255	0xbdd6fa60	-0.10496974

gconvs.3.combination_weights f4 [4, 3]
0	0x3ebaf7df	0.36517236
1	0x3eed8f8e	0.46398586
2	0x3ec72806	0.38897723
3	0x3ebbe37f	0.36697003
4	0x3eef48ab	0.4673513
5	0x3ec804a5	0.39066043
6	0x3ebb19bf	0.3654308
7	0x3eeda7c2	0.46417052
8	0x3ec7545a	0.38931543
9	0x3ebb4e2e	0.36583084
10	0x3eedb2c1	0.4642544
11	0x3ec749c0	0.38923454

gconvs.3.weight f4 [3, 6, 6, 4, 3, 3]
0	0x3f1aa444	0.604069
1	0x3e229062	0.1587539
2	0x3ed06309	0.40700558
3	0x3e81d98b	0.25361285
4	0xbe54f856	-0.20797858
5	0xbd9d1f44	-0.07671979
6	0x3e78cd5f	0.24297093
7	0xbd85e822	-0.065384164
8	0x3ea2673e	0.31719393
9	0xbe7fea9a	-0.24991837
10	0xbcb72f9b	-0.022361567
11	0x3bbc70f8	0.0057507716
12	0xbe85a277	-0.26100513
13	0x3e4cae1a	0.1998829
14	0x3f05ed27	0.5231499
15	0xbedd9245	-0.43275657
16	0x3da5277c	0.08064172
17	0xbd6a815b	-0.05725227
18	0x3f0df0b3	0.554454
19	0xbd158a66	-0.03650894
20	0x3d613623	0.05498327
21	0xbdc669a3	-0.09688117
22	0xbe890342	-0.26760298
23	0x3c934ef0	0.017981976
24	0x3e575ace	0.21030733
25	0xbea6870f	-0.32524917
26	0x3daaa7d2	0.083327904
27	0xbea8be75	-0.32957807
28	0x3e86f7dd	0.2636098
29	0xbdc58141	-0.09643794
30	0xbe143df2	-0.14476755
31	0x3ccf47d8	0.025302812
32	0xbd4f5f38	-0.050627917
33	0xbee5ec9d	-0.44907084
34	0x3d0dc863	0.03461493
35	0xbf3bdb10	-0.7338114
36	0xbe9dda7b	-0.3083075
37	0xbeaeffd0	-0.34179544
38	0x3e202a8c	0.1564123
39	0xbda0e6a7	-0.078564934
40	0x3eb34917	0.350167
41	0xbf0890b7	-0.5334582
42	0xbdf8976f	-0.12138259
43	0x3dcb1012	0.099151745
44	0xbeb88580	-0.36039352
45	0x3dc08d85	0.09401993
46	0xbe5846af	-0.21120714
47	0x3e72cfb0	0.23712039
48	0xbe7c322a	-0.24628511
49	0x3e4ac6e1	0.19802429
50	0xbe968577	-0.293987
51	0xbf1d565a	-0.6145989
52	0xbd49a552	-0.049229927
53	0xbe8bfdf3	-0.27342185
54	0xbd9ea491	-0.07746232
55	0x3ead6468	0.33865666
56	0x3e853c69	0.26022652
57	0x3cc0ce3d	0.023535842
58	0xbe8918d3	-0.26776752
59	0x3e840694	0.2578627
60	0xbe052f24	-0.13006264
61	0xbe4ceb3e	-0.20011613
62	0xbe2b4692	-0.16726139
63	0x3e2beb52	0.16788986
64	0x3c65427c	0.013992902
65	0x3ef298f4	0.4738232
66	0xbe18906c	-0.14898843
67	0xbe8727bc	-0.26397502
68	0xbd89a384	-0.06720641
69	0xbe0cd430	-0.13752818
70	0xbe3de8f2	-0.18545893
71	0x3c9d2266	0.019181442
72	0x3efde75d	0.4959058
73	0x3d4f894b	0.050668042
74	0xbd89f6ae	-0.067365035
75	0x3ec770af	0.38953158
76	0x3eb7cb9e	0.35897535
77	0xbdf58eb3	-0.11990108
78	0x3da8805a	0.08227606
79	0xbe982f45	-0.29723564
80	0x3e61fbd8	0.22068727
81	0x3d120b44	0.035655275
82	0x3da61758	0.08109921
83	0xbf12d7d6	-0.5736059
84	0xbe107c39	-0.14109887
85	0x3e04b2a1	0.12958767
86	0xbe541c0b	-0.20713823
87	0xbf13538b	-0.5754935
88	0xbea89609	-0.32926968
89	0xbe941703	-0.28923807
90	0xbdde5bc4	-0.10857347
91	0x3e9eaab4	0.3098961
92	0x3e194862	0.14969018
93	0xbf28b615	-0.65902835
94	0xbe79662c	-0.24355382
95	0xbec1667c	-0.37773502
96	0xbe47c098	-0.19507062
97	0xbde2bca4	-0.110711366
98	0xbec84658	-0.39116168
99	0x3e555972	0.20834902
100	0xbdaea567	-0.08527642
101	0x3ed58a14	0.41706908
102	0xbd50bf25	-0.05096354
103	0xbe220f0b	-0.15826051
104	0x3bcaeb69	0.006192614
105	0xbe6fd2b3	-0.23420219
106	0x3ec3173d	0.38103667
107	0x3de94cda	0.113916114
108	0x3d22cc30	0.03974551
109	0x3d737594	0.059438303
110	0xbe97c6b8	-0.29643798
111	0xbe5c5c2a	-0.21519533
112	0x3eb38d37	0.35068676
113	0xbe1e130c	-0.15436953
114	0xbea7a8ce	-0.32745975
115	0x3dc7e8b2	0.0976118
116	0x3ebb8c5e	0.3663053
117	0x3ebb3530	0.36564016
118	0x3ed6c8e6	0.41950148
119	0xb9e6d1ab	-0.00044025233
120	0xbd237803	-0.039909374
121	0x3d57eeae	0.052717857
122	0xbe9487b3	-0.2900978
123	0x3de00558	0.10938519
124	0x3da672e2	0.08127381
125	0xbe714003	-0.23559575
126	0xbe0f1705	-0.13973625
127	0xbe2b6b56	-0.16740164
128	0xbe159bad	-0.14610167
129	0x3d413f43	0.04717947
130	0xbe3a8579	-0.18214978
131	0xbeed5810	-0.4635625
132	0xbeebfcc2	-0.46091276
133	0xbf012dc4	-0.5046046
134	0xbec02826	-0.3753063
135	0xbe3d870b	-0.18508546
136	0xbe95280a	-0.2913211
137	0xbdd22794	-0.10261455
138	0xbf031995	-0.5121091
139	0x3e43f420	0.19136095
140	0x3e1b1015	0.15142854
141	0xbf4bdc32	-0.79632866
142	0xbf31d5a6	-0.69466627
143	0xbea1e840	-0.31622505
144	0x3d2397c2	0.03993965
145	0xbd4aeff3	-0.04954524
146	0xbdb93c91	-0.09044755
147	0xbb811a4e	-0.0039399033
148	0xbe466ebb	-0.19378178
149	0x3e8fadc9	0.28062275
150	0x3e168f5b	0.14703123
151	0xbea8b01e	-0.32946867
152	0x3eadf9ad	0.3397955
153	0xbd9714c6	-0.07377009
154	0xbe5936ba	-0.21212283
155	0x3dec5daf	0.11541306
156	0x3e52159b	0.20516054
157	0xbec2fd10	-0.38083696
158	0x3d56f7c5	0.052482385
159	0xbda4cb2d	-0.08046565
160	0xbe53c27c	-0.20679659
161	0xbd4774ad	-0.048695255
162	0x3e417644	0.18892771
163	0xbd853792	-0.0650474
164	0xbdbce31d	-0.09223006
165	0xbe1e14b5	-0.15437587
166	0x3db13539	0.086527295
167	0xbe8e649f	-0.27811143
168	0x3e89662d	0.26835766
169	0xbdaedbb8	-0.08538002
170	0x3e9f7679	0.31145075
171	0xbd2b85e2	-0.041875727
172	0xbdba0254	-0.09082475
173	0x3e51760b	0.20455186
174	0xbed26152	-0.41089875
175	0xbe859e0a	-0.26097137
176	0xbed41af7	-0.41426823
177	0x3e87ca6c	0.26521623
178	0xbe994144	-0.29932606
179	0xbefb3773	-0.49065742
180	0xbed5426a	-0.41652232
181	0xbee025ab	-0.43778738
182	0xbe94ba2c	-0.29048288
183	0xbcd96f73	-0.026542401
184	0xbe16354b	-0.14668767
185	0x3dbb179b	0.09135362
186	0xbe957fb7	-0.29199
187	0xbe3abb86	-0.18235597
188	0xbed83c61	-0.42233565
189	0x3ed3d281	0.4137154
190	0x3ede714e	0.4344582
191	0x3e900ff1	0.28137162
192	0xbe4baf9d	-0.1989121
193	0xbebcd9a9	-0.36884812
194	0x3ea44442	0.32083327
195	0x3ea109fc	0.3145293
196	0xbe8e943b	-0.27847466
197	0xbececcce	-0.4039063
198	0xbe3f58bc	-0.18686193
199	0x3d2577a2	0.040397294
200	0x3ee4fbf5	0.44723478
201	0xbf3667cb	-0.71252126
202	0xbe1005fd	-0.14064784
203	0x3f5d5392	0.86455643
204	0xbf028810	-0.50988865
205	0xbf16d137	-0.58912987
206	0xbf1e1ecb	-0.61765736
207	0xbc138c36	-0.009005597
208	0x3ed49759	0.4152172
209	0x3ed6aaa1	0.41927055
210	0xbc607fc2	-0.013702335
211	0x3ef2cd8a	0.4742244
212	0x3e44b59a	0.192099
213	0xbd22eb6d	-0.0397753
214	0x3eb6ef6f	0.35729548
215	0xbabf7c17	-0.0014609125
216	0x3e18625c	0.14881271
217	0x3c8da3c2	0.01729
218	0xbc749d88	-0.0149301365
219	0xbd0e98de	-0.034813754
220	0x3e28db5c	0.16489929
221	0xbe39dae1	-0.18149902
222	0x3d137afc	0.03600596
223	0xbec1d701	-0.37859347
224	0xbef8ab68	-0.48568273
225	0x3debf517	0.115213566
226	0x3db6115b	0.08890029
227	0xbf0ea1d5	-0.55715686
228	0x3e874f48	0.26427674
229	0xbe04b229	-0.12958588
230	0xbeace1e5	-0.33766094
231	0x3ed6f57e	0.4198417
232	0x3ea1d9a6	0.31611365
233	0x3ed576dc	0.41692245
234	0xbe43cc49	-0.19120897
235	0x3e706940	0.2347765
236	0xbf202b22	-0.62565815
237	0x3f4a6837	0.7906527
238	0x3e0888e9	0.13333477
239	0x3d549148	0.051896363
240	0x3e321749	0.17391695
241	0xbe451d60	-0.19249487
242	0xbee1fdd1	-0.4413896
243	0x3e72d1ed	0.23712893
244	0x3eb9fcaf	0.36325595
245	0x3e3369d2	0.17520836
246	0xbdf64163	-0.1202419
247	0x3e075b2c	0.13218373
248	0x3e49953f	0.19685839
249	0x3ed719f9	0.42012003
250	0x3ed8ed4a	0.42368537
251	0x3e23b490	0.15986848
252	0xbea232b2	-0.31679302
253	0x3eb70e81	0.35753253
254	0xbeb9f4e4	-0.3631965
255	0xbda70346	-0.08154921

gconvs.4.combination_weights f4 [4, 3]
0	0x3eb86acc	0.3601898
1	0x3eec93d2	0.46206528
2	0x3edf7378	0.43642783
3	0x3eb80ed9	0.35948828
4	0x3eec6276	0.4616887
5	0x3ede6db7	0.4344308
6	0x3eb8ca5a	0.36091882
7	0x3eec2547	0.4612219
8	0x3ede7b94	0.43453658
9	0x3eb81a94	0.35957778
10	0x3eed5761	0.46355727
11	0x3ede5bf0	0.43429518

gconvs.4.weight f4 [3, 6, 6, 4, 3, 3]
0	0x3e40a94a	0.18814579
1	0x3e39139b	0.18073885
2	0x3eac5302	0.3365708
3	0xbe805563	-0.25065145
4	0xbefc71f1	-0.4930568
5	0x3ebb7c7e	0.36618418
6	0xbf1ff060	-0.6247616
7	0xbeac1a64	-0.33613884
8	0xbe0c256c	-0.1368615
9	0xbf1ba8f8	-0.608047
10	0xbed86042	-0.4226094
11	0xbed7a593	-0.4211851
12	0xbea27428	-0.31729245
13	0xbeaede94	-0.3415419
14	0xbeca2539	-0.39481524
15	0xbe6ad22f	-0.22931741
16	0x3d358128	0.044312626
17	0x3f07d1c7	0.5305447
18	0x3dca2633	0.09870567
19	0x3e184edb	0.14873831
20	0xbe357e02	-0.1772385
21	0x3c862c50	0.016378552
22	0xbe3c90d2	-0.1841462
23	0xbe93ab17	-0.2884147
24	0xbec8064f	-0.39067313
25	0xbf00eb98	-0.5035949
26	0xbdfc606f	-0.12323081
27	0xbf258f8b	-0.64672154
28	0xbed2a41c	-0.4114083
29	0xbd9b780e	-0.07591258
30	0xbf00a077	-0.5024485
31	0xbe6b813d	-0.22998519
32	0xbe123213	-0.14276914
33	0xbe305980	-0.17221642
34	0x3e873f28	0.26415372
35	0x3e9a7bf0	0.30172682
36	0xbe91d402	-0.28482062
37	0xbf031ebb	-0.51218766
38	0xbe5c1bfd	-0.21495052
39	0xbe542ac2	-0.20719436
40	0xbee33a86	-0.44380587
41	0xbe98a199	-0.2981079
42	0xbd0ecf7e	-0.03486585
43	0xbec81ef9	-0.3908613
44	0xbe7436d9	-0.23849048
45	0x3e13e37f	0.14442252
46	0xbe997234	-0.29969943
47	0xbeac03bb	-0.33596596
48	0xbd8e5752	-0.06950249
49	0xbdcc2017	-0.09967058
50	0xbea79782	-0.3273278
51	0x3e3027a2	0.17202619
52	0xbeaacc8c	-0.33359182
53	0x3e7a98dc	0.24472374
54	0xbf3b1543	-0.7307932
55	0xbeb2b1c6	-0.34901255
56	0xbe3a1fbd	-0.1817617
57	0xbf3194df	-0.69367784
58	0xbeb840e9	-0.35987023
59	0x3e58e8a7	0.211825
60	0x3e08f107	0.13373195
61	0xbe327f92	-0.17431477
62	0x3db088e0	0.08619857
63	0xbea52c3e	-0.32260317
64	0xbea986c9	-0.33110645
65	0xbf27be87	-0.65525097
66	0x3cd1aa80	0.025593996
67	0x3e213939	0.15744485
68	0xbea4fec8	-0.32225633
69	0xbeb478c5	-0.3524839
70	0xbd7a8d00	-0.061169624
71	0x3dcf439b	0.101203166
72	0x3e06ee09	0.1317674
73	0xbe17279c	-0.14761204
74	0x3e18b051	0.1491101
75	0x3d6e990f	0.058251437
76	0x3e5551ce	0.20831987
77	0xbdfb5064	-0.12271193
78	0x3d234939	0.039864752
79	0x3ea67f95	0.32519212
80	0x3e13cdfe	0.14434049
81	0x3e047d8d	0.12938519
82	0xbeb37c66	-0.35055846
83	0x3eb43dc0	0.35203362
84	0x3e019ece	0.12658235
85	0xbd1bb624	-0.0380155
86	0x3dfcf502	0.12351419
87	0xbe41f658	-0.18941629
88	0x3e97c47b	0.2964209
89	0x3e0576d6	0.13033614
90	0x3e6f58d5	0.2337373
91	0xbe21daaf	-0.15806077
92	0x3e9bb7b6	0.30413598
93	0x3e220b18	0.15824544
94	0xbe27db0f	-0.16392158
95	0xbe9d2a1f	-0.30696198
96	0x3dc3406b	0.09533771
97	0xbbba2e1c	-0.005681766
98	0xbe823d34	-0.2543732
99	0x3ea991ee	0.33119148
100	0xbea0749f	-0.31338975
101	0xbec381be	-0.38184923
102	0xbecab8f6	-0.3959424
103	0xbe708ee7	-0.23492013
104	0x3dee4df6	0.116359636
105	0x3de77772	0.11302079
106	0x3e6398f2	0.22226313
107	0xbe02e9ac	-0.12784451
108	0x3cdbff60	0.02685517
109	0xbe6e7602	-0.23287204
110	0x3ee98c4b	0.45614848
111	0x3eafb354	0.34316504
112	0x3e59709f	0.21234368
113	0xbe600c7e	-0.21879765
114	0xbe841a77	-0.2580144
115	0xbea0bdcb	-0.313948
116	0x3eaf8647	0.34282133
117	0x3efb7618	0.49113536
118	0x3e9285df	0.2861776
119	0xbe75c2e1	-0.24000122
120	0xbe9f6d98	-0.311383
121	0x3ee51a13	0.44746456
122	0xbdaf9d75	-0.085749544
123	0xbe4cd07a	-0.20001402
124	0xbce28a4e	-0.02765384
125	0x3eb5066f	0.3535647
126	0x3e7eb08d	0.24872036
127	0x3d82c640	0.063854694
128	0x3e3d422d	0.18482275
129	0x3dd0478f	0.10169899
130	0xbedb1185	-0.42786804
131	0xbe56f1e9	-0.20990719
132	0xbeb0d704	-0.34539044
133	0xbe790f28	-0.24322188
134	0xbf2b85e6	-0.6700119
135	0xbea30e0d	-0.31846657
136	0x3e6d4b9a	0.23173371
137	0x3ecfcee9	0.40587547
138	0xbdd9a0c7	-0.10626369
139	0xbd99f509	-0.0751744
140	0x3ebb7945	0.3661596
141	0xbe3909e5	-0.1807018
142	0x3ea96395	0.33083788
143	0xbe9764a6	-0.29568976
144	0xbdcf9076	-0.101349756
145	0xbe6044d9	-0.21901263
146	0xbec195bb	-0.37809548
147	0xbed7e0d9	-0.42163733
148	0xbec0a1a7	-0.3762333
149	0xbf258272	-0.6465217
150	0xbe7b8873	-0.2456377
151	0xbdd81f73	-0.105528735
152	0xbed70fcd	-0.42004243
153	0xbf027de2	-0.5097333
154	0xbe99e88e	-0.30060238
155	0xbe968aa6	-0.29402655
156	0xbe42bf38	-0.19018257
157	0xbe599f6b	-0.2125222
158	0x3e8999a4	0.2687503
159	0x3d3710d7	0.044693794
160	0x3e365eeb	0.17809646
161	0x3eddfd03	0.43357095
162	0xbf6eb4cd	-0.9324463
163	0x3ea354b7	0.3190057
164	0x3e7bd3b8	0.24592483
165	0xbf07db7e	-0.53069293
166	0xbeda6a91	-0.4265943
167	0xbd432fd2	-0.047653027
168	0xbd9b5261	-0.07584072
169	0xbd4f03f2	-0.050540872
170	0x3ef952bd	0.48695937
171	0x3e459f72	0.19299105
172	0xbe352f31	-0.17693783
173	0xbf0aba2e	-0.5419034
174	0xbe1cccbe	-0.15312478
175	0x3e961ad0	0.2931733
176	0xbbbe5895	-0.0058088996
177	0x3ee1d351	0.44106534
178	0x3ed769b1	0.42072824
179	0x3de706ad	0.1128057
180	0x3bd6b979	0.006552872
181	0x3e603815	0.21896394
182	0xbd72f7f7	-0.05931851
183	0xbd23c60d	-0.039983798
184	0x3e91282b	0.28350958
185	0xbe10b3a9	-0.14131035
186	0xbe4cc610	-0.1999743
187	0xbe293f12	-0.16527966
188	0x3e95e801	0.29278567
189	0xbe85eb2e	-0.2615599
190	0xbe1b2b12	-0.15153149
191	0x3edcd5af	0.43131778
192	0x3cb2503e	0.021766778
193	0x3dd8fa56	0.10594623
194	0x3e9a720e	0.30165142
195	0x3e351ae7	0.17686044
196	0xbde52490	-0.11188614
197	0x3eb6f487	0.35733435
198	0x3a6f4b19	0.0009128317
199	0x3ec2a544	0.38016713
200	0xbd723367	-0.059131052
201	0xbd752cb2	-0.059857078
202	0x3d91c0ef	0.07116877
203	0xbe295b5b	-0.16538756
204	0xbe790a03	-0.24320225
205	0x3cb66fba	0.022270072
206	0x3d84f620	0.06492257
207	0x3ed8c3b2	0.42336804
208	0x3ea310bb	0.31848702
209	0xbed2c603	-0.41166696
210	0x3e99adf2	0.30015522
211	0x3e71dc38	0.23619163
212	0xbe0ec8bf	-0.13943766
213	0x3e46f81c	0.19430584
214	0x3eac4a49	0.33650425
215	0x3e11f3a2	0.14253095
216	0x3ed3ecac	0.41391504
217	0xbeb26e06	-0.34849566
218	0xbe7ee510	-0.24892068
219	0x3e845d84	0.25852597
220	0xbdad027f	-0.08447742
221	0xbf1eaf93	-0.61986655
222	0x3ef9fbdb	0.48824963
223	0xbdd956ce	-0.1061226
224	0x3e588cba	0.21147433
225	0xbe152128	-0.1456343
226	0xbe399152	-0.18121842
227	0xbedd1140	-0.43177223
228	0xbee4334a	-0.4457038
229	0x3d3890a0	0.0450598
230	0xbd1b4843	-0.03791071
231	0xbf62dedb	-0.886213
232	0xbe44b527	-0.19209729
233	0xbf57d415	-0.84307986
234	0xbeb76797	-0.3582122
235	0xbe875d43	-0.2643834
236	0xbdaade4c	-0.08343181
237	0x3e61fa78	0.22068202
238	0x3d73324a	0.05937413
239	0xbdb92158	-0.09039563
240	0xbe2a9c9b	-0.16661303
241	0x3e872e5a	0.2640255
242	0xbe236f9f	-0.15960549
243	0x3dae1781	0.08500577
244	0x3e69b22d	0.22821875
245	0x3eb1e3f6	0.34744233
246	0x3e60fb34	0.21970826
247	0x3d6b452f	0.057439025
248	0xbe6b0a01	-0.22953035
249	0xbe9dcd2f	-0.30820605
250	0xbebc8360	-0.3681898
251	0xbe23ff1c	-0.16015285
252	0x3e15f79a	0.14645234
253	0x3f04ef84	0.5192797
254	0x3e806868	0.25079656
255	0xbe20d906	-0.15707788

gconvs.5.combination_weights f4 [4, 3]
0	0x3f1a5f12	0.60301316
1	0x3ecd9d60	0.4015913
2	0x3ee597dc	0.44842422
3	0x3f1a9a7f	0.6039199
4	0x3ece2fc6	0.40270823
5	0x3ee6e5de	0.4509725
6	0x3f1a4048	0.60254335
7	0x3ecdc564	0.4018966
8	0x3ee62bd9	0.44955328
9	0x3f1a9308	0.603806
10	0x3ece0282	0.40236288
11	0x3ee73b10	0.4516225

gconvs.5.weight f4 [3, 6, 6, 4, 3, 3]
0	0xbeb3cfb1	-0.35119393
1	0xbf432850	-0.76233387
2	0xbf159fa7	-0.58446735
3	0xbd4f80bf	-0.05065989
4	0xbf310815	-0.6915296
5	0xbf8f57f5	-1.1198717
6	0xbf369d02	-0.71333325
7	0xbf548f55	-0.8303121
8	0xbda0931b	-0.07840558
9	0xbedf4674	-0.4360844
10	0xbf4310a6	-0.7619728
11	0x3ea990a6	0.3311817
12	0xbf6f44a5	-0.9346412
13	0xbf3eaa44	-0.74478555
14	0xbf20e89d	-0.6285494
15	0xbea2a655	-0.31767526
16	0xbf412cd5	-0.75459033
17	0xbed06544	-0.4070226
18	0xbeabd169	-0.33558205
19	0xbf00895c	-0.50209594
20	0xbeeb9fc5	-0.46020332
21	0xbf76d931	-0.9642516
22	0xbf621c74	-0.88324666
23	0xbf1b1d28	-0.60591364
24	0xbd9412da	-0.07230158
25	0xbf138c09	-0.5763555
26	0xbe5a9963	-0.21347575
27	0xbf0af966	-0.542868
28	0xbf7fb1d7	-0.9988074
29	0xbf0246bf	-0.508892
30	0xbd9338d3	-0.07188573
31	0xbfa9e5af	-1.3273219
32	0xbf380bd0	-0.71893024
33	0xbdbd0ecf	-0.0923134
34	0xbeb4f8e2	-0.35346133
35	0xbe1b2d01	-0.15153886
36	0x3ea3f3bc	0.32021892
37	0x3dc1940f	0.09452068
38	0x3ea019ee	0.31269783
39	0xbe5df507	-0.21675502
40	0xbd57cb07	-0.052683856
41	0x3e2ad99f	0.16684578
42	0x3c83cafb	0.016088
43	0xbe8ff60a	-0.281174
44	0x3ed33089	0.41247967
45	0xbc0d4e46	-0.008624619
46	0xbec13c17	-0.37741157
47	0xbf2d4e46	-0.6769756
48	0x3d977c78	0.073967874
49	0x3d8bff4e	0.06835805
50	0x39ccdcf4	0.00039074535
51	0x3de85818	0.113449275
52	0x3e9b933c	0.30385768
53	0x3e962719	0.29326704
54	0x3e2f523c	0.17121214
55	0x3e744258	0.23853433
56	0xbd395e32	-0.045255847
57	0xbe63a33c	-0.22230238
58	0xbe5373ef	-0.20649694
59	0xbd848a67	-0.06471711
60	0xbe72a228	-0.2369467
61	0x3e15d527	0.14632092
62	0xbdbade7e	-0.09124468
63	0x3d9b55b0	0.07584703
64	0x3e59c8e7	0.21268044
65	0xbeae26b2	-0.34013897
66	0xbe885907	-0.26630422
67	0x3de8feb0	0.11376703
68	0xbea5d047	-0.32385466
69	0x3dd13e29	0.10216934
70	0xbed82b20	-0.42220402
71	0xbe6cef79	-0.23138227
72	0xbcbc311a	-0.022972632
73	0xbf063e2c	-0.52438617
74	0x3ea92d2f	0.33042285
75	0xbea0ed0a	-0.31430846
76	0xbef9dcc7	-0.48801252
77	0xbe82c505	-0.2554094
78	0xbf44e614	-0.7691357
79	0xbee74d17	-0.45176002
80	0xbf19a7e9	-0.60021836
81	0xbd63be07	-0.055601146
82	0xbed64c3d	-0.4185504
83	0xbe7e4a94	-0.24833137
84	0xbf0b7e2a	-0.54489386
85	0xbf113a8a	-0.5672995
86	0xbe85fd65	-0.26169887
87	0xbe1a889f	-0.1509118
88	0xbf0b6578	-0.54451704
89	0xbf060930	-0.5235777
90	0xbee9b82b	-0.45648322
91	0xbeb93161	-0.36170486
92	0xbf0792da	-0.5295845
93	0xbee23c76	-0.44186753
94	0xbe8ebf0e	-0.27880138
95	0xbdb6606c	-0.0890511
96	0xbea0cd14	-0.31406462
97	0xbe96e477	-0.2947118
98	0xbddfe5ee	-0.109325275
99	0x3ddd1542	0.1079507
100	0xbe2f128c	-0.17096919
101	0xbf0e1f0b	-0.5551612
102	0xbdfa3f1d	-0.12219069
103	0xbf09f1ef	-0.53884786
104	0xbeeefaef	-0.46675822
105	0xbe7012d2	-0.2344468
106	0x3da2e74f	0.07954275
107	0xbe61348f	-0.21992706
108	0x3e35d3fc	0.17756647
109	0x3e1d8457	0.15382515
110	0x3ebf63c3	0.373808
111	0xbec1eb07	-0.37874624
112	0x3ea40883	0.32037744
113	0x3eb88447	0.3603842
114	0x3eb136db	0.34612164
115	0x3e0031b2	0.12518957
116	0x3e65d8f7	0.22446047
117	0x3e82875f	0.25493905
118	0x3bc3ccd6	0.005975346
119	0xbcd70150	-0.026245743
120	0x3ed5ed55	0.41782632
121	0x3ee22b34	0.44173586
122	0x3dcb492d	0.099260665
123	0x3e229545	0.15877254
124	0x3d16da3e	0.036829226
125	0xbd38a1bd	-0.04507612
126	0x3ee0af57	0.43883774
127	0xbe1589e9	-0.1460339
128	0xbc9f7f05	-0.019469747
129	0x3ec7f623	0.39054975
130	0x3df1fbb7	0.11815589
131	0xbea65cbb	-0.32492623
132	0xbe6eeb77	-0.2333201
133	0xbed2b53c	-0.41153896
134	0xbe11b750	-0.14230084
135	0x3ed1570b	0.4088672
136	0x3d5d1cbf	0.053982493
137	0x3eea651e	0.4578027
138	0xbe5296a2	-0.20565274
139	0x3df2f1cc	0.11862525
140	0xbe477afb	-0.19480507
141	0x3e4b6177	0.19861399
142	0xbd1c1c3f	-0.038112875
143	0x3ee68e18	0.45030284
144	0x3ac2d285	0.0014863765
145	0x3e96f760	0.29485607
146	0x3e952c0d	0.2913517
147	0xbf04ef56	-0.519277
148	0xbe6ec928	-0.23318923
149	0x3f0201a8	0.5078378
150	0xbede70a7	-0.43445322
151	0xbe93bf37	-0.28856823
152	0x3ef9509c	0.48694313
153	0xbd0631f5	-0.032762486
154	0xbe8d283b	-0.27569756
155	0x3e8f010d	0.2793049
156	0xbecf70ea	-0.40515834
157	0x3e07be61	0.13256218
158	0x3d94a2ed	0.07257638
159	0xbe05f59b	-0.13081972
160	0xbe730159	-0.23730983
161	0x3e30bfe4	0.172607
162	0xbe0c0956	-0.13675436
163	0xbe9cc698	-0.30620265
164	0xbd53d063	-0.051712405
165	0xbcf43062	-0.029808227
166	0x3d27e0a8	0.040985733
167	0xbe230978	-0.15921581
168	0xbda18b46	-0.078878924
169	0xbd99f563	-0.07517507
170	0x3ebcb5c2	0.3685742
171	0x3e8352d2	0.25649124
172	0x3d8b08c0	0.06788778
173	0xbe3806d1	-0.1797135
174	0x3e07de02	0.13268283
175	0x3e89004c	0.2675804
176	0xbe31404c	-0.17309684
177	0x3e4c6e88	0.1996404
178	0xbeff70db	-0.4989079
179	0xbf1b6799	-0.6070495
180	0x3e9accea	0.30234462
181	0x3ec10b09	0.37703732
182	0xbebd4139	-0.36963823
183	0x3e07e3c6	0.13270482
184	0xbe7c245f	-0.2462325
185	0xbd712f19	-0.058882806
186	0xbef4edab	-0.47837576
187	0x3db8d4c5	0.090249576
188	0xbc84c63b	-0.016207805
189	0x3ed5fef0	0.41796064
190	0xbe8ffe7f	-0.28123853
191	0xbe57c4e4	-0.21071202
192	0xbe02ac99	-0.12761153
193	0xbe53cdf9	-0.20684041
194	0xbe82a60e	-0.25517315
195	0xbe8979d3	-0.26850757
196	0x3e008349	0.12550081
197	0xbdcbfaa7	-0.099599175
198	0xbe183f7e	-0.1486797
199	0xbd98f23c	-0.074680775
200	0x3e244800	0.16043091
201	0xbeabe0e1	-0.33570006
202	0x3e34a756	0.17641959
203	0x3e93917f	0.28821942
204	0xbf0be147	-0.5464062
205	0xbd83d4df	-0.06437086
206	0xbe46b443	-0.19404702
207	0xbe8c0100	-0.27344513
208	0xbcbf4c73	-0.023351884
209	0xbf001656	-0.5003408
210	0x3eaaaab7	0.3333337
211	0x3e1f31c0	0.15546322
212	0x3e31d5a2	0.1736665
213	0x3e6cb32f	0.23115228
214	0xbdfbc995	-0.12294308
215	0xbc7e17cc	-0.015508603
216	0x3e52110d	0.20514317
217	0xbdc0252e	-0.093820915
218	0x3daa1828	0.08305389
219	0xbef327ce	-0.47491306
220	0x3de29aa4	0.110646516
221	0xbeb56187	-0.3542597
222	0xbf0a1aca	-0.53947127
223	0xbea43264	-0.32069695
224	0xbe30d164	-0.17267376
225	0xba101538	-0.0005496326
226	0xbee9ffba	-0.45702916
227	0xbd19fd95	-0.03759535
228	0x3e086d0b	0.13322847
229	0xbedddbf2	-0.43331867
230	0x3ebb6610	0.36601305
231	0xbec8df3b	-0.3923281
232	0x3e50c359	0.20387019
233	0xbc76b84a	-0.015058586
234	0xbe886a25	-0.26643482
235	0xbdcde9e5	-0.100543775
236	0xbebd6c58	-0.36996722
237	0xbe01bd2e	-0.12669823
238	0xbc821cf1	-0.015882941
239	0xbf016641	-0.5054665
240	0xbe0190c3	-0.12652878
241	0xbe8297b3	-0.25506362
242	0xbec0047f	-0.3750343
243	0x3bc47a4c	0.0059960242
244	0x3e13de2e	0.14440224
245	0x3e110647	0.14162551
246	0x3d1ec9cc	0.038766667
247	0xbebce991	-0.36896947
248	0x3e576ba4	0.21037155
249	0xbe06dab7	-0.1316937
250	0x3cc7b1d5	0.02437679
251	0x3e874ab6	0.26424187
252	0xbe337bf2	-0.1752775
253	0xbe9291fe	-0.28627008
254	0xbeb626e8	-0.35576558
255	0x3e0fec46	0.14054975

final_layer.combination_weights f4 [4, 3]
0	0x3f02dbce	0.51116645
1	0x3ee34b6c	0.4439348
2	0x3f01f86f	0.50769705
3	0x3f02802a	0.5097681
4	0x3ee34f68	0.4439652
5	0x3f020396	0.5078672
6	0x3f02d483	0.5110552
7	0x3ee36790	0.4441495
8	0x3f020a10	0.50796604
9	0x3f0284dd	0.50983983
10	0x3ee37a4d	0.44429246
11	0x3f01ff4a	0.50780165
