runs/P4CNN_aniso_std0.3_gamma2_lr0.002/model.pt (torch, 105509 bytes, 10 tensors)

lifting_conv.weight f4 [10, 1, 3, 3]
00000000: ad43 49be 7869 423d a1b4 4d3e cc80 013d
00000010: 661b 5c3e 1b4d 9a3e 8c34 26be bd4b ea3c
00000020: c6f9 7f3e d17b c33e 68e5 0f3e d70e ee3c
00000030: ad07 3a3e 3b28 e8bd 1f06 233d 3301 dc3c
00000040: 27ad 7bbe efb1 b93d 6582 013e 5e78 e9bc
00000050: 0aa1 dabe f0a6 5f3e 0f57 0d3e d56e 91be
00000060: f4d6 3cbe be67 a43d 16d3 373e 7dbb bebd
00000070: bf9e 733e 1eba 883e 5d2f c3be 742e 57be
00000080: efc7 763d 0c7d 74be 83b5 b9be 7d8d bcbe
00000090: a5c8 983e d4a0 a9be d45a c2bd 09c3 a1be
000000a0: 19c0 9cbd 322b 143d be6b 9ebe a5f6 523e
000000b0: 3896 eabe e455 74be 9d97 a7be 9fc1 043e
000000c0: 1476 2ebe 2103 8ebd 2baf 95bd 2066 ae3e
000000d0: a4ac 9b3d 6a8a 693e 99d3 09be ae1a 803d
000000e0: 8b09 dc3e 4e7e dabc 27a8 cb3d 4d36 513e
000000f0: 7209 5dbd 614d bebd 33cc 8abd 6a37 1e3e
00000100: 8fda 93be ada1 4abe 233c 743e 5a40 b7be
00000110: 7320 ffbc 7bb0 273e 64f0 dc3c a072 d4be
00000120: 5829 62bd 70d4 3a3c 9e2a bdbd 2259 05bd
00000130: dee9 9d3c 7e51 9b3d dd63 8b3e c5c0 283e
00000140: 7717 173e 4ba6 a4be 3b93 733e d40a d8be
00000150: 47b8 09be d7a9 9238 270d 0dbd 1997 143d
00000160: 77e4 d63d 11f4 cfbe
-0.19654723 0.047463864 0.20088436 0.03161697 0.21494827 0.30136952 -0.16230983 0.028600568
0.24997625 0.38180402 0.14052355 0.02905981 0.1816699 -0.11335798 0.03980076 0.02685604
-0.24577771 0.09067141 0.12647398 -0.028499778 -0.42700988 0.21841025 0.13802741 -0.2840487
-0.18441373 0.080276 0.17951617 -0.09313104 0.23791026 0.26704496 -0.38122073 -0.21013814
0.060249265 -0.23875827 -0.36271295 -0.36826697 0.2984058 -0.33130515 -0.0948998 -0.31594113
-0.07653827 0.036174007 -0.30941576 0.206019 -0.45817733 -0.2386089 -0.3273286 0.12964486
-0.1703723 -0.069341905 -0.07308801 0.3406229 0.07601288 0.22806707 -0.13459624 0.06255089
0.4297603 -0.026671555 0.09944182 0.2043087 -0.053964086 -0.092921026 -0.06777229 0.15450826
-0.28877684 -0.19788237 0.23851065 -0.35791284 -0.031143403 0.16375916 0.026970096 -0.41493702
-0.05521521 0.011403188 -0.09236644 -0.032555707 0.019276556 0.07583903 0.27224627 0.16479786
0.14755045 -0.3215812 0.23786633 -0.4219576 -0.13449202 6.993458e-05 -0.03443637 0.03627691
0.10492795 -0.40615895

gconvs.0.weight f4 [10, 10, 4, 3, 3]
00000000: bb7d 0abe 5d6a f5bd e805 00be a1f9 483d
00000010: 8765 9fbd d013 c9bd 0f8b b73c c56b ae3c
00000020: a00d b83c 81eb 4fbd 64c5 a43c ba38 7b3c
00000030: fb51 b43c a254 303d 347f a1bd bbaf a0bd
00000040: 2d0e c539 8183 a4bd ef42 b9bd 3383 c0bc
00000050: 3e61 c93c 5fec 99bd 627e 7abd b4bc 9abc
00000060: 5c7b 81bc 50a6 243d c361 edbd f350 2ebd
00000070: 3a75 37bd 91e0 1dbe 3310 abbb 3512 c1bc
00000080: 7494 15be d12d 11be b461 55bd b832 2ebd
00000090: 41e2 10be 090a 923c 7fa0 393b 2f32 fbbd
000000a0: 6c02 4dbd 2bda 1ebe f17e aabd 7f4c eebc
000000b0: ac5f b83c 5963 93bc d2a9 383d 3a9b e6bc
000000c0: a4a0 6ebd 2f8c 07be a443 ccbd 572f 483d
000000d0: f377 603d 3b3d 3bbd 30e3 a9bd 3761 bebc
000000e0: 5e36 ecbb 66c3 1bbe bd6e 33bd 7b26 5abd
000000f0: 0a31 133a bf38 19be 2709 a73b 3502 9cbc
00000100: 383e 08be faaa a2bc bfe4 2bbe c3ad 0dbe
00000110: c1c8 a2bd e2ae eabd 6e29 2ebe 8d47 edba
00000120: ea62 e4bc 743b c4bc 452a 5e3d 50dd 193d
00000130: b945 24bd e40f d23c f00c 2bbd 800d 34bd
00000140: 7318 c9bd 7d8f 02be a184 93bd 2472 14be
00000150: f759 80bd 4844 253d b15a 5dbd c116 0a3d
00000160: 8648 1cbe 2cca 20be 654b cd3d ab42 6a3c
00000170: 258b 993c ad24 edbb a365 6fbd 8872 32bd
00000180: 629a 65bd 1ce0 47bd 8968 9a3d 73a5 2abc
00000190: 33eb 1abd a9cb 3d3c 5ddf f23c bbeb 33bd
000001a0: 8f5d 30be 88f1 b53d c5e8 06be a91f 70bc
000001b0: 0ebf d33d 5d0c e5bd ffa8 25be 59c0 ca3c
000001c0: dffe 283d 0eb4 9cbd 25a3 993d 5f44 e2bd
000001d0: dc15 ecbd a61b db3c f646 a53c 2f98 eebc
000001e0: ce5e 0a3d 8d35 2fbd 66dd b5bd 7890 853d
000001f0: b225 cbbd 62b5 e43c d2c4 f5bd 43a9 d6bd
00000200: 640f f7bd d588 f0bd 7109 fa3c 4d81 c8bd
00000210: 1d68 a73c 7150 37bd 8dbc 3d3c 0acb 8ebd
00000220: e4bf 5a3d 3a83 80bc d588 413d 8ac1 87bd
00000230: 357a 28bd 9f23 00be c58a e2bc 6ba3 1fbd
00000240: 8b2b 9b3d 4e7b 653d 8646 0f3c fcfd b9bd
00000250: 7b66 863c d706 673d 3c68 f2bd 37e5 8dbd
00000260: 389b 4ebd 5876 04bd fd9e 3cbd c90f 03be
00000270: 9442 9a3c a190 1a3d 17af b6bd ca41 c03d
00000280: 6462 3c3d 016f 2a3c b7eb 62bd fb8d 623d
00000290: 3a14 243d 4688 8bbd 9e33 9d3c f340 c9ba
000002a0: f8e1 813d 3157 8abd c545 393d 7086 35be
000002b0: 9eb3 25bd e5e2 58bd 03ef 9bbd 791f 9f3c
000002c0: 36fa 703d c266 1fbe 358c 3a3d b556 fbbc
000002d0: 92e3 c9bc 0572 c4bd 543b 2ebe 715a 3c3d
000002e0: b30e 2abe 39a4 9c3c 41ae 953c 7bf7 113d
000002f0: 970c 95bd d1b2 15be cf2d 18be 169c 453c
00000300: d063 dd3c ca24 26be b6f8 c93c bc1f 77bc
00000310: 9056 36bd 52b0 a6bd 3dd0 aabd 9483 44bd
00000320: 77f9 86bd 584b 06bb 38cf 603d 0dca 3f3c
00000330: de3b 27be 9357 c8bd d84b 09bd 7861 0ebe
00000340: 672b 8f3d e1ee c6bd ba32 37bd abc2 7c3d
00000350: 1f58 a5bb 42b4 07be 6b83 3bbb e554 5b3c
00000360: 62d7 29bd 4328 25bd bfac e83c cd45 13bd
00000370: 921b d4bc 6d62 503c 6046 1dbe 8e8b 193d
00000380: 116a 923c e1f6 453d e91e 6abd d881 babd
00000390: 79c6 0d3d c4ff 02be fbdc 91bd e4ab 7cbd
000003a0: d025 b8bd 9683 823d 26b5 ebbd f50b 3a3c
000003b0: e2dc 75bd 59b2 4a3d a25e 93bd d201 0c3c
000003c0: 53a0 a8bc 7a10 0abe ebd3 ffbd a967 b2bd
000003d0: 51d2 dfbd c367 f7bd e678 573d b724 30bd
000003e0: 14ef 133c fbb8 0abb 5bbe 743d eb62 d8bd
000003f0: 408a 12bc 5e86 51bd 02d4 aa3d 4bc8 aebd
-0.13524525 -0.11983178 -0.12502253 0.04906619 -0.07783037 -0.09818232 0.022405175 0.021291623
0.022467434 -0.050761703 0.020113654 0.015333349 0.022011748 0.043049462 -0.0788559 -0.07846018
0.0003758533 -0.08032895 -0.0904597 -0.02350006 0.024582502 -0.07515787 -0.061155684 -0.018888809
-0.015805893 0.04019767 -0.11590912 -0.042557668 -0.04478953 -0.15417697 -0.005220437 -0.023568252
-0.14607412 -0.14177634 -0.05209513 -0.042528838 -0.14148809 0.01782705 0.0028324423 -0.12265431
-0.050051138 -0.15512912 -0.083249934 -0.02908921 0.022506557 -0.017991709 0.04508383 -0.02815019
-0.058258668 -0.1323707 -0.09973839 0.04887327 0.054801892 -0.04571269 -0.08295286 -0.023239715
-0.0072086295 -0.15211257 -0.04380678 -0.053259354 0.00056149124 -0.14963053 0.0050975266 -0.019044021
-0.13304985 -0.019856919 -0.16786478 -0.13835816 -0.07948447 -0.114591375 -0.17007992 -0.0018102989
-0.027879197 -0.02395413 0.05423953 0.037564576 -0.040105555 0.025642343 -0.041760385 -0.043958187
-0.098191164 -0.12750049 -0.07203031 -0.14496666 -0.062671594 0.04034832 -0.05404157 0.033713106
-0.1526204 -0.15702122 0.10024146 0.014298121 0.018743107 -0.007237038 -0.058446538 -0.043566257
-0.056055434 -0.04879771 0.0753947 -0.010415423 -0.03782196 0.011584201 0.029647524 -0.043925982
-0.1722319 0.08883959 -0.13174732 -0.014655986 0.10339175 -0.11183999 -0.16177748 0.024749922
0.04125869 -0.0765153 0.075018205 -0.11048197 -0.11527607 0.026746582 0.020175438 -0.029125301
0.03378182 -0.04277568 -0.08880119 0.06521696 -0.09919299 0.027918521 -0.12000431 -0.10481503
-0.120634824 -0.11744849 0.03052208 -0.09790287 0.020435387 -0.04475445 0.011580599 -0.069723204
0.053405657 -0.015687574 0.047249634 -0.066287115 -0.04113217 -0.12513588 -0.027654061 -0.038974207
0.075766645 0.056025796 0.008744841 -0.09081647 0.016406288 0.056403007 -0.118362874 -0.06928485
-0.050440997 -0.032339424 -0.04605006 -0.1279899 0.018830575 0.037735585 -0.089201145 0.09387548
0.04599227 0.010402442 -0.055400576 0.055311184 0.040058352 -0.068131015 0.019189652 -0.0015354439
0.06341928 -0.06754912 0.045232553 -0.17727065 -0.0404545 -0.05295076 -0.07613947 0.019424187
0.05883237 -0.15566543 0.045543868 -0.030680994 -0.024644647 -0.0959206 -0.1701482 0.04598469
-0.1660717 0.019121276 0.018271567 0.035636406 -0.07277792 -0.14618994 -0.14861225 0.01206114
0.027025133 -0.16224971 0.024654727 -0.01508325 -0.044516146 -0.08139099 -0.083404996 -0.047977045
-0.065905504 -0.0020491686 0.05488512 0.0117058875 -0.16331431 -0.097823285 -0.033519596 -0.13904369
0.069907 -0.09713531 -0.04472611 0.061709087 -0.0050459052 -0.13252357 -0.0028612267 0.01338694
-0.04146517 -0.0403216 0.028402684 -0.03595524 -0.025892053 0.012718779 -0.15358877 0.037486605
0.017872842 0.048331145 -0.057158384 -0.09106797 0.034613106 -0.1279288 -0.07122227 -0.061687365
-0.08991587 0.06372754 -0.11509161 0.01135539 -0.060025103 0.04948649 -0.07195784 0.008545356
-0.020584261 -0.13482848 -0.12491592 -0.08711178 -0.109287865 -0.12080338 0.052605532 -0.043003764
0.009029169 -0.0021167386 0.05975185 -0.10565742 -0.008944094 -0.051153533 0.083412185 -0.085342966

gconvs.1.weight f4 [10, 10, 4, 3, 3]
00000000: 1527 40bd e96b 83bd ab45 4d3d 6701 903d
00000010: 4172 8a3d 84de 07be f91e c43d d365 a6bd
00000020: b255 77bd 9306 81bd c99c 86bd 98a6 3abd
00000030: dd17 e9bc 5aed 1fbd ab86 10bb 44c2 7fbd
00000040: eba7 253c ec1b a23d 59f1 42bd 978b 9abd
00000050: c43e 97bd 7787 df3c 1e4c acbb b07e 9abd
00000060: 3ea5 393d e6d6 8f3d 957a 683d 483b 0abd
00000070: 8301 2fbd 7109 e03c 9d09 83bd 1a98 aebc
00000080: 0e31 babd 21a4 eebc 9669 35be 29af 853c
00000090: 6602 d0bd ee3d 31bd 1a0f a7bd 52ee 823d
000000a0: 3644 183c d7ab 323d 1b05 173d f4e3 d2bd
000000b0: bdcb b4bd b60b 54bc c401 09be 4647 8a3d
000000c0: 8f10 20bd 6a5e d0bd 409b 023d c8c7 11bd
000000d0: d868 a9bd 52c2 ed3d f41d 96bc acde 35bd
000000e0: 5ba8 bb3d 70f0 a83d 12bb e0bc 3dea 9abd
000000f0: 0a67 903c 0ae4 c83d feb5 323c 5e85 b2bd
00000100: 1cf8 3abd 9726 263d fea3 92bd 9868 a23d
00000110: a81b 83bd 64ad 523d de62 fdbc bd45 89bc
00000120: c50e 68be f36b 0bbe eb6e b3be d80c 353d
00000130: cfe8 35bc 2f11 fb3d 04d3 67bc 1299 6b3d
00000140: 04dc 05bd 41a2 dbbe 1b7c 17bf a540 fcbe
00000150: a3f9 29be 8e7d 823d f3aa 8abe a7d3 16bc
00000160: ccb7 293e de62 8c3d 3565 6bbe 101b 99be
00000170: 722b 08bf 4e27 4d3e cafd 203e 086e 9a3c
00000180: 7706 54bd c045 01be 8e34 4dbe a446 bdbe
00000190: d808 f6be 0888 32bf 620e 65bd 328f 8c3d
000001a0: 1591 c9bd fdca 9b3d 5f56 ce3d 015c 98bc
000001b0: 4bab e5bb a552 7b3d 19c2 093e d8e4 2b3c
000001c0: cf72 843e 6b19 b73e 1c6c 76be 38ac bcbe
000001d0: fb1d 8ebe 7e2f 0dbe fc10 a3bc 6602 3f3c
000001e0: 5adc 313e 164d 5a3e 56c6 373f 7b5b 4fbd
000001f0: 94b7 4cbe c95e 953e 821f 0fba 63ef 093e
00000200: a87c 863e e393 053d a65b bdbd 9368 0cbc
00000210: f373 903e 68ef b73d d40a 843d ed39 843e
00000220: 2aed abbd d333 01be 9a51 913d 580e 58bd
00000230: aff6 203d 13fd 3b3c d3b6 ce3b 3717 b3bb
00000240: d051 96bf df76 9abf d145 7dbf e658 fdbc
00000250: 1c4b 0dbe da20 f6bd 241b 293d ed89 673b
00000260: 51a6 9c3d 598c 71bf e97a 45bf e289 40bf
00000270: 2512 563d 26ee 96bd 2037 103e 066f 433e
00000280: cef4 ca3d c6dc 823e 3440 74bf 8f70 59bf
00000290: f63b 6abf 07b6 47bd 3823 bcbd 56ce 35bd
000002a0: 2891 3f3e 088c 493e b549 0f3e 76e1 6bbf
000002b0: 0643 2ebf 2854 3abf 24f0 00be 236e 97bd
000002c0: 73c5 92bd 85ee d73d e1bd d03d 7472 9d3d
000002d0: a7c7 8c3d 131e a839 be23 633d a66e 1abd
000002e0: a987 d93d 2867 f0ba d239 1abb e3dd 7e3d
000002f0: 1db4 fd3c c50d 773b 87e1 883d 5c4d 6abc
00000300: ee4f 383c a5c0 a5bd 8acf 663d a225 bfbd
00000310: 70d3 b23d 385b f4bc 9f4d f5bd 9246 c73d
00000320: f339 1dbd 269b abbd d547 1ebd 3692 6f3c
00000330: ae3c 7abd 6709 0f3b 6a7a 0ebc a18a 64bd
00000340: 8dee 8c3d aac8 b63c d288 313c f14d cdbd
00000350: 374e 82bc 10a2 a83c 18e3 703c 91c4 bb3b
00000360: dd15 a6be d546 87be 88df b5be 1651 a9bc
00000370: ce22 c9bd fc11 1ebd e5a5 5f3e 4897 823d
00000380: 2f41 da3d e2cb a0be d288 09be 6d83 04be
00000390: 3061 5b3e 9b99 c03d 1d5d 7dbd f98c 57be
000003a0: 887c 3fbe 6b40 84be 98db 80bf 05bb 8ebf
000003b0: ff62 56bf 8348 053e 96c7 093c 182d 7e3e
000003c0: d7dc bdbb 95a8 153e ae46 993e 0034 4fbf
000003d0: ecaa 0dbf 20a6 1abf b674 d93e 7c88 d13e
000003e0: 455a b33e ef29 ce3d f49c c83d 930b 92bd
000003f0: db5e 2fba b75a 133d 7e9a 6b3d d7ce 57bb
-0.04691227 -0.064170666 0.05011527 0.070315175 0.067600735 -0.13268477 0.0957622 -0.0812489
-0.06038446 -0.06300082 -0.06572873 -0.045569032 -0.028453762 -0.039044715 -0.0022052925 -0.062441126
0.010110836 0.07915482 -0.04759345 -0.07546156 -0.073850185 0.027286274 -0.0052580973 -0.07543695
0.045323603 0.070234105 0.05675753 -0.03374794 -0.04272605 0.027348252 -0.06398318 -0.021312762
-0.09091388 -0.029130997 -0.17716059 0.016318874 -0.101567075 -0.04327195 -0.08157177 0.06393112
0.0092936065 0.04362091 0.036870103 -0.10297385 -0.088279225 -0.012942245 -0.1337958 0.067518756
-0.03907829 -0.10174258 0.03188634 -0.035590917 -0.082719505 0.11609329 -0.01832483 -0.04440181
0.09162971 0.08248985 -0.027432952 -0.07564209 0.017627258 0.0980912 0.010907648 -0.08716844
-0.04564677 0.040564146 -0.07160185 0.07930106 -0.064017594 0.05143489 -0.030930933 -0.016756887
-0.22661884 -0.13615398 -0.3504556 0.044201702 -0.011102869 0.12259137 -0.014149431 0.057519026
-0.032680526 -0.42897227 -0.59173745 -0.4926807 -0.16599135 0.06371604 -0.2708355 -0.009205735
0.16574019 0.06854795 -0.22987826 -0.2990346 -0.5319129 0.20034525 0.15721813 0.018851295
-0.051763978 -0.12624264 -0.2003958 -0.36967957 -0.48053622 -0.6973882 -0.05592192 0.0686325
-0.09842125 0.07607076 0.10075068 -0.018598558 -0.007008945 0.061358113 0.13452949 0.010491572
0.25868842 0.3576158 -0.24064678 -0.36850142 -0.27757248 -0.13787648 -0.01990556 0.011658287
0.17369214 0.21318468 0.7178701 -0.050624352 -0.19991904 0.29173878 -0.0005459712 0.13470225
0.2626698 0.03261174 -0.09245996 -0.008569854 0.28213462 0.0898121 0.06447378 0.25825444
-0.08394845 -0.12617426 0.070956424 -0.052748054 0.039297756 0.011473912 0.0063084154 -0.005465414
-1.1743717 -1.2067527 -0.98934656 -0.03092618 -0.13798183 -0.12017985 0.04128565 0.0035330013
0.0764891 -0.9435478 -0.7714067 -0.7521039 0.052263398 -0.07369642 0.14083529 0.19085321
0.09909974 0.25559062 -0.95410466 -0.84937376 -0.91497743 -0.04875758 -0.09186405 -0.04438623
0.18707716 0.19682324 0.13992961 -0.921409 -0.6807102 -0.7278466 -0.12591606 -0.07394054
-0.07166567 0.10543541 0.101924665 0.07687846 0.06874018 0.00032065864 0.05545401 -0.03770318
0.10621578 -0.001834129 -0.0023532999 0.062223326 0.030969674 0.0037697416 0.06683641 -0.0143006705
0.0112495255 -0.08093385 0.05635027 -0.0933335 0.08731735 -0.029828653 -0.11977696 0.09730257
-0.038385343 -0.083792016 -0.038642723 0.014622262 -0.061093025 0.0021825673 -0.008696178 -0.05579627
0.068814375 0.022312481 0.010835843 -0.10024632 -0.015906436 0.02058509 0.014702581 0.0057302197
-0.32438555 -0.26421228 -0.35522103 -0.020668548 -0.098210916 -0.03859137 0.21840627 0.06376511
0.10656964 -0.3140555 -0.13431099 -0.1294076 0.21423793 0.09404298 -0.061856378 -0.2104987
-0.18699849 -0.25830397 -1.0067015 -1.1150824 -0.83744806 0.13015942 0.008409401 0.2482189
-0.0057941484 0.1461509 0.29936737 -0.8093872 -0.5533893 -0.60409737 0.42471856 0.40924442
0.35029808 0.10066592 0.097955614 -0.07131114 -0.0006689855 0.035975184 0.057520382 -0.0032929683

gconvs.2.weight f4 [10, 10, 4, 3, 3]
00000000: 6bae 8e3d 6d6e 44be 0c27 0bbe 77a0 c53d
00000010: 178f 7c3d 56b7 783e 58ab 00be 8e50 c8bd
00000020: ff9a 93be 82c2 c2bd 0ef2 7abe 2815 31be
00000030: e661 15bc e9e1 37be 211b eebe d61b 533e
00000040: 93ad b7be c383 15bf c42c 19bd 3b86 6b3d
00000050: e4ab bc3d ba73 fb3d 11ec 1bbc 947f 073e
00000060: 610d 8bbe ee43 85be 049b 82be 9e9d 21be
00000070: 1091 05bd c81d cdbd db70 5dbe eeac d83c
00000080: 1cd8 38be 7308 6fbe 5b56 b93c a0f5 d8bd
00000090: 2d78 87be 68c0 08be cced 28bd 2dab 05be
000000a0: 265e 42bd 4f0f a63d 715e a93e ad83 e83e
000000b0: d68a 833d 6c37 d1bd 81e6 51bd 3267 17be
000000c0: b6d6 a8bd 940a 60be 8795 8dbe 9ed1 093e
000000d0: c4fa 78be da68 49be fe59 093e 60be 973d
000000e0: 3611 203c d820 6f3e bac7 a63c 5bc2 4b3d
000000f0: 74ec 16bc 2e3d 69be 2523 d8be a1ad f3bd
00000100: 8975 fdbc 2485 543e fcfb 20be c4d1 80bd
00000110: 126d 033e 7762 cb3d bfd9 a03d 0cda cb3d
00000120: 191b 69bd 6a43 6f3d 71cb ae3d 70bb 873d
00000130: 7c7f dd3d df56 cf3d 1c68 fdbb ebd8 713d
00000140: e2c0 f53d d759 673d 6f71 2abe 7840 5dbe
00000150: 7138 d0bc 8604 59be 9f6d 3dbe 77e3 9e3d
00000160: 3827 8d3d 3268 103e 1fbb c63e cd0b 0f3d
00000170: 8a96 963e d7f8 58be 9b23 503c 3797 ab3d
00000180: ee96 0dbd 3b70 0639 1b08 afbc 347c 14be
00000190: 72ae f1be f86e 0fbe bb80 6bbe b990 22bd
000001a0: 692f 803e 1af5 19be 6dc8 4cbd 91f4 9a3d
000001b0: 52fd 603e 2083 d03d f46f ed3d 1d5a 043e
000001c0: d0af 29be 99e7 0abe 1070 3ebe a7d4 92be
000001d0: b42e 01be 39e8 3c3d 4af7 cbbd bc11 70bd
000001e0: f8d2 cb3d ba36 513d 0299 1b3e 4dda ff3d
000001f0: a366 453e 726c ca3d 2f43 463e c70a 60bd
00000200: 5b28 22be 4eab 043e 6a5a c13d 5d5d cebc
00000210: 26d8 dabd ad65 ef3d 115b c63d d4d0 013e
00000220: 3ba1 903d da06 823c 5595 3a3e 0488 b7bc
00000230: 2213 dfbd b205 8bbe 9f90 6dbe df07 5fbe
00000240: 1b6b bc3d 753b c93d 653a f0bd cf71 f93d
00000250: e407 35bd 5a87 6dbb 3804 203e 89b3 51be
00000260: dd43 ddbe 025f f03d 5d71 253e 639c 40bd
00000270: b04f 023e c171 9a3e f903 ca3a f8cf fe3d
00000280: 28a7 a73c fac8 f3bd 32c7 28bf 297b c3be
00000290: ba89 c53d ff16 a3bd eed0 89be ce61 babd
000002a0: 7612 8bbe 30a8 abbe 3790 063d 9f18 42be
000002b0: 3342 13bf 2543 bbbe 0a80 26bd a91d 03bf
000002c0: 9fa6 15bc 5006 29be aec1 dbbe 0718 d03d
000002d0: 5727 263e 8607 ff3d 6de8 cabd 2747 86bd
000002e0: ac0b c3bc 5b13 fabd c2d9 32be d265 4abe
000002f0: f60e 0ebe 15fd dcbb b485 223b 9e96 383e
00000300: 5792 883d 2b77 ebbc 7b8f 233e 02ff 50bd
00000310: be74 05be cba8 f3b8 2acb babe d334 10bd
00000320: 0314 de3d 3cc3 e7be 23d8 16be d0ba 7d3d
00000330: 6f80 33bc 6963 85be c682 183c 0ce4 bbbe
00000340: a38d 3ebd 3710 4dbd e7d3 9cbb d4fc 143e
00000350: 9824 9dbd 18f0 923d 7c56 7b3d 905a 8cbd
00000360: 6e53 12bd 4916 41be fe82 28be 31ac a93d
00000370: f6aa 803c 35bd 32bd 569a 15bb 7876 0d3e
00000380: c2b8 b13d fa93 24bd 063f c63c 0e27 df3c
00000390: 11c2 43be 2a57 29be dd04 2bbe 6978 a9be
000003a0: 583b 88be de56 fabe 8be5 113e 2c55 573c
000003b0: 83eb 8e3d 7e1e d23d c4ae 6d3d bebd 0cbe
000003c0: c6fa 07be 45ee 4cbe a371 63be ff09 40be
000003d0: 78b0 02be f82e ebbd 2949 c53d 05fb f63c
000003e0: 97fc 0b3d dad7 093e df5e 893d 1f02 4e3e
000003f0: 2e20 203e e141 66bd c8f4 863d 9ddd 73bc
0.06966861 -0.19182749 -0.13589114 0.09649747 0.0616599 0.24288687 -0.12565362 -0.097809896
-0.2882919 -0.09509756 -0.24506399 -0.17293227 -0.009117579 -0.17957272 -0.46505073 0.20616087
-0.35874614 -0.5840418 -0.037396207 0.05750106 0.09212473 0.122779325 -0.009516732 0.13232261
-0.27158645 -0.2602839 -0.25508893 -0.15782782 -0.032609046 -0.10015446 -0.21625082 0.026449647
-0.18051189 -0.23343067 0.022624185 -0.10593724 -0.26458874 -0.13354647 -0.041242406 -0.1305358
-0.04745307 0.08108389 0.33079866 0.4541296 0.06422965 -0.10215649 -0.051245216 -0.1478546
-0.08244078 -0.21879035 -0.27653143 0.13458869 -0.2431441 -0.19668904 0.13413236 0.07409358
0.009769728 0.23352373 0.020358909 0.0497459 -0.009211648 -0.22777244 -0.42214313 -0.118983515
-0.030939834 0.20753914 -0.15721124 -0.062900096 0.12834576 0.0993089 0.07854032 0.099536985
-0.056910608 0.0584139 0.08534897 0.06627548 0.10815331 0.10123991 -0.007733358 0.05904476
0.1199968 0.056482162 -0.16644834 -0.21606624 -0.025417538 -0.21193132 -0.18498848 0.07758229
0.06892246 0.14102247 0.38814637 0.034923363 0.29411727 -0.21188675 0.0127038015 0.08378451
-0.034567766 0.00012821045 -0.02136617 -0.14500505 -0.47203404 -0.14007175 -0.22998326 -0.0396888
0.2503617 -0.15034905 -0.04999583 0.075661786 0.21971634 0.1018126 0.11593619 0.12925
-0.16570973 -0.1356491 -0.18597436 -0.28677866 -0.12615472 0.046119902 -0.09959276 -0.058610663
0.099523485 0.051077582 0.15195087 0.124928094 0.19277434 0.098839656 0.19361566 -0.054697778
-0.15835707 0.12955973 0.09441073 -0.025191003 -0.10685758 0.11689315 0.09685338 0.12677318
0.07062002 0.015872408 0.18221028 -0.022403724 -0.10892321 -0.27152783 -0.231997 -0.21780346
0.09200116 0.09825794 -0.11729888 0.121799104 -0.04419698 -0.0036244006 0.1562661 -0.20478643
-0.43215838 0.11736871 0.16156526 -0.047024142 0.12725711 0.30164912 0.0015412561 0.12442011
0.020465448 -0.119035676 -0.6592895 -0.381799 0.0964541 -0.079633705 -0.26917213 -0.09100686
-0.27162522 -0.33526754 0.032852378 -0.18954705 -0.57522887 -0.36574665 -0.04064945 -0.5121713
-0.009133964 -0.16506314 -0.42921203 0.10160833 0.16225944 0.12452607 -0.09907613 -0.0655654
-0.023809277 -0.12210723 -0.1746588 -0.19765404 -0.13872895 -0.006744037 0.0024798932 0.18026206
0.06668537 -0.028743347 0.15972702 -0.051024444 -0.13032815 -0.00011618583 -0.36483127 -0.035206627
0.10843661 -0.4526614 -0.14730887 0.061945736 -0.010955914 -0.26052406 0.009308523 -0.36697423
-0.046521794 -0.05006429 -0.004786003 0.14549571 -0.07672995 0.071747005 0.061361775 -0.06853211
-0.035724096 -0.18856157 -0.1645622 0.08284796 0.01570652 -0.043637473 -0.0022827587 0.13814723
0.08677818 -0.040180184 0.024199974 0.027240302 -0.19116999 -0.16537157 -0.16701074 -0.33099678
-0.26607776 -0.488944 0.1424772 0.013142865 0.06978514 0.10259722 0.058027998 -0.13744256
-0.13279256 -0.20012768 -0.22211318 -0.18753813 -0.1276263 -0.11483568 0.09633095 0.030148992
0.034176435 0.13461247 0.06707548 0.20117997 0.15637276 -0.05621517 0.06589657 -0.01488438

gconvs.3.weight f4 [10, 10, 4, 3, 3]
00000000: c15c 58be 1267 d0bd 891d 4ebd 2eb2 3c3c
00000010: a46a b4bc 00bd a9bd 7ce4 09be a6a9 dcbd
00000020: 38f4 5cbe 7e8e 9dbe 6689 1dbe 66b0 d5be
00000030: 5605 41bd 30f7 033e 717b bebd ee32 0abe
00000040: 80ed a83d dcb1 48be f412 913d b315 cebb
00000050: 1d71 a33d 69cf a5bc 750e 183d 452f bd3d
00000060: 023d 3c3d b8f5 863d 8c7d 3b3e 5b4a 43be
00000070: 5280 bcbe 69aa f03d 7f68 093d 37d5 7abe
00000080: 51b9 e5bd d0ca 843e 73af fbbd f5a0 babe
00000090: 869f 863e 229b a43d c0c7 00be 4776 093e
000000a0: 00e8 573b 07d5 04bd 4a28 333d de13 edbd
000000b0: 2983 4fbe 5fa1 4ebe 6b5e 81be 5947 f03c
000000c0: f50b 3ebe ae48 763c 1687 c93d 53f5 9f3d
000000d0: 6ea5 cb3e 71f1 db3e f09b ccbd af85 023e
000000e0: b2b9 a73e 097c 7b3e 4603 003e c761 ba3e
000000f0: 38f3 c5bc 85c3 26be 0a52 8d3e 9991 bfbd
00000100: aa95 503e d121 44be e291 98be db3a 45be
00000110: e355 89bc e6dc 2c3e 13de 093d 1aab 34bb
00000120: ba89 d5be 3ef8 0a3e 664f c0be 8a66 2ebe
00000130: ac21 e7bb f1a9 513e a923 393e 58c2 c93d
00000140: ebcf ac3c 67b6 b0bd b45a 373c 9074 97be
00000150: 07eb 52be ead8 22bd f2b1 01bc c00f 03bf
00000160: ae54 5ebd d65f 9f3e 26b8 53be 197a 57bd
00000170: d3c7 c0be 3927 d0be efe1 c0be 0e3b 283e
00000180: 9602 b1be f735 39be 576b 3c3e 7b8a 7bbb
00000190: 7387 f4bd 8232 21be 847e b93c 5f2e 823d
000001a0: 2538 c73e 69a9 903d 2f33 1dbe 147b fe3d
000001b0: de10 333c 84f2 c03d 3be4 05ba 345b 50bc
000001c0: 5086 5ebd 7a04 42bd 29a6 ae3c 1dbc c7bd
000001d0: d2e2 efbc 21c7 983d 0ac5 82bc b76a 87bc
000001e0: 1cbe 1f3d 7303 83bd 284a 88bd db9b f7bd
000001f0: b36f 0c3d cfc9 9f3d 8b45 e4bd d6e6 1e3d
00000200: e3ef 84bc 58c1 25bd 296f 803c 56d9 cebd
00000210: b532 a33d aae8 13bd 3c51 e3bd ab4e b43d
00000220: 6ff6 dc3a b490 963d 4326 c4bd fd47 363d
00000230: f14a 53bd f573 103d 6871 b03b 9e96 273d
00000240: 62b3 bbbe be3c 65be 2a83 1fbe 62d1 553e
00000250: 6253 073e cb8c b23d aa20 5fbd 8131 85be
00000260: 0dfa b13d 6191 4b3d 783b 7a3c 1b8b 23be
00000270: a6c1 81be 12de 4cbc 2d7f f0bc a897 04be
00000280: bd72 d1bd 65f7 453d 1a85 acbd d518 b93d
00000290: fc46 9d3e 7099 6abd 2859 ed3d 0c8e 073e
000002a0: 8d04 c1bd 74b1 2ebd 6755 f63d 178a c33d
000002b0: a311 49be 6174 2abd 413a c23d f78d 523d
000002c0: 494e 733b 06ad 453e 0751 bebe 2258 3bbf
000002d0: 76b3 1c3e ac56 8bbe dd41 bcbe c561 313a
000002e0: 755b 23be d24c e0bd d832 0abe 5d46 0bbe
000002f0: ded8 dc3d f8e0 10bf d26b a0be 3def 3bbe
00000300: 3f0b 62be 79a4 983e efd3 563e 5c69 a3bd
00000310: 258d 1cbe c2a0 bbbe ac33 69bd ceb3 293d
00000320: 34b3 d8bd 8ea3 a8bd 6c58 42bd aae3 4bbe
00000330: 3402 d1be a11d bdbe e41c f9bd 99c5 c8bb
00000340: 6412 dabe 2bb8 15bf b85a f0bc b9c4 c2bd
00000350: d348 97be 3a70 05bf f16f 24be 986e 5bbe
00000360: 82b1 82be 57e1 c0be 9aaa 93bf a3f9 403c
00000370: d6b5 d4bd 7b84 07bf 1588 873d b4fc f2bd
00000380: b74d 44be f924 0f3e d5e6 2e3e 5d7b d83d
00000390: b5c2 403d 54db dcbd 7243 66bd 1348 a63e
000003a0: bb09 01bd eb63 883d 3e8f 093f f30c 5b3d
000003b0: c33f 2a3a f174 c73e da9d c4bc f917 f13d
000003c0: 9ef6 4c3e 200b 3e3e fa7c 753e fe6b 593e
000003d0: 1d6a 2bbc cf93 ba3e 497b 2e3e 91e2 7abb
000003e0: de98 183e 8317 3b3d b9cb 3e3d 3ced c53e
000003f0: 0dc9 b53e baf5 ca3d b6d5 5d3e cffc 5e3e
-0.21129133 -0.10175909 -0.050321136 0.011517091 -0.022023506 -0.08288002 -0.13466066 -0.10774545
-0.21577537 -0.30772775 -0.15384445 -0.41736144 -0.04712423 0.12887263 -0.09300888 -0.1349599
0.082484245 -0.19599098 0.07083693 -0.006289208 0.07980559 -0.020240502 0.037123162 0.092375316
0.04595662 0.06589836 0.18309611 -0.19071333 -0.3681665 0.11751253 0.03354692 -0.24495398
-0.11216987 0.25935984 -0.12289324 -0.36450925 0.26293582 0.08037402 -0.12576199 0.13424025
0.003294468 -0.03242972 0.043739595 -0.11576055 -0.20264877 -0.20178746 -0.25267348 0.029330896
-0.18559249 0.015031977 0.09840219 0.07810464 0.3977465 0.42957643 -0.0999068 0.12746309
0.32758862 0.24559034 0.12501249 0.36402723 -0.024163827 -0.16285522 0.27601653 -0.093539424
0.20369592 -0.19153525 -0.297988 -0.19260733 -0.016764587 0.16881141 0.033659052 -0.0027567805
-0.4170664 0.1357126 -0.37560576 -0.17031303 -0.0070535745 0.20474984 0.1808001 0.09851521
0.021095237 -0.086285405 0.011191059 -0.29581118 -0.20597468 -0.039757647 -0.007915961 -0.5119591
-0.054279976 0.31127805 -0.20675716 -0.052606676 -0.37652454 -0.40654925 -0.37672374 0.16428778
-0.34572285 -0.18086992 0.18400322 -0.0038382101 -0.119398974 -0.15741923 0.022643335 0.06356501
0.38910022 0.070635624 -0.15351556 0.12425819 0.010929314 0.09421256 -0.00051075564 -0.012717057
-0.05432731 -0.04736755 0.021319466 -0.09752677 -0.029282961 0.07459856 -0.015963096 -0.016530378
0.03899966 -0.06397142 -0.06654769 -0.12090274 0.034286212 0.07802164 -0.11146077 0.03879436
-0.016227668 -0.04046759 0.015678005 -0.10100047 0.07968656 -0.036110558 -0.110994786 0.08804067
0.0016858111 0.07351819 -0.0957761 0.044502247 -0.05158514 0.035266835 0.005384613 0.040915124
-0.36660296 -0.22386453 -0.15577379 0.20880654 0.13215402 0.087182604 -0.05447451 -0.2601433
0.086902715 0.04969919 0.0152729675 -0.15971033 -0.25343055 -0.012504118 -0.029357517 -0.12948477
-0.10226963 0.048331637 -0.084238246 0.090379395 0.3071822 -0.057275236 0.11589271 0.1323778
-0.09424696 -0.0426497 0.12028008 0.09547823 -0.19635634 -0.041614894 0.09483767 0.05140492
0.003712552 0.19304284 -0.37171194 -0.73181355 0.15302834 -0.27214563 -0.36769 0.0006766583
-0.15952857 -0.10952152 -0.13495958 -0.1360106 0.10783552 -0.56593275 -0.3133226 -0.18352981
-0.22074603 0.29812983 0.20979284 -0.0797908 -0.15288217 -0.36646086 -0.056934044 0.04143124
-0.10581055 -0.082343206 -0.047447607 -0.19911066 -0.40821993 -0.36936668 -0.121637136 -0.006127071
-0.42592156 -0.58484143 -0.029340133 -0.09510178 -0.29547748 -0.5212437 -0.16058327 -0.21428907
-0.25526053 -0.3767192 -1.1536438 0.011778268 -0.10386245 -0.52936524 0.066177525 -0.118646055
-0.19170271 0.13978948 0.17080243 0.10570405 0.047060687 -0.10784021 -0.056216665 0.32476863
-0.03150342 0.06659683 0.53734195 0.053479146 0.00064944866 0.38956407 -0.02400105 0.117721505
0.20015952 0.18558931 0.23973456 0.21232602 -0.010462311 0.36440894 0.17039217 -0.0038282017
0.14902064 0.04567672 0.046581004 0.38657558 0.35504952 0.0991015 0.21663556 0.21776126

gconvs.4.weight f4 [10, 10, 4, 3, 3]
00000000: 76c8 1cbe 827a e9be 6a5e 1dbf c530 11be
00000010: 06cb 43be bafd bbbe a1a5 c0bc b240 8e3d
00000020: dcc9 b0bd 1376 6fbd 6986 f23d befd d93d
00000030: 6c0c 22be 831e 02be c12a 81bd 2907 7cbe
00000040: e402 2fbe c4e7 173c 84e6 d53d 96e4 623e
00000050: 5464 5c3e 8aa2 713e 0d07 ac3d b3b9 803e
00000060: 901c 0b3e 919c 2b3d 06c9 193d 4816 f63e
00000070: c48e 453e d494 82be 4cb2 c63e bc47 4bbe
00000080: 3a9a 87be 431f 33bd 805b 3fbe 408f 4cbe
00000090: 79a1 14be b522 753e 6442 3a3e beba 00be
000000a0: 1855 a83e 3292 c13b c542 8e3b af02 433d
000000b0: ad6c 13be cd85 26be c391 87be cc2c efbd
000000c0: 5f82 88be 70fc 10bf 3cd6 63be 77a1 56be
000000d0: 710d 13be 9d76 d0bd a77c 3a3e 9847 b63e
000000e0: 3ed7 863e 43fa f53d f97c cd3d ddcc 173e
000000f0: 7247 32be 83f6 6e3d c2dd 923d 1eac 4d3e
00000100: 1104 d73d dc4a b0bb 7e6a 083e 4e9c 223e
00000110: 1948 0b3e 361b 153c 1f75 223e d9e0 de3d
00000120: 6348 353e fb0e 003e cad0 823c 46e8 933e
00000130: 75a3 913e 236b 3f3d fea2 0e3e 235b 163e
00000140: 185c d8bc 0b88 b4be b980 3cbe a807 bfbc
00000150: b2e9 edbe 04b1 c9bd 7230 0b3e 3e4e 87bf
00000160: 9463 8dbe 8311 c33c 86d4 953e 9109 923d
00000170: a06d 0d3d aa2a 823e 01b8 bebc a0ad 08be
00000180: 19a3 623e f3b4 be3d ee36 85ba 9720 ab3e
00000190: ab58 cc3d f96a bc3d 8a48 5f3e 779e 4cbe
000001a0: b490 ebbd 87a1 a83d daf8 58be 6c8a a0bd
000001b0: 97fb e0bd b398 16be 426d 5c3e c07a 81be
000001c0: e677 90be 8e61 09be e8f3 783d 9ff9 b0bc
000001d0: 37f2 12bd 9be5 7cbe cd0e 1cbe fc27 edbe
000001e0: b027 ecb9 6871 86bd 291d a4be 964d f03d
000001f0: 6da8 0fbe 6737 dabd f130 ee3d 440e 82be
00000200: b08e 013e 6889 b33d 7503 24be 829d 4ebe
00000210: 9351 0bbe bfe4 b2be 3315 59bf 7b6f b0bd
00000220: e7f7 04be 3e29 32be 2bfa d2bd df48 76be
00000230: d107 ddbc 4214 4bbe cbbe 18be c666 913d
00000240: d378 1e3e a8c2 013e 0a2b f4be fb80 133e
00000250: 1c38 3bbd 12a2 4dbf 1495 f3bc 58b9 b5bd
00000260: 35b7 21bf c980 83be cd87 5fbd 66d0 e3be
00000270: 1971 28be d68e a4bc c9a0 27be 006b 7abe
00000280: 38fd cabd b86c 1cbe 3c9e 633e be8a 25be
00000290: d3cc d4bd e191 413e 7ea5 0ebd f872 cfbe
000002a0: 1d0e dc3d f718 ddbc 2fcf 6ebe 4e4f 2d3c
000002b0: d90e 8f3d 6a1a e2bc 0e25 ba3d a1fc 3f3e
000002c0: eef9 44bd 58c2 9cbe 54b0 0dbf 63da 23bf
000002d0: 7b55 23bd 065c ffb9 7178 fabd 3e5b dcbd
000002e0: 184c d03c 4491 5b3d 9c02 e8bd 4278 abbd
000002f0: 8390 bbbd 042e 95bd 0316 bebd 1189 1bbd
00000300: f4cb 233d 6920 6ebd 1773 c5bd b0ab 823a
00000310: 1bb8 953d 85c7 b2bc 9178 333d 968a 72bd
00000320: 4464 bbbc d2b5 0fbd 121f 0bbe 1a6d 6b3d
00000330: 5c47 c6bd 689e e0bc 39f2 743d 5e92 edbd
00000340: d02a 67bd c719 72bd 38a0 adbc e805 97bd
00000350: 3ff2 83bd 93c0 823b a5b7 96bd e9d8 ddbd
00000360: 226c f5bd 76a5 95be d152 aebd c32f 7abe
00000370: 4708 28be 34d4 273e 4f72 9dbe d0f3 e5bc
00000380: 502f 1f3e eff4 c8be f2c8 d9be 03d7 9ebe
00000390: d992 8cbe fc85 96bd 1bf0 a1bd 1a24 0fbe
000003a0: 22f6 263e d9ce 3f3e c32c 28be 3c6b babd
000003b0: f8f4 0a3d c244 68be ce39 9ebe d689 39be
000003c0: 5ad2 25be f384 94be 9426 99be cea2 663d
000003d0: a759 98bd 4982 afbe 8786 20bd 8572 a43d
000003e0: 9d66 f23c d442 603c a133 8cbc 027e 12bc
000003f0: 873b 6fbd 5dc7 063e 0a97 24be f1a4 2d3d
-0.15310845 -0.4560128 -0.6147219 -0.1417876 -0.19120416 -0.36717016 -0.023516478 0.069459334
-0.086322516 -0.058462214 0.11842043 0.106441006 -0.15825051 -0.12706952 -0.06306983 -0.24612106
-0.17090946 0.009271566 0.10444358 0.22157511 0.21522647 0.2359716 0.08399782 0.25141677
0.13585114 0.04189736 0.037545227 0.48063874 0.19292742 -0.25504172 0.38807905 -0.19851583
-0.26484853 -0.043730985 -0.18687248 -0.1997652 -0.14514722 0.23939021 0.18189389 -0.12571236
0.3287742 0.0059073204 0.0043414556 0.04760998 -0.14396925 -0.16261978 -0.26478395 -0.11678466
-0.26661965 -0.5663519 -0.22249693 -0.20960031 -0.14360596 -0.10178874 0.18211614 0.35601497
0.26336092 0.12010624 0.10033602 0.14824243 -0.17410067 0.05834056 0.07171203 0.20085189
0.104988225 -0.0053800177 0.13321874 0.15879938 0.13601722 0.009100726 0.1586499 0.1088273
0.17703395 0.12505715 0.015968699 0.28888148 0.2844502 0.046733033 0.13929364 0.14683203
-0.026411101 -0.35260043 -0.18408479 -0.02331908 -0.46467358 -0.09848216 0.13592699 -1.0570753
-0.27615035 0.023812061 0.29263705 0.07130731 0.034528375 0.25423175 -0.0232811 -0.13347483
0.2213253 0.09311857 -0.0010163465 0.33423302 0.099778496 0.09200091 0.21805015 -0.19982325
-0.11502209 0.08233934 -0.2118868 -0.07838902 -0.10985487 -0.14706688 0.21526054 -0.25288963
-0.28216475 -0.1341612 0.060779482 -0.021603404 -0.035875525 -0.24696963 -0.15240021 -0.46319568
-0.00045042997 -0.06564599 -0.32053497 0.11733548 -0.14029093 -0.106550984 0.116304286 -0.2540151
0.12652087 0.087664425 -0.16016944 -0.20177272 -0.13605337 -0.34940144 -0.8479797 -0.08615013
-0.12985192 -0.17398545 -0.10301622 -0.24051236 -0.026981266 -0.19831946 -0.14916532 0.070996806
0.15475778 0.12671912 -0.47689086 0.14404671 -0.045707807 -0.80325425 -0.029734172 -0.08873242
-0.63170177 -0.25684193 -0.05457287 -0.44494933 -0.16449393 -0.02008764 -0.16369928 -0.2445488
-0.09911579 -0.15275848 0.2222833 -0.16166207 -0.103906296 0.18903305 -0.034825794 -0.40517402
0.107448794 -0.026989443 -0.23321222 0.01057799 0.06985254 -0.027600486 0.09089099 0.18748714
-0.048089914 -0.30617023 -0.5534718 -0.64005107 -0.039876442 -0.00048705953 -0.122300036 -0.107595906
0.02542691 0.053605333 -0.11328623 -0.08372547 -0.09158423 -0.072841674 -0.09281542 -0.037972514
0.039989427 -0.058136377 -0.09641092 0.000996938 0.07310506 -0.021823654 0.043816153 -0.059214197
-0.022874959 -0.035085507 -0.13586071 0.057477094 -0.096815795 -0.027419284 0.059801314 -0.11600183
-0.056437314 -0.059106614 -0.021194562 -0.073741734 -0.06442689 0.003990242 -0.07359246 -0.10832388
-0.11983515 -0.292278 -0.0851189 -0.24432282 -0.16409408 0.16389543 -0.30751273 -0.02807036
0.15545392 -0.3924937 -0.42536122 -0.31023416 -0.27455786 -0.07349774 -0.079071246 -0.13978615
0.1630483 0.1873125 -0.16423325 -0.091024846 0.033925027 -0.22682479 -0.30903476 -0.18118986
-0.16193524 -0.29007682 -0.29912245 0.056307606 -0.07438975 -0.34279087 -0.039190795 0.08029655
0.029589945 0.013687808 -0.017114462 -0.008941175 -0.05840638 0.13161989 -0.16073242 0.04239363

gconvs.5.weight f4 [10, 10, 4, 3, 3]
00000000: b554 683e 56c0 5f3e ea65 b53d f2f7 8d3e
00000010: 5471 c23e f692 9a3e 85f5 8a3e 375a 5e3e
00000020: 1770 b03e d481 1b3e 05ee b93e 58c0 a13e
00000030: a494 bc3e 3363 8c3e 50ef 893e b753 ad3e
00000040: 092c 8a3e 2122 e03d 4c3b 473e ff89 7c3e
00000050: 0bb7 823e 4258 723e baa0 a73e 0725 833e
00000060: 54cd 2d3e 9033 a03e 1118 b43e dbad 6c3e
00000070: c14f 9d3e 6c5b ab3e 2778 9b3e 7ddd a73e
00000080: 0cfb b03e bbd9 bb3e 4169 8f3e 7f6e a23e
00000090: b40d 2ebe 3f21 2dbe 5867 6ebe 23d9 c8bd
000000a0: 20f1 20be d0c1 06be becf 90bd 8f33 64bd
000000b0: fd0a 33be 02b2 c03d eeb7 66bd 8a38 47be
000000c0: ece1 74bc ed62 64bb ac4a 02be 635a c7bd
000000d0: 51b1 8ebe cdf7 56be 6c2c 1ebe 7605 f3bd
000000e0: 78fd 57bc 0267 8ebe b471 e9bd 94e3 8ebc
000000f0: 0383 89be 726c 94be 1bf5 28be 8a2e aebe
00000100: 5e63 06be 00a4 64be 60aa 27be 5fff 5abd
00000110: 808b 643d 9edc ffbd 0866 193b 1eda 4ebc
00000120: 1678 12be 758c 23bd 4553 39be 8ed6 0bbe
00000130: 24bf 2a3b e5b5 71bd 328e 99bd 9d90 94bc
00000140: cb01 883b 2b53 46be bdd3 b3bc 0b46 afbd
00000150: 6eec 03be 9022 953d 7f4a aabd 779c cebb
00000160: a51c 64bd 42b4 2bbc 1373 733b cb32 053c
00000170: 3a7f 54bd c5d2 a8bd 3ea7 fcbc 0635 8bbb
00000180: d23f 35be 1820 cebd 8838 2dbe e127 4d3c
00000190: fadd 0dbd 9567 e6bc fa78 b93c 3297 27bd
000001a0: a5f7 b2bc aa47 92bd fd11 ccbd d2e7 67bd
000001b0: f560 ebbd d397 c1bc 34c0 a13c f69d c6bd
000001c0: 2326 18be a24d a2bd f356 25be b5c3 20be
000001d0: bd34 f7bd e976 73be dd2b 5dbe dc54 29be
000001e0: c5b3 47be bd4e 5abe 845b e6ba 05b2 1fbe
000001f0: 813a 2bbe e13f 1dbd 3dbf d3bd d0d2 36be
00000200: e2c7 69be ecc8 8ebd 738b 75bb dfe5 c8bd
00000210: e2b6 af3d f050 c8bc 9f9b 43bd 5abc 8ebd
00000220: 9d3f c7bd 7436 febc 00d8 fbbd ab28 75bd
00000230: 4ced d6bd cf99 5ebe a700 13be df4d 04be
00000240: 73da b83d e745 603e bc46 413e 5e1a 963d
00000250: a9e9 383e a74b b53d 7f22 aabc f49f 0f3e
00000260: 83d7 1f3d 9371 173e a283 643e 33bb aa3d
00000270: 1b8d fc3d 0900 363e 2fd3 053e 0d37 903d
00000280: 21b9 9e3d 8895 623e 0573 913d 27d0 6b3d
00000290: d997 c93d 9c36 dc3d a64d 153e e506 103e
000002a0: 0688 e53d fdae a23d 5e8a 483e a484 653e
000002b0: e069 7b3d c041 9d3c 0ab6 6c3e 1441 133e
000002c0: 64a3 103d c8c0 0e3e 9e75 d73d a9b8 cc3d
000002d0: 6188 0f3d 8325 213e 38c9 343e e178 a73d
000002e0: dc44 8f3d 8a73 3f3e d2d0 e93d 20d2 103e
000002f0: 6b49 2c3e 1b37 073e e286 563e 3ce7 433d
00000300: 80a6 0d3e 7b91 373d d28d cc3d 85f9 7a3d
00000310: fa6c d03d 3d9c 373e b16b c73d d920 f83d
00000320: 8819 e93d 6761 403e 61cf 4c3e fde2 ac3d
00000330: fa66 893d 5536 6e3d 19b7 4d3e 99b9 273d
00000340: 0ddb 0f3e 780c 9b3d 9fe9 253e 026c af3c
00000350: 7397 cb3d f61e 863d 058b 423e 76df 1a3e
00000360: 26c7 6dbe 23ae 69be 1c56 32be c735 10be
00000370: f40c 0dbe a436 19be 351d 76be 095c 16be
00000380: 88cc bdbd aefe 3bbe e943 b4be 24fd 4abe
00000390: 90ea 98be 17a4 60be 2f49 6dbe 0fd5 94be
000003a0: b796 67be 707e 1bbe 19e6 cabd 0f1e 4ebe
000003b0: 97d8 5bbe db37 a8bd 066c 1bbe c38b 0cbe
000003c0: 8050 2fbe 1cf0 88bd f6c8 35be 8764 ecbd
000003d0: 1165 16be 646b 35be f3ab 75be bf26 42be
000003e0: 4079 9abe 321d 4dbe c619 72be c5c9 adbe
000003f0: 621b 33be e1b7 e03d 06b8 3d3e ab27 173e
0.22688563 0.21850714 0.08857329 0.2772823 0.37977087 0.30190247 0.27140442 0.21714102
0.34460518 0.15186244 0.36314407 0.3159206 0.36832154 0.27419433 0.26940393 0.33852932
0.2698672 0.109440096 0.19456214 0.24662016 0.25530276 0.2366648 0.32739812 0.25614187
0.16972858 0.3128934 0.3517461 0.23113196 0.3072491 0.33468187 0.30365106 0.3278617
0.34566534 0.36689553 0.2800999 0.31724927 -0.16997415 -0.16907214 -0.2328161 -0.098070405
-0.15716982 -0.13159871 -0.07070874 -0.055713233 -0.1748466 0.09408952 -0.056327753 -0.19455162
-0.014946442 -0.0034849003 -0.12723798 -0.09734037 -0.27869657 -0.20992966 -0.15446633 -0.11866276
-0.01318299 -0.27812964 -0.1139864 -0.017442502 -0.26857767 -0.28988987 -0.1649975 -0.3401988
-0.13123843 -0.22328186 -0.16373587 -0.053466197 0.0557971 -0.12493251 0.0023406763 -0.012625245
-0.14303622 -0.039928872 -0.18098171 -0.13656065 0.002605387 -0.05901136 -0.07497825 -0.018135363
0.0041506044 -0.19367664 -0.02195155 -0.085582815 -0.1288316 0.07281983 -0.0831499 -0.006305273
-0.05569138 -0.0104799885 0.0037147447 0.008129786 -0.051879145 -0.08243326 -0.030841466 -0.0042482642
-0.17700127 -0.10064715 -0.16916096 0.012521715 -0.03463552 -0.028125564 0.022640694 -0.040915675
-0.021846602 -0.07142575 -0.099643685 -0.056617565 -0.114931025 -0.023631966 0.01974497 -0.096980974
-0.14858298 -0.079249635 -0.1614645 -0.15699656 -0.12070606 -0.2377583 -0.21598764 -0.16536278
-0.1950217 -0.21319099 -0.0017574881 -0.15595253 -0.16721536 -0.038390998 -0.1033921 -0.17853856
-0.22830155 -0.069719166 -0.0037467151 -0.098094694 0.08579804 -0.024452657 -0.047755834 -0.06969519
-0.0972893 -0.031031825 -0.12297058 -0.059853237 -0.104944795 -0.21738361 -0.14355718 -0.1292033
0.09026041 0.21901666 0.1887464 0.07329248 0.18057884 0.0885232 -0.020768402 0.14025861
0.039023887 0.14789419 0.22315839 0.08336487 0.12331601 0.17773451 0.13068841 0.0704175
0.07750154 0.22127354 0.07102016 0.057571556 0.09843416 0.107526034 0.14580402 0.1406513
0.11207585 0.079435326 0.19584033 0.2241388 0.061380267 0.019196391 0.23116317 0.14380294
0.03531207 0.13940728 0.105204806 0.09996159 0.03504217 0.15736966 0.17654884 0.08177353
0.06995556 0.18696418 0.114167824 0.14142656 0.16824882 0.13204615 0.20949891 0.047827944
0.13833046 0.044816475 0.099879876 0.061273117 0.10177036 0.17930694 0.097373374 0.1211564
0.11381823 0.18787156 0.20000984 0.08441732 0.06709094 0.058157284 0.20089377 0.040948484
0.14048405 0.075707376 0.162024 0.021413807 0.09940996 0.06548874 0.18998344 0.15124306
-0.232205 -0.22820334 -0.1741566 -0.14083014 -0.13774472 -0.1496225 -0.24034579 -0.14683546
-0.09267527 -0.18358871 -0.3520806 -0.19823128 -0.29866457 -0.21937595 -0.23172449 -0.290688
-0.22616087 -0.15184951 -0.09907169 -0.20128654 -0.21469341 -0.082137786 -0.15177926 -0.1372519
-0.17120552 -0.06686422 -0.17752442 -0.115426116 -0.14686991 -0.17716748 -0.23991375 -0.18960093
-0.3017063 -0.20030668 -0.23642644 -0.33943 -0.17490914 0.10972572 0.1852723 0.14761226

final_layer.weight f4 [10, 10, 4, 3, 3]
00000000: be87 463e 06ac f83d bb62 203e a6e9 853e
00000010: 6ae3 8a3d 892d 5c3e eac9 b43d 7d43 1a3e
00000020: e445 473e 8291 4b3e d60b 313e e69b e23d
00000030: 58b0 553e 491b 713e 2175 303e 3611 633e
00000040: 48e9 853d 905c 5f3e fdbe e03d 36bc 7a3e
00000050: d28d 573d 31e1 ea3d f166 873e ca6a 053e
00000060: 3a29 e23d 9344 303e 9ca0 7e3e 23db bc3d
00000070: 8d01 b23d f999 363e b8f2 d73d db0e 753e
00000080: b40c 663e 9c4e 953d c1d5 1e3e 9424 203e
00000090: 7af0 00be 202d 73be 3872 5dbe 51a2 25be
000000a0: 61be 37be 11de 1abe 8698 2fbe c27f 0abe
000000b0: b121 d8bd a6aa a1bd f7e0 f9bd 57df 64be
000000c0: 7a22 4dbe 78f4 73bd 92d3 60be 1447 a1bd
000000d0: 5b7a bbbd 4801 78be 041d 1dbe 801a 84be
000000e0: 639d ecbd 50a2 4cbe 740e 73bd 1033 03be
000000f0: 1932 45be 6d55 2cbe 2951 45be 7d71 46be
00000100: b993 72be 0502 4dbe df17 08be 577d b5bd
00000110: b8e1 96bd 04dc 43be c8b7 c0bd 0921 24be
00000120: 955a 88be 47c8 5dbe 008f 84be 49ca 51be
00000130: e35b 12be a1ca 82be a5d3 3ebe 514d 53be
00000140: 6327 e9bd 9c5c 9bbd 23e4 6fbe a136 e2bd
00000150: b0b1 32be ffd0 37be 3b0b 56be ebb1 9dbd
00000160: 45f9 79be 7756 f0bd 3168 bfbd 5c5b 3bbe
00000170: 75dc 87be f100 49be ade1 9cbd b509 c9bd
00000180: 1bf6 3dbe fdeb 20be c27e 10be e827 08be
00000190: 2c31 2bbe c9a7 4dbe 55d0 d8bd 05d9 d7bd
000001a0: c70c 8ebe 5865 7cbe f050 24be f2cb 03be
000001b0: 52cc 043e 7006 183e 90e5 853e 69bb 683e
000001c0: 33e7 d33d 026c 8f3d 7ee0 5e3e 4382 233e
000001d0: bdc3 4f3e 00f2 473e f868 593d efcb 143e
000001e0: efc8 793e bcdb 663e f2d0 273e 1aa8 123e
000001f0: b16b 043e 3ffa 3d3e 5b79 173e eb13 7f3e
00000200: 5adf 943d abcd 443e 40a0 1d3e 6908 633d
00000210: 1ba4 843e fa02 2b3e dd21 7d3e 718f 813e
00000220: 65c5 403e c85f 6a3e 01b4 8e3d 666c f93d
00000230: 80b0 803e 9274 af3d ee81 103e 5717 443e
00000240: dfda c6bc a91b 873c 0485 0b3d 57cd a43d
00000250: 0f1b a53d 4338 52bd f30e ba3d 6b4f bc3d
00000260: 4a08 063e 06be d73d e51f e73d 4f5c 1b3e
00000270: 22da 18bd e640 163e b685 053c fe70 163e
00000280: 5775 f33d 57d5 81bc 5f7e fd3c 6c5e d4bb
00000290: 5a47 9d3c 0313 c13d e479 ed3d 923d e13d
000002a0: 8d4d f9bc bffa 573d 2575 1e3e 3415 163e
000002b0: 7cd0 693d d9d5 b43d c5f2 14bd 11d8 0e3e
000002c0: 4044 ba3d 1b25 783d 4aaf 7c3c 8515 0e3d
000002d0: 9465 80be 1b01 4ebe 0e27 89be c839 a7be
000002e0: c593 7fbe ab2a a3be 8f69 9bbe ced8 89be
000002f0: a620 10be 9008 86be 999b 48be c19f 3cbe
00000300: e5bb 1dbe dad5 3fbe bf10 1cbe 25c2 9ebe
00000310: 6fa0 26be 4d04 4abe 5351 31be 396b 54be
00000320: 53df 9dbe 88a9 f6bd b7b8 00be 4ff9 10be
00000330: 3be5 59be bba7 68be 4c92 9ebe 2ba2 23be
00000340: abb8 5bbe c7d8 60be fe6c 06be 19be 3ebe
00000350: 41d9 47be 66c6 9dbe 9df1 9dbe 725a 19be
00000360: cacf 7cbd 658e bbbd ed9b 8ebd e091 c4bd
00000370: 4d0f a1bc a542 90bd d4d5 37bd b2c1 24be
00000380: b05c fbbd 8371 7cbd afbe 8dbd c3fe 24be
00000390: 34b0 0cbc d229 88bd fa9c 89bd f721 47be
000003a0: c72a 52be 13fd 64be b79d 67be 8815 20be
000003b0: 61fc 5fbd 8e54 b5bd bde4 3cbe 8efa 58bd
000003c0: 4e42 56be 2e4d 77be bf5d f9bd 501c e3bd
000003d0: 6cd7 56be 17bb 4cbe 2ef8 d4bd 3f7d 2ebe
000003e0: b5b4 5abd 3f68 59be 2a38 54bd c923 adbc
000003f0: 4584 083d dfdd 8ebb 4831 dabd d090 353d
0.19387719 0.12142186 0.15662663 0.26154822 0.06781657 0.21501745 0.088275746 0.15064807
0.19460255 0.19879726 0.17289671 0.110648915 0.20868051 0.23545565 0.17232181 0.22174534
0.065386355 0.21812654 0.10973928 0.2448586 0.052625485 0.11468733 0.26445726 0.13029018
0.110430196 0.17213659 0.24865955 0.092214845 0.08691702 0.17832173 0.10544342 0.23931448
0.22465783 0.07290384 0.15511228 0.15638953 -0.12591735 -0.23747683 -0.21625602 -0.161752
-0.17943718 -0.15123774 -0.17148027 -0.13525298 -0.10553301 -0.07893877 -0.12201112 -0.22350822
-0.20032683 -0.059559315 -0.21955708 -0.07874885 -0.09154197 -0.24219239 -0.153431 -0.25801468
-0.11553457 -0.19983792 -0.059339955 -0.12812448 -0.19257392 -0.16829462 -0.19269241 -0.1937923
-0.23689164 -0.20020302 -0.13290356 -0.08861797 -0.07367271 -0.19126898 -0.094100535 -0.16028227
-0.2663161 -0.21658431 -0.2589035 -0.20487322 -0.14292865 -0.2554522 -0.18635423 -0.20634963
-0.113844655 -0.07586023 -0.23426871 -0.11045576 -0.17450595 -0.1795082 -0.20902722 -0.07699951
-0.24411495 -0.11735242 -0.09346045 -0.1829657 -0.26535383 -0.19629265 -0.07660232 -0.098163046
-0.18550913 -0.15715022 -0.14110854 -0.13296473 -0.16717976 -0.20083536 -0.10586611 -0.1053944
-0.27744123 -0.24648035 -0.160465 -0.12870768 0.12968567 0.14846206 0.26151705 0.22727741
0.10346832 0.07003023 0.21765324 0.1596766 0.20289512 0.1952591 0.05307862 0.1453092
0.24393056 0.2254476 0.163883 0.14321938 0.12931706 0.18552493 0.14792387 0.24909942
0.072691634 0.19219081 0.15393162 0.055427942 0.25906453 0.16700354 0.24719949 0.2530475
0.188253 0.228881 0.06967927 0.121788785 0.2513466 0.08567156 0.14112064 0.19149528
-0.024274288 0.016492682 0.0340624 0.08046978 0.08061802 -0.051323187 0.090848826 0.09194835
0.130891 0.10534291 0.1128538 0.15171932 -0.037317403 0.14673194 0.008149555 0.1469154
0.11887615 -0.015848799 0.030944047 -0.0064809825 0.019199062 0.09427454 0.115955144 0.10998072
-0.030432487 0.052729364 0.15474375 0.14656526 0.05708359 0.08829851 -0.036364336 0.1394961
0.09095049 0.06058226 0.015422652 0.03468849 -0.25077498 -0.20117609 -0.2678761 -0.3266127
-0.24958713 -0.3186849 -0.30353972 -0.2692322 -0.14074954 -0.26178408 -0.19590606 -0.18420316
-0.15403707 -0.18733922 -0.15240763 -0.31007496 -0.16272138 -0.19728203 -0.17316179 -0.20744027
-0.30834445 -0.12044054 -0.12570463 -0.14157604 -0.2127885 -0.22720234 -0.3097099 -0.15979831
-0.21457164 -0.21957694 -0.13127515 -0.18627204 -0.1951647 -0.30815428 -0.308484 -0.14975908
-0.0617216 -0.09158019 -0.06963334 -0.09598136 -0.019660616 -0.070439614 -0.044881657 -0.16089514
-0.12273538 -0.06163169 -0.06921136 -0.16112809 -0.008586932 -0.066486016 -0.06719394 -0.1944655
-0.20524131 -0.22362165 -0.22618757 -0.15633214 -0.054684047 -0.08854018 -0.18446632 -0.052973323
-0.2092373 -0.24150535 -0.12176084 -0.110893846 -0.20980614 -0.19993244 -0.10398899 -0.17039965
-0.053394992 -0.21231173 -0.051811375 -0.021135228 0.033329267 -0.004359945 -0.10653931 0.044327557

linear.weight f4 [10, 10]
00000000: 3ac7 a3be c1fe 04bf fa2d 153c d629 8d3e
00000010: 5408 aebd 935f b33e 4edd 533e 65e3 973e
00000020: c4a9 8bbe 1aa8 073d d9aa a23e f414 c93d
00000030: 607c aabe 263f 09bf ff19 bb3d 0a3e 1bbe
00000040: 775d 193e 850f bb3e 690d 4abf fcfb d23e
00000050: 3415 8e3e 14df c43d e0d4 073e f5f6 273d
00000060: a42b a5be fd3d 713d e6a5 993e b046 8f3d
00000070: b154 5c3e 573b 16bd a461 143e 80cb ba3e
00000080: d2fa 063e 306b 623e d404 22be 494c c63e
00000090: 9774 61bc 0670 173d e2e0 0ebd 4ac6 afbe
000000a0: 149f 5c3b 4b38 853e 24f8 023a 2a3b babd
000000b0: d279 a33c fd85 c8be 88e9 a2be f295 343e
000000c0: 33d9 a53c bba4 ce3d 8244 5fbe 3a7f b93e
000000d0: 74e8 053e a617 9b3e 3e8a 69bd 2aa0 a23d
000000e0: 0cca 72be 1a3e 54be 41b1 5ebe d830 993e
000000f0: 648c 19be 5f7c 44be d33f 353e 44d2 ab3e
00000100: a442 2dbe c77d a8be a987 183d 714a 993d
00000110: 658c ff3b 6b42 983e 5b1f 8e3e 23e3 c8bd
00000120: 766f be3d 6590 01bd 9de4 a83e 1b62 99be
00000130: f060 b33e a23f 723d 0a06 16be 8fde 4ebe
00000140: 47a8 943d 9886 dbbd 1dfd 13bd d63d bf3d
00000150: 9103 03bf 76c8 d93d 2285 48be 77c8 9a3d
00000160: f585 c8bd 0b2f 4cbe ce51 cbbd 064c 7bbe
00000170: 8325 e53d b8f6 3e3e 9441 80bd 13c5 99be
00000180: f8ed 27be 569f 6dbe 6eba d2bd 1d93 b13d
-0.31987935 -0.51951224 0.0091052 0.2757098 -0.08497682 0.35033855 0.2068989 0.29665676
-0.27277958 0.0331193 0.3177097 0.098184496 -0.33298016 -0.5361198 0.09135818 -0.15160385
0.1497706 0.36535278 -0.7892671 0.41207874 0.27750552 0.09612861 0.13264799 0.041007
-0.32259858 0.058897007 0.30009383 0.069959044 0.21516682 -0.036677685 0.14490372 0.36483383
0.13181618 0.22111201 -0.15822154 0.38730076 -0.013760707 0.03697207 -0.034882434 -0.3433097
0.0033664154 0.2601951 0.0004996082 -0.09093316 0.01995555 -0.39164725 -0.31818795 0.17635325
0.02024517 0.100900136 -0.21803477 0.3622988 0.13076955 0.3029148 -0.057016604 0.07940705
-0.23709887 -0.20726815 -0.21747304 0.29920077 -0.14994961 -0.19188069 0.17700128 0.33558857
-0.16919953 -0.3290846 0.03723875 0.07484902 0.0077987188 0.29738173 0.27758297 -0.09808948
0.09298603 -0.031631846 0.32986918 -0.2995766 0.35034895 0.059142716 -0.14650741 -0.20202087
0.07258659 -0.10719031 -0.03613006 0.09337966 -0.51177317 0.10633938 -0.19582036 0.07557767
-0.09791175 -0.1993982 -0.099277124 -0.2454072 0.111887954 0.18648803 -0.06262508 -0.30033168
-0.16399372 -0.23205313 -0.10289465 0.08670638

linear.bias f4 [10]
00000000: 7fe6 d63c 27db 173f d50e 803e 9594 4a3e
00000010: 7e40 f5be 772a 523d 680d 87bc a135 a9bc
00000020: 87dd c53e 2dda cb3d
0.026232956 0.59318775 0.25011316 0.19783242 -0.47900766 0.05131003 -0.016485885 -0.020655455
0.38645574 0.09953723
