runs/P4CNN_iso_std0.1_gamma2_lr0.002/model.pt (torch, 105509 bytes, 10 tensors)

lifting_conv.weight f4 [10, 1, 3, 3]
00000000: 48d3 9d3e d96b 3ebe 0126 98be b809 aebd
00000010: 91fd 0c3d d8be 1d3e c015 1b3e 4b40 a03d
00000020: f250 19be 3a89 3cbe 0d16 0ebc bbd6 c8bd
00000030: 4c8b 80be 4e21 ab3e b8a2 e9be c855 d13c
00000040: f982 023f ad32 cdbe ebe1 753d 6f91 ce3d
00000050: ca66 5abe c108 733e 9249 c5be 87f8 b4bd
00000060: 64c7 993d 3dc7 04bf cdd3 bf3e 29e1 8d3d
00000070: f84c acbd aa59 573e 6476 0e3e 5d9e 52be
00000080: eb67 3c3e b064 58be ba26 91be cc56 213e
00000090: 2d6f 093f 3306 813e e177 07bd 4e12 d03c
000000a0: e084 233e bdb3 74be d2ab 84be 6500 ddbd
000000b0: c87e d23b f0fb 2cbe 9c44 513e 023d 53bf
000000c0: 07ca 6dbd 1975 0dbf e37e b43e f52b aabe
000000d0: 1081 2d3e 525e 8e3e 0d4a 83be f596 4fbd
000000e0: ad56 3abe 7a28 b6be 05f5 913e 33f9 433e
000000f0: da71 c33e 4b15 8f3e c19f e7be f5dc f2be
00000100: 9031 a8be 1ba9 143c ce01 9b3e 26ed 6d3e
00000110: 6c0c 04bd 5a28 643e 4dae 7dbd 4cf2 77bd
00000120: e9c2 8e3c 1f09 433e eead 37bd 7fd0 6dbe
00000130: 8f78 00bf 6cd9 a53e 471c a1be 5212 76be
00000140: 3b02 653d e069 2a3e 64b2 713e 7d91 5b3d
00000150: 5407 f3be c42a 823e 4097 7abe db2b 99be
00000160: cdf3 c13c 750c 08bf
0.30825257 -0.18595828 -0.29716495 -0.084979475 0.034421507 0.15404832 0.15145016 0.07824763
-0.14972284 -0.18411723 -0.0086722495 -0.098065816 -0.25106275 0.33423847 -0.45631957 0.025553599
0.509811 -0.40077725 0.060029905 0.10086333 -0.21328273 0.23733808 -0.38532692 -0.08836465
0.07508734 -0.51866513 0.3746628 0.069277115 -0.08413118 0.21030298 0.1391235 -0.20568223
0.18399017 -0.21132159 -0.2834986 0.15755767 0.53685266 0.25200042 -0.03307331 0.025399353
0.15968657 -0.2389669 -0.25912338 -0.10791091 0.006423805 -0.16892982 0.20436329 -0.82514966
-0.058053996 -0.552568 0.35253057 -0.33236662 0.16943765 0.27806336 -0.25642434 -0.050681073
-0.18197127 -0.35577756 0.28507248 0.1913803 0.381728 0.27945933 -0.4523907 -0.47434202
-0.32850313 0.009073521 0.30274814 0.23234996 -0.03223841 0.22281018 -0.061933804 -0.060533807
0.017426925 0.19046448 -0.044843607 -0.23224066 -0.5018396 0.32392442 -0.31466886 -0.24030426
0.05591033 0.1664195 0.23603207 0.053605545 -0.47466528 0.25423253 -0.2447176 -0.29916272
0.023675824 -0.5314401

gconvs.0.weight f4 [10, 10, 4, 3, 3]
00000000: d8df ae3c b82f 43be 2d2d 04be 6985 03be
00000010: 6a13 c33a ab9a a6bd 925e 81be 6522 10be
00000020: 9ecd 79bd 11a4 723e 0a0c 003e 909c e83c
00000030: 7858 133d aa14 a3bb 1b94 833c 0093 19be
00000040: f4c7 cbbe f5e8 b0be b231 f43d e771 b93d
00000050: 1f22 093e f520 973d b8e2 1c3d f077 093e
00000060: 4ac2 06be 87ce ff3a 3e0b 673e 5639 81bd
00000070: 7eab 14bf f361 cebe 96fd 9d3c 7bbd 37bd
00000080: 8e51 f4bb 0354 c73d 765c 183e 9cbc 713e
00000090: 54e7 4cbe 9de4 983c 0f58 83be 8db3 22bd
000000a0: 34f7 a23a dd59 1abd 8641 4cbe d268 06bd
000000b0: 417a 343e 2f1d b4bd 63d1 99bd eae4 bfbd
000000c0: 1250 4e3e a107 113d 12cc 8fbd 8119 fc3d
000000d0: e0aa cc3d 87f7 0fbe 3cf6 47be ccac 1b3c
000000e0: e3e8 c6be 95fc 67be bfe9 d1bd 7a3a 0dbe
000000f0: 4e14 ffbe 5845 243e b5b9 f43d cef2 a3bd
00000100: f80e edbe 49dc 1abf d719 bb3d bbee ccbc
00000110: 54cd 853d 8c8f ab3c d8c0 e5bd f436 d8bc
00000120: d01a 7ebe b7ac 64be 6542 04bd 85bc 0cbd
00000130: 06ba 673d b6cc ac3d 4ff0 1cbd 53f1 45bd
00000140: d66f 753e 693b dd3d d46c 643e b7b9 4c3e
00000150: d657 013d 23ae 4b3d b4c6 0cbe dd7e 0dbc
00000160: 7ea5 393c 2fe4 34be 2c25 95be fe27 afbe
00000170: 0424 ccbd 9ea2 803d c5f9 d3bd d054 7f3e
00000180: 2821 143e 1b70 043c c846 6c3e 0e38 80be
00000190: 298d e3bd 36ea 053d 389d 9bbc 7f92 5dbd
000001a0: 1b6e 79be 43c8 e4bd b3a3 64be 7b53 6ebe
000001b0: e9c5 7f3e 5069 093e c9a6 853e 39e6 9d3d
000001c0: b949 b8bd 9a51 4a3e a99b 953c 4a25 ec3c
000001d0: 903a a63e cee5 3abe a577 b1be a68b 7abd
000001e0: cc95 623e 40fe c83d 0650 8f3d 50f1 153e
000001f0: bb3d b13d 5f31 2f3e a1dd 00bf e35b 1ebf
00000200: 42e2 00bf 754a b1be 6df2 1abe fd4a a33d
00000210: 0015 65be 507f e2bd 8636 393e 07af 433e
00000220: 072c f43d ae89 18bd 20db be3d 8df0 343d
00000230: 1273 1dbe 40c0 eb3d 3fc2 b9bd 4d48 5dbe
00000240: 4833 913e b195 703e 061f a73c ad83 4b3e
00000250: dd06 603e 62d6 dbbc cafa 6d3d 936f 61be
00000260: 439f 86be 53c6 8a3d 9738 d9bd b023 ac3d
00000270: 5f3b 49bd f16f 5cbe 30c1 bd3d 3c40 aabe
00000280: ad04 c43d c690 833e bc3f c6be 4ffb 4dbe
00000290: 2a5a 53be 0934 9c3d aaa8 90bd 4b18 623d
000002a0: 6c64 0a3e 9f2f 7b3d 4184 ef3d 83d0 d73d
000002b0: b613 d4bd 89c3 973d b5a8 e0be 133b d9be
000002c0: 97b5 23be 326b 48be b5cc babd 3b89 e2bd
000002d0: 3cd6 03bf bebb a7be b115 02bf 4df4 1e3e
000002e0: 625e 0cbd de91 4ebd 651f ee3c 9e00 40be
000002f0: c327 b8bd d79b afbe e960 7abe 2d44 b9be
00000300: d205 57bd 8ede f93d 569f 333d 3ec1 09be
00000310: 7090 293c 46ca c2bc 8d9e b1bd 4e01 75be
00000320: 93c6 51be a628 d43d 005f 15bd 73c1 5dbe
00000330: fc3d cf3c b851 2f3b eff3 1d3e 2e45 0fbf
00000340: aa35 07bf 6d10 1bbf 8759 b0be 40d3 ba3c
00000350: 591b 4d3d d1ff 39be 7954 d53d 18c7 6cbd
00000360: ddcc 403d 0a8a b1bd 9d70 62be 8cac b83b
00000370: bfbe 8e3e 0fe3 8d3d c8bc 1a3e 8e3c 1ebe
00000380: 3077 6bbd b394 4fbe 2ebc e0bd 1484 a7bd
00000390: f989 d0bd 398b 28bd c0f5 66bc 9e0d 4fbe
000003a0: 0d25 78be eb71 9fbe 49f7 4a3d cda1 5c3e
000003b0: a2d3 813d e0ae a8bc 5523 8fbb c9d7 80be
000003c0: 7e94 b6be ab55 a9bb 7386 47be fc21 84be
000003d0: f51b 9cbe a016 7fbe c83f d6bd 1a30 e03d
000003e0: 25b9 df3d f41d 67bd 0040 0bbd 3a71 113e
000003f0: bac8 123e f81c 2dbd 2273 58be 09cd 203e
0.021346971 -0.19061172 -0.12907858 -0.1284386 0.0014883105 -0.08134969 -0.25267464 -0.1407562
-0.060987107 0.23695399 0.12504593 0.028394967 0.035973042 -0.0049768286 0.016061833 -0.14997482
-0.3980099 -0.34552732 0.11923541 0.09054928 0.13391922 0.07379333 0.038302153 0.13424659
-0.13160053 0.0019516506 0.22562882 -0.06309764 -0.58074176 -0.40309104 0.019285958 -0.044858437
-0.007456011 0.09732821 0.14879021 0.23607105 -0.2001012 0.018663699 -0.2565312 -0.039722014
0.0012433291 -0.037683357 -0.1994687 -0.03281481 0.17624761 -0.08794629 -0.075106405 -0.09369834
0.20147732 0.035407666 -0.07021345 0.12309552 0.09993529 -0.14059268 -0.19527525 0.009501647
-0.38849553 -0.22654946 -0.10249662 -0.13791838 -0.4982018 0.16042078 0.11949483 -0.08005296
-0.46300483 -0.6049238 0.09135788 -0.02501618 0.06533304 0.020942472 -0.11218423 -0.026393391
-0.24814916 -0.2233151 -0.03228988 -0.034359474 0.05657389 0.08437483 -0.038315114 -0.048325848
0.23968443 0.10802347 0.2230714 0.1999272 0.031577908 0.049726617 -0.13747674 -0.008636204
0.01133096 -0.1766517 -0.29129922 -0.342102 -0.09967807 0.06281017 -0.10350374 0.24934697
0.14465773 0.008083369 0.23073876 -0.25042766 -0.111109085 0.032694064 -0.018995866 -0.054094788
-0.24358408 -0.111710094 -0.22328071 -0.23274033 0.2497784 0.1341908 0.2610381 0.07709927
-0.089984365 0.19757691 0.018262701 0.028826375 0.32466555 -0.18251726 -0.34661594 -0.061168335
0.22127455 0.09814119 0.06997685 0.14642835 0.08654352 0.17108677 -0.5033818 -0.6185896
-0.5034524 -0.3462712 -0.1513154 0.07973287 -0.22371292 -0.11059439 0.18087205 0.19109736
0.1192246 -0.037240677 0.093191385 0.04417472 -0.15375927 0.11511278 -0.090702526 -0.21609612
0.28359437 0.23494603 0.020400535 0.19874449 0.21877618 -0.026835624 0.0581005 -0.22015218
-0.26293382 0.067761086 -0.10606497 0.08405244 -0.049128886 -0.21527077 0.09265363 -0.33252132
0.09571204 0.2569639 -0.387205 -0.20115398 -0.20639864 0.076271124 -0.0706342 0.05519895
0.1351487 0.061324712 0.11695147 0.10537817 -0.10355322 0.07410342 -0.43878713 -0.42427883
-0.1598724 -0.19572142 -0.09121076 -0.11061331 -0.5149877 -0.32760423 -0.5081435 0.15522881
-0.034269698 -0.05043208 0.029067704 -0.18750235 -0.08991959 -0.34298584 -0.24451031 -0.36184826
-0.052495785 0.12200652 0.043853126 -0.13452622 0.010349378 -0.023778092 -0.08672819 -0.23926279
-0.20485906 0.103593156 -0.036467552 -0.21655826 0.025298111 0.002675159 0.15425085 -0.55964935
-0.5281626 -0.6057194 -0.34443304 0.02280581 0.05007491 -0.18163992 0.104165025 -0.057807058
0.047070373 -0.08668907 -0.22113271 0.0056358036 0.27879903 0.069280736 0.15111077 -0.15452787
-0.057486713 -0.20271568 -0.109733924 -0.08179489 -0.10182566 -0.041148398 -0.014096677 -0.20220038
-0.24232884 -0.311416 0.049552236 0.21546097 0.06339194 -0.0205912 -0.0043682256 -0.2516463
-0.35660166 -0.005167683 -0.19484882 -0.25807178 -0.3049008 -0.24910975 -0.10461384 0.10946675
0.109239854 -0.05642505 -0.033996582 0.14203349 0.14334384 -0.042263955 -0.2113767 0.15703215

gconvs.1.weight f4 [10, 10, 4, 3, 3]
00000000: 6b8e 8dbe 052e 03bf e8e2 65be 7095 c5be
00000010: b620 23bf d8ae a23d a1f1 13be 5dce 5abf
00000020: bc48 29bd 4011 91be 6047 10bf c930 80bf
00000030: 29f4 8d3d 7db7 53bf 62c3 2abf e24d b1be
00000040: 859f 61bf f30f 33bf 4503 72be a1ee 24bf
00000050: 8565 19bd e8b0 d4be 104e 0ebe f633 89be
00000060: aa38 3fbd c82e 9dbd b717 07be fc69 b4be
00000070: 9670 bfbe a5a6 b83c 7b8c 8ebd 527d d5bd
00000080: 2f74 eeba f0d6 c3be 2fd8 90be f9c3 f63c
00000090: bd4c 1abe f308 27be 1796 a53d 7e1a 183e
000000a0: f009 12be b90b 9cbd 8288 873e 9b82 bcbd
000000b0: 66fc 90be 476d fcbd 791a eb3d ae1b 593d
000000c0: 054f 7abe 1a6b 17be 52c1 15bd cd4d ebbe
000000d0: c1e9 3dbe 04c7 93be eae7 983d 286b d23c
000000e0: aa6b 583d c52c 85be b45f 0abd da7a dc3d
000000f0: 0e3c 64be f728 853c 67a4 13be 39b3 9fbe
00000100: 305f ca3d 4d7e fc3e 5898 50be ae81 9bbd
00000110: 7dc8 c93e 99ae 91bd 3f1a 80be 1300 12bd
00000120: f0e9 e1be 61cc 01bd 4ea1 cb3e 9423 c9bd
00000130: 67f7 ed3e a867 863e e350 293e a3ff 1f3f
00000140: a9c1 a03d 2adb d23e 890c 253f fb34 1e3f
00000150: b02c 79be 809f bc3e d1b0 c83e c6f4 3dbc
00000160: 761c e63e 9e65 ec3e 469f 28bd 2f13 f83d
00000170: d1e5 f53e 5fdf 31be 79c3 363e b05a e93e
00000180: 7694 703d f605 b73d c6bc 943e e80b 45be
00000190: 0e0b 793e bf11 d83e b34f c7be cf66 11bf
000001a0: 1bbe e7be 5054 95be 187e 5cbf 33d5 7bbf
000001b0: 556d 9bbe 78f3 bdbd 627d 5dbe 8309 4a3e
000001c0: 5c0b debd 592c d7be 96da 2f3b cfcd c2bc
000001d0: ff2e bfbe 9cc8 44be aa8a 6cbe 8a54 4e3c
000001e0: b4b7 b5be d7d0 ab3d 2f79 f03d bd19 87bd
000001f0: bc0d 173d e6b8 79be 3f2c e9bd 8300 3c3d
00000200: 9f0c 443c 90fa 23bf 0268 3a3e 950b 37be
00000210: e71f e3be 2224 153e 17b9 97be cb5e 2c3e
00000220: 9e16 333c 0c80 373d 2b6c debd 536e 543e
00000230: 0dea 2bbc 0809 55be 9582 0c3e 572b 083e
00000240: 60d6 94be d571 42be 7c8e 8d3d 0cfc e0be
00000250: 382c 75be 8b08 163b 5b68 03bf 85c3 86be
00000260: bd62 8cbe c618 12be 495a 89be 38a1 593c
00000270: 1753 68bd 8881 71be cc49 193c ebbe 57be
00000280: 0799 22be dbcf 5bbe 692e 18be bd7f 2cbd
00000290: 993b 73bd 005f d5be b2c6 353e de5d d4bd
000002a0: 50bf 1ebf 1d7c 99be cb4f 3fbd 0c02 11be
000002b0: b6a9 3ebe e1c2 9ebd ae16 2ebe 7b27 2fbe
000002c0: b794 ec3c 0e80 90be fec7 d9be 0ec3 cebd
000002d0: d508 9fbe 580f 4f3c 6659 bc3e cf0e 02bf
000002e0: a62e ce3d 8397 3d3e 9fad b1be bb30 1cbd
000002f0: 7637 2c3c 1ef4 de3c 55d0 55bc 000c 5e3e
00000300: 8f55 d03d bb1e 2dbe 3214 afbd 22df 003e
00000310: 4dcf 0bbe 6d95 77be 3b82 9ebe 42f7 273e
00000320: ce8d 4bbc f97c fdbe dbc7 26be 19fd e33d
00000330: 86bd b7be 704c 84be f7e0 35bd 6e88 84bc
00000340: 5813 a43c 88a1 003e f96a bc3c 4995 c03d
00000350: 6dcc 9b3e f21a a53d 372c 5d3e 8155 1b3e
00000360: c72a d5bd a325 91be 4d2c 41be 0e3a 383d
00000370: 2cdf bebd 8be0 ea3b 56cd 0abf 956c 3bbe
00000380: 2fd0 a4bc 1301 44be ea18 eabd d361 79bd
00000390: 727e d9bc b6e6 69be 6c50 00bf 738d 13bf
000003a0: 02c1 8fbe 9e14 0ebf 1622 20be 0bfe 2ebe
000003b0: ed01 16be 1958 9fbe d9d8 58be 9eea e2be
000003c0: 6f5b c9bd b6b6 97be 3bee 3abf 392e 90be
000003d0: e9a6 7cbe 929f 8abe 75c8 0cbf ebf6 3dbe
000003e0: 0735 61be 8285 febe 7357 b7be 98de 35be
000003f0: 38d0 ae3e 76ec 2e3c a3d8 a1be 37b7 86be
-0.2764772 -0.51242095 -0.22449839 -0.38590574 -0.6372179 0.07943505 -0.14447643 -0.85471135
-0.04132913 -0.28333473 -0.5635891 -1.0014888 0.069313355 -0.82701856 -0.6670438 -0.34629732
-0.8813403 -0.6994621 -0.2363406 -0.6442662 -0.037450332 -0.4154122 -0.13896966 -0.26797456
-0.0466849 -0.076749384 -0.1319264 -0.3523711 -0.37390584 0.0225404 -0.06960388 -0.104242936
-0.0018192584 -0.38249922 -0.28289935 0.030122744 -0.15068336 -0.16312008 0.08085268 0.14853856
-0.14261603 -0.076194234 0.26471335 -0.092045985 -0.28317565 -0.123255305 0.11479659 0.053004913
-0.24444206 -0.1478695 -0.036561318 -0.45957795 -0.18546201 -0.28862774 0.07466109 0.025685862
0.05283705 -0.2601072 -0.033782676 0.107656196 -0.22288534 0.016254885 -0.14418183 -0.31191424
0.09881437 0.4931511 -0.20370615 -0.07593094 0.39410773 -0.0711338 -0.25020024 -0.035644602
-0.44123793 -0.03168905 0.39771503 -0.09821239 0.46477816 0.26250958 0.16534762 0.62499446
0.07849438 0.41182834 0.6447225 0.6179959 -0.24333453 0.3684044 0.391974 -0.011594003
0.4494359 0.46171278 -0.04116752 0.12113034 0.48026899 -0.17370366 0.17848004 0.45577002
0.058735333 0.08936684 0.29050273 -0.19242823 0.24320623 0.4220104 -0.38927993 -0.567975
-0.45262226 -0.29165888 -0.86129904 -0.9837219 -0.3035685 -0.092749536 -0.21629861 0.19730191
-0.108420104 -0.42026022 0.0026833168 -0.023779778 -0.37340543 -0.19217151 -0.23099771 0.012593398
-0.35491717 0.083894424 0.11741864 -0.06596706 0.036878332 -0.2438694 -0.113853924 0.045898926
0.0119659 -0.64054203 0.18203738 -0.17875512 -0.44360277 0.14564565 -0.296334 0.16833036
0.010930685 0.04479985 -0.10860475 0.2074521 -0.010492814 -0.20804226 0.13721688 0.13297783
-0.29069805 -0.18988736 0.06911942 -0.43942297 -0.2394265 0.0022893276 -0.5133111 -0.26321045
-0.2741908 -0.14267263 -0.26826695 0.013283066 -0.056719866 -0.23584569 0.009355973 -0.21068923
-0.15878688 -0.2146601 -0.14861454 -0.04211401 -0.05938301 -0.41674042 0.17751577 -0.10369466
-0.6201067 -0.29977503 -0.046706956 -0.14160937 -0.18619427 -0.07752014 -0.17000839 -0.17104904
0.028879507 -0.28222698 -0.42535394 -0.100957975 -0.31061426 0.012637936 0.36786956 -0.50803846
0.10067491 0.18514828 -0.34702775 -0.03813241 0.01051127 0.027216014 -0.0130501585 0.21684265
0.10172569 -0.16906254 -0.08548774 0.12585118 -0.13653298 -0.24178095 -0.30958733 0.16402915
-0.012423946 -0.4950941 -0.16287176 0.11132259 -0.35886782 -0.25839567 -0.044403996 -0.016178336
0.020028755 0.1256162 0.023000227 0.09403474 0.30429402 0.0806178 0.21598898 0.15169336
-0.1040855 -0.28349027 -0.18864556 0.04497724 -0.093199104 0.007167881 -0.5421957 -0.1830314
-0.0201188 -0.19141035 -0.11430533 -0.060884308 -0.026549552 -0.22841915 -0.50122714 -0.5763771
-0.2807694 -0.5550021 -0.15638003 -0.17089097 -0.14649172 -0.311219 -0.21176471 -0.44319624
-0.09831893 -0.29631585 -0.7301976 -0.28160265 -0.24673046 -0.27074867 -0.54993373 -0.18551223
-0.21992885 -0.49711233 -0.35808906 -0.17760694 0.34143233 0.010676494 -0.31610593 -0.26311657

gconvs.2.weight f4 [10, 10, 4, 3, 3]
00000000: 99ae 483e 2ab9 c03e 878b 55bc 04f4 a1bd
00000010: 4805 23bc 07f6 c4be a740 ab3d 110f 2a3e
00000020: 33e1 03be 7be1 f6be c6c5 dfbd 306c 773e
00000030: 622b c4be c937 10be cc79 35be 3a20 3f3d
00000040: 65f6 a6bd 3694 60be 9bce 85bd d568 00be
00000050: 3196 25bf 9244 323d 19a9 823e 8fc2 a3be
00000060: b08d 3cbe dbd3 5dbe ee34 4cbf 61c5 723e
00000070: c5b9 283e 7e12 dabd 9ea3 183f 763f b33d
00000080: e3e3 e4bd e13a c13e f966 0cbe 3483 b6be
00000090: 5b05 f0bc 5e5e 44be 5b48 6d3e 440f 9ebd
000000a0: 1052 adbd 4181 a0be 36b6 b4bd 50de c1bd
000000b0: f350 aabe 29fc b53d e312 86bb ea07 783c
000000c0: b92a 9e3d 0b46 acbc e7b3 f93d be3d 103c
000000d0: e017 00be b78b 993d 6987 923d 4065 0d3e
000000e0: 02c2 4f3e 0503 77be 6027 0bbe ce80 0c3e
000000f0: 9b20 c5be 8124 9bbe 9f4d f53d 35d9 fc3e
00000100: f887 85bd 5f7a 11be a1c1 c53e 5880 9a3b
00000110: 93c8 85be 5cb5 3b3e 9575 d0bd ab37 d2be
00000120: 73f3 4f3e 07d1 203d 6453 acbd 3ba1 c9bb
00000130: 71eb 38bd 2d89 47be ff5d 94be 3bca a4be
00000140: 205b d6be bf26 6dbe 63a0 40be b454 babe
00000150: a71d 0a3e 4413 3d3a d12c cdbe 1b52 823d
00000160: 43d8 03be 6439 a4be 45bb bfbc 59cb 67be
00000170: 4571 48be 1c0e 5cbd 1dda 37be d65c 983d
00000180: 78b6 f2bd 2421 01be 067a e4bc 16b1 263c
00000190: b2f4 283c ebce 2dbd 117e 3abe c91c 8dbe
000001a0: 2ac7 28ba 6c0f 09be 7bc9 d33d 486f 8a3e
000001b0: 78f8 a53d acdb 833d f40d 3fbe 2551 67ba
000001c0: e435 26bd d171 b9be 182d 09be c4d6 e4bd
000001d0: 1788 99be 0bcd b3be fca5 69be 71de 88be
000001e0: be4d 5dbe 1dc1 93bd 06e7 46be 4d8b 4fbe
000001f0: b726 4f3d 0953 113d 8b45 dd3e 930e a63d
00000200: 0cf1 533e 4dbe ba3e 5105 e0bc 7962 163e
00000210: d9dd 38bc b9b9 29bd dcf3 5fbc 44bf 0a3e
00000220: 74ef 583d 326b 1a3e 0b4e 983b b9ee 723d
00000230: 5412 223e b2cd b0bb e0f5 edbd d577 6fbd
00000240: ccfd 03bf fabc 10bf 990c 0abe e63e c3bd
00000250: f4f1 353e ea7f 873e 7f47 fa3d fdeb 113e
00000260: e963 8b3c f54d cabd 13fe 783e 80d8 703e
00000270: 94c0 0dbe 77eb 21be 8e4b 7e3e e7bf 05be
00000280: e005 a1be f843 8dbe 0df5 863e 3e41 f53d
00000290: 882f 1bbd e021 033c dbea a6bb 212b 0e3e
000002a0: 9ab9 8cbd 7f53 f73d 4cbd bb3e 33a8 613d
000002b0: aa2e 093e 2c90 8f3e d1bc 55be 9297 d2bd
000002c0: 4c2c c83d e1fd 34be 2f9c b1be 56b9 31be
000002d0: e3b3 2b3e 0ffb 253e fb25 973e ddef 9d3d
000002e0: c2d5 a9bc a804 893d 2b4b c03c 0747 02bd
000002f0: 71ac 623e 6d76 e7be eeb7 97bc 2252 833c
00000300: 140a 6bbe 07d0 bcbd db30 1b3d 41db 1dbd
00000310: f3e1 28be ade4 debd 58d7 6c3e cc0f c63c
00000320: 3382 f93b 2ef3 e83d 5dbc 34bc b568 0abe
00000330: f66d fa3c a86e 153d 8715 06bc b23a c7bd
00000340: 935c 93be a9f0 1cbe f027 36be 7eab cbbd
00000350: a8f4 74bd 47a3 07be 2dcf 243d 2ee6 783c
00000360: a66e 97be 97af 88be 83ec e9be cc3e ccbc
00000370: 0660 45bd 87a4 7ebe 411b d73c e186 90bc
00000380: 5de1 22bc 974e d9bd 6b02 64be 8b6d 3abe
00000390: d40c e73a 9d8e 803c 9a6e 043e d9dc 073e
000003a0: 1beb 853e 23ff e43e 4d85 8d3e d88f 403e
000003b0: 0704 af3d ca19 07bc 3169 b1bd 7ea9 aa3b
000003c0: 6f5f c5bc 138d 5cbc 7613 a93d 88e4 46be
000003d0: fcec 073c 09da f73d 1cc5 6ebe 2b97 37bc
000003e0: 406e 353e 2b7e 90be 17b3 3ebd ddf9 43bd
000003f0: a2a4 a5be 5827 0bbe 798e 0dbd f9fd 8a3d
0.19597854 0.3764127 -0.013033754 -0.079078704 -0.00994999 -0.38468954 0.08361941 0.1660731
-0.12878875 -0.48218903 -0.10926394 0.24162364 -0.38314348 -0.1408378 -0.17722243 0.046661593
-0.08152465 -0.21931538 -0.065335475 -0.1253999 -0.646823 0.043522425 0.25519636 -0.31984374
-0.18413424 -0.21662848 -0.79768264 0.23708107 0.16477115 -0.10648058 0.5962466 0.087523386
-0.111762784 0.37740234 -0.13711156 -0.35646975 -0.029299429 -0.19176623 0.23172133 -0.077177554
-0.08462918 -0.31348613 -0.088238165 -0.09466231 -0.33264884 0.08885986 -0.004091607 0.015138606
0.077229924 -0.021029493 0.12192517 0.008803783 -0.12509108 0.074973516 0.07154734 0.13808155
0.20288852 -0.24122246 -0.13589239 0.1372101 -0.38501438 -0.30301288 0.11977696 0.49384466
-0.065200746 -0.14206837 0.3862429 0.004715007 -0.26129588 0.18330902 -0.10178677 -0.41058096
0.20307712 0.039261844 -0.08414343 -0.0061532534 -0.04514641 -0.19485922 -0.28977963 -0.3218554
-0.41866398 -0.23159312 -0.18811183 -0.36392748 0.13487874 0.00072126486 -0.40073255 0.063633166
-0.12875466 -0.32075036 -0.023404727 -0.22636165 -0.19574459 -0.053724393 -0.17954297 0.07439582
-0.118512094 -0.12610298 -0.027890217 0.0101740565 0.010312246 -0.04243366 -0.18212153 -0.27561024
-0.0006438369 -0.13384789 0.10341164 0.27038026 0.08104032 0.064383835 -0.18657666 -0.0008824042
-0.040578738 -0.36219648 -0.13396108 -0.11173776 -0.2998664 -0.35117373 -0.22817224 -0.2673221
-0.21611688 -0.07214568 -0.19424066 -0.20267983 0.05057403 0.03547958 0.4321712 0.081082486
0.20697421 0.36473313 -0.027346285 0.14686002 -0.011283361 -0.041436885 -0.01366898 0.13549525
0.052962735 0.15079954 0.0046479753 0.059309695 0.15827304 -0.0053956145 -0.116191626 -0.05846389
-0.5155914 -0.56538355 -0.13481368 -0.09533481 0.17768079 0.26464778 0.12220668 0.14250179
0.017015414 -0.098781504 0.24315672 0.23520088 -0.13842994 -0.15812479 0.2483351 -0.13061486
-0.31449795 -0.2759092 0.26358834 0.119753346 -0.037887126 0.008003682 -0.005093915 0.1388364
-0.06871338 0.120764725 0.3666786 0.055092048 0.13396707 0.28039682 -0.20872809 -0.10282816
0.09774074 -0.17674972 -0.3468947 -0.17355856 0.1676784 0.16209053 0.29521164 0.07711766
-0.02073181 0.06690341 0.023473343 -0.03180602 0.22136094 -0.4520754 -0.018520322 0.016030375
-0.22953063 -0.092193656 0.03788839 -0.038539175 -0.16492443 -0.1088346 0.23129022 0.024177454
0.007614398 0.11374508 -0.011031237 -0.13516505 0.030570012 0.036482483 -0.008183843 -0.09727992
-0.28781566 -0.1532618 -0.17788672 -0.09944819 -0.059803635 -0.13245879 0.04023664 0.015191598
-0.29576606 -0.26696464 -0.45688257 -0.024932288 -0.04818728 -0.2486745 0.026258113 -0.01764244
-0.009941426 -0.10610693 -0.22266547 -0.1820585 0.0017627724 0.015693003 0.12932816 0.1326784
0.26155934 0.44725904 0.27640763 0.18804872 0.0854569 -0.008245895 -0.08662642 0.0052081933
-0.024093358 -0.013461369 0.08255665 -0.19423115 0.008296248 0.12102134 -0.23317379 -0.011205475
0.17717838 -0.2822126 -0.046557512 -0.04784571 -0.32352167 -0.13589227 -0.0345597 0.06786723

gconvs.3.weight f4 [10, 10, 4, 3, 3]
00000000: 16a6 6a3e aa20 cfbc 2b7d 043e 6198 083e
00000010: 3799 4fbd 8ace 893d ed01 5fbc 4f5a e7bd
00000020: b713 adbd 8c34 7cbe 69ce 9ebe 89f7 fabd
00000030: 021a 97be 46a7 793d cfc6 103c 4d8e 313d
00000040: fe4d f13d d93b 553e 6b4b da3c b114 913d
00000050: f81e dabb 09e6 1d3e 7e52 5fbd 1ee1 343c
00000060: c16f 6fbe 9fab 8fbe d701 ebbe c9e2 9c3d
00000070: aa19 993e 840a a23d e017 4aba e634 19be
00000080: 2554 a0bd 3e7e 9dbe e5f3 bebe 658b 7cbe
00000090: 7f2b 643d 1157 e9bb 3284 f13c 9664 3c3d
000000a0: 0984 57bd 2c70 3e3d ec95 c0bd a9cc 87bd
000000b0: 4a67 5b3c 7df1 abbd fb32 d0bd af1f a93c
000000c0: 6dfd 8cbc 3ee6 c83c 5648 a5bd 0425 a0bd
000000d0: 242f a9bd 201e 923d 3c85 0fbd 9762 c23d
000000e0: b91d 2e3d 2057 b8bd 31d0 9cbd 248c 1bbd
000000f0: da4f 4c3d ee79 cc3c 7806 d4bd 39cb 3abe
00000100: 0209 6b3d 826b 843d 8615 5e3d b944 af3d
00000110: 41a1 e03d 6dbb a1bd 408b 17bd 189a aabd
00000120: 9de6 0f3d b4fa 223d 3379 773e c093 02bd
00000130: e558 ce3d 8b3e 0b3e 719d 76be e7ad 3d3d
00000140: 63a3 933e 1a1b 24be b6bb c9bc 417d 413e
00000150: 0095 e9bd 14c2 423e d081 d23d 48dd 2b3e
00000160: 68be 573e d5f9 5a3e 789e 86bd 6d31 8dbd
00000170: 57d6 37be 1424 a4bd 30e1 223e b96f 9d3d
00000180: 6455 873c a3f8 833e dfc4 853d 5dde a5be
00000190: a07c 94be 27a0 c93d 3c3d 81bd 2bfe 3f3d
000001a0: 864b d03d ee44 bbbb d08f 473b 232c 843d
000001b0: 7016 c8bd 145a ae3c 0f56 b2bc 5375 d1bb
000001c0: efc6 ebbd cf68 bfbd 332e e6bd 84d7 17be
000001d0: 200f 45be 31f4 0c3e 4110 96bd 35f8 e2bd
000001e0: ca9d cabd e248 943d f054 a4bd 0948 d63c
000001f0: 8d17 90bd d686 0f3b 7d3b 36bc 4de9 b73d
00000200: a2c7 a63d 05ac f8ba 6cfe 103d 407b 0bbd
00000210: 43c6 40bc dbd3 65be bd8c 61be 0abf 8fbd
00000220: 5902 0bbe 1b0e 83be 3316 0dbe 267e 20be
00000230: 846e 65bd 70be 71bc 3b54 92bd 40f6 283d
00000240: fad1 70bd d7d6 da3d 5a75 88be 0a2a 213e
00000250: 7a29 eebb a917 d7be 81b4 2b3e 5a92 56bd
00000260: e397 43be 6cce e1bd a0c7 a0be b431 87be
00000270: cb6c 533e a641 74bc fab6 44bb eaf2 10bd
00000280: cec1 203d d601 8ebd 7017 5bbd 9d78 353e
00000290: 2b2d 133e 1e8d 0fbe a1de 2ebe a935 13be
000002a0: 248f 8a3c 09d9 66be 3d2c dabe ead4 a4bd
000002b0: cc0e 98be b5cb 43be 2f46 7b3c 3e56 c13b
000002c0: 45a0 c4bc 04f2 aa3d e1bd 453d 820b 243e
000002d0: e3fe 8a3e 172f 263e 4e6d 683e 0973 2bbe
000002e0: 3723 e9bd ab2a 8b3d 79e5 44bd 9ad4 6b3e
000002f0: 033c 853e 136f 25be 470d 0dbe d173 71be
00000300: 4333 523d 10d8 0e3e 1b52 84bb 6253 ad3e
00000310: 14b3 983e 5bce a03d 37fe e9bd 44a8 f23c
00000320: 33ae 113e f6be 41bd 2278 df3d 438a b83c
00000330: 1738 383e 2ec6 823e b4e4 273e e152 163e
00000340: 9212 783d eb59 8e3e f09e 6fbe a1ea 0ebe
00000350: 1847 32be ecc7 353d 9a79 83bd 1961 5b3d
00000360: cc22 353e c50a 7e3e 923a 88be 9158 8cbd
00000370: 0b1a 053d 3966 fabc 81f8 25bf 6d82 11bf
00000380: 0a43 edbe 1584 3abe 5d60 0bbc cdfb dc3c
00000390: ab32 66be 8f4e 853d dc27 9c3d ab3d dbbe
000003a0: 7dd0 143d 52be e5bd 1de9 e8be 1b66 30be
000003b0: f242 44be ee6e 94bd 0a76 bfbb b44f ae3d
000003c0: ec8f 4d3d 62d7 b53d 7b8c f53c 72f3 5dbe
000003d0: a5ff dcbc 93cb 4bbd a626 a23d 0ea8 9abc
000003e0: 231a 9abc fe83 d0be 27fa bdbe 669d b8be
000003f0: 23be 43be d71c fe3d 46a1 953e 0d16 c23d
0.2291492 -0.02528413 0.12938373 0.13339378 -0.050683226 0.06728847 -0.013611299 -0.11296522
-0.08451026 -0.2462942 -0.31016853 -0.12254245 -0.2951203 0.06095054 0.008836462 0.0433486
0.11782454 0.20823611 0.02664729 0.07084025 -0.006656524 0.15419783 -0.05452203 0.01104
-0.23382474 -0.28060624 -0.4589984 0.07660443 0.29902393 0.07912162 -0.0007709246 -0.14961585
-0.07828549 -0.30760378 -0.37295452 -0.2466255 0.055705544 -0.007120975 0.029481981 0.045994364
-0.052616153 0.046493694 -0.09403595 -0.06630833 0.013391325 -0.083956696 -0.10165974 0.02064499
-0.017210687 0.02452385 -0.080704376 -0.0781956 -0.082609445 0.07134652 -0.03503917 0.09491461
0.042508814 -0.09000993 -0.07656897 -0.037975445 0.04988084 0.024960484 -0.10352796 -0.18241586
0.057381637 0.06465818 0.054219745 0.0855803 0.10968257 -0.07897077 -0.036998034 -0.08330172
0.03513204 0.03978987 0.24167328 -0.031879187 0.10075549 0.13598077 -0.24083497 0.046308424
0.28835592 -0.16025963 -0.02462564 0.18895437 -0.114053726 0.19019347 0.10278666 0.16783631
0.21068728 0.21384366 -0.06573194 -0.06894193 -0.17952858 -0.08014694 0.15906215 0.07687325
0.01652021 0.25775632 0.06531691 -0.32396212 -0.2900133 0.09845 -0.06310508 0.046873253
0.10170655 -0.005715004 0.003045071 0.06453731 -0.097699046 0.021283187 -0.021769552 -0.00639216
-0.11512553 -0.093461625 -0.112392806 -0.14828306 -0.19244051 0.13765027 -0.07327319 -0.11082498
-0.09893377 0.07240464 -0.08024013 0.026157396 -0.07035742 0.0021900437 -0.011122582 0.089800455
0.08143546 -0.0018972164 0.035398886 -0.034053087 -0.011766019 -0.22444098 -0.22026344 -0.0701886
-0.13575114 -0.255967 -0.13778 -0.15673122 -0.0560136 -0.0147548765 -0.07144972 0.041250467
-0.058794 0.10685509 -0.26652032 0.15738693 -0.007268128 -0.4201024 0.16768076 -0.052385665
-0.19100909 -0.110257 -0.31402302 -0.26405108 0.2064697 -0.01490823 -0.003001629 -0.03538791
0.039247327 -0.06933944 -0.05348915 0.17721792 0.14372699 -0.14018676 -0.17077114 -0.14375938
0.016913958 -0.2254373 -0.42611876 -0.08048423 -0.2969879 -0.19120677 0.015336557 0.0059001734
-0.024002204 0.08346942 0.048276786 0.16020015 0.27147588 0.16228901 0.22697946 -0.16743101
-0.1138367 0.06795248 -0.048070405 0.2303032 0.26022348 -0.16155653 -0.13774596 -0.23579337
0.05131842 0.13949609 -0.004038108 0.3385268 0.29824126 0.07851859 -0.11425441 0.02962125
0.14226608 -0.047301255 0.109115854 0.022526866 0.17990147 0.25541824 0.16395837 0.14680053
0.060564585 0.27802977 -0.23400474 -0.13956691 -0.17409933 0.044380113 -0.06419678 0.053559396
0.17689055 0.24808796 -0.26607186 -0.0685283 0.03249554 -0.030566322 -0.6483231 -0.5683964
-0.4634021 -0.18214448 -0.0085068615 0.026975537 -0.22480266 0.065091245 0.0762479 -0.42820486
0.036331642 -0.11217941 -0.4549035 -0.1722645 -0.19166163 -0.07247721 -0.005842929 0.08511296
0.050186083 0.08878972 0.029974213 -0.21674898 -0.02697737 -0.04975469 0.07917528 -0.018878963
-0.018811291 -0.40725702 -0.37104914 -0.36057585 -0.191155 0.124078445 0.29224604 0.09476862

gconvs.4.weight f4 [10, 10, 4, 3, 3]
00000000: 435e 25bd d30c fbbc 0ff2 4abd 7ab5 26be
00000010: bda2 7b3c b95e 743b 3165 fbbd 5497 8abd
00000020: ae19 febd c014 b2be 2751 5fbe 1e1e 75be
00000030: 1ef6 93be 11e2 c4bd d4f3 aabc 0098 d1be
00000040: a58f 7fbe d5ad 013e 238b 73bd 7eb7 943d
00000050: 8467 853d b9f6 05be 5300 8cbd 2dcb 81bd
00000060: 631f 57bd 841a 59be 873a d4bd 6a26 0cbd
00000070: f211 843c ca62 113e 05ef a53d ca1d 8a3d
00000080: f9e4 273e bc46 043d 13b7 b73d 2b50 093e
00000090: a19b c1bd 7de6 403d 676a 973c 486e e1bd
000000a0: 0a9e 723d 9516 5abd 0e8c b8bd 3abd 80bd
000000b0: 89c5 a7bb 2b1d 8d3d 6ad6 943d 0808 e6bc
000000c0: cc90 993d a852 14bd d6d4 403c 9251 393d
000000d0: 2f79 81bd 1071 b2bc 4032 47bd 677b 3c3d
000000e0: 222c 8cbc 500d 8dbd 2c34 603d 8f27 c5bb
000000f0: 7820 3abd d95a d1bd 749f 973d 643b b4bd
00000100: bd77 2dbd dbcd a4bc 08ff d9bc 3cb6 d3bd
00000110: 1994 733d c8e4 0fbe 67d3 ba3d 2100 8e3d
00000120: 4431 96be 5ee8 4fbe f226 89be d38d a6bd
00000130: b71d e3bd 22fa 86be d414 20be 1df3 dfbe
00000140: e8d4 abbe a212 a2be 325a 83bc 5ab4 39bc
00000150: f45e f9bb 3e0a 3e3d 9400 963d 8587 c9bd
00000160: 2c2d 983d dd90 25bd a19f d7be aa55 e2be
00000170: 0c14 6fbe 12a7 2cbe a3c3 e9bd 3ae7 1ebe
00000180: c142 08be 2dfd a6bd bd10 25bd 3cdf 2fbe
00000190: 1ac5 823c 5baa 833e d2b1 8abe 7136 adbc
000001a0: 96f3 40bc 8815 40be c332 9abd 978c 22be
000001b0: 813f 2cbd acf8 a1bd 7d53 543d 35bd 6c3e
000001c0: 9f4d f4bc 8ec2 953c c8ed 933e 93a6 fa3d
000001d0: 9218 efbd 4e1d 74be a55c 85be 13dc acbe
000001e0: c9ea 95be e89a babe 82f4 cfbe 926f dfbe
000001f0: 8632 cdbe 2f2f 4ebe 547b 643d a7ce c03d
00000200: c2e3 0a3e 2e79 073e 8c53 c13e 4e2a 8f3e
00000210: eabd 533e f1f3 963e c664 953e 8bde 85be
00000220: 4ba2 03be ed96 2abe b80e 5ebc df04 94be
00000230: 7b9e 37be 082e 663e ae4d 5bbd 3b7a 17bd
00000240: 279b 16be d602 65bd 2edd 1abd ff51 803d
00000250: 709b 313e 157c 253e adf3 a83d 765a 6f3e
00000260: 913d 2f3e 9c7a 4e3c 79de c43d 684b c83d
00000270: 025b a23e 76b5 4d3e 6019 cd3e 7c60 943e
00000280: 8d69 b93d ea06 1b3e 4123 0cbe b1f4 b7bd
00000290: fe2d c7bd 22af ccbd 9a6b 99bd f00c cdbb
000002a0: 23e5 16bd 7a10 ac3d ad75 e03c e2ad 713d
000002b0: 0066 323d f6eb 313d 91c8 773e a9f3 a93d
000002c0: e482 233e 8613 f73c 97ac 2f3d 6f18 35be
000002d0: f244 a83c 6449 a13d 36ef 3d3e 1e04 5f3d
000002e0: 987d 9cbd 286b 3ebe be04 a8bc e8c4 573d
000002f0: b4e7 633d 5416 2a3e 39b2 8ebd db9a 78bd
00000300: 0da0 0d3d 3145 dbbc e911 04be 8e8b 1f3d
00000310: 0af2 fabc a937 57be 6b50 52be 184c 87bd
00000320: d924 85bd 8dd7 8ebd 2f90 28bd 5ee7 853d
00000330: 14be 45bb 956d b5bd a3d6 6cbd 03f0 acbe
00000340: a796 81be 5711 123c f907 6abe 82db c9be
00000350: 9a53 01be 84ff 6fbc 4b2b 65bd 7c75 e2bd
00000360: 77d8 aa3d db79 893e 7f4b 873e ac70 aa3d
00000370: 5f1d 8fbc 0c18 acbd 190a 403e c535 c6bd
00000380: aec7 cabd 3243 a9bd 54b7 583e 0b5d a03e
00000390: 61da 5a3e 2335 5e3e e879 ac3e ee55 303e
000003a0: 5c65 b33d e32d 5e3e 9fbc 613e 0951 8b3e
000003b0: b79c b23e f906 ac3c 0629 b33c 2af0 edbc
000003c0: 7bf0 993d d104 29bd 3fc8 f2bd 24e5 0a3f
000003d0: c245 383f 4538 f83e 423f be3e 6f0b 0d3e
000003e0: e92c 153d 6734 703e 5ff4 14be 9f36 84be
000003f0: 70eb 67be 7e4a af3d 29d1 c43d 3850 4ebe
-0.040373098 -0.030645764 -0.04954725 -0.16280165 0.015358624 0.0037287904 -0.1227516 -0.06767145
-0.12407242 -0.34781456 -0.21808301 -0.2393727 -0.2889871 -0.09613431 -0.02086822 -0.4093628
-0.2495714 0.12663968 -0.059458863 0.07261561 0.06513885 -0.13082398 -0.06835999 -0.06337581
-0.052520167 -0.21201521 -0.10362726 -0.034216322 0.016121838 0.14197841 0.0810223 0.06743963
0.1639594 0.03229402 0.089704655 0.13409488 -0.09453512 0.04709481 0.018483354 -0.110073626
0.05923275 -0.053244192 -0.09011088 -0.06286092 -0.0051199836 0.06890329 0.07267459 -0.028080001
0.07498321 -0.03621164 0.011769494 0.045243807 -0.06321942 -0.021782428 -0.048631907 0.046016123
-0.017110888 -0.06887305 0.054737255 -0.0060166786 -0.04544112 -0.10222406 0.0740346 -0.0880039
-0.04235052 -0.02011769 -0.026610866 -0.10337493 0.05946741 -0.14052117 0.09122353 0.06933618
-0.29334462 -0.20303485 -0.26787525 -0.081325196 -0.11089652 -0.2636271 -0.15632945 -0.43740168
-0.33560872 -0.3165484 -0.01603422 -0.011334503 -0.0076101962 0.046396486 0.07324329 -0.098403014
0.07430491 -0.040421356 -0.42113975 -0.44205981 -0.23347491 -0.16860607 -0.11414268 -0.15517893
-0.13306715 -0.08153758 -0.040299166 -0.17175001 0.015963126 0.25715908 -0.2708879 -0.021144124
-0.011776825 -0.18758214 -0.07529213 -0.15873943 -0.04205275 -0.079087585 0.051837433 0.23119052
-0.029822169 0.018281247 0.2889235 0.12238803 -0.11674608 -0.23839304 -0.26047245 -0.33761653
-0.2928069 -0.3644631 -0.40616232 -0.4363981 -0.4007761 -0.20135187 0.055781677 0.09414416
0.13563445 0.1322982 0.37759054 0.27961963 0.20677915 0.29482988 0.29178447 -0.2614635
-0.12854879 -0.16659136 -0.013553314 -0.28909966 -0.17931549 0.22478497 -0.053540878 -0.036981802
-0.14707623 -0.055910908 -0.03780859 0.062656395 0.17344451 0.16160615 0.082496025 0.23374352
0.1711333 0.012602475 0.09612746 0.097800076 0.31710058 0.20088753 0.40058422 0.28979862
0.09053335 0.15139356 -0.13685323 -0.08982218 -0.09725569 -0.099943414 -0.074912265 -0.006257646
-0.036839616 0.0840158 0.027399862 0.05900372 0.043554306 0.04343792 0.24197604 0.082984276
0.159679 0.030160677 0.042889204 -0.17685102 0.020540688 0.07875326 0.18548283 0.054447286
-0.076411426 -0.18595564 -0.020510074 0.05267802 0.05564089 0.1661008 -0.06967587 -0.060694557
0.034576464 -0.026766391 -0.12897457 0.03895145 -0.030632991 -0.21017326 -0.2053849 -0.066063106
-0.06501169 -0.06974707 -0.04115313 0.065382704 -0.003017311 -0.08858792 -0.05782188 -0.33776864
-0.2531025 0.008915267 -0.22854604 -0.39425284 -0.12629548 -0.014648322 -0.05594949 -0.110575646
0.08342069 0.2685078 0.26424786 0.08322272 -0.01747006 -0.08403024 0.18753852 -0.096782245
-0.09901367 -0.082647696 0.21163684 0.31320986 0.21372367 0.21699958 0.33686757 0.1722028
0.08759567 0.21697192 0.2204461 0.27210262 0.3488519 0.020999419 0.021870147 -0.029045183
0.07516571 -0.04126436 -0.118546 0.5425589 0.7198144 0.4848043 0.37157637 0.13773893
0.036419783 0.2345749 -0.14546345 -0.25822923 -0.22648406 0.0855913 0.09610207 -0.20147789

gconvs.5.weight f4 [10, 10, 4, 3, 3]
00000000: 728c 9b3d 685c 6dbd eb79 0dbe a17d 89bd
00000010: 0453 bc3c b6fa febd 7ad9 b4be e89a 2abe
00000020: e18f 39be fa63 643d 9d4b 313d 20da 10be
00000030: a203 863d 6644 0abc f485 c2bd 68fe eebd
00000040: 93eb 12be 1e50 94be 81d8 3dbd 5a81 cfbd
00000050: 10e3 05be 7022 a5bd 3427 c9bd 0958 babd
00000060: c104 05bd cfa4 90be fe10 73be 4cd2 55be
00000070: b158 b4be c04b f1bd e0ed e6bd ee12 87be
00000080: b422 89be 5d33 6ebe 2cfa d9be 1a41 2cbe
00000090: 62c9 b3be 2455 e7bd 40b1 363c e3cc d83b
000000a0: 887a e4bc e7fa 94bd 3dcf 643d a0a8 f23d
000000b0: d730 61bd baae 3cbf ff1a 0cbe b1d8 7e3c
000000c0: 0bfb c3be 820e 92ba 80f7 153e 79b9 c33d
000000d0: d323 3b3e 4058 703e ab69 00be 4b85 8fbe
000000e0: 688c e4be 690a df3d 2a5f 35be ec79 b0be
000000f0: 8921 80bd 2e93 12be bee2 c1be 15af 283e
00000100: dac5 c3bd de12 11be 0810 283e fab8 99bb
00000110: ec7f cebd 7ac4 bd3e e86a 463e 63e3 913d
00000120: d235 11bc f965 8a3d b57f 6d3e 0b5b b73c
00000130: 6e68 0a3e 3446 483e aae5 9d3e bf1d 9a3e
00000140: ac04 a73e e35b 313d d5c3 29bc 12e2 13be
00000150: 03a6 9cbd 3083 09be 4615 00be eb87 5ebe
00000160: 91cc 45be e227 74be 153c 81be 2407 0ebe
00000170: 0500 e9bb a7b3 fdbd 7650 b7bd 9afa 17be
00000180: 9156 22be 6ce5 08be 440f eabd b971 aabe
00000190: 11fb c8bc 0cce ad3d f4d9 2abe 9d7a d63d
000001a0: b22a 23bd 5135 11be 7679 103d 6538 aa3c
000001b0: 07b9 c43c 7e1a 9c3d 3f81 a7bc bb65 41bd
000001c0: 15f3 c03d 94dd a5be 3697 46be 45da a5be
000001d0: 4110 edbe 1010 5fbe 2dd9 3bbe c116 693d
000001e0: 236c 01bd 3aed f9bd 7274 893e 96cf 9dbe
000001f0: 884f acbd 7613 2e3e 63e7 d6be 68f1 70be
00000200: f71e 69be 6f39 63be d6d2 a2be 15c4 b5be
00000210: 495d 98be 8e62 c9be 8f74 fbbe 7a97 30bf
00000220: f642 d7be 0f6c dcbd dbb1 cebe 0796 23bc
00000230: ec1d 2a3d 63c0 133d e8c2 e53c a97a 48be
00000240: 8629 88bc ea07 c33a 431f f43d b5df 6cbe
00000250: fd44 4abd f372 253e 9db6 3abe c7b8 3cbd
00000260: 8527 523e 9d01 3fbe 0726 50be 03f0 f7bd
00000270: d7dc 49be ae57 83bd 3825 53be 71e9 b7be
00000280: bd10 4ebe 9680 3dbe 8934 d53d b76a 79be
00000290: 0a4d a7be cb62 c53c b733 13bd 1b75 5abe
000002a0: b8b4 5e3d 52fb 3dbd 0f62 2fbe bef5 9a3e
000002b0: 1d76 adbc f0a5 58be 35ac a23e 67c6 7cbd
000002c0: bf41 a3bb 1e03 533e a339 0f3c 1093 74bd
000002d0: 270b 1abf 51fd f1be daf1 a1be c66a 02bf
000002e0: 7fa4 98be 409b 0bbe 90b8 ddbe 0d6a 00bf
000002f0: c06d 26be aaf9 3f3d ead6 213c 673e 3abe
00000300: 66e9 83bd 6903 88bd e21e 6abe 0e05 d2be
00000310: 9485 80bd 0231 0e3c 5272 ddbe a624 97be
00000320: 8830 48be d2e0 a8be 289f 2abe 87e5 8cbd
00000330: 27d0 aabe 1c77 78be aa8b 9e3a 6819 cabe
00000340: d1a0 71be 8589 89be 48db d6be de71 5fbe
00000350: ddb7 96be 261e 0fbf 8a35 80be b616 4fbe
00000360: 553e 1cbe e431 81be 48cd 61be 9ac0 53be
00000370: 48a5 3dbe 7324 25be 13ef efbd 12a6 f5bd
00000380: 32d0 9c3d b380 abbe 0e96 f8bd d8e5 103d
00000390: 2f2c 8dbe 4504 203d fd2e b93d e2e4 91bd
000003a0: 2ef1 a43d 1a50 88bd 1af8 04be c7da 093d
000003b0: d65f ca3d 5120 e03d 1907 a83d 1108 e13d
000003c0: 4983 ab3e 153f 8a3e 8f3d cb3d 5b90 ee3b
000003d0: b08a 4cbe f18a 5abd 3aaa 2abe 5bef 62bd
000003e0: 5a65 093d dfbd cabd e518 533d 0335 e43b
000003f0: d5f2 2e3e c540 f53d 603c 67be be10 e3bd
0.07595147 -0.057949454 -0.1381604 -0.06713415 0.022988804 -0.12450163 -0.3532217 -0.16660655
-0.18121292 0.055759408 0.043285 -0.14145708 0.06543662 -0.008439159 -0.09498206 -0.11669618
-0.14347677 -0.28967375 -0.046349052 -0.10132094 -0.13074899 -0.08063209 -0.098219305 -0.090988226
-0.032475237 -0.2825074 -0.23736951 -0.20881003 -0.35223916 -0.11782026 -0.1127584 -0.2638163
-0.2678429 -0.23261781 -0.42573678 -0.1682171 -0.3511458 -0.11295536 0.011150658 0.0066162213
-0.027890459 -0.07274418 0.0558617 0.11848569 -0.054978218 -0.7370411 -0.13682173 0.015554593
-0.38277468 -0.001114324 0.14645195 0.095568605 0.18275385 0.23471165 -0.12540309 -0.28031382
-0.4463837 0.108906575 -0.17712083 -0.3446802 -0.06256396 -0.14313957 -0.37868303 0.16473038
-0.095592216 -0.14167354 0.16412365 -0.0046912404 -0.10082993 0.37063962 0.19376719 0.07123449
-0.008862929 0.06757731 0.23193248 0.02238228 0.135164 0.1955803 0.30839282 0.3010082
0.32620752 0.04330052 -0.010361631 -0.14441708 -0.07648852 -0.1342895 -0.12508115 -0.21731536
-0.19316317 -0.23843339 -0.2524115 -0.13869911 -0.007110598 -0.123877816 -0.089508936 -0.1484169
-0.15853335 -0.13368767 -0.11428693 -0.33289889 -0.02453378 0.08486566 -0.16684705 0.104726054
-0.03983564 -0.14180495 0.035272084 0.020778844 0.02401401 0.076222405 -0.020447372 -0.04721616
0.09421364 -0.32395613 -0.1939362 -0.3239309 -0.46301463 -0.21783471 -0.18344565 0.056906465
-0.031597268 -0.122034505 0.26846653 -0.30822438 -0.08413607 0.16999611 -0.4197341 -0.23529589
-0.22765718 -0.22189878 -0.3180148 -0.3550116 -0.2975867 -0.39333004 -0.49112365 -0.68981135
-0.42043275 -0.10762798 -0.40370068 -0.0099845 0.041532442 0.036072146 0.02804704 -0.19578041
-0.016621362 0.0014879678 0.11920025 -0.23132212 -0.0493822 0.16157131 -0.18233724 -0.046074655
0.20522888 -0.18652959 -0.20327006 -0.121063255 -0.1971315 -0.06413208 -0.20619667 -0.3592029
-0.20123573 -0.18506083 0.10410411 -0.24357115 -0.32675964 0.02409496 -0.03593799 -0.21333735
0.054371566 -0.046382256 -0.1712725 0.3026561 -0.021174485 -0.2115705 0.3177201 -0.06171265
-0.004982203 0.20606658 0.008741769 -0.059710562 -0.6017327 -0.47263578 -0.3162983 -0.50944173
-0.29813 -0.13633442 -0.43304873 -0.5016182 -0.16252804 0.046868958 0.0098779 -0.18187867
-0.064410016 -0.066412754 -0.22863343 -0.4101948 -0.06275478 0.008678677 -0.43251282 -0.29520148
-0.19549763 -0.32984024 -0.16662276 -0.06879716 -0.33361933 -0.24264187 0.0012096066 -0.39472508
-0.23596503 -0.26862732 -0.41964173 -0.2182078 -0.29437152 -0.5590538 -0.25040847 -0.20223507
-0.15258153 -0.25233376 -0.22050965 -0.2067894 -0.18520081 -0.16127186 -0.11715522 -0.11994566
0.076568976 -0.33496627 -0.12137996 0.035375446 -0.27572772 0.03906657 0.090421654 -0.07123734
0.08053814 -0.06655903 -0.12985268 0.033655908 0.098815605 0.10943664 0.08204479 0.10987867
0.334986 0.27001253 0.09923851 0.007280392 -0.1997478 -0.05335516 -0.16666499 -0.05540405
0.033543922 -0.09899496 0.051537413 0.0069643273 0.1708482 0.119752444 -0.22581625 -0.11087178

final_layer.weight f4 [10, 10, 4, 3, 3]
00000000: 16cd 58be 9597 57be 8f8e 72be 20a5 a3be
00000010: 43e7 31be befc 47be a477 5bbe 13f3 88be
00000020: f859 42be f906 ebbd a0dd 9dbe b75f 80be
00000030: 9fba 89be 781a a0be b075 33be ce5c 7abe
00000040: abc0 f2bd 1b16 94be 6f11 f6bd daad 27be
00000050: 7b03 ffbd 770a 9ebe 2edb 1cbe 393f 31be
00000060: cb1e 7bbe 43ff 07be 57a7 5bbe b98a 72be
00000070: 52a6 46be e4b3 04be 2b2a 0abe 42c1 6fbe
00000080: 804b 0ebe 61cf 9cbe 7c18 fabd f6d7 9fbe
00000090: bc4e fe3c 2de0 b23d 0a19 d0bd 4a07 ae3d
000000a0: 3b6f bdbd 2002 18bc ee84 853d ba23 683d
000000b0: bec9 f3bd 8516 d9bd 2cb2 d7b8 e466 66bd
000000c0: 9aa4 80bd 86ee adbd 6892 723c 3143 94bd
000000d0: f8e3 05bd b74e bfbd f8b0 8a3c c2b8 bbbd
000000e0: 6aea d2bc 2640 dabd f430 a9bd 84fe 163c
000000f0: 7d2e 9c3d a7bb d5bd 32be e8bd ac76 a8bd
00000100: 0c10 6ebd baa2 03bd 489f b83c 6964 5fbd
00000110: 234b b93d 47d8 e3bd b0ca 5fbc e247 e7bd
00000120: b6fc 54be ad18 11be 987a e3bd 2bdc 3cbe
00000130: f17d 52be 55c3 a2bd aded 24be 73be 1bbe
00000140: 2b44 0bbe 9f09 b6bd b6d5 f2bc 0a7f 52be
00000150: 7f1c a1bd e1cc 63bd 0cee 11be dc44 c2bd
00000160: 810c a9bc d052 29be f618 07be caff 39be
00000170: 4f4b 25be 3248 8fbd a82f 09be 400c 45be
00000180: 3793 03be 4670 4abe 4099 fdbd 425e 90bc
00000190: 7f60 ddbc c162 84bc 72b7 d6bd 0671 babd
000001a0: 6fea febd 91e0 50be ab8e 21be da45 55be
000001b0: 5f1f e6be 558d ddbe 1d32 b2be 667a e1be
000001c0: 0927 93be 0412 9ebe 10d2 a6be 5a64 e6be
000001d0: 4ad7 ddbe 5bbf f4be 3e12 cabe 93a8 debe
000001e0: 6089 f8be 713d 8dbe c702 acbe ccbf f4be
000001f0: b36b dfbe d286 ddbe 2ce3 b9be c269 debe
00000200: 7335 e1be bdf6 c4be ba54 b7be 4225 a5be
00000210: 7f4c c5be 8cf9 dfbe 8177 c8be 84f4 cbbe
00000220: 483d e4be 16d7 e2be 2eb0 aabe e8a9 b2be
00000230: 43c7 fbbe f93e c9be fdb3 eebe 85c5 d0be
00000240: 2d67 94bc e61b 923d 5b47 f33c 6f37 ca3d
00000250: 4ad7 7e3d 7587 e93d ea1a 6fbb 2dbe 1d3e
00000260: f288 fd3b 3f98 e33d 6a1e d4bb c424 94bb
00000270: 9921 353e a2e7 c33c 7272 393e 799d 5d3d
00000280: 1e62 d73c bf99 023e f831 ff3d ad11 ab3d
00000290: b37f 443e af4e 073d 9d04 173e fac9 033d
000002a0: 7577 2b3e b155 603d 8ce2 8b3b 4265 593d
000002b0: 4d0f 363e c23b 9c3d cebc 8e3d 9319 803d
000002c0: b7ab c93d 8e7e 3c3c dff1 223e 0698 293e
000002d0: 8b67 8abd a46d 753d 9b7d c53d 3a24 a93d
000002e0: 993b 34bd 61fa 813d 8ad5 303b 16b0 053e
000002f0: db15 94bc 07f4 9abd 2ae4 bb3d 40e7 083d
00000300: ad6a aabc 3cb1 923c 208d d6bc 0302 8abc
00000310: d579 ed3b ccbe 5cbd bd86 363d d0ec 093d
00000320: 63c1 c4bc 8c52 bd3d 3d88 df3d ff3c 1cbd
00000330: adcf be3d 79a0 173d 5e31 473c d4f1 a43d
00000340: 7e6f 1a3d ddec 623d ed2b d8bc f1e0 d7ba
00000350: 652f 633a a58f b63c 141d a43c a762 65bd
00000360: 7edf 72bd 9274 423b be11 09bd 82f3 023d
00000370: c199 79bd 8dfd 923d 43de 963b 9bc4 a0bd
00000380: 1626 6e3d 8f8c b43d c2ab d53b c978 433d
00000390: e3c8 25bd 513d 0fbd a8a3 293d 0f5e edbd
000003a0: 2f96 8dbc b49f ebbd 964c 9d3d 13f6 14bd
000003b0: 2c8e 8f3d dec7 acbd 2bcf 313d 40ea babd
000003c0: 3618 54bc 0b8f b73c 3dc8 88bd b995 9f3d
000003d0: 77e0 433c 2cbf 8ebd 1968 a53d 8fc6 883d
000003e0: c662 e8bd 4989 343d 9242 08bd e61a 673d
000003f0: 71f8 de3e 9ff6 013f dcca d53e 8d37 f23e
-0.21171984 -0.21053918 -0.23687194 -0.31961918 -0.17373376 -0.19530007 -0.21432358 -0.2674795
-0.18979633 -0.11475939 -0.3083315 -0.25073025 -0.26900193 -0.31270194 -0.17525363 -0.24449465
-0.11853155 -0.28923115 -0.12015044 -0.16374913 -0.12451836 -0.3086736 -0.15317985 -0.17309274
-0.24523465 -0.13280968 -0.21450554 -0.23685731 -0.19399384 -0.12959248 -0.13492648 -0.23413566
-0.13895988 -0.30626968 -0.12211701 -0.31219453 0.031043403 0.087341644 -0.10161026 0.08497484
-0.09249731 -0.00927785 0.06519495 0.056674697 -0.11903714 -0.105999984 -0.00010285186 -0.056250468
-0.06281395 -0.0849276 0.014805414 -0.07239378 -0.03268811 -0.093411855 0.016930088 -0.09166099
-0.025746543 -0.106567666 -0.0826129 0.009215955 0.076260544 -0.104361825 -0.11364402 -0.0822576
-0.058120772 -0.03213761 0.022536889 -0.054539118 0.09047534 -0.11125236 -0.013659164 -0.112930074
-0.20799527 -0.1416957 -0.11107367 -0.18443362 -0.20555855 -0.07947413 -0.16106291 -0.1520937
-0.13600223 -0.08888554 -0.029642921 -0.20556274 -0.07866763 -0.05561531 -0.14250964 -0.0948579
-0.020635845 -0.16535497 -0.13193116 -0.18163982 -0.16142009 -0.06996192 -0.13397086 -0.19242954
-0.12849127 -0.19769391 -0.12382746 -0.01762307 -0.027023552 -0.01616037 -0.10484208 -0.09103589
-0.124470584 -0.20398165 -0.1577708 -0.20827428 -0.4494581 -0.4327189 -0.34803858 -0.44038695
-0.2874072 -0.3087312 -0.3258214 -0.44998437 -0.43328315 -0.47802243 -0.39467043 -0.43487987
-0.4854231 -0.2758594 -0.3359587 -0.4780258 -0.43636855 -0.43266922 -0.3630613 -0.43440062
-0.4398609 -0.38469496 -0.3580683 -0.32254988 -0.38534924 -0.43745077 -0.39153674 -0.39834988
-0.44578004 -0.44304723 -0.3333754 -0.34895253 -0.49175462 -0.39305857 -0.46621695 -0.40775695
-0.018115604 0.071342275 0.02969711 0.09873854 0.062217034 0.114027895 -0.0036484548 0.15404578
0.0077372724 0.11113023 -0.006473352 -0.0045209844 0.17688598 0.023914162 0.18110064 0.054105256
0.026291903 0.12753962 0.12460703 0.08352981 0.19189338 0.033034023 0.14747854 0.03217504
0.16744788 0.05476922 0.00426895 0.053075083 0.17779274 0.076285854 0.069696054 0.06254878
0.09847205 0.011504782 0.15912579 0.16561899 -0.067580305 0.059919015 0.09643098 0.08258863
-0.04400215 0.06346584 0.0026982748 0.13055453 -0.018076828 -0.07566076 0.09174378 0.033423662
-0.02080282 0.017906778 -0.02619034 -0.016846662 0.0072471895 -0.053892896 0.04456209 0.033673108
-0.024017995 0.0924426 0.10914657 -0.038144108 0.09316955 0.037018273 0.012157766 0.080539376
0.037703983 0.05540167 -0.026388133 -0.0016470236 0.0008666425 0.022285292 0.020033397 -0.056002285
-0.05929517 0.0029671532 -0.033464186 0.03197051 -0.060937647 0.07177267 0.0046041324 -0.078499995
0.05814179 0.08815872 0.0065207193 0.04772261 -0.040474784 -0.034970585 0.04141584 -0.11590206
-0.017283527 -0.1150507 0.07680623 -0.036367487 0.07009539 -0.08436559 0.04341046 -0.09126711
-0.012945225 0.022407075 -0.066788174 0.07792229 0.011955372 -0.06970057 0.08076496 0.06678497
-0.113469645 0.044076238 -0.03326661 0.056422137 0.4354892 0.5076694 0.41756332 0.47308007

linear.weight f4 [10, 10]
00000000: 93e2 64bd 8bb2 03bf d74f 163e 2f42 01be
00000010: 4f13 c7be c28b 8d3e 6ebc 5c3e 2061 aabe
00000020: 6a31 4c3e 599c 8cbe 9cbd 073f 026d ddbe
00000030: 5e0d e53e 3eb0 253f 311b 9a3e 14ad a0be
00000040: e7b1 13bf eb11 fdbd 0d29 8ebe 9bdb f3be
00000050: b5e2 37be 4e24 0d3e 7f52 adbe 7fa7 883d
00000060: a5ae b6be 4607 c2be 54a3 66be 400f 733d
00000070: af3c 653e 502c b6bd 5a71 4a3e 4cf2 ae3d
00000080: a7cb 8dbe b762 11be a385 963d 7958 78be
00000090: 9bb3 1f3e 9e7c e7be 5972 b3bd 848b 4c3e
000000a0: 3148 0b3e 390e 71bd 589a 703e ef27 773e
000000b0: b53d 923e 004b d6bd 919d 213e 8de1 803e
000000c0: ae10 ac3d f88c 923e 5ce7 7cbe beb4 313d
000000d0: 0a99 12bd 4ca8 60be a6a7 913e 5ce6 ec3d
000000e0: 2ef8 efbd 9c23 ddbe 2673 b3be 358d 513e
000000f0: 43c8 bfbe cec1 633e 4c3b 113b 2374 263e
00000100: 06a9 61be 73f5 8e3e db86 2ebd 8b8f 033c
00000110: f0f8 0b3d 0876 2c3d 3a3a 71bd bb2f 8bbc
00000120: 90b7 1f3e c056 b33d 257b 14be 21af bbbe
00000130: a0dc 1e3e 76d6 a63e a650 91be c0f0 cabe
00000140: 22b6 9d3e 7024 fcbd feb5 4cbe 8307 97be
00000150: 0a8f 58be 22d3 e1bb dca7 02be 6543 59bd
00000160: 66f5 2c3e 109f 8b3e 990f 25bd e47e 1c3e
00000170: 227c 4f3e 0c34 adbe b85d 32be e76e 603e
00000180: 6ba7 143e 950a 0f3e 3fae 1dbe 0d47 663d
-0.05588014 -0.5144431 0.14678894 -0.12622903 -0.3888192 0.2764569 0.21556255 -0.33277225
0.19940725 -0.27463034 0.53023696 -0.4324723 0.4473676 0.6472205 0.3009887 -0.31382048
-0.5769333 -0.12356933 -0.27765694 -0.47628483 -0.17957576 0.1378338 -0.33852002 0.06672572
-0.35680118 -0.37896174 -0.22523242 0.059340715 0.2238643 -0.08895171 0.19769803 0.08542308
-0.27694437 -0.14197813 0.07349708 -0.242525 0.15595858 -0.45212263 -0.087620445 0.19975096
0.13601758 -0.058851454 0.23496377 0.24136327 0.28562704 -0.10463524 0.15782763 0.25172082
0.08401619 0.28623176 -0.24697632 0.04338526 -0.03579048 -0.219392 0.28448218 0.11567375
-0.117172584 -0.4319123 -0.3504879 0.20464022 -0.37457475 0.222419 0.0022160588 0.1625524
-0.22037134 0.27921638 -0.042609077 0.008029829 0.034172952 0.04210475 -0.05889342 -0.016990533
0.15597367 0.087567806 -0.14500101 -0.3665705 0.1551385 0.32585496 -0.28381842 -0.39636803
0.3080302 -0.123116374 -0.199913 -0.29497918 -0.21148315 -0.006891624 -0.12759346 -0.053042788
0.16890487 0.27269793 -0.04029808 0.1528278 0.20262197 -0.3382877 -0.17418563 0.21917306
0.1451699 0.1396888 -0.15398501 0.056220103

linear.bias f4 [10]
00000000: 72c5 92be 0998 893f 2c82 9abe ecad 0cbf
00000010: 949d 6a3e e952 a43e 0802 953c bae5 0dbc
00000020: f60d da3e 2d9f 383f
-0.28666264 1.0749522 -0.30177438 -0.54952884 0.22911674 0.32094505 0.018189445 -0.008660728
0.42588776 0.7211788
