runs/PlainCNN_iso_std0.3_gamma2_lr0.002/model.pt (torch, 109053 bytes, 18 tensors)

first.weight f4 [20, 1, 3, 3]
000000 9d d2 0b be 23 cc 25 be c3 9f 02 be 10 ac c3 3e
       -0.13654561 -0.16191153 -0.12756257 0.3821721
000010 57 e6 10 3c 7d ea fe bd 4b 57 e0 3d 02 79 85 be
       0.00884398 -0.12447069 0.1095415 -0.26068884
000020 ad 04 8b bd d5 b6 6b 3e 81 42 2d be c7 cb cd be
       -0.06788001 0.23018964 -0.169199 -0.40194532
000030 b0 7a 84 3e 00 e6 79 3e 02 ae a2 be b3 b0 40 be
       0.25874853 0.24404144 -0.31773382 -0.18817405
000040 89 01 8b 3d 3e f8 53 3e 0d 04 22 3c 84 b6 26 be
       0.06787402 0.20700166 0.009888661 -0.16280562
000050 c8 72 0c 3b 3a fa 23 bd 7e eb cb bc 90 70 37 be
       0.002143072 -0.040033557 -0.024892565 -0.17914033
000060 de 54 6d be 35 84 4a bc 8e 61 55 bd 2c db 34 be
       -0.23176906 -0.012360622 -0.05209499 -0.17661732
000070 d3 48 85 be 8b fa 85 be 98 2c 15 bd 6a 96 33 be
       -0.26032123 -0.26167712 -0.03641948 -0.17537847
000080 4f 3d c4 3c dd eb 6f be bd 9a 17 3d 8f 3f 8b be
       0.023955015 -0.23429818 0.037012804 -0.2719693
000090 a8 00 94 3e 34 12 0c 3e 27 64 f8 bd 42 af 19 3f
       0.2890675 0.13678819 -0.121284775 0.6003305
0000a0 4a e4 ae 3e c5 96 16 3d c4 48 77 3e e7 18 3a bc
       0.34158546 0.03676488 0.24148852 -0.011358476
0000b0 22 68 bc bd 44 e6 5e 3e 77 a9 ef bc c0 88 c3 bd
       -0.09199549 0.21767527 -0.029255612 -0.09547567
0000c0 7c 5e b0 3c a9 30 b0 be 22 6a 86 be e9 81 a8 3d
       0.021529429 -0.34412125 -0.26252848 0.082279034
0000d0 32 6b 50 be 40 94 49 be 15 5e e3 bb 73 d9 d0 bd
       -0.20353392 -0.19685459 -0.0069387057 -0.10197725
0000e0 a5 50 ee be 74 5c 11 3d 86 99 3d bd f1 e8 81 be
       -0.46545902 0.03548856 -0.04628899 -0.25373033
0000f0 15 b3 81 be 6c e4 53 bd c0 32 12 3e 38 b6 53 3e
       -0.2533194 -0.051731512 0.14277172 0.2067498
000100 1e 10 48 3e 0d 76 6a be 47 aa 85 3e 15 2a 89 3c
       0.19537398 -0.22896595 0.26106474 0.0167437
000110 67 39 04 bd 4c a6 d7 be b0 e6 b2 bd ad e3 3d 3e
       -0.032281306 -0.42119062 -0.087354064 0.18543883
000120 b5 db c5 bc 8c 07 c0 3c 45 88 17 bc b8 4c 15 3e
       -0.024152616 0.023441099 -0.009248798 0.14580047
000130 28 5c 14 3f f5 40 06 3e f5 e6 2a 3d b4 73 d5 3e
       0.5795312 0.13110717 0.041724164 0.41689837
000140 8d da a8 3d cb 4f c0 bd 2f c6 54 3e 19 16 a6 3e
       0.0824481 -0.09390219 0.20778726 0.32438734
000150 ad 00 46 3d fa 8e 04 3e bc 13 a1 3e a2 f1 52 be
       0.04834049 0.12945166 0.3146037 -0.20599988
000160 05 e7 db bd 9d a8 35 3e c1 81 d9 3e d9 9e e8 3d
       -0.10737423 0.17740102 0.42481807 0.11358423
000170 56 8e da bc 96 28 8b 3e 16 4d 60 3a 6d 49 b2 bd
       -0.0266792 0.27179402 0.00085564086 -0.08705411
000180 da f2 41 bc 43 12 10 be be 49 bd bd 16 5c ae be
       -0.0118376855 -0.14069466 -0.09242581 -0.3405463
000190 db 65 8f be 75 67 7b 3e 29 63 99 bd ec 88 60 3d
       -0.28007397 0.24551184 -0.074896164 0.05481808
0001a0 31 ea 00 3f 14 c4 8b bc 6d e2 dc 3d ac bd 24 3e
       0.5035735 -0.01706127 0.10785375 0.16087979
0001b0 03 d4 1c be e4 46 79 be 72 70 95 bc c4 d5 9c bd
       -0.15315251 -0.24343449 -0.018242095 -0.0765796
0001c0 f9 8e 47 3e 78 13 5c 3e ef a6 44 be f1 a9 09 bc
       0.19488133 0.21491802 -0.19204305 -0.008402334
0001d0 3f 65 6c be ca 82 1c bd cf cb 93 bd 0d d3 16 be
       -0.23085497 -0.038210668 -0.07216608 -0.14728947
0001e0 fb 89 92 bd 5c 67 65 3d b1 da 20 3d 74 40 5a be
       -0.07155224 0.056006774 0.03927106 -0.2131365
0001f0 7b ef 8e bd 58 9f a6 bc 53 86 b4 3e dc bb a3 3e
       -0.06979271 -0.020339653 0.3525873 0.31979263
000200 cf 05 88 3e ae 47 49 be 45 2b f4 3d db 4c 80 3e
       0.26566932 -0.1965625 0.119223155 0.25058636
000210 ac 6e ba be 0b 35 ef bd f8 f9 0b be 2e 25 aa be
       -0.3641256 -0.11680039 -0.13669574 -0.3323149
000220 24 d6 57 3e e2 92 74 3e 8f 97 19 3d ec 4e 45 be
       0.21077782 0.23884156 0.037498053 -0.19268388
000230 ae ae b1 bc 37 5c 60 3e 61 76 2e bc ac 99 47 be
       -0.02168974 0.21910177 -0.010648341 -0.19492215
000240 a2 5a fe 3c 30 00 da 3c 97 a9 ca 3d 0a 68 bb 3d
       0.031049076 0.026611418 0.09895628 0.09150703
000250 f9 27 0b bd 34 8a 8a be d7 a4 c4 3b a4 74 6d bd
       -0.033973668 -0.27058566 0.0060010958 -0.057972565
000260 40 b1 85 be 3c 84 87 3e f8 4f f9 3e e2 d7 51 3e
       -0.26111794 0.26468074 0.48693824 0.20492509
000270 cc e6 01 3e c8 fc af 3d 97 79 36 3e 26 6d bd bd
       0.12685698 0.08593136 0.1781982 -0.09249334
000280 c7 00 1b be 68 b9 13 bd 55 d3 0d 3d c5 00 a7 3e
       -0.15137015 -0.03606549 0.03462537 0.32617775
000290 cd 40 86 3e 72 93 7f 3c 3d 42 25 3e 28 72 d5 3c
       0.26221314 0.015599119 0.16138549 0.02605541
0002a0 6d 49 db 3d 64 24 38 3c cd 7f 68 be 1a 4b 16 bd
       0.10707364 0.011239145 -0.22705002 -0.036692716
0002b0 58 b7 ad 3d 7f 62 a5 3e 0a 68 9a 3e 9b 6a c3 3d
       0.08482236 0.3230171 0.301575 0.09541818
0002c0 87 67 ae be ef b4 16 3e ee 35 0d bf 2a 1f 79 bd
       -0.3406336 0.14717458 -0.55160415 -0.060820736

first.bias f4 [20]
000000 af b7 86 bd f4 ae 97 3e a3 97 06 bf a0 15 ba 3c
       -0.065780036 0.29625666 -0.5257513 0.02271539
000010 af ee da be 4f 05 20 3c 42 29 68 bd eb 2b e2 bd
       -0.42760226 0.009766891 -0.05667997 -0.11043533
000020 4d b9 db be 7e 22 96 be 66 b2 3a be 8a 03 5e be
       -0.4291481 -0.2932319 -0.18232116 -0.21681038
000030 1c 39 d3 3e f4 71 a0 3e 0c 99 8e be 99 4b d8 3e
       0.41254508 0.3133694 -0.2785114 0.42245176
000040 f9 d8 c8 3e cb 55 d2 be 67 30 a2 be a3 52 4f bd
       0.39228037 -0.4108108 -0.31677553 -0.050615918

hiddens.0.weight f4 [20, 20, 3, 3]
000000 92 b6 ee 3b 6e 6c 50 bd c7 4e 3c 3b d7 ba 77 3d
       0.0072849477 -0.050884657 0.0028733478 0.06048092
000010 b6 4b 2e bd 7a 83 00 3d d1 7e a5 3c 9a 3f 6a 3d
       -0.042552672 0.031375386 0.020202072 0.05718956
000020 77 85 1f bd b0 5e 08 3d c1 b9 40 bd a3 f9 34 bd
       -0.03894564 0.033293426 -0.04705215 -0.044183385
000030 aa ec 2e bc ce bd ce bc 8f 0b af bc b1 5b 1e 3d
       -0.010676542 -0.02523699 -0.021367816 0.038661662
000040 70 1b 0c bc c0 9e 44 3d 83 8e 6a 3d e2 83 93 3d
       -0.0085514635 0.04800296 0.057264816 0.07202889
000050 77 31 18 3d ad a0 77 3c 8e 7d 45 bd 6f 0e 29 bb
       0.03715655 0.015113992 -0.04821544 -0.0025795957
000060 dd 1a 37 bd 26 ce e2 3b db e6 f7 bc 6a 18 9b bb
       -0.044703353 0.0069215475 -0.030261448 -0.004733135
000070 ec fb a6 3b 3d 55 a5 3c 0d fb 99 bd 94 00 e8 bc
       0.0050959494 0.020182246 -0.07518587 -0.028320588
000080 6c a0 ea 3c 48 71 28 3c d6 5b 4f 3d c1 9f 73 bd
       0.028640948 0.010280915 0.05062469 -0.059478525
000090 09 ee 86 bd 69 00 ca bb 78 17 9a bd 9c 4a 65 bb
       -0.0658837 -0.0061645997 -0.075240076 -0.0034987098
0000a0 f4 c8 6d ba f7 0a b4 bd 09 f8 0d bd cd f6 b2 3b
       -0.0009070777 -0.08791154 -0.034660373 0.00546155
0000b0 d1 75 a4 bd 29 77 cd bc 51 18 51 bb ee 19 30 ba
       -0.08030284 -0.025081234 -0.0031905363 -0.0006717731
0000c0 45 cf 7d bd 55 38 20 bc e8 29 62 bc 2c c2 38 3d
       -0.061965246 -0.009779056 -0.013803937 0.04510705
0000d0 67 ff a6 bd bd 4e 83 3d 3a d3 80 3d 4e 5d 82 bd
       -0.08154183 0.064115025 0.06290288 -0.06365453
0000e0 84 1e ff bc 47 ba a4 bd b1 cf 2f 3c df 5e 36 3c
       -0.03114248 -0.08043342 0.01073067 0.0111310175
0000f0 ab ed 3f 3d 40 30 68 bd 47 ac e6 bb 7a 9b b8 3c
       0.046857517 -0.05668664 -0.00703958 0.022535075
000100 51 bf 9b bd a9 22 6c bd d1 b7 dc 3c 1e 93 54 bd
       -0.0760485 -0.057650242 0.02694312 -0.051898114
000110 ed 53 b8 bd 1c 10 4b 3c 0c bf bb 3b 5f 3a 6d bc
       -0.090003826 0.0123939775 0.0057295617 -0.014479249
000120 3b 45 14 3c 26 9c 54 bd 4d cb cf bd d6 45 a6 bd
       0.009049709 -0.051906727 -0.101461984 -0.08118789
000130 cc 97 b7 bb e9 5a ef 3c 2f bc 8f 3c 73 00 0c 3c
       -0.0056028124 0.029218154 0.017545788 0.008545029
000140 7b 48 1f bd c5 cc d1 bd e3 c2 55 3c 4a c6 b8 3b
       -0.038887482 -0.10244135 0.013046953 0.0056388723
000150 1e 5f 89 bd 0e 07 83 bc ad af d4 bd 90 b6 0c bd
       -0.06707595 -0.015994575 -0.1038507 -0.034353793
000160 64 aa 14 bd 84 af d4 3a b7 20 89 3b dc 0c bf bc
       -0.03629531 0.0016226624 0.004184808 -0.023321562
000170 ae 3a ba bc f4 52 70 3c 97 86 26 bd b0 ed c4 3c
       -0.022733059 0.014668215 -0.0406557 0.02403912
000180 0f 5b 6b bb c8 89 5a 3c a8 6c 71 bc 47 65 42 bd
       -0.003591243 0.013338514 -0.014735378 -0.047459867
000190 47 80 02 3d 0a a7 32 3d 0d b2 bf bd 20 c0 3c bd
       0.031860616 0.043616332 -0.09360132 -0.046081662
0001a0 66 57 8a bb 68 5c ca 3b d5 20 84 bd c6 b9 66 3c
       -0.0042218445 0.0061755665 -0.06451575 0.014082378
0001b0 dc d5 7d bd 2c cb 3d bd 15 b9 52 b8 0f 0e 81 3b
       -0.06197153 -0.046336338 -5.0240273e-05 0.0039384435
0001c0 32 2e 45 3c 7c 89 0a bd 32 60 b4 bc a5 44 92 bd
       0.01203494 -0.03382252 -0.022018526 -0.07141999
0001d0 3a 6a e8 3b 35 95 4d bd 5b 69 a2 bd f2 c2 1b 3d
       0.0070927413 -0.050191123 -0.07930251 0.03802771
0001e0 a5 9f 55 bd 08 e5 28 bd b6 dc 15 bd 82 0b e3 bc
       -0.052154202 -0.041234046 -0.03658744 -0.027715448
0001f0 04 cb 88 3c d8 9b 78 bd 44 68 87 bc 43 b6 86 bc
       0.016698368 -0.0606955 -0.01652921 -0.016444331
000200 d1 46 bd bb 37 a4 3d bd 08 66 96 bc f0 04 7c bd
       -0.0057762642 -0.046299186 -0.0183592 -0.061528146
000210 38 9d 6d bd e9 15 91 bd d3 24 ab bd 42 ea 22 bc
       -0.058011264 -0.07084257 -0.08356633 -0.009943547
000220 f5 80 ce 3c f9 c0 03 3d 98 7f 17 b9 76 70 22 3d
       0.025207976 0.032166455 -0.00014448015 0.039658032
000230 47 4a 9e bd 8a cd 4d bc 7a 64 8d 3c d8 7f c7 3c
       -0.07729011 -0.012561211 0.017259825 0.024352953
000240 d8 82 4d bd 93 2b a0 bc 4c 31 82 bd 2c c1 c1 bc
       -0.05017361 -0.019552028 -0.06357059 -0.023651682
000250 03 47 af bc 87 56 f6 bc d7 a1 02 bd fe aa 7a 3c
       -0.021396166 -0.030070556 -0.031892624 0.015299557
000260 48 29 e4 3c 83 0a da 3a 8c 70 93 bd 5f 10 5f 3d
       0.027851716 0.0016635213 -0.07199201 0.054458972
000270 dd e8 15 3c 82 86 27 bd 89 0a 44 3c 16 d4 b6 3b
       0.009149757 -0.04089976 0.011965402 0.005579482
000280 58 1f 8c bd 9e a7 e7 3c 29 02 aa bd 66 da 77 bc
       -0.06841916 0.028278168 -0.08301193 -0.015127754
000290 fc 52 c7 bc e8 55 e6 bb 3b 9e 36 3c d5 6a 53 bd
       -0.024331562 -0.007029284 0.0111461235 -0.051615555
0002a0 af 69 9a b9 8f be 8a bd b6 1b 00 3d 5c e8 43 3c
       -0.0002945191 -0.067746274 0.031276427 0.011957254
0002b0 93 43 b9 bd 2d fc 94 bd 0e fa 2e bd 59 cd 1b 3d
       -0.09046092 -0.07274661 -0.04271894 0.03803763
0002c0 2b e7 86 3c 49 f8 b8 bc 8e 87 a6 3c 10 52 7f 3b
       0.016467651 -0.02257933 0.02032831 0.0038958825
0002d0 97 72 9e be 63 c2 18 be 54 ea ab 3c 52 20 d2 be
       -0.309468 -0.14917903 0.02098576 -0.41040283
0002e0 b8 f2 5c bd 86 38 f7 bd f2 ca 8c be 42 47 86 bd
       -0.053942412 -0.12071328 -0.27498585 -0.0655656
0002f0 73 2f 91 be 6e 3d c4 be 5d a2 42 3e bd 1d c4 3e
       -0.28356513 -0.38328117 0.19007249 0.38303939
000300 d6 f2 b4 be 4e d6 d2 3d 48 fe 89 3d 2f 19 cd be
       -0.3534152 0.102947816 0.067379534 -0.40058276
000310 07 51 86 3e 83 22 38 3c 2f ff e8 3c 17 40 10 3d
       0.26233694 0.011238697 0.028441994 0.03521737
000320 d6 37 80 3d 19 26 d3 bb 19 2f e3 bc 38 e2 d9 bc
       0.0626065 -0.0064437506 -0.027732419 -0.026597127
000330 a5 f7 96 bb 0c 68 a7 bd 4c 47 b5 bd 6b e6 71 be
       -0.0046071582 -0.08174142 -0.088514894 -0.23623054
000340 67 22 cc 3d de 35 09 be 80 60 8b be 6b a8 69 bc
       0.09967499 -0.13399455 -0.2722206 -0.014261345
000350 4c ea d6 bd 37 35 1a be b2 16 d4 3d 79 47 94 3d
       -0.10493907 -0.15059362 0.10355891 0.07240195
000360 72 81 6a be 26 7f 45 bd b1 a2 b1 3b fa f6 6c bc
       -0.22900942 -0.04821696 0.0054210057 -0.014463181
000370 44 af 95 be e0 44 53 3d 81 e8 1c be a4 96 a8 be
       -0.2923528 0.051579356 -0.15323068 -0.3292743
000380 82 94 97 bd e3 71 00 bf 18 f6 44 be a5 80 86 be
       -0.074013725 -0.5017378 -0.19234502 -0.26270023
000390 40 48 fd be b0 aa 64 bd 6a 4e e5 bd 3b b8 90 be
       -0.49469185 -0.055826843 -0.11196597 -0.28265557
0003a0 0a c2 8c be 9b f3 5b be 10 ff 84 be 83 c6 81 be
       -0.2749179 -0.21479647 -0.25975847 -0.25346765
0003b0 86 40 ff 3b 2f e1 0a be 7c 60 4d 3d 3f 30 90 be
       0.007789674 -0.13562463 0.050140843 -0.2816181
0003c0 14 3f 26 be e8 c6 b3 bd 1c 3a 93 be 64 e1 a8 be
       -0.16235 -0.08778173 -0.2875527 -0.3298446
0003d0 31 c6 38 be 8f 61 20 bd 37 9b 98 be 40 59 e2 bd
       -0.18044354 -0.03915554 -0.2980592 -0.11052179
0003e0 a6 f6 b6 bd a7 3b e3 be c0 84 63 bd e2 eb 28 3d
       -0.08933763 -0.4438145 -0.055546522 0.04124058
0003f0 b1 59 b1 be ad fc 02 bd f4 69 ac 3d 15 3a 3e be
       -0.34638742 -0.03197925 0.084186465 -0.18576844

hiddens.0.bias f4 [20]
000000 63 57 88 bd d0 44 08 3e 07 83 2e 3d ae 46 6b 3e
       -0.06657293 0.133075 0.042605426 0.22976181
000010 14 bd 81 bd b2 2b 44 bd 00 af 2c 3a eb 44 ea 3c
       -0.06334892 -0.047893234 0.00065873563 0.028597316
000020 69 e9 8e 3c 85 f8 4d bc cf 43 33 3e ee 15 12 3c
       0.017445283 -0.012571459 0.17506336 0.008916361
000030 24 75 c2 bd fe 9b a7 3d 6a 99 28 3e 2a d5 81 bd
       -0.09494999 0.0818405 0.16464773 -0.06339486
000040 9b e1 b0 3d 21 cd 34 bd b7 36 84 3d 52 d9 21 bd
       0.08636781 -0.04414094 0.064557485 -0.039513893

hiddens.2.weight f4 [20, 20, 3, 3]
000000 aa 04 f8 bc 28 2c 80 bd dc 7e 2e bd 03 a6 42 3d
       -0.030275661 -0.06258422 -0.04260145 0.047521602
000010 44 e1 21 3d 00 1c a0 bd b7 d4 ec 3c a6 14 dd 3c
       0.03952147 -0.078178406 0.028910024 0.026987385
000020 06 c1 41 3c 95 9e 23 bc 46 6d 32 3b 4e 46 98 bb
       0.0118258055 -0.009986539 0.0027225777 -0.004647053
000030 b9 a4 a3 bd 56 ad f0 bc cd 7f ab bd 13 24 78 bd
       -0.07990403 -0.029379528 -0.083739854 -0.060581278
000040 08 78 34 bc 98 73 3c bd e1 d5 48 bd 32 58 c8 bc
       -0.011014946 -0.046008676 -0.049032096 -0.024456117
000050 70 fd 85 bd 17 de 11 3d f6 a3 07 bb 8d f2 c9 3a
       -0.0654248 0.035612192 -0.0020697094 0.0015407369
000060 5f e8 c5 3c 4f 82 25 bc ec 65 cd bd 0e a7 3d bd
       0.024158655 -0.010101869 -0.10029206 -0.046301894
000070 34 08 21 3d 2a f8 8c bd 31 c2 70 bd fb 6a 85 bd
       0.039314464 -0.06883271 -0.058778945 -0.065145455
000080 3e fc c2 bb 60 f0 25 3c 5d e2 15 bd 80 e2 90 bd
       -0.00595048 0.010128111 -0.03659283 -0.070744514
000090 2c 43 7e bd 95 9e 84 3c d0 cc 55 3d 61 bc 50 3d
       -0.06207578 0.016188899 0.052197278 0.050960902
0000a0 cf cc a8 bc a3 05 0a 3c 9c cf 2c 3d bf ce ba bb
       -0.020605473 0.008424195 0.04219018 -0.0057009156
0000b0 88 3e 9e bd a6 5e a6 bd f5 68 24 bd e6 1d 9c bd
       -0.07726771 -0.081235215 -0.040139157 -0.0762289
0000c0 2e 2d cf 3b 1a 07 57 3c 49 10 a9 bc f6 ac 19 bd
       0.0063225245 0.013124252 -0.020637648 -0.037518464
0000d0 64 5b c9 3c 74 35 c9 bc d7 8c b0 bb 6c 6d 10 bd
       0.024579711 -0.024561621 -0.005387883 -0.035260603
0000e0 ff c0 21 3d ed de 5a 3d 75 ce af 3b a1 0f 10 bd
       0.039490696 0.053435255 0.005365188 -0.035171155
0000f0 f4 3a 25 bd 0f a9 0a 3d 84 fa 16 3d 5f a5 87 bd
       -0.040339425 0.033852633 0.036860004 -0.06623339
000100 b0 3c d7 3b e6 3c e2 3a 58 2e 9f bb c1 bd c2 3b
       0.006568514 0.0017260581 -0.0048578195 0.0059430306
000110 49 94 4d 3d 41 1f 53 3d 72 4b 98 3b 04 52 ad bd
       0.050190244 0.051543478 0.0046476657 -0.08462909
000120 cc 52 05 3d b5 66 8d bc 5f 1f 1c 3d 01 51 96 bd
       0.032549664 -0.017260889 0.038115855 -0.07339669
000130 df d9 7e bd 03 e1 83 bc 5c fe 53 3b 0c fd 27 3d
       -0.062219497 -0.016098505 0.0032347655 0.04101281
000140 0a f1 92 bc 2b fc ab b9 bc 38 97 bd d7 92 af bb
       -0.017937202 -0.0003280354 -0.07383868 -0.005358081
000150 31 fe 6b bd 78 cb e6 3c 34 db e6 3c 0a 56 b0 bd
       -0.057615463 0.028173193 0.028180696 -0.08610161
000160 dc a7 39 bd 61 df 61 bd 01 61 ad bd 30 e7 ea bd
       -0.0453261 -0.05514467 -0.08465768 -0.11469877
000170 53 ee 1e be 7e 09 20 be 25 40 34 bd 86 2c 5e bd
       -0.15520601 -0.15628621 -0.044006485 -0.05424168
000180 18 41 86 bd 98 4e df bd 5f a8 24 bd 98 ed eb bc
       -0.065553844 -0.109036624 -0.040199634 -0.028799817
000190 11 d4 a2 bd 74 80 02 be fa eb 7d bd 60 70 ad bb
       -0.07950605 -0.12744313 -0.061992623 -0.005292937
0001a0 99 64 bd bc 47 46 a3 3c e2 5a 91 ba 0a 7e 51 bd
       -0.023119258 0.019930972 -0.0011089707 -0.05114559
0001b0 8b e6 74 bd b1 9e 35 bd ad 5b a7 bd 7c 3c 1b 3d
       -0.059790175 -0.044340793 -0.08171783 0.03789948
0001c0 d7 71 7b 3d e4 2e 74 3d 51 7c 59 bd b2 ee 7e 3d
       0.061387863 0.05961503 -0.053097073 0.062239356
0001d0 a6 6c 27 bd 7c 24 93 bc ba 3b ad bd 4a 33 65 3d
       -0.0408751 -0.017961733 -0.084586576 0.055957116
0001e0 50 ca a5 bd a6 8c c8 bc 71 03 8d bd 4c c7 26 bc
       -0.08095229 -0.024481129 -0.06885422 -0.010179352
0001f0 ce 10 5b 3c 6d 41 77 bd e6 d7 a1 3c a1 5a 00 bd
       0.013370706 -0.06036513 0.019756269 -0.03133643
000200 c1 7e 56 bd 5e 3b 2f bd 78 dd 74 3d d8 56 e8 bb
       -0.052366976 -0.042781226 0.05978152 -0.0070904307
000210 6b bc f5 3c 20 06 98 bd 97 4a 3b bd 78 20 3e 3d
       0.029997071 -0.07423043 -0.04572543 0.046417683
000220 ec b0 a8 3c 4e 2f 7d 3c b7 eb 72 bd 42 d0 a9 3b
       0.020592175 0.015453173 -0.059306826 0.005182297
000230 08 b8 02 bd 83 84 38 3d fa fb a2 bd c2 a0 56 bc
       -0.031913787 0.045048248 -0.07958217 -0.013099851
000240 30 91 20 3d 2a cd 0a 3c 9c 97 c0 bc 73 9c 8d bd
       0.03920096 0.0084717665 -0.023509793 -0.06914606
000250 e8 b7 20 bd f6 01 a3 3c 1c 51 b7 bd b4 41 45 3d
       -0.039237887 0.019898396 -0.08951017 0.048158363
000260 5d 10 81 bd 7c 47 36 3d f5 cf b5 bd 91 d2 94 bd
       -0.06301949 0.044501767 -0.08877555 -0.07266725
000270 fd 80 02 bd 08 f4 fe 3c fe 6c 08 3d af 52 39 bd
       -0.031861294 0.031122223 0.033307068 -0.04524487
000280 5c 45 bf bc a1 3a 3e 3d 45 00 c8 3c 52 66 2f bd
       -0.023348503 0.04644263 0.024414191 -0.04282219
000290 a9 2d 81 bd ee 1e 5f bd 45 40 02 bc 12 67 91 bc
       -0.06307537 -0.054472856 -0.007949893 -0.017749343
0002a0 4a b4 d0 bd 2e e5 4f 3c 2b 51 8a bd 68 33 56 bc
       -0.101906374 0.012688918 -0.06753763 -0.01307378
0002b0 4a 2b f0 3c fa 19 1d bd cf 32 cf bb e5 33 fc bc
       0.029317517 -0.03835485 -0.0063231955 -0.030786464
0002c0 7e 97 02 3d fb 8d 1c 3d f5 19 6c bc 10 7b 97 bd
       0.031882755 0.03822134 -0.0144104855 -0.07396519
0002d0 9c 02 8e 3c bf a6 9f bc b9 7f ce bd 83 72 dd bd
       0.017335229 -0.01948869 -0.10082955 -0.10812857
0002e0 be 21 2b bd dd 2c 06 bd 81 0b bd bc 93 ed b3 3c
       -0.041780226 -0.03275763 -0.023076775 0.02196387
0002f0 32 9b 74 3b d5 18 b3 be 8c 29 f3 be 6b c9 2d 3e
       0.003732395 -0.34979883 -0.47492635 0.16971366
000300 d3 69 b8 be 84 47 93 be 3c 89 58 3e 06 a2 06 bd
       -0.36018237 -0.287655 0.21146101 -0.03286936
000310 3b a0 bc 3d e9 2d 1e 3e 70 28 f9 bc 0c 43 7c 3d
       0.09210249 0.15447201 -0.03041479 0.06158738
000320 d2 c8 58 3e a6 ec b1 be bb 2e 88 be 21 5a 4e 3e
       0.21170357 -0.3475086 -0.26598153 0.20151569
000330 19 8c 49 3d fc c5 09 bf 2a 5b 05 bd 86 7e cd be
       0.049205873 -0.53817725 -0.032557644 -0.40135592
000340 ce c5 cc be e3 79 46 3e 7a 5a 5f be a6 22 30 bf
       -0.39994663 0.19382434 -0.21811858 -0.6880287
000350 cb a2 86 3e 11 db d5 3c 76 94 a6 bc 1c 1a 59 3d
       0.26296076 0.026105436 -0.020334464 0.053003415
000360 2f 7a 93 bd 37 82 44 bd bc 08 87 3c ad 4c 97 3a
       -0.07201039 -0.047975745 0.016483657 0.0011543237
000370 13 33 84 bd f3 0f de 3c 9d 49 9b bd d0 03 d5 bc
       -0.06455054 0.027107215 -0.075824 -0.026002795
000380 eb a2 42 3c 22 64 95 3d 0b 5a 99 3d 28 2a 4b bc
       0.011879663 0.072944894 0.074878775 -0.012400188
000390 5f f9 82 bd 9e 73 06 3d 57 75 0c 3d e1 03 68 3d
       -0.0639522 0.032825105 0.03429159 0.056644324
0003a0 2b 84 3f 3d cf 82 e4 3b 2d eb 5a 3d 11 ec 06 3e
       0.046756905 0.0069736014 0.053446937 0.1317599
0003b0 4a eb 68 3d 59 04 35 bd c8 c7 af 3c 3b b3 67 3d
       0.056865014 -0.0441936 0.021457568 0.056567412
0003c0 bf 97 0c bd 4c e0 5a 3d 2b b0 a1 bb ce 4e 65 3c
       -0.034324404 0.053436562 -0.004934331 0.013995839
0003d0 40 b0 92 3d cf 67 40 3b c4 5e 17 bd 9e 60 34 3d
       0.07162523 0.002935875 -0.03695561 0.044037454
0003e0 d1 1e 04 bd a9 a3 0d 3d 58 46 2f bd cb f8 cc 3c
       -0.03225595 0.034579907 -0.042791694 0.025020977
0003f0 9e 78 64 3d 93 a1 96 3d 41 c6 4a 3d 8d c3 85 3c
       0.055779092 0.073550366 0.049505476 0.016328597

hiddens.2.bias f4 [20]
000000 80 c7 03 be 9a cc c0 3d 35 9f 38 be 15 1a 45 be
       -0.12869072 0.09414025 -0.18029483 -0.19248231
000010 9f 8f e4 bd d9 38 68 3e 5f 4a f1 3d 03 28 dc bd
       -0.11160206 0.22677936 0.11781763 -0.10749819
000020 6d d6 2d 3e 57 6d 5b be b4 b0 89 3e 17 cd 8e 3e
       0.16976328 -0.21428429 0.26892626 0.27890846
000030 a3 d1 8d 3d dd 8f 04 be 3f ba 99 bc 2e 89 93 3e
       0.06924751 -0.12945504 -0.018765567 0.28815597
000040 52 73 fe bd 66 13 cd 3d f7 84 28 3e 87 08 ad bb
       -0.12424339 0.100134656 0.16456972 -0.0052805576

hiddens.4.weight f4 [20, 20, 3, 3]
000000 20 66 40 bc 25 eb 7e 3d 57 cb 4a bd b8 05 30 3d
       -0.0117430985 0.06223597 -0.049510326 0.042974204
000010 91 80 21 3d a3 61 37 bd 80 40 69 3c 28 91 08 3c
       0.03942925 -0.044770848 0.014236569 0.008335389
000020 0b 0a f5 3c 40 1e 5f bb 37 19 7c bd 36 b0 02 bd
       0.029912015 -0.003404513 -0.061547484 -0.03190633
000030 95 e8 bd bd 40 83 f0 bc 55 83 ea 3b 78 25 37 3b
       -0.09272877 -0.02935946 0.0071567693 0.0027945917
000040 60 cd 3d bc 20 56 80 bd 59 90 e9 3c 64 40 8a bd
       -0.01158461 -0.06266427 0.028511213 -0.06750563
000050 c2 6a 29 bd 0e e7 80 3d 16 dd 85 bb 3d df 00 bd
       -0.041361578 0.0629407 -0.0040851934 -0.031462897
000060 f0 3e 80 bd 47 ae 15 3d 57 7f 5d bd 54 44 8c bc
       -0.062620044 0.036543157 -0.05407652 -0.017122425
000070 7b 71 22 bd b4 c5 e3 bc a8 b4 ea 3c ac 8d 77 3c
       -0.039659005 -0.027804233 0.028650597 0.015109461
000080 50 75 6a bd b4 fc 5f bd 3a d0 bc bc b0 d6 59 3d
       -0.057240784 -0.054684356 -0.023048509 0.053183258
000090 a5 20 2d 3d 8e 19 74 3d b9 d6 22 bd 50 20 95 bc
       0.04226746 0.059594683 -0.039755557 -0.018203884
0000a0 77 ef 39 3d 36 d8 8b 3d 9e 4f 53 bd 7d 8c 09 3d
       0.045394387 0.06828348 -0.0515896 0.033581246
0000b0 07 80 7e 3d c8 63 3e ba 4d c9 01 bc 95 82 90 bd
       0.062133815 -0.00072627934 -0.007921529 -0.070561565
0000c0 69 1c c0 bd 02 4c 57 bd 9d 72 b4 bc 45 af d2 bd
       -0.09380419 -0.05256272 -0.022027308 -0.10287336
0000d0 0f 9c bd bb 38 5b 3e 3c cf 37 c3 bb 61 5e 70 3c
       -0.005786426 0.011618428 -0.0059575806 0.014670939
0000e0 85 d9 20 be 39 4e 33 bd 81 e1 50 bd c6 59 7d bd
       -0.15707977 -0.04377577 -0.050996307 -0.061853193
0000f0 62 0e 45 3c a0 19 d5 bd bf 0d b3 bc f1 14 89 3d
       0.012027355 -0.10405278 -0.02185714 0.066934474
000100 0d e1 88 bd 4f bb b3 3c da 31 54 bd e0 58 81 3d
       -0.0668355 0.021939902 -0.051805355 0.0631578
000110 ff 6e 82 3d 79 65 8e 3d d7 bc cc 3b 2f 7b cd bc
       0.06368827 0.06952948 0.0062480974 -0.025083153
000120 3c e8 80 3c db 12 8c ba ed f0 19 3c 77 6d 34 bb
       0.015735738 -0.0010686772 0.00939582 -0.0027531066
000130 79 c2 a5 bd 22 0d 1e 3b bf df 52 bd 4d e1 fc bc
       -0.08093733 0.0024116714 -0.051482912 -0.03086915
000140 77 e7 bb bd 1a 17 a0 bc 48 76 d6 bb de c2 85 3d
       -0.09175008 -0.019542266 -0.006544862 0.065313086
000150 53 99 81 bd c1 a2 43 3d e2 7b c4 bc 88 9a bb bc
       -0.063280724 0.047762636 -0.023984853 -0.022900835
000160 b4 ad 02 bd b5 6d 4f 3d c1 4d 7b bd 91 49 99 3c
       -0.031903937 0.050641734 -0.06135345 0.018711837
000170 4e 50 dd bc f0 8a 18 ba ce 6d 2e 3d 5f 58 8a bd
       -0.027015831 -0.0005819043 0.042585187 -0.06755137
000180 60 0e 03 bd 80 9f a4 3c 1b e7 64 bd 6f a9 bb bd
       -0.03199613 0.020095587 -0.05588446 -0.09163176
000190 0e f8 76 3c f6 bb a6 bd cf a2 b5 bd be 6a ad bd
       0.015073789 -0.081413195 -0.08868944 -0.08467625
0001a0 8d bf 18 bd 39 e8 34 bd cf 4a 5e 3d 49 ca 56 3d
       -0.037292052 -0.044166777 0.05427056 0.052439008
0001b0 70 f5 54 3c c4 94 5e bc a0 fa cd bc 76 db 43 bd
       0.01299797 -0.013585273 -0.025143921 -0.047816716
0001c0 1e 1e 6b bd 19 31 7d bd 10 3a e7 bc 73 bb 12 bd
       -0.05740177 -0.0618144 -0.028225929 -0.035823297
0001d0 dc 06 47 bd 03 bb 1a 3d a6 c9 5b 3c 86 56 3b bd
       -0.048590526 0.037776005 0.013414776 -0.045736812
0001e0 b5 7d 88 3d 83 ea 0d 3d 68 78 4d bd 34 a6 52 bb
       0.06664602 0.034647476 -0.050163656 -0.0032142522
0001f0 7a 5a 29 3d bc e9 54 bd 24 38 d7 ba a6 d6 c1 bd
       0.04134605 -0.05198072 -0.001641993 -0.09464769
000200 45 c6 94 3c b7 f5 32 ba 75 23 08 bd 39 dc b8 bd
       0.018160949 -0.00068267755 -0.03323694 -0.09026379
000210 04 71 b2 bc 16 da e2 bc 28 40 dc 3c 0e 24 5b bc
       -0.021782406 -0.027691882 0.02688606 -0.013375295
000220 55 7a a2 3b 1f 2e e2 bd 39 54 77 bd 7c 3e e6 3b
       0.004958431 -0.11043953 -0.060383055 0.0070264917
000230 e1 82 b6 bd 0d 9d 7a bc 84 07 14 be 9b a4 cb bd
       -0.08911682 -0.015296233 -0.14455992 -0.099435054
000240 d3 1e a4 3c 83 35 d7 3c 7b 64 f6 bc 5e 4e 01 bd
       0.02003423 0.026270634 -0.03007721 -0.031568877
000250 c2 af 85 bd 79 6b e6 3c 50 39 3e bd 5b d7 8f bd
       -0.06527664 0.028127419 -0.046441376 -0.07023498
000260 74 51 86 3c 04 63 96 bd 8d e9 c3 bd 37 3c de bb
       0.016396262 -0.073431045 -0.09566031 -0.0067820805
000270 0d e1 e0 bd cf 13 9f bd 4a 5b 87 3d 7e d6 b3 bc
       -0.10980425 -0.0776745 0.06609209 -0.021952864
000280 b1 ad 6f 3d 85 50 fd bb ac 15 3b bd e4 29 b8 bd
       0.058515254 -0.007730546 -0.045674965 -0.08992365
000290 0d 45 fe bb 21 2d 96 bd 75 f9 df bd 1b 75 b5 bd
       -0.0077596963 -0.073328264 -0.10936252 -0.08860227
0002a0 8c fa b3 bd 4d c1 86 bd cf 70 34 3c 1b 4f 08 3d
       -0.087880224 -0.06579838 0.011013224 0.033278566
0002b0 0b 45 40 ba 71 47 d9 bc 1f 69 aa ba 6c 61 17 bd
       -0.0007334507 -0.026523324 -0.0013001299 -0.036958143
0002c0 ec 23 8d 3d 8f b5 65 bd bd 06 de 3c 0b 83 39 3d
       0.06891617 -0.05608135 0.027102822 0.045290988
0002d0 98 d0 11 3d 09 b2 64 3d 2e c2 a1 3d 35 63 33 3d
       0.03559932 0.05583385 0.07898365 0.043795783
0002e0 df 2c 6b 3d 83 ef 76 bd 31 22 4c bd 7b f8 f3 bc
       0.05741584 -0.06028701 -0.049837295 -0.02978157
0002f0 65 8a 01 bd b3 ec 08 3d f3 41 da bc b5 60 93 3d
       -0.031626124 0.03342886 -0.026642775 0.0719618
000300 92 dc 17 3f 0b 6a 72 3e 77 a7 14 3f a5 3b cc 3e
       0.5932094 0.23673265 0.5806803 0.39889255
000310 46 fd 3c bf 10 b5 35 be ed 91 b3 bd b7 19 8f 3d
       -0.73823965 -0.17744851 -0.087680675 0.069873266
000320 84 82 bd 3d 63 24 c6 3b 75 22 5d bd a1 af 1d 3e
       0.092534095 0.006046818 -0.05398794 0.15399028
000330 bc 74 19 3e 9a 27 e0 3d 55 43 11 3e e3 eb b9 3c
       0.14985937 0.109450534 0.14185841 0.022695487
000340 72 71 c5 3c e9 13 d0 3c 83 99 f2 3b fc 3d 55 bc
       0.024101947 0.025400119 0.007403554 -0.0130152665
000350 a1 95 44 bd 55 3a 85 bd b2 a5 ed bc 52 21 47 bc
       -0.04799426 -0.065052666 -0.029009674 -0.01215394
000360 20 e1 18 3e 86 4a 4b 3d 6b 55 d2 bd cc 8d 06 be
       0.14929628 0.049631618 -0.102701984 -0.13140029
000370 d6 b4 9e be c9 21 8a bd e4 cf fd 3c 07 c1 bd bd
       -0.30997342 -0.06744725 0.030982919 -0.09265333
000380 97 73 85 3c 65 ff c6 be bf 54 13 be 68 88 3a 3e
       0.01629047 -0.38866726 -0.14387797 0.18216097
000390 e6 f7 05 be 41 8b 21 3d e7 64 ed 3e a9 be c6 3e
       -0.13082847 0.039439443 0.46366045 0.38817337
0003a0 81 0d 8a bf f0 05 4c be 48 e9 16 be 3f 98 6c bf
       -1.0785371 -0.1992414 -0.14737427 -0.9241981
0003b0 72 bb a7 bf 66 69 36 bf 90 d9 1e bf e3 45 9e bd
       -1.3104079 -0.71254575 -0.62050724 -0.077281736
0003c0 42 da 71 3e 39 0b ff 3d 54 77 09 3e aa 8d a9 bd
       0.23618415 0.124533124 0.13424426 -0.082789734
0003d0 86 aa 6f 3c 40 e7 7c bd 14 5a 98 3b d0 dc 51 3c
       0.014628058 -0.061743975 0.00464941 0.012808993
0003e0 dd 36 46 bd dc b8 95 bd a5 15 8c bc f7 51 89 bd
       -0.048392165 -0.0731065 -0.017100165 -0.06705087
0003f0 14 dd a3 be d9 91 cc be 2f f0 5e be f5 32 99 be
       -0.32004607 -0.39955023 -0.2177131 -0.2992169

hiddens.4.bias f4 [20]
000000 2b e4 11 be 22 56 b7 bd ac 8f 27 bc 0a b0 03 be
       -0.14247195 -0.089519754 -0.010227125 -0.12860122
000010 b9 fc 11 be e2 b9 49 be 6b 69 01 be 30 69 28 be
       -0.14256562 -0.19699815 -0.1263787 -0.16446376
000020 cf d4 15 be d4 47 06 be 45 39 9a bd 96 df 6f be
       -0.14631961 -0.13113338 -0.075304545 -0.23425135
000030 53 2a 48 bb 70 43 cb bd 76 18 2b bd d3 7d 21 3d
       -0.0030542805 -0.09924972 -0.041771375 0.039426636
000040 7c 64 e2 bb 46 6a d4 bd 83 a8 7c bc f8 96 a6 bb
       -0.0069089513 -0.103718325 -0.015421036 -0.005083915

hiddens.6.weight f4 [20, 20, 3, 3]
000000 c2 fe 8a 3d 54 9c a3 3d e4 ef 30 bd 73 b9 0c 3c
       0.067868724 0.079888016 -0.043197528 0.008589136
000010 70 bc aa 3d 32 39 5a 3a 0c c7 1b bd de a4 09 3e
       0.08336723 0.0008324563 -0.038031623 0.13441798
000020 d1 f3 9e bd 5a 42 00 3d fd 20 80 3c 6c 4d dd bd
       -0.07761348 0.031313278 0.01564073 -0.10805783
000030 88 b6 0c bc f3 ec 1d be 37 b0 6e bd 35 d7 3d be
       -0.008588441 -0.1542242 -0.05827352 -0.18539126
000040 7d a0 5e bd 9c a2 93 3e 86 22 ed 3e e2 b3 2a 3e
       -0.054352272 0.28835 0.46315402 0.16670182
000050 ad 3e d8 bd 81 01 df 3e fe 81 90 3e 6d 98 68 bc
       -0.105588295 0.43555835 0.28224176 -0.014196497
000060 e8 16 0a be 1d 07 01 3d a7 06 8b be 38 97 73 bd
       -0.134853 0.031500924 -0.27153513 -0.059470385
000070 dc 49 b6 bb 45 fb d8 39 dc 11 90 bd 39 ad 14 bd
       -0.005563004 0.0004138594 -0.070346564 -0.03629801
000080 49 85 4e bd af 8f f6 bd 46 c5 4e be e1 ad d8 3c
       -0.05042008 -0.12039124 -0.20192441 0.0264501
000090 a1 e0 b7 be 89 be c8 bc 2c 60 82 be 6e 4d 30 3d
       -0.35913566 -0.024504917 -0.25463998 0.043042593
0000a0 20 60 6c 3e aa b5 eb be 57 c5 ad be b6 d7 bc be
       0.23083544 -0.46037036 -0.3393962 -0.36883324
0000b0 cb 26 df be 67 ad fa be 24 e9 4e be 3e 09 8f be
       -0.43584284 -0.4896042 -0.20206124 -0.2793674
0000c0 84 02 5b be ce 4c 8d 3e bb ef 9a be 7f 41 07 bf
       -0.21387678 0.2759766 -0.30261025 -0.52834314
0000d0 83 1e 06 be 47 2d a4 be 92 4b 98 3d 67 55 a9 bd
       -0.13097577 -0.32065794 0.07436289 -0.08268242
0000e0 0f fc e4 bd 4e 0e 8e bd af ac 80 3c 81 c7 3e bc
       -0.11180889 -0.06936322 0.015707342 -0.011644245
0000f0 23 6f 3b bc d7 3b 80 bd ef 19 b3 bc 9b 9a 8b 3c
       -0.011440071 -0.062614135 -0.021862952 0.017041495
000100 81 f1 2d bd 5d 9a 17 bc e3 ee 5a 3d bc 02 17 bd
       -0.042466644 -0.009253112 0.053450476 -0.036867842
000110 b9 c1 2c bc e5 28 61 3d ab 54 8e 3c be 19 8a 3d
       -0.010544234 0.05497064 0.017374357 0.06743191
000120 8d 4e bd 3d f6 65 82 be bb 6b b4 be 87 6d 29 be
       0.09243498 -0.25468415 -0.35238442 -0.16545688
000130 58 ff 28 3e 2a e0 de bd a7 d2 97 3d 25 d9 00 3e
       0.16503656 -0.108826 0.074132256 0.12582834
000140 ef e9 d5 be 0d e0 90 be 98 6b 4f bd b9 70 f9 bd
       -0.4178004 -0.28295937 -0.05063972 -0.12179703
000150 54 f0 37 bd 00 56 37 3e 5d 1d cb 3d 27 65 09 bf
       -0.04490693 0.179039 0.0991771 -0.5366997
000160 87 ca a6 be 1b b4 ce be 43 5f 13 be 87 dc 9f 3c
       -0.3257639 -0.40371785 -0.14391808 0.019514335
000170 aa 3c a8 bc 55 fc 08 3d ce d1 44 3e 68 3d 06 3e
       -0.02053674 0.033443768 0.19220659 0.13109362
000180 6c 48 b0 be 62 51 2a be 83 6b 53 be d1 2b 61 3e
       -0.34430254 -0.16632608 -0.20646481 0.21989371
000190 77 cb 39 3e ba d8 be bd 42 0b d9 3d 0e 8e 8e 3e
       0.18144022 -0.09318681 0.105978504 0.27842754
0001a0 43 54 bc 3e 20 74 98 3e d4 13 19 3e 2c 56 5a bc
       0.36783037 0.29776096 0.1494897 -0.013326209
0001b0 d5 1f 28 be 5a 37 a9 bd 69 12 4d be 5f 27 1c be
       -0.16418393 -0.082625106 -0.20026554 -0.15249394
0001c0 22 e8 9b 3d 88 13 cf 3d ff 3a 9a bd aa 80 1e 3e
       0.07612635 0.10111147 -0.07530784 0.15478769
0001d0 81 ec a8 3e e2 57 8e 3c 63 be ab bd 46 8c a1 bd
       0.32992938 0.01737589 -0.08385923 -0.07888083
0001e0 27 df d5 bd 6b 5d 8d bd 46 6e 39 bd 69 f6 00 bd
       -0.104429536 -0.06902584 -0.04527118 -0.031484995
0001f0 c1 a6 82 bd b9 d0 b6 3c 8d 98 eb 3e 37 ee 23 3f
       -0.06379462 0.022316324 0.46014825 0.6403536
000200 41 79 65 3f fa ca f3 bd c5 83 1f 3e 47 db b2 3e
       0.89638144 -0.11903949 0.1557761 0.3493292
000210 58 e9 04 3e ca b1 eb bd 71 3a 9c be 3f 60 52 3f
       0.12979639 -0.1150852 -0.30513337 0.8217811
000220 d1 0e 1f 3f 45 65 11 3f 82 8a b8 3d c8 e9 1f be
       0.62131983 0.5679515 0.09010793 -0.15616524
000230 1f 7d e1 be 07 ce 00 be a8 3e 00 3e a5 ed 1a 3e
       -0.44040772 -0.12578593 0.12523901 0.15129717
000240 e7 1a 1b be b2 26 04 be 30 e6 ac be 4e 86 1d 3e
       -0.15146981 -0.12905386 -0.3376937 0.15383264
000250 84 6b 46 3d 3b 3f 5c 3e 6e 9a 80 3e 99 68 5c bd
       0.04844238 0.21508496 0.2511782 -0.05381069
000260 87 f0 07 be 2c d2 49 be 8a a9 00 3e b7 10 d0 bd
       -0.13275348 -0.1970908 0.12564674 -0.10159438
000270 49 a8 06 3e 29 1a 91 3e 7f 4a 17 bd cc db a1 be
       0.13150133 0.2834027 -0.03693628 -0.31613004
000280 34 e8 4c bc 2c eb 37 be 88 b1 14 be bf 26 68 3e
       -0.012506533 -0.17960805 -0.14520848 0.2267103
000290 14 21 74 be 47 a1 c8 3d 80 2f 44 3e 89 f8 16 bf
       -0.23840743 0.09796386 0.19158745 -0.58972985
0002a0 a6 fe 88 be 0b d9 d2 be 28 7c a2 bf d7 2b f5 3d
       -0.2675678 -0.41181216 -1.269414 0.119712524
0002b0 5e 82 01 be ae eb bd be 11 af 6d 3e 58 bc 9e 3d
       -0.12647387 -0.37093872 0.23211314 0.077507675
0002c0 45 92 93 bd 52 e9 9b bd e9 f4 9a 3e 23 5b 10 bf
       -0.07205633 -0.07612862 0.30264977 -0.56389064
0002d0 f4 f7 d0 3c e7 db 25 3d e9 02 23 3d 30 73 04 3d
       0.025508858 0.04049292 0.039797697 0.032336414
0002e0 b1 15 0a 3d b4 79 f1 3c 01 4f 1b bc c2 13 3e bd
       0.033712093 0.029476978 -0.009479285 -0.04640556
0002f0 13 a4 5b bd 1c af 7e bd d8 70 35 be a8 72 ac bd
       -0.05362327 -0.062178716 -0.17718828 -0.084203064
000300 75 f0 ff bd 57 cf 04 3d bb 34 c2 3d a4 43 a7 bd
       -0.124970354 0.032424297 0.09482714 -0.08167198
000310 61 b7 37 3d 04 3b ca bd 4a 4b ff bd fa 19 09 bd
       0.044852618 -0.098745376 -0.12465532 -0.03347204
000320 fc b7 62 bd c3 f8 d0 bd 37 50 9b bd fa 13 ea bd
       -0.055351242 -0.102036975 -0.07583659 -0.114295915
000330 2f 2c 6a bd ac c6 d9 bc 14 15 07 bc a5 4d 16 3d
       -0.057171043 -0.026583992 -0.0082447715 0.03669514
000340 e3 af 4c 3d a9 94 3a 3d b7 58 04 3d 0c e7 11 bd
       0.049972426 0.04555193 0.032311168 -0.035620734
000350 d0 91 9f bc 3e d0 69 bd 5f 2b 69 bd bd 2f 78 bd
       -0.019478709 -0.05708336 -0.056926128 -0.0605924
000360 dc da 11 bd f0 a7 bb 3a a3 0c 08 be 22 94 ee bd
       -0.03560911 0.0014317017 -0.1328607 -0.11649348
000370 8f 62 12 bd 72 30 e0 bc 45 a1 35 bd 1a b3 27 bc
       -0.035738524 -0.02736685 -0.04434325 -0.010235572
000380 54 dc d5 bc 33 0e 20 3c df 3a aa bb 3a 7c 0a be
       -0.026106037 0.00976901 -0.0051950063 -0.13523951
000390 19 6d 2b bd af 2e a4 bb 8e ff ba bd 92 11 f4 bd
       -0.04185209 -0.005010448 -0.091307744 -0.11917414
0003a0 7b b0 59 b6 cd ee ef bd 64 7b 9b bd 14 95 54 bd
       -3.2438245e-06 -0.117154695 -0.07591894 -0.051899984
0003b0 77 65 bf bd 04 d9 71 3d 4a bf 8b 3d 36 72 24 bd
       -0.09345525 0.059044853 0.06823595 -0.040147983
0003c0 47 d9 94 3d 2a a8 00 3d f8 78 31 3d 6a 0f 44 3d
       0.07268005 0.031410374 0.043328255 0.047866262
0003d0 f0 c0 e7 bc 00 29 33 3d e6 0d 02 3d 1d ca 1b bd
       -0.028290242 0.043740273 0.031751536 -0.038034547
0003e0 a5 bd 2e bd d8 4e 86 bd d7 e3 3b 3d 85 bd df bb
       -0.042661328 -0.06558007 0.045871582 -0.0068280124
0003f0 82 9a ac bd c0 3c 84 bd 63 ac a7 3d fd 98 a0 bb
       -0.084279075 -0.064569 0.08187177 -0.00490105

hiddens.6.bias f4 [20]
000000 8e fb 2e 3e cc 18 1a be b0 0b 68 bd 97 e2 73 be
       0.17088148 -0.15048522 -0.05665177 -0.23816906
000010 b8 be 1c 3e 42 61 49 be cc da 3f be 53 56 2b b9
       0.15307128 -0.19666007 -0.18735808 -0.00016339989
000020 54 20 07 3e ea ea 4f 3c ca 8d 2a be 56 8d b3 bd
       0.13195926 0.012690285 -0.1665565 -0.08767192
000030 57 c4 a8 bd 25 3c b8 bc 82 a9 e2 bd eb f8 ee bd
       -0.08240574 -0.022489617 -0.11067487 -0.11668571
000040 da fd e5 bd f4 32 a5 bd a1 3b 06 be 0a 0d 33 be
       -0.11230059 -0.08066359 -0.13108684 -0.17485443

hiddens.8.weight f4 [20, 20, 3, 3]
000000 f2 93 a1 3d e4 bf d1 bc 06 fc 13 be 7e 13 5c bc
       0.078895465 -0.025604196 -0.14451608 -0.013432382
000010 98 17 50 be c5 09 a4 be cc 0a 70 be 61 db d0 be
       -0.203215 -0.32038704 -0.23441619 -0.40792373
000020 65 ba 2c bf d8 94 df bc 91 6f d4 bd 5a 3f 5c 3d
       -0.67471915 -0.027292654 -0.10372842 0.053771354
000030 f0 03 15 be bf 38 2d 3b 7d c9 3e 3d c5 a1 e6 bc
       -0.14552283 0.0026431528 0.046578873 -0.02815331
000040 c0 28 fd bc 09 93 e8 bd 59 88 c6 bd c3 b7 f2 bd
       -0.03090322 -0.1135617 -0.09693975 -0.11851456
000050 c5 58 f4 3c 83 46 79 3d 56 27 25 3d 37 2a f0 3d
       0.029827485 0.06085826 0.040320717 0.11726802
000060 31 81 d0 3e 85 f3 39 3e cb 1c dc 3e 28 fa d6 bc
       0.40723565 0.18159302 0.42990717 -0.02624233
000070 21 68 fd be 27 ef c1 be 33 40 a5 bd 50 ab e5 be
       -0.49493507 -0.3787777 -0.08068886 -0.44857264
000080 09 23 f6 be c3 26 ff bd e8 6a 4e be 21 c0 d6 be
       -0.48073605 -0.12458565 -0.20157969 -0.41943458
000090 c0 c4 44 3e 28 3b 8c bd 18 88 41 bc bb 60 b7 3d
       0.19215679 -0.06847221 -0.011812232 0.08953997
0000a0 21 c2 85 be 6f 3e b9 bd 6a c3 ad bd 35 45 85 be
       -0.2612467 -0.090451114 -0.08484538 -0.26029363
0000b0 18 73 99 be dd 1b 8e 3b df bd 21 bb 5e 23 f9 b8
       -0.29970622 0.0043368177 -0.0024679822 -0.00011879833
0000c0 0d 24 b3 bd d4 38 c3 bd 13 98 ab bc 66 bd 96 3c
       -0.087471105 -0.095323235 -0.020946538 0.01840086
0000d0 9b fd c8 bb 81 26 2b 3d 50 34 c9 3c 29 77 06 3c
       -0.0061337478 0.041784767 0.024561077 0.008207121
0000e0 7b 4e 3f 3c de a2 18 bd a9 b0 f9 3c 39 81 83 bd
       0.011676426 -0.037264697 0.030479746 -0.06421132
0000f0 20 55 0c 3d ea 5f 27 bd 4f dc 28 3d 30 c9 05 be
       0.03426087 -0.040862955 0.041225728 -0.13065028
000100 a6 1d 1e be 21 a8 2b bd 11 35 d9 bd 9c 21 4a bd
       -0.15440997 -0.041908387 -0.10605825 -0.04934846
000110 93 bf 7d bd 26 d2 82 bd 30 3c c5 3d e8 63 1e 3e
       -0.061950278 -0.06387739 0.096306205 0.15467799
000120 be 9a 09 3e 1c 74 07 3e 38 92 af bc 30 51 a0 3d
       0.13437936 0.13227886 -0.021432027 0.07827985
000130 59 20 e9 bc 8b bc d1 bd ff d4 22 be a7 9b da be
       -0.028457807 -0.1024104 -0.15901564 -0.42696878
000140 91 2e df be 85 16 5d 3e ba 24 4c 3d 18 5c f0 3d
       -0.43590215 0.21590622 0.049839713 0.117363155
000150 6e 5c 51 3e 6d f3 4f bd 6d 3f 8b 3d cb 3e 5a 3e
       0.20445415 -0.05076926 0.06799207 0.21313016
000160 79 e3 9c bc f8 ce 5a 3c fe a1 f6 bc 84 a9 d8 bb
       -0.019151436 0.013355009 -0.03010654 -0.0066120047
000170 4e f2 94 bd b2 ab 44 bd 45 e1 40 3d 4e e5 07 3d
       -0.072727785 -0.048015304 0.047089834 0.033177666
000180 8f df 13 3e 74 de 4b bc e6 54 2b 3d 86 a8 0e be
       0.1444075 -0.012443174 0.041829012 -0.13931474
000190 1c 79 51 3e 95 44 03 3f 38 d0 95 be 7e 48 70 3d
       0.20456356 0.5127652 -0.2926042 0.058662884
0001a0 9e a0 84 3e ad f6 a0 be 15 5c ff 3c 57 d9 64 3e
       0.2590379 -0.314382 0.031171838 0.22348534
0001b0 ff 84 0c be e9 54 06 be 4b ac 82 3d 38 0f 83 bd
       -0.13722609 -0.13118328 0.063805185 -0.06399387
0001c0 15 0b e9 bb 85 c1 b9 3d 8d 1d 87 bc 79 17 9c 3c
       -0.007111917 0.09070114 -0.016493583 0.019054161
0001d0 e1 fc 17 3e 21 a4 db 3d 42 68 dd 3e 2e fa 00 3f
       0.1484256 0.107246645 0.43243605 0.50381744
0001e0 c4 3f 83 3e 29 5a 03 3e 12 92 5a 3d af 3f e1 3e
       0.25634587 0.12827362 0.05336196 0.439939
0001f0 8f e1 8b 3e 35 dc a2 3b 76 b4 a4 3d 9c 98 f3 3b
       0.27320525 0.0049700984 0.08042233 0.007433964
000200 e1 f7 be bc a8 ea e2 bc 8d 93 bf 3d 36 92 0f 3d
       -0.023311557 -0.027699783 0.09354315 0.035051547
000210 97 5e 15 3c 12 93 e7 bc af 33 bf 3c 3a cc 12 bc
       0.00911679 -0.02826837 0.023340074 -0.008959824
000220 b9 e2 0b bd 2b ff 2f 3b 3a a7 92 3d d1 ec 1e 3c
       -0.034151766 0.0026854973 0.07160802 0.009700016
000230 4c 70 75 bd 26 ba 40 3d e9 f3 ef bc de 2c f1 3b
       -0.059921548 0.047052525 -0.02929111 0.007360085
000240 05 67 05 3d c7 74 45 3c cd b0 44 3c 0c bb 2c bd
       0.03256895 0.012051768 0.012005043 -0.04217057
000250 c6 d1 35 3d 03 50 4d 3d 43 33 ae bc ba ef b4 3d
       0.04438951 0.050125133 -0.021264678 0.08834787
000260 e1 3c 22 bd 06 8b 57 3d 8f 06 ab 3d d4 6d cb bd
       -0.03960884 0.052622817 0.0835086 -0.099330574
000270 26 13 43 3e e5 56 65 3d 69 77 80 bd 52 31 60 3e
       0.19050273 0.055991072 -0.06272776 0.21893814
000280 a6 a9 48 3c 91 e6 26 be 57 8b ed 3c dd 1b b3 3c
       0.012247479 -0.16298892 0.028997106 0.021863872
000290 61 19 06 bd ad 98 00 be 7a 15 69 bd 54 3a c8 bb
       -0.032739047 -0.12558241 -0.056905247 -0.006110469
0002a0 62 9e d8 bd 27 cd bb bd d8 87 43 bd 83 a3 34 3a
       -0.10577084 -0.09169989 -0.047736973 0.000689082
0002b0 93 6a d5 3c b2 43 b7 bc bf d2 9c 3d ce b6 fb bb
       0.026051795 -0.022371147 0.07657384 -0.007681704
0002c0 6e b4 6d 3d 94 b7 ea 3d 9d 51 5a 3d 35 64 9c 3d
       0.0580334 0.11460796 0.05330049 0.076363005
0002d0 32 da 56 3d 9b cd e1 bc bb 87 02 3e 76 4f 4f 3d
       0.05245418 -0.02756386 0.1274709 0.05061289
0002e0 df f3 16 bd 98 37 a6 3c b3 d9 0f 3e d0 f6 8e 3d
       -0.036853667 0.020290181 0.1404789 0.069806695
0002f0 9a 21 58 3d 73 51 15 3e 05 01 80 3c 0f 16 7d bd
       0.05276642 0.14581852 0.015625486 -0.061788615
000300 05 30 e6 3d 98 a9 b2 3d bd 99 95 3d 20 e2 25 bd
       0.11239628 0.08723754 0.07304714 -0.040498853
000310 d2 70 fc bd e0 2a 2b 3c 8e f1 de bd 78 83 29 bd
       -0.12326206 0.010447234 -0.10885917 -0.041385144
000320 59 cd d3 bd 1c 06 97 bd 78 6d ab bd 27 d8 b9 bd
       -0.10341901 -0.07374212 -0.08370489 -0.09074431
000330 f4 84 0a be e4 13 18 be 36 5f 71 bc 06 12 cd 3e
       -0.1352728 -0.14851338 -0.014732173 0.40052813
000340 9c b5 2c 3c a6 94 93 be 5f 2e 48 3e 3c 29 86 bd
       0.010541346 -0.28824347 0.19548939 -0.065508336
000350 21 e3 82 be 05 99 58 be 96 fe a4 be a3 0a bf be
       -0.2556391 -0.21152122 -0.32225484 -0.37312803
000360 f0 69 e4 3c 79 a9 02 bd 72 65 8c 3d 96 63 df 3c
       0.027882546 -0.031899903 0.06855287 0.027269166
000370 c2 1c ff bb 9b 75 13 3d 7f 7d 91 3d 39 b3 6f 3b
       -0.0077854106 0.03600083 0.071040146 0.003657533
000380 65 a2 2a 3e 57 c7 6b 3d cb 8f 38 bd 18 11 e8 3d
       0.16663511 0.057563152 -0.045059007 0.113313854
000390 ff 53 ff bb 68 0e 82 3d 51 76 1c 3d 9a 3a cf 3c
       -0.0077919955 0.06350404 0.038198773 0.025296498
0003a0 74 e9 59 bb 0a c1 c0 3d 17 be 3d bd e1 62 03 3d
       -0.0033250721 0.09411819 -0.046323862 0.03207672
0003b0 f2 1f fe 3c b2 b4 28 3d a7 bc 38 bd e8 1e 04 3d
       0.031021092 0.04118795 -0.045101788 0.032256037
0003c0 33 0d b0 3d 17 a7 ac 3c bc df 4f bd 11 18 b5 3c
       0.085962676 0.021075768 -0.05075048 0.022106202
0003d0 99 2c bd be 77 f1 f9 3b e9 5e da bb 95 53 bf be
       -0.36948088 0.007627662 -0.006664146 -0.37368456
0003e0 5c e0 8a be be 10 3e be 84 78 d6 be b1 93 57 bd
       -0.27124298 -0.18561074 -0.4188882 -0.052631084
0003f0 ac 60 86 3d 26 c8 97 bc 5f a6 06 3e 40 15 cf bd
       0.065614074 -0.018528055 0.13149403 -0.10111475

hiddens.8.bias f4 [20]
000000 d0 ae 83 3e 98 71 99 3d 6f 61 5f be a9 12 35 be
       0.2571931 0.074923694 -0.21814512 -0.176829
000010 6a f0 81 be 7f b6 f8 be f9 97 75 3e 72 d1 6e be
       -0.25378734 -0.48576733 0.23983754 -0.23322085
000020 db 37 a3 3d 83 63 ad b9 39 11 a0 be 20 59 34 3d
       0.07969638 -0.00033071273 -0.3126314 0.04403031
000030 00 03 57 bd db 5e 08 be 5a b5 06 be 85 a2 e1 3d
       -0.052493095 -0.13317434 -0.13155118 0.11017326
000040 33 7a e3 bd ac 80 02 3e 8c 6c b6 3d 12 ae 10 3c
       -0.11107292 0.12744397 0.089074224 0.008830564
